Liu/cont/v_1/train_iter_61500.pt (torch, 978311 bytes, 9 tensors)

h0 f4 [128]
1.0397906 0.4090563 0.044799373 0.20153986 0.38355523 0.16119713 -0.3551049 0.59779733
-3.6909306 -1.7405117 -0.37688893 -0.0038200556 2.3318586 -5.176902e-05 -0.8711953 1.5051966
-0.44404677 -1.402044 -1.4585848 -0.31019196 1.1435919 -0.45956713 1.1344246 1.2770528
-0.28737268 -1.3617774 0.49392813 -1.5080463 -0.25847247 0.53475636 -1.0108255 0.28853884
1.2452891 -0.6269976 0.09927883 0.70026636 1.7332215 1.1542642 0.13487485 -0.9301979
-0.099966295 0.7762316 0.75585395 0.051585987 -0.6374909 0.27159193 -0.45076442 -1.5756165
-0.99275786 -1.5038769 -0.24154077 0.39108196 -0.6472405 0.00070233655 -0.7359641 0.34778985
-0.24524139 0.52243745 1.6231052 0.08629084 0.34732214 -1.5770175 0.58883697 -1.0016084
0.13559434 -1.0160314 -0.20617293 1.0342366 -1.6555818 -0.1935941 -0.90072864 0.020901568
1.5888 -0.15755135 0.39853528 3.118667 -0.8149919 -0.17872497 -2.2830927 -0.19991079
-0.079366766 -1.9327347 -1.1763991 1.5988337 -2.487843 1.7190988 -1.240501 1.4386115
1.5470201 0.83783627 1.2413212 1.8051095 1.6476998 -0.27780443 0.29326403 -0.4544421
2.1529593 -0.46373665 0.51454186 1.7603148 0.4544405 0.14616787 -1.7629294 -0.15329827
1.5471559 0.35597864 0.76042706 0.27273467 -0.050496195 -0.5268484 -0.32091817 -0.062184185
1.3071773 0.72470075 0.18532397 -1.0651904 0.010099472 -1.4981962 -2.4983766 -0.55948246
0.59927386 -1.6728656 0.41267928 0.07295181 -0.48853236 -0.53833985 1.0702726 1.2299073
00000000: dc17 853f d46f d13e 8c7f 373d 7760 4e3e
00000010: 5a61 c43e dc10 253e 4fd0 b5be 3f09 193f
00000020: 3538 6cc0 16c9 debf 96f7 c0be e659 7abb
00000030: 2c3d 1540 9022 59b8 a806 5fbf 48aa c03f
00000040: 195a e3be 2e76 b3bf e8b2 babf 7bd1 9ebe
00000050: 3861 923f 624c ebbe d334 913f 7776 a33f
00000060: 8322 93be b94e aebf 26e4 fc3e a907 c1bf
00000070: 8156 84be cbe5 083f bb62 81bf 5dbb 933e
00000080: a265 9f3f ea82 20bf b352 cb3d a844 333f
00000090: 34da dd3f eebe 933f a21c 0a3e 7321 6ebf
000000a0: 21bb ccbd 1db7 463f a57f 413f d44b 533d
000000b0: 9b32 23bf 190e 8b3e 98ca e6be cdad c9bf
000000c0: 6125 7ebf 0a7f c0bf 7756 77be e53b c83e
000000d0: 8eb1 25bf 021d 383a 2568 3cbf 8311 b23e
000000e0: 8f20 7bbe 76be 053f e9c1 cf3f 40b9 b03d
000000f0: 35d4 b13e b6db c9bf 05be 163f b434 80bf
00000100: 3ed9 0a3e 510d 82bf ff1e 53be dd61 843f
00000110: 1bea d3bf 883d 46be 2796 66bf c439 ab3c
00000120: cc5d cb3f 2455 21be d10c cc3e 3d98 4740
00000130: 4fa3 50bf ae03 37be 311e 12c0 6ab5 4cbe
00000140: 0b8b a2bd da63 f7bf 3f94 96bf 95a6 cc3f
00000150: d238 1fc0 6e0b dc3f bdc8 9ebf 6c24 b83f
00000160: c104 c63f 707c 563f 9de3 9e3f d40d e73f
00000170: d4e7 d23f 623c 8ebe b426 963e a3ac e8be
00000180: 16ca 0940 e46e edbe 04b9 033f ff51 e13f
00000190: 6dac e83e 08ad 153e aca7 e1bf 39fa 1cbe
000001a0: 3409 c63f d542 b63e 59ab 423f e1a3 8b3e
000001b0: 19d5 4ebd 89df 06bf 634f a4be d8b4 7ebd
000001c0: 9651 a73f fd85 393f 91c5 3d3e 2958 88bf
000001d0: 4178 253c e5c4 bfbf 67e5 1fc0 3e3a 0fbf
000001e0: 036a 193f 7620 d6bf b34a d33e c267 953d
000001f0: ea20 fabe a4d0 09bf b1fe 883f 9a6d 9d3f

c0 f4 [128]
-0.63613003 1.5661007 0.5691245 0.7606463 1.0893648 -0.6560768 -1.3922861 -1.1222086
0.05112666 1.4155786 -1.1211598 -0.485019 -1.9634327 -0.7177854 -0.19072811 0.4143507
-1.5013036 3.5892847 1.2268857 -0.32002443 -0.19197352 -0.39477077 1.1942171 -0.6211486
-0.84968686 0.21008451 -3.3373833 0.21137686 1.2367128 1.2727191 -0.12871043 0.60152
1.697906 1.570069 -0.02312665 1.0871463 -0.32624882 -0.77989405 0.5960623 -0.43271533
-0.40775806 -1.5109029 2.2744603 -1.7497041 0.829463 0.2973801 -0.43578294 0.03043673
-0.78174084 -0.5970038 1.3505089 -0.25370163 0.3192737 1.4452181 1.0397527 -0.8644747
0.6872287 1.5503942 -0.23802748 1.8519458 -0.7568231 -1.3160495 0.9260723 -1.7953153
1.8035079 0.6363611 -2.0834672 -0.31988564 -1.0255436 1.7811491 0.5163046 0.64708126
-1.2194746 1.6158398 1.426517 0.4764917 -0.099047355 -1.321875 -0.010731085 0.67105836
-1.1418648 0.3538606 1.0489604 0.8278043 -0.28328934 0.58347434 0.2909312 -0.6789603
-0.72772545 0.38535094 -1.6179171 0.7615341 1.2042239 -1.5533346 -1.8271948 0.404654
0.45222524 -0.28333968 -0.16250767 -1.8122313 2.314673 -0.05030383 0.03022736 -0.7297757
-1.2824316 0.9110151 -0.13693874 0.4922522 0.50212973 -0.9540367 -0.5950618 1.1041107
0.18529914 2.135012 0.038750686 -0.54677856 0.090985335 -1.4815022 0.29542565 0.8970793
-0.6435318 -1.1176801 -0.0005417823 -0.24414514 0.09783282 1.3389069 1.0016404 0.5619968
00000000: 6bd9 22bf fd75 c83f 25b2 113f b7b9 423f
00000010: 4e70 8b3f a6f4 27bf 6e36 b2bf 88a4 8fbf
00000020: 306a 513d ae31 b53f 2a82 8fbf 6954 f8be
00000030: c351 fbbf c9c0 37bf 3b4e 43be c625 d43e
00000040: b72a c0bf d7b6 6540 970a 9d3f 3eda a3be
00000050: b594 44be 651f cabe 1bdc 983f 9803 1fbf
00000060: 1485 59bf 6520 573e b097 55c0 2d73 583e
00000070: 9b4c 9e3f 76e8 a23f abcc 03be 37fd 193f
00000080: fc54 d93f 05f8 c83f 1a74 bdbc 9c27 8b3f
00000090: 160a a7be 23a7 47bf 8a97 183f dd8c ddbe
000000a0: aac5 d0be 4465 c1bf c290 1140 4ef6 dfbf
000000b0: b057 543f 3442 983e f11e dfbe 7356 f93c
000000c0: 2b20 48bf 3ed5 18bf 7add ac3f 2ee5 81be
000000d0: d877 a33e e8fc b83f 9e16 853f 374e 5dbf
000000e0: 38ee 2f3f 5173 c63f 7abd 73be 8f0c ed3f
000000f0: 29bf 41bf 4f74 a8bf 1313 6d3f e4cc e5bf
00000100: 59d9 e63f 90e8 223f 8757 05c0 0dc8 a3be
00000110: 0345 83bf b2fc e33f 8a2c 043f 1ea7 253f
00000120: be17 9cbf d7d3 ce3f 1c98 b63f b8f6 f33e
00000130: 57d9 cabd 3333 a9bf 6fd1 2fbc 7bca 2b3f
00000140: a028 92bf 372d b53e 5644 863f fcea 533f
00000150: 4d0b 91be 935e 153f eff4 943e 58d0 2dbf
00000160: 374c 3abf b84c c53e e817 cfbf e6f3 423f
00000170: 0224 9a3f abd3 c6bf 85e1 e9bf cf2e cf3e
00000180: 118a e73e e611 91be 6968 26be 32f7 e7bf
00000190: 9a23 1440 640b 4ebd 5e9f f73c 95d2 3abf
000001a0: b826 a4bf 4938 693f ab39 0cbe 7b08 fc3e
000001b0: 938b 003f c03b 74bf f855 18bf 8053 8d3f
000001c0: 0fbf 3d3e 09a4 0840 0ab9 1e3d aef9 0bbf
000001d0: 8556 ba3d dda1 bdbf 0842 973e fda6 653f
000001e0: 80be 24bf 2410 8fbf 6506 0eba 2f01 7abe
000001f0: 935c c83d 4d61 ab3f c135 803f 06df 0f3f

RNN.weight_ih_l0 f4 [512, 15]
0.016602604 0.046816744 -0.23389918 0.063702606 0.07677477 0.24453203 0.07282732 0.031677395
-0.020435767 0.36620414 0.18822539 -0.06321208 -0.18338463 -0.22170661 -0.022333005 0.39392284
-0.14248453 0.6071158 0.07906654 0.0069142208 0.25441593 0.25259116 -0.0055374727 0.227278
0.18097273 0.11972941 0.24194002 0.06262453 0.0991565 0.3053813 0.10625756 -0.18146719
-0.09040642 0.080876194 0.06020098 -0.84095263 0.051257454 0.06984728 -0.22457993 -0.75313425
-0.016430046 -0.33023036 -0.056771863 -0.03433646 0.15692243 0.08719369 -0.46533784 0.77490693
-0.019341387 -0.025341012 -0.07494728 0.09786197 0.028402276 0.14686178 0.0066720545 0.13540354
-0.3040826 -0.08654048 0.043217883 0.17593122 0.16872948 0.13650458 0.1577817 0.057893224
0.053713463 0.5488555 0.024108069 0.07850357 0.23262753 0.5075865 0.20570126 -0.08738366
-0.36309507 -0.26928005 0.10736841 0.17750305 -0.07382633 0.4914428 0.0046240687 0.08298024
-0.36417422 0.15022331 0.028563969 0.21044809 -0.29473254 0.06222352 0.16393906 -0.26266968
-0.14605106 0.17393124 0.16580123 0.09538246 -0.0083471425 0.058326818 0.05643294 -0.01844183
0.10933513 -0.0799371 -0.033720136 0.0073436657 -0.056553144 -0.13346532 -0.040787227 -0.03398852
0.058185615 0.014654144 0.38858122 -0.3513765 0.047537126 -0.053515095 0.33998019 -0.000104303246
0.03896571 -0.07904312 0.02677312 -0.009814783 0.056969866 -0.002804703 0.15857863 0.080056906
0.23343585 -0.120024644 0.49316546 0.018231831 -0.08001703 0.12741677 0.26946184 -0.05467721
0.06575503 0.17752187 0.56503904 -0.12638324 0.114221714 0.14200972 0.24675119 0.3811203
0.06708261 0.269678 0.07283815 -0.011535078 0.3284287 0.43203303 0.020757206 0.22716467
0.47755018 -0.24579673 0.42199016 0.09022449 0.031798337 0.30445263 -0.01484955 -0.77950656
1.44864 -0.075535126 -0.013868339 0.34186962 -0.011824869 -0.061682228 0.074841514 0.21076848
0.06533116 0.2655667 -0.07075632 0.09586949 -0.074197024 0.042161573 -0.12151484 -0.37677866
-0.04802214 0.072735794 -0.20735107 -0.034233127 -0.01123441 -0.32193324 -0.25383887 0.255727
-0.43942243 0.080029875 -0.1347556 0.0073505742 0.012185481 -0.21636944 1.0024592 0.06552126
0.086917214 0.072227664 0.030104045 0.04023958 0.3979571 0.13325745 -0.008281582 0.38077176
-0.15838681 -0.1538466 0.1267547 0.020500392 -0.28736526 0.32170996 -0.06731483 0.008148
0.7951239 0.09207356 0.022523507 -0.26882893 0.6685238 -0.08927664 -0.43710044 -0.10322446
0.06514893 0.11718555 0.21948151 0.34802148 0.14887908 -0.058872342 0.061540358 0.8586532
0.27128583 0.057668857 0.24329983 0.9647424 0.52660567 0.010961578 -0.021449998 0.31174913
0.18480295 0.18911794 0.32674032 0.047292292 -0.07664318 -0.044643987 -0.075187765 0.24128371
-0.018827356 0.24267721 -0.15769576 0.4482383 0.21611823 -0.06640871 0.111657254 0.1850835
0.0015636412 0.17607735 -0.0070803748 -0.017676048 0.06416825 -0.47688732 -0.07840282 0.07754933
0.06944291 -0.48487312 0.31628132 -0.28455478 -0.034788992 -0.12103498 0.074367724 0.20885737
00000000: 2f02 883c eac2 3f3d 4483 6fbe 8376 823d
00000010: 173c 9d3d 9b66 7a3e 7d26 953d 28c0 013d
00000020: e968 a7bc 1c7f bb3e 28be 403e 5675 81bd
00000030: 2ec9 3bbe 0f07 63be b5f3 b6bc 41b0 c93e
00000040: 77e7 11be f16b 1b3f a3ed a13d b090 e23b
00000050: ce42 823e a153 813e b073 b5bb 90bb 683e
00000060: ea50 393e b134 f53d 20bf 773e 4a41 803d
00000070: 9012 cb3d f05a 9c3e 909d d93d 89d2 39be
00000080: 0027 b9bd 6ba2 a53d 4e95 763d ac48 57bf
00000090: 56f3 513d 170c 8f3d 48f8 65be 68cd 40bf
000000a0: 4e98 86bc f413 a9be 9d89 68bd 63a4 0cbd
000000b0: 46b0 203e 9b92 b23d c340 eebe 4d60 463f
000000c0: d471 9ebc f497 cfbc f67d 99bd db6b c83d
000000d0: e4ab e83c ef62 163e 40a1 da3b 3aa7 0a3e
000000e0: b7b0 9bbe 233c b1bd 3c05 313d 5027 343e
000000f0: 6cc7 2c3e dbc7 0b3e 8791 213e 7221 6d3d
00000100: a602 5c3d cb81 0c3f 497e c53c 7bc6 a03d
00000110: e935 6e3e 30f1 013f 5aa3 523e 34f6 b2bd
00000120: 99e7 b9be 13df 89be f8e3 db3d 5cc3 353e
00000130: 4232 97bd 649e fb3e 8085 973b 8bf1 a93d
00000140: 0b75 babe 24d4 193e fcfe e93c b47f 573e
00000150: 2fe7 96be 17de 7e3d a4df 273e a47c 86be
00000160: 698e 15be 081b 323e ccc7 293e e157 c33d
00000170: 74c2 08bc 1ae8 6e3d 3a26 673d 5213 97bc
00000180: 19eb df3d 10b6 a3bd 201e 0abd 22a3 f03b
00000190: 45a4 67bd 22ab 08be 8210 27bd 8c37 0bbd
000001a0: 0a54 6e3d ef17 703c 1ef4 c63e 9fe7 b3be
000001b0: 4ab6 423d a532 5bbd e211 ae3e 61bd dab8
000001c0: 829a 1f3d 5ce1 a1bd 4d53 db3c 2fce 20bc
000001d0: 3c59 693d 1ccf 37bb 7062 223e e0f4 a33d
000001e0: cf09 6f3e 7bcf f5bd 2f80 fc3e ec5a 953c
000001f0: f8df a3bd 8b79 023e e7f6 893e 36f5 5fbd
00000200: 93aa 863d 4bc8 353e 66a6 103f 9c6a 01be
00000210: 13ed e93d ff6a 113e 58ac 7c3e 3322 c33e
00000220: 9c62 893d 3c13 8a3e 2b2c 953d a0fd 3cbc
00000230: ce27 a83e 6f33 dd3e 040b aa3c db9d 683e
00000240: 7581 f43e 23b2 7bbe 180f d83e 9ec7 b83d
00000250: f93e 023d 37e1 9b3e 874b 73bc be8d 47bf
00000260: 096d b93f 29b2 9abd 0838 63bc 8909 af3e
00000270: 18bd 41bc 81a6 7cbd 8246 993d b1d3 573e
00000280: 58cc 853d 5cf8 873e b1e8 90bd 3957 c43d
00000290: 9cf4 97bd 9db1 2c3d c6dc f8bd 22e9 c0be
000002a0: ddb2 44bd 81f6 943d d753 54be 0938 0cbd
000002b0: 8810 38bc 6fd4 a4be 2bf7 81be a6ee 823e
000002c0: fafb e0be b4e6 a33d 5ffd 09be 16dd f03b
000002d0: 9da5 473c f38f 5dbe 9550 803f 0330 863d
000002e0: a701 b23d 19ec 933d c29c f63c 42d2 243d
000002f0: 08c1 cb3e a474 083e 79af 07bc 84f4 c23e
00000300: 2730 22be f789 1dbe fccb 013e 70f0 a73c
00000310: 8a21 93be 2bb7 a43e 5cdc 89bd 307f 053c
00000320: 3d8d 4b3f 1091 bc3d 3883 b83c f2a3 89be
00000330: 6024 2b3f acd6 b6bd a1cb dfbe 5867 d3bd
00000340: cd6c 853d fafe ef3d c3bf 603e df2f b23e
00000350: c273 183e 2024 71bd be11 7c3d b2d0 5b3f
00000360: fae5 8a3e 2e36 6c3d 9723 793e 5cf9 763f
00000370: a1cf 063f 3198 333c e8b7 afbc 959d 9f3e
00000380: fc3c 3d3e 22a8 413e 824a a73e 90b5 413d
00000390: 19f7 9cbd 9ddc 36bd 0bfc 99bd 1413 773e
000003a0: d43b 9abc 6080 783e ff7a 21be 7e7f e53e
000003b0: 194e 5d3e 4a01 88bd 8fac e43d 8786 3d3e
000003c0: 18f3 cc3a 9f4d 343e 7d02 e8bb 5ccd 90bc
000003d0: a56a 833d 932a f4be a891 a0bd 2fd2 9e3d
000003e0: 1638 8e3d 4a41 f8be a0ef a13e 2ab1 91be
000003f0: e77e 0ebd 30e1 f7bd 1b4e 983d b5de 553e

RNN.weight_hh_l0 f4 [512, 128]
-0.29570097 -0.06390299 -0.26213574 0.47845837 0.32870397 0.23428833 -0.0044062496 0.34468654
0.15558317 -0.21228743 -0.3459109 0.60652655 0.18366362 0.099049926 0.36760837 0.06913521
-0.04710478 0.40510735 0.07965797 0.27343598 -0.17044243 -0.26006463 -0.37232673 0.1656472
0.116314046 0.4846256 -0.07028057 0.25206795 0.23335813 0.009567698 -0.059078902 0.21409473
0.3176497 0.01278164 0.26495832 -0.087937914 0.069634385 0.2853093 -0.30825615 -0.27960438
-0.24781 -0.25331068 0.30138397 0.045423463 0.16649818 0.24248405 -0.059800092 -0.19938023
0.12668343 -0.2063553 0.26080734 -0.25459817 0.2587818 0.36204568 -0.0003953202 -0.016611129
0.29294488 0.16119991 -0.087422386 0.25189644 -0.15138455 0.2174253 -0.0054912996 0.15481886
0.14785312 0.04424191 -0.101427816 0.1983411 -0.5638324 0.06407393 -0.57970166 0.06629091
0.56602085 -0.34886312 -0.052344248 -0.03307227 -0.27464014 0.060838565 -0.37115803 -0.09288145
0.025074191 -0.010792573 0.21711397 0.4885763 0.110690765 0.090063594 0.10959894 -0.09465837
0.38090235 0.29571626 -0.22406457 0.5149548 -0.26765904 0.05251252 -0.03838093 -0.12347084
0.40836388 -0.2060946 0.3391087 -0.0707443 0.30515543 0.0685418 -0.18526134 -0.02870182
0.49806327 0.03860821 -0.10484237 0.3380622 0.3254727 -0.17098817 -0.22784972 -0.05138431
0.09911953 -0.18410148 -0.03599828 -0.25781173 -0.15288511 -0.10833934 -0.009332806 -0.01862333
0.0067010587 -0.036327418 0.1869619 0.264088 0.46345216 -0.2675808 -0.06187178 -0.08415064
0.02733157 -0.029949475 0.29748398 0.364531 0.1375944 0.13048124 0.19044472 0.22983676
0.050526142 -0.027703442 -0.17163244 -0.08767314 0.020372903 -0.16366711 0.088468984 -0.34543407
-0.2641075 -0.40744036 0.42151144 -0.35624436 0.28359887 0.17840497 0.05896593 0.4829619
-0.3825482 -0.33832347 -0.35347363 -0.15576403 0.2479425 0.31689435 0.18270032 0.48929593
0.34114268 0.38538668 0.04568214 0.09816459 0.09782615 0.24065977 0.3963407 0.36261517
-0.30189964 0.27605677 0.18222351 -0.19483382 0.3740751 -0.37541547 0.20987841 -0.5019026
0.053006556 -0.3761803 0.21266043 0.029201873 -0.2744224 -0.07412591 0.27760255 0.013957751
-0.20736893 -0.14062016 0.19420117 0.014762425 0.28143016 0.0024457115 -0.3812064 0.025180554
0.334729 0.12503006 0.33292282 0.18481234 0.21193966 -0.08220543 0.16669974 0.19701171
0.12558697 -0.48562354 0.10086493 0.015450624 0.36722845 0.31627244 -0.1244522 -0.33790392
-0.08116556 0.076683134 -0.24188133 0.22424339 -0.24718548 -0.2413898 -0.04159553 0.20390964
-0.097608455 -0.09304087 -0.2111933 0.2055321 0.016967725 0.20246983 0.2915357 0.26656944
-0.46424463 -0.17065217 0.27438012 0.25706208 0.14972194 0.32367605 -0.42789805 0.3831461
-0.20352675 0.1818062 0.12968954 0.4594393 0.011817839 -0.37994736 0.23008135 0.04481171
-0.10239819 -0.08609056 -0.33461228 -0.32858148 -0.12577848 0.07731748 0.46486753 -0.5052551
0.098078586 -0.02631513 -0.064262606 0.29261467 0.2145253 -0.037304718 0.1975092 0.002304106
00000000: 1e66 97be 92df 82bd a836 86be 7ff8 f43e
00000010: e34b a83e 48e9 6f3e 4d62 90bb c17a b03e
00000020: 3251 1f3e e061 59be 3c1b b1be 5345 1b3f
00000030: 5112 3c3e b0da ca3d 2a37 bc3e c396 8d3d
00000040: f1f0 40bd 3b6a cf3e b823 a33d cdff 8b3e
00000050: 7688 2ebe 3127 85be 9ca1 bebe 6b9f 293e
00000060: 0f36 ee3d d920 f83e 42ef 8fbd 0d0f 813e
00000070: 6ff5 6e3e d6c1 1c3c b8fc 71bd a63b 5b3e
00000080: fba2 a23e 156a 513c 9ea8 873e cb18 b4bd
00000090: 799c 8e3d 1014 923e c0d3 9dbe 4e28 8fbe
000000a0: e8c1 7dbe f0b1 81be 004f 9a3e f40d 3a3d
000000b0: 807e 2a3e bd4d 783e f1f0 74bd 552a 4cbe
000000c0: 4db9 013e ce4e 53be 8a88 853e b15a 82be
000000d0: 0c7f 843e 0d5e b93e fb42 cfb9 1014 88bc
000000e0: dffc 953e 9711 253e 820a b3bd 92f8 803e
000000f0: 8d04 1bbe bda4 5e3e 5cf0 b3bb d688 1e3e
00000100: cf66 173e 0137 353d 63b9 cfbd ee19 4b3e
00000110: 5257 10bf 3139 833d 5467 14bf 87c3 873d
00000120: bee6 103f 309e b2be ec66 56bd ca76 07bd
00000130: a29d 8cbe dc31 793d 6d08 bebe a138 bebd
00000140: 6468 cd3c 55d3 30bc 2053 5e3e ac26 fa3e
00000150: d7b1 e23d 4373 b83d 6975 e03d 3fdc c1bd
00000160: a205 c33e 1f68 973e 2f71 65be 14d4 033f
00000170: 9b0a 89be 5e17 573d 5235 1dbd 48de fcbd
00000180: 1215 d13e 760a 53be a89f ad3e 63e2 90bd
00000190: 553d 9c3e a55f 8c3d 26b5 3dbe 1420 ebbc
000001a0: 2602 ff3e a423 1e3d 99b7 d6bd 7d16 ad3e
000001b0: 5ca4 a63e 8617 2fbe 7051 69be 5b78 52bd
000001c0: 2eff ca3d 1985 3cbe ef72 13bd e6ff 83be
000001d0: ea8d 1cbe 04e1 ddbd a0e8 18bc f48f 98bc
000001e0: 8e94 db3b 0fcc 14bd f172 3f3e 8b36 873e
000001f0: 9a49 ed3e 5a00 89be 436d 7dbd 2c57 acbd
00000200: 75e6 df3c 9a58 f5bc d24f 983e cfa3 ba3e
00000210: 8ce5 0c3e e09c 053e f103 433e 545a 6b3e
00000220: 80f4 4e3d 54f2 e2bc 6ac0 2fbe fa8d b3bd
00000230: 13e5 a63c 5a98 27be 3a2f b53d bcdc b0be
00000240: 1939 87be 069c d0be 59d0 d73e a965 b6be
00000250: df33 913e cbaf 363e 4286 713d c846 f73e
00000260: 5cdd c3be bc38 adbe 7ffa b4be 9b80 1fbe
00000270: a4e4 7d3e fa3f a23e cb15 3b3e ff84 fa3e
00000280: 41aa ae3e 6751 c53e 321d 3b3d 840a c93d
00000290: 1459 c83d 846f 763e 2bed ca3e b2a8 b93e
000002a0: 9792 9abe 5057 8d3e cd98 3a3e 8482 47be
000002b0: c686 bf3e 7536 c0be 5eea 563e b07c 00bf
000002c0: 671d 593d b49a c0be a8c3 593e c438 ef3c
000002d0: 1881 8cbe 53cf 97bd ec21 8e3e 0daf 643c
000002e0: 8558 54be bbfe 0fbe acdc 463e 19de 713c
000002f0: 9d17 903e 3b48 203b 7c2d c3be 7347 ce3c
00000300: 9961 ab3e e107 003e dc74 aa3e 723f 3d3e
00000310: b606 593e 525b a8bd 56b3 2a3e 70bd 493e
00000320: df99 003e a6a3 f8be 4692 ce3d 9d24 7d3c
00000330: 5e05 bc3e 76ee a13e cce0 febd be01 adbe
00000340: 213a a6bd 0c0c 9d3d bdaf 77be 0fa0 653e
00000350: 311e 7dbe e32e 77be 1360 2abd b0cd 503e
00000360: f1e6 c7bd 368c bebd 0e43 58be 0277 523e
00000370: e6ff 8a3c 4054 4f3e 2b44 953e ca7b 883e
00000380: 79b1 edbe 71bf 2ebe 8d7b 8c3e a49d 833e
00000390: b550 193e deb8 a53e 7415 dbbe ba2b c43e
000003a0: 5169 50be 682b 3a3e 56cd 043e a13b eb3e
000003b0: 9c9f 413c 7688 c2be 729a 6b3e 7c8c 373d
000003c0: 24b6 d1bd 3f50 b0bd 4d52 abbe d53b a8be
000003d0: 13cc 00be a158 9e3d 1e03 ee3e 6658 01bf
000003e0: 6ddd c83d d492 d7bc 1d9c 83bd 97d1 953e
000003f0: 85ac 5b3e d5cc 18bd da3f 4a3e 7c00 173b

RNN.bias_ih_l0 f4 [512]
-0.14138567 0.37090957 0.03603754 0.060087144 0.14688288 0.19780932 0.009688388 -0.064882904
0.13572676 0.5718454 0.013019963 -0.15461478 0.18860391 -0.1399195 0.44394925 0.12215437
0.064505585 0.3150243 0.27726418 -0.0636118 0.06924502 -0.26044023 0.032675177 0.25842956
0.28338575 0.34859353 0.28889653 -0.39454857 0.60833234 0.16214974 0.052535962 0.1926741
-0.28939867 -0.06255781 0.44495362 0.67476076 0.43581188 -0.24857922 -0.16538797 0.01455672
0.09631126 0.04481984 0.40583345 0.04472327 0.23038669 -0.052124485 0.1261108 -0.22281401
0.43451875 0.13915686 -0.14604515 -0.11081819 -0.1729642 -0.011529833 0.30985668 -0.045566432
-0.40232903 0.010034438 0.25916794 0.32558307 0.07951652 -0.11383451 0.09704933 0.32688814
-0.2201738 0.28134403 0.273268 -0.09127091 0.1814941 0.52097756 -0.0022021097 0.27741006
0.168353 0.23483348 0.18536676 -0.28328148 -0.029469334 0.11608361 -0.07341332 0.119042404
-0.030089349 0.44886804 -0.093998514 -0.12718906 0.17669493 0.16833837 0.037277192 -0.2533092
-0.20756644 -0.05268894 0.13240473 -0.06485331 0.08412746 -0.28120634 0.2564043 0.17606238
0.213444 0.20150588 0.02242287 -0.23410434 0.21380343 0.006671536 0.03988774 0.14975326
0.09212613 -0.2649624 0.111639105 0.24313205 0.15393682 0.21474124 0.27663672 0.50648534
0.029705385 0.6113646 -0.09393116 0.13166595 -0.009563062 -0.0843831 0.26948228 0.14987846
0.17455682 0.49687925 -0.31058776 -0.034834765 -0.04228594 0.1580515 0.2529333 0.13400449
-0.47886366 -0.1896064 0.08405421 -0.22918952 -0.7638737 -0.28079435 0.11368968 -0.015755286
0.0065660304 -0.08309041 -0.057765394 0.29703462 -0.10723542 0.0034261935 -0.054403223 0.21055679
-0.036701083 0.061582454 0.2251843 0.15368092 0.09199748 0.2408111 0.103853896 0.2730047
-0.060734566 0.22042705 -0.15549663 0.13606049 -0.40025666 0.13053726 0.099267036 0.16258512
0.07758252 -0.11041835 -0.24037224 -0.4677164 -0.3702544 0.15467092 -0.18309814 0.089994214
-0.16306446 0.1375322 0.18424252 -0.082415245 0.15364556 -0.02017911 0.15309289 -0.38528788
-0.17954075 -0.13258353 -0.02597727 -0.19825305 0.15148494 -0.13910843 0.17257643 0.12173513
0.22385858 0.032116756 -0.30615813 -0.006561629 -0.011535785 -0.0818959 0.13715762 -0.2745883
0.046322804 0.14735138 -0.013639255 -0.042686492 -0.27559945 -0.46829057 -0.13291228 -0.09941611
0.057310034 0.27763084 -0.2058521 0.21590279 0.11132662 -0.017958969 -0.23422973 0.08922158
0.038072146 -0.594469 0.058279995 0.06771826 0.26257122 0.2115733 -0.11609456 0.35256064
-0.2928907 0.15077123 0.21526092 -0.46711543 -0.040961925 -0.22007315 0.16767381 -0.18853992
-0.089695975 0.10726237 -0.1464086 -0.0012205133 -0.3686469 0.005327579 -0.03977314 -0.040393744
-0.101013094 -0.008672919 0.13007295 -0.6210436 -0.0020127126 0.29051977 -0.18961246 -0.37305135
0.18452963 -0.68369335 0.09132582 -0.025341043 -0.39464077 0.17773762 0.20114611 0.18930452
0.20104633 -0.33012116 -0.18330106 -0.13267776 -0.04659019 -0.1671846 0.31915402 -0.09842471
00000000: 68c7 10be dce7 bd3e 199c 133d f01d 763d
00000010: 7768 163e 878e 4a3e 0bbc 1e3c 54e1 84bd
00000020: f5fb 0a3e 7664 123f af51 553c 5653 1ebe
00000030: 6221 413e 0f47 0fbe 514d e33e 122c fa3d
00000040: 811b 843d dd4a a13e 92f5 8d3e e746 82bd
00000050: 55d0 8d3d 6c58 85be 68d6 053d e150 843e
00000060: f017 913e da7a b23e 3fea 933e 4502 cabe
00000070: abbb 1b3f 950a 263e f32f 573d 5c4c 453e
00000080: 102c 94be 4f1e 80bd f6d0 e33e 1fbd 2c3f
00000090: bc22 df3e 8d8b 7ebe 775b 29be 4f7f 6e3c
000000a0: d63e c53d 0295 373d 67c9 cf3e bf2f 373d
000000b0: 7dea 6b3e 7c80 55bd 3123 013e 5b29 64be
000000c0: 3e79 de3e 237f 0e3e dc8c 15be a6f4 e2bd
000000d0: 871d 31be a0e7 3cbc 89a5 9e3e dea3 3abd
000000e0: 12fe cdbe 7c67 243c a9b1 843e d3b2 a63e
000000f0: 8fd9 a23d 1122 e9bd cdc1 c63d e25d a73e
00000100: 3e75 61be 530c 903e c9e9 8b3e 3eec babd
00000110: 97d9 393e c95e 053f 4551 10bb b108 8e3e
00000120: bb64 2c3e 3078 703e c9d0 3d3e 450a 91be
00000130: ac69 f1bc 3ebd ed3d b959 96bd 81cc f33d
00000140: f07d f6bc 08d2 e53e 4b82 c0bd d93d 02be
00000150: 84ef 343e e560 2c3e f8af 183d beb1 81be
00000160: 4c8c 54be 5cd0 57bd 1b95 073e d0d1 84bd
00000170: 054b ac3d 47fa 8fbe 6d47 833e b249 343e
00000180: 1091 5a3e 8f57 4e3e 2bb0 b73c 0cb9 6fbe
00000190: 49ef 5a3e e69c da3b 5461 233d eb58 193e
000001a0: a0ac bc3d 27a9 87be 0ba3 e43d 9cf7 783e
000001b0: 9da1 1d3e 21e5 5b3e 54a3 8d3e 06a9 013f
000001c0: b558 f33c 6482 1c3f fb5e c0bd 70d3 063e
000001d0: 64ae 1cbc 0cd1 acbd 95f9 893e bd79 193e
000001e0: 06bf 323e f566 fe3e 5c05 9fbe e6ae 0ebd
000001f0: 0634 2dbd 41d8 213e 7980 813e 7938 093e
00000200: 9e2d f5be 2e28 42be 9d24 ac3d a8b0 6abe
00000210: 3a8d 43bf 47c4 8fbe 23d6 e83d 3b11 81bc
00000220: db27 d73b 4e2b aabd 689b 6cbd ec14 983e
00000230: 3e9e dbbd fd89 603b ead5 5ebd 339c 573e
00000240: e053 16bd e23d 7c3d b796 663e 885e 1d3e
00000250: 2d69 bc3d 2f97 763e 5ab1 d43d 46c7 8b3e
00000260: cfc4 78bd a1b7 613e 823a 1fbe 7153 0b3e
00000270: 71ee ccbe 8fab 053e 844c cb3d b77c 263e
00000280: 96e3 9e3d 0423 e2bd 2424 76be 8678 efbe
00000290: fc91 bdbe 0e62 1e3e 147e 3bbe e34e b83d
000002a0: 5ffa 26be 3ed5 0c3e 12aa 3c3e 53c9 a8bd
000002b0: 4355 1d3e a94e a5bc 62c4 1c3e 7444 c5be
000002c0: 88d9 37be fac3 07be 49ce d4bc d902 4bbe
000002d0: de1e 1b3e 7172 0ebe e0b7 303e 4550 f93d
000002e0: 2f3b 653e dc8c 033d c2c0 9cbe ef02 d7bb
000002f0: 9700 3dbc 0ab9 a7bd 0c73 0c3e d696 8cbe
00000300: fbbc 3d3d 48e3 163e 2f77 5fbc 08d8 2ebd
00000310: 5f1b 8dbe c8c3 efbe 281a 08be ac9a cbbd
00000320: edbd 6a3d a125 8e3e e5ca 52be 9f15 5d3e
00000330: 36ff e33d b01e 93bc ebd9 6fbe ceb9 b63d
00000340: 8af1 1b3d 1f2f 18bf 01b7 6e3d dfaf 8a3d
00000350: bc6f 863e aca6 583e fcc2 edbd d482 b43e
00000360: c5f5 95be c663 1a3e 5c6d 5c3e c129 efbe
00000370: b1c7 27bd db5a 61be afb2 2b3e 9c10 41be
00000380: 86b2 b7bd 60ac db3d 23ec 15be a1f9 9fba
00000390: 49bf bcbe f992 ae3b 29e9 22bd e973 25bd
000003a0: f4df cebd dc18 0ebc d831 053e b7fc 1ebf
000003b0: b7e7 03bb 02bf 943e c529 42be 9600 bfbe
000003c0: 56f5 3c3e 8706 2fbf 0809 bb3d 0598 cfbc
000003d0: 5b0e cabe da00 363e 3ff9 4d3e 0bd9 413e
000003e0: 17df 4d3e a405 a9be 46b3 3bbe aedc 07be
000003f0: 5bd5 3ebd 7132 2bbe 2868 a33e e592 c9bd

RNN.bias_hh_l0 f4 [512]
-0.046862222 0.411629 0.018687585 0.04157653 0.15710317 0.14287208 0.04030243 -0.07147516
0.13705264 0.43673083 0.07771364 -0.15554063 0.10283642 0.032519914 0.43327254 0.20926929
0.04984739 0.268237 0.17543066 0.0073518837 -0.07819497 -0.21883085 -0.10762355 0.27623448
0.34030828 0.36112106 0.13473293 -0.47525576 0.62172234 0.15515766 0.060302462 0.1407606
-0.12319809 -0.017325057 0.52056456 0.6505511 0.3633538 -0.18926144 -0.092680715 0.10590219
-0.024993818 -0.041449502 0.27934977 -0.0797671 0.33832616 -0.05914007 0.12410644 -0.16721666
0.58557886 0.1707627 -0.038630143 -0.110638104 -0.19662839 -0.03084422 0.16554016 -0.03119191
-0.30459931 0.11335038 0.18129732 0.289732 0.028277365 -0.11776401 -0.004056367 0.32669747
-0.23502775 0.25256085 0.1487042 -0.0524533 0.17299642 0.41932967 -0.085058175 0.16059265
0.1634312 0.19658612 0.122491695 -0.2710291 -0.06882336 0.14571811 -0.11157787 0.037517652
-0.044088934 0.38673118 -0.12891972 -0.16450493 0.34648702 0.2604514 -0.06071082 -0.09526955
-0.2194029 0.068747565 0.1462122 0.01753508 0.0058981534 -0.18903892 0.18075982 0.038095955
0.19826092 0.14765209 -0.006488273 -0.2891285 0.21990104 0.029147737 -0.06296066 0.15701364
-0.00064901024 -0.24149312 0.06950735 0.21572325 0.12801516 0.2605273 0.12263815 0.52928877
0.119833305 0.56949216 -0.05400155 0.24720843 0.022880966 -0.039123453 0.20418236 0.14928359
0.14290689 0.4516235 -0.20604938 -0.0331991 0.08171012 0.10850195 0.30831778 0.2919803
-0.41569328 -0.13621676 0.018985149 -0.3592131 -0.7349466 -0.27092493 0.06186721 -0.033642605
0.12244811 -0.19962113 -0.10146335 0.3102259 -0.24037352 -0.048345402 0.017624913 0.078216866
-0.11191777 0.108853295 0.18269044 0.20646918 0.15212232 0.284964 0.17796783 0.13802584
-0.020853078 0.18641134 -0.06925135 0.23331074 -0.24342845 0.22935297 0.12995014 0.25346103
0.08840994 -0.14666349 -0.23082034 -0.3244011 -0.35637173 0.10375336 -0.122642614 0.12085667
-0.24499258 0.16251382 0.17931119 -0.04611194 0.17499289 0.026726758 0.19702105 -0.28594905
-0.09727741 -0.054543633 -0.054467387 -0.13493742 0.032147355 -0.08391685 0.23128168 0.11726299
0.22684284 0.1430405 -0.2513189 -0.06385424 -0.02302063 -0.15578191 0.19004673 -0.33232293
0.056428228 0.11224897 -0.11505786 -0.064157195 -0.18460539 -0.3951291 -0.10195994 -0.17351198
-0.031113999 0.31200033 -0.3146425 0.04958102 0.22655949 -0.06297551 -0.19350329 0.1857983
-0.10901319 -0.74145764 0.15119061 0.048306406 0.2741366 0.26484162 -0.19470027 0.38686186
-0.3654875 0.18970694 0.22267826 -0.4578071 0.0058434084 -0.28260177 0.18156555 -0.12121131
-0.14460477 0.16651572 -0.044459954 0.0021439497 -0.29968718 -0.014313451 0.011215766 0.057091616
-0.116361946 -0.015023236 0.19495319 -0.6301638 0.02610252 0.28234103 -0.25578848 -0.2310509
0.101567276 -0.61240244 -0.011161895 -0.0510426 -0.31713367 0.1582626 0.2850501 0.10411769
0.081829906 -0.25645053 -0.23120555 -0.14509475 -0.10155266 -0.15267852 0.16744296 -0.066274576
00000000: 9af2 3fbd 09c1 d23e b516 993c 274c 2a3d
00000010: a7df 203e 0f4d 123e 2914 253d 9261 92bd
00000020: 8757 0c3e 2f9b df3e 5428 9f3d 0b46 1fbe
00000030: e79b d23d 9a33 053d e6d5 dd3e b04a 563e
00000040: c72c 4c3d 5c56 893e 18a4 333e 12e8 f03b
00000050: af24 a0bd 3215 60be bc69 dcbd 9b6e 8d3e
00000060: e33c ae3e dce4 b83e 6ef7 093e b954 f3be
00000070: 3229 1f3f a6e1 1e3e b7ff 763d 8c23 103e
00000080: 484f fcbd 47ed 8dbc b843 053f 848a 263f
00000090: 8209 ba3e c0cd 41be 63cf bdbd 3fe3 d83d
000000a0: d6bf ccbc f4c6 29bd ef06 8f3e ef5c a3bd
000000b0: 1639 ad3e dc3c 72bd 842b fe3d d83a 2bbe
000000c0: 7fe8 153f 6bdc 2e3e a43a 1ebd 3b96 e2bd
000000d0: f458 49be 05ad fcbc 5c83 293e 2d86 ffbc
000000e0: 71f4 9bbe 3e24 e83d 01a6 393e c157 943e
000000f0: efa5 e73c 422e f1bd 46eb 84bb e444 a73e
00000100: 1dab 70be a84f 813e ea45 183e 46d9 56bd
00000110: f925 313e 61b2 d63e fb32 aebd 6672 243e
00000120: 825a 273e df4d 493e eddc fa3d 54c4 8abe
00000130: 43f3 8cbd 2137 153e f082 e4bd 1cac 193d
00000140: 9996 34bd a101 c63e 8803 04be fb73 28be
00000150: bf66 b13e e359 853e e9ab 78bd af1c c3bd
00000160: 27ab 60be 86cb 8c3d a7b8 153e baa5 8f3c
00000170: 4c45 c13b 6b93 41be 1a19 393e 810a 1c3d
00000180: e904 4b3e 1c32 173e 949b d4bb a708 94be
00000190: bd2d 613e 3cc7 ee3c 85f1 80bd 2fc8 203e
000001a0: 5722 2aba f949 77be df59 8e3d 8ee6 5c3e
000001b0: 6816 033e d663 853e b629 fb3d 787f 073f
000001c0: 2a6b f53d 3dca 113f bb30 5dbd 3524 7d3e
000001d0: dd70 bb3c ea3f 20bd 2e15 513e ccdd 183e
000001e0: 2f56 123e 323b e73e 9cfe 52be c8fb 07bd
000001f0: a357 a73d 4536 de3d d4db 9d3e 717e 953e
00000200: c0d5 d4be 687c 0bbe be86 9b3c c8ea b7be
00000210: 7625 3cbf acb6 8abe 7968 7d3d d4cc 09bd
00000220: 13c6 fa3d 7b69 4cbe 04cc cfbd eed5 9e3e
00000230: 7a24 76be d405 46bd 1f62 903c 2a30 a03d
00000240: 2535 e5bd 7aee de3d 3413 3b3e a86c 533e
00000250: f4c5 1b3e cde6 913e 333d 363e a556 0d3e
00000260: 13d4 aabc 9de2 3e3e a7d3 8dbd 03e9 6e3e
00000270: 4f45 79be 81db 6a3e a611 053e a5c5 813e
00000280: 4510 b53d f42e 16be 2b5c 6cbe e717 a6be
00000290: 5b76 b6be a47c d43d 0d2c fbbd b483 f73d
000002a0: 56df 7abe 066a 263e 5a9d 373e e0df 3cbd
000002b0: 5631 333e 13f2 da3c e3bf 493e ea67 92be
000002c0: 6139 c7bd 2569 5fbd 3219 5fbd 092d 0abe
000002d0: f2ac 033d 99dc abbd 1bd5 6c3e 9427 f03d
000002e0: 7d49 683e 3579 123e dfac 80be 03c6 82bd
000002f0: c395 bcbc 4b85 1fbe 9c9b 423e 3b26 aabe
00000300: 4921 673d cae2 e53d 75a3 ebbd d964 83bd
00000310: 3209 3dbe 5d4e cabe 5fd0 d0bd 20ad 31be
00000320: c9e2 febc 82be 9f3e d218 a1be 7815 4b3d
00000330: 36ff 673e 4ef9 80bd ba25 46be e941 3e3e
00000340: 4f42 dfbd 2bd0 3dbf b6d1 1a3e f0dc 453d
00000350: a25b 8c3e 5299 873e 825f 47be c212 c63e
00000360: 2d21 bbbe 8942 423e c505 643e b165 eabe
00000370: 107a bf3b 2eb1 90be 52ec 393e a33d f8bd
00000380: 4613 14be 1983 2a3e a41b 36bd 8281 0c3b
00000390: 9970 99be f782 6abc 55c2 373c e6d8 693d
000003a0: 2c4f eebd 0524 76bc cfa1 473e 6a52 21bf
000003b0: f4d4 d53c 018f 903e b5f6 82be 9b98 6cbe
000003c0: 8102 d03d 68c6 1cbf 61e0 36bc 0c12 51bd
000003d0: 585f a2be 970f 223e 16f2 913e a83b d53d
000003e0: 7096 a73d 7c4d 83be 26c1 6cbe b893 14be
000003f0: d7fa cfbd c257 1cbe 2b76 2b3e f7ba 87bd

actor.weight f4 [5, 128]
-0.8414979 0.46387652 -0.32875183 -0.5063323 -0.46487492 -0.680671 0.7995091 -0.006231456
0.33203542 0.6978175 0.13474065 0.49934527 -0.5688494 0.70070654 0.18211982 -0.49769327
0.09588801 0.990869 0.30023503 -0.24359286 0.45674998 -0.16578864 -0.7787686 0.3040782
0.42751026 0.3804881 -0.26101983 -0.43312645 -0.16644993 0.48716417 -0.6694129 0.022920763
-0.30091956 -0.6488042 -0.64803314 0.15379903 -0.85732156 0.052253656 0.22576033 0.45642403
0.24790093 0.3270321 0.54533225 -0.507577 0.20021728 -0.06308035 0.46695015 -0.2274107
-0.68799305 -0.10093132 -0.11033587 0.41369295 0.008812251 -0.3807677 0.5195142 0.5037384
0.15329741 -0.553071 -0.69931746 -0.25873798 -1.0755079 0.17431825 -0.5021289 -0.62698203
0.26205942 0.57776785 0.32439533 -0.84670913 0.8837909 0.65015966 -0.49937922 0.6940592
0.36524075 -0.18292677 0.6041622 -0.7163064 0.25014532 0.023346504 0.58933544 -0.5621856
-0.2491236 -0.57750297 -0.05635311 -0.062896535 -0.72402686 -0.655881 -0.26087582 -0.16481215
0.16783379 -1.5876716 0.5640972 0.021464916 0.8710179 0.17924349 0.60642314 0.6038167
0.6563736 -0.7839518 0.023916809 0.16941607 -0.56835526 -0.32383063 0.3026988 -0.19003366
-0.5778441 0.08004489 0.42122594 0.4474679 -0.48857692 -0.5332262 0.3329669 0.28233704
-0.65221626 0.72131103 -0.263835 -0.045223612 0.046261627 0.53191495 0.34655443 -0.20081407
-0.02974606 -0.6409219 -0.8295779 0.20169498 -0.65504044 0.4266512 0.7262882 -0.28812492
0.09565064 0.61241555 0.2063426 -0.06601038 -0.48707426 -0.38826805 0.36486566 0.15773667
0.038182225 0.46636385 -0.8362465 -0.45352158 -0.5132046 -0.7860753 -0.42677274 -0.21482086
0.2551319 -0.874458 -0.13396771 -0.12774989 0.12702009 -0.07423682 0.5904882 -0.1994369
-0.49633634 0.08482153 1.041837 0.62780404 -0.7564933 0.3691638 0.35298827 0.17917146
0.44432032 -0.21835643 -0.12167144 -0.5159917 -0.09861095 -0.10537005 0.16118385 -0.1565241
-0.57736677 0.20276816 -0.3927835 -0.06120641 0.043535512 0.24480428 0.47029507 0.16509546
-0.31777304 -0.3450388 0.3747128 -0.038968276 0.31869248 -0.023589354 0.4060456 0.23281097
0.03697291 -0.169896 0.26211157 -0.71668273 0.35948104 0.06597587 0.28125826 -0.32801178
0.09541502 0.35347277 -0.22869629 0.34738526 -1.3001096 0.5175715 0.5102457 0.3485608
-0.17498834 -0.11589187 0.32236212 0.14175616 0.32488674 0.5491911 -0.64347 -0.26187694
0.7333825 -0.38395825 -0.08743617 0.26422185 -0.36317575 -0.3583816 0.51285815 -0.40494466
0.21291873 1.4227415 -0.99439126 0.35055244 -1.0325047 -0.07524098 0.5238832 0.33697662
-0.49279264 0.2577792 0.340962 0.15578519 -0.40093666 0.5453831 -0.23142357 0.3665321
0.55406165 -0.21275206 0.12000603 0.33651227 0.8706258 0.40412074 0.4830337 0.7311071
-0.3178334 0.3305337 -0.19009201 -0.20541245 -0.29140487 0.36912555 -0.11598465 -0.08906144
-0.24333227 -0.3164662 1.0953137 -0.10987853 -0.12812306 0.43198738 0.43407685 0.55810905
00000000: 686c 57bf 3981 ed3e 2952 a8be fe9e 01bf
00000010: 1604 eebe 7440 2ebf a1ac 4c3f 3e31 ccbb
00000020: 8c00 aa3e 2ba4 323f 74f9 093e 2faa ff3e
00000030: 1da0 11bf 8161 333f 9e7d 3a3e a7d1 febe
00000040: ef60 c43d 97a9 7d3f 68b8 993e 6870 79be
00000050: 22db e93e 7fc4 29be 615d 47bf 23b0 9b3e
00000060: a0e2 da3e 56cf c23e 64a4 85be c0c2 ddbe
00000070: da71 2abe 956d f93e a55e 2bbf 53c4 bb3c
00000080: 2112 9abe 0818 26bf 80e5 25bf 7e7d 1d3e
00000090: 6d79 5bbf ee07 563d b72d 673e 69b0 e93e
000000a0: bed9 7d3e c070 a73e e59a 0b3f 91f0 01bf
000000b0: c205 4d3e 4530 81bd 1714 ef3e 5ade 68be
000000c0: 5020 30bf 14b5 cebd c6f7 e1bd 90cf d33e
000000d0: 4261 103c fcf3 c2be e2fe 043f 00f5 003f
000000e0: fff9 1c3e 1096 0dbf 7806 33bf 4e79 84be
000000f0: 3eaa 89bf 7c80 323e 858b 00bf e581 20bf
00000100: a72c 863e 98e8 133f 2517 a63e eec1 58bf
00000110: 1f40 623f dd70 263f a2ae ffbe ddad 313f
00000120: d600 bb3e 2851 3bbe 60aa 1a3f db5f 37bf
00000130: 0c13 803e 2b41 bf3c b0de 163f 65eb 0fbf
00000140: 421a 7fbe 3cd7 13bf 85d2 66bd e6cf 80bd
00000150: d359 39bf d1e7 27bf 8491 85be 84c4 28be
00000160: 9fdc 2b3e d338 cbbf ad68 103f 31d7 af3c
00000170: 07fb 5e3f 9b8b 373e 8c3e 1b3f bb93 1a3f
00000180: 1a08 283f 11b1 48bf 2fed c33c 687b 2d3e
00000190: bb7f 11bf 21cd a5be 56fb 9a3e 2f98 42be
000001a0: 97ed 13bf 93ee a33d edaa d73e 831a e53e
000001b0: c126 fabe 8381 08bf a37a aa3e 7b8e 903e
000001c0: a5f7 26bf d7a7 383f 6215 87be 653c 39bd
000001d0: d57c 3d3d 942b 083f 956f b13e 34a2 4dbe
000001e0: 02ae f3bc 7513 24bf 385f 54bf 2189 4e3e
000001f0: bbb0 27bf 0772 da3e 06ee 393f 1c85 93be
00000200: 7ce4 c33d 44c7 1c3f 794b 533e 7330 87bd
00000210: cc61 f9be 12cb c6be accf ba3e b985 213e
00000220: f764 1c3d 3ec7 ee3e 4014 56bf fb33 e8be
00000230: 6061 03bf 3b3c 49bf f581 dabe 00fa 5bbe
00000240: a6a0 823e 7bdc 5fbf d52e 09be ded0 02be
00000250: 8e11 023e 7909 98bd 3c2a 173f 3039 4cbe
00000260: cc1f febe e9b6 ad3d ea5a 853f c4b7 203f
00000270: 8ba9 41bf 0a03 bd3e e1ba b43e b978 373e
00000280: f47d e33e d498 5fbe e02e f9bd 0818 04bf
00000290: 8af4 c9bd 41cc d7bd 610d 253e db47 20be
000002a0: 4fce 13bf 75a2 4f3e eb1a c9be 93b3 7abd
000002b0: 4b52 323d f9ad 7a3e 84ca f03e c90e 293e
000002c0: 26b3 a2be eda8 b0be 5bda bf3e 339d 1fbd
000002d0: a92b a33e 763e c1bc 35e5 cf3e 0066 6e3e
000002e0: e870 173d 38f9 2dbe 7d33 863e 8578 37bf
000002f0: e60d b83e 5b1e 873d 1501 903e 29f1 a7be
00000300: f368 c33d 62fa b43e 5c2f 6abe 7bdc b13e
00000310: fe69 a6bf 917f 043f 769f 023f 9076 b23e
00000320: 2530 33be b758 edbd a60c a53e 8728 113e
00000330: 8e57 a63e ca97 0c3f 73ba 24bf bc14 86be
00000340: f5be 3b3f 2d96 c4be bc11 b3bd 1648 873e
00000350: 2cf2 b9be cb7d b7be ac4a 033f e854 cfbe
00000360: 5e07 5a3e 651c b63f 6d90 7ebf 9c7b b33e
00000370: 1d29 84bf f117 9abd 361d 063f 3388 ac3e
00000380: 514f fcbe a3fb 833e 9292 ae3e 2786 1f3e
00000390: 9247 cdbe 3a9e 0b3f 4dfa 6cbe 18aa bb3e
000003a0: fcd6 0d3f addb 59be b9c5 f53d 564b ac3e
000003b0: 55e1 5e3f eae8 ce3e 3150 f73e d629 3b3f
000003c0: 0fbb a2be b73b a93e 7ba7 42be a457 52be
000003d0: 0533 95be 06fe bc3e 5c89 edbd d865 b6bd
000003e0: 182c 79be dc07 a2be 3d33 8c3f ff07 e1bd
000003f0: b132 03be 732d dd3e 523f de3e 3ce0 0e3f

actor.bias f4 [5]
0.4142948 0.24583049 0.14027144 -0.00043015656 0.56940275
00000000: 731e d43e fdba 7b3e 51a3 0f3e a386 e1b9
00000010: 61c4 113f

critic.weight f4 [1, 128]
-0.01041833 0.051674794 -0.03140782 -0.14249314 0.07696855 0.012946308 0.1796021 0.21611485
-0.20472859 0.14838177 -0.045075513 -0.0098906625 -0.024841717 0.03776746 -0.29862908 -0.20858656
-0.17830601 0.014866018 0.16628924 -0.10052861 0.150874 0.8188653 0.0015074268 0.1535804
0.025565457 -0.21985121 -0.17255257 -0.015868219 0.13505776 0.1672947 -0.19608353 0.17764792
0.22174068 -0.40021434 0.41647223 -0.019152142 0.21823378 -0.3335631 0.13489239 0.33134472
-0.08676403 0.1790884 -0.13610685 0.08933756 -0.06724833 0.028277688 0.18117706 -0.24108732
0.15044479 -0.20682535 0.0012874211 -0.15261325 -0.062105015 -0.0046598036 0.10468069 0.09501594
0.2763563 -0.15761168 0.06181519 0.05968557 -0.13309492 0.088332266 -0.16303325 -0.09378164
-0.11600269 0.28311092 -0.06845237 0.20996861 -0.04110508 -0.05892553 0.13029906 0.1620031
0.082595915 0.012003439 0.07134783 -0.083848365 0.24130587 -0.034853917 -0.044903442 -0.24578454
-0.041659974 0.02797089 0.28814816 -0.022265755 -0.24501248 -0.261708 0.04766244 -0.0778164
-0.012564256 -0.07876222 0.04106649 0.170384 -0.013260737 -0.022536539 0.20359527 0.25317726
-0.16173393 0.11063522 -0.01153946 0.18257278 0.0794156 -0.034176216 0.023631 0.3155083
0.05095487 0.32385936 -0.051563073 0.102933094 -0.057807803 -0.25104183 0.08345125 -0.08704467
-0.034091283 -0.10206826 -0.06645916 0.014828285 -0.13490593 0.023084933 0.18799222 -0.14941877
-0.034832314 0.028748084 -0.05704546 0.20726871 0.16870253 -0.108954884 0.15954316 0.012977724
00000000: a5b1 2abc f3a8 533d 7ca5 00bd b9e9 11be
00000010: b0a1 9d3d c01c 543c 9de9 373e 364d 5d3e
00000020: 5fa4 51be 64f1 173e 1aa1 38bd 720c 22bc
00000030: db80 cbbc 0db2 1a3d e9e5 98be b797 55be
00000040: da95 36be 9990 733c ba47 2a3e f2e1 cdbd
00000050: b77e 1a3e 28a1 513f da94 c53a 2e44 1d3e
00000060: a66e d13c ad20 61be 9fb1 30be 11fe 81bc
00000070: 954c 0a3e 4d4f 2b3e 1fca 48be 56e9 353e
00000080: fd0f 633e e5e8 ccbe d93b d53e f4e4 9cbc
00000090: ad78 5f3e c8c8 aabe 3b21 0a3e 04a6 a93e
000000a0: 57b1 b1bd f362 373e 985f 0bbe 9cf6 b63d
000000b0: 7eb9 89bd 9ca6 e73c 7b86 393e 98df 76be
000000c0: 330e 1a3e 06ca 53be afbe a83a a646 1cbe
000000d0: d461 7ebd 44b1 98bb d462 d63d b897 c23d
000000e0: 937e 8d3e f564 21be ed31 7d3d db78 743d
000000f0: 094a 08be 8ce7 b43d 30f2 26be 9710 c0bd
00000100: d192 edbd eaf3 903e c230 8cbd 0302 573e
00000110: cd5d 28bd e65b 71bd 1e6d 053e 24e4 253e
00000120: 0c28 a93d 12aa 443c d01e 923d b1b8 abbd
00000130: e318 773e fbc2 0ebd acec 37bd f1ae 7bbe
00000140: a6a3 2abd 3523 e53c 2888 933e ac66 b6bc
00000150: 8de4 7abe 97fe 85be b139 433d 345e 9fbd
00000160: 4fda 4dbc 164e a1bd 5635 283d 2579 2e3e
00000170: 9043 59bc 8c9e b8bc 477b 503e 73a0 813e
00000180: 949d 25be b894 e23d 0110 3dbc 5cf4 3a3e
00000190: a5a4 a23d 5cfc 0bbd cd95 c13c 4e8a a13e
000001a0: 0eb6 503d e5d0 a53e cd33 53bd 96ce d23d
000001b0: e0c7 6cbd 8e88 80be 7de8 aa3d 7a44 b2bd
000001c0: 4da3 0bbd 2a09 d1bd bd1b 88bd 56f2 723c
000001d0: c824 0abe 9d1c bd3c 0881 403e 3c01 19be
000001e0: 54ac 0ebd 1a81 eb3c 80a8 69bd 403e 543e
000001f0: 5bc0 2c3e bd23 dfbd 485f 233e 85a0 543c
