OLD/Liu/cont/v_6/train_iter_43500.pt (torch, 740743 bytes, 9 tensors)

h0 f4 [128]
000000 4c 91 89 3e 88 d9 3b 3f 4a 52 c5 be e1 e1 21 3f
       0.26868665 0.733788 -0.38539344 0.6323529
000010 20 43 62 3d d7 20 12 3e a8 31 06 bf c9 3e 03 3c
       0.055239797 0.1427034 -0.5241952 0.008010575
000020 0a b2 39 3f 7d c6 f7 be a7 c6 19 c0 13 14 d2 be
       0.7253729 -0.48393622 -2.4027498 -0.4103094
000030 66 c1 d0 bf d2 e3 7c bf d5 b2 4d 3e 50 d6 87 bf
       -1.630902 -0.98785126 0.2008775 -1.0612278
000040 dd f7 7f 3e b3 92 63 bf e7 c7 35 bf c4 8a c1 bf
       0.24996896 -0.8889572 -0.7100815 -1.5120473
000050 b7 bc 5f c0 6b 3c 77 3f 71 06 0e 3d f0 f4 13 bf
       -3.4958932 0.96576566 0.03467411 -0.5779562
000060 3b 6b ad 3e 8f 90 62 3f 08 46 05 bf 7b e1 7d bf
       0.33870873 0.8850183 -0.52059984 -0.9917218
000070 1b f0 0b c0 20 ec 95 bd e5 e2 26 be d4 83 e8 3e
       -2.1865299 -0.07320428 -0.16297491 0.45413077
000080 c5 67 21 be 74 b8 a6 be a2 c0 a0 be cb 8b 4a bf
       -0.15762241 -0.32562602 -0.31396967 -0.7911956
000090 1a 17 c3 bf e9 e9 34 be d5 c8 47 40 be fb 08 bf
       -1.5241425 -0.17667355 3.1216328 -0.5350913
0000a0 02 10 2f 3f 3d 19 37 3f ea 9f 76 3f 5b fb 14 bf
       0.683838 0.71522886 0.9633776 -0.5819604
0000b0 65 0c df bf 5f 13 00 3d bb 5f 7b bd 79 84 ec 3c
       -1.7425658 0.031268474 -0.061370593 0.028871762
0000c0 a9 56 e7 3f 85 d0 13 3e 60 12 c3 3e 1c 54 49 c0
       1.8073322 0.14435013 0.38099957 -3.1457586
0000d0 f0 cb 99 3e c9 f2 89 3f 9d 7c ea 3e c4 13 23 be
       0.30038404 1.0777217 0.45798197 -0.15925509
0000e0 a7 84 17 40 fe 9f 05 40 54 3b c2 be 92 c2 04 3f
       2.3674715 2.0878901 -0.3793589 0.5185939
0000f0 46 b3 a4 bf 70 85 39 bf b7 d4 bc 3f b2 d9 03 40
       -1.286721 -0.72469234 1.4752415 2.060162
000100 ff 77 b5 be 51 f2 d0 bf 8a f0 33 be 2c d2 67 3f
       -0.35443112 -1.6323949 -0.17572227 0.9055507
000110 ef fe 3f 3f 41 45 b7 bf d8 b8 2b c0 25 ba 7f ba
       0.7499837 -1.431801 -2.683157 -0.0009755216
000120 25 57 05 c0 0a 3c 29 3f 4c 44 4d bf 2d 07 81 3f
       -2.0834439 0.6610724 -0.8018234 1.0080315
000130 36 00 16 bf 19 57 f3 bf 1e c9 a4 be a1 a2 a7 3e
       -0.5859407 -1.9010955 -0.3218469 0.32741264
000140 19 d6 33 3e 7a 95 99 bf 27 7b 01 3f fe 3e 0e 3f
       0.1756214 -1.1998742 0.5057854 0.5556487
000150 2a cc 82 3e 10 0a 61 bf 4c 97 43 3e c9 43 02 3f
       0.2554639 -0.8790598 0.19100684 0.5088468
000160 d9 3a 94 bf 58 8f 55 bf 40 3c 1b 40 bf 3d 89 3f
       -1.1580459 -0.8342185 2.4255524 1.0721968
000170 1a a2 b7 bf 31 f0 91 3e 6e e5 bf bf 6d 70 61 bf
       -1.4346344 0.28503564 -1.4991891 -0.88062173
000180 df fc a7 3c fe d0 49 bf a8 35 6a be c3 55 5f bf
       0.02050632 -0.7883452 -0.2287203 -0.87240237
000190 34 c1 96 3f 44 c2 6f be 4a 88 64 3e 8a b2 d3 3e
       1.1777711 -0.2341395 0.22317615 0.41347152
0001a0 70 cd 60 bf da d1 f2 3f 2b 63 22 bf 2c c4 67 3f
       -0.8781347 1.8970292 -0.6343257 0.9053371
0001b0 21 cd 2a bf 0b 72 57 3c 25 3b 04 40 c3 67 ec 3f
       -0.6671925 0.013149749 2.06611 1.8469166
0001c0 f9 99 e1 be e0 98 4b be b1 f2 9d be 17 70 3d bf
       -0.44062784 -0.19882536 -0.3084922 -0.7399916
0001d0 3e 8c 4d bf 8e 4b ef bf 74 69 8e be 85 07 5f 3f
       -0.8029212 -1.8694932 -0.2781483 0.8712085
0001e0 f1 38 eb bf 6d 7a 59 bf 5c 48 91 3d 0a d8 6a bd
       -1.8376752 -0.8495243 0.070938796 -0.057334937
0001f0 9c d3 cb be 12 ec 5e bf 2a 4e 89 be fa 92 b2 be
       -0.39809883 -0.87078965 -0.26817447 -0.3487776

c0 f4 [128]
000000 16 cc 59 be 9b 16 d1 bf e9 ad 7b bf a1 81 3f 3e
       -0.21269259 -1.6335024 -0.9831224 0.18701793
000010 3e 06 78 3f 6b 2d c0 3f 7b 5f 34 bf 49 66 91 bf
       0.96884525 1.501386 -0.7045819 -1.135934
000020 52 2b 91 3c 48 fd 0e bf 12 ca c5 3e 86 26 11 bf
       0.017720852 -0.55855227 0.3863073 -0.5669941
000030 b3 1e fb 3e 07 4c 7f bd 73 9b e2 3e 59 30 47 40
       0.4904686 -0.062328365 0.44259223 3.112326
000040 a0 21 a9 bd e6 fc a1 bf 19 46 70 be 24 65 79 bf
       -0.082583666 -1.2655303 -0.2346424 -0.97419953
000050 a3 8e e5 bf 23 ec b0 3f 3a d4 b8 3e 96 3d 4a be
       -1.7934154 1.3822063 0.36099416 -0.19750056
000060 1e 6a 2a be 5f 58 ab 3f f8 3e c4 bd ba 09 1d 3f
       -0.16642043 1.3386344 -0.09582323 0.61342967
000070 3d 71 03 be 38 e8 0f 3f 00 06 e3 bf 03 fc 5c bf
       -0.12836166 0.5621371 -1.7736206 -0.8632204
000080 10 a3 e7 be cf aa 28 3d 73 e2 81 bc 3b d4 09 be
       -0.45241594 0.04117852 -0.01585505 -0.13459866
000090 35 3f 00 3f 00 e1 0f 3d 9d 4d 2b 3f c3 b6 b1 3e
       0.50096446 0.035126686 0.66915303 0.3470975
0000a0 11 2a eb 3f 83 78 1d bf 23 bc d4 3f 41 cd 9a 3d
       1.8372213 -0.6151201 1.6619915 0.0755868
0000b0 fd 18 bb bf 97 3c ed bf 37 56 cf bf df 11 62 bf
       -1.4617001 -1.8534116 -1.6198186 -0.8830852
0000c0 b5 bc 99 3f 0b 05 90 3d 2c 01 62 be 7d 8e bc bd
       1.2010714 0.07032212 -0.2207076 -0.09206865
0000d0 67 fe ae 3f a6 10 dd 3e ef 80 b6 bf 91 04 12 bf
       1.3671387 0.43176764 -1.4258097 -0.5703822
0000e0 63 ad 06 3f b2 44 0b 40 46 6c dd 3f 5f b7 a7 bf
       0.5260832 2.1760678 1.7298667 -1.3102835
0000f0 05 12 38 3e 13 26 bb bf cc 3c 14 c0 df 4b 49 3f
       0.17975624 -1.4620994 -2.3162107 0.78631395
000100 59 b0 83 3f 89 81 1f 40 05 56 4a 3f 27 d6 87 3f
       1.0288192 2.4922812 0.79037505 1.0612229
000110 1f 84 45 bd 43 85 84 bd 22 8a 60 3f d3 07 a1 3e
       -0.048221704 -0.0647073 0.87710774 0.31451282
000120 a6 b3 39 be 3a f7 ff 3f 32 80 fb 3e 25 10 12 3f
       -0.18134937 1.9997323 0.49121243 0.57055885
000130 74 71 49 bf 0d 77 50 3f a2 c3 23 bf ba 9f 70 be
       -0.7868874 0.8143166 -0.63970387 -0.23498431
000140 dc 32 51 3e 13 15 74 bf df 67 aa be 97 38 8d be
       0.20429558 -0.95344657 -0.33282372 -0.27582237
000150 4f 00 a6 3f 8f 27 21 3f fd dc f8 be 82 b6 b3 bf
       1.2968844 0.62950987 -0.486061 -1.4040072
000160 4c e8 ae 3e a0 d5 58 3f dc 46 34 3e f9 ce dd 3e
       0.34161603 0.84700966 0.17605156 0.4332197
000170 24 06 7b 3f 29 b4 fa be 70 06 12 3f 29 c7 fd bf
       0.98056245 -0.48965576 0.5704107 -1.9826404
000180 0b 72 cd 3e 09 f8 e5 bf 73 c4 84 bf 17 5b ae be
       0.4012607 -1.7966319 -1.0372452 -0.3405387
000190 e0 4e 01 bf 52 ab 2f bf 31 31 1a bf f3 ad 70 3e
       -0.5051098 -0.6862079 -0.6023131 0.23503856
0001a0 bd d3 8e 3e 8d 9d 44 3f f7 50 3c bf e8 1e 17 be
       0.27895918 0.76802903 -0.7356104 -0.14757884
0001b0 32 df b6 3c 89 ae d2 bd 81 ab bc be 8a f0 52 3e
       0.022323225 -0.10287196 -0.36849597 0.20599571
0001c0 a6 96 e7 bd 46 18 03 bf 68 42 7d bf 30 4c 7d bf
       -0.11308031 -0.51208913 -0.9892945 -0.9894438
0001d0 1d c7 8a 3f 04 bf f6 bd 55 e5 9c bf f0 1e ad be
       1.0842015 -0.12048152 -1.2257487 -0.33812666
0001e0 99 bb 1f bf 92 f5 93 be 4f f8 a8 bf 54 89 be 3c
       -0.62395626 -0.28898293 -1.3200778 0.023258843
0001f0 be d6 9a bf 50 dd 2c 40 fa a3 04 3d 70 c6 ab bd
       -1.2096784 2.7010078 0.032382943 -0.08387458

RNN.weight_ih_l0 f4 [512, 15]
000000 55 4e 62 3e f4 25 df bd 8f bc ce bd 60 4b 8d bd
       0.22100194 -0.10895911 -0.100945584 -0.06899142
000010 6c 1b 13 bd 76 a1 38 3e 93 3b 32 3e a8 33 a4 3c
       -0.035914823 0.18030342 0.17405538 0.020044163
000020 24 16 72 bd b3 25 08 3d 82 17 81 be cd d3 d7 3d
       -0.059103146 0.033239078 -0.25213248 0.10538445
000030 39 16 cb 3c 80 e0 c2 bd 1b 52 97 3e f0 bc e8 bc
       0.02479087 -0.09515476 0.2955483 -0.028410405
000040 b4 73 87 3e fd 71 8f be 61 1f 8d bd 5c 23 ef 3c
       0.26455462 -0.28016654 -0.06890751 0.029191665
000050 ba c3 be 3f 85 6c eb bd a2 a6 1f 3d 3b 01 d5 3d
       1.4903481 -0.11495308 0.038977273 0.10400625
000060 81 ef ab 3f 96 11 6a 3e 5d 4f d2 bd 40 12 f4 3c
       1.3432466 0.22858271 -0.102690436 0.029793859
000070 e4 4d c2 bc 34 46 9b bb 09 08 8b 3e 3f 22 da 3d
       -0.023718782 -0.0047385935 0.27154568 0.10651063
000080 21 55 a7 bd a0 bc 3b bb 8c 63 a1 bd 5c 91 25 3d
       -0.08170534 -0.0028646365 -0.07880315 0.04042183
000090 47 b1 99 3e 2a cb 6e 3d 39 19 ec 3d 91 1e d9 3c
       0.30018064 0.05829922 0.11528248 0.026503833
0000a0 80 35 a3 3e a3 b9 b3 bd c3 13 69 3d 8e a7 02 3c
       0.31876755 -0.08775642 0.056903612 0.007974518
0000b0 b7 ce a8 3e 5c 29 d3 bd d3 3b 30 3f 1e 08 3f bf
       0.3297021 -0.10310623 0.68841285 -0.7462176
0000c0 cb 16 81 3d 20 d1 1c bb da a6 b5 3e 78 d1 8d bd
       0.063031755 -0.002392836 0.3547886 -0.069247186
0000d0 0c 17 82 bc c0 ba 04 be b5 d7 7a 3e c3 56 dc be
       -0.01588013 -0.12961864 0.24496348 -0.43034944
0000e0 c9 6b 38 3e 5c 7f ca 3c fa a5 07 3e 07 5b 0c bd
       0.18009867 0.024718933 0.13246909 -0.034266498
0000f0 ef db 0c 3f 02 1f 3c 3e 2c 06 f0 3d 08 e8 a6 bd
       0.5502309 0.18371204 0.11719927 -0.08149725
000100 6f a6 af bd ad 63 16 3e 5a 27 ea 3e 24 1f 85 3c
       -0.085766666 0.14686461 0.45733148 0.0162502
000110 8d 50 4a 3e 4a af 0d 3e 6b 74 07 3f 3b d8 d2 bd
       0.1975729 0.13836399 0.52912015 -0.10295149
000120 a4 9a 34 be 29 dc 19 bd 4a 26 13 3f 6d b9 61 3e
       -0.17637116 -0.037563477 0.574803 0.2204339
000130 24 8a dc bd 34 dc b3 3d 00 eb f8 3c a6 83 a7 bd
       -0.10768536 0.08782235 0.030385494 -0.08179407
000140 56 c3 36 3f 51 b7 5f 3e a0 e3 32 3b d2 0b c5 3d
       0.7139181 0.21847273 0.002729632 0.09621395
000150 ff 6b 18 3f 08 28 9b 3e 5b 96 23 bd 14 b9 48 3e
       0.5953979 0.3030398 -0.039938312 0.19601852
000160 70 02 db 39 e6 76 3e 3e fa c7 e2 3d f8 d9 d3 bc
       0.0004177275 0.18600044 0.11073299 -0.025860772
000170 08 3d 04 3e 81 45 85 bd d8 81 20 bc 75 b0 ce 3d
       0.12913907 -0.065073974 -0.009796582 0.1009225
000180 c6 bf 9e 3d f4 0f f0 bc 8d 38 e0 3d 91 ab 37 be
       0.07751422 -0.029304482 0.10948286 -0.17936541
000190 0e ad cf 3d 67 d2 e2 3d ce 55 89 3d 1e 91 c1 bd
       0.101404294 0.11075287 0.06705819 -0.09451507
0001a0 d9 68 51 3e df 71 19 3e 78 34 bb bb b4 4f 6a 3e
       0.20450152 0.14984845 -0.005713042 0.22881967
0001b0 8e 08 8c bd f8 22 84 3c 9f 97 d8 bd 33 88 c1 3c
       -0.06837569 0.016129956 -0.105757944 0.023624515
0001c0 28 14 1b bd cf b1 30 3d 3e 90 a4 bd 70 ec 6e bc
       -0.03786102 0.04313832 -0.080353245 -0.014582738
0001d0 6a 7e 82 bb ec d9 1c 3d 23 26 a7 bd 0a 4c 1b 3d
       -0.003982355 0.038293764 -0.08161571 0.037914313
0001e0 1a b5 c7 3d 72 af 93 3c fa f9 33 be e8 ec 27 bc
       0.09751339 0.018027995 -0.17575827 -0.010249354
0001f0 38 3c af 3c e4 4f 33 bf 08 5a 8a bc 42 69 65 3d
       0.02139102 -0.7004378 -0.016888633 0.056008585
000200 c3 4e 21 be cb ff 46 bf 97 dd 1a 3e 25 c2 9c be
       -0.15752701 -0.7773406 0.15123592 -0.3061687
000210 6c e2 59 bc 0d d9 90 bd ae cc 8f 3d d3 e4 50 3e
       -0.013298612 -0.07072649 0.070214614 0.2039979
000220 b0 be 89 bd b3 32 59 3d 51 46 95 3d 36 45 f7 bc
       -0.06725824 0.053026866 0.072888024 -0.03018437
000230 7c 76 95 3c 6d 9a 1b 3e 98 e0 54 3c e1 1e 11 3d
       0.018244974 0.15195628 0.012993 0.03542984
000240 84 36 09 3d 65 b6 7a 3c 5a 33 e1 3c b7 01 2b bd
       0.033499256 0.015302275 0.027490307 -0.041749682
000250 b6 50 5b bd 7f 38 29 3e 65 10 62 3d 43 37 8a be
       -0.05354377 0.16525458 0.055191416 -0.26995286
000260 56 73 82 3d de de 4f 3d 4f 2d 07 bd e0 34 86 be
       0.06369655 0.050749652 -0.033002194 -0.26212215
000270 55 5e 8a 3d 4a cf 3f 3d 12 05 4d be 59 0b a7 be
       0.06756274 0.046828546 -0.20021465 -0.32625845
000280 63 06 a0 bd 8e 5f 8d 3d 72 65 8d bd e8 4f b9 bd
       -0.07813718 0.06902991 -0.06904115 -0.09048444
000290 e7 ea 04 3e d1 d4 1d bc 0f c2 81 be 8f aa 0c 3e
       0.12980233 -0.009633259 -0.25343367 0.13736938
0002a0 56 b9 80 bd 16 26 3e 3d 95 a0 1e be 8a 67 43 bd
       -0.0628535 0.04642304 -0.15490945 -0.047706164
0002b0 01 da 8c bd 97 a7 d5 bd 9f a4 09 be ba ae fb bc
       -0.068775184 -0.10432356 -0.13441704 -0.030722965
0002c0 1d 75 e2 bd d6 db 88 bc 00 9c 10 3b 56 57 ae 3c
       -0.11057494 -0.016706388 0.002206564 0.02128188
0002d0 ff 30 24 3c 34 32 1f be b5 21 99 3e e4 a2 cb 3c
       0.010021447 -0.15546495 0.2990853 0.024857946
0002e0 dc 52 e0 bc 85 1a 88 3e 95 66 9e bd 88 14 0a 3d
       -0.02738326 0.26582733 -0.0773441 0.033710986
0002f0 74 51 b7 38 a0 48 9b 3e ba 1d 97 be 75 f6 e4 3e
       8.741292e-05 0.30328846 -0.29514867 0.44719282
000300 7d e2 90 bd 30 34 04 bd 1c ab ab bd 09 50 ee bd
       -0.07074449 -0.032276332 -0.08382246 -0.11636359
000310 91 b7 4e 3e d2 7e 86 3d 50 f4 b5 bb 11 0d 36 bd
       0.20187213 0.06567158 -0.005552806 -0.044446055
000320 c8 b2 b9 bc 16 80 42 3c 17 bc 20 bd 6f 06 57 3e
       -0.022668257 0.011871358 -0.039241876 0.20998548
000330 20 df 90 bd dc c2 9f 3d 27 be ae 3d a2 71 93 bd
       -0.07073808 0.07800838 0.085323624 -0.07199408
000340 bc 1c e9 bd 18 bc c8 bd 7f f8 4f bd d9 0e 5c bd
       -0.11382434 -0.09801501 -0.050774094 -0.053725097
000350 22 db 49 bd 60 fc ea 3c 80 4f a0 3c e6 cd 13 be
       -0.049281247 0.028684795 0.019569159 -0.14434013
000360 c1 6b a6 bd 22 75 64 3d 97 bc f4 bd 88 d5 20 be
       -0.08126021 0.05577577 -0.11950033 -0.15706456
000370 f3 12 30 3a 4d 70 17 be 43 e9 98 3c 8d ad 21 3e
       0.0006716691 -0.14788933 0.018665915 0.1578886
000380 90 4e fa bd 5a 5d df 3e cd 45 f7 be 17 5d db 3e
       -0.12222016 0.4362591 -0.4829544 0.4284446
000390 38 bf 6d bd e4 b6 ed bc d2 81 82 3e 7e 5b b5 3e
       -0.05804369 -0.029017873 0.2548967 0.35421365
0003a0 7e 41 0b 3d 8b 07 c6 bd 84 db 8d 3d 0d 8c 25 be
       0.033998005 -0.096694075 0.06926635 -0.16166706
0003b0 28 b8 b0 3d 1d 5a 98 bd 0e 40 72 3e f4 1e e5 3e
       0.08628875 -0.07439063 0.23657247 0.44750178
0003c0 b1 a7 74 bd bc 11 50 3e db c4 d7 3d b0 8b ad bb
       -0.059730235 0.20319265 0.10535594 -0.005296193
0003d0 13 99 b3 3d 7a 3e 12 be 76 f5 9d 3c a5 9c a6 3d
       0.08769431 -0.14281645 0.019282084 0.08135346
0003e0 a4 13 73 3e 0a f7 cc 3c a3 e2 98 3d 6f 2b 2b 3e
       0.23737961 0.025020141 0.074651025 0.16715787
0003f0 c7 f7 bc be 22 db 5c be 88 61 8c 3c cb 2b 5a bc
       -0.3690779 -0.21567968 0.01713635 -0.013316105

RNN.weight_hh_l0 f4 [512, 128]
000000 5b da 5e be 42 6e 66 bd 71 99 22 bd 18 ca 79 3e
       -0.21762984 -0.056257494 -0.039697114 0.24393499
000010 1e 63 a7 3a cd 66 4a 3e 0f 51 46 be d5 c4 0d be
       0.0012770628 0.19765778 -0.19366859 -0.13844617
000020 5d 00 3a be 42 3c b0 bd e3 9e 50 3a 4b 55 c0 be
       -0.18164201 -0.08605243 0.0007958246 -0.37565073
000030 21 47 91 3d 7a 40 60 3e 33 21 6d 3f 34 fd 4a 3b
       0.07093645 0.21899596 0.92628783 0.0030973675
000040 ce 90 ef bd 9e 79 15 be a6 48 4c be 56 e2 0b be
       -0.11697541 -0.14597175 -0.19949588 -0.13660559
000050 ec 93 3b bd 65 79 b8 bd 4c 85 3c 3d a6 41 c8 3d
       -0.045795366 -0.09007529 0.04602556 0.097781464
000060 e4 ec 83 3e 66 f1 32 3d 94 4b 9d be e0 1e 8d 3e
       0.2576667 0.043687247 -0.30721724 0.27562618
000070 e0 c7 48 be e0 99 b7 3b 08 e7 6c bd 50 dc 31 3d
       -0.19607496 0.00560306 -0.057837516 0.043422997
000080 49 67 82 be 07 b5 b5 be f7 94 1c 3e 4e 30 95 bd
       -0.25469425 -0.35489675 0.152912 -0.07284604
000090 ca cd 70 be 4e 43 29 be 81 b7 87 3e f5 7d 76 3d
       -0.23516002 -0.16529581 0.2650719 0.060178716
0000a0 a8 6d 9d 3c f3 77 70 ba ed 91 39 3d 9a 73 cc 3d
       0.019217327 -0.0009173147 0.04530518 0.09982987
0000b0 40 22 6e be 95 b7 43 bd 89 3d 78 3e 71 c1 28 be
       -0.23255253 -0.0477825 0.24242224 -0.16480042
0000c0 79 76 a1 3e d2 cd a7 bb ea f7 5f 3e 61 54 11 3e
       0.315357 -0.0051209712 0.21871915 0.14192344
0000d0 96 91 09 3d f4 3f 46 3f 7e b2 86 3d 33 8b 82 3e
       0.033586107 0.77441335 0.065770134 0.25496826
0000e0 61 bd 7c 3d f7 3b a5 3e 41 ef aa 3e df f0 16 be
       0.061704043 0.32272312 0.3338566 -0.14740323
0000f0 e8 3f e5 bd 86 4b 88 be 56 20 68 be fa 9c 17 be
       -0.1119383 -0.2662012 -0.22668585 -0.14805976
000100 9c 67 8e 3b c0 5a 02 be 51 22 de 3d d2 a6 d7 3d
       0.0043458473 -0.12729931 0.10846389 0.10529865
000110 1f 77 23 3e 3e 52 c5 be c7 9b d1 3c 23 fd bf be
       0.1596341 -0.38539308 0.025586976 -0.37497815
000120 52 67 29 bd 37 b4 19 3e b4 c4 7d bd d1 5f 85 3c
       -0.0413583 0.15010153 -0.06195517 0.01628104
000130 fe eb 7f bd 64 da 06 be e6 5e 82 3d 14 c4 57 be
       -0.06248092 -0.13169247 0.06365757 -0.21070892
000140 92 f7 27 be 2b 97 57 be 76 cc 38 3b 75 2a 58 be
       -0.16403034 -0.2105376 0.002819804 -0.21109946
000150 49 1a 3b 3e 53 7d 81 be e7 fa de 3c 0d 43 10 3d
       0.18271746 -0.25290927 0.027219249 0.035220195
000160 28 23 52 3c 9c 82 ac be 12 b0 66 3d c3 59 90 3d
       0.012825765 -0.33693397 0.056320257 0.07048371
000170 87 39 7a be b6 4b 00 3f be 4a 70 be 99 bb 8a be
       -0.24436007 0.50115526 -0.23466012 -0.2709625
000180 59 94 f5 3d 2a 1d dc bd fc 22 43 3d 5c 5a c1 bd
       0.11991186 -0.1074775 0.047640786 -0.09441063
000190 2c 74 17 3e f5 6b 89 be bb b8 79 3e 8d 28 b3 3c
       0.1479041 -0.26840177 0.24386875 0.021869922
0001a0 d9 3f d5 bd 9c f3 51 3e 89 e9 73 bc ff 2a 49 3d
       -0.104125686 0.20503086 -0.014887222 0.04911327
0001b0 c1 af 0a be 52 d6 34 be 53 2a 03 be ca 14 17 3e
       -0.13543607 -0.17659882 -0.12809114 0.14754024
0001c0 20 11 cc bc 64 99 fc 3d 37 e0 6b bd 94 8f c9 bd
       -0.02491051 0.123339444 -0.057586875 -0.098418385
0001d0 82 af 36 bd 54 7a 72 3e 21 03 ae bd 39 6f 98 bd
       -0.04460097 0.23679477 -0.084966905 -0.07443089
0001e0 fb 86 31 be 16 b1 e3 bb 24 12 29 be 0d 02 47 be
       -0.17336647 -0.0069486005 -0.16510826 -0.19434376
0001f0 e8 44 b4 bd 23 c5 d2 3d 70 f2 88 3d 2d ca ec bd
       -0.08802205 0.10291507 0.06686866 -0.115619995
000200 22 22 ba be d9 34 c2 3c 54 67 3b bd a0 96 dd bd
       -0.36354166 0.02370684 -0.04575284 -0.10819745
000210 93 61 99 3d a9 bc 38 bd 6b 8b 9f 3d 1f 9c db bc
       0.07489314 -0.045101795 0.07790264 -0.026807843
000220 60 b0 37 3d a6 0c 27 3b c6 59 62 3e 6b ad 99 3e
       0.04484594 0.0025489717 0.22104558 0.3001512
000230 f9 fc aa bc 1e 1b 26 be 40 73 15 bc 32 12 19 3e
       -0.02087258 -0.16221282 -0.009121716 0.14948347
000240 58 f2 1e 3e fd 90 c0 3c a1 d3 14 bd a4 55 dd bc
       0.15522134 0.023506636 -0.036334638 -0.027018376
000250 88 87 db bd 16 9d 3d be fd 54 08 be 46 d5 25 3d
       -0.1071921 -0.18516955 -0.1331367 0.040486597
000260 94 8e 61 be e3 a3 ac bd df 30 db 3d 6e ba 5a 3e
       -0.22027045 -0.084296964 0.10702681 0.2136018
000270 a8 8b cf 3d b5 8e f9 3c e2 d1 cf bd 94 fd bb 3d
       0.10134059 0.030463556 -0.10147454 0.091792256
000280 28 b9 64 bb 8d 4d 17 3c 3d 02 6d be 7e fe 75 3d
       -0.00349004 0.009234798 -0.23145385 0.060057156
000290 25 3e fb 3d 20 22 b1 3d e2 1d b5 bd 34 57 f3 bd
       0.122677125 0.08649087 -0.0884359 -0.11881867
0002a0 19 86 6a bc d9 62 10 bd 7f e1 76 3d 25 64 6b bd
       -0.014314198 -0.03525052 0.060273644 -0.057468552
0002b0 05 5a 0a 3e 25 c1 aa 3e a7 29 32 3e 65 7f 0a 3e
       0.13510902 0.33350483 0.17398702 0.1352516
0002c0 fa 78 c7 be 78 4f 77 3c de 86 c6 bd ff 84 f8 3c
       -0.38959485 0.01509463 -0.096936926 0.030336855
0002d0 18 18 80 be ce 56 c6 bd 31 7f 39 be a2 37 52 bd
       -0.25018382 -0.096845254 -0.18114926 -0.051322587
0002e0 9b 00 e8 3d fa 41 a8 be 31 e5 f7 bd 9e 19 72 bd
       0.113282405 -0.32862836 -0.12104262 -0.05910646
0002f0 fe 4f 6c 3e 6c 6b 83 3e 28 64 97 3d 93 2a 0a be
       0.2307739 0.25667894 0.0739215 -0.13492803
000300 91 b7 40 3e 22 65 3c 3e 01 96 14 bb 96 55 a0 be
       0.18820025 0.18397954 -0.0022672417 -0.31315297
000310 23 dc 1d be 9e 57 4a 3e 6b a5 07 3e 42 f2 8f 3d
       -0.15416007 0.19759986 0.13246696 0.07028629
000320 4e c5 6b 3e 6a 34 66 be f1 64 f4 3d c0 7d 16 bd
       0.23024485 -0.22480932 0.119333155 -0.03674102
000330 ad f5 7e 3e 75 26 31 3e 9f 7e 03 bf 69 25 3d 3d
       0.24898405 0.17299826 -0.51365083 0.046178255
000340 03 2e 98 bd da be 5b be a6 46 5e 3e 38 5a 2d 3c
       -0.07430651 -0.21459523 0.21706638 0.010580592
000350 7b d2 31 3c 53 30 81 3d f9 25 ce 3d 75 79 f5 bd
       0.010853405 0.06308045 0.100658365 -0.11986057
000360 77 50 07 3e c2 73 52 be a0 bc 23 3d 9b 29 6e bd
       0.13214289 -0.2055197 0.03997481 -0.058145147
000370 d2 b8 77 3e 80 04 1b be 54 b3 10 be 9a c8 21 3d
       0.24191597 -0.15138435 -0.14130908 0.03949795
000380 53 f1 0f 3e 04 9f 8b be 46 5e 14 be d1 ec 89 bd
       0.14056902 -0.27269757 -0.14489087 -0.06734622
000390 1a 7d c3 be b5 e6 d5 3c 1f fe ec bd 1d 09 f9 bd
       -0.38181382 0.026110986 -0.11571907 -0.12159941
0003a0 36 de 04 3e 6e 7c 25 be a8 61 c6 be 9f 6c ca bd
       0.12975392 -0.16160747 -0.3874638 -0.09883999
0003b0 22 4a 54 3d dc d3 a3 bd 76 fe de bd 89 f5 39 be
       0.05182851 -0.07999393 -0.10888378 -0.1816007
0003c0 5b df 0f 3e 5c a0 43 bd b9 fb 3c be 47 3c e5 bc
       0.14050047 -0.047760352 -0.184554 -0.027982844
0003d0 57 6b 04 3e f9 ff db bc a2 18 a5 3d 01 02 01 be
       0.12931572 -0.026855456 0.08061339 -0.1259842
0003e0 c6 60 51 3d 5d e3 04 3e 06 74 1b 3e 26 3d c4 3d
       0.05111768 0.12977357 0.15180978 0.09581976
0003f0 32 3f 86 3d b5 ee 1a bd 79 62 07 3d ab 3e dc 3e
       0.06555022 -0.037825305 0.033052895 0.43016562

RNN.bias_ih_l0 f4 [512]
000000 b8 78 12 3e ba 35 36 3b 7f 9c 52 3e ea e4 d6 3c
       0.14303863 0.002780302 0.20567511 0.026232202
000010 6f a3 59 3e e9 d9 7e 3d cf 9f 36 3e 45 db 61 ba
       0.21253751 0.062219534 0.178344 -0.00086157426
000020 a4 ef 33 be ab a7 67 3e 12 13 cd bd 2a 90 f6 bc
       -0.17571884 0.22622554 -0.10013403 -0.03009804
000030 76 1c ca bd a6 f8 05 3e d5 2c 3a be 68 83 30 3e
       -0.0986871 0.13083133 -0.18181165 0.17237628
000040 c0 77 87 3e 50 58 dd bd 60 25 1e be 03 df 95 bd
       0.2645855 -0.1080786 -0.15443945 -0.07317927
000050 de f4 a2 3d 0d 5a e2 bd 65 6b f9 3d 0d 1e 67 bc
       0.07956861 -0.11052332 0.12178687 -0.014106286
000060 8e 58 8e 3d c5 77 49 3e c2 a0 11 bd 9c 3c 41 bd
       0.06950484 0.19674595 -0.0355537 -0.047176942
000070 40 b5 1d 3e 81 f8 19 3e e7 e4 5c 3e 83 89 d6 3d
       0.15401173 0.15036203 0.21571694 0.10475447
000080 28 91 d2 3d ab 1b 19 be 90 53 e7 3e 72 34 80 3e
       0.102815926 -0.1495196 0.4518094 0.25040013
000090 ca fb 82 3e a6 6d 25 3d f6 41 f7 3d 65 77 5e 3e
       0.25582725 0.040387772 0.12073128 0.21725233
0000a0 6a da 46 3e 87 c6 23 be d0 e1 9f 3d 31 83 26 3d
       0.19419256 -0.15993701 0.07806742 0.040652458
0000b0 00 27 14 3e c5 36 c1 3d c1 ef fe 3b b8 44 e6 3e
       0.14468002 0.094342746 0.0077800457 0.44974303
0000c0 2b fe a9 bd 0c 65 e3 3c 99 ca 79 3d 99 35 05 3e
       -0.08300432 0.027758144 0.060984228 0.13008727
0000d0 c4 06 56 bc 79 5f 76 bd 8e dc c0 bc 1e 4f 14 3e
       -0.0130631365 -0.060149644 -0.023542669 0.14483306
0000e0 35 82 fb 3d 69 1d eb bd 69 94 65 bd da c6 fd b9
       0.122806944 -0.11480219 -0.056049738 -0.00048404076
0000f0 08 cc 74 3e c5 7e fb bd 65 30 ac 3c cb 89 5e 3e
       0.23905957 -0.12280039 0.02101917 0.21732251
000100 61 09 29 3e 94 05 da 3a cf b9 b5 3b d5 0c f7 3c
       0.16507484 0.0016633742 0.0055458318 0.030157486
000110 c6 08 06 3e 28 4b 57 3c 14 6c cf bd 88 a9 b3 3d
       0.13089284 0.013140477 -0.10128036 0.0877257
000120 74 b0 0a be d9 47 c1 3e 67 94 17 bd d3 c6 99 3d
       -0.13543874 0.37750128 -0.037006762 0.07508626
000130 7a 27 ba 3d 00 a3 0c 3e 0f 83 d7 3d d1 e5 f7 3d
       0.09089561 0.13734055 0.10523044 0.12104381
000140 ab cf 83 3e fd d7 5c 3d c0 d9 a1 3d 55 ce 10 3e
       0.25744376 0.05391692 0.07902861 0.1414121
000150 7e 41 85 3d 88 c6 dc 3d 78 51 19 3e 7d 08 f9 3d
       0.06506632 0.10780054 0.14972484 0.12159822
000160 3f cd 7e 3e 1c a6 1d be 41 de 1d bd fd 9f f6 3d
       0.24882983 -0.15395397 -0.038542036 0.12042234
000170 1d 0c 93 3d 13 2b ba 3d 9b 73 63 3d bb 66 0c 3e
       0.07180045 0.09090247 0.05553017 0.13711064
000180 84 40 0a be c3 5a ff bd 01 e9 39 3e 03 9c 55 be
       -0.13501173 -0.12468483 0.1815529 -0.20860295
000190 88 ae ac 3d 71 a2 28 3e 26 24 bb bd 7b ea 34 3c
       0.08431727 0.16468216 -0.09137754 0.011042233
0001a0 2f 77 93 3d 64 06 11 3e e8 8d 22 bd ad ad e3 bd
       0.07200467 0.14162594 -0.039686114 -0.111171104
0001b0 5e ed 18 3e 0f 6d 43 3e f8 eb c5 bc 57 ce 0c 3e
       0.14934298 0.19084571 -0.02416037 0.13750587
0001c0 8c 8b 9f 3e d1 be d7 3d 1e 73 23 3e 06 5b 78 bd
       0.31161153 0.10534442 0.15961882 -0.06063368
0001d0 5b 1a 1e be 9b 29 4b be 50 9a 4b bd 92 99 79 3e
       -0.15439741 -0.1984009 -0.04970771 0.24374989
0001e0 20 5d d0 bc 5e 2e 4e 3e 66 96 77 3e cf 30 ba bd
       -0.02543503 0.20134875 0.24178466 -0.09091341
0001f0 b4 9d 5a 3e 1b b8 00 3b 97 41 97 3e 04 91 fa 3d
       0.21349221 0.0019640985 0.2954223 0.12234691
000200 cc e0 46 3e 5f ba c0 3b a4 07 98 3d 5f 62 53 bd
       0.1942169 0.005881592 0.07423332 -0.051607486
000210 71 87 21 3d 38 3a 3f 3d 20 b4 90 3e e3 e4 07 3e
       0.039435808 0.04668638 0.28262424 0.13270907
000220 18 bd e1 bd 4e 18 2e 3e 00 c7 ce bd ee 3a cf bd
       -0.11022395 0.17001459 -0.1009655 -0.10118662
000230 13 75 b0 bd 37 02 be 3d 2c 7c eb 3e 70 36 af be
       -0.0861608 0.09277766 0.45993173 -0.3422122
000240 38 03 1d be f8 18 15 be 72 e3 8e bd 4e 39 8e 3e
       -0.15333259 -0.14560306 -0.069769755 0.27778095
000250 22 b8 37 be 69 53 30 bd b5 f3 88 be 72 12 a3 3e
       -0.17941335 -0.043048296 -0.26748434 0.3185001
000260 78 0e 4e 3e 42 9e 0c 3e 73 c3 83 3d 77 f7 30 be
       0.20122707 0.13732246 0.06433763 -0.172819
000270 3a b2 16 be 89 37 7a bb 14 3b d7 3d ac 6e 50 bd
       -0.14716426 -0.0038180074 0.10509315 -0.050886795
000280 dd ea 43 3e b0 c1 c9 bb 13 54 d1 be 2f ae 56 3e
       0.19132562 -0.0061571226 -0.40884456 0.20964883
000290 d1 b5 60 3e 88 07 b4 be 6a 4b d9 3d ab c8 e7 bd
       0.21944357 -0.35161996 0.10610087 -0.11317571
0002a0 ae 45 35 bd 49 9c 18 3d 60 7d e9 3d 60 fc 12 3e
       -0.044255905 0.03725842 0.114008665 0.14354086
0002b0 37 c5 de bd 45 de 91 3d 0a c2 52 be 4b b6 71 bc
       -0.108774595 0.07122473 -0.20581833 -0.014752935
0002c0 d7 88 c0 bd d9 01 87 3d 2d 48 53 bd df 2c 1f 3e
       -0.094011 0.06592149 -0.051582504 0.1554446
0002d0 35 53 64 3b 75 9c 3f 3e 57 2f 97 be 98 0b ee bc
       0.0034839634 0.18712027 -0.29528305 -0.029058263
0002e0 20 b3 b0 bd a4 2a a4 bd a5 e8 3e 3d 8c e1 bd 3d
       -0.086279154 -0.080159456 0.046608586 0.09271535
0002f0 08 4e 00 3e 65 e7 db bb 6f 08 93 3d b3 17 f7 bd
       0.12529767 -0.006710934 0.07179343 -0.12065067
000300 cc 29 3d bb 4d e8 5d 3d 62 46 42 be 2c 09 ec bd
       -0.0028864024 0.054176617 -0.18972161 -0.11525187
000310 1a eb 22 bd 3b 8e 21 3e 85 63 17 3e ad 92 10 3e
       -0.03977499 0.15776913 0.14784057 0.14118452
000320 59 12 ba bc 94 37 fd bd 6e 28 2f 3e 05 7c 47 3e
       -0.022713827 -0.12364116 0.17105266 0.19480903
000330 d1 dd 2f be 32 98 4f 3e bc 12 61 be 77 95 a5 3e
       -0.1717446 0.20272902 -0.21979803 0.32340595
000340 89 8d 83 3d e1 4e 0b bd f9 a6 17 3e f0 c6 8b 3e
       0.0642348 -0.03401077 0.14809789 0.27300215
000350 8c 72 5e 3e fb 97 32 3e e3 69 52 3e 7d 17 19 bf
       0.21723384 0.17440788 0.20548205 -0.59801465
000360 a7 2f 75 3e 54 61 11 3e 65 fc ee 3c 12 43 31 3d
       0.23943959 0.14197284 0.029173085 0.043276854
000370 34 13 fb 3c 20 93 18 3b f8 31 9c be 54 6d 71 3e
       0.030648805 0.0023281053 -0.30506873 0.23576862
000380 05 78 0e be 18 ce c0 3c 62 5e f8 3d a4 85 1e 3e
       -0.13912971 0.023535773 0.12127377 0.15480667
000390 93 69 a9 bd 78 60 5b 3e 56 8f c3 bd 3a 8a aa 3e
       -0.0827209 0.21423519 -0.095488235 0.33308583
0003a0 e7 29 91 bd bb c6 95 3d 1b a4 b7 3e ab 9b 10 3e
       -0.0708807 0.073132955 0.3586739 0.14121883
0003b0 03 bf 34 3e c2 9c b6 3c ae 27 e6 3d 63 08 d7 3d
       0.1765099 0.022291545 0.11238037 0.104996465
0003c0 89 bb 8a be c7 6a a6 3d 88 c6 16 be 7e c9 35 3e
       -0.27096203 0.08125835 -0.14724171 0.17752644
0003d0 1d c4 1e 3e 0a b6 51 be b4 2a 0b 3e 50 1b 69 3e
       0.15504499 -0.20479599 0.13590509 0.22764325
0003e0 fb 77 96 be b6 80 07 3e b8 8e 42 3e 25 8a 91 be
       -0.29388413 0.13232693 0.18999755 -0.28425708
0003f0 3b a8 e7 bc 6a 54 20 3e ef 7f 49 3e a4 f4 73 be
       -0.02827846 0.15657201 0.19677709 -0.23823792

RNN.bias_hh_l0 f4 [512]
000000 0d b2 8a 3c ad d3 18 3d c2 99 65 3e d7 74 fb bd
       0.016930604 0.037311245 0.22421935 -0.12278145
000010 c8 74 25 3e d0 c7 d9 3d 87 ed 55 3e 9a c4 94 3d
       0.1615783 0.10633814 0.2089139 0.07264061
000020 d2 b0 f4 bd e4 e9 4d 3e 33 d6 0c 3c d1 1f c5 bd
       -0.11947788 0.20108753 0.008595991 -0.09625209
000030 d0 e4 93 bc a3 9f d0 3d c4 5c 16 be dd f7 3b 3e
       -0.018053442 0.10186698 -0.14683825 0.18356271
000040 08 60 98 3e ec 50 1b bc c1 1b 01 be ad b1 08 be
       0.29760766 -0.0094797425 -0.12608244 -0.13349028
000050 e6 c0 bd 3d b9 4f e1 bd 23 a3 cb 3d 5c 57 8d 3c
       0.09265308 -0.11001534 0.09943225 0.01725357
000060 54 cb cc 3d 24 ba 05 3e 51 a0 ca bd 9f 37 33 bc
       0.09999719 0.13059288 -0.09893859 -0.010938554
000070 f5 20 5f 3e 64 60 fe 3d a8 e9 4f 3e 9d 65 07 3e
       0.21789916 0.12420729 0.20303977 0.13222356
000080 67 0b 44 3e b6 87 3d be f6 5c f8 3e c6 37 03 3e
       0.19144975 -0.18508801 0.48508424 0.12814245
000090 95 58 3b 3e e3 f2 03 3c 28 30 73 3d 5b 8f e1 3d
       0.1829551 0.008053514 0.059372097 0.11013671
0000a0 77 0f 97 3e e6 4e df bd 2a 61 40 3e 79 ec 2f 3e
       0.29503986 -0.109037206 0.18787065 0.17180051
0000b0 63 e6 7d 3d 02 47 77 bc 68 f8 c8 bd 50 08 a8 3e
       0.061987292 -0.015092613 -0.09813005 0.32818842
0000c0 11 98 4c 3c 95 a3 86 3d c8 cc e5 3d 51 48 b3 3d
       0.012487427 0.065741695 0.112206995 0.08754028
0000d0 61 3c b2 3d 83 f9 61 bd 57 f8 c1 3c ae 43 15 3e
       0.087029226 -0.055169594 0.023677988 0.14576599
0000e0 ea bf c7 3d 4b 32 83 bd 07 e6 f4 bd 3e df c9 bd
       0.097534016 -0.06406077 -0.11957937 -0.09857033
0000f0 cd 9f 89 3e c8 ea 1b bd fc 1e e7 3c 66 bc d4 3d
       0.2687973 -0.0380657 0.028213017 0.10387497
000100 90 65 22 3c 73 8b 6d 3d a7 ae c8 bd 50 f4 02 3c
       0.00991191 0.057994317 -0.09798937 0.007992819
000110 81 de 2a 3e 4b b1 93 bc 25 38 48 be 4c 6f 2e 3e
       0.16686441 -0.018028876 -0.19552667 0.17034644
000120 bf 32 19 bd 1d ae a1 3e f7 c3 e7 bd 8f 88 9f 3d
       -0.03740191 0.3157815 -0.11316674 0.07789718
000130 0e 29 b2 3d 5c 51 2c 3e 76 4c 17 3e 6d ad 2b 3e
       0.08699237 0.16827911 0.14775261 0.16765375
000140 23 23 7e 3e 82 02 2e 3e 66 bc 92 3d ab 91 45 3e
       0.24818091 0.16993144 0.071648404 0.19293849
000150 52 8d 2b 3c b9 70 da 3d 5c 68 5d 3e 47 68 94 3d
       0.010470705 0.106660314 0.21621841 0.07246452
000160 6f 9d 11 3e 56 3a 83 be 71 1d 00 be 9a 97 61 3d
       0.14220212 -0.25630444 -0.12511231 0.05507622
000170 a0 50 b0 3d 79 62 ae 3d 23 18 30 3e 04 fe 2c 3e
       0.08609128 0.08514876 0.17196707 0.16893774
000180 bf 0f f6 bd 42 4a 09 be dd ca 4e 3e 05 55 1c be
       -0.12014722 -0.13407233 0.20194574 -0.15266807
000190 fa 8d 80 3d 64 ff e7 3d a7 87 81 bd 74 12 24 bb
       0.0627708 0.11328009 -0.06324702 -0.0025035413
0001a0 b0 d2 b0 3d 36 a5 1e 3e d4 a8 8a bd c9 c9 cc bd
       0.086339355 0.1549271 -0.06770483 -0.09999425
0001b0 28 f7 99 3e af 2b 2d 3e a5 29 b9 bc 2e 9a 63 3d
       0.30071378 0.16911195 -0.022602865 0.05556696
0001c0 28 51 80 3e 04 d6 9d 3d 0d ad 49 3d 3c 86 a7 3d
       0.25061917 0.07706836 0.0492373 0.081799
0001d0 81 35 fe bd 39 b2 e7 bd 25 f2 5a 3d 3c 99 8b 3e
       -0.12412549 -0.1131329 0.053453583 0.27265346
0001e0 d5 06 3e 3c 83 1c 89 3e 30 9b 3c 3e b8 49 3b bd
       0.011598309 0.26779565 0.18418574 -0.0457246
0001f0 01 58 e3 3d be 1c ba 3d 98 f8 97 3e 6d e1 51 3e
       0.1110077 0.090875134 0.2968185 0.2049615
000200 cc c0 cb 3d 41 91 d6 bb 65 c1 cd 3b 3e 38 18 bd
       0.099488825 -0.0065480773 0.006279158 -0.03716301
000210 2d 47 bf bc 0a 63 b8 3b d9 df 3c 3e f0 2c 07 3e
       -0.023349369 0.0056270408 0.18444766 0.13200736
000220 b1 10 21 be 32 1b 21 3e 0d ae fd bd a0 65 0d 3d
       -0.15729024 0.1573303 -0.12386713 0.034520745
000230 fd 4f 2e be c2 7e 54 bc 4e dd 0e 3f 88 8f a6 be
       -0.170227 -0.012969675 0.55806434 -0.3253138
000240 52 15 23 be 84 83 6c be cc 40 19 bd 7c ee ec 3d
       -0.15926102 -0.23097044 -0.03741531 0.11568925
000250 50 b9 7a be 8a b7 d1 3d 41 c7 6b be 1c 9b 2c 3e
       -0.24484754 0.102400854 -0.23025228 0.16856045
000260 76 9f 7a 3e 72 87 30 3d 7d aa b3 3d b7 a9 86 be
       0.24474892 0.04309792 0.087727524 -0.26301357
000270 d7 09 3e be c9 47 84 bd 80 10 3c 3e a1 d0 4f bd
       -0.18558441 -0.064590044 0.18365669 -0.050736073
000280 98 51 b7 3d 1a d4 64 bd c7 46 0e bf a9 2b 68 3e
       0.0895111 -0.05586634 -0.5557675 0.22672905
000290 a2 52 8b 3e 96 2d a6 be 80 44 51 3e 97 69 22 be
       0.2721148 -0.32456654 0.20436287 -0.15860592
0002a0 50 bd 5e bd 53 af 12 3d ac fc 53 3c 0f 2f 8a 3e
       -0.05437976 0.035811733 0.01293866 0.26989028
0002b0 db 0e 5b 3c d9 f5 2a 3d dd 48 34 be ba e0 02 be
       0.013370241 0.041738365 -0.1760592 -0.12781039
0002c0 60 6e 46 be 6b e4 3e 3d 3d 46 bd bd 30 c1 42 3e
       -0.19378042 0.046604555 -0.092419125 0.19019008
0002d0 8c 04 f8 bb 84 b3 f0 3d 29 01 08 be 18 3d cb 3d
       -0.0075689014 0.1175299 -0.13281693 0.09923762
0002e0 89 d0 4b 3b de 96 85 3d 81 96 87 3d 4c 7a ee 3d
       0.0031099638 0.06522916 0.06620503 0.1164442
0002f0 e5 49 30 3e 57 ff c6 bd 51 53 54 3e aa ba 28 bd
       0.17215689 -0.09716671 0.20734908 -0.04119364
000300 39 cb 7c bd 49 58 57 3d 54 83 8b be 76 e8 db bd
       -0.061717246 0.05257443 -0.27248633 -0.10737698
000310 b4 87 26 be 70 cb 35 3e 2c 85 ca 3d a0 da 05 3e
       -0.16262704 0.17753386 0.09888682 0.1307168
000320 cf 11 81 3d 3a e9 cb bd 48 21 45 3e ac 81 3a 3e
       0.06302225 -0.09956594 0.19250977 0.18213528
000330 dd 6e 36 be f9 71 4a 3e 22 8a ea bd de 87 3b 3e
       -0.17815728 0.1977004 -0.11452128 0.18313548
000340 f9 f5 09 bd 7e b2 d2 bd 8b f4 88 3e 9d cc 7f 3e
       -0.033681843 -0.10287951 0.2674907 0.24980398
000350 57 06 0c 3e 65 aa 1b 3e 72 a1 5c 3e 85 23 10 bf
       0.13674293 0.15201719 0.21545961 -0.563042
000360 7d f6 90 3e a0 6e a1 3d a3 16 0f 3c bf bb 91 bb
       0.28313056 0.07882428 0.008733424 -0.00444743
000370 b0 cf 92 3d 91 f8 f4 bd f5 32 6d be f0 ad 75 3e
       0.071685195 -0.11961473 -0.2316397 0.23992133
000380 e3 0a 7b 3b d5 1a 75 3d 6e 0a 43 3d 7a 3d c3 3d
       0.003830605 0.059840042 0.04761737 0.0953321
000390 2c db 14 be c5 98 5a 3e be 38 f0 bc 00 7e af 3e
       -0.14536732 0.2134734 -0.029323932 0.34275818
0003a0 bb 05 01 bd ee db 1f 3e 71 a3 5c 3e 02 e3 42 3e
       -0.031499606 0.1561124 0.21546723 0.19031909
0003b0 4f ec 8a 3e af 0c 56 3d c4 3c c2 3c a9 71 1b 3e
       0.27133414 0.05225819 0.023710616 0.15180077
0003c0 07 70 7d be 5a 32 fd 3d 0a 7a 95 bd 5b bb 20 3e
       -0.24749766 0.123631194 -0.07298668 0.1569647
0003d0 a7 8a da 3d 43 28 09 be 8c 4f 00 3e 01 eb 5d 3e
       0.10670977 -0.13394265 0.12530345 0.21671678
0003e0 ac 11 85 be 84 db aa 3d 1b 01 30 3e 16 79 60 be
       -0.25990045 0.083426505 0.17187922 -0.2192119
0003f0 2a 4a 23 bd d8 76 22 3e 0c b0 d4 3d 2d a8 ac be
       -0.03986565 0.15865648 0.10385141 -0.33722058

actor.weight f4 [5, 128]
000000 f0 a9 c3 be f2 bb 8c 3f 2b 5d 31 bf c7 00 77 3d
       -0.3821559 1.0994856 -0.6928279 0.060303476
000010 8f 94 b9 bd 1d 38 0b 3f 2c b3 90 be 30 ce 27 be
       -0.090615384 0.543825 -0.28261697 -0.16387248
000020 7b d8 a9 bd c2 31 7c be a2 6d eb bd a3 bf 12 3e
       -0.082932435 -0.24628356 -0.1149552 0.14330916
000030 9d 88 82 bd 2d 26 33 be 17 83 ca bd 64 26 f8 3e
       -0.06373713 -0.17495032 -0.09888285 0.4846679
000040 a9 85 e5 bd a2 3b 15 3f 9b 32 1d be 8b 38 08 be
       -0.11207134 0.5829412 -0.15351336 -0.1330282
000050 97 9b b9 be c1 21 f7 be 1f 74 b0 be c0 20 c1 3c
       -0.36251518 -0.4826794 -0.34463593 0.023575187
000060 0d a5 48 3d ac 7b 12 3f 61 3d df bd cd a4 c0 3d
       0.04898553 0.5721996 -0.10900379 0.09406433
000070 e4 8f 1f 3e 06 e2 fd be 1e f2 14 bf f8 e2 b6 be
       0.15582234 -0.49586505 -0.5818194 -0.35720038
000080 ec 21 2f bf 46 e6 6d 3e fb ce a0 be 92 42 91 bd
       -0.68411136 0.23232374 -0.31407914 -0.070927754
000090 9e a0 d0 be 8f 48 57 3e 90 7c 40 bf 10 39 16 bf
       -0.4074754 0.21023773 -0.7519007 -0.5868082
0000a0 03 c9 99 be 9f db bc 3f 93 84 58 3e f5 fc 3f 3d
       -0.30036172 1.4754523 0.21144323 0.046872098
0000b0 86 f8 22 bf 9a 9b 11 3e 86 a1 e8 3d fa c2 04 3f
       -0.63660467 0.14219514 0.11358933 0.5186001
0000c0 b8 65 0d 3e b1 31 7a 3f 99 cb 1f 3f c8 23 84 3d
       0.13808334 0.97732073 0.6242004 0.06452137
0000d0 4f 34 ea 3e 1f 3c 78 3d 82 27 72 bc 93 e5 c3 be
       0.45743033 0.06060421 -0.014779927 -0.3826109
0000e0 8c e6 10 3f 1b 84 0f 3f 6a de bd bd cf 67 05 3e
       0.56601787 0.5606095 -0.09270938 0.13027881
0000f0 e1 b0 a6 be 3b 96 0a 3c 20 8e 50 be a1 86 30 3f
       -0.32556823 0.008458669 -0.20366716 0.6895543
000100 d2 9d ec 3e 48 3c 35 be 9e b1 82 3e 0c 32 34 be
       0.46214157 -0.17698777 0.25526136 -0.17597216
000110 79 ba 07 bf 66 e9 4e 3e 0c b1 60 be 1c d2 3c 3d
       -0.5301891 0.20206222 -0.21942538 0.046098813
000120 04 a3 76 be 80 1d f8 be 12 c1 d4 3e bb 71 97 3e
       -0.24085623 -0.48460007 0.4155355 0.29578957
000130 32 3f c0 3e 9e 11 cc 3d ba bc ac be 6a c3 42 3e
       0.37548214 0.09964298 -0.33737737 0.19019857
000140 8e f5 4a bf b2 69 23 3e 7b ac 74 3e 67 7e 97 be
       -0.79280937 0.15958288 0.23893921 -0.29588625
000150 9b 8f a4 3d 16 68 ec bc 63 4b d4 3e d5 f7 d3 be
       0.08035203 -0.028858226 0.41463766 -0.41400018
000160 16 7c e0 3e a5 7e 6e 3e b4 a6 e7 3e 4f a0 e8 3e
       0.4384467 0.23290499 0.45244372 0.45434806
000170 0f 8d 36 3f bd 39 2c be 20 a3 cb 3d d5 6c 50 be
       0.7130899 -0.168189 0.09943223 -0.20354016
000180 91 fd 3f 3e 54 10 b6 3c 92 f6 25 3e f9 95 6b be
       0.18749072 0.022224583 0.1620734 -0.23006429
000190 ca a4 57 be cf b0 27 3c 7f 82 d6 be 16 44 f1 be
       -0.21058956 0.010235026 -0.41896436 -0.47122258
0001a0 4a 72 89 bf 32 cf 05 be c4 df 80 be 80 66 a1 3e
       -1.0738003 -0.1306732 -0.2517072 0.31523514
0001b0 eb d7 c5 be 2f ca b1 3e 48 3c 2d 3e 13 62 56 3d
       -0.38641295 0.34724566 0.16917527 0.052339625
0001c0 2e 1e 0c be 8d 1e d9 be 97 ae 09 bf 23 e6 92 3d
       -0.13683388 -0.4240612 -0.5378203 0.07172801
0001d0 86 08 b0 3d fb 35 3a 3d ab 64 ed bc 62 b0 b8 be
       0.08595376 0.045461636 -0.028978666 -0.3607207
0001e0 67 c5 2b 3e 2b d3 cd 3e 96 81 fd bd 8c 46 0a 3e
       0.16774522 0.4020017 -0.12378232 0.13503474
0001f0 88 00 84 bf ad e0 5c 3e 21 4c a9 3e 5e ca 15 3e
       -1.0312662 0.21570082 0.33065894 0.14627978
000200 94 6f 8d be 7f 42 8e bf ae 75 33 3e 1d 06 ac 3e
       -0.2762419 -1.1114043 0.1752536 0.33598414
000210 94 82 26 3f 33 e6 ed be 44 9f 0e bf 80 30 99 be
       0.65042996 -0.4646469 -0.5571177 -0.29919815
000220 b1 cf 22 3e 88 c7 02 bf 0d f7 fa 3e 05 f8 67 be
       0.1589954 -0.5108571 0.4901661 -0.22653206
000230 d5 26 ec 3d 6d 65 29 3e 82 97 6e bc 39 1e f7 3e
       0.11530844 0.16542597 -0.014562489 0.48265246
000240 f9 72 4b 3e 28 cb 1e 3e 45 da a5 3e a8 8a 1d be
       0.19868077 0.15507185 0.3239309 -0.15384924
000250 15 0b 26 bf 77 d9 f2 3e 13 d5 08 bf 33 aa 9a 3e
       -0.6486066 0.47431538 -0.53450125 0.30207977
000260 6a 54 91 3d 3e 71 3d be ab 8a 7f bd e4 d6 67 be
       0.07096179 -0.1850023 -0.062388103 -0.22640568
000270 be 6b 90 3e 6d c7 8e bd 68 44 d5 be 83 82 83 3d
       0.282072 -0.06971631 -0.41653752 0.064213775
000280 09 d0 cf 3e da 47 28 be 7c 01 06 bf cc f4 51 be
       0.40588406 -0.16433659 -0.52346015 -0.20503539
000290 ab 61 95 be 9e 26 48 3e 6f c7 53 3f b4 29 fc be
       -0.29176077 0.19545981 0.82726187 -0.49250567
0002a0 94 20 fa be ec f8 80 bf 8a 16 92 bd 03 86 a3 3e
       -0.4885298 -1.0075965 -0.07133205 0.3193818
0002b0 ac a1 71 3e a1 dd 3b 3e 47 7d 17 3e 51 ac 92 be
       0.23596829 0.18346263 0.14793883 -0.28647092
0002c0 0a e1 7c be 87 a9 2e bf 4f e7 bb be 48 2e a7 3e
       -0.2469522 -0.6822743 -0.36699912 0.32652497
0002d0 9a 7e 0a be aa 32 0c 3e 60 a1 2a be c4 96 06 3f
       -0.13524857 0.13691202 -0.16663122 0.525738
0002e0 3b 44 c8 be da a7 72 be d1 77 45 3e db e8 1b bf
       -0.39114556 -0.23696843 0.19283988 -0.60902184
0002f0 b6 f8 02 bf ef 81 95 be a4 58 32 bd dd 0f 28 3e
       -0.5116075 -0.29200694 -0.043541566 0.16412301
000300 48 96 05 3f 65 00 d7 be 01 2c ed 3e d0 3e d9 be
       0.52182436 -0.41992489 0.46322635 -0.42430735
000310 ef 4b 80 be d3 7f 55 be 94 3c c5 be cf 5e 2c bd
       -0.25057933 -0.20849542 -0.3852278 -0.042082604
000320 2c a8 df 3d 34 05 08 bf 7a 4b d9 3e 26 03 d7 3e
       0.10920748 -0.5313294 0.42440397 0.4199459
000330 a8 ba c8 3e c0 95 b2 3e 67 5a fb be ab 24 cd bd
       0.39204907 0.34879875 -0.4909241 -0.100167595
000340 9a a3 0e 3f df 1e 79 bf 33 00 f3 ba 03 70 95 bd
       0.55718386 -0.9731273 -0.0018539488 -0.07296755
000350 ee 32 6e 3c 18 91 56 3d 4f 29 e5 3e f2 50 86 3f
       0.01453851 0.052384466 0.44758078 1.0493453
000360 52 a7 02 3f 7f 14 7f 3e 8c 04 fe be 9e 89 b9 be
       0.5103656 0.24910162 -0.49612844 -0.36237806
000370 d4 97 52 be 9e 84 2c 3e 5a 80 1a bf d3 3a 44 be
       -0.2056573 0.16847464 -0.603521 -0.19163065
000380 00 ed a8 3e 9f 6b 13 3d 2c 41 08 3f 6c de ec bd
       0.32993317 0.035991307 0.53224444 -0.11565861
000390 c6 74 32 be 0a 83 40 be ae 1c 8c be 60 45 c7 3c
       -0.17427358 -0.18799987 -0.2736563 0.024325073
0003a0 7a 69 55 3f aa 00 4e 3e 72 1d 56 be 17 c6 7f 3e
       0.8336407 0.20117441 -0.2090967 0.24977909
0003b0 eb 92 f5 be a4 d2 02 bf a3 43 21 be 8e 18 83 bf
       -0.47963652 -0.5110266 -0.15748458 -1.0241868
0003c0 eb bc 4b 3f 42 94 09 3f 23 1b ff be d9 29 a9 be
       0.7958514 0.5374185 -0.4982539 -0.3303974
0003d0 f1 cf c5 3d f8 5d a5 3e 1a 34 ff bd 04 23 08 bf
       0.09658802 0.32298255 -0.124611095 -0.5317843
0003e0 11 cc a8 3e 06 1c c5 3e 01 aa c7 bd 60 56 7f be
       0.3296819 0.38497943 -0.097492225 -0.24935293
0003f0 60 61 39 3f 18 5a d9 3b 21 89 ee 3e 62 0f 2d 3f
       0.7241421 0.0066330545 0.46588996 0.676016

actor.bias f4 [5]
000000 3f 45 0c 3e 73 7a 84 3e 93 28 b0 3c 59 f4 61 bd
       0.1369829 0.2587467 0.021503722 -0.05516467
000010 45 5d c7 3e
       0.38938347

critic.weight f4 [1, 128]
000000 0c d2 6c bc 88 14 30 bd 8c 30 08 bd c7 ed 17 3e
       -0.014454376 -0.04298833 -0.033249423 0.14836799
000010 bf a0 50 3d f8 ce 84 bd 21 d8 9b bd 04 9e 4d be
       0.05093455 -0.06484789 -0.07609583 -0.2007981
000020 63 dd 5b bd 38 6b 1a 3e 49 5f b0 bc 25 62 68 be
       -0.053677928 0.15079963 -0.02152981 -0.22693689
000030 e0 c8 3a 3e e4 cc f5 bd f4 a9 b6 3d 38 fe 80 3d
       0.1824069 -0.120019704 0.08919135 0.062984884
000040 51 0b e6 bd b2 96 29 be 66 4c a3 bd 48 f3 ab be
       -0.11232627 -0.16561392 -0.07973556 -0.33584046
000050 51 a0 39 be 8d b4 e9 3d ab b9 81 3e 77 21 61 3e
       -0.18127562 0.114113905 0.25336966 0.21985422
000060 70 e1 12 3c 7d 54 24 be 0d 3e a1 3d 1d 32 62 be
       0.008964881 -0.16047855 0.07873163 -0.22089429
000070 41 66 9a bd 12 86 4f be 23 14 40 bc c9 d7 1d be
       -0.07539035 -0.20265988 -0.011723551 -0.15414347
000080 a7 93 d2 3d bd 66 d1 be 51 88 85 3d 56 76 0a be
       0.10282069 -0.40898696 0.06520141 -0.13521704
000090 24 e6 89 bd 3f f9 e6 3d 8f b3 7c bd e6 e9 80 bd
       -0.06733349 0.11278009 -0.061694678 -0.062946126
0000a0 3d cd 29 be ec be d6 3d e1 32 01 3e 22 b0 4a 3e
       -0.16582198 0.10485634 0.12617065 0.19793752
0000b0 aa 45 86 39 22 ba 63 3e 2f 99 05 3e 16 a6 a7 bc
       0.00025610375 0.22238973 0.13046716 -0.020464938
0000c0 f6 13 92 3d ce 8b f4 bd fa b8 30 3a 35 28 a2 3d
       0.071327135 -0.11940728 0.0006741431 0.07917825
0000d0 a1 f4 82 bc af 95 a2 3d a8 7c f4 3a 46 f2 81 bd
       -0.015985789 0.07938706 0.0018652873 -0.06345038
0000e0 fd 1a 60 be 80 8d 18 39 b6 af 91 3e 06 d1 f2 3e
       -0.21885295 0.00014548562 0.2845437 0.47425097
0000f0 ba 43 4f be 29 b7 40 3e 61 3f fc bc e6 36 65 bd
       -0.2024068 0.1881987 -0.03079194 -0.05596056
000100 50 5c 0a be 32 f0 59 be 9f 49 b9 3c f7 5c 99 3d
       -0.13511777 -0.21283033 0.022618113 0.07488435
000110 cf 07 24 be 04 4d f2 bd 96 41 a6 be 1b 0c 63 3d
       -0.16018604 -0.11831096 -0.32471913 0.055431467
000120 15 0f 6e bd 59 0a 84 3e 8d 22 b3 3d f5 42 f0 3d
       -0.058119852 0.25789145 0.087468244 0.11731521
000130 3d 61 81 bd 40 c5 63 3d f2 7f cc 3e 1e e5 be bd
       -0.06317375 0.055608034 0.39941365 -0.093210444
000140 6b 79 06 bd 21 e3 d0 3c ac ef 5d 3e 6a 04 34 bd
       -0.032830637 0.025498929 0.21673459 -0.043949522
000150 cb 78 bc 3d 4b ea 6d bd fb 64 db 3d 71 6e 14 3d
       0.09202727 -0.058084767 0.1071262 0.036238138
000160 ce 54 11 3e cc 4f 5f bd 41 9d d4 3d 48 c8 09 3f
       0.14192507 -0.05451946 0.10381556 0.5382123
000170 f3 b1 02 3e 57 17 50 bd 02 00 bd bd 9a 40 96 bd
       0.12763195 -0.05080351 -0.09228517 -0.073365405
000180 23 ad db bd 44 37 ab bd 09 93 cf 3d 5c f1 8a 3e
       -0.107263826 -0.083601505 0.101354666 0.27137268
000190 c2 18 bb 3d 36 5c 4f 3d 6e b6 24 be 81 11 88 3d
       0.091355816 0.05062505 -0.16085216 0.066439636
0001a0 0d a0 bc bd e1 c1 94 3d a1 78 85 be 64 3c af 3d
       -0.09210215 0.07263542 -0.26068595 0.085564405
0001b0 5a 1b f8 bd b6 bb f2 3d d0 ba 1b 3e c7 03 0c bd
       -0.12114592 0.11852209 0.15207982 -0.03418329
0001c0 43 bc 92 bc fb cf 80 bd e3 cd 5a 3e 58 da fe bd
       -0.017912036 -0.06289669 0.21367602 -0.124439895
0001d0 d9 af d9 be a7 3b 44 3c eb 7e 73 be b0 5b 84 bd
       -0.42516974 0.011977113 -0.23778884 -0.064628005
0001e0 69 58 06 bc 17 05 cc 3d 2d 4a 9a bd 19 47 a7 bd
       -0.00819979 0.09961908 -0.07533679 -0.08167858
0001f0 ad 74 e0 bd cc 98 b0 3d 16 cb 8d 3d dc 2c 10 3d
       -0.10959754 0.08622894 0.06923501 0.03519903
