OLD/Liu/cont/v_6/train_iter_45000.pt (torch, 745415 bytes, 9 tensors)

h0 f4 [128]
0.27321294 0.7209466 -0.36148012 0.6073073 0.072848424 0.1451075 -0.5267587 -0.02287163
0.70583165 -0.4907665 -2.3851614 -0.4036732 -1.5960666 -0.9659976 0.22021559 -1.0613167
0.219156 -0.89894277 -0.69675565 -1.530775 -3.4881337 0.95526445 0.04221736 -0.55196315
0.32410482 0.8853826 -0.5185069 -0.98506254 -2.1684108 -0.06626331 -0.17632407 0.4361793
-0.1496727 -0.32306033 -0.30411893 -0.81204385 -1.5230036 -0.18363991 3.1143548 -0.5231485
0.69845694 0.7186585 0.9939018 -0.54372495 -1.7403408 0.042347424 -0.06275074 0.025822712
1.7955776 0.13911958 0.36191422 -3.110067 0.30983028 1.087493 0.4699688 -0.15674803
2.3452387 2.0793843 -0.36213678 0.52372736 -1.2747864 -0.72566867 1.453215 2.02238
-0.3676704 -1.6272383 -0.14595911 0.88797647 0.72689456 -1.4344742 -2.6928456 -0.006402452
-2.0848012 0.67302585 -0.7623317 1.0008528 -0.5772021 -1.878962 -0.34792295 0.29409644
0.17982776 -1.2145735 0.52433616 0.52052015 0.27682108 -0.91013515 0.18364675 0.5003892
-1.1325625 -0.8416299 2.4069011 1.0818833 -1.435573 0.29735196 -1.4762515 -0.9071714
0.017978748 -0.8024641 -0.20126933 -0.8615957 1.1649659 -0.24405101 0.21445665 0.4094721
-0.876252 1.914709 -0.6478058 0.9057929 -0.6632296 0.014089188 2.0773442 1.8278039
-0.45254397 -0.19458467 -0.2842556 -0.7459859 -0.79557395 -1.829666 -0.2579119 0.8321481
-1.8308403 -0.8402917 0.038413428 -0.05354057 -0.39047533 -0.8381164 -0.26504397 -0.3221799
00000000: 91e2 8b3e f58f 383f ec13 b9be 7e78 1b3f
00000010: 8e31 953d 0f97 143e a8d9 06bf 495d bbbc
00000020: 62b1 343f bf45 fbbe 7ca6 18c0 41ae cebe
00000030: e94b ccbf 9e4b 77bf 3280 613e 3ad9 87bf
00000040: 6e6a 603e 1d21 66bf 945e 32bf 6ff0 c3bf
00000050: 953d 5fc0 368c 743f 1cec 2c3d 754d 0dbf
00000060: 11f1 a53e 6fa8 623f debc 04bf 0f2d 7cbf
00000070: 3ec7 0ac0 0fb5 87bd 4c8e 34be e552 df3e
00000080: cd43 19be 2a68 a5be 7ab5 9bbe 1be2 4fbf
00000090: c8f1 c2bf 1a0c 3cbe 9751 4740 0fed 05bf
000000a0: 13ce 323f 01fa 373f 5970 7e3f 8f31 0bbf
000000b0: 7dc3 debf 7e74 2d3d 7683 80bd 278a d33c
000000c0: 7dd5 e53f 5d75 0e3e d24c b93e 560b 47c0
000000d0: 13a2 9e3e f832 8b3f c09f f03e 8e82 20be
000000e0: 6418 1640 a214 0540 fe69 b9be ff12 063f
000000f0: 332c a3bf 6cc5 39bf f302 ba3f ad6e 0140
00000100: 4b3f bcbe 5849 d0bf 4e76 15be 6d52 633f
00000110: c315 3a3f da9c b7bf 9557 2cc0 a9cb d1bb
00000120: 626d 05c0 6c4b 2c3f 2c28 43bf f21b 803f
00000130: 84c3 13bf d481 f0bf f522 b2be cf93 963e
00000140: c524 383e 2577 9bbf e53a 063f cf40 053f
00000150: 7ebb 8d3e 9efe 68bf e50d 3c3e 8219 003f
00000160: cff7 90bf 0f75 57bf ab0a 1a40 277b 8a3f
00000170: dbc0 b7bf 843e 983e cff5 bcbf 633c 68bf
00000180: 2b48 933c 4a6e 4dbf 8c19 4ebe 8991 5cbf
00000190: 9a1d 953f 82e8 79be 869a 5b3e 54a6 d13e
000001a0: 0d52 60bf 2f15 f53f 9ad6 25bf 0be2 673f
000001b0: 6ac9 29bf 56d6 663c 35f3 0440 7af5 e93f
000001c0: d8b3 e7be 3441 47be f389 91be eff8 3ebf
000001d0: bcaa 4bbf 7f32 eabf 070d 84be a807 553f
000001e0: fa58 eabf 5b1d 57bf 6657 1d3d 5b4d 5bbd
000001f0: 62ec c7be cc8e 56bf d8b3 87be c4f4 a4be

c0 f4 [128]
-0.21753836 -1.6525482 -0.97297484 0.18666786 0.9901607 1.483181 -0.72687954 -1.1590179
0.0031102546 -0.54836124 0.39430678 -0.55030406 0.527074 -0.04811884 0.42532834 3.1148145
-0.097064234 -1.2544992 -0.20741802 -0.9653232 -1.7988392 1.3980849 0.34635457 -0.18733825
-0.1778434 1.330383 -0.118726335 0.5964723 -0.12051383 0.53720754 -1.7980776 -0.87106323
-0.4211267 0.014064428 -0.01423068 -0.14099562 0.51368064 0.04453729 0.688227 0.3215149
1.8284159 -0.63482636 1.6405969 0.0908679 -1.4469975 -1.8645077 -1.613123 -0.8919038
1.1888698 0.047690425 -0.22623962 -0.07105322 1.3511295 0.4247344 -1.418776 -0.55774504
0.50946933 2.1648607 1.735633 -1.3125782 0.16586591 -1.4605464 -2.323512 0.7886819
1.0222293 2.4561634 0.7757433 1.04969 -0.072155826 -0.08123587 0.87177217 0.3191266
-0.18173762 1.9954413 0.50298226 0.59596443 -0.80340993 0.8277622 -0.6454161 -0.24127205
0.20920005 -0.95889324 -0.33443242 -0.28294045 1.2914402 0.6314283 -0.4748462 -1.3956535
0.35319123 0.8556277 0.16943417 0.42781314 0.95426625 -0.48967132 0.58419675 -1.9966831
0.416677 -1.8020549 -1.0194461 -0.33723372 -0.5119414 -0.68788695 -0.61588615 0.22660196
0.28847486 0.7669166 -0.7306588 -0.121690296 0.007907122 -0.13301772 -0.3916428 0.19031486
-0.12459555 -0.47690395 -0.9964936 -0.98117197 1.0714936 -0.109301105 -1.183438 -0.3493929
-0.6179858 -0.27955392 -1.3449985 0.0013418593 -1.1668658 2.746615 0.052831102 -0.08342314
00000000: 60c2 5ebe b386 d3bf e114 79bf dc25 3f3e
00000010: 2c7b 7d3f e0d8 bd3f c714 3abf b35a 94bf
00000020: 6ad5 4b3b 6761 0cbf 94e2 c93e bae0 0cbf
00000030: 52ee 063f 4318 45bd a3c4 d93e 1f59 4740
00000040: 9dc9 c6bd 6e93 a0bf 6465 54be 6c1f 77bf
00000050: 5d40 e6bf 72f4 b23f 6355 b13e 99d5 3fbe
00000060: 951c 36be fd49 aa3f cb26 f3bd 69b2 183f
00000070: f4cf f6bd 6f86 093f 6827 e6bf 00fe 5ebf
00000080: eb9d d7be 7d6e 663c cc27 69bc 2861 10be
00000090: 9380 033f bc6c 363d a52f 303f 9a9d a43e
000000a0: 8809 ea3f fb83 22bf 14ff d13f f318 ba3d
000000b0: 3737 b9bf 30a8 eebf d17a cebf cf53 64bf
000000c0: e32c 983f 0957 433d 5cab 67be 5a84 91bd
000000d0: d0f1 ac3f ca76 d93e 749a b5bf 61c8 0ebf
000000e0: 956c 023f 148d 0a40 3929 de3f 9002 a8bf
000000f0: c1d8 293e 2ff3 babf 6cb4 14c0 0fe7 493f
00000100: 69d8 823f c831 1d40 1d97 463f 3e5c 863f
00000110: 6fc6 93bd fe5e a6bd 762c 5f3f 9064 a33e
00000120: 6d19 3abe 9f6a ff3f 72c3 003f 2091 183f
00000130: 46ac 4dbf 39e8 533f fd39 25bf 0510 77be
00000140: 8a38 563e 077a 75bf ba3a abbe 92dd 90be
00000150: ea4d a53f 49a5 213f 0b1f f3be c6a4 b2bf
00000160: 7bd5 b43e 6b0a 5b3f 2780 2d3e 530a db3e
00000170: cb4a 743f 33b6 fabe eb8d 153f 5093 ffbf
00000180: b056 d53e bca9 e6bf 367d 82bf e6a9 acbe
00000190: 970e 03bf 5c19 30bf b7aa 1dbf 580a 683e
000001a0: fab2 933e a554 443f 750c 3bbf c338 f9bd
000001b0: e08c 013c cc35 08be 6885 c8be e6e1 423e
000001c0: f42b ffbd c12c f4be 341a 7fbf 162e 7bbf
000001d0: b426 893f 42d9 dfbd e57a 97bf a0e3 b2be
000001e0: 5134 1ebf b121 8fbe e928 acbf 54e1 af3a
000001f0: dc5b 95bf 8ac8 2f40 6d65 583d c0d9 aabd

RNN.weight_ih_l0 f4 [512, 15]
0.24056421 -0.12548229 -0.08281644 -0.06899142 -0.035914823 0.1682225 0.19361766 0.020044163
-0.04188985 0.021597084 -0.2284476 0.119536065 0.026649566 -0.103027456 0.3152134 -0.035655614
0.25881666 -0.2949481 -0.06890751 0.029191665 1.502125 -0.122198194 0.038977273 0.085078835
1.3549966 0.21098232 -0.09463231 0.026397593 -0.037492525 -0.011941782 0.25467908 0.1253107
-0.056085743 -0.0028646365 -0.07880315 0.0044778194 0.28331387 0.05829922 0.14688547 -0.008847136
0.34109288 -0.064007275 0.054342225 -0.004571264 0.31290197 -0.078263514 0.68682253 -0.77073514
0.063031755 -0.002392836 0.4054291 -0.044404525 -0.01588013 -0.14371398 0.29550818 -0.4248375
0.15991218 0.019438392 0.14194326 -0.009446719 0.5624325 0.16094813 0.06810507 -0.08149725
-0.085766666 0.12170467 0.4695344 0.0162502 0.14826244 0.11347437 0.49373496 -0.15148713
-0.17483006 -0.052818388 0.5871424 0.23038024 -0.10320433 0.08318799 0.030385494 -0.08179407
0.71446705 0.22841907 0.002729632 0.09266908 0.5950098 0.33409792 -0.044874493 0.19178742
0.010662193 0.19577532 0.12722667 -0.0147979185 0.13187608 -0.065073974 -0.009796582 0.107951224
0.094007894 -0.029304482 0.121917985 -0.17121223 0.11004699 0.11288655 0.06706183 -0.09420597
0.22080876 0.12028906 0.018683102 0.29312602 -0.06837569 0.016129956 -0.11788203 -0.005934689
-0.03786102 0.102564454 -0.09247976 -0.014794022 0.06672083 0.040534504 -0.08074713 0.008383314
0.048995696 0.0494901 -0.13500366 -0.010249354 0.02139102 -0.73335314 -0.06540634 0.056008585
-0.11822436 -0.7977429 0.19405793 -0.27224344 -0.016408421 -0.08966731 0.022058794 0.21997832
-0.07945083 0.050216496 0.072888024 -0.03018437 0.039832104 0.1679367 0.012993 0.019499045
0.05522923 -0.0024607591 0.035148706 -0.041749693 -0.055130776 0.1812212 0.050096788 -0.26416478
0.04811009 0.050749652 -0.033002194 -0.25605956 0.062468085 0.046828546 -0.21796697 -0.32084128
-0.09825612 0.067207016 -0.06733993 -0.09495191 0.1247068 -0.043932445 -0.24393739 0.1490942
-0.0628535 0.04642304 -0.17163505 -0.082005255 -0.068775184 -0.08725121 -0.14828612 -0.044247385
-0.09195853 -0.018136082 0.0150167905 -0.013276748 0.047800083 -0.121370226 0.32246456 0.024857946
-0.02738326 0.27378678 -0.039565448 0.033710986 0.04244268 0.31162444 -0.25561327 0.46210864
-0.06912387 -0.03333553 -0.0460739 -0.1535233 0.1560733 0.10440787 -0.005552806 -0.044446055
-0.058853604 -0.025288222 -0.039241876 0.18698844 -0.11094582 0.026099415 0.12718084 -0.0719933
-0.09547902 -0.137526 -0.034939818 -0.068493 -0.039976504 0.028684795 0.019569159 -0.1385636
-0.06542587 0.05577577 -0.10309691 -0.1517154 -0.004539708 -0.14049889 0.010860387 0.15885673
-0.10637199 0.47510466 -0.5630845 0.40467575 -0.05804369 -0.029017873 0.28817102 0.39305922
0.033998005 -0.12599197 0.10066898 -0.17679837 0.061713587 -0.07518095 0.21477853 0.4877639
-0.041567933 0.17370607 0.091441415 -0.005296193 0.08769431 -0.13477737 0.037444375 0.08135346
0.21627265 0.03316723 0.036141172 0.15503263 -0.3735778 -0.22877401 0.035377126 -0.05890843
00000000: 7756 763e 6e7e 00be aa9b a9bd 604b 8dbd
00000010: 6c1b 13bd 8542 2c3e b543 463e a833 a43c
00000020: b194 2bbd 5eec b03c 2bee 69be 53cf f43d
00000030: 3150 da3c 0f00 d3bd a763 a13e 9f0b 12bd
00000040: 9e83 843e 7003 97be 611f 8dbd 5c23 ef3c
00000050: a245 c03f 0c43 fabd a2a6 1f3d d03d ae3d
00000060: 8770 ad3f c00b 583e 96ce c1bd c43f d83c
00000070: c391 19bd 77a7 43bc 4c65 823e 7351 003e
00000080: 2aba 65bd a0bc 3bbb 8c63 a1bd acba 923b
00000090: 840e 913e 2acb 6e3d 2569 163e 94f3 10bc
000000a0: baa3 ae3e 3f16 83bd f495 5e3d 8bca 95bb
000000b0: b034 a03e 9f48 a0bd 9ad3 2f3f e64e 45bf
000000c0: cb16 813d 20d1 1cbb 6794 cf3e 85e1 35bd
000000d0: 0c17 82bc c229 13be d94c 973e 4d84 d9be
000000e0: 05c0 233e 433d 9f3c 9359 113e 69c6 1abc
000000f0: 94fb 0f3f 96cf 243e ac7a 8b3d 08e8 a6bd
00000100: 6fa6 afbd 4c40 f93d d066 f03e 241f 853c
00000110: 1cd2 173e 4065 e83d d4ca fc3e 711f 1bbe
00000120: a706 33be 1858 58bd f74e 163f cce8 6b3e
00000130: cb5c d3bd 775e aa3d 00eb f83c a683 a7bd
00000140: 50e7 363f b0e6 693e a0e3 323b 49c9 bd3d
00000150: 9052 183f e20e ab3e 51ce 37bd ec63 443e
00000160: 7bb0 2e3c 5379 483e b547 023e f872 72bc
00000170: 860a 073e 8145 85bd d881 20bc 8815 dd3d
00000180: 3687 c03d f40f f0bc 23b0 f93d 4252 2fbe
00000190: 5160 e13d 1031 e73d b657 893d 0fef c0bd
000001a0: b11b 623e 1c5a f63d 4e0d 993c 9d14 963e
000001b0: 8e08 8cbd f822 843c 226c f1bd c877 c2bb
000001c0: 2814 1bbd 500d d23d 0766 bdbd a062 72bc
000001d0: eea4 883d 8207 263d c05e a5bd 2b5a 093c
000001e0: b6af 483d 22b6 4a3d 663e 0abe e8ec 27bc
000001f0: 383c af3c 08bd 3bbf c2f3 85bd 4269 653d
00000200: 9d1f f2bd e138 4cbf 1fb7 463e 7e63 8bbe
00000210: f46a 86bc 7fa3 b7bd a5b4 b43c ff41 613e
00000220: 1eb7 a2bd d0af 4d3d 5146 953d 3645 f7bc
00000230: fd26 233d 99f7 2b3e 98e0 543c 76bc 9f3c
00000240: 0c38 623d b044 21bb 17f8 0f3d ba01 2bbd
00000250: cfd0 61bd 0d92 393e 4a32 4d3d 9b40 87be
00000260: 160f 453d dede 4f3d 4f2d 07bd 3d1a 83be
00000270: 89de 7f3d 4acf 3f3d bc32 5fbe 4f45 a4be
00000280: 813a c9bd d5a3 893d 84e9 89bd 2676 c2bd
00000290: 4766 ff3d 82f2 33bd b9ca 79be 26ac 183e
000002a0: 56b9 80bd 1626 3e3d 19c1 2fbe 5ff2 a7bd
000002b0: 01da 8cbd c3b0 b2bd 51d8 17be bf3c 35bd
000002c0: c154 bcbd 1f92 94bc fc08 763c b886 59bc
000002d0: 05ca 433d f490 f8bd 131a a53e e4a2 cb3c
000002e0: dc52 e0bc c82d 8c3e 610f 22bd 8814 0a3d
000002f0: 60d8 2d3d 3d8d 9f3e bedf 82be 8199 ec3e
00000300: d190 8dbd d68a 08bd fcb7 3cbd 3635 1dbe
00000310: aed1 1f3e cbd3 d53d 50f4 b5bb 110d 36bd
00000320: 7a10 71bd 3f29 cfbc 17bc 20bd e679 3f3e
00000330: 9037 e3bd 71ce d53c b23b 023e 3971 93bd
00000340: 818a c3bd 9ed3 0cbe 0e1d 0fbd 0f46 8cbd
00000350: 67be 23bd 60fc ea3c 804f a03c 9ee3 0dbe
00000360: 00fe 85bd 2275 643d 7924 d3bd 485b 1bbe
00000370: d5c1 94bb f1de 0fbe c4ef 313c 57ab 223e
00000380: 8fd9 d9bd eb40 f33e 4e26 10bf a931 cf3e
00000390: 38bf 6dbd e4b6 edbc 278b 933e 0f3f c93e
000003a0: 7e41 0b3d 0a04 01be 8a2b ce3d a20a 35be
000003b0: 63c7 7c3d 78f8 99bd e7ee 5b3e 31bc f93e
000003c0: 2343 2abd 01e0 313e a345 bb3d b08b adbb
000003d0: 1399 b33d 1403 0abe 465f 193d a59c a63d
000003e0: 9476 5d3e 5dda 073d c408 143d e0c0 1e3e
000003f0: 9745 bfbe bc43 6abe 9be7 103d f749 71bd

RNN.weight_hh_l0 f4 [512, 128]
-0.24030058 -0.057094965 -0.04127627 0.28105643 0.010698141 0.20744845 -0.21078461 -0.14852108
-0.20738222 -0.09685567 0.0036733358 -0.40007582 0.05757024 0.22684899 0.90688884 0.017123787
-0.1362467 -0.14248408 -0.22106351 -0.1481448 -0.06696493 -0.088754706 0.04512992 0.11571823
0.28037181 0.034719765 -0.3222999 0.28811896 -0.20618013 0.020650025 -0.07515538 0.023486583
-0.26272777 -0.337394 0.16324593 -0.09155933 -0.252473 -0.13785508 0.24394333 0.044660196
0.027089778 -0.0024308865 0.051091246 0.122117676 -0.2576678 -0.053767014 0.21133672 -0.17518368
0.3078424 -0.014361086 0.20587344 0.1644981 0.014615787 0.7537301 0.08536125 0.28496644
0.059017193 0.34416392 0.32531768 -0.1724806 -0.12546955 -0.28147998 -0.24286005 -0.13356417
-0.011426728 -0.123808905 0.113699146 0.15101898 0.15844522 -0.38226235 0.04017989 -0.389715
-0.0715809 0.15417942 -0.04495623 0.031219551 -0.03511349 -0.10817088 0.059136942 -0.23592234
-0.15437502 -0.2277959 0.024407966 -0.23033667 0.20651284 -0.27465 0.04394816 0.045345113
0.029847266 -0.3302664 0.024426512 0.07488601 -0.24192654 0.5129939 -0.24264209 -0.29065534
0.15282977 -0.08834261 0.063176036 -0.109829634 0.12976576 -0.28790063 0.25643727 0.03547333
-0.100035116 0.22913158 -0.035435073 0.06864138 -0.1529421 -0.19356458 -0.11543153 0.13564101
-0.03468095 0.13454103 -0.057155024 -0.13388681 -0.02862315 0.22666152 -0.0759821 -0.091541514
-0.1531574 0.009090345 -0.18529278 -0.20811398 -0.08147864 0.11639827 0.08398681 -0.14381412
-0.33902273 0.05091982 -0.04577153 -0.087406084 0.05143807 -0.07472584 0.0918739 -0.013335627
0.0143269105 0.031235114 0.25298443 0.26272592 -0.048399452 -0.15749066 -0.019931072 0.13076708
0.19011125 -0.00614947 -0.08463292 0.0014860155 -0.102937095 -0.24009886 -0.18091428 0.013155869
-0.21919914 -0.10958895 0.12240776 0.26191494 0.09528641 -0.0051298453 -0.084829986 0.11608834
-0.038412914 -0.005969343 -0.25046858 0.0897832 0.098136015 0.0937379 -0.10173326 -0.10146256
-0.021394845 -0.06597531 0.089194745 -0.05162799 0.15152892 0.38187918 0.13654779 0.11158858
-0.4130856 0.016245903 -0.052676257 0.040490147 -0.2766845 -0.086585484 -0.16048342 -0.051890567
0.091388784 -0.3086094 -0.0947337 -0.034518573 0.20796242 0.28102344 0.076897085 -0.1358762
0.211723 0.18249536 -0.03514824 -0.3074818 -0.117705286 0.20218134 0.1456276 0.09689734
0.23364629 -0.26269802 0.10370429 -0.056754492 0.25225785 0.20459566 -0.551357 0.0532411
-0.08344691 -0.1906199 0.19575648 0.017010348 -0.02498005 0.06956047 0.08182942 -0.14687729
0.11368952 -0.20471032 0.025455477 -0.08991464 0.22580142 -0.17918286 -0.15587991 0.04623672
0.14131603 -0.25738457 -0.11483363 -0.08329025 -0.41686723 0.045041 -0.13130525 -0.09791694
0.12500526 -0.16910176 -0.3618106 -0.1165379 0.069395594 -0.08741674 -0.10901286 -0.12564224
0.15603997 -0.039054867 -0.17252682 -0.03322065 0.11715266 -0.036554508 0.0736048 -0.10882136
0.08914478 0.10345179 0.1589329 0.10181087 0.070868686 -0.077759646 0.017716777 0.47706133
00000000: 5b11 76be 69dc 69bd 4e11 29bd a1e6 8f3e
00000010: 4147 2f3c 5e6d 543e ecd7 57be e915 18be
00000020: 015c 54be 445c c6bd 59bc 703b bdd6 ccbe
00000030: c6ce 6b3d 1a4b 683e de29 683f 2f47 8c3c
00000040: 4184 0bbe 59e7 11be 795e 62be 45b3 17be
00000050: e924 89bd 07c5 b5bd 27da 383d aefd ec3d
00000060: e58c 8f3e 5036 0e3d 7e04 a5be 5484 933e
00000070: e220 53be 3e2a a93c 10eb 99bd ef66 c03c
00000080: 4184 86be e8be acbe f129 273e 7583 bbbd
00000090: 2444 81be e229 0dbe 48cc 793e 9ced 363d
000000a0: 62eb dd3c 824f 1fbb 0e45 513d d518 fa3d
000000b0: 09ed 83be cd3a 5cbd a768 583e 5a63 33be
000000c0: 859d 9d3e c34a 6bbc 7dd0 523e 3172 283e
000000d0: 0e77 6f3c 75f4 403f e1d1 ae3d 1fe7 913e
000000e0: 03bc 713d 4136 b03e 0a90 a63e c19e 30be
000000f0: 177b 00be 251e 90be 4eb0 78be 0cc5 08be
00000100: 2c37 3bbc 868f fdbd 19db e83d b8a4 1a3e
00000110: 773f 223e e4b7 c3be ab93 243d b988 c7be
00000120: 0299 92bd 36e1 1d3e 0624 38bd 25c0 ff3c
00000130: 2ad3 0fbd b288 ddbd 9439 723d a095 71be
00000140: 7c14 1ebe 5443 69be 37f3 c73c 60dd 6bbe
00000150: 1a78 533e ed9e 8cbe fc02 343d ccbb 393d
00000160: 4182 f43c ad18 a9be 1c1a c83c d65d 993d
00000170: 97bb 77be 9153 033f 2b77 78be c7d0 94be
00000180: 687f 1c3e f8ec b4bd 7062 813d 5cee e0bd
00000190: 51e1 043e b667 93be bf4b 833e 7c4c 113d
000001a0: 36df ccbd 78a1 6a3e 5e24 11bd da93 8c3d
000001b0: db9c 1cbe cb35 46be 5e67 ecbd 7ae5 0a3e
000001c0: 9d0d 0ebd 20c5 093e 631b 6abd a019 09be
000001d0: 197b eabc f519 683e 819c 9bbd 1e7a bbbd
000001e0: 4bd5 1cbe acef 143c 64bd 3dbe d51b 55be
000001f0: 46de a6bd 3762 ee3d 4701 ac3d 0244 13be
00000200: 6394 adbe 4d91 503d ee7a 3bbd f601 b3bd
00000210: bab0 523d dc09 99bd 6228 bc3d ac7d 5abc
00000220: 6bbb 6a3c c8e0 ff3c 2d87 813e 0384 863e
00000230: 813e 46bd 3b45 21be 7d46 a3bc cee7 053e
00000240: 86ac 423e 7e81 c9bb 0654 adbd 68c6 c23a
00000250: afd0 d2bd 7adc 75be 9841 39be b78b 573c
00000260: bd75 60be 2c70 e0bd ebb0 fa3d b719 863e
00000270: 8525 c33d 4318 a8bb 58bb adbd b9bf ed3d
00000280: dc56 1dbd 7a9a c3bb 6b3d 80be 41e0 b73d
00000290: 89fb c83d a8f9 bf3d 8759 d0bd 9acb cfbd
000002a0: 3e44 afbc 101e 87bd bcab b63d df77 53bd
000002b0: 662a 1b3e ab85 c33e 2fd3 0b3e 8e88 e43d
000002c0: f57f d3be 2116 853c 0fc3 57bd ffd8 253d
000002d0: 97a9 8dbe bb53 b1bd c455 24be 348b 54bd
000002e0: 0b2a bb3d 0d02 9ebe be03 c2bd 5963 0dbd
000002f0: 1af4 543e 4ee2 8f3e 387c 9d3d 2123 0bbe
00000300: eacd 583e 10e0 3a3e 9af7 0fbd 416e 9dbe
00000310: 780f f1bd a008 4f3e 671f 153e 1d72 c63d
00000320: f940 6f3e 5b80 86be ea62 d43d 6677 68bd
00000330: f127 813e 8681 513e bb25 0dbf 5713 5a3d
00000340: 37e6 aabd dd31 43be 6374 483e 4959 8b3c
00000350: f6a2 ccbc b875 8e3d 2f96 a73d 0067 16be
00000360: 0dd6 e83d 959f 51be 0188 d03c 2b25 b8bd
00000370: 7d38 673e b67b 37be fc9e 1fbe b762 3d3d
00000380: 26b5 103e e9c7 83be e52d ebbd 1494 aabd
00000390: 9f6f d5be e97c 383d e274 06be ad88 c8bd
000003a0: 6101 003e 0329 2dbe 3d3f b9be 6cab eebd
000003b0: 471f 8e3d 8c07 b3bd 2242 dfbd 5ca8 00be
000003c0: f1c8 1f3e fff7 1fbd dfaa 30be 6012 08bd
000003d0: bced ef3d 2eba 15bd 1dbe 963d bcdd debd
000003e0: 8a91 b63d 88de d33d 4ebf 223e 3882 d03d
000003f0: 9a23 913d 7340 9fbd c622 913c 6241 f43e

RNN.bias_ih_l0 f4 [512]
0.16333686 -0.021732308 0.21339272 0.027304389 0.16541731 0.059589326 0.19669014 0.022645617
-0.13835411 0.21482407 -0.10542653 -0.04406627 -0.051643692 0.09227758 -0.16598235 0.14593992
0.27997983 -0.14547884 -0.13310868 -0.1488951 0.05386558 -0.12832275 0.12013922 0.022279464
-0.0029422243 0.18139872 -0.01999733 -0.040609617 0.12131021 0.18020296 0.23262878 0.15163349
0.12684755 -0.12699622 0.43252766 0.27271008 0.23388058 0.085494764 0.12660424 0.22841385
0.21676543 -0.12245043 0.06322059 0.02061698 0.16212408 0.11422528 0.008824375 0.43762708
-0.08771358 0.061281033 0.0722424 0.13795139 -0.021295102 -0.051145148 -0.059564624 0.123589195
0.15645146 -0.11216681 -0.053934593 -0.012212088 0.1823232 -0.10468862 0.0285738 0.23674157
0.13902336 -0.0115938885 0.010389522 0.0432283 0.17814836 0.021452948 -0.11436829 0.08825989
-0.09960101 0.39000753 -0.05277282 0.03624076 0.086071245 0.14617215 0.091963515 0.10095669
0.2587579 0.014095023 0.089322776 0.12464367 0.07101354 0.0821289 0.1286194 0.12824842
0.22329572 -0.12741676 -0.028728994 0.07931346 0.067224614 0.08490867 0.06655226 0.14430107
-0.089980826 -0.11981823 0.1607666 -0.18619038 0.12330628 0.13409826 -0.07764674 0.023874374
0.11386143 0.123862095 -0.04644353 -0.13071722 0.12569785 0.1940607 -0.02453399 0.14146958
0.2660565 0.15003844 0.1929561 -0.058845315 -0.12501623 -0.22470844 -0.040115032 0.2548962
-0.025148937 0.20896554 0.2258942 -0.09553076 0.2371692 -0.017717801 0.29780582 0.12869944
0.18047936 0.0015903563 0.09507493 -0.045940656 0.004556935 0.03870245 0.29902545 0.16789186
-0.100412056 0.18588945 -0.12511966 -0.11648748 -0.06593838 0.05420746 0.44838658 -0.32937986
-0.12274221 -0.111098334 -0.02665811 0.22483464 -0.16511607 -0.027841203 -0.2916971 0.35152465
0.13491982 0.1558631 0.06550246 -0.13188057 -0.14383923 0.0062133693 0.12736388 0.0013625871
0.19930364 0.018309115 -0.38676545 0.21859013 0.20367713 -0.36340335 0.12778544 -0.115363285
-0.053499725 0.0665538 0.13823564 0.1353863 -0.09788459 0.040022433 -0.21465336 -0.021358121
-0.051205583 0.08416738 -0.039972216 0.14348352 -0.0014262967 0.17699835 -0.33817196 -0.05152909
-0.09719808 -0.09371586 0.024014285 0.093510255 0.0993109 0.015287418 0.06406467 -0.1383684
0.0027632886 0.06855923 -0.16716063 -0.09772798 -0.047190536 0.16481833 0.16688071 0.14189069
0.020180073 -0.15366316 0.14712769 0.23430847 -0.16040853 0.22006227 -0.21712607 0.31098616
0.054248426 -0.026632313 0.16702741 0.25448227 0.22892946 0.17983328 0.19494942 -0.5973933
0.2203288 0.14411291 0.04818268 0.06504604 0.036191154 -0.017001217 -0.28909674 0.2363955
-0.087035984 0.052747943 0.11442021 0.17488724 -0.10938445 0.16484135 -0.10951164 0.31941542
-0.082841516 0.07021577 0.3654955 0.17008394 0.18034661 0.028436476 0.099839464 0.09781291
-0.19503881 0.06677483 -0.17892605 0.17709813 0.16403289 -0.19965538 0.14753757 0.24728437
-0.28096035 0.13725582 0.16716716 -0.30434522 -0.037261646 0.1675124 0.19418898 -0.23208944
00000000: c741 273e f407 b2bc 9f83 5a3e 74ad df3c
00000010: 2863 293e f013 743d 2469 493e 4d83 b93c
00000020: b3ac 0dbe d7fa 5b3e dde9 d7bd d57e 34bd
00000030: 5688 53bd 07fc bc3d 47f7 29be 4671 153e
00000040: 8459 8f3e 68f8 14be a44d 08be f577 18be
00000050: 28a2 5c3d 0a67 03be 8d0b f63d 6c83 b63c
00000060: 55d2 40bb 96c0 393e 71d1 a3bc 4556 26bd
00000070: 7d71 f83d 2087 383e 3d36 6e3e cf45 1b3e
00000080: 53e4 013e 4c0b 02be 4474 dd3e a8a0 8b3e
00000090: 647e 6f3e e117 af3d 8ba4 013e 52e5 693e
000000a0: c2f7 5d3e 4bc7 fabd cc79 813d f1e4 a83c
000000b0: db03 263e f2ee e93d 1d94 103c a810 e03e
000000c0: 2da3 b3bd d201 7b3d d3f3 933d 2143 0d3e
000000d0: 1173 aebc 937d 51bd 09fa 73bd 551c fd3d
000000e0: d034 203e b6b7 e5bd 85ea 5cbd 3615 48bc
000000f0: efb2 3a3e fd66 d6bd 9a13 ea3c 626c 723e
00000100: 245c 0e3e 4bf4 3dbc d038 2a3c 2810 313d
00000110: 866c 363e 18be af3c ec39 eabd 9ac1 b43d
00000120: 9dfb cbbd 11af c73e 5028 58bd 3171 143d
00000130: 1f46 b03d 27ae 153e 5e57 bc3d 62c2 ce3d
00000140: ea7b 843e d0ee 663c dcee b63d 2e45 ff3d
00000150: 8c6f 913d 3233 a83d ceb4 033e 8e53 033e
00000160: a2a7 643e 8a79 02be 1159 ebbc 186f a23d
00000170: 0fad 893d 99e4 ad3d 8d4c 883d a9c3 133e
00000180: de47 b8bd 4363 f5bd 00a0 243e b1a8 3ebe
00000190: 0188 fc3d 0e51 093e 4105 9fbd 3194 c33c
000001a0: 2e30 e93d 69ab fd3d 923b 3ebd bcda 05be
000001b0: f0b6 003e d9b7 463e 82fb c8bc 67dd 103e
000001c0: 8f38 883e ada3 193e 4996 453e c907 71bd
000001d0: 4104 00be f819 66be a94f 24bd c181 823e
000001e0: 2505 cebc 10fb 553e cf50 673e a2a5 c3bd
000001f0: 7cdc 723e ec24 91bc 017a 983e c9c9 033e
00000200: 95cf 383e 8173 d03a a5b6 c23d 452c 3cbd
00000210: 5752 953b 7686 1e3d dd19 993e d8eb 2b3e
00000220: d6a4 cdbd ce59 3e3e 5e1f 00be fd90 eebd
00000230: b40a 87bd a408 5e3d ed92 e53e 7aa4 a8be
00000240: 4560 fbbd 8687 e3bd 1c62 dabc 0d3b 663e
00000250: 3014 29be 3c13 e4bc 5359 95be 0afb b33e
00000260: 6c28 0a3e 949a 1f3e 2726 863d b30b 07be
00000270: 974a 13be 8599 cb3b ad6b 023e d698 b23a
00000280: 4116 4c3e fffc 953c 1f06 c6be 17d6 5f3e
00000290: bd90 503e 0110 babe 30da 023e 9643 ecbd
000002a0: 8722 5bbd 5c4d 883d a58d 0d3e b5a2 0a3e
000002b0: b777 c8bd 90ee 233d 17ce 5bbe 3af7 aebc
000002c0: f2bc 51bd f35f ac3d e8b9 23bd 58ed 123e
000002d0: 93f2 baba 0e3f 353e e024 adbe 2b10 53bd
000002e0: c90f c7bd 1aee bfbd 9bb9 c43c 4e82 bf3d
000002f0: 8363 cb3d 1478 7a3c 5634 833d 72b0 0dbe
00000300: 4a18 353b c868 8c3d 282c 2bbe 9b25 c8bd
00000310: dd4a 41bd 23c6 283e c7e2 2a3e cb4b 113e
00000320: ae50 a53c e059 1dbe a4a8 163e 8fee 6f3e
00000330: 2242 24be 0158 613e 4c56 5ebe 9439 9f3e
00000340: 9933 5e3d 022c dabc 3c09 2b3e 804b 823e
00000350: 7c6c 6a3e 3726 383e d2a0 473e c4ee 18bf
00000360: df9d 613e 5692 133e 345b 453d dc36 853d
00000370: 2d3d 143d 2346 8bbc 7d04 94be a911 723e
00000380: ec3f b2bd 3a0e 583d 2555 ea3d a415 333e
00000390: f404 e0bd 2ccc 283e a447 e0bd 6b8a a33e
000003a0: d0a8 a9bd 49cd 8f3d 3a22 bb3e 7c2a 2e3e
000003b0: c8ac 383e 9df3 e83c a278 cc3d 2352 c83d
000003c0: 41b8 47be 3ec1 883d 6438 37be 3659 353e
000003d0: 3df8 273e 7672 4cbe 1714 173e 1d38 7d3e
000003e0: 09da 8fbe ca8c 0c3e de2d 2b3e 23d3 9bbe
000003f0: ab9f 18bd 5f88 2b3e 7ad9 463e dba8 6dbe

RNN.bias_hh_l0 f4 [512]
0.037228778 0.012798657 0.23193692 -0.12170923 0.11445801 0.1037079 0.22726005 0.096147664
-0.08211343 0.18968603 0.0033035902 -0.11022031 0.028989952 0.063313305 -0.13100892 0.15712635
0.31300196 -0.046879943 -0.10475175 -0.20920616 0.06695007 -0.12781475 0.09778459 0.053639304
0.027549995 0.1152456 -0.083382115 -0.00437128 0.18519758 0.15404826 0.21995161 0.17910257
0.21548116 -0.16256455 0.4658024 0.15045242 0.16100849 0.053160533 0.06524489 0.12129824
0.3176129 -0.071550675 0.17302367 0.1517651 0.079431325 0.004789821 -0.09708584 0.31607252
0.00777822 0.09926453 0.12346519 0.09540422 0.07879725 -0.04616508 -0.012344005 0.12452213
0.13117856 -0.06142539 -0.117464185 -0.11029825 0.21206106 -0.019953884 0.035767592 0.12329405
-0.016139466 0.044737052 -0.093145624 0.021063626 0.2141199 -0.00971641 -0.20861462 0.1708804
-0.0015640378 0.32828772 -0.12893271 0.03905171 0.08216804 0.17711072 0.13448569 0.14756668
0.24949536 0.13010974 0.08194259 0.1761701 0.016418036 0.08098868 0.19511305 0.079114676
0.11666801 -0.22976738 -0.11529932 0.01396728 0.08151547 0.07915497 0.18298925 0.17612818
-0.075116344 -0.12920576 0.18115944 -0.13025533 0.10175979 0.08269627 -0.049516242 0.010328663
0.12819588 0.13716313 -0.07446225 -0.11954051 0.2770686 0.1723269 -0.022976507 0.059530605
0.20506519 0.12176249 0.08257459 0.08358736 -0.09474428 -0.13944054 0.0630462 0.28379968
0.01188446 0.27541256 0.16829541 -0.05034197 0.1346847 0.07119321 0.29920202 0.21131413
0.08575132 -0.010839309 0.02712079 -0.03149619 -0.058228154 -0.0023569423 0.20084885 0.16719006
-0.14747843 0.17320521 -0.14802131 0.019219756 -0.15000443 -0.051539846 0.54652023 -0.31248143
-0.12867057 -0.19646595 0.005696359 0.062742755 -0.23055021 0.11760804 -0.25446504 0.20158575
0.17844167 0.06163854 0.08889236 -0.22207515 -0.18225937 -0.05455858 0.20592786 0.0015132898
0.097488925 -0.031400137 -0.5336879 0.2356704 0.25634825 -0.33634993 0.22604752 -0.1607936
-0.06362362 0.06510716 0.037165377 0.26173535 0.024260223 0.010536122 -0.18489417 -0.13441558
-0.15097517 0.064850494 -0.080808625 0.178229 -0.012479145 0.10740809 -0.17570665 0.07676678
-0.007809029 0.051672604 0.043610763 0.117239065 0.14616998 -0.075168446 0.19962017 -0.058911543
-0.05606754 0.06695701 -0.2499257 -0.08985311 -0.17004277 0.18458313 0.11792691 0.13142307
0.10591615 -0.12958793 0.16858475 0.2216347 -0.16682132 0.21503365 -0.111849315 0.17071567
-0.0436681 -0.095501035 0.2864205 0.23128372 0.14843862 0.15744251 0.20492698 -0.56242067
0.26402003 0.08096426 0.027742987 0.017321624 0.077227525 -0.138944 -0.21566768 0.24054821
0.05592442 0.08905226 0.040763844 0.11541248 -0.1720308 0.16407955 -0.04334728 0.32908773
-0.043460224 0.1531954 0.22228931 0.21918423 0.27517152 0.05840312 0.011169787 0.14461732
-0.17157392 0.10914751 -0.10467083 0.15653642 0.11569759 -0.12880203 0.13693601 0.23635791
-0.24697664 0.0883553 0.14904884 -0.23930061 -0.048848815 0.16959682 0.10126276 -0.33107194
00000000: 347d 183d 75b1 513c df80 6d3e b042 f9bd
00000010: f668 ea3d cf64 d43d dcb6 683e 11e9 c43d
00000020: 162b a8bd 0e3d 423e 0c81 583b 30bb e1bd
00000030: 567c ed3c 68aa 813d 3427 06be bbe5 203e
00000040: cb41 a03e 2f05 40bd 1688 d6bd 243a 56be
00000050: 1e1d 893d dfe1 02be 4a43 c83d e3b4 5b3d
00000060: 87b0 e13c e305 ec3d 3ec4 aabd f43c 8fbb
00000070: 6fa4 3d3e d4be 1d3e ff3a 613e aa66 373e
00000080: 18a7 5c3e 5277 26be a77d ee3e 3310 1a3e
00000090: 69df 243e dcbe 593d 1d9f 853d 366b f83d
000000a0: 289e a23e 2989 92bd 1e2d 313e 4f68 1b3e
000000b0: e4ac a23d eef3 9c3b f1d4 c6bd 42d4 a13e
000000c0: 70e0 fe3b 344b cb3d 51db fc3d 4a63 c33d
000000d0: 7460 a13d 9817 3dbd 823e 4abc 7505 ff3d
000000e0: ac53 063e 3199 7bbd 1091 f0bd 0de4 e1bd
000000f0: 8926 593e 5476 a3bc 0a81 123d 9781 fc3d
00000100: ea36 84bc 333e 373d 22c3 bebd a08d ac3c
00000110: 3f42 5b3e 9431 1fbc 129f 55be 46fb 2e3e
00000120: 6600 cdba 5415 a83e f006 04be b0f4 1f3d
00000130: b847 a83d 835c 353e 9eb6 093e b81b 173e
00000140: b67b 7f3e 7d3b 053e 84d1 a73d ef65 343e
00000150: 1e7f 863c 65dd a53d b7cb 473e e006 a23d
00000160: a3ef ee3d 2448 6bbe 0d22 ecbd 05d7 643c
00000170: 95f1 a63d 001c a23d 8961 3b3e f25a 343e
00000180: 99d6 99bd 844e 04be dc81 393e a761 05be
00000190: 7067 d03d a95c a93d 8bd1 4abd 8d39 293c
000001a0: c845 033e 7e74 0c3e aa7f 98bd a8d1 f4bd
000001b0: efdb 8d3e 7676 303e 3a39 bcbc 5dd6 733d
000001c0: 9cfc 513e 9d5e f93d de1c a93d da2f ab3d
000001d0: 4a09 c2bd 80c9 0ebe 5e1e 813d 314e 913e
000001e0: 0ab7 423c e002 8d3e a255 2c3e 6233 4ebd
000001f0: c9ea 093e bfcd 913d 0231 993e bb62 583e
00000200: 639e af3d 5b97 31bc 6b2c de3c 2602 01bd
00000210: a580 6ebd ee76 1abb 52ab 4d3e df33 2b3e
00000220: 9604 17be b55c 313e e692 17be c072 9d3c
00000230: c39a 19be 721b 53bd c0e8 0b3f 91fd 9fbe
00000240: 38c2 03be 5f2e 49be 86a8 ba3b 467f 803d
00000250: 5b15 6cbe 7cdc f03d 3e49 82be 7f6c 4e3e
00000260: 6ab9 363e b278 7c3d 330d b63d ab67 63be
00000270: 33a2 3abe d178 5fbd c1de 523e 9459 c63a
00000280: 46a8 c73d 6e9d 00bd c59f 08bf 9553 713e
00000290: 1440 833e 0f36 acbe 0079 673e 14a7 24be
000002a0: 1a4d 82bd e756 853d b93a 183d 2d02 863e
000002b0: 60bd c63c b39f 2c3c e654 3dbe 3da4 09be
000002c0: 3c99 1abe 56d0 843d fe7e a5bd aa81 363e
000002d0: 5475 4cbc c6f8 db3d 72ec 33be e737 9d3d
000002e0: e2e2 ffbb a7a6 533d 33a1 323d 091b f03d
000002f0: 95ad 153e eaf1 99bd 3b69 4c3e 3b4d 71bd
00000300: 14a7 65bd c220 893d 86ec 7fbe e804 b8bd
00000310: b11f 2ebe 5c03 3d3e aa83 f13d c593 063e
00000320: 91ea d83d b3b2 04be 7ba1 2c3e 35f4 623e
00000330: 35d3 2abe c831 5c3e 4111 e5bd 17d0 2e3e
00000340: 52dd 32bd 0c96 c3bd b5a5 923e a4d5 6c3e
00000350: 4b00 183e 9c38 213e 61d8 513e cdfa 0fbf
00000360: a22d 873e 97d0 a53d 4345 e33c 14e6 8d3c
00000370: 7729 9e3d 5647 0ebe fdd7 5cbe 4552 763e
00000380: 0111 653d 0861 b63d fdf7 263d 615d ec3d
00000390: d828 30be 7804 283e eb8c 31bd 307e a83e
000003a0: 5903 32bd 41df 1c3e cf9f 633e d571 603e
000003b0: 48e3 8c3e 1c38 6f3d 7b01 373c 9016 143e
000003c0: 13b1 2fbe bb88 df3d a95d d6bd 154b 203e
000003d0: dcf2 ec3d aee4 03be f438 0c3e cf07 723e
000003e0: 72e7 7cbe a0f3 b43d 42a0 183e 380b 75be
000003f0: b215 48bd caaa 2d3e da62 cf3d 4382 a9be

actor.weight f4 [5, 128]
-0.36618683 1.1384733 -0.7374307 0.084114596 -0.07343411 0.51898926 -0.3170456 -0.18359955
-0.05407702 -0.26749888 -0.097727455 0.1329951 -0.1268184 -0.13023226 -0.131407 0.5201849
-0.09468932 0.63681084 -0.18470894 -0.16337518 -0.39180002 -0.4990326 -0.37631765 0.050759383
0.08762732 0.5373922 -0.11188089 0.10889374 0.18302664 -0.5096471 -0.61455226 -0.37154385
-0.69101447 0.25093246 -0.35957405 -0.102145456 -0.43955603 0.26929224 -0.7965459 -0.6205589
-0.33337602 1.4955028 0.20780417 0.076382406 -0.6388824 0.15188827 0.116105065 0.5523622
0.13850619 1.046931 0.60850036 0.058395706 0.4617226 0.043338656 -0.028300656 -0.34361252
0.5583332 0.5458821 -0.14241761 0.111785755 -0.36530522 0.017063541 -0.22515939 0.72061014
0.46320122 -0.22239712 0.24720477 -0.1631871 -0.5444609 0.21049948 -0.18531097 -0.0030542014
-0.29070997 -0.5153489 0.4155177 0.3189058 0.41739237 0.13930205 -0.36051184 0.16117838
-0.81064665 0.1751817 0.27074844 -0.3356655 0.10057666 -0.009019118 0.4546444 -0.3760835
0.47419515 0.23181899 0.41107786 0.45085794 0.7295762 -0.16894297 0.071179576 -0.18520552
0.12130351 0.039042994 0.20868306 -0.25288135 -0.23968568 -0.04553365 -0.4552752 -0.4208164
-1.0758933 -0.06297693 -0.2830605 0.33288357 -0.42335898 0.3552835 0.1255094 0.032826405
-0.10302621 -0.44881567 -0.57297933 0.061528035 0.09682838 0.045378476 -0.052606136 -0.39409345
0.1828783 0.45599228 -0.1575775 0.15306814 -1.0774946 0.21600828 0.36619577 0.1790688
-0.28570956 -1.1552709 0.212342 0.34022784 0.6669112 -0.4596741 -0.56196946 -0.31088784
0.13373394 -0.48157823 0.47960398 -0.2093814 0.15664393 0.1462478 0.005202938 0.4878781
0.19420126 0.121832855 0.35540503 -0.13965061 -0.65647006 0.50651354 -0.54382265 0.3042275
0.049815554 -0.17439733 -0.06779164 -0.24830978 0.25178906 -0.09503264 -0.42296812 0.05972543
0.41498733 -0.18288602 -0.5197852 -0.21773751 -0.2982045 0.17248282 0.87915397 -0.4986783
-0.4965219 -1.0040903 -0.056313667 0.3262917 0.24323489 0.1882237 0.16571341 -0.31161118
-0.25972468 -0.7498959 -0.3801859 0.31707507 -0.14564885 0.14010637 -0.15531404 0.48122472
-0.3935139 -0.24641478 0.24143012 -0.5999695 -0.49660823 -0.30262083 -0.028600164 0.16989067
0.54657876 -0.3952419 0.46602166 -0.4487369 -0.26712424 -0.22499296 -0.43514693 -0.006640107
0.140723 -0.5403936 0.4369031 0.41256344 0.39387584 0.33278492 -0.5075639 -0.094452314
0.58006525 -1.0203574 0.0044974466 -0.062750146 0.009246452 0.02316718 0.44690692 1.0403525
0.5138101 0.27419093 -0.44143248 -0.35472453 -0.2076238 0.17405322 -0.6129507 -0.21357827
0.40006343 0.007749878 0.5292433 -0.0927088 -0.16964231 -0.14918369 -0.27594882 -0.0064030965
0.8474396 0.18699886 -0.21701999 0.24280106 -0.48168826 -0.5065938 -0.12498535 -1.048514
0.8018006 0.52975 -0.5047044 -0.3311555 0.11133396 0.30117884 -0.11618063 -0.53792644
0.33031732 0.351089 -0.084776826 -0.2818686 0.7640561 0.02480558 0.46950406 0.6841317
00000000: d77c bbbe 7eb9 913f 42c8 3cbf 4644 ac3d
00000010: 9f64 96bd 7bdc 043f cd53 a2be 8501 3cbe
00000020: de7f 5dbd 9df5 88be 5525 c8bd de2f 083e
00000030: afdc 01be 9b5b 05be 8e8f 06be d62a 053f
00000040: 79ec c1bd 0906 233f 5724 3dbe d34b 27be
00000050: 039a c8be 3381 ffbe b5ac c0be 12e9 4f3d
00000060: f475 b33d 8992 093f cf21 e5bd ae03 df3d
00000070: 566b 3b3e 3b78 02bf 4c53 1dbf ff3a bebe
00000080: 53e6 30bf 387a 803e 171a b8be a331 d1bd
00000090: 7d0d e1be ace0 893e 6fea 4bbf f3dc 1ebf
000000a0: 43b0 aabe a36c bf3f 9eca 543e 616e 9c3d
000000b0: cc8d 23bf 9988 1b3e 7ec8 ed3d 9c67 0d3f
000000c0: 91d4 0d3e d601 863f aec6 1b3f 5630 6f3d
000000d0: e866 ec3e e083 313d c7d6 e7bc fbed afbe
000000e0: edee 0e3f eebe 0b3f ecd5 11be eeef e43d
000000f0: 4909 bbbe d7c8 8b3c 2f90 66be e879 383f
00000100: b628 ed3e 12bc 63be 3f23 7d3e 851a 27be
00000110: ca61 0bbf 2d8d 573e 29c2 3dbe ff28 48bb
00000120: f0d7 94be e8ed 03bf bcbe d43e 9f47 a33e
00000130: 74b4 d53e 32a5 0e3e 0295 b8be f20b 253e
00000140: 8a86 4fbf d562 333e 8a9f 8a3e 59dc abbe
00000150: 23fb cd3d ecc4 13bc 27c7 e83e 048e c0be
00000160: b5c9 f23e f561 6d3e cc78 d23e dad6 e63e
00000170: 81c5 3a3f 63ff 2cbe 99c6 913d 84a6 3dbe
00000180: fa6d f83d 8ceb 1f3d 03b1 553e aa79 81be
00000190: 2a70 75be 7e81 3abd d519 e9be 3f75 d7be
000001a0: dfb6 89bf 0cfa 80bd 4eed 90be b76f aa3e
000001b0: 82c2 d8be b8e7 b53e 8985 003e fb74 063d
000001c0: 68ff d2bd 2bcb e5be c6ae 12bf d204 7c3d
000001d0: f54d c63d c8de 393d 8879 57bd 9ec6 c9be
000001e0: 7344 3b3e d277 e93e ff5b 21be e5bd 1c3e
000001f0: 58eb 89bf 4631 5d3e 037e bb3e d05d 373e
00000200: 8648 92be ebdf 93bf 2e70 593e 5832 ae3e
00000210: b1ba 2a3f 675a ebbe 3bdd 0fbf b12c 9fbe
00000220: 8df1 083e 6c91 f6be a78e f53e 1468 56be
00000230: 4467 203e fcc1 153e 687d aa3b 29cb f93e
00000240: b2dc 463e 8183 f93d a6f7 b53e 9200 0fbe
00000250: 6c0e 28bf dfaa 013f f637 0bbf b5c3 9b3e
00000260: 650b 4c3d 3795 32be 58d6 8abd eb44 7ebe
00000270: 7fea 803e 79a0 c2bd 478f d8be a7a2 743d
00000280: 3879 d43e 7946 3bbe a510 05bf 95f6 5ebe
00000290: 43ae 98be 569f 303e 3c10 613f c352 ffbe
000002a0: 1e38 febe 0886 80bf 29a9 66bd b50f a73e
000002b0: 9112 793e b7bd 403e c7b0 293e 808b 9fbe
000002c0: a2fa 84be 2df9 3fbf baa7 c2be aa57 a23e
000002d0: f924 15be 0b78 0f3e a50a 1fbe 1663 f63e
000002e0: a77a c9be 2854 7cbe 7539 773e 9a97 19bf
000002f0: 6f43 febe 1ef1 9abe e44a eabc d2f7 2d3e
00000300: 96ec 0b3f 255d cabe 649a ee3e d8c0 e5be
00000310: 82c4 88be 8e64 66be 94cb debe 4195 d9bb
00000320: b119 103e 3c57 0abf c3b1 df3e 843b d33e
00000330: 18aa c93e c962 aa3e b5ef 01bf 3770 c1bd
00000340: 287f 143f 129b 82bf 515f 933b 2683 80bd
00000350: 6e7e 173c 19c9 bd3c fcd0 e43e 452a 853f
00000360: 0f89 033f c162 8c3e 7003 e2be 749e b5be
00000370: 559b 54be 023b 323e 56ea 1cbf 43b4 5abe
00000380: 1dd5 cc3e b0f2 fd3b 7d7c 073f 1dde bdbd
00000390: b7b6 2dbe 9cc3 18be 2a49 8dbe 11d1 d1bb
000003a0: cdf1 583f a17c 3f3e 7d3a 5ebe d7a0 783e
000003b0: d89f f6be 22b0 01bf 52f8 ffbd b535 86bf
000003c0: ce42 4d3f b29d 073f 4f34 01bf 378d a9be
000003d0: 0f03 e43d 1d34 9a3e 1cf0 edbd 8cb5 09bf
000003e0: 5a1f a93e f0c1 b33e 799f adbd 1551 90be
000003f0: 2e99 433f 1235 cb3c d662 f03e 4123 2f3f

actor.bias f4 [5]
0.16983528 0.26425296 0.0018119788 -0.09455586 0.36842158
00000000: 4de9 2d3e 2a4c 873e eb7f ed3a 81a6 c1bd
00000010: c1a1 bc3e

critic.weight f4 [1, 128]
-0.00527434 -0.035364665 -0.05621521 0.23281567 0.050449926 -0.02357744 -0.12006286 -0.22953439
-0.0997542 0.06240594 0.0045516924 -0.25772712 0.12345183 -0.09166309 0.08269558 0.100412264
-0.15425387 -0.22653289 -0.15647389 -0.2785766 -0.22905521 0.088913165 0.19468768 0.26020437
0.051762607 -0.18063414 0.071534134 -0.13736401 -0.13962889 -0.20251203 -0.056975678 -0.22267589
0.084756255 -0.30766904 0.101355694 -0.1668412 -0.10873135 0.13758773 -0.07405455 -0.09872733
-0.09686107 0.09310918 0.06012824 0.24206665 -0.029419301 0.21928316 0.16049649 0.014719379
0.10243221 -0.11932455 -0.005296991 0.035716332 -0.03622902 0.043830793 0.04202456 -0.035431087
-0.2120778 0.0041668224 0.23229563 0.46412945 -0.30161315 0.19635627 -0.006524332 -0.016862726
-0.19110274 -0.33810464 -0.0073083667 0.055162128 -0.19900316 -0.10088832 -0.2559157 0.012988257
-0.1572811 0.2376681 0.05209489 0.13967083 -0.006655312 0.124453634 0.39676148 -0.13687688
-0.054987397 -0.011698374 0.26057154 -0.08159253 0.13304546 -0.101098716 0.14969645 -0.026211344
0.18589152 -0.10298536 0.06976194 0.54219836 0.110443726 -0.10808603 -0.15252432 -0.11879395
-0.14000098 -0.07199652 0.1347987 0.22611555 0.043649845 0.008866061 -0.099148 0.06846991
-0.1011413 0.11132733 -0.30472028 0.10979377 -0.15852784 0.062496133 0.0489309 -0.062077794
-0.06334546 -0.037587605 0.16189574 -0.0701718 -0.3351087 0.012771875 -0.11995239 -0.10947295
-0.036548063 0.16384186 -0.119574845 -0.10537765 -0.10991213 0.1253295 0.11356051 -0.012669557
00000000: 5fd4 acbb 8ada 10bd ec41 66bd 3b67 6e3e
00000010: 95a4 4e3d 7a25 c1bc 84e3 f5bd 100b 6bbe
00000020: ee4b ccbd 5f9d 7f3d 5d26 953b cff4 83be
00000030: 50d4 fc3d dcb9 bbbd 4d5c a93d f2a4 cd3d
00000040: baf4 1dbe 3df8 67be b13a 20be 98a1 8ebe
00000050: 738d 6abe 1b18 b63d 355c 473e 8239 853e
00000060: 0705 543d 28f8 38be 7d80 923d 27a9 0cbe
00000070: e0fa 0ebe 505f 4fbe 545f 69bd 2605 64be
00000080: b094 ad3d cc86 9dbe 9393 cf3d 6bd8 2abe
00000090: 8bae debd cce3 0c3e e9a9 97bd 8e31 cabd
000000a0: 195f c6bd 07b0 be3d 0849 763d 52e0 773e
000000b0: bf00 f1bc c48b 603e 3159 243e 8d29 713c
000000c0: fbc7 d13d 6e60 f4bd 6292 adbb 4a4b 123d
000000d0: e264 14bd eb87 333d f221 2c3d 3020 11bd
000000e0: ec2a 59be d789 883b e8de 6d3e 60a2 ed3e
000000f0: 0a6d 9abe 9e11 493e 10ca d5bb b323 8abc
00000100: 70b0 43be 0d1c adbe 067b efbb aff1 613d
00000110: 7cc7 4bbe 899e cebd 6207 83be b3cc 543c
00000120: 4c0e 21be 445f 733e 7461 553d df05 0f3e
00000130: ce14 dabb 8ce1 fe3d 5224 cb3e 7429 0cbe
00000140: 773a 61bd 89aa 3fbc a269 853e fc19 a7bd
00000150: 123d 083e d80c cfbd 074a 193e 2cb9 d6bc
00000160: 595a 3e3e fde9 d2bd 59df 8e3d 83cd 0a3f
00000170: 5230 e23d 355c ddbd 562f 1cbe 3e4a f3bd
00000180: 6b5c 0fbe e972 93bd ac08 0a3e d68a 673e
00000190: 2eca 323d f542 113c 1b0e cbbd f439 8c3d
000001a0: 2b23 cfbd 95ff e33d 4c04 9cbe 8edb e03d
000001b0: 1f55 22be f2fb 7f3d c46b 483d 4945 7ebd
000001c0: 44bb 81bd 76f5 19bd ffc7 253e 3cb6 8fbd
000001d0: 5e93 abbe 2041 513c 99a9 f5bd 5b33 e0bd
000001e0: 6cb3 15bd 29c6 273e a8e3 f4bd 3dd0 d7bd
000001f0: 9c19 e1bd 6056 003e 6a92 e83d f993 4fbc
