OLD/Codes/models/mymodel_iter22400.pt (torch, 48751 bytes, 17 tensors)

hidden0 f4 [1, 48]
0	0x3dce9f05	0.10088924
1	0x3e64d484	0.22346693
2	0x3db3a993	0.08772578
3	0xbde7c797	-0.113173656
4	0xbce88244	-0.028382428
5	0xbd9dd3fa	-0.07706447
6	0x3dfcf8f9	0.12352175
7	0x3dd0b385	0.10190491
8	0xbe3c46b1	-0.18386342
9	0xbe018d1e	-0.12651488
10	0xbe0d40d5	-0.13794263
11	0xbe300496	-0.1718925
12	0x3d2f729a	0.042833902
13	0xbe267a03	-0.16257481
14	0xbda34824	-0.07972744
15	0xbd2a41af	-0.041566547
16	0xbdf608f0	-0.120134234
17	0xbd95cac4	-0.07314065
18	0x3e088394	0.13331443
19	0x3d030494	0.031986788
20	0xbde024fa	-0.10944553
21	0xbdc2088c	-0.094742864
22	0xbc3d2098	-0.0115434155
23	0x3dba5973	0.09099092
24	0xbadeb56e	-0.0016991326
25	0x3e1a67ba	0.15078631
26	0xbe275271	-0.16340043
27	0x3d25de3c	0.040495142
28	0x3dfe6f68	0.12423593
29	0xbd916c66	-0.071007535
30	0xbe3af923	-0.182591
31	0xbdef7bf6	-0.116935655
32	0xbe620118	-0.2207073
33	0x3e0bb2a4	0.13642365
34	0xbd03d605	-0.032186527
35	0x3d9d0708	0.07667357
36	0xbdfc1afe	-0.12309836
37	0xbbacc7aa	-0.0052728252
38	0xbdfc43bd	-0.123176076
39	0x3e0bf5c4	0.13667971
40	0x3e08653b	0.13319866
41	0x3e4789f6	0.19486222
42	0xbe307a72	-0.17234209
43	0xbb06d959	-0.0020576327
44	0x3e3d2ebf	0.18474863
45	0xbd0a35a6	-0.03374257
46	0x3c80246e	0.015642371
47	0xbe215099	-0.15753402

cell0 f4 [1, 48]
0	0xbe3b9d4f	-0.18321727
1	0xbdeb189b	-0.114793025
2	0xbde912f7	-0.113805704
3	0x3e0d17a0	0.13778543
4	0xbe6ea76d	-0.23306055
5	0xbdf4d47d	-0.119545914
6	0x3e122d66	0.1427513
7	0x3e13b38f	0.14423965
8	0xbe7070c6	-0.2348052
9	0x3e36f1d0	0.17865682
10	0xbdd6a2c3	-0.10480263
11	0xbe3f434d	-0.18678017
12	0x3cace8f2	0.02110717
13	0xbd85776d	-0.06516919
14	0xbe2cc728	-0.16872847
15	0xbd28d599	-0.041219328
16	0x3da4f30f	0.08054172
17	0x3e3e965b	0.18612044
18	0x3e7a99dc	0.24472755
19	0xbda8e45e	-0.082466826
20	0xbc8532d5	-0.01625959
21	0x3df52f7b	0.11971947
22	0xbd895b9a	-0.06706925
23	0x3e47c298	0.19507825
24	0x3e5b2617	0.21401249
25	0x3db69500	0.08915138
26	0xbe5c218f	-0.21497177
27	0xbe08a2a7	-0.13343297
28	0xbbbdf7a7	-0.0057973447
29	0xbe6ccd4e	-0.23125193
30	0x3e00b878	0.12570369
31	0x3e1e124d	0.15436669
32	0xbe4c4a5a	-0.19950238
33	0xbe254cc3	-0.16142564
34	0xbe448b5e	-0.1919379
35	0x3e170296	0.1474708
36	0x3d2d08a5	0.042244572
37	0xbdbd97b9	-0.092574544
38	0xbe192d74	-0.14958745
39	0x3e6dd849	0.23227037
40	0x3cd1c960	0.025608718
41	0xbe2205e2	-0.15822557
42	0xbdb0260d	-0.086010076
43	0xbe197730	-0.14986873
44	0x3d943ea4	0.0723851
45	0x3dcb4bec	0.0992659
46	0x3e5a232d	0.21302481
47	0xbdbe21fc	-0.09283826

lstm.linear_forget_x.weight f4 [48, 6]
0	0x3c6e8bac	0.014559668
1	0xbe2c2e5a	-0.16814557
2	0xbe147f44	-0.14501673
3	0x3da28333	0.079351805
4	0x3ee2dedd	0.44310656
5	0x3e5cd9d8	0.21567476
6	0x3dd11f4d	0.10211048
7	0x3dff67a0	0.12470937
8	0xbe6c4af5	-0.23075469
9	0x3f9695c1	1.1764451
10	0x3e88d8bf	0.26727864
11	0xbe54dd54	-0.20787555
12	0x3eca97d0	0.3956895
13	0x3ec45896	0.38348836
14	0xbe48c114	-0.19604903
15	0xbf8b8e63	-1.0902828
16	0xbef04061	-0.46924117
17	0x3ef90222	0.4863444
18	0xbd443792	-0.04790456
19	0x3da815c8	0.082072794
20	0xbe9ec72c	-0.3101133
21	0xbf593e6d	-0.8486088
22	0x3f6a951f	0.9163379
23	0xbe03dd7d	-0.1287746
24	0x3ec4835d	0.38381472
25	0x3dfc3f78	0.12316793
26	0x3cc76160	0.024338424
27	0xbe1407f5	-0.1445616
28	0x3e88fade	0.26753896
29	0xbe07160f	-0.13192008
30	0xbea95e94	-0.3307997
31	0x3e5df974	0.2167719
32	0xbc25c940	-0.0101187825
33	0xbeeef97f	-0.46674725
34	0x3f4a6b53	0.79070014
35	0xbecd8cc6	-0.40146464
36	0x3ebcc010	0.36865282
37	0x3e6e8b00	0.23295212
38	0xbd83ce28	-0.064358056
39	0x3f21d37f	0.6321334
40	0xbec6ce9e	-0.3882951
41	0x3f189f9b	0.5961854
42	0x3ef94b42	0.4869023
43	0xbe963154	-0.2933451
44	0xbe86bb40	-0.26314735
45	0x3e238bbb	0.15971272
46	0x3e46cde1	0.19414474
47	0x3eb599aa	0.354688
48	0x3ecc48b7	0.39899227
49	0xbea89322	-0.32924753
50	0xbd8daed8	-0.069181144
51	0x3f197bd9	0.599546
52	0x3e64205e	0.22277972
53	0x3ecd8935	0.40143743
54	0x3eb3ee9f	0.3514299
55	0x3d1f9bc8	0.038966924
56	0xbc8cffe0	-0.017211854
57	0x3f384553	0.7198078
58	0x3ef784c3	0.48343477
59	0x3e92ae01	0.2864838
60	0x3d8fcbc3	0.07021286
61	0xbe4f5800	-0.20248413
62	0xbeab3cbc	-0.33444774
63	0x3f1d0c99	0.6134735
64	0x3f119dbc	0.5688131
65	0xbf2dea4e	-0.67935646
66	0xbd07e312	-0.033175536
67	0x3df0f4e8	0.11765462
68	0xbd5fc580	-0.05463171
69	0x3f22bbcb	0.635678
70	0x3e4089df	0.18802594
71	0x3b85cc4f	0.0040831934
72	0xbe5da406	-0.21644601
73	0xbe96e13d	-0.29468718
74	0x3ec55a04	0.3854524
75	0x3d93f4c8	0.07224423
76	0xbf21f704	-0.6326754
77	0x3eb2e794	0.34942305
78	0x3e4dddf1	0.20104195
79	0x3db0a600	0.08625412
80	0xbe36e897	-0.17862163
81	0xbd01d79b	-0.031699758
82	0x3e971ce6	0.29514235
83	0xbe9589a3	-0.2920657
84	0x3e4e688e	0.20157072
85	0x3d93f364	0.072241575
86	0x3eab2b9a	0.33431703
87	0xbda2256c	-0.07917294
88	0x3e7bfd22	0.24608281
89	0x3e7346b5	0.23757441
90	0x3e9a8be6	0.3018486
91	0xbe935d17	-0.2878196
92	0x3ea6329a	0.3246048
93	0x3ceb1b96	0.028699677
94	0xbed4efea	-0.4158929
95	0x3ec2c1fa	0.38038617
96	0xbe33e10d	-0.17566319
97	0x3e686258	0.22693765
98	0x3deae950	0.11470282
99	0x3deb9bc7	0.115043215
100	0xbe65678f	-0.22402786
101	0xbe23dea5	-0.16002901
102	0x3e14081a	0.14456216
103	0x3dba86b0	0.09107721
104	0xbd1c93b8	-0.038226813
105	0x3eb36f68	0.35045934
106	0xbd1fe2dd	-0.039034713
107	0x3e6c915f	0.2310233
108	0x3ecce679	0.40019587
109	0x3e835e50	0.25657892
110	0xbe9f7ca7	-0.3114979
111	0x3ec9b163	0.39393148
112	0xbc96d8f4	-0.018413998
113	0x3e85457e	0.2602958
114	0x3e2c9357	0.1685308
115	0x3eba8b70	0.36434507
116	0xbd95cd98	-0.073146045
117	0xbebcf9e8	-0.36909413
118	0xbe12561b	-0.14290659
119	0x3eacacc4	0.3372556
120	0x3ea7e7aa	0.32793933
121	0xbd73ef40	-0.05955434
122	0xbe4817ab	-0.19540279
123	0x3de58e30	0.11208761
124	0x3dbe1b14	0.092825085
125	0xbe7fec37	-0.24992453
126	0x3e5b1389	0.21394171
127	0xbe9c5c2a	-0.30539066
128	0x3e3e5ed0	0.18590856
129	0x3eed39c4	0.46333134
130	0x3e240955	0.16019185
131	0xbe906cf5	-0.28208128
132	0x3e95f642	0.29289442
133	0xbec06f11	-0.37584737
134	0x3d882358	0.06647366
135	0x3c0389c0	0.008028448
136	0xbe19cb5e	-0.15018985
137	0x3c9d5bfc	0.0192089
138	0x3ee65efe	0.44994348
139	0xbd7e7478	-0.062122792
140	0xbecedbd2	-0.40402085
141	0x3f4d96d0	0.80308247
142	0x3d7a7cc4	0.061154142
143	0x3f329eeb	0.6977374
144	0x3f195a5a	0.5990349
145	0x3ead6d46	0.33872432
146	0xbebce835	-0.3689591
147	0x3e9d68db	0.3074406
148	0x3e512026	0.2042242
149	0x3e180efc	0.14849466
150	0x3ee76a29	0.4519818
151	0xbe0e9ed8	-0.13927782
152	0xbec4a492	-0.38406807
153	0x3e288d79	0.16460218
154	0x3ea65203	0.32484445
155	0xbe6e2aff	-0.23258589
156	0x3d869b87	0.06572633
157	0xbe566e5b	-0.20940535
158	0xbe3dba79	-0.18528165
159	0x3e95e8b6	0.29279107
160	0x3e9b3358	0.3031261
161	0x3e418e26	0.18901882
162	0xbe2f1dd7	-0.17101227
163	0xbdab03bc	-0.08350322
164	0xbd87bd50	-0.06627905
165	0xbf63072c	-0.8868282
166	0xbe56b69d	-0.20968099
167	0x3f6b2eb5	0.91868144
168	0xbf1b13ba	-0.60576975
169	0xbdeffeb8	-0.117185056
170	0x3e901ac4	0.2814542
171	0xbe841eb6	-0.2580468
172	0xbec5db59	-0.3864391
173	0xbf0136a8	-0.50474024
174	0x3f164baa	0.58709204
175	0x3d15d670	0.036581457
176	0x3e93b606	0.2884981
177	0x3eac9a28	0.33711362
178	0x3ebb4b9b	0.3658112
179	0x3ece7b60	0.40328503
180	0xbe87cd07	-0.2652361
181	0xbe1f9afc	-0.15586466
182	0x3dffb8e0	0.12486434
183	0x3f296f4a	0.6618544
184	0x3f27f74a	0.6561171
185	0xbcf7e4bc	-0.030260436
186	0xbe5514be	-0.20808694
187	0xbe00e3e4	-0.12586933
188	0x3d56ea68	0.05246964
189	0xbe06cb13	-0.13163404
190	0x3e1f1bcd	0.15537949
191	0x3eedd752	0.4645334
192	0xbe181111	-0.1485026
193	0x3e3dcb60	0.18534613
194	0xbdc806d0	-0.097669244
195	0xbcc5e32d	-0.024156177
196	0x3f001fad	0.50048333
197	0x3d5c103c	0.05372642
198	0xbe2bda61	-0.16782524
199	0xbe07e720	-0.13271761
200	0xbe9ff23e	-0.31239504
201	0x3e85bd4b	0.26120982
202	0x3dccc861	0.09999157
203	0x3e3b67e6	0.18301353
204	0xbe1750de	-0.14776942
205	0x3cf2e020	0.029647887
206	0xbe6f38a4	-0.2336145
207	0x3f147f3d	0.5800665
208	0x3f070db4	0.52755284
209	0x3d8c7084	0.06857398
210	0xbe468ab9	-0.19388856
211	0x3e85a5d6	0.26103085
212	0xbe927a3d	-0.28608885
213	0x3e548fd3	0.2075799
214	0x3e5df1c9	0.21674265
215	0x3d44a331	0.048007194
216	0xbd9ecc74	-0.0775384
217	0xbec8d2db	-0.3922337
218	0xbdd8babc	-0.10582492
219	0xbe9d1f77	-0.30688068
220	0x3d8a4d01	0.067529686
221	0xbd48bb6f	-0.049006876
222	0x3e9d769a	0.30754548
223	0x3ec262b2	0.37965924
224	0xbd974478	-0.07386106
225	0xbee710e2	-0.45130068
226	0x3e90fd57	0.28318283
227	0x3c5a2fa4	0.0133170225
228	0x3e4dc17e	0.20093343
229	0xbe1ae2ea	-0.15125623
230	0xbeb67d9c	-0.35642707
231	0xbec50b74	-0.384853
232	0xbe90b11b	-0.2826012
233	0x3f1956cd	0.5989807
234	0x3e3600e5	0.17773779
235	0xbe4e4cbc	-0.2014646
236	0x3e0da494	0.13832313
237	0x3e9688cd	0.29401246
238	0x3f0cfb21	0.5507069
239	0xbcd57912	-0.026058707
240	0xbecd8cbb	-0.4014643
241	0x3e0530ac	0.13006848
242	0x3cb654f0	0.022257298
243	0xbec64bd0	-0.38729715
244	0xbeef3da5	-0.4672672
245	0x3d825b26	0.063650414
246	0xbe44031c	-0.19141811
247	0x3e6b0270	0.22950149
248	0xbd084788	-0.033271343
249	0x3e470723	0.19436316
250	0xbdc22bb6	-0.094809934
251	0x3e9bc9fb	0.30427536
252	0xbe89f227	-0.2694256
253	0x3e01dd04	0.12681967
254	0xbebc40da	-0.36768228
255	0xbf02f763	-0.5115873

lstm.linear_forget_x.bias f4 [48]
0	0x3c9f499a	0.019444276
1	0xbe7d0c40	-0.24711704
2	0x3ed1c8e2	0.40973574
3	0x3e9cb4ab	0.3060659
4	0xbd265881	-0.040611748
5	0x3df756ea	0.120771244
6	0xbd912e7e	-0.07088946
7	0x3df214eb	0.11820396
8	0x3f2f9fe2	0.68603337
9	0x3ea9ab09	0.33138302
10	0xbef531e6	-0.47889632
11	0xbd3749fe	-0.0447483
12	0x3df7a017	0.120910816
13	0xbdce98bf	-0.10087728
14	0x3e91263d	0.28349486
15	0x3e380386	0.17970094
16	0xbc2121d6	-0.009834727
17	0x3e895ba8	0.2682774
18	0x3e6a2be2	0.22868302
19	0x3e13210f	0.1436808
20	0x3e3f6b82	0.18693355
21	0x3e1186f5	0.14211638
22	0x3d614660	0.054998755
23	0x3e9d131a	0.30678636
24	0x3e225aa2	0.15854886
25	0x3ebc8bdb	0.3682545
26	0x3e69709a	0.2279686
27	0xbd18bd62	-0.037289985
28	0xbef64c9d	-0.48105326
29	0x3ef4e1b9	0.47828463
30	0x3ebdb613	0.37052974
31	0x3ee02ff9	0.437866
32	0x3f0995aa	0.53743994
33	0x3d94c20c	0.07263574
34	0x3f0fe107	0.5620274
35	0x3f1273cd	0.5720795
36	0xbe5b5f48	-0.21423066
37	0x3eb8deaa	0.3610738
38	0xbbc72caf	-0.0060783247
39	0x3f05683a	0.5211216
40	0x3e95f387	0.2928736
41	0x3e0ea300	0.13929367
42	0x3ea20fd9	0.31652716
43	0x3eb26523	0.34842786
44	0x3e933191	0.28748754
45	0x3dd743ab	0.105109535
46	0x3e1e2904	0.15445334
47	0xbe4d05f5	-0.20021804

lstm.linear_forget_h.weight f4 [48, 48]
0	0x3e8b34a7	0.27188608
1	0x3edfa8e9	0.43683556
2	0x3ea208fc	0.3164748
3	0xbe8edf32	-0.2790466
4	0xbe9e809f	-0.30957505
5	0xbe9b9ec8	-0.30394578
6	0x3eda718d	0.42664757
7	0x3e989760	0.2980299
8	0xbebfa156	-0.37427777
9	0xbec2c29b	-0.38039097
10	0xbe6d66ea	-0.2318379
11	0xbec81e90	-0.39085817
12	0x3eaa1f73	0.3322712
13	0xbeb6abbc	-0.35677898
14	0xbecd7cab	-0.40134177
15	0xbecfd28f	-0.4059033
16	0xbe1e33b9	-0.15449418
17	0xbea89823	-0.3292857
18	0x3ed79b82	0.4211083
19	0x3e9b6a6c	0.3035463
20	0xbe4a689e	-0.19766471
21	0xbeb537c4	-0.35394108
22	0xbe0d3a95	-0.13791879
23	0x3e4561cf	0.19275592
24	0x3c86fb36	0.016477209
25	0x3edc61c3	0.43043336
26	0xbe320de6	-0.17388114
27	0x3ecc3f60	0.398921
28	0x3edc847e	0.43069834
29	0xbe981279	-0.29701594
30	0xbe975c88	-0.29562783
31	0xbec75856	-0.38934582
32	0xbe98e31f	-0.2986078
33	0x3ed4e4e3	0.41580877
34	0xbecdfecf	-0.40233466
35	0x3ebf532a	0.37368137
36	0xbe70a1c5	-0.2349921
37	0xbd832755	-0.06403986
38	0xbe67861b	-0.22609751
39	0x3e860ce2	0.26181704
40	0x3e82bda5	0.25535312
41	0x3ea09ab6	0.31368035
42	0xbe9d10e8	-0.3067696
43	0x3dcfaa36	0.10139887
44	0x3e44a26c	0.19202584
45	0xbe5c9538	-0.21541297
46	0x3ec6c6c0	0.3882351
47	0xbe8c51ba	-0.27406102
48	0x3e41802e	0.18896553
49	0x3d95a066	0.07305984
50	0x3dc1077c	0.09425256
51	0xbe0223e2	-0.12709
52	0xbdec35f9	-0.11533732
53	0x3ca9dbcc	0.02073469
54	0xbce82913	-0.028339898
55	0x3e304212	0.17212704
56	0xbe559c70	-0.20860457
57	0x3cb8965c	0.022532634
58	0xbe4829f6	-0.19547257
59	0xbdee6d24	-0.11641911
60	0x3ddee206	0.10882954
61	0x3d534e29	0.05158821
62	0xbcc21a88	-0.023694292
63	0xbe133bbe	-0.14378259
64	0xbdda08c2	-0.10646202
65	0xbe45b7de	-0.19308421
66	0x3e4117b1	0.18856694
67	0x3cf75065	0.030189702
68	0x3c91d34d	0.017800951
69	0xbd41c3c1	-0.047305826
70	0xbe07d6cd	-0.13265534
71	0x3e1f3b08	0.15549862
72	0xbd994270	-0.07483375
73	0xbd9b32cd	-0.07578049
74	0xbdcf2bfb	-0.101158105
75	0x3de48447	0.111580424
76	0x3daa1156	0.08304088
77	0x38ab2524	8.1608334e-05
78	0xbda2f7dc	-0.07957432
79	0x3cace551	0.02110544
80	0xbdc1240d	-0.09430704
81	0xbd894f1d	-0.06704543
82	0xbe35324b	-0.17694966
83	0x3ddfc441	0.10926104
84	0xbe1a5223	-0.15070395
85	0xbd4478b2	-0.047966667
86	0xbe4c4486	-0.19948015
87	0xbc9d4a52	-0.019200478
88	0x3e1188ba	0.14212313
89	0xbd0c76ed	-0.034293104
90	0x3c351bb4	0.011053968
91	0x3bab2352	0.0052227164
92	0x3badc6e8	0.0053032525
93	0xbda6ea0e	-0.08150111
94	0x3e238a0e	0.15970632
95	0xbdf1ecb8	-0.11812729
96	0xbc7d848a	-0.015473494
97	0xbc15c101	-0.009140254
98	0x3c9f0545	0.019411692
99	0x3c22fce2	0.009947987
100	0x3cb3bb4a	0.021939892
101	0x3d17bacc	0.037043378
102	0x3e257f60	0.16161871
103	0x3d857d50	0.06518042
104	0xbe05d8e4	-0.13071018
105	0xbc3a2e5c	-0.011363592
106	0xbc099d14	-0.008399267
107	0x3d400683	0.04688121
108	0x3d23b302	0.039965637
109	0xbb1709a2	-0.0023046513
110	0x3db32f68	0.087492764
111	0xbe13de4a	-0.14440265
112	0xbddb47c4	-0.107070476
113	0x3cd88a9c	0.026433282
114	0xbdb0afc2	-0.08627273
115	0xbc3b637d	-0.011437294
116	0xbe19ae3d	-0.15007873
117	0xbd6859c9	-0.05672625
118	0xbd1fff7b	-0.039062005
119	0xbdb1b667	-0.086773686
120	0x3e027527	0.12740003
121	0x3db01f9e	0.085997805
122	0xbe2bf4c8	-0.16792595
123	0xbdfd65c2	-0.123729244
124	0xbdbd185b	-0.09233161
125	0xbdd48f3b	-0.103788815
126	0xbdb0bdde	-0.08629964
127	0x3cca9bfe	0.024732586
128	0x3cf3a191	0.029740127
129	0xbdec4572	-0.11536683
130	0xbc96e01f	-0.018417416
131	0xbe03d9da	-0.12876073
132	0xbdf6e417	-0.120552234
133	0x3dcaf243	0.09909489
134	0xbe1bf545	-0.15230282
135	0x3ca65ca9	0.020307856
136	0xbcc878d9	-0.024471687
137	0xbd4ad130	-0.049515903
138	0x3c770c01	0.015078546
139	0xbd726f05	-0.059187908
140	0x3dcdf8c8	0.10057217
141	0x3daa390d	0.08311663
142	0x3c6c59ee	0.014425738
143	0x39d1c86c	0.00040012912
144	0x3d0697f4	0.032859758
145	0x3ddcb140	0.10775995
146	0x3deed79a	0.116622165
147	0xbe0376e2	-0.12838319
148	0xbe5581f0	-0.20850348
149	0xbe542819	-0.20718421
150	0x3d08d11e	0.033402555
151	0x3cf4ade0	0.029868066
152	0xbda8aafa	-0.08235736
153	0xbdd53b35	-0.104116835
154	0x3d3045e3	0.0430354
155	0xbe165358	-0.1468023
156	0x3da1535f	0.0787723
157	0xbe1150c3	-0.14190964
158	0xbd607c20	-0.054805875
159	0xbd51dc06	-0.05123522
160	0xbd5e8917	-0.054329958
161	0xbe4667d3	-0.19375543
162	0x3dc2517b	0.094881974
163	0xbd6a3ecd	-0.057188798
164	0x3d780f6c	0.060561582
165	0x3d48ae26	0.048994206
166	0xbdfb5fef	-0.12274157
167	0x3e1efc35	0.15525897
168	0x3c76dbf2	0.0150670875
169	0x3c559878	0.01303684
170	0xbdefe428	-0.11713439
171	0x3d07723a	0.03306792
172	0xbd428571	-0.04749054
173	0xbd6a6bc8	-0.057231694
174	0xbe204016	-0.15649447
175	0xbdf5e917	-0.12007349
176	0x3c951836	0.018200021
177	0xbd17be9c	-0.037047014
178	0xbdb5bdad	-0.088740684
179	0xbada9f51	-0.001667956
180	0x3d8abf7c	0.06774804
181	0xbd6380d3	-0.05554278
182	0xbe09aa06	-0.13443765
183	0x3cf9d4ce	0.030496981
184	0x3e1704f3	0.14747982
185	0x3cb4fbb0	0.02209267
186	0xbd9e25bf	-0.07722043
187	0x3e1d9add	0.15391107
188	0xbd906b88	-0.0705176
189	0x3d8dae5b	0.06918021
190	0x3e4f2061	0.20227195
191	0xbe1063cf	-0.14100574
192	0x3e8117f1	0.25213578
193	0x3e85aa7c	0.26106632
194	0x3e3e342c	0.1857459
195	0xbed8a6f4	-0.42314875
196	0xbe922099	-0.28540495
197	0xbe8e9ec7	-0.27855512
198	0x3eddad55	0.43296304
199	0x3e9b0996	0.3028075
200	0xbe727ab3	-0.23679619
201	0xbe252223	-0.16126303
202	0xbeabe3f3	-0.3357235
203	0xbeac4a37	-0.3365037
204	0x3eb0e97d	0.34553137
205	0xbe62f5ca	-0.22164074
206	0xbe47e253	-0.1951993
207	0xbeb46402	-0.3523255
208	0xbebdb637	-0.3705308
209	0xbeddab5d	-0.43294802
210	0x3e8c1880	0.27362442
211	0x3e8850f1	0.26624253
212	0xbeb0dd86	-0.3454401
213	0xbeb2c36a	-0.34914714
214	0xbec92703	-0.39287576
215	0x3ecd62e3	0.40114507
216	0x3d103ea2	0.03521598
217	0x3e41ea87	0.18937121
218	0xbe90702a	-0.28210574
219	0x3e66cc08	0.22538769
220	0x3ea315ca	0.3185256
221	0xbe99c425	-0.3003246
222	0xbed98bf8	-0.424896
223	0xbe93cde6	-0.28868026
224	0xbee55d12	-0.4479757
225	0x3eae8fdb	0.34094128
226	0xbec4ed54	-0.38462317
227	0x3eaf9619	0.34294203
228	0xbe4f745f	-0.20259236
229	0xbe835bdb	-0.25656018
230	0xbedff621	-0.4374247
231	0x3e8bbf3a	0.27294332
232	0x3ec772a8	0.38954663
233	0x3eba1803	0.36346444
234	0xbedb87f0	-0.4287715
235	0xbca82bc6	-0.020528685
236	0x3e55377e	0.2082195
237	0xbec94955	-0.3931376
238	0x3e5751cf	0.21027301
239	0xbea2719d	-0.31727305
240	0x3d920194	0.07129207
241	0xbcc7e000	-0.024398804
242	0x3e44bb2a	0.19212022
243	0x3da1a761	0.07893253
244	0xbe369e12	-0.17833737
245	0xbdab6a2d	-0.08369861
246	0x3dad3027	0.0845645
247	0x3d843b2d	0.064565994
248	0xbe06fb68	-0.13181841
249	0xbe26822c	-0.16260594
250	0xbe3af571	-0.18257691
251	0xbda24480	-0.079232216
252	0x3e4b1530	0.19832301
253	0xbe40d2a1	-0.18830349
254	0xbe11664e	-0.14199182
255	0xbe3f2f30	-0.18670344

lstm.linear_input_x.weight f4 [48, 6]
0	0xbe10efe4	-0.14154011
1	0xbec721d3	-0.38892993
2	0x3eb3d6e6	0.35124892
3	0x3e2704b0	0.16310382
4	0x3e91224f	0.28346488
5	0x3ed345bc	0.4126414
6	0x3f284321	0.6572743
7	0x3e802104	0.2502519
8	0xbec4ec1c	-0.38461387
9	0x3d1c64e8	0.03818217
10	0x3de01c14	0.109428555
11	0x3f88b203	1.0679325
12	0x3ebc7f99	0.368161
13	0xbc914620	-0.017733634
14	0x3e5fb624	0.21846825
15	0x401ee547	2.482744
16	0x3f8e1cee	1.1102579
17	0x3e85306f	0.26013514
18	0x3e8a6a77	0.2703435
19	0xbe0af272	-0.13569048
20	0x3e5b8ad4	0.21439677
21	0x4017fc91	2.3747904
22	0xbf1a3405	-0.60235626
23	0x3f4c6ca9	0.798533
24	0x3e07a64b	0.1324703
25	0xbe8a5107	-0.27014944
26	0x3ecd0842	0.40045363
27	0x3e2662e7	0.16248666
28	0xbe150289	-0.14551748
29	0x3f1961a7	0.5991463
30	0x3ed345c3	0.4126416
31	0xbe8c93f8	-0.2745664
32	0x3ddcf440	0.107887745
33	0x3fca1587	1.578782
34	0x3dca871e	0.09889053
35	0x3f52fb55	0.8241475
36	0x3e33f3bb	0.17573445
37	0xbec4d1c7	-0.38441297
38	0xbd32d710	-0.04366213
39	0x3ec58366	0.38576812
40	0xbeecbebd	-0.46239272
41	0x3f131b23	0.5746328
42	0x3ea50384	0.32229245
43	0xbe81e8d2	-0.2537294
44	0xbe3be7f9	-0.1835021
45	0xbd4380d5	-0.047730286
46	0x3e9f28c3	0.31085786
47	0x3e8c9bc1	0.2746258
48	0x3f0a198b	0.53945225
49	0x3e533a8c	0.20627803
50	0x3e347d24	0.17625862
51	0xbe5c0f38	-0.2149018
52	0x3f282108	0.656754
53	0x3dd5e436	0.104439184
54	0x3e5b8f19	0.21441306
55	0xbe390e80	-0.18071938
56	0x3cb83800	0.02248764
57	0x3f1a2f99	0.6022888
58	0xbe11fcaa	-0.1425654
59	0x3d4e4b07	0.05036452
60	0xbed465b4	-0.41483843
61	0x3e529660	0.20565176
62	0xbe8dc6f2	-0.27690846
63	0x403b30f0	2.924862
64	0xbf05d945	-0.5228465
65	0x3e54a2d7	0.20765243
66	0x3effddd0	0.49973917
67	0x3e076b20	0.13224459
68	0xbe9c24c1	-0.3049679
69	0x3f112731	0.56700426
70	0x3ef946df	0.48686883
71	0x3ed64401	0.41848758
72	0xbe8e5776	-0.27801102
73	0x3baefcc0	0.0053401887
74	0xbebf5d2c	-0.37375772
75	0x4033b3b3	2.807843
76	0xbb9e2f6e	-0.0048274314
77	0xbe8b70b5	-0.27234426
78	0x3e8f8b3c	0.28035915
79	0xbeb39f75	-0.35082594
80	0xbd229ba8	-0.039699227
81	0xbf3f6d79	-0.74776417
82	0x3f9e3d94	1.2362542
83	0xbe6376d8	-0.22213304
84	0x3e91106e	0.28332847
85	0xbe9e4041	-0.30908397
86	0xbdfad45c	-0.122475356
87	0x3f094a12	0.5362865
88	0x3e23f671	0.16011979
89	0x3f1500d2	0.58204377
90	0x3ceb4f9a	0.02872448
91	0xbe24fe36	-0.16112599
92	0xbe8303c1	-0.25588802
93	0x3e85aa4a	0.26106483
94	0xbeeb0ed0	-0.4590974
95	0x3e32cfa1	0.17462017
96	0x3b256650	0.0025237985
97	0x3ebf538a	0.37368423
98	0xbe75644e	-0.23964044
99	0xbc3edec9	-0.011649796
100	0xbe5109b5	-0.20413859
101	0x3d880734	0.06641999
102	0xbda56f5a	-0.08077879
103	0xbeb066f2	-0.3445354
104	0x3d7664f8	0.060154885
105	0x3db69ca6	0.08916597
106	0xbd8e6632	-0.06953086
107	0xbe21aad7	-0.15787826
108	0x3f117f6d	0.5683506
109	0x3eb08fa0	0.34484577
110	0x3e9de2a4	0.30836976
111	0x3d95c101	0.07312203
112	0xbda27edc	-0.07934353
113	0x3e77b9b1	0.2419193
114	0x3ed8b9aa	0.4232915
115	0x3dbf4fe8	0.09341413
116	0xbea59a25	-0.32344165
117	0xbfa65ba6	-1.2996719
118	0xbf811f12	-1.0087607
119	0x3f339956	0.7015585
120	0xbe894441	-0.26809886
121	0x3d3e5498	0.046467394
122	0xbe8cc161	-0.27491286
123	0x4017a987	2.3697221
124	0x3f3e1310	0.7424784
125	0xbea0e79c	-0.31426704
126	0x3efcbd40	0.49363136
127	0xbd13f980	-0.036126614
128	0xbcca5840	-0.024700284
129	0x3f28806b	0.6582095
130	0x3f381ccd	0.71918947
131	0xbd733cf5	-0.059384305
132	0xbec1995b	-0.37812313
133	0xbd0964e0	-0.033543468
134	0x3e97fadc	0.29683578
135	0x3ea894f6	0.32926148
136	0x3e00bae8	0.12571299
137	0x3e92cce9	0.2867196
138	0xbb673371	-0.0035278464
139	0xbe9cbf77	-0.30614826
140	0xbe8a2b46	-0.2698614
141	0x3e925f50	0.28588343
142	0x3e648f2a	0.22320238
143	0x3eccadd2	0.39976364
144	0x3f079056	0.52954614
145	0xbecbee8a	-0.39830428
146	0x3eb51468	0.3536713
147	0x3eabee8f	0.33580443
148	0xbe68dae4	-0.2273975
149	0xbddd7981	-0.10814191
150	0x3edf428c	0.4360546
151	0x3e3111ec	0.17291993
152	0xbd01d6d0	-0.031699
153	0x3efc92e1	0.4933081
154	0x3ee543ca	0.4477828
155	0xbe176a5f	-0.14786671
156	0x3ed11706	0.40837878
157	0x3de7c940	0.11317682
158	0x3e8214d6	0.25406522
159	0x3f005354	0.5012715
160	0xbe98d1ad	-0.2984747
161	0x3ebc3a13	0.36763057
162	0x3e1d6aa0	0.15372705
163	0xbe19f39e	-0.15034339
164	0x3e71fda4	0.23631912
165	0x40083e90	2.1288185
166	0x3f90b902	1.130646
167	0x3edd2688	0.4319346
168	0xbde86be9	-0.11348707
169	0x3dc8e1d8	0.09808701
170	0x3ebf7d7e	0.3740043
171	0x3f4d61fe	0.8022765
172	0x3ea0ee8b	0.31431994
173	0xbeb83470	-0.35977507
174	0xbdf5e22c	-0.120060295
175	0x3e8210c0	0.25403404
176	0x3e3135d0	0.17305684
177	0x3f266419	0.64996487
178	0x3e9a5e01	0.30149844
179	0x3f3bf5b9	0.7342182
180	0x3eaf5d60	0.34250927
181	0x3ec77d30	0.38962698
182	0x3e2cc6d0	0.16872716
183	0x3e37b5f7	0.17940508
184	0x3ebeb6d6	0.37248868
185	0x3e82dbd3	0.25558338
186	0x3e85024a	0.2597831
187	0xbd3cba70	-0.04607624
188	0xbe5bb6be	-0.2145643
189	0xbe83e470	-0.2576022
190	0x3ddd36d3	0.108014725
191	0x3f0e97d2	0.5570041
192	0x3e390a44	0.18070322
193	0xbde0f010	-0.10983288
194	0xbe78cdf2	-0.24297312
195	0x3ed1327b	0.40858826
196	0x3e54c8da	0.20779744
197	0x3e1ec1a2	0.15503553
198	0x3eed8bbe	0.46395677
199	0x3e451c14	0.19248992
200	0xbe84acb4	-0.25913012
201	0x3ecec6b1	0.40385965
202	0x3dd3a02c	0.10333285
203	0xbd8a269f	-0.06745648
204	0xbc1a3d0f	-0.009413972
205	0x3eb93e96	0.36180562
206	0xbd3f2878	-0.046669453
207	0xbcba98a2	-0.02277786
208	0x3f114ab3	0.56754607
209	0xbd40d861	-0.047081355
210	0x3dcce708	0.10005003
211	0xbea81cde	-0.32834524
212	0x3c7ab620	0.015302211
213	0xbe277603	-0.16353612
214	0x3f0d921b	0.55301064
215	0x3ebe04f4	0.37113154
216	0x3d91a03b	0.0711064
217	0x3da03f38	0.07824558
218	0x3dd7ee78	0.10543531
219	0x3b8d8ce8	0.004319776
220	0x3e44d1c9	0.19220652
221	0xbdb04bc1	-0.08608199
222	0xbcd929af	-0.026509134
223	0xbda00d3c	-0.07815024
224	0xbe4c710d	-0.19965
225	0x3fc4d17c	1.537643
226	0xbd952985	-0.0728331
227	0x3e9a8a7a	0.30183774
228	0x3edcf60f	0.43156478
229	0xbe8d8d90	-0.27647066
230	0xbe773190	-0.2414
231	0x3e4020f6	0.18762574
232	0xbe495082	-0.19659618
233	0x3e6a5e2b	0.22887485
234	0x3e8c281b	0.27374348
235	0xbeba57be	-0.36395067
236	0xbec37a37	-0.3817918
237	0x3f140abd	0.57828885
238	0x3dcc5d4b	0.09978732
239	0xbda0eef2	-0.07858075
240	0x3e8a3926	0.26996726
241	0x3e4d5688	0.2005254
242	0xbd0b6328	-0.03403011
243	0x4022b8a3	2.5425193
244	0x3fa4b1ee	1.28668
245	0x3e4ae8bc	0.19815344
246	0x3f0dbe70	0.5536871
247	0xbb8b7a40	-0.0042565167
248	0xbd852d04	-0.06502727
249	0x3f097e16	0.53708017
250	0x3d726ef8	0.05918786
251	0xbe21a85a	-0.15786877
252	0x3ec1846b	0.3779634
253	0xbdfa9ad0	-0.122365594
254	0x3c5da9c0	0.013529241
255	0x40039efe	2.056579

lstm.linear_input_x.bias f4 [48]
0	0x3eaf99a8	0.34296918
1	0x3f1491e5	0.5803512
2	0xbcbb5d79	-0.02287172
3	0x3eca1511	0.39469197
4	0x3e49d81e	0.19711348
5	0x3eb1e9c7	0.3474867
6	0xbd599fdc	-0.05313097
7	0xbde676c1	-0.11253119
8	0xbc83aecf	-0.016074566
9	0x3f064ca4	0.52460694
10	0xbeb953e0	-0.36196804
11	0xbc884ae4	-0.016637273
12	0x3eaa70a8	0.33289075
13	0x3f1b1a36	0.6058687
14	0x3dd61a7b	0.104542695
15	0xbeae7425	-0.34072986
16	0x3d2e324d	0.04252844
17	0x3ddc7038	0.107635915
18	0x3ebbb252	0.36659485
19	0x3d0acf42	0.033889063
20	0x3ee8bedb	0.4545811
21	0x3ead1158	0.33802295
22	0xbe76034f	-0.240247
23	0x3eead29e	0.45863813
24	0x3f26e924	0.65199494
25	0x3e86dbd2	0.26339585
26	0x3ed5a0a4	0.41724122
27	0x3e8e6dee	0.27818245
28	0x3e9acfaa	0.3023656
29	0x3b96095a	0.0045787515
30	0x3eaced4e	0.337748
31	0x3e927409	0.28604153
32	0x3edcd443	0.43130693
33	0xbdc699e2	-0.096973196
34	0x3e98093c	0.29694545
35	0x3f24e2a9	0.64408356
36	0x3ebf7556	0.37394208
37	0x3ddd476f	0.108046405
38	0x3f004660	0.50107384
39	0x3f1a9734	0.6038697
40	0x3d539e98	0.05166492
41	0x3dfefe9c	0.12450907
42	0xbb85f1fb	-0.004087684
43	0x3e0274e4	0.12739903
44	0x3e9de95e	0.30842108
45	0xbbb1241c	-0.005405916
46	0x3f053ef1	0.52049166
47	0x3ea5b16b	0.32361922

lstm.linear_input_h.weight f4 [48, 48]
0	0x3d228732	0.039679714
1	0x3de3ba01	0.11119462
2	0x3e072615	0.13198121
3	0xbe28109d	-0.16412587
4	0xbe4c89ba	-0.19974414
5	0xbd2c838b	-0.042117637
6	0x3e200e35	0.1563042
7	0x3de4d781	0.111739166
8	0xbda200c0	-0.07910299
9	0xbe6c91a4	-0.23102432
10	0xbd3e0c0d	-0.04639821
11	0xbe8ff541	-0.281168
12	0x3e797788	0.24362004
13	0xbdc372fd	-0.09543417
14	0xbe6436c3	-0.22286515
15	0xbdacbaab	-0.084340416
16	0xbd966cd0	-0.07344973
17	0xbd0b17fc	-0.03395842
18	0x3e3277b1	0.17428471
19	0x3e73d143	0.23810296
20	0xbdb301c1	-0.08740569
21	0xbddca44e	-0.10773526
22	0xbd9ae16a	-0.075625256
23	0x3cd5da6a	0.026105125
24	0xbdd98fc2	-0.10623123
25	0x3dc91475	0.09818355
26	0xbe6315b8	-0.22176254
27	0x3e0dc464	0.13844448
28	0x3d6e1523	0.058125626
29	0xbe1bb71f	-0.15206574
30	0xbd818f90	-0.063262105
31	0xbe8f917b	-0.2804068
32	0xbdd5a8c0	-0.10432577
33	0x3e8e6ae5	0.2781593
34	0xbd497ac6	-0.04918935
35	0x3caaf1be	0.020867225
36	0xbc2863b4	-0.010277677
37	0xbd769b8f	-0.060206946
38	0xbe44b1a8	-0.19208395
39	0x3cf97416	0.030450862
40	0x3e402286	0.1876317
41	0x3cad988e	0.021190908
42	0xbccfa811	-0.025348695
43	0x3b9f4408	0.004860405
44	0x3d242229	0.04007164
45	0xbd914f1c	-0.07095167
46	0x3e616f1e	0.22015044
47	0xbe3d9d7d	-0.18517108
48	0x3f0a970b	0.54136723
49	0x3f1f6d12	0.62275803
50	0x3f4f2af8	0.8092494
51	0xbf0fec84	-0.5622027
52	0xbf4f618b	-0.81008214
53	0xbf4e745c	-0.806463
54	0x3f3fca43	0.74918
55	0x3f534cd2	0.82539093
56	0xbf493edc	-0.7861154
57	0xbf494f36	-0.7863649
58	0xbf23a37e	-0.63921344
59	0xbf29f24a	-0.6638533
60	0x3f1f4b79	0.6222454
61	0xbf1029df	-0.5631389
62	0xbf4a7d55	-0.7909749
63	0xbf162cab	-0.5866191
64	0xbf0c6c3d	-0.5485266
65	0xbf425b62	-0.7592069
66	0x3f533910	0.82508945
67	0x3f20d51d	0.62825185
68	0xbf3a94b7	-0.7288317
69	0xbf42649f	-0.75934786
70	0xbf0cdbf3	-0.55023116
71	0x3f4c8df5	0.7990411
72	0x3f384c09	0.7199102
73	0x3f4985be	0.787197
74	0xbf19d205	-0.6008609
75	0x3f2eadfa	0.6823422
76	0x3f41158f	0.7542352
77	0xbf1d763b	-0.6150853
78	0xbf4ca939	-0.79945713
79	0xbf2c986f	-0.67420095
80	0xbf1e4e3d	-0.6183813
81	0x3f0f4dbf	0.55978006
82	0xbf53001b	-0.82422036
83	0x3f2eb537	0.6824526
84	0xbf4e461d	-0.80575734
85	0xbf33f560	-0.7029629
86	0xbf4d6ec6	-0.8024715
87	0x3f2d78bc	0.6776235
88	0x3f5281a3	0.8222906
89	0x3f1c4690	0.6104517
90	0xbf506672	-0.8140632
91	0x3eef1b7d	0.4670066
92	0x3f3489e6	0.70522916
93	0xbf129a1b	-0.57266396
94	0x3f0968b7	0.5367541
95	0xbf2fd7d4	-0.686887
96	0x3e02b918	0.1276592
97	0x3ec88740	0.39165688
98	0x3dd00bf8	0.10158533
99	0xbe51be5e	-0.20482776
100	0xbe522219	-0.2052082
101	0xbe6c4fb3	-0.23077278
102	0x3e29dc57	0.16587959
103	0x3e5d2b45	0.21598537
104	0xbebf237f	-0.3733177
105	0xbe47cce9	-0.19511761
106	0xbeb443a2	-0.3520785
107	0xbe9d5733	-0.3073059
108	0x3e9f5a7e	0.31123728
109	0xbe4ebf25	-0.20190103
110	0xbebe5b50	-0.3717904
111	0xbea8a30a	-0.3293689
112	0xbe86edfd	-0.26353446
113	0xbde4ab97	-0.11165541
114	0x3eb60a69	0.35554817
115	0x3dfcf438	0.123512685
116	0xbeb11e7d	-0.34593573
117	0xbe1fbf06	-0.15600213
118	0xbe0f363a	-0.1398553
119	0x3e638daa	0.2222201
120	0x3e77848a	0.24171653
121	0x3e672645	0.22573192
122	0xbdfb7dde	-0.12279867
123	0x3e55a882	0.20865062
124	0x3e2ef8ad	0.1708705
125	0xbeb4c7ed	-0.3530878
126	0xbec72e4b	-0.38902506
127	0xbe6fbf54	-0.2341283
128	0xbe8ff495	-0.2811629
129	0x3e9bb50f	0.30411574
130	0xbe72fad4	-0.23728496
131	0x3e6daa80	0.23209572
132	0xbe862d88	-0.26206613
133	0xbe084ee5	-0.13311346
134	0xbe6bd48a	-0.23030296
135	0x3e03f9dd	0.12888284
136	0x3e1fe986	0.15616426
137	0x3ebada4c	0.36494672
138	0xbeb8dad3	-0.3610445
139	0x3e9744b3	0.295446
140	0x3e623bb9	0.22093095
141	0xbe60eca1	-0.21965267
142	0x3e3cba7b	0.18430512
143	0xbe89c5bc	-0.26908672
144	0x3dc0e965	0.094195165
145	0x3e4280b2	0.18994406
146	0x3d301341	0.042987112
147	0xbe1e1ca1	-0.15440609
148	0xbd47c5f8	-0.048772782
149	0xbe1e1b5e	-0.15440127
150	0x3cdc7ca7	0.026914908
151	0x3dee8196	0.1164581
152	0x35ec2e00	1.7596758e-06
153	0xbe35f7a1	-0.17770244
154	0xbbd87d32	-0.0066067213
155	0xbe34d5b0	-0.1765964
156	0x3e00dfb5	0.12585337
157	0xbd6d37cd	-0.057914544
158	0xbe0cc468	-0.13746798
159	0xbd9e447c	-0.07727906
160	0xbe842926	-0.25812644
161	0xbe635a72	-0.22202471
162	0x3bffc04a	0.007804905
163	0x3db50396	0.088385746
164	0xbd3a2a9a	-0.045450784
165	0xbd1da99e	-0.038491838
166	0xbe415d61	-0.18883277
167	0x3d8fb1be	0.070163235
168	0x3d510c87	0.051037338
169	0x3d853ea1	0.06506086
170	0xbd81bbdf	-0.06334662
171	0x3d50dd68	0.0509924
172	0x3e2f0100	0.17090225
173	0xbdca6098	-0.09881705
174	0xbe5c6c9d	-0.21525808
175	0xbc51720c	-0.012783539
176	0xbe3bba7b	-0.18332855
177	0x3d51b3e0	0.051196933
178	0xbe62b2de	-0.22138545
179	0x3e865e71	0.26243928
180	0xbe48bb46	-0.19602689
181	0xbe680f74	-0.22662145
182	0xbe6b38af	-0.22970842
183	0x3da8f7aa	0.08250363
184	0xbb328fcc	-0.0027246354
185	0x3dc50b6e	0.09621321
186	0xbe3e9cfa	-0.1861457
187	0x3e8ca492	0.27469307
188	0x3d8aa90c	0.067705244
189	0xbc15d7b0	-0.009145662
190	0x3cf10d76	0.029425364
191	0xbe198cd9	-0.14995135
192	0x3e2b867f	0.16750525
193	0x3e95033b	0.29104027
194	0x3e7f7809	0.24948134
195	0xbe74dcf0	-0.23912406
196	0xbe617740	-0.22018147
197	0xbeca3304	-0.39492047
198	0x3eb7752f	0.3583159
199	0x3e7a4106	0.24438867
200	0xbebfed97	-0.37485954
201	0xbe8367cc	-0.25665128
202	0xbeac8e22	-0.3370219
203	0xbec227fe	-0.37921137
204	0x3eb5b33a	0.35488302
205	0xbecce5ee	-0.40019172
206	0xbe8c5093	-0.27405223
207	0xbe87fbc9	-0.26559284
208	0xbeaf50ac	-0.34241235
209	0xbe90ce17	-0.28282234
210	0x3ed985ad	0.424848
211	0x3ea29600	0.31755066
212	0xbe70207d	-0.23449893
213	0xbeadcd26	-0.33945578
214	0xbe568502	-0.20949176
215	0x3e89342a	0.2679761
216	0x3e395fa0	0.18102884
217	0x3e5d6d30	0.21623683
218	0xbe9fc641	-0.31205943
219	0x3e277551	0.16353346
220	0x3e9d2d1c	0.30698478
221	0xbe2824d2	-0.16420296
222	0xbea396eb	-0.3195108
223	0xbe89c32d	-0.2690672
224	0xbecae386	-0.39626712
225	0x3ed6837d	0.41897193
226	0xbe55e583	-0.20888333
227	0x3ea58598	0.32328486
228	0xbe477e27	-0.19481717
229	0xbe720e07	-0.23638164
230	0xbecdf872	-0.4022861
231	0x3e165c53	0.14683656
232	0x3e4fe44b	0.2030193
233	0x3ed4b29b	0.41542515
234	0xbebb9dd3	-0.36643848
235	0xbd25a541	-0.0404408
236	0x3e9d63a5	0.30740085
237	0xbe45a08b	-0.19299524
238	0x3e1b2fe8	0.15154994
239	0xbe6161e9	-0.22010006
240	0x3e316fac	0.17327756
241	0x3e5823ba	0.21107379
242	0x3df40011	0.11914075
243	0xbec3d898	-0.38251185
244	0xbe018a3f	-0.12650393
245	0xbecac249	-0.39601353
246	0x3e420fc7	0.18951331
247	0x3e972c88	0.29526162
248	0xbe2d8c2d	-0.16948004
249	0xbea45601	-0.32096866
250	0xbe31dac2	-0.17368606
251	0xbe31658c	-0.17323893
252	0x3eaa69af	0.33283755
253	0xbe520ac0	-0.20511913
254	0xbe653b45	-0.22385891
255	0xbe3c4d44	-0.1838885

lstm.linear_newmemory_x.weight f4 [48, 6]
0	0xbf0d1103	-0.5510408
1	0x3e5c0288	0.2148534
2	0x3d8d8c9c	0.06911585
3	0xbe6e1fb7	-0.23254286
4	0xbe0850f5	-0.13312133
5	0x3d668c55	0.056286175
6	0x3ea663bc	0.32497966
7	0xbc9d4070	-0.019195765
8	0x3e52b4d4	0.20576793
9	0xbfdcbb70	-1.7244701
10	0xbf8b3cd9	-1.0877944
11	0x3ee77dcf	0.45213172
12	0x3e2652cc	0.16242522
13	0xbd64de90	-0.055876315
14	0x3ea5a2b4	0.32350695
15	0x3fa44ff2	1.2836897
16	0x3ec852d1	0.39125684
17	0xbfb60a7a	-1.4221947
18	0xbe37b4ba	-0.17940035
19	0x3e8265c4	0.25468266
20	0x3e1c2bbc	0.15251058
21	0xbf88739c	-1.0660281
22	0x3fcc584c	1.5964446
23	0xbeab65e3	-0.3347617
24	0xbf1f1b5f	-0.6215114
25	0xbe820a95	-0.25398698
26	0x3dc34880	0.09535313
27	0xbd3f0a40	-0.046640635
28	0xbf1c0e87	-0.60959667
29	0xbe4764ac	-0.19471997
30	0xbed078dd	-0.4071721
31	0x3e919b5a	0.28438836
32	0x3d4d66f0	0.050146997
33	0x3f80c32a	1.0059559
34	0xbf968deb	-1.176206
35	0x3ed7fabb	0.4218348
36	0xbe20dce5	-0.15709265
37	0xbea368ca	-0.31915885
38	0x3ec9e618	0.3943336
39	0xbdbeeaf5	-0.09322158
40	0xbc17c4b7	-0.009263209
41	0xbd34f3df	-0.044177886
42	0x3ef3eaf3	0.4764019
43	0x3dfdf888	0.12400919
44	0x3dba8da8	0.0910905
45	0x3f31b7e7	0.6942124
46	0x3ee1fcba	0.44138128
47	0xbe215b8c	-0.15757579
48	0xbf28d14f	-0.6594438
49	0x3ca4f860	0.020137966
50	0x3e70d258	0.2351774
51	0xbdd0b804	-0.10191348
52	0xbe2882fa	-0.16456214
53	0x3b6a8e74	0.0035790475
54	0xba22dfd7	-0.00062131643
55	0x3ecc64a8	0.39920545
56	0x3eb7113e	0.35755342
57	0x3ed70a5b	0.42000088
58	0x3ee3afcf	0.4447007
59	0x3f0e7206	0.55642736
60	0x3e2be442	0.16786292
61	0x3e41b45c	0.18916458
62	0xbc816560	-0.01579541
63	0x3f08257e	0.5318221
64	0xbf80a7d5	-1.0051218
65	0x3f14310d	0.57887346
66	0x3ded3341	0.115820415
67	0x3d2fd590	0.04292828
68	0xbe8c1b3e	-0.27364534
69	0xbf0ca8e1	-0.5494519
70	0xbde4bc9b	-0.11168786
71	0xbeea3a9e	-0.45747846
72	0xbd498252	-0.04919655
73	0x3e872cce	0.2640137
74	0x3ea10332	0.3144775
75	0xbed1789a	-0.40912324
76	0xbf4caeb2	-0.79954064
77	0x3fa0df6d	1.2568184
78	0xbe9ea30c	-0.3098377
79	0x3ecf77ba	0.40521032
80	0x3e663e64	0.22484738
81	0xbfc0354f	-1.5016268
82	0x3f0535cc	0.5203521
83	0xbf4dc0e2	-0.8037244
84	0xbef17b97	-0.47164604
85	0x3ea09e22	0.31370646
86	0xbe9dc944	-0.30817616
87	0xbefbc955	-0.49177042
88	0xbf34d2bf	-0.70634073
89	0xbdcf50c4	-0.10122827
90	0xbcc9f54a	-0.024653096
91	0x3eacc760	0.3374586
92	0xbea3eb45	-0.32015434
93	0xbebca4fe	-0.3684463
94	0xbe8732d2	-0.2640596
95	0x3e07841a	0.13233986
96	0x3e9ca483	0.30594262
97	0x3e7062a4	0.23475128
98	0x3e8e2f34	0.27770388
99	0x3cc2e0e6	0.02378888
100	0xbd656090	-0.056000292
101	0x3dcd422d	0.10022388
102	0xbd2070e3	-0.039170157
103	0xbd054b98	-0.032542795
104	0x3e3b83a4	0.18311936
105	0x3f3e2b10	0.7428446
106	0x3f4b0ed1	0.79319483
107	0x3ee7e850	0.45294428
108	0x3efd5f9e	0.49487013
109	0xbe1b58a8	-0.15170538
110	0xbeaa1391	-0.33218053
111	0x3f2711ef	0.6526174
112	0x3d42ab2c	0.047526523
113	0x3e9ed4fb	0.31021866
114	0x3eb17b3b	0.3466433
115	0xbd825e00	-0.06365585
116	0x3e814f36	0.25255746
117	0x3f971ad9	1.1805068
118	0x3f1da7bb	0.6158406
119	0xbe13c75f	-0.14431523
120	0xbe229ae1	-0.15879394
121	0xbd617478	-0.055042714
122	0xbbf0c3c0	-0.007347554
123	0x3f7fc0c3	0.99903506
124	0x3ef70937	0.48249218
125	0xbf6947ba	-0.9112507
126	0x3e8b91e9	0.27259758
127	0xbe92cf0a	-0.28673583
128	0x3eb9f840	0.36322212
129	0x3eae33d0	0.34023905
130	0x3f302fd6	0.6882299
131	0x3e8226a7	0.25420114
132	0x3db85273	0.09000101
133	0xbea009fa	-0.31257612
134	0xbe4df92f	-0.20114587
135	0xbf07ab0f	-0.5299539
136	0x3cb11079	0.0216143
137	0x3ec04cf6	0.37558717
138	0x3c46966d	0.012120825
139	0x3c955960	0.018231094
140	0xbd7b52c0	-0.061358213
141	0x3f362451	0.71149164
142	0xbe8f9708	-0.28044915
143	0x3f4e4160	0.80568504
144	0xbd132cd5	-0.035931427
145	0xbe2987a4	-0.16555649
146	0x3e756fb8	0.23968399
147	0x3f02d43e	0.51105106
148	0xbcb89c10	-0.022535354
149	0x3f0d6e1d	0.55246145
150	0x3f17b25d	0.59256536
151	0x3ec9d4aa	0.39420062
152	0xbebb46ff	-0.36577603
153	0x3eafca60	0.34334087
154	0x3e3be58f	0.18349288
155	0x3e740b8d	0.23832531
156	0xbf08232d	-0.53178674
157	0x3ddad8d0	0.10685885
158	0xbeb95d8d	-0.36204186
159	0x3d62951d	0.055317987
160	0xbe84f816	-0.25970525
161	0x3e23ffd9	0.16015567
162	0xbed79114	-0.42102873
163	0xbe936c99	-0.2879379
164	0x3bceb2c0	0.0063079298
165	0x3fb08f8f	1.3793811
166	0x3f149608	0.5804143
167	0xbfa3b2d3	-1.2788948
168	0xbe923d6f	-0.28562495
169	0x3e36a304	0.17835623
170	0x3e1fbcdc	0.15599388
171	0x3e94b1af	0.29041812
172	0xbf19879a	-0.59972537
173	0x3edd5034	0.43225253
174	0x3e552af7	0.20817171
175	0x3c8517d0	0.016246706
176	0x3ec6e980	0.3885002
177	0xbf4a84a2	-0.7910863
178	0x3c287f57	0.010284266
179	0xbf3612f4	-0.7112267
180	0x3ead61c7	0.3386366
181	0xbe8990ca	-0.26868278
182	0xbe0f3aa4	-0.13987213
183	0x3eebf919	0.46088484
184	0x3eb134c4	0.3461057
185	0xbdb9be66	-0.09069519
186	0xbc5ab4e8	-0.0133487955
187	0xbeccf57f	-0.4003105
188	0xbe98173e	-0.29705232
189	0x3f7d44bf	0.98933023
190	0x3f885e9f	1.0653876
191	0xbeff8320	-0.49904728
192	0xbc8d2bab	-0.017232737
193	0xbec89b83	-0.39181146
194	0x3e384938	0.1799668
195	0xbe7c46f8	-0.24636447
196	0xbe876a74	-0.26448405
197	0xbdf92ec7	-0.12167125
198	0x3c9ee74f	0.019397406
199	0x3e944efc	0.2896651
200	0x3e4690c4	0.19391161
201	0x3f270a08	0.6524968
202	0xbea37946	-0.31928462
203	0x3f2342ce	0.6377381
204	0xbec67cbb	-0.38767037
205	0xbeb3dc27	-0.351289
206	0xbe9f6a36	-0.3113572
207	0xbeaf4e30	-0.3423934
208	0xbeb73f2c	-0.35790384
209	0xbdfe9a7e	-0.12431811
210	0xbdccc31e	-0.09998153
211	0xbecd23de	-0.40066427
212	0x3c7345e0	0.0148482025
213	0x3efc84e6	0.49320143
214	0x3e60e69f	0.21962975
215	0x3f38219c	0.71926284
216	0xbbaa5cc2	-0.005199046
217	0x3eb747d8	0.35797
218	0x3e0d7d88	0.13817418
219	0x3e51ae8b	0.20476739
220	0x3d203ded	0.039121557
221	0x3e7f8e14	0.24956542
222	0xbe3bceb6	-0.18340573
223	0xbda6aaac	-0.08138022
224	0x3e8647ae	0.26226562
225	0x3f3a172e	0.7269162
226	0xbf6344b7	-0.88776726
227	0x3ec2055b	0.3789471
228	0xbc993260	-0.018700778
229	0x3e2875a4	0.16451126
230	0xbd255070	-0.040359914
231	0xbf3c9406	-0.73663366
232	0xbf153f78	-0.5829997
233	0x3e9dd367	0.3082535
234	0x3efec5a7	0.49760172
235	0x3e95e938	0.29279494
236	0xbe3dc7ce	-0.1853325
237	0xbe1046f9	-0.14089574
238	0x3e9af1d0	0.30262613
239	0xbe412e5d	-0.18865342
240	0x3dda4848	0.10658318
241	0x3e93eafe	0.28890222
242	0x3e87f25a	0.26552087
243	0xbf7f6e65	-0.99777824
244	0xbef15441	-0.47134593
245	0x3f821b8c	1.0164657
246	0xbf081b90	-0.5316706
247	0xbdbde098	-0.092713535
248	0x3e2fba64	0.17160946
249	0xbebed251	-0.37269834
250	0xbdca3ccb	-0.098748766
251	0xbc218e1c	-0.009860542
252	0x3cd649fd	0.026158327
253	0xbe9ba73e	-0.30401033
254	0xbeaab780	-0.33343124
255	0x3f2a3d88	0.6650014

lstm.linear_newmemory_x.bias f4 [48]
0	0x3df0c417	0.11756151
1	0x3ca14648	0.019686833
2	0xbe8dab84	-0.2766992
3	0xbdc8c601	-0.09803391
4	0xbdaceaf4	-0.08443251
5	0xbc564c76	-0.013079753
6	0x3f004dbb	0.5011861
7	0x3dda8d1b	0.10671445
8	0xbf340c6d	-0.7033146
9	0x3e0e1baf	0.13877748
10	0xbe429db2	-0.19005468
11	0xbe1153f5	-0.14192183
12	0x3e74c778	0.23904216
13	0xbd9d564a	-0.07682474
14	0xbecb0b7d	-0.39657202
15	0xbe0f72fd	-0.14008708
16	0x3e8ffded	0.28123417
17	0x3e447016	0.19183382
18	0x3e558499	0.20851363
19	0xbe2bfe02	-0.16796115
20	0xbb4ab7ea	-0.0030932375
21	0x3dddaa1b	0.10823461
22	0xbe2a8411	-0.16651942
23	0xbe4c1f43	-0.199338
24	0x3eda6993	0.42658672
25	0xbe1122e4	-0.14173466
26	0xbefeae2f	-0.49742267
27	0x3db87781	0.090071686
28	0xbe3ab7cb	-0.18234174
29	0xbcc53712	-0.024074111
30	0x3e30cd44	0.17265803
31	0x3d8866ae	0.066602096
32	0xbefee757	-0.49785873
33	0xbec21bb5	-0.37911764
34	0x3c257fd9	0.010101282
35	0x3dc85a16	0.097828075
36	0x3eeeb812	0.4662481
37	0x3e9d2ee0	0.30699825
38	0xbcc36cae	-0.023855533
39	0x3f05871d	0.5215929
40	0x3e1f6fc9	0.15569986
41	0xbe9ad824	-0.30243027
42	0x3dd273b4	0.10275975
43	0x3ddfdd4a	0.109308794
44	0x3e69ffc1	0.22851469
45	0x3db7df80	0.08978176
46	0x3db5dcc4	0.08879998
47	0x3e3de7bb	0.1854543

lstm.linear_newmemory_h.weight f4 [48, 48]
0	0xbe98caef	-0.29842326
1	0xbe57aa21	-0.21060993
2	0xbef0a5e4	-0.47001565
3	0x3eee649a	0.46561128
4	0x3eb06806	0.34454364
5	0x3e4ac056	0.19799933
6	0xbeda2da6	-0.42612952
7	0xbee53e51	-0.44774106
8	0x3e803c59	0.25046042
9	0x3e518a94	0.2046302
10	0x3eaa8d73	0.33311042
11	0x3e5e5095	0.21710427
12	0xbe6ccbd0	-0.23124623
13	0x3ebeb47b	0.3724707
14	0x3ed0877c	0.40728366
15	0x3e91c6c0	0.28471947
16	0x3ee6d32d	0.4508299
17	0x3e4be399	0.1991104
18	0xbeb19f22	-0.3469172
19	0xbe5ad15a	-0.21368924
20	0x3ea5c311	0.32375386
21	0x3ec162a2	0.37770563
22	0x3ed60e97	0.41808006
23	0xbe83fa13	-0.2577673
24	0xbe608e31	-0.21929242
25	0xbe93cdce	-0.28867954
26	0x3e8f0467	0.27933046
27	0xbebe6d6a	-0.3719285
28	0xbed84d0e	-0.42246288
29	0x3ec349e8	0.38142323
30	0x3e98d668	0.2985108
31	0x3e87b59b	0.2650574
32	0x3e64d4b9	0.22346772
33	0xbe7ff06d	-0.24994059
34	0x3ebf3083	0.373417
35	0xbee7dd9b	-0.4528626
36	0x3ee84711	0.4536672
37	0x3e4a15aa	0.19734827
38	0x3e7a9645	0.24471386
39	0xbea13a61	-0.31489852
40	0xbeadffce	-0.33984226
41	0xbed19dd9	-0.4094074
42	0x3eeddec5	0.46459022
43	0xbe09ecb7	-0.13469206
44	0xbe8c5a45	-0.2741262
45	0x3eb7a815	0.35870424
46	0xbe4fa892	-0.20279148
47	0x3ed3689e	0.41290754
48	0xbdb8fdf8	-0.09032816
49	0x3d7c2c19	0.061565492
50	0x3c97ff33	0.018554306
51	0x3da8b200	0.08237076
52	0x3ca50911	0.020145925
53	0xbd9fc2fd	-0.07800863
54	0xbd7fa308	-0.062411338
55	0xbdc928a7	-0.09822207
56	0x3dd56830	0.10420263
57	0xbd28def5	-0.041228253
58	0xbd5195d3	-0.051168274
59	0x3d966dc4	0.07345155
60	0xbe0a5f29	-0.13512863
61	0xbd819b1d	-0.06328414
62	0x3d638456	0.055546127
63	0xbdd88248	-0.10571724
64	0x3d96271c	0.07331678
65	0x3cc67d06	0.024229538
66	0xbd12f3e1	-0.035877112
67	0xbdf1fa0b	-0.1181527
68	0x3e013b35	0.12620242
69	0x3d3c3a2c	0.045953915
70	0x3dc3e4b9	0.0956511
71	0xbdcf686b	-0.10127338
72	0xbe0c3ffc	-0.13696283
73	0xbda48925	-0.08033971
74	0xbb59d43f	-0.003323808
75	0x3e0390ae	0.1284816
76	0x3cd2066b	0.025637826
77	0x3d0bea2b	0.034158867
78	0x3dd84608	0.105602324
79	0x3cd46902	0.025928978
80	0xbd0c2a2c	-0.034219906
81	0xbd9abad5	-0.07555167
82	0xbd73232c	-0.059359714
83	0xbd98c064	-0.074585706
84	0xbd2d9314	-0.042376593
85	0x3dec519c	0.11539003
86	0x3cafc20f	0.021454839
87	0xbdaa3090	-0.08310044
88	0x3dcc05e4	0.09962061
89	0xbce058c5	-0.027386079
90	0xbdec744d	-0.1154562
91	0x3def935b	0.11698028
92	0x3ca74c35	0.02042208
93	0xbd226c1e	-0.03965389
94	0xbd9b7134	-0.07589951
95	0xbc496510	-0.012292162
96	0xbde0154f	-0.10941564
97	0xbd98e2fa	-0.07465167
98	0xbd7a3c20	-0.061092496
99	0x3e22dd6d	0.1590478
100	0x3e345a2f	0.17612527
101	0x3e137de2	0.14403489
102	0xbe3eb785	-0.18624695
103	0xbe4ab456	-0.19795355
104	0x3e7c3ba1	0.24632122
105	0x3e2280b0	0.15869403
106	0x3d99a5b2	0.07502307
107	0x3e5e7c47	0.21727096
108	0xbe1cf75d	-0.15328737
109	0x3e25783d	0.16159149
110	0x3e0ea6d5	0.13930829
111	0xbbbe41f5	-0.0058062025
112	0xbcf04caf	-0.02933344
113	0x3e2502b4	0.16114312
114	0xbe48e304	-0.1961785
115	0x3b0ea9a4	0.0021768594
116	0x3cbbdbac	0.022931896
117	0x3db39761	0.087691076
118	0xbc29b1e0	-0.01035735
119	0x3c82e94b	0.015980383
120	0xbe07f248	-0.13276017
121	0xbe0b497e	-0.13602254
122	0x3e2ab9ae	0.16672394
123	0xbe4fee57	-0.20305763
124	0xbc8f5e7a	-0.017501105
125	0xbd0e2391	-0.034701888
126	0x3e5bce25	0.21465357
127	0x3dfe997b	0.12431618
128	0x3e038088	0.12842
129	0xbd844824	-0.06459072
130	0x3dcf9a10	0.10136807
131	0xbdaba34e	-0.08380757
132	0x3dee7f17	0.11645334
133	0x3e292d61	0.16521217
134	0x3e363511	0.1779368
135	0xbc6218ac	-0.013799828
136	0xbdb660c4	-0.08905175
137	0xbe4620a6	-0.19348392
138	0x3ddb5939	0.10710377
139	0xbdda436b	-0.1065739
140	0xbda54442	-0.0806966
141	0x3d5ec2a5	0.054384846
142	0x3c999f85	0.018752823
143	0x3dfc4238	0.12317318
144	0x3c98762e	0.01861104
145	0x3e29cbf1	0.16581704
146	0x3e438459	0.19093455
147	0xbe089a24	-0.1334005
148	0xbe1da58a	-0.1539518
149	0xbe3540fc	-0.17700571
150	0x3e5b47a4	0.21414047
151	0x3e755341	0.2395754
152	0xbdde8478	-0.1086511
153	0xbe80724d	-0.25087205
154	0xbe23aea9	-0.15984596
155	0xbdf9c7e4	-0.12196329
156	0x3c577736	0.013150981
157	0xbe1f28cf	-0.15542911
158	0xbe1f2537	-0.1554154
159	0xbe27b42b	-0.16377322
160	0xbe60a686	-0.21938524
161	0xbe638519	-0.22218741
162	0x3dae295e	0.08503984
163	0x3e27066f	0.16311048
164	0xbe82e1fc	-0.25563037
165	0xbd08a336	-0.033358775
166	0xbe45160c	-0.19246691
167	0xbbbb634a	-0.0057186233
168	0x3c186ad0	0.00930281
169	0x3cbf2540	0.023333192
170	0xbd9ceada	-0.07661982
171	0x3c7e38ae	0.015516443
172	0x3e75cec1	0.24004652
173	0xbe07f1cb	-0.1327583
174	0xbd70590e	-0.05867868
175	0xbd8c9d4d	-0.0686594
176	0xbdee27ba	-0.11628671
177	0x3e6406ed	0.22268267
178	0xbdd62eec	-0.104581684
179	0x3db7ac26	0.089683816
180	0x3c8ecc85	0.017431507
181	0xbe132e0f	-0.14373039
182	0xbd972c82	-0.07381536
183	0x3e23c832	0.15994337
184	0x3d5dbd35	0.05413552
185	0x3e2204a2	0.1582208
186	0xbd2871f8	-0.041124314
187	0x3ddf9c4d	0.10918484
188	0x3e42c245	0.1901942
189	0xbe8803c6	-0.2656538
190	0x3e7767db	0.24160711
191	0xbe428f3e	-0.18999955
192	0xbee369f9	-0.44416788
193	0xbed878e2	-0.42279726
194	0xbe8f75f0	-0.28019667
195	0x3ee2fc81	0.4433327
196	0x3eec0732	0.4609924
197	0x3e945059	0.2896755
198	0xbed9c3cd	-0.42532197
199	0xbed102cb	-0.40822443
200	0x3eeafe95	0.45897356
201	0x3e9b6bb4	0.30355608
202	0x3ec5d2f9	0.38637522
203	0x3e87d28c	0.26527822
204	0xbedefcf9	-0.43552378
205	0x3ed7da12	0.42158562
206	0x3ef97759	0.48723868
207	0x3e909ac5	0.2824308
208	0x3eba870b	0.36431155
209	0x3efa09c7	0.48835585
210	0xbf075a5b	-0.52872247
211	0xbecd9004	-0.40148938
212	0x3e7fd007	0.249817
213	0x3eb39cec	0.3508066
214	0x3ec4bb59	0.38424185
215	0xbf0139ca	-0.50478804
216	0xbdd5dc3f	-0.10442399
217	0xbec5f5b0	-0.38664007
218	0x3eea9725	0.4581844
219	0xbedbd72c	-0.429376
220	0xbe9f6a31	-0.31135705
221	0x3eb1a3fe	0.3469543
222	0x3ef620df	0.48071954
223	0x3eeb5e37	0.45970318
224	0x3e9c3e16	0.30516118
225	0xbe84fa55	-0.25972238
226	0x3edf6184	0.43629086
227	0xbed15f23	-0.40892896
228	0x3eafb27e	0.34315866
229	0x3ea6eca4	0.32602417
230	0x3e8fe8a9	0.28107193
231	0xbed744ec	-0.4204477
232	0xbefda9cf	-0.49543616
233	0xbee87bbd	-0.45406905
234	0x3eb70d32	0.35752255
235	0xbe2117ed	-0.15731783
236	0xbebb2717	-0.3655326
237	0x3e980a6b	0.29695448
238	0xbeda65cb	-0.42655787
239	0x3ee6b65b	0.45061
240	0xbd9c3999	-0.076281734
241	0xbde6e35a	-0.112738326
242	0xbd896893	-0.06709399
243	0xb914a628	-0.00014176278
244	0x3e2117f0	0.15731788
245	0xbc0332ab	-0.008007686
246	0xbd6960c1	-0.056977037
247	0xbdd35b85	-0.1032019
248	0x3e3d5ac0	0.1849165
249	0xbdacf13c	-0.08444449
250	0x3dfe74f6	0.12424652
251	0x3e1818ed	0.14853258
252	0x3d98c95f	0.074602835
253	0x3dc4e8d2	0.096147195
254	0x3e1a9e0f	0.15099357
255	0xbce67986	-0.028134119
