OLD/Codes/models/mymodel2_iter10600.pt (torch, 48751 bytes, 17 tensors)

hidden0 f4 [1, 48]
-0.1354388 -0.13668479 -0.14759038 0.14246891 -0.12506534 0.14977805 -0.102160744 -0.109126255
-0.1924961 0.14216036 0.0974103 0.15886334 -0.060398433 -0.12322716 0.1213032 -0.091700956
-0.104978 0.10770327 0.14226972 0.14357443 0.16132389 0.1114968 0.11216002 -0.0016097159
0.15047446 0.111051224 0.13085571 0.11047314 0.13291009 0.14582163 0.14341019 -0.1559941
0.11727091 0.12727919 0.14351934 -0.118438035 -0.11015395 0.122753285 0.1405584 -0.15226917
-0.13965775 -0.14954245 -0.10005527 -0.10021697 0.15334757 -0.13196218 0.10666763 -0.09659938
00000000: 78b0 0abe 19f7 0bbe ef21 17be 5fe3 113e
00000010: 2111 00be 6b5f 193e a739 d1bd 967d dfbd
00000020: b31d 45be 7c92 113e 0d7f c73d 12ad 223e
00000030: 5964 77bd 855e fcbd d06d f83d b6cd bbbd
00000040: b5fe d6bd 8893 dc3d 27af 113e 2d05 133e
00000050: 1732 253e 6f58 e43d 27b4 e53d 1afd d2ba
00000060: fa15 1a3e d36e e33d 0aff 053e be3f e23d
00000070: 9519 083e 4452 153e 1fda 123e ebbc 1fbe
00000080: bb2b f03d 7a55 023e bcf6 123e a48f f2bd
00000090: 6598 e1bd 1366 fb3d 8bee 0f3e 73ec 1bbe
000000a0: 7102 0fbe a821 19be c7e9 ccbd 8e3e cdbd
000000b0: 2507 1d3e 1821 07be 8f74 da3d e5d5 c5bd

cell0 f4 [1, 48]
-0.0905316 0.046976715 0.086811565 -0.05608368 -0.035714343 0.0135017065 -0.009218498 -0.070844725
0.050395235 0.10823623 0.095247544 0.107924074 0.09781733 0.09697756 -0.09296983 -0.10174677
0.052627802 0.11213294 -0.09575082 0.06340344 0.058040604 -0.095616505 0.09429019 0.045594845
0.051528618 0.097863235 -0.11995382 0.04882467 0.050745375 0.059416816 0.0768129 -0.033404622
-0.10401577 -0.08030538 0.008229566 0.13047454 0.083420776 -0.10223601 0.08965749 -0.117563955
0.082103334 0.10411809 -0.15018016 0.07703907 -0.09372225 0.072330825 -0.073862016 -0.0004544377
00000000: a268 b9bd a86a 403d 43ca b13d 00b8 65bd
00000010: 3449 12bd 4336 5d3c 2f09 17bc 0a17 91bd
00000020: 3c6b 4e3d f5aa dd3d 2511 c33d 4c07 dd3d
00000030: 7454 c83d 2c9c c63d f766 bebd 9c60 d0bd
00000040: 4090 573d f4a5 e53d 0219 c4bd aad9 813d
00000050: fcbb 6d3d 96d2 c3bd 371b c13d a9c1 3a3d
00000060: ac0f 533d 856c c83d 59aa f5bd 61fc 473d
00000070: 62da 4f3d 0c5f 733d 1550 9d3d 49d3 08bd
00000080: 3806 d5bd 2677 a4bd 4dd5 063c 1e9b 053e
00000090: 83d8 aa3d 1d61 d1bd 599e b73d 5fc5 f0bd
000000a0: cb25 a83d dd3b d53d d4c8 19be a9c6 9d3d
000000b0: 73f1 bfbd 2f22 943d f844 97bd 9841 eeb9

lstm.linear_forget_x.weight f4 [48, 6]
0.44325545 0.5043994 -0.06745751 0.16978987 -0.08461865 -0.20150511 0.3149804 0.21464245
-0.036254782 0.7271366 0.2720392 -0.2976104 0.27681652 -0.055664502 -0.3299592 0.78326136
0.41889268 -0.117004044 -0.1886423 -0.438091 0.46481705 -0.58646286 -0.08773708 -0.09118476
0.3900199 0.20335777 0.1648228 0.51728374 -0.30380526 -0.71162957 0.09644658 -0.38878372
0.40670174 -0.41134596 0.020993633 0.2343058 -0.25890306 -0.2597728 -0.18695837 -0.39435044
-0.50402564 -0.039947517 -0.05031593 0.614247 0.14617993 0.39626577 0.44972628 -0.37219277
-0.33000776 0.06923732 -0.14586517 -0.8094732 -0.30377674 0.30772653 -0.2304563 0.5067021
0.030605625 0.063130684 -0.1086509 -0.008010483 0.51027226 0.65849966 -0.17119533 0.48998427
0.3524892 -0.1048817 0.34672022 0.74154115 -0.33973402 0.42248085 0.42357203 0.01277247
-0.4920939 -0.27161726 0.5289017 -0.38464713 -0.2485197 -0.025760049 -0.47369015 -0.47261745
0.56727266 -0.27980182 -0.39544514 0.25606817 0.017155135 0.6474897 -0.48626867 0.7995001
0.08013307 -0.23014922 -0.15919958 0.17863283 -0.27605638 0.07908281 -0.2278368 0.40874293
0.14178783 -0.405313 0.104597904 -0.65231 0.17433345 -0.06317611 -0.32202464 0.2074748
-0.14831045 0.65172964 0.46109492 -0.26482713 -0.09739092 -0.4022259 0.20864308 -0.928249
-0.03192567 -0.07585625 -0.29948372 0.5261161 0.24201374 0.32960862 0.46808267 0.14865835
0.06831395 0.38546664 0.013343968 0.2544945 -0.16902913 -0.22074944 0.30545276 0.022504386
0.045227505 0.0607851 -0.06684101 0.3968775 0.30886453 0.44754753 0.16084874 0.42894495
0.28565753 -0.3556744 -0.1409163 -0.14002618 -0.2041643 0.08494447 0.46506736 0.010819021
0.4389088 0.0510857 0.11338591 0.027064532 0.26984268 -0.21781483 -0.19131666 0.47042114
0.26522693 -0.16780375 0.32822862 0.55041724 -0.19665092 0.4875578 0.1907362 0.71287215
0.53343755 -0.3922429 -0.1767176 0.39607728 -0.4151566 0.004683747 0.099851996 -0.50473106
-0.17513116 0.34830913 -0.26569402 0.36949858 0.41548502 -0.4171072 0.17507567 0.08397933
0.036875665 0.429823 -0.0456504 -0.3690889 0.36244214 0.030969748 -0.31895632 0.85492504
0.29798096 0.09236975 -0.36466724 -0.238138 0.33445847 -0.35846123 0.12514925 0.09698274
0.4308936 0.6700583 0.022285316 0.27138552 0.032534868 -0.1622821 0.027668554 -0.26548514
-0.13500302 -1.0648736 0.17582162 -0.11747538 -0.29937106 -0.13454513 -0.025592662 0.49526846
0.007368192 -0.38119623 -0.15965994 -0.3697986 0.13586217 -0.9639118 -0.29995313 0.5270204
0.52957994 0.23196436 -0.3538371 0.0018367637 0.541089 0.25879222 -0.12707129 0.55633545
0.06844396 -0.13455857 -0.036176432 0.44746438 -0.049471665 0.4119215 0.294944 -0.29473975
0.11598448 -0.13567983 0.034213345 -0.11970141 0.30218703 -0.48268768 0.25556853 0.2581562
0.18894517 0.25318402 0.20912024 0.45753098 0.54594034 -0.09366235 -0.12814447 -0.2435518
0.53741515 -0.8410954 0.20829824 0.60536283 -0.3598761 0.018799918 0.49238285 -0.5178351
00000000: 61f2 e23e 5220 013f 2a27 8abd 65dd 2d3e
00000010: 8b4c adbd 5b57 4ebe 1c45 a13e 3bcb 5b3e
00000020: e57f 14bd a025 3a3f b948 8b3e 6460 98be
00000030: e5ba 8d3e 7600 64bd 6af0 a8be d183 483f
00000040: 1a79 d63e d19f efbd 722b 41be 774d e0be
00000050: 80fc ed3e 6e22 16bf 80af b3bd 13bf babd
00000060: b0b0 c73e 053d 503e 4fc7 283e b56c 043f
00000070: 5d8c 9bbe 5b2d 36bf c985 c53d a90e c7be
00000080: 363b d03e f09b d2be d7fa ab3c dced 6f3e
00000090: f18e 84be f100 85be 0472 3fbe 4de8 c9be
000000a0: d307 01bf 02a0 23bd 1418 4ebd 4b3f 1d3f
000000b0: 31b0 153e 59e3 ca3e 8642 e63e 0d90 bebe
000000c0: c7f6 a8be 4ccc 8d3d ae5d 15be a339 4fbf
000000d0: a088 9bbe 558e 9d3e bcfc 6bbe 3bb7 013f
000000e0: a6b8 fa3c a94a 813d 5d84 debd 673e 03bc
000000f0: 34a1 023f 6f93 283f d44d 2fbe 38df fa3e
00000100: 7779 b43e 37cc d6bd 5085 b13e a4d5 3d3f
00000110: 9ef1 adbe 694f d83e 6fde d83e 9f43 513c
00000120: bbf3 fbbe 6b11 8bbe 1a66 073f 78f0 c4be
00000130: f37b 7ebe bd06 d3bc 8487 f2be eafa f1be
00000140: c838 113f 2f42 8fbe c977 cabe 5e1b 833e
00000150: ed88 8c3c e3c1 253f 35f8 f8be 0aac 4c3f
00000160: cf1c a43d 3dac 6bbe 3705 23be 86eb 363e
00000170: 4357 8dbe 2bf6 a13d 0d4e 69be c146 d13e
00000180: d430 113e 2f85 cfbe 6d37 d63d cafd 26bf
00000190: 7884 323e 7a62 81bd 6ae0 a4be 4674 543e
000001a0: b2de 17be c1d7 263f a214 ec3e 6c97 87be
000001b0: e474 c7bd 8ef0 cdbe 88a6 553e baa1 6dbf
000001c0: 7ec4 02bd 865a 9bbd ee55 99be 8baf 063f
000001d0: 73d2 773e 76c2 a83e 88a8 ef3e e539 183e
000001e0: 2fe8 8b3d e25b c53e a9a0 5a3c 1a4d 823e
000001f0: f915 2dbe 240c 62be 4e64 9c3e 1e5b b83c
00000200: 7a40 393d ccf9 783d f0e3 88bd 8733 cb3e
00000210: 7e23 9e3e f324 e53e 88b5 243e ac9e db3e
00000220: b441 923e f41a b6be 5d4c 10be 0663 0fbe
00000230: 7210 51be 5ef7 ad3d 4f1d ee3e 4342 313c
00000240: a7b8 e03e 3d3f 513d df36 e83d 70b6 dd3c
00000250: d228 8a3e da0a 5fbe 84e8 43be 0adb f03e
00000260: d3cb 873e bfd4 2bbe 950d a83e 25e8 0c3f
00000270: dc5e 49be 2da1 f93e 5a50 433e ca7e 363f
00000280: 5d8f 083f 10d4 c8be 75f5 34be a4ca ca3e
00000290: 688f d4be 1e7a 993b 347f cc3d 0e36 01bf
000002a0: 9555 33be 9355 b23e 0c09 88be eb2e bd3e
000002b0: 74ba d43e 138f d5be 0947 333e 5bfd ab3d
000002c0: f00a 173d c311 dc3e eafb 3abd 38f9 bcbe
000002d0: 0492 b93e 45b4 fd3c 3e4e a3be 5edc 5a3f
000002e0: f690 983e 5a2c bd3d aab5 babe 73da 73be
000002f0: 243e ab3e 3b88 b7be 2027 003e e39e c63d
00000300: 169e dc3e f188 2b3f b28f b63c 0bf3 8a3e
00000310: 4843 053d 472d 26be 2aa9 e23c abed 87be
00000320: 3b3e 0abe c74d 88bf 950a 343e ef96 f0bd
00000330: 2a47 99be 33c6 09be b4a7 d1bc d493 fd3e
00000340: e070 f13b 272c c3be e57d 23be 3e56 bdbe
00000350: 741f 0b3e ecc2 76bf 7593 99be cfea 063f
00000360: 8d92 073f 1188 6d3e 232a b5be 90bf f03a
00000370: cf84 0a3f 6a80 843e fa1e 02be 006c 0e3f
00000380: 592c 8c3d b9c9 09be bd2d 14bd 0d1a e53e
00000390: cda2 4abd 60e7 d23e e602 973e 21e8 96be
000003a0: 4589 ed3d a7ef 0abe 4b23 0c3d 0326 f5bd
000003b0: 42b8 9a3e d722 f7be e1d9 823e 0d2d 843e
000003c0: d87a 413e 56a1 813e 9e23 563e 8041 ea3e
000003d0: bfc2 0b3f 0cd2 bfbd 4e38 03be a565 79be
000003e0: 0a94 093f 0752 57bf 224c 553e 0ff9 1a3f
000003f0: ae41 b8be 4902 9a3c 9b19 fc3e d790 04bf

lstm.linear_forget_x.bias f4 [48]
-0.14145507 -0.4092804 0.016598307 -0.048036706 0.18919116 0.12991278 -0.05337857 0.112373956
0.2033728 -0.1906961 -0.0063038277 0.28197318 0.08788067 0.34204406 0.153809 0.41036463
0.44847766 0.4411608 -0.15927003 0.12957126 0.49300632 -0.16540717 -0.0035160002 -0.39108938
-0.03298374 0.21879855 0.16182247 -0.14433682 0.019100813 0.22327678 -0.23890148 0.04349422
-0.13238189 0.11606834 -0.17753756 -0.32667142 0.38985002 0.49910465 0.10217789 0.036441896
-0.26301995 -0.2944125 0.32148543 0.20327385 0.28999916 0.04754247 0.063102454 0.07854216
00000000: 99d9 10be 338d d1be 2cf9 873c 23c2 44bd
00000010: 54bb 413e db07 053e 7da3 5abd 5124 e63d
00000020: f640 503e d745 43be 5790 cebb ca5e 903e
00000030: c8fa b33d 6620 af3e 1b80 1d3e 501b d23e
00000040: dd9e e53e d4df e13e af17 23be 54ae 043e
00000050: 536b fc3e 7f60 29be b26c 66bb de3c c8be
00000060: f519 07bd ba0c 603e cab4 253e 08cd 13be
00000070: 4f79 9c3c aba2 643e 97a2 74be ff26 323d
00000080: 1e8f 07be 3db5 ed3d 68cc 35be 7a41 a7be
00000090: 6c9a c73e a58a ff3e a442 d13d 1944 153d
000000a0: 8daa 86be 3cbd 96be bd99 a43e 0527 503e
000000b0: c57a 943e e5bb 423d dc3b 813d b6da a03d

lstm.linear_forget_h.weight f4 [48, 48]
-0.064187594 -0.1356728 -0.14452246 0.25069758 -0.11292778 0.19001526 -0.105383985 0.024371902
-0.06702108 0.19387674 0.19915582 -0.019004298 -0.15765907 -0.14923438 0.14007384 -0.105742626
-0.05766526 -0.0063746967 0.120437704 -0.011285122 -0.014922036 0.05437341 0.18856989 -0.125918
0.24971002 0.17663811 0.08863667 0.032348886 0.084701866 0.18938233 0.022441518 -0.114597514
0.16496192 0.12558128 0.24800222 -0.2534962 0.050118145 0.022666465 0.24196218 -0.07606633
-0.036388688 -0.06653986 -0.13786869 -0.14455806 0.03284066 -0.16042466 0.053434845 -0.03187712
0.048299238 0.055033777 0.14238219 -0.017306007 0.036046233 -0.15443063 -0.08349681 -0.01380252
-0.05579463 -0.10076642 0.06886615 -0.0689842 -0.064102195 0.14104651 -0.13314724 0.18812694
0.07756693 -0.021402273 -0.01585716 -0.18454683 -0.11273182 -0.16305672 -0.066816576 -0.05238775
-0.027563427 -0.11785257 -0.17770015 -0.16176446 -0.020612638 0.007104531 -0.11383001 0.022223867
0.0110467095 0.07901527 -0.16691475 0.08086047 -0.04962905 -0.17790456 -0.11904522 -0.07903961
-0.05917427 0.108112566 0.09225502 -0.0115686525 0.00047570458 -0.07651258 -0.06874973 0.11139786
0.0647406 0.033741612 0.029222172 0.11446687 0.094948165 0.08012403 -0.095497794 -0.11347127
0.048667297 0.0672718 -0.007261064 0.12223505 0.09253426 -0.05562028 0.12508625 -0.06383364
0.107208654 -0.121600285 0.021410499 0.007776498 0.09466798 0.043189067 0.008924663 0.10859989
0.14990607 -0.09407004 -0.08542166 0.01116963 0.14345832 -0.10229165 -0.10536932 0.00828351
0.101060554 0.13695005 0.073153615 -0.045013778 0.119683936 0.031638715 0.028284835 -0.01851327
0.0022001395 -0.041143585 0.09855051 -0.13332224 -0.10574359 -0.026743708 -0.057780355 -0.023601389
-0.088389814 0.12985078 -0.07518076 -0.12926154 0.13564111 -0.14707983 0.08007526 0.03096961
0.16069806 -0.06303588 0.023560189 -0.051329426 0.042930927 0.012530268 -0.080573045 0.11134857
0.026178565 -0.13486192 0.06817998 0.05511716 0.010890986 0.028996624 0.04932606 -0.037198637
-0.021171141 -0.12422536 -0.14741153 0.0033762022 -0.0649913 -0.042552385 0.10441558 0.121454954
0.0039584846 -0.02987334 -0.10182867 -0.02964222 -0.10840015 0.014774769 0.025837079 0.16326155
-0.032324925 -0.037657004 -0.04461263 -0.089359015 -0.1283812 0.14396688 0.046475735 -0.048586447
0.020993682 0.14775118 0.20377712 -0.023981337 0.049532704 0.0016491977 0.043531414 -0.023430893
0.038069926 -0.04502187 0.019947562 -0.102508806 0.047677208 0.1808815 0.0660045 0.067601286
-0.06153457 -0.203595 -0.12464572 -0.18106021 -0.066679776 -0.15364741 -0.102493025 -0.06885056
-0.06446544 -0.13740163 0.022351 0.01197787 -0.2008045 0.07910978 0.0037585236 0.16914687
-0.023208674 -0.13917604 -0.11086286 0.115043655 0.06962952 -0.19708207 0.030173918 0.0839906
0.07473714 0.13758637 0.100635484 0.06403472 -0.15384635 0.1584644 -0.06117956 0.16368106
0.12959306 0.27404293 0.11539579 -0.21193416 0.22813705 -0.0010806248 0.033066444 0.2698679
0.12008494 -0.040538944 -0.039936922 0.00030257745 0.026562182 0.16277833 -0.21750362 0.095462225
00000000: c974 83bd cfed 0abe b2fd 13be 6f5b 803e
00000010: ae46 e7bd 5c93 423e 8fd3 d7bd 95a7 c73c
00000020: 5942 89bd a087 463e 81ef 4b3e e7ae 9bbc
00000030: 6171 21be e6d0 18be 846f 0f3e 978f d8bd
00000040: 6832 6cbd d5e2 d0bb 0ba8 f63d 3be5 38bc
00000050: 8e7b 74bc a7b6 5e3d 7718 413e a6f0 00be
00000060: fcb3 7f3e 9fe0 343e 2487 b53d 4480 043d
00000070: 2c78 ad3d 71ed 413e 46d7 b73c 1ab2 eabd
00000080: c7eb 283e 6198 003e 4bf4 7d3e 41ca 81be
00000090: af48 4d3d 06af b93c efc4 773e aac8 9bbd
000000a0: 4e0c 15bd 0d46 88bd 732d 0dbe 0707 14be
000000b0: ee83 063d 5d46 24be 7fde 5a3d 9591 02bd
000000c0: 6cd5 453d 196b 613d a3cc 113e 54c5 8dbc
000000d0: 37a5 133d 1023 1ebe 6000 abbd f723 62bc
000000e0: e988 64bd a05e cebd b209 8d3d 9747 8dbd
000000f0: 0348 83bd 7f6e 103e c057 08be 59a4 403e
00000100: 69db 9e3d d253 afbc e0e6 81bc d8f9 3cbe
00000110: f1df e6bd 57f8 26be 21d7 88bd 8a94 56bd
00000120: b2cc e1bc b05c f1bd 07f7 35be 95a5 25be
00000130: d6db a8bc 20cd e83b b51f e9bd d40e b63c
00000140: 42fd 343c c2d2 a13d b3eb 2abe 2d9a a53d
00000150: d547 4bbd 9d2c 36be fbcd f3bd 85df a1bd
00000160: b860 72bd 1f6a dd3d 33f0 bc3d 728a 3dbc
00000170: fd67 f939 a1b2 9cbd a9cc 8cbd 9024 e43d
00000180: b896 843d a534 0a3d 5663 ef3c 9b6d ea3d
00000190: 2f74 c23d 1118 a43d 5994 c3bd a063 e8bd
000001a0: 5c57 473d ccc5 893d 38ee edbb 5f56 fa3d
000001b0: 9a82 bd3d 17d2 63bd 9c16 003e 36bb 82bd
000001c0: 3690 db3d 9209 f9bd 1265 af3c fed1 fe3b
000001d0: 49e1 c13d 05e7 303d c038 123c 9e69 de3d
000001e0: fa80 193e cba7 c0bd 8df1 aebd d300 373c
000001f0: bde6 123e 497e d1bd dfcb d7bd 8fb7 073c
00000200: d6f8 ce3d a23c 0c3e 90d1 953d 5e60 38bd
00000210: da1c f53d 9997 013d 99b5 e73c 24a9 97bc
00000220: 3730 103b 2d86 28bd dad4 c93d a085 08be
00000230: 1890 d8bd 9f15 dbbc 18ab 6cbd b357 c1bc
00000240: b805 b5bd 9af7 043e 5ff8 99bd 235d 04be
00000250: 81e5 0a3e 189c 16be 7ffe a33d fbb3 fd3c
00000260: 088e 243e f518 81bd 4c01 c13c ce3e 52bd
00000270: 57d8 2f3d c14b 4d3c 7b03 a5bd b80a e43d
00000280: 6e74 d63c 3e19 0abe f2a1 8b3d 88c2 613d
00000290: 1b70 323c 548a ed3c 1f0a 4a3d 995d 18bd
000002a0: 1a6f adbc de69 febd 0cf3 16be 4643 5d3b
000002b0: 291a 85bd 694b 2ebd d6d7 d53d 60bd f83d
000002c0: 2db6 813b efb8 f4bc 8d8b d0bd 3ed4 f2bc
000002d0: e600 debd df11 723c 48a8 d33c 092e 273e
000002e0: 2467 04bd 3b3e 1abd bcbb 36bd dc01 b7bd
000002f0: 5c76 03be 0e6c 133e 575d 3e3d 9502 47bd
00000300: f1fa ab3c 164c 173e f3aa 503e 8274 c4bc
00000310: cee2 4a3d e429 d83a ff4d 323d 25f2 bfbc
00000320: 36ef 1b3d da68 38bd 1269 a33c 23f0 d1bd
00000330: 2d49 433d 0039 393e 5e2d 873d 8b72 8a3d
00000340: ac0b 7cbd 357b 50be 4146 ffbd d967 39be
00000350: 688f 88bd bf55 1dbe dde7 d1bd 8601 8dbd
00000360: 7506 84bd 03b3 0cbe 7219 b73c d43e 443c
00000370: b29f 4dbe 4f04 a23d 9051 763b d634 2d3e
00000380: 1e20 bebc 2a84 0ebe 110c e3bd 029c eb3d
00000390: ec99 8e3d e2cf 49be 4b2f f73c 4403 ac3d
000003a0: c90f 993d 71e3 0c3e fa19 ce3d a324 833d
000003b0: e689 1dbe 7e44 223e 6b97 7abd 029c 273e
000003c0: 0bb4 043e 5b4f 8c3e a154 ec3d 4505 59be
000003d0: c29c 693e c0a3 8dba ae70 073d 202c 8a3e
000003e0: 18ef f53d 2a0c 26bd e694 23bd 42a3 9e39
000003f0: ef98 d93c 5daf 263e 45b9 5ebe b381 c33d

lstm.linear_input_x.weight f4 [48, 6]
0.18693277 0.3479896 -0.18789025 -0.10181013 0.43624744 0.22094534 0.18133157 0.44594592
-0.33945012 -0.027354177 0.24026711 -0.021028457 0.5606902 0.32881054 0.18756965 -0.057786137
-0.15428954 0.4592574 0.8187545 0.20229182 0.053493813 0.52055424 0.25906074 0.26785797
0.8062075 -0.08283943 -0.47667408 -1.6540319 -0.0928116 0.26562715 0.010990707 -0.45233092
0.12144656 -0.27054927 -0.18649739 0.5021064 0.040011857 -0.30855057 0.5461404 0.20477471
0.58995235 -0.62061703 0.9951574 0.414377 -0.03915502 -0.057602793 0.3979502 1.6428548
0.87820125 -0.13979222 0.4281649 0.98541003 -0.072707035 0.85531294 0.4362774 0.18312295
0.15173669 -0.17937863 0.3625633 0.5623804 -0.26539493 0.21430595 0.23477554 0.007820208
-0.14255436 0.19610785 0.5456936 0.4810329 0.28711924 -0.14296746 -0.25477725 0.6230095
1.2548075 0.20884776 0.22549783 0.683929 0.43416828 0.46837753 1.7154988 -0.51464003
0.30385348 0.24739377 0.41491285 0.16018026 0.72614187 0.32042292 -0.21419965 0.56891567
0.18225323 0.783038 0.4753305 0.5399015 -0.14165531 -0.0837053 -0.25037462 0.052888606
0.4869587 -0.027053544 0.3346164 0.14007586 0.5114614 0.4944429 1.2268398 0.068383686
-0.08148923 0.31522095 -0.009993782 0.7006483 0.27448076 -0.063132375 0.3001594 -0.8165324
-0.34410793 0.6024434 0.18520853 0.1907449 -0.2755228 0.0903062 0.047223072 -0.2351443
0.03550337 -0.17949918 -0.08706564 -0.589982 -0.22374457 0.38309553 -0.107634716 0.597252
0.092567675 0.28461087 0.18949194 0.21888644 0.5233771 0.57891214 0.023179168 0.14881276
-0.092383645 0.23946713 0.26129463 -0.08915447 0.39401966 0.016033988 -0.08917427 0.3947441
-0.22655003 0.45281368 0.3954598 0.1610375 0.4369138 -0.16545802 -0.1665034 0.10489857
-0.2523177 -0.30973548 0.20246284 0.3320208 -0.11495444 0.46628866 -0.3344287 0.15177457
-0.14500536 -0.13151695 1.610786 -0.41216946 0.3676799 0.6917374 0.16890855 -0.19295242
1.1117088 0.19277768 -0.08169186 -1.4390374 0.27111855 0.733328 0.47844404 0.48624146
-0.14055067 -0.18440178 -0.34314224 0.7698861 1.0541867 0.4777319 -0.5392952 -0.09365849
0.32005173 1.4403114 1.3564447 0.5686331 0.11808881 0.65456265 0.53929114 0.14568472
-0.20661284 0.6958168 0.21642299 0.007720521 0.10555324 0.20442432 0.5017298 -0.5689026
-0.027961826 -0.2582102 -0.1946693 -0.04885872 0.755621 0.4022036 0.22685018 0.79879844
0.19289736 1.169803 1.7887601 -0.07091869 0.1475454 1.0191579 0.5088612 0.40690783
-0.015968809 0.15417984 0.22581528 0.60985273 0.07020359 0.06418163 0.4940186 0.46305835
0.38769934 0.17430615 0.5010989 -0.2131966 0.08014722 0.34083727 0.4849664 0.27350697
0.29613495 0.3411357 -0.11609104 -0.16584253 0.18338665 -0.52206224 -0.11553185 -0.011104695
0.34912732 0.50810474 -0.24467143 0.0875431 0.011404162 0.5927056 1.3682195 0.062345773
0.5359978 0.7650594 0.08566165 0.41151464 1.2052861 -0.20098193 0.23675928 0.92699414
00000000: 4e6b 3f3e b12b b23e 4d66 40be d481 d0bd
00000010: d35b df3e 7f3f 623e fcae 393e 0653 e43e
00000020: 68cc adbe de15 e0bc 9508 763e df43 acbc
00000030: 6589 0f3f db59 a83e 4212 403e 28b1 6cbd
00000040: 14fe 1dbe c923 eb3e e599 513f 9625 4f3e
00000050: 541c 5b3d 0b43 053f 9ca3 843e ae24 893e
00000060: 9d63 4e3f b8a7 a9bd a00e f4be 51b7 d3bf
00000070: 0214 bebd 4800 883e 5e12 343c eb97 e7be
00000080: f9b8 f83d 6f85 8abe 2cf9 3ebe 0c8a 003f
00000090: 79e3 233d 57fa 9dbe dbcf 0b3f 76b0 513e
000000a0: 1e07 173f c2e0 1ebf a3c2 7e3f 3929 d43e
000000b0: 0461 20bd e8f0 6bbd 21c0 cb3e 1149 d23f
000000c0: ccd1 603f b125 0fbe 6e38 db3e d543 7c3f
000000d0: 6de7 94bd caf5 5a3f c05f df3e 9584 3b3e
000000e0: dd60 1b3e 08af 37be e6a1 b93e 29f8 0f3f
000000f0: d8e1 87be 0573 5b3e 0069 703e 5420 003c
00000100: c5f9 11be 7fd0 483e 93b2 0b3f f249 f63e
00000110: 4b01 933e 1066 12be 2a72 82be 8d7d 1f3f
00000120: 889d a03f 30dc 553e e7e8 663e f915 2f3f
00000130: 4e4b de3e 2ecf ef3e 7795 db3f 73bf 03bf
00000140: af92 9b3e cb54 7d3e 756f d43e 4b06 243e
00000150: 6fe4 393f 790e a43e 2757 5bbe 75a4 113f
00000160: 97a0 3a3e 2e75 483f 855e f33e fc36 0a3f
00000170: 170e 11be af6d abbd 1a31 80be b9a1 583d
00000180: a752 f93e 659f ddbc d752 ab3e 0c70 0f3e
00000190: 22ef 023f 9f27 fd3e 1609 9d3f bf0c 8c3d
000001a0: d3e3 a6bd a464 a13e f6bc 23bc b05d 333f
000001b0: be88 8c3e 8c4b 81bd 7eae 993e 4408 51bf
000001c0: ea2e b0be bb39 1a3f 4ea7 3d3e a252 433e
000001d0: 5311 8dbe 75f2 b83d fb6c 413d abc9 70be
000001e0: fb6b 113d a2ce 37be 784f b2bd 0f09 17bf
000001f0: 4c1d 65be 1925 c43e 976f dcbd 82e5 183f
00000200: 1f94 bd3d 84b8 913e 2d0a 423e c423 603e
00000210: 0bfc 053f 9633 143f 3de2 bd3c 5f62 183e
00000220: a333 bdbd df36 753e 69c8 853e 9e96 b6bd
00000230: f2bc c93e b659 833c 00a1 b6bd e61b ca3e
00000240: bbfc 67be 32d7 e73e b579 ca3e 04e7 243e
00000250: 2ab3 df3e d46d 29be de7f 2abe 10d5 d63d
00000260: c92f 81be a695 9ebe 6b52 4f3e a1fe a93e
00000270: 3c6d ebbd 63bd ee3e 3d3a abbe cb6a 1b3e
00000280: 497c 14be 61ac 06be 3c2e ce3f e007 d3be
00000290: 8a40 bc3e b415 313f 5df6 2c3e 5295 45be
000002a0: 794c 8e3f 8367 453e 104e a7bd 6132 b8bf
000002b0: 0dd0 8a3e 62bb 3b3f 9ef6 f43e a4f4 f83e
000002c0: 84ec 0fbe d2d3 3cbe 57b0 afbe 4117 453f
000002d0: 97ef 863f 4799 f43e 400f 0abf 06d0 bfbd
000002e0: d2dd a33e 205c b83f fb9f ad3f f091 113f
000002f0: 8cd8 f13d 6b91 273f fc0e 0a3f 602e 153e
00000300: 5192 53be 0d21 323f fd9d 5d3e 6dfc fc3b
00000310: 4c2c d83d 9c54 513e 5d71 003f 9aa3 11bf
00000320: 3310 e5bc 2134 84be 6457 47be 1520 48bd
00000330: 6170 413f a1ed cd3e 6a4b 683e 0e7e 4c3f
00000340: e386 453e 1bbc 953f 17f6 e43f d13d 91bd
00000350: 2416 173e c473 823f ba44 023f 3956 d03e
00000360: 05d1 82bc 52e1 1d3e 1f3c 673e 4f1f 1c3f
00000370: e6c6 8f3d a971 833d 02f0 fc3e fc15 ed3e
00000380: 8780 c63e 507d 323e 0448 003f 3650 5abe
00000390: 3a24 a43d 3982 ae3e 844d f83e 1b09 8c3e
000003a0: 009f 973e 57a9 ae3e 24c1 edbd a0d2 29be
000003b0: b6c9 3b3e dfa5 05bf f69b ecbd 77f0 35bc
000003c0: d1c0 b23e 2713 023f 268b 7abe cc49 b33d
000003d0: 86d8 3a3c 8ebb 173f d121 af3f 485e 7f3d
000003e0: 2737 093f efda 433f 606f af3d 0cb2 d23e
000003f0: d146 9a3f 35ce 4dbe 0671 723e 7d4f 6d3f

lstm.linear_input_x.bias f4 [48]
0.12919569 -0.27639157 0.33286422 0.5752735 0.3830499 -0.29867077 0.34724826 0.64913577
0.2412513 -0.19248311 -0.0068942755 0.0061033447 0.61125255 0.15104525 0.6807751 0.50565994
0.80816406 0.14588061 0.17414756 0.43752605 0.1964248 0.28747264 0.100064605 -0.1449362
-0.033298317 0.28785515 0.1828708 0.26347578 -0.33279264 -0.18054332 0.34520227 0.004121484
-0.017085943 0.104618885 0.22912548 0.51684004 0.30988276 0.185881 0.12202054 -0.18483964
0.6125154 0.28858945 0.09177146 0.37884596 0.061049547 -0.07529851 -0.27689373 -0.029921189
00000000: e04b 043e 3283 8dbe 2e6d aa3e 2045 133f
00000010: 1e1f c43e 60eb 98be 86ca b13e c32d 263f
00000020: 950a 773e 4b1a 45be 60e9 e1bb 91fe c73b
00000030: 0c7b 1c3f 9bab 1a3e 4747 2e3f ee72 013f
00000040: d7e3 4e3f ba61 153e bd53 323e 6a03 e03e
00000050: 9523 493e 9d2f 933e acee cc3d 286a 14be
00000060: d163 08bd c061 933e 7c42 3b3e 4ce6 863e
00000070: cc63 aabe 59e0 38be 5abe b03e 830d 873b
00000080: d2f7 8bbc 6d42 d63d df9f 6a3e a14f 043f
00000090: f4a8 9e3e 9757 3e3e e8e5 f93d 9a46 3dbe
000000a0: cfcd 1c3f ffc1 933e adf2 bb3d 19f8 c13e
000000b0: 170f 7a3d 1b36 9abd 04c5 8dbe 481d f5bc

lstm.linear_input_h.weight f4 [48, 48]
-0.15756752 -0.07074702 -0.24569644 0.12152573 -0.14824893 0.08626507 -0.24617876 -0.042091176
-0.28500262 0.06810589 0.11582875 0.1909426 -0.049369987 -0.22890441 0.09776056 -0.07938094
-0.17974314 0.07767838 0.029523838 0.13594022 0.21728799 0.1347852 0.09440744 -0.033317577
0.09519126 0.046881553 0.15539245 -0.0009751141 0.1622645 0.25291297 0.08136791 -0.15603265
0.18484847 0.26023868 0.09117465 -0.24909493 -0.21729004 0.10972553 0.115600765 -0.18413408
-0.036775474 -0.0574523 -0.12176352 -0.23537289 0.24933405 -0.26542416 0.0010695623 -0.2725625
-0.07641826 -0.04510934 -0.118478514 0.034284357 -0.071343295 -0.11716941 0.15293437 -0.07702243
0.045006763 -0.066002294 -0.15369931 0.040131405 0.069722496 0.123290434 0.008613433 -0.046000738
0.13078943 0.09680733 -0.089478225 -0.11256805 -0.121943675 0.034714766 -0.074302435 -0.1098449
-0.0812114 0.11920444 -0.10114413 0.0448674 0.062588096 0.01513057 0.12722726 -0.0006639961
-0.06198538 0.021416912 -0.007590093 0.09635028 0.05148965 -0.01348119 0.037163246 0.003757945
-0.012607085 0.0005209248 0.04209223 0.03571331 -0.10708939 0.06997078 -0.13870467 0.064106405
-0.33185273 -0.4072704 -0.4452987 0.2255183 -0.33692724 0.22185576 -0.27511954 -0.42781568
-0.24262217 0.319605 0.41750324 0.2727891 -0.30809653 -0.29469827 0.47296333 -0.46587193
-0.45287985 0.3420503 0.27181417 0.45053852 0.50156 0.2184773 0.4370783 -0.41657767
0.3275013 0.29924238 0.47021034 0.49436286 0.29632616 0.31949094 0.4560102 -0.22207949
0.45659542 0.23278446 0.32631186 -0.39842853 -0.3160642 0.22033674 0.365958 -0.46509758
-0.45018363 -0.38106564 -0.22021013 -0.25834322 0.46491718 -0.3447629 0.22205773 -0.24983679
-0.30730158 -0.35535753 -0.47633693 0.34843537 -0.42181602 0.50743216 -0.39200267 -0.4882047
-0.35573664 0.4595504 0.5190976 0.44272432 -0.36899024 -0.37869555 0.3421001 -0.5470143
-0.40049487 0.3809653 0.46851605 0.49822047 0.46851298 0.5974195 0.32436225 -0.4882485
0.5604385 0.3476885 0.36043712 0.3888315 0.59318084 0.42790493 0.4659914 -0.52245295
0.33795616 0.5698637 0.38698587 -0.57781625 -0.44779718 0.54186714 0.3822329 -0.53631884
-0.4406458 -0.51730424 -0.41838306 -0.54550135 0.53328353 -0.3311487 0.34298337 -0.5186587
-0.13587292 -0.24054399 -0.15595827 0.23098803 -0.075065516 0.15875004 -0.24565318 -0.3192159
-0.15187265 0.31214172 0.079564996 0.18105347 -0.18364704 -0.24350809 0.14664122 -0.16366518
-0.24488893 0.25761202 0.17230405 0.07430796 0.09864625 0.089866094 0.32592452 -0.1760669
0.106426805 0.106795155 0.16521908 0.28593174 0.22623493 0.13917807 0.3683178 -0.15577765
0.31828484 0.21180938 0.17392975 -0.16471836 -0.32386985 0.22298811 0.22039372 -0.29144394
-0.12321148 -0.2673895 -0.21666808 -0.07236223 0.17937244 -0.2756549 0.12653838 -0.2575366
-0.11520334 -0.15782605 -0.13570969 0.03970671 -0.014399671 0.037171002 0.02231799 0.042339705
-0.1533477 0.14008485 0.17083478 0.014790948 -0.0246539 -0.14732745 0.020444194 -0.14104572
00000000: 6159 21be d0e3 90bd d997 7bbe 7be2 f83d
00000010: 91ce 17be beab b03d 4916 7cbe cc67 2cbd
00000020: ddeb 91be 1a7b 8b3d a037 ed3d 7586 433e
00000030: 2f38 4abd eb65 6abe b036 c83d 7992 a2bd
00000040: 960e 38be d815 9f3d fadb f13c ea33 0b3e
00000050: be80 5e3e 2205 0a3e b058 c13d 0378 08bd
00000060: a3f3 c23d df06 403d 331f 1f3e cd9e 7fba
00000070: aa28 263e cf7d 813e 38a4 a63d 06c7 1fbe
00000080: eb48 3d3e 013e 853e c6b9 ba3d be12 7fbe
00000090: 4881 5ebe c7b7 e03d 18c0 ec3d a58d 3cbe
000000a0: e1a1 16bd 1a53 6bbd 275f f9bd 9705 71be
000000b0: 6d51 7f3e ade5 87be 8e30 8c3a 508d 8bbe
000000c0: 2d81 9cbd 92c4 38bd dda4 f2bd c16d 0c3d
000000d0: 6f1c 92bd 84f6 efbd d49a 1c3e f0bd 9dbd
000000e0: 0359 383d 362c 87bd 5a63 1dbe d460 243d
000000f0: abca 8e3d b27f fc3d 5b1f 0d3c 456b 3cbd
00000100: aaed 053e ec42 c63d 5c40 b7bd 148a e6bd
00000110: 9bbd f9bd 1231 0e3d e02b 98bd 5df6 e0bd
00000120: 2a52 a6bd 7521 f43d a724 cfbd e1c6 373d
00000130: 302e 803d 36e6 773c dd47 023e 0610 2eba
00000140: 62e4 7dbd 8572 af3c 51b6 f8bb 4c53 c53d
00000150: d0e6 523d 36e0 5cbc 7d38 183d db47 763b
00000160: f28d 4ebc ac8e 083a e768 2c3d 1f48 123d
00000170: af51 dbbd d74c 8f3d 9908 0ebe 384a 833d
00000180: 9ae8 a9be bf85 d0be 31fe e3be 45ee 663e
00000190: ba81 acbe 282e 633e 78dc 8cbe a80a dbbe
000001a0: f271 78be 44a3 a33e fcc2 d53e 03ab 8b3e
000001b0: d4be 9dbe b1e2 96be 4028 f23e c486 eebe
000001c0: dedf e7be 3821 af3e 3a2b 8b3e fcac e63e
000001d0: 3c66 003f 83b8 5f3e bac8 df3e ab49 d5be
000001e0: 40ae a73e 4c36 993e 69bf f03e 211d fd3e
000001f0: 10b8 973e 5194 a33e 2b7a e93e ce68 63be
00000200: e0c6 e93e 0d5f 6e3e 5912 a73e d3fe cbbe
00000210: 2bd3 a1be f49f 613e d95e bb3e 4521 eebe
00000220: 787e e6be 091b c3be c47e 61be 9045 84be
00000230: a009 ee3e c384 b0be 1a63 633e 37d5 7fbe
00000240: a256 9dbe 6cf1 b5be 6fe2 f3be 1f66 b23e
00000250: 45f8 d7be 13e7 013f 93b4 c8be f7f5 f9be
00000260: 1d23 b6be 314a eb3e 95e3 043f c3ac e23e
00000270: 4aec bcbe 62e4 c1be bf27 af3e 2109 0cbf
00000280: aa0d cdbe e20d c33e 56e1 ef3e c116 ff3e
00000290: efe0 ef3e 7cf0 183f cf12 a63e b5fb f9be
000002a0: e678 0f3f 3a04 b23e 378b b83e ec14 c73e
000002b0: b3da 173f 5b16 db3e 6d96 ee3e 7abf 05bf
000002c0: 9708 ad3e 96e2 113f 0323 c63e c4eb 13bf
000002d0: ac45 e5be ceb7 0a3f 08b4 c33e 314c 09bf
000002e0: 549c e1be 0d6e 04bf 4e36 d6be faa5 0bbf
000002f0: 4585 083f 538c a9be 849b af3e d1c6 04bf
00000300: 4522 0bbe 2a51 76be 86b3 1fbe 2088 6c3e
00000310: f3bb 99bd 5f8f 223e 828c 7bbe 4470 a3be
00000320: 8184 1bbe 0ad1 9f3e f9f2 a23d 1566 393e
00000330: f80d 3cbe 2f5a 79be 1e29 163e d897 27be
00000340: 2ac4 7abe b9e5 833e 7970 303e c62e 983d
00000350: 0c07 ca3d b70b b83d 94df a63e e24a 34be
00000360: 4cf6 d93d 6bb7 da3d 312f 293e a565 923e
00000370: 21aa 673e b284 0e3e 2794 bc3e 2d84 1fbe
00000380: 3bf6 a23e 8fe4 583e a41a 323e eeab 28be
00000390: 45d2 a5be ff56 643e e4ae 613e 2438 95be
000003a0: 4d56 fcbd 47e7 88be 3dde 5dbe a632 94bd
000003b0: 69ad 373e a422 8dbe 4793 013e d6db 83be
000003c0: bbef ebbd 279d 21be 7bf7 0abe 81a3 223d
000003d0: 99ec 6bbc 9f40 183d 38d4 b63c 666c 2d3d
000003e0: 2e07 1dbe 6772 0f3e 50ef 2e3e bb55 723c
000003f0: faf6 c9bc 02dd 16be 957a a73c 4a6e 10be

lstm.linear_newmemory_x.weight f4 [48, 6]
0.034907598 -0.55328166 0.0330877 -0.41349158 -0.27541634 0.14044514 -0.1605861 0.10604004
-0.15078391 0.20511782 0.48375723 0.17822905 0.25555328 0.6358956 -0.18165472 0.72010344
0.036839396 -0.19547695 -0.08242352 0.49020666 -0.53069335 0.52086556 0.44317505 -0.206744
0.17847262 -0.5807764 0.2383561 -0.4920511 -0.5170374 0.59501237 0.07042399 0.056796234
0.5226366 -0.31789324 0.07096096 0.60458314 0.45148528 -0.08809179 -0.5409545 0.6706392
-0.21354763 0.20406915 -0.19130105 -0.6400739 -0.051933583 -1.2635809 -0.579481 0.53131956
-0.13158579 -0.55335015 0.19266163 -0.8669443 -0.3850338 -0.09335591 0.42908385 0.4777389
0.1473413 0.795797 -0.0068220543 -0.68604225 0.4020732 -0.05353085 0.4334968 -0.22919822
-0.19269799 0.093477756 0.0008176203 0.5173854 -0.18665038 1.0113943 -0.12022383 -0.7739191
-0.20769818 -0.6517039 0.43219945 -0.52009827 -0.17152505 0.62453777 -0.6066016 0.006556126
0.09888893 -0.90304214 -0.35873762 0.54805744 -0.22199415 -0.34441707 0.39042896 -0.952427
-0.14849783 0.24212705 0.010439688 -0.33847246 -0.28509575 -0.6410942 -0.49188587 0.3514071
-0.1345436 -0.31099138 0.49270666 -0.72892267 -0.3146658 0.20603159 -0.27500042 0.76297706
0.15683824 1.039619 0.43044016 -0.76627445 -0.28448427 -0.079209104 -0.16991104 0.7252545
-0.035464555 -0.26515338 -0.19284557 -0.21594729 -0.01883978 -0.2663317 -0.0077176862 0.48086104
0.36278355 0.11867877 0.006524553 0.029485486 0.07424904 0.107146874 -0.36138085 -0.2796172
0.20013411 -0.28160742 -0.3736879 -0.11972663 0.03788508 0.4828412 -0.009629045 0.3828131
0.47400704 -0.32546383 0.41090402 -0.062058855 -0.3057992 0.65715075 0.15912035 -0.008348604
0.5435311 0.6104379 -0.37349412 0.22255352 -0.19346994 0.013039019 0.31352827 0.05817759
0.2774138 0.26288736 -0.006938773 0.087615944 -0.43921125 -0.66650033 0.08750352 -0.29539782
-0.15331723 0.15902221 0.2740697 0.17733958 -0.51111156 0.8433355 0.3789293 -0.37106818
-0.08735693 0.4315935 -0.019443251 0.4521314 0.62506133 -0.43537846 -0.13555612 0.30859455
-0.36375442 0.6208819 -0.03882328 -0.43003365 0.2530606 0.572371 -0.2562631 0.9199272
0.29939812 -0.50949496 0.4131359 0.6909552 -0.51500714 0.8703367 0.122972935 -0.34263825
-0.52793723 -0.3159523 -0.17712207 -0.012390171 -0.41977656 -0.38849732 0.4687827 -0.09707703
-0.17275374 0.457117 -0.08374025 -0.9282055 -0.19063066 0.39217913 -0.19620724 0.8949041
-0.13303131 -0.21913889 -0.37722594 -0.3368504 0.22555245 -0.6875258 -0.03714476 0.6547146
0.21203278 0.34445617 0.27039823 0.6169787 0.118712194 -0.4305072 -0.41788086 -0.37067428
-0.3058392 0.41903204 0.05967448 -0.5572833 -0.076014586 0.41111276 0.38937896 -0.31049782
-0.018846957 0.57245064 0.05618364 -0.14624296 -0.12161356 0.7471264 0.11458302 -0.24546309
0.25573972 0.398116 0.23556706 1.0661541 0.40027294 -0.7136173 -0.4368934 -0.20896845
0.570072 -0.29216933 -0.5129494 0.7543906 0.3677402 0.10804419 -0.49832323 0.78422874
00000000: 45fb 0e3d dea3 0dbf f886 073d 2bb5 d3be
00000010: 5f03 8dbe dad0 0f3e af70 24be 852b d93d
00000020: 1967 1abe 680a 523e 07af f73e ad81 363e
00000030: e1d7 823e 0eca 223f b203 3abe b358 383f
00000040: e8e4 163d 1c2b 48be aacd a8bd 5efc fa3e
00000050: 85db 07bf 7257 053f d7e7 e23e b3b4 53be
00000060: 87c1 363e c3ad 14bf 9f13 743e 1fee fbbe
00000070: 905c 04bf bb52 183f 743a 903d 2ba3 683d
00000080: 83cb 053f e7c2 a2be fb53 913d f6c5 1a3f
00000090: 1429 e73e 7869 b4bd fe7b 0abf 03af 2b3f
000000a0: 3bac 5abe 81f7 503e 6ce4 43be e2db 23bf
000000b0: 4fb8 54bd 05bd a1bf de58 14bf 8f04 083f
000000c0: 6dbe 06be 5ba8 0dbf 1749 453e 10f0 5dbf
000000d0: 2623 c5be 6231 bfbd e1b0 db3e 319a f43e
000000e0: a3e0 163e 5ab9 4b3f 8a8b dfbb 77a0 2fbf
000000f0: 8adc cd3e 2a43 5bbd 4bf3 dd3e f0b2 6abe
00000100: 9f52 45be 4471 bf3d 9255 563a 5f73 043f
00000110: 4721 3fbe 5e75 813f e937 f6bd 901f 46bf
00000120: d5ae 54be 11d6 26bf 3f49 dd3e 2925 05bf
00000130: 43a4 2fbe b5e1 1f3f 3e4a 1bbf c5d4 d63b
00000140: 4886 ca3d c52d 67bf 75ac b7be 7e4d 0c3f
00000150: 6f52 63be 6f57 b0be 4ee6 c73e 42d2 73bf
00000160: d10f 18be 27f0 773e 3a0b 2b3c 434c adbe
00000170: 12f8 91be c01e 24bf 77d8 fbbe a2eb b33e
00000180: ccc5 09be 433a 9fbe 0c44 fc3e ad9a 3abf
00000190: e01b a1be f2f9 523e dbcc 8cbe 7752 433f
000001a0: 349a 203e 3c12 853f a762 dc3e 902a 44bf
000001b0: eca7 91be 6238 a2bd 29fd 2dbe 47aa 393f
000001c0: 4843 11bd 2fc2 87be 4f79 45be 4921 5dbe
000001d0: e255 9abc a15c 88be a5e4 fcbb 6b33 f63e
000001e0: c4be b93e db0d f33d ebcb d53b 8c8b f13c
000001f0: e10f 983d d26f db3d e906 b9be fc29 8fbe
00000200: f5ef 4c3e d92e 90be 0554 bfbe 3c33 f5bd
00000210: 632d 1b3d f636 f73e 24c3 1dbc 1400 c43e
00000220: 0db1 f23e 32a3 a6be 0362 d23e 6d31 7ebd
00000230: b691 9cbe 083b 283f 72f0 223e 95c8 08bc
00000240: db24 0b3f a945 1c3f 9f3a bfbe 12e5 633e
00000250: fc1c 46be 9ca1 553c c786 a03e a04b 6e3d
00000260: 2e09 8e3e 2c99 863e a65e e3bb fd6f b33d
00000270: 4ce0 e0be c49f 2abf 0c35 b33d 623e 97be
00000280: 31ff 1cbe b8d6 223e dd52 8c3e 8298 353e
00000290: 35d8 02bf d6e4 573f 0503 c23e a6fc bdbe
000002a0: 31e8 b2bd d3f9 dc3e 7447 9fbc c47d e73e
000002b0: 0504 203f ede9 debe 39cf 0abe 1b00 9e3e
000002c0: 053e babe 1ef2 1e3f 2905 1fbd 5f2d dcbe
000002d0: 2991 813e e886 123f eb34 83be 5980 6b3f
000002e0: b64a 993e 436e 02bf 8c86 d33e 71e2 303f
000002f0: 82d7 03bf 63ce 5e3f 3cd9 fb3d 486e afbe
00000300: e526 07bf 80c4 a1be 7d5f 35be 2500 4bbc
00000310: f4ec d6be 1fe9 c6be 4904 f03e 52d0 c6bd
00000320: 5be6 30be 3d0b ea3e 0280 abbd e09e 6dbf
00000330: af34 43be b4cb c83e 8dea 48be 6f18 653f
00000340: 5c39 08be f265 60be c223 c1be a877 acbe
00000350: 39f7 663e b101 30bf 1b25 18bd 609b 273f
00000360: 1f1f 593e 8f5c b03e a371 8a3e 51f2 1d3f
00000370: 611f f33d 716b dcbe 7bf4 d5be 05c9 bdbe
00000380: f596 9cbe 5e8b d63e 3a6d 743d 1eaa 0ebf
00000390: 89ad 9bbd 5f7d d23e ae5c c73e 92f9 9ebe
000003a0: ef64 9abc 208c 123f d120 663d b7c0 15be
000003b0: 8810 f9bd ad43 3f3f 81aa ea3d ad5a 7bbe
000003c0: 51f0 823e dcd5 cb3e 7e38 713e bd77 883f
000003d0: 93f0 cc3e a0af 36bf 7eb0 dfbe d3fb 55be
000003e0: 3df0 113f 3897 95be a750 03bf be1f 413f
000003f0: 7248 bc3e 4646 dd3d 3924 ffbe 37c3 483f

lstm.linear_newmemory_x.bias f4 [48]
-0.13751277 0.2588643 -0.18072455 -0.18172993 -0.19828215 0.1000111 0.009925106 -0.05212882
0.23832089 0.17983256 0.2835652 0.31082025 0.17352758 -0.019936174 -0.117876284 -0.20905289
0.3491584 0.32822213 -0.11268314 0.37135434 0.42705166 -0.3036407 0.33038896 -0.3624665
0.35222188 0.53879666 0.05786109 0.11617309 -0.23040071 0.26853397 -0.1732464 0.14612521
0.07777258 -0.38153717 -0.05854857 -0.037028193 0.20764166 -0.42962936 0.0044935434 -0.23774832
0.13568477 0.3498863 -0.4174309 -0.33065933 -0.29819122 0.3419217 0.106915995 -0.20342386
00000000: 26d0 0cbe dd89 843e db0f 39be 6917 3abe
00000010: 7a0a 4bbe 9fd2 cc3d e99c 223c 0885 55bd
00000020: 640a 743e 0726 383e 752f 913e d523 9f3e
00000030: 37b1 313e 3051 a3bc 1f69 f1bd f611 56be
00000040: e4c4 b23e bb0c a83e 6bc6 e6bd 2822 be3e
00000050: 84a6 da3e cb76 9bbe be28 a93e 3695 b9be
00000060: 6d56 b43e 94ee 093f c0ff 6c3d 28ec ed3d
00000070: 2aee 6bbe 497d 893e 8167 31be d9a1 153e
00000080: 3b47 9f3d d758 c3be a0d0 6fbd e0aa 17bd
00000090: 04a0 543e 61f8 dbbe 933e 933b 4c74 73be
000000a0: f3f0 0a3e 4c24 b33e 81b9 d5be 2e4c a9be
000000b0: 85ac 98be 5c10 af3e c6f6 da3d 584e 50be

lstm.linear_newmemory_h.weight f4 [48, 48]
0.16664192 0.041011102 0.14544353 -0.26049358 0.071318746 -0.057441708 0.16677755 0.0104759205
0.12783311 0.009936719 -0.048900366 -0.03876034 -0.021929346 0.052938484 -0.022336408 0.043299172
0.19542353 -0.14707577 -0.22520287 -0.120267905 -0.010544574 -0.07229366 0.009515342 0.23635384
-0.11977107 -0.0896819 -0.14590438 -0.09391613 -0.123174444 -0.24050559 -0.21017763 0.037508707
-0.24925499 -0.24427658 -0.072826646 0.12528935 0.2116751 -0.068969816 -0.09987062 0.00027585385
0.20937696 0.092854746 0.22626474 0.020999009 -0.18933684 0.2502 -0.18167734 0.0244732
-0.11131501 0.07216939 -0.0055494094 0.00087701145 -0.15122949 0.0033203796 -0.14399256 0.1050896
-0.08142484 0.10473645 0.1665455 0.0009216716 0.11308591 0.04909798 -0.106217876 0.101663895
0.033972636 0.12204035 0.08057088 0.091637336 0.12014421 0.03588647 -0.065282494 -0.07678678
0.14904307 -0.01692198 -0.09872348 0.029460467 0.03128015 0.10727235 0.09848816 -0.1324985
0.1650134 -0.02720241 0.18294904 -0.00024240551 0.10404027 0.091993265 -0.027539898 -0.16814293
-0.11876384 -0.05998522 -0.047536064 -0.1342287 0.17438032 -0.16851203 0.05011807 0.027509034
0.067048505 0.021239199 0.08270354 -0.11429268 0.031191505 0.13421606 -0.024319695 -0.11073633
-0.060251724 0.008954991 0.13173193 0.07962597 -0.06628684 -0.0459647 0.037653066 -0.12481985
-0.14412731 0.09871834 0.026697036 0.057197906 -0.022661265 -0.10321927 -0.011939289 0.06573084
-0.058724973 -0.12340385 0.074994415 -0.011657655 0.009301171 -0.011786312 -0.060867112 0.0036008856
-0.044909716 0.14505744 0.049077168 -0.12443305 0.07094536 -0.045974042 0.0014036044 -0.023068585
-0.046925552 -0.055816323 -0.1306316 -0.03111436 -0.053435095 0.09568576 0.054445308 -0.08514268
0.13083005 0.073696 -0.08065169 0.09605971 -0.042376243 -0.13314015 0.018810555 -0.03200359
-0.079147555 0.0036255405 0.0852822 -0.07427494 0.07488499 0.06156461 -0.117269784 0.00035257806
0.11447684 0.0701188 -0.044842176 -0.06299027 -0.05537417 0.10385568 0.07377281 -0.069210686
-0.08802385 -0.049710788 -0.090911135 -0.040296238 0.07777949 0.089049675 0.071029775 0.08615491
-0.09868471 -0.12715344 -0.058447707 0.043460645 0.009148638 0.033307143 -0.05647767 0.11846076
-0.10088859 -0.002247004 0.15334845 0.021207811 -0.042398937 0.13895847 0.0779257 0.15764903
0.04701275 -0.04544338 -0.07854679 -0.17700545 -0.022315782 0.026022779 -0.032158278 0.042201184
0.18997021 0.041441273 -0.11549105 -0.16252229 -0.0107171945 0.14336984 0.054840382 0.12333227
-0.039687 0.02460877 -0.18631396 -0.11003906 -0.05153631 -0.12212246 0.016949791 -0.05655174
0.05284738 0.10291334 -0.14661479 0.011670757 0.07166581 0.026522696 0.02806754 0.06570453
0.08600914 0.065549694 -0.13495848 0.1365075 -0.010097366 -0.13183972 -0.048136 -0.016636513
-0.09679459 0.1331689 0.09812159 0.10933362 0.09888159 0.03461241 0.07229394 0.14945495
0.058402702 0.006695468 -0.03389357 -0.041006196 -0.04286895 0.12611346 0.015218994 0.05650526
0.059061017 -0.0054989117 0.14604062 0.08653861 0.06298248 -0.07925323 0.1437364 0.01814312
00000000: 2ea4 2a3e 42fb 273d 26ef 143e 6a5f 85be
00000010: 900f 923d ff47 6bbd bcc7 2a3e 32a3 2b3c
00000020: afe6 023e 9fcd 223c c04b 48bd 2ac3 1ebd
00000030: 2ca5 b3bc 06d6 583d d8fa b6bc 795a 313d
00000040: 1b1d 483e 089b 16be 959b 66be 054f f6bd
00000050: 26c3 2cbc b30e 94bd 3de6 1b3c be06 723e
00000060: 894a f5bd 25ab b7bd f567 15be 1a57 c0bd
00000070: e242 fcbd 1947 76be ce38 57be bba2 193d
00000080: b33c 7fbe a423 7abe 2326 95bd da4b 003e
00000090: 5bc1 583e 0c40 8dbd f888 ccbd 7aa0 9039
000000a0: ea66 563e a12a be3d f2b1 673e 1d06 ac3c
000000b0: 84e1 41be 371a 803e a009 3abe 057c c83c
000000c0: 20f9 e3bd 8ccd 933d d2d7 b5bb 3ee7 653a
000000d0: e7db 1abe ba9a 593b c972 13be 3739 d73d
000000e0: 11c2 a6bd 1080 d63d e78a 2a3e 569c 713a
000000f0: 9699 e73d f71a 493d c288 d9bd 2935 d03d
00000100: e426 0b3d 4bf0 f93d 5802 a53d 5bac bb3d
00000110: 2b0e f63d b1fd 123d d4b2 85bd 6342 9dbd
00000120: bf9e 183e f79f 8abc 892f cabd 1457 f13c
00000130: 9d1f 003d 9bb1 db3d 29b4 c93d b0ad 07be
00000140: 46f9 283e 97d7 debc fe56 3b3e 3c2e 7eb9
00000150: 1113 d53d f766 bc3d 5a9b e1bc a92d 2cbe
00000160: 753a f3bd 10b3 75bd 2db5 42bd 4073 09be
00000170: c190 323e 6b8e 2cbe 9b48 4d3d a05a e13c
00000180: ba50 893d d4fd ad3c 7960 a93d 4812 eabd
00000190: 5485 ff3c ef6f 093e 193a c7bc bbc9 e2bd
000001a0: 83ca 76bd f4b7 123c bce4 063e f112 a33d
000001b0: 65c1 87bd 7b45 3cbd 1a3a 1a3d 8da1 ffbd
000001c0: 1c96 13be d72c ca3d beb3 da3c 5a48 6a3d
000001d0: 1ea4 b9bc a064 d3bd 029d 43bc e49d 863d
000001e0: 9989 70bd 28bb fcbd ac96 993d c0ff 3ebc
000001f0: f063 183c 601b 41bc cb4f 79bd d6fc 6b3b
00000200: 40f3 37bd f089 143e 2405 493d c1d6 febd
00000210: cd4b 913d 474f 3cbd 26f9 b73a 54fa bcbc
00000220: 0235 40bd a89f 64bd 4ac4 05be 8be3 febc
00000230: c2de 5abd e5f6 c33d 0b02 5f3d 495f aebd
00000240: 50f8 053e eeed 963d b72c a5bd f4ba c43d
00000250: b692 2dbd e455 08be 9818 9a3c 3216 03bd
00000260: 1d18 a2bd 7a9a 6d3b 6fa8 ae3d 761d 98bd
00000270: 4d5d 993d 2c2b 7c3d 242b f0bd 3ada b839
00000280: d572 ea3d 729a 8f3d 6eac 37bd 0b01 81bd
00000290: 07d0 62bd 49b2 d43d 3316 973d 55be 8dbd
000002a0: d945 b4bd 8a9d 4bbd 9e2f babd ab0d 25bd
000002b0: da4a 9f3d ad5f b63d 0f78 913d fc71 b03d
000002c0: 361b cabd 8334 02be dd66 6fbd ca03 323d
000002d0: 2be4 153c 126d 083d 2155 67bd 8e9b f23d
000002e0: ad9e cebd 7942 13bb 6007 1d3e 01bc ad3c
000002f0: 82aa 2dbd 214b 0e3e 8297 9f3d bf6e 213e
00000300: 7190 403d d622 3abd 24dd a0bd eb40 35be
00000310: 96cf b6bc b92d d53c 66b8 03bd 26db 2c3d
00000320: 8d87 423e 53be 293d 9286 ecbd 3e6c 26be
00000330: 2c97 2fbc 8bcf 123e 4fa0 603d a195 fc3d
00000340: d68e 22bd 5598 c93c 16c9 3ebe 295c e1bd
00000350: bd17 53bd 571b fabd 4ada 8a3c cca2 67bd
00000360: 7f76 583d 3bc4 d23d 3022 16be b436 3f3c
00000370: 86c5 923d 2046 d93c e6ed e53c 1990 863d
00000380: 8f25 b03d eb3e 863d 8e32 0abe 9fc8 0b3e
00000390: 6c6f 25bc fe00 07be 412a 45bd 4c49 88bc
000003a0: 3e3c c6bd 6e5d 083e f9f3 c83d 4eea df3d
000003b0: 6e82 ca3d bec5 0d3d d80e 943d b80a 193e
000003c0: ac37 6f3d a865 db3b fcd3 0abd 1df6 27bd
000003d0: 5a97 2fbd e323 013e 1659 793c 0f72 673d
000003e0: f7e9 713d 3730 b4bb ac8b 153e 283b b13d
000003f0: f5fc 803d 844f a2bd a32f 133e e1a0 943c

lstm.linear_output_x.weight f4 [48, 6]
0.21780682 0.3278848 0.24248944 0.24820505 0.40568382 0.1375572 0.21616787 0.40412286
0.11078601 0.3614081 -0.18277843 -0.09345806 0.62150025 0.5064054 0.5185681 0.37370008
0.23052701 0.72896874 0.77466285 0.18346728 0.11886941 0.92422175 -0.042559285 0.1541115
0.8307913 0.4761518 -0.481606 -1.7551396 -0.29306749 0.3134341 0.22418213 0.1893799
0.090049796 0.06501073 0.38595486 -0.018916398 -0.22972701 0.06619326 0.20761523 -0.31000412
0.86584914 -1.4276904 0.7347789 0.27696902 -0.08602913 0.016381983 0.15056065 1.6496843
1.2773684 -0.02224026 0.49893272 0.55865633 0.28176677 0.5646676 0.17792445 0.38583583
0.36203486 0.8379404 0.5189849 -0.28104168 0.011937167 0.24295232 -0.087372296 0.48238415
-0.028514303 -0.046314612 0.36618128 0.42053977 -0.26454857 0.5894696 0.31522778 0.44034398
1.328447 0.2729671 0.1850414 0.4433383 0.31558198 -0.2677528 1.1388297 -0.20803687
0.08716663 -0.3009723 -0.07900385 0.12601347 0.7574051 0.25322464 -0.012261568 0.43591005
-0.11897336 0.7140432 0.04069282 0.6463795 0.036600944 0.6237596 -0.15134943 -0.15055297
0.6191349 -0.56645393 0.32687306 -0.042380143 0.3417265 -0.24895096 0.9459275 0.53374904
0.4306578 0.42643318 0.5160045 0.36350062 0.22150187 -0.5574535 0.44575453 -0.06798068
-0.0001256626 0.08263575 -0.09588921 0.09228138 -0.05367169 0.033802275 0.25210845 0.4436984
-0.23885415 -0.010481391 0.16148219 0.03209897 0.43974555 0.010871883 -0.14953712 0.6629221
-0.17851998 0.28076622 -0.124485336 -0.30671045 0.4849523 0.091372564 0.07444532 0.07272169
0.4045079 0.25367117 0.23939419 -0.3191511 -0.046927758 0.75671715 -0.07118384 0.024614314
0.15751271 -0.0890014 -0.27152845 0.58261585 0.5176164 -0.28881857 0.025113694 0.22226095
-0.18300506 -0.023828663 0.3806946 0.21192081 0.45501733 0.02881669 -0.26122993 0.7388894
0.47728997 -0.29765025 0.7760898 0.20424813 -0.25905386 0.5780049 0.2079381 0.13953418
0.58677727 -0.13200206 0.21778241 -1.4021001 0.11430326 0.88479584 0.33454898 0.27646506
0.29154405 0.05831088 -0.37275457 0.519521 0.8936279 0.30693382 -0.038343005 -0.03288373
-0.15364316 0.57277495 0.9230063 0.1533746 0.52013737 0.15608966 0.07606429 0.15863588
-0.02540931 0.39284843 -0.15076816 0.11938868 -0.038806874 0.17492528 0.500844 -0.011297279
-0.21547545 -0.37406704 0.14180148 0.034415636 0.4030874 0.14222744 -0.03627707 1.045117
0.30223534 0.9396837 1.7297628 -0.25594538 0.029458217 0.3542415 0.35889432 -0.11726269
0.17113397 0.3913334 -0.11006032 -0.017703213 0.15532345 0.118295334 0.27920794 0.32467946
-0.2152398 0.20858623 -0.014457477 -0.11496871 -0.09230058 0.36095217 0.48121426 -0.035676934
0.43276554 0.19334626 0.03978162 0.1945064 0.6029612 -0.9200956 -0.34996325 0.049930375
0.28837067 0.28706998 0.16338597 -0.1282117 -0.109738976 0.87291056 0.7125816 -0.077014156
-0.043294027 0.12244333 0.65297896 -0.19714083 1.0140184 -0.012583851 0.2468887 0.5443957
00000000: c008 5f3e 84e0 a73e 274f 783e 7729 7e3e
00000010: cab5 cf3e cbdb 0c3e 1c5b 5d3e 31e9 ce3e
00000020: c7e3 e23d 7c0a b93e 452a 3bbe f066 bfbd
00000030: a41a 1f3f c9a3 013f e1c0 043f 9e55 bf3e
00000040: 460f 6c3e b29d 3a3f 4e50 463f d9de 3b3e
00000050: ce71 f33d cc99 6c3f a552 2ebd 68cf 1d3e
00000060: bdae 543f 2bca f33e 1095 f6be 6aa8 e0bf
00000070: f10c 96be 6f7a a03e 0090 653e ceec 413e
00000080: 076c b83d 5824 853d e09b c53e 90f6 9abc
00000090: 8f3d 6bbe 5590 873d 1699 543e dcb8 9ebe
000000a0: 4aa8 5d3f 8fbe b6bf 781a 3c3f e2ce 8d3e
000000b0: 0a30 b0bd 8233 863c 922c 1a3e db28 d33f
000000c0: cf80 a33f 3531 b6bc 1c74 ff3e 1a04 0f3f
000000d0: bc43 903e 0e8e 103f d431 363e 468c c53e
000000e0: a25c b93e 4383 563f 32dc 043f b2e4 8fbe
000000f0: 1b94 433c 7ec8 783e 3ff0 b2bd 0efb f63e
00000100: d496 e9bc 64b4 3dbd 1d7c bb3e fd50 d73e
00000110: e972 87be 7be7 163f 8965 a13e c474 e13e
00000120: 8d0a aa3f 58c2 8b3e 7e7b 3d3e 3dfd e23e
00000130: f693 a13e e516 89be 2cc5 913f 9e07 55be
00000140: 6b84 b23d 0b19 9abe c5cc a1bd ad09 013e
00000150: 4de5 413f a9a6 813e bee4 48bc 9a2f df3e
00000160: 4ea8 f3bd 89cb 363f 84ad 263d 2079 253f
00000170: dfea 153d b6ae 1f3f 58fb 1abe 8f2a 1abe
00000180: a07f 1e3f 2003 11bf e85b a73e cd96 2dbd
00000190: c7f6 ae3e 00ed 7ebe 4e28 723f c7a3 083f
000001a0: 2e7f dc3e 7355 da3e df18 043f c11c ba3e
000001b0: 63d1 623e 46b5 0ebf f039 e43e 7439 8bbd
000001c0: 4cc4 03b9 ef3c a93d 9061 c4bd 05fe bc3d
000001d0: d9d6 5bbd 4174 0a3d 5c14 813e 702c e33e
000001e0: 2f96 74be 24ba 2bbc 965b 253e 367a 033d
000001f0: 5426 e13e fb1f 323c 4220 19be 43b5 293f
00000200: f1cd 36be 97c0 8f3e 2bf2 febd 2709 9dbe
00000210: ab4b f83e 8a21 bb3d ca76 983d 1cef 943d
00000220: a91b cf3e 30e1 813e c023 753e c667 a3be
00000230: 5237 40bd 37b8 413f d5c8 91bd f5a3 c93c
00000240: 034b 213e 5e46 b6bd c705 8bbe 5026 153f
00000250: 8282 043f 07e0 93be 3cbb cd3c 6098 633e
00000260: ae65 3bbe 5434 c3bc 67ea c23e c501 593e
00000270: 08f8 e83e fb10 ec3c eebf 85be db27 3d3f
00000280: 5a5f f43e 9d65 98be d2ad 463f 6c26 513e
00000290: b5a2 84be 21f8 133f baed 543e 0ce2 0e3e
000002a0: 0937 163f 8c2b 07be 5a02 5f3e 0478 b3bf
000002b0: d417 ea3d fb81 623f 014a ab3e d48c 8d3e
000002c0: 4345 953e 64d7 6e3d b0d9 bebe 54ff 043f
000002d0: ccc4 643f 6e26 9d3e 8e0d 1dbd 17b1 06bd
000002e0: a254 1dbe 61a1 123f 244a 6c3f 3b0e 1d3e
000002f0: b927 053f f8d5 1f3e 98c7 9b3d 7271 223e
00000300: 2f27 d0bc 6e23 c93e f862 1abe 0d82 f43d
00000310: f5f3 1ebd 9d1f 333e 5037 003f 3918 39bc
00000320: 99a5 5cbe b785 bfbe 6834 113e 69f7 0c3d
00000330: 7961 ce3e 12a4 113e 4497 14bd 65c6 853f
00000340: 97be 9a3e 1c8f 703f de68 dd3f 460b 83be
00000350: 5c52 f13c 245f b53e ffc0 b73e 6c27 f0bd
00000360: be3d 2f3e da5c c83e 4e67 e1bd 5406 91bc
00000370: 1c0d 1f3e d344 f23d 58f4 8e3e 633c a63e
00000380: d267 5cbe a197 553e 0edf 6cbc b774 ebbd
00000390: 1608 bdbd b9ce b83e b761 f63e fa21 12bd
000003a0: 7293 dd3e 90fc 453e 0df2 223d b02c 473e
000003b0: aa5b 1a3f 638b 6bbf 622e b3be cb83 4c3d
000003c0: 52a5 933e d6fa 923e a74e 273e ee49 03be
000003d0: d4be e0bd 1177 5f3f bf6b 363f 99b9 9dbd
000003e0: 1455 31bd 92c3 fa3d a129 273f 49df 49be
000003f0: 5bcb 813f 7f2c 4ebc 64d0 7c3e 845d 0b3f

lstm.linear_output_x.bias f4 [48]
-0.08076992 0.15162887 0.12600935 0.5530109 0.009567671 0.11111268 0.42702153 -0.10485848
0.78293645 0.062430114 -0.099096626 0.2264586 0.7426602 0.6692939 0.5930348 -0.26899448
0.2649906 0.026716426 0.42997643 -0.27247354 -0.18698044 0.16722877 0.21067157 -0.18034169
0.2520231 0.22471258 -0.17404939 0.38644406 0.2120997 0.29115412 0.35158882 0.5348057
0.014899423 0.0072855167 0.79500234 0.067506105 0.24436352 0.084712766 0.17667092 0.21579868
0.10789388 0.686103 0.70117545 0.021652592 0.4192685 0.42969862 -0.18014605 0.2759232
00000000: b36a a5bd 9944 1b3e 9808 013e 1f92 0d3f
00000010: b9c1 1c3c 0b8f e33d 91a2 da3e 0bc0 d6bd
00000020: 866e 483f b8b6 7f3d 2cf3 cabd c3e4 673e
00000030: fb1e 3e3f d856 2b3f 21d1 173f a5b9 89be
00000040: d9ac 873e 68dc da3c df25 dc3e a781 8bbe
00000050: cd77 3fbe 053e 2b3e 4aba 573e 7eab 38be
00000060: 2c09 813e 0e1b 663e 013a 32be ffdb c53e
00000070: aa30 593e 2712 953e 7303 b43e 07e9 083f
00000080: b61c 743c 58bb ee3b 4685 4b3f a440 8a3d
00000090: 6e3a 7a3e e37d ad3d 39e9 343e 54fa 5c3e
000000a0: 77f7 dc3d 72a4 2f3f 3c80 333f c760 b13c
000000b0: 5caa d63e 7501 dc3e 3578 38be ce45 8d3e
