Liu/cont/v_2/train_iter_64500.pt (torch, 987847 bytes, 9 tensors)

h0 f4 [128]
000000 2e a9 0b bf a2 88 5d 3e 2c f9 1b bf 88 7e ed 3f
       -0.5455502 0.21634153 -0.6092708 1.8554239
000010 7a 71 c9 3e 87 dc c4 bf 5d 1c 3d 3e fb c3 a9 bf
       0.39344388 -1.53798 0.18467851 -1.3262933
000020 17 02 95 bf 28 d9 bc bf bd 26 22 bf 69 11 15 be
       -1.1641263 -1.4753771 -0.6334036 -0.14557423
000030 d2 c5 fd 3d 21 3a df be bc 0a a5 3f a3 2b 9e 3f
       0.12391247 -0.43599036 1.2893901 1.2357067
000040 3d 47 e0 3e e5 c8 94 3f 57 be 0a 40 15 0b b8 be
       0.4380435 1.1623808 2.1678674 -0.35945955
000050 75 81 cb 3d 2b f4 13 3f f6 a7 04 3f ff b0 2e bf
       0.09936801 0.57794446 0.5181879 -0.68238825
000060 8a 6f 8f be 45 54 d6 be f9 62 de bf 46 06 90 bf
       -0.28014785 -0.41861168 -1.7373954 -1.1251915
000070 c3 38 e3 3e 1e be d2 3e 58 5e 88 3f 06 6d 1d bf
       0.44379243 0.41160673 1.0653791 -0.6149448
000080 a6 80 20 c0 d5 31 83 3f 76 29 34 bf 10 1c 8e 3f
       -2.507852 1.0249583 -0.70375764 1.1102314
000090 4b 8f 7d 3f eb a1 bf bf 56 da b4 3f 57 25 43 bf
       0.9904677 -1.4971288 1.4129131 -0.7622885
0000a0 82 92 d8 bf 77 f9 0a bf d6 f4 29 bf 02 ca f5 3e
       -1.6919711 -0.54286903 -0.66389215 0.48005682
0000b0 aa c5 c8 bf 76 93 9d bf d3 82 d9 3f 81 46 b2 be
       -1.5685322 -1.2310627 1.6993049 -0.34819415
0000c0 31 87 7b be 10 fd 08 bd 86 23 ef 3e d1 81 1f 3f
       -0.2456329 -0.033444464 0.4670679 0.6230746
0000d0 63 66 67 3e 93 89 a9 3f 87 f0 c4 3e 2d 1e f4 3e
       0.22597651 1.3245109 0.38464758 0.47679272
0000e0 79 b4 4a 3f 68 88 2a bf f9 2d fa 3e a4 35 11 bf
       0.7918163 -0.6661439 0.488632 -0.56722474
0000f0 fa 0c 5e be f6 31 f8 3e 90 19 ae 3f 8a f9 8a bf
       -0.21684638 0.48475617 1.3601551 -1.0857403
000100 fe be b9 3f 2e dd 38 3f 2e 17 84 3f 65 8a 71 3e
       1.4511411 0.72212493 1.0319574 0.2358795
000110 b2 aa 91 3e ed c2 7a 3e 07 df 1b 3f bc 6a 81 bf
       0.28450543 0.24488421 0.6088719 -1.0110698
000120 c0 df 0a bf 33 25 c8 3c e0 4a 56 be d9 d8 ad bd
       -0.54247665 0.0244318 -0.20927 -0.08488626
000130 cb 43 8e 3f 44 c3 cd bd fb ee ac 3c e8 5b 08 3f
       1.1114439 -0.100470096 0.021110049 0.5326524
000140 a1 40 9e bf 3a 83 ae 3f 26 89 62 3f 09 16 ec bf
       -1.2363473 1.3633797 0.8849052 -1.8444225
000150 53 54 6e 3e 55 80 e8 bf ef 04 cb be 6d 6b a7 bf
       0.23274355 -1.8164164 -0.39652202 -1.3079659
000160 5d 41 54 be a0 36 81 be ef 81 d6 3e db 95 5c bf
       -0.20728059 -0.25236988 0.41896006 -0.8616616
000170 8a 7c 45 bf 10 73 2b 3f 89 d8 ac be ee b0 49 40
       -0.77143157 0.66972446 -0.33758953 3.151424
000180 c6 ca 78 3f 84 6a 84 bf 32 db 83 3e 66 da 30 bf
       0.9718441 -1.0345006 0.2575317 -0.6908325
000190 45 d8 a6 bf ae 8e 21 3d 4e 97 f1 3f 16 ef b9 3e
       -1.303475 0.03944271 1.88743 0.3631522
0001a0 1f f0 87 bf a9 f0 8b be af 41 46 be 72 b0 31 bf
       -1.0620154 -0.27332047 -0.19360994 -0.6940986
0001b0 d2 db 1e be 6e a6 91 3d 29 8d 4a bf 26 e4 13 3f
       -0.15513542 0.07111822 -0.79121643 0.5777
0001c0 49 3a 7c 3f 0d 2e e7 3e cb 70 f8 bd fe 06 ff 3e
       0.98526436 0.4515232 -0.121308886 0.49810022
0001d0 fb 98 7f 3e 91 9b 29 3f e1 75 5b bf 31 bd 93 bf
       0.24960701 0.66253 -0.85726744 -1.1542112
0001e0 32 72 9f bf 8e 89 72 3e df 84 7a 3f 99 0b 01 3f
       -1.2456725 0.23685285 0.97858995 0.5040832
0001f0 eb 0e f1 3f 02 e9 6f 3f 48 75 d3 be b9 f2 b6 bf
       1.8832678 0.93714917 -0.41300416 -1.4292823

c0 f4 [128]
000000 a6 31 c1 be af 31 c6 bd 79 15 8e bf 9a 15 19 3e
       -0.3773319 -0.09677445 -1.1100303 0.14949647
000010 f6 85 25 bf d7 86 c3 3f 44 0a 2c 3f 69 78 c2 3f
       -0.64657533 1.5275525 0.67203164 1.5192996
000020 c8 ea 85 3e e7 5d ae bf 14 48 e3 be d7 bd 19 bf
       0.26155686 -1.3622407 -0.4439093 -0.600553
000030 fb 12 ae 3e c8 d3 86 bf 4f a1 11 be fc 56 18 3f
       0.33998856 -1.053338 -0.1422169 0.5950773
000040 be c2 22 c0 92 51 39 3f 5c ab a3 3f 81 4a ad 3f
       -2.5431361 0.7239009 1.278667 1.3538362
000050 64 f8 8e bf 32 f5 cd 3e 0c d0 09 40 91 a8 5e bf
       -1.1169553 0.40226132 2.1533232 -0.8697596
000060 98 fe 0b 40 7c 39 b0 3d 2d d6 a5 bf ee 6e 14 c0
       2.1874142 0.08604714 -1.2955986 -2.3192706
000070 cd 12 ad 3e 5c f6 81 3e d9 49 09 3f 8a e4 10 c0
       0.33803406 0.2538327 0.5362831 -2.263949
000080 97 bf 26 40 c8 28 fd 3f 06 86 8f 3f b5 bc 4c 3f
       2.6054437 1.977807 1.1212776 0.79975444
000090 71 27 4f 3c 6a 13 3d 3f 56 33 88 3f 4f cf 76 3f
       0.012643681 0.7385775 1.0640666 0.9641008
0000a0 7b ce fc 3e c2 68 35 be bd 0d d3 be ba 44 c8 3d
       0.49376282 -0.17715743 -0.4122142 0.097787336
0000b0 9d 61 12 bf bc b9 71 3d 76 56 a0 bf a3 18 d8 bf
       -0.57180196 0.05901502 -1.2526386 -1.6882519
0000c0 a6 8c a3 bd 35 4f af bd 91 49 35 be 3b 7c a9 bc
       -0.07985811 -0.085600294 -0.17703845 -0.02068912
0000d0 8f e1 8b bf a3 48 b4 bd f9 f4 f2 3c 44 d3 a5 bf
       -1.092821 -0.08802917 0.029657828 -1.2955098
0000e0 6b fc c9 3b 6a 35 e0 bd a4 8c 29 40 a8 03 c9 be
       0.006164124 -0.10947688 2.649209 -0.39260602
0000f0 ca 87 25 3f 89 87 e9 bd 10 53 e8 be 5c 82 45 be
       0.6466032 -0.114028044 -0.45375872 -0.1928801
000100 55 b5 89 3f 4d 2c 80 bf c6 c1 d3 be db bb b3 bc
       1.0758463 -1.001352 -0.41358775 -0.021940162
000110 86 9c 03 3f 4e cd 4d be 69 de dd be b7 11 4d bf
       0.5141071 -0.20097849 -0.43333748 -0.80105156
000120 14 e6 47 3a 15 a8 24 3f a0 45 30 bf 0b a0 9d bf
       0.0007625532 0.6431897 -0.6885624 -1.2314466
000130 dd 38 db 3f 03 68 84 be 2a f6 6f bf 3b 79 dd 3f
       1.7126728 -0.25860605 -0.9373499 1.7302622
000140 a5 d1 b0 be e8 a2 28 3e 08 61 15 bf 97 62 1a 3f
       -0.34534946 0.16468394 -0.5835118 0.60306686
000150 7a 56 cf 3d 35 73 17 3f 4b 61 2e be 27 33 ef bf
       0.10123916 0.59160167 -0.17029302 -1.8687485
000160 3e 09 39 3e 73 32 1a bf 13 ec 6a 3f d5 31 0f bf
       0.18069932 -0.6023323 0.9176647 -0.5593541
000170 e7 65 e5 3f b8 04 83 3f 8e ed c8 3d bb 6b e2 be
       1.7921723 1.0235815 0.09810935 -0.44222817
000180 c7 7c c2 be 5c 60 21 40 97 93 17 c0 a5 78 c7 be
       -0.37985823 2.5215063 -2.3683832 -0.38959232
000190 e4 2d d9 3e f5 a9 a9 bf e0 4b c9 bd e8 be 2e bf
       0.42417824 -1.3254992 -0.09828925 -0.6826005
0001a0 fa f9 0a 40 32 56 75 be 64 d9 fa 3e 6c e5 77 3f
       2.1715074 -0.23958662 0.4899398 0.96834445
0001b0 f4 a0 28 3f 15 b9 08 40 a4 48 0b bf ef f8 db bf
       0.65870595 2.1362965 -0.54407716 -1.7185344
0001c0 f0 cb 07 bf 2e 39 9e 3d fa 09 b0 bf a6 d9 30 bf
       -0.5304556 0.0772575 -1.3753045 -0.69082105
0001d0 00 f8 79 bf 86 80 ea be c2 89 55 bf 2e 70 7b be
       -0.9764404 -0.4580118 -0.83413327 -0.24554512
0001e0 95 8f aa bc 8a f5 18 c0 7e b2 26 bf 8c c4 c4 bf
       -0.020820418 -2.3899865 -0.6511611 -1.5372481
0001f0 29 94 19 bf 7c 73 97 3f 66 ca 6e bf 49 63 66 3e
       -0.599917 1.1832118 -0.93277586 0.22498812

RNN.weight_ih_l0 f4 [512, 15]
000000 81 70 a5 3d 5a f2 99 be 1b 33 db 3e fc 5e 02 3d
       0.08078099 -0.30067712 0.42812428 0.031828865
000010 ac 93 92 bd 99 c5 61 be 4b e9 c8 3d 10 e6 6b 3c
       -0.071570724 -0.22048034 0.09810122 0.014398113
000020 c1 75 30 be 59 dc 8d be bf ec be 3d 0b 3e b9 3d
       -0.1723242 -0.27707174 0.093224995 0.09045037
000030 74 d8 67 3d 21 9a 57 3d 1b b9 24 3e 6d 1d 1c be
       0.05660291 0.052637223 0.16086237 -0.152456
000040 ae ee 44 3f 2e 24 95 bf 31 7c 9a 3d f0 c2 a9 bc
       0.76926696 -1.1651666 0.07543219 -0.020722836
000050 04 67 e9 3e a8 98 36 bd 5c b9 86 bd c2 0c 4b 3d
       0.45586407 -0.044579178 -0.06578323 0.049572714
000060 9c 6a 06 3f 07 a9 77 be 5c 45 21 3f 8a 2d 75 be
       0.52506423 -0.24185573 0.6299646 -0.23943153
000070 d5 b4 80 bd 44 1f 7c bd a5 b7 95 3e 83 a8 4d 3e
       -0.06284491 -0.061553255 0.29241672 0.20083813
000080 f6 6f 80 3d b6 5f 92 bd dd 3b b0 3d e3 c4 a9 3d
       0.06271355 -0.07147162 0.08605168 0.08289506
000090 cb 45 76 3e 1d 25 65 bd 4c 51 55 3e f2 60 a0 3d
       0.24050061 -0.055943597 0.20831794 0.07830991
0000a0 5f a8 57 3e d8 52 e8 3d 2e e2 c4 3d 71 35 af 3d
       0.21060322 0.11343926 0.09613453 0.08555115
0000b0 70 dd ae 3e f0 8b b8 3e 45 3d 8d be eb 8f a6 3e
       0.34153318 0.36044264 -0.27585807 0.32531676
0000c0 d0 66 88 bb ba 2e 2b 3d 8c 14 62 bd d3 71 77 3e
       -0.004162647 0.04179261 -0.055195376 0.24164514
0000d0 29 6a 84 3d da bd 9a 3d b4 5a c6 bd 11 d8 98 be
       0.06465561 0.075557426 -0.09685269 -0.29852346
0000e0 55 9c 37 3d d0 6c 52 3d 1c 87 ae 3d fb cf 94 3e
       0.044826824 0.051373303 0.08521864 0.29064927
0000f0 12 d9 79 3d 98 8e a5 3d f2 e9 8f 3d d0 ab 72 bd
       0.06099803 0.08083838 0.070270434 -0.059245884
000100 de 55 4c 3d 16 69 b8 3f 44 0f 19 bd 78 70 5a bd
       0.049886577 1.440707 -0.037368074 -0.053329915
000110 61 cd 36 3e 52 b7 b1 3f 59 3b 17 3e cb 93 49 be
       0.17851783 1.388407 0.14768733 -0.19685285
000120 73 c7 59 3d 46 44 36 bd 74 05 a0 3c 86 82 60 3e
       0.053168725 -0.044498704 0.01953385 0.2192479
000130 b6 10 3a 3f 16 5f 12 bf e0 2a a7 3b fb c3 15 bd
       0.7268175 -0.5717634 0.0051015466 -0.036563855
000140 8b a4 92 3e 40 54 22 3e 6e 35 7a bd 4f 72 c6 3d
       0.2864116 0.15852451 -0.06108611 0.096897714
000150 27 2d 6e 3e 00 0a 84 3e a5 3b bc bd 86 17 86 3c
       0.23259412 0.2578888 -0.09191064 0.016368639
000160 76 f0 8b 3d 36 7e ef 3d 79 a8 12 be 13 73 27 3e
       0.06832974 0.11693995 -0.1432208 0.16352491
000170 c9 bf b1 bd 60 03 fa 3c 8a 96 d4 bc 1a b4 b1 be
       -0.08679158 0.030519187 -0.025950689 -0.3470772
000180 dd 4f 42 be e4 b2 47 bd db 47 ad bd 55 23 d0 be
       -0.18975778 -0.048754588 -0.08460971 -0.40651956
000190 05 5e 3f be f4 30 97 3c 29 56 e6 bc 24 04 8f bc
       -0.1868821 0.01845596 -0.028117256 -0.01745803
0001a0 ad 93 2d be 6e a5 80 3d f1 9f 84 bf 63 ac 11 3f
       -0.16950865 0.06281553 -1.036131 0.56903666
0001b0 c2 06 9c bd c4 03 05 bd 42 e7 82 3e d3 f7 ab 3d
       -0.076184765 -0.032474294 0.2556706 0.08396878
0001c0 d7 92 9c 3d 9b 31 70 3b 3f 19 47 3e bb a0 0a 3f
       0.07645195 0.003665066 0.19443224 0.54151505
0001d0 5a d0 df be a0 0a cd 3c a1 da f3 3d 94 f0 20 3e
       -0.43713647 0.02502948 0.119069345 0.15716773
0001e0 8c f2 94 3c a1 23 36 be 8a b6 68 3d d3 4d 84 bd
       0.018182062 -0.17787029 0.056814708 -0.06460156
0001f0 7d ee 14 bd 3f 6c a7 3e a5 63 9e bb 73 87 94 3d
       -0.036360253 0.32699773 -0.004833656 0.072523974
000200 8a ab 93 bd 30 51 88 3e a0 c6 6b 3e b6 e2 00 bf
       -0.07210453 0.2662444 0.23024988 -0.50345933
000210 5b ff 24 bd 2a 94 3f bd 31 8b 12 3d bf 0c c5 3e
       -0.04028259 -0.04677216 0.035777275 0.38486287
000220 99 f0 0b 3e b8 24 29 3e 40 f2 66 3c ab 0c a7 3d
       0.13666 0.16517913 0.014095843 0.08156713
000230 e8 65 a9 3e f3 e4 aa 3e b0 04 09 3c 1c dc 8a 3e
       0.3308556 0.333778 0.008362934 0.27121055
000240 d3 5e af 3f c3 13 bc 3d 2d 68 14 3e 84 cc 42 3e
       1.3700813 0.09183457 0.14492865 0.19023329
000250 63 3a 66 3c 72 cb 97 3e f6 6f 15 be 42 30 1b 3e
       0.014052006 0.29647404 -0.14593491 0.15155128
000260 a8 d0 de bd 94 47 62 bd 12 2b 11 3d 40 85 43 be
       -0.10879642 -0.055244043 0.035441466 -0.190938
000270 c3 0e 91 bd a9 f5 a2 3d 22 26 1c 3c 37 46 8a bf
       -0.07082894 0.07957012 0.009530576 -1.0802678
000280 dc 0a 74 3c ce 74 5d bd 90 d8 b1 3d 15 13 bd bd
       0.014895167 -0.05406647 0.08683884 -0.09232155
000290 e0 5a 2d be b4 be b7 bd 77 e0 e3 3c 31 ca 1a bc
       -0.16929197 -0.089719206 0.027816994 -0.00944762
0002a0 e3 75 9a bd 7d 03 82 3d ef b5 1f bf b3 74 dc bd
       -0.07542016 0.063483216 -0.62386984 -0.10764446
0002b0 3e 41 78 3d f3 e8 93 39 76 e9 ff be 50 bf 2f 3e
       0.060609095 0.00028211586 -0.49982804 0.17162824
0002c0 4d 90 c3 bd 9c df a4 bc f5 21 6c be 8c 5a 92 bd
       -0.095490076 -0.020126157 -0.23059829 -0.07146177
0002d0 f3 0d d7 3d aa b9 b1 3e ef 29 14 3f 9a 8e b0 bd
       0.105007075 0.34711963 0.57876486 -0.08620949
0002e0 84 34 bf 3c a7 6b 94 3d a8 6f b9 bb 23 ae a9 bd
       0.023340471 0.072470956 -0.0056590624 -0.08285167
0002f0 e7 e7 18 3f 66 54 0f 3e 43 09 0c bc 91 0a 32 3f
       0.59728855 0.13997039 -0.00854713 0.69547373
000300 cb 51 25 bb 6a ea c1 3d e6 2e a3 3d 57 88 63 be
       -0.0025225754 0.09468539 0.079679295 -0.22219978
000310 3f 3d 6b 3e cc a2 e2 bd af 12 9d 3d 9e 62 57 3d
       0.22972582 -0.11066207 0.07669579 0.052584283
000320 52 e0 ee 3e 5d fd 60 be d9 10 37 bd e1 86 91 3d
       0.46655518 -0.2197165 -0.0446938 0.07105804
000330 fd a6 99 3e b6 0e 03 be f7 bb 08 3e 8d 03 e8 3d
       0.30010214 -0.1279858 0.13352953 0.11328802
000340 bf c7 3a 3b 0e 9c 7b be 16 6f bc 3e 26 38 8e 3d
       0.0028500406 -0.24571249 0.36803502 0.06944303
000350 6c a6 af 3e 09 fa 94 3d 69 cd 9f 3d e0 6a ae 3e
       0.34306657 0.07274253 0.07802851 0.34065914
000360 70 27 be 3e 70 a0 9b bd c1 f2 95 3e bf 37 17 3f
       0.37139463 -0.075989604 0.2928677 0.59069437
000370 30 88 1e 3e 8d e4 79 3e 7f 52 81 bd 01 97 7a bd
       0.15481639 0.24403591 -0.06314563 -0.061179165
000380 fa 4c b6 3e 4a 53 f6 3d 05 81 c7 bd 99 13 6d bd
       0.35605603 0.12027605 -0.097414054 -0.057880018
000390 61 f1 86 3d ec 68 eb 3c b0 3f 71 3e cb 7a e4 3d
       0.06589008 0.028736554 0.23559451 0.111562334
0003a0 fe 07 55 3d 41 39 63 bd a4 5d a2 3e e7 e9 6c 3e
       0.052009575 -0.055474523 0.31712067 0.23136102
0003b0 76 ac 35 be d0 f3 47 3c ac bd 68 3d a7 26 82 3d
       -0.1774157 0.0122041255 0.05682151 0.063550286
0003c0 f2 74 10 3e 4b 80 18 3e 49 a3 0b 3e 78 d2 78 bc
       0.14107111 0.1489269 0.13636507 -0.015186898
0003d0 c0 4e 0e 3d c4 46 be 3e 77 cb b1 3d 01 11 aa 3d
       0.03474307 0.37163365 0.08681386 0.083040245
0003e0 22 2c c3 3e fa 8a 8e 3e e0 f1 3f 3e 01 fe 9f 3e
       0.38119608 0.27840406 0.18744612 0.31248477
0003f0 ca c3 13 3d df ef a1 3c f4 85 d2 3d 50 fb 44 3b
       0.03607539 0.0197677 0.10279456 0.003005702

RNN.weight_hh_l0 f4 [512, 128]
000000 bc 0c 0a 3e 07 e2 32 3e 6c 43 b7 3d ec 53 62 be
       0.1348142 0.17469035 0.089484066 -0.22102326
000010 d4 55 2a 3e 88 b9 5d bc dc 8d d3 bd a3 50 da bd
       0.16634303 -0.013533004 -0.10329792 -0.106599115
000020 bb 9b 45 be 27 36 3e be db 77 52 bd d8 6e 2f be
       -0.19297688 -0.18575345 -0.051383834 -0.17132127
000030 f4 0a e2 3d 67 94 61 3c 05 e2 af 3d 7f 35 a9 be
       0.110372454 0.013768292 0.08588032 -0.33048627
000040 75 07 8c 3c 05 b0 ee 3c a5 4b a5 3d fb 69 f5 bd
       0.0170934 0.029136667 0.08071069 -0.11983105
000050 9f 4e 19 be e1 5f 7a 3e 75 0e 54 bc a3 f3 ce bd
       -0.14971398 0.24450637 -0.0129429 -0.10105064
000060 3f ce 8e be 36 8a 33 be 26 b7 02 3e d3 88 17 be
       -0.27891728 -0.17533192 0.12765178 -0.14798288
000070 b3 eb 30 bc 96 29 3c 3e a6 50 c1 3d 29 47 02 ba
       -0.010798383 0.18375239 0.094392106 -0.000496971
000080 e9 65 8f bd 89 e4 10 3c 75 5d 23 3d b4 8e 93 3e
       -0.0700186 0.0088435495 0.03988405 0.2881981
000090 a7 cf 09 3e 4a 5b 06 3e 32 04 3b be 4c 5b 47 be
       0.1345812 0.13120762 -0.18263319 -0.1946842
0000a0 e2 50 8b bd 42 96 45 bc bb 39 20 3d aa 83 68 3e
       -0.068025365 -0.01205975 0.039117556 0.22706476
0000b0 76 15 df bd c8 c5 5c bd a2 1b f8 3d e6 33 80 be
       -0.10892765 -0.053899556 0.121146455 -0.25039595
0000c0 9e 54 04 bf 46 5c 0f bd c3 1f 33 be 5a a5 d3 3d
       -0.51691616 -0.03500011 -0.17492585 0.10334273
0000d0 9e 9f 7f 3e 8d a3 04 be 1d 94 a6 3d 5a d9 15 be
       0.24963233 -0.12953015 0.08133719 -0.14633694
0000e0 81 7c db bd 9f d2 50 3e 0c 13 25 3e fc ad ce 3d
       -0.107171066 0.20392846 0.16120547 0.10091779
0000f0 a1 51 bb bd e9 bf 6e 3e cf ec 29 3e 0b 0d f7 3d
       -0.09146429 0.23315395 0.16594242 0.120630346
000100 89 90 b1 3c e1 e0 4b 3e 78 72 1b 3e b0 6f c0 3d
       0.021675365 0.19910003 0.15180385 0.09396303
000110 f2 fb 4b bd 55 f4 d5 bc 07 d2 56 3d a0 61 7d bd
       -0.04980082 -0.026117483 0.05244639 -0.06186068
000120 8c 06 76 3e e2 56 df 3e 1c 0a 6e bd 89 20 ec 3d
       0.24025935 0.43620974 -0.05811511 0.11529643
000130 04 64 0c bd fa 02 36 3e 08 e2 24 3e 25 c4 c5 bc
       -0.03427507 0.17774573 0.16101849 -0.02414138
000140 c3 ae 09 bb 01 b6 15 3e d8 95 2b 3d 13 a4 b8 bd
       -0.0021008707 0.1462021 0.04189095 -0.0901567
000150 1f 2a f1 bc 64 2d 2a 3e fc 8b 98 3e 07 bf 88 bd
       -0.02943903 0.16618878 0.297943 -0.066770606
000160 36 27 72 be 04 a3 6d bd 2d 36 6e be 60 04 a2 be
       -0.2364777 -0.058016792 -0.23262854 -0.31643963
000170 21 01 ee 3d d3 d7 f2 3c 20 1c b0 bd ec 70 90 3d
       0.11621309 0.029643929 -0.085991144 0.07052788
000180 ae 5f 0c 3e 1c 55 eb 3c 0e 06 1d 3c 03 4b 03 be
       0.13708374 0.028727107 0.009583963 -0.12821583
000190 0f 85 40 be f8 4b 0b be 9d 2a 63 3e 9e 2b 78 3e
       -0.18800758 -0.13603199 0.22184224 0.24235389
0001a0 08 a5 c7 bc 6e ae e3 bd b2 c0 cd bd 42 7e 45 bd
       -0.024370685 -0.11117254 -0.10046519 -0.048216112
0001b0 c9 c9 cb be 09 ae 2d 3e 34 ad e8 bd 0e 48 ac 3e
       -0.39802387 0.1696092 -0.11361161 0.33648723
0001c0 b8 eb 2c 3e dc 24 e1 3e a9 ff 4d be 1a 97 13 3e
       0.16886795 0.43973434 -0.20117058 0.1441311
0001d0 65 89 5d bd a2 da 25 bd 2a 2c 09 3e 82 32 40 3b
       -0.054086108 -0.040491708 0.13395754 0.002932698
0001e0 60 39 84 bd 67 f9 1c bd 13 de 9e be b7 88 90 3d
       -0.06456256 -0.038323786 -0.31028804 0.07057326
0001f0 2f 54 74 bd 27 f7 ea 3d b9 bc c3 3d 4d 1d d3 3d
       -0.059650596 0.11472922 0.0955748 0.10308323
000200 92 e7 63 be bb 0f 8e bd 18 c2 2a be 96 2e 27 bd
       -0.22256306 -0.06936594 -0.16675603 -0.040815912
000210 4a 39 5e bc 18 d9 93 be 13 ae 4b bf b0 df 04 3e
       -0.013563463 -0.28876567 -0.7956249 0.12975955
000220 da 9a bc bd b8 6b 8d bd bb ae df 3d ff 3e ce 3c
       -0.09209223 -0.06905311 0.10921999 0.025176523
000230 6f 0d 9b be 58 3d 76 be 90 67 15 3e 10 cf 31 3d
       -0.30283687 -0.24046838 0.14590287 0.04341036
000240 95 e2 8e bd f8 9b 4d bd 22 d3 6f 3d 5a 0d ea 3d
       -0.06976811 -0.05019757 0.05855096 0.11428328
000250 30 90 b4 3e 6d 37 18 3e 52 f4 f4 bd 9c dc 53 bd
       0.35266256 0.14864893 -0.11960663 -0.05172406
000260 87 75 28 be 7f 02 d3 ba 92 ec b7 3d bc ec ef 3d
       -0.16451083 -0.0016098766 0.08980669 0.117150754
000270 9d c7 a7 3e 92 a9 16 bc 7f 8b 60 3e db c4 f0 bd
       0.3276948 -0.009195702 0.21928214 -0.11756297
000280 04 a9 5e 3e 35 bd 14 3d e9 c4 de bb 39 13 2b 3e
       0.21744162 0.036313254 -0.006798376 0.16706552
000290 65 18 63 be fe e8 86 3d 73 ca e6 bc 06 8e 77 3d
       -0.22177275 0.065874085 -0.028172707 0.06043818
0002a0 9d da 92 bd b3 03 1b be ba 1c 9d bc 4b 0a 34 3e
       -0.071706034 -0.1513813 -0.019178737 0.17582051
0002b0 47 c0 bf 3d fe 81 21 3e 8f 44 05 be 61 03 15 3e
       0.09362846 0.15772244 -0.13014434 0.1455207
0002c0 f5 27 6d be 81 14 56 bd d9 1d 60 be 0a 9e e7 bd
       -0.23159774 -0.052265648 -0.21886386 -0.113094404
0002d0 e2 36 fa bc ed d7 bc 3d 0c e2 e7 3c 59 ad ad be
       -0.030543748 0.09220872 0.02830603 -0.33921316
0002e0 af fb c1 3d bd af cf 3c c2 21 c8 bd f2 04 3e be
       0.09471833 0.025352353 -0.09772064 -0.18556574
0002f0 a5 39 d3 bd a9 7e ca 3c b0 b7 20 be df 88 05 3e
       -0.10313729 0.0247186 -0.15695071 0.13040493
000300 df cf 76 bd e4 00 02 be c6 86 85 be 2c d2 00 3f
       -0.060256835 -0.12695652 -0.26079386 0.50320697
000310 28 df 9d be 24 63 80 3e 87 a1 b0 bd 13 3f 47 3d
       -0.30834317 0.25075638 -0.08624559 0.048644137
000320 36 cb 29 3e 44 d0 fe bc 6b 96 ca bd 4d 78 ba 3c
       0.16581425 -0.031105168 -0.09891971 0.022762442
000330 1a fe e5 bc 83 f8 9d 3d 67 03 52 3d 99 77 37 3d
       -0.028075267 0.077134155 0.051272776 0.04479179
000340 dd f5 25 3d 53 69 0b be 5a 50 06 3f 1d fa 7d 3e
       0.040517677 -0.13614397 0.52466357 0.24802442
000350 48 75 63 3e b0 9e fa 3d fe 56 68 be 9a 61 d2 bd
       0.22212708 0.122372985 -0.22689435 -0.10272522
000360 25 f6 21 3b a2 aa d5 3d 65 73 0e bd 4c eb 85 bc
       0.0024713364 0.10432936 -0.034778018 -0.01634755
000370 ac 47 8a 3d f2 b0 54 be 7f 53 35 bc 88 81 53 be
       0.067519516 -0.20770624 -0.01106727 -0.20654881
000380 68 bd 8b bd f1 04 55 bd 53 36 ea 3d 7d e5 9d 3e
       -0.06823236 -0.052006666 0.11436143 0.30839148
000390 82 cf d3 bc dd 79 03 be ec 38 6d 3d b5 84 b7 3e
       -0.025855783 -0.12839456 0.057915613 0.35843435
0003a0 3d 36 9a 3e 9c 3b 37 3c 26 a4 f8 bd 59 1a 7f be
       0.30119506 0.011183646 -0.12140684 -0.24912395
0003b0 ef 59 4d 3d e8 0e c9 be 34 82 73 3e 1d 23 52 3e
       0.050134595 -0.39269185 0.23780137 0.20521207
0003c0 fd 1c 1d be 40 e2 e7 3d 7d bc 9f 3d 12 b0 1a 3e
       -0.1534309 0.11322451 0.07799623 0.15106228
0003d0 57 a5 8a 3e cc 30 9e 3e f5 a7 c5 3d 3d 3d ec 3d
       0.2707927 0.30896604 0.09651176 0.11535118
0003e0 20 b5 ab 3d e1 e6 89 bd 23 22 d2 3d 3f 85 35 be
       0.08384156 -0.0673349 0.10260417 -0.1772661
0003f0 27 95 86 be c7 2b b3 bd 2f 23 52 be fa 69 67 3c
       -0.2628567 -0.08748584 -0.20521234 0.014124388

RNN.bias_ih_l0 f4 [512]
000000 94 fb ba bd 96 76 84 3c f9 a0 b7 3e 50 52 82 3e
       -0.09130016 0.016169827 0.35865 0.25453424
000010 ab 30 44 3d 1a dc 92 3d 51 bf 39 be a6 7d 35 3e
       0.047897976 0.07170887 -0.18139388 0.17723712
000020 03 ad e2 3d 62 5c e7 3e 76 be 63 be 6a 4c 88 bd
       0.110681556 0.4518767 -0.22240624 -0.066552
000030 4c 40 08 3e c1 04 66 be c6 08 f6 3e 40 e7 e6 bd
       0.13305777 -0.22462751 0.4805357 -0.11274576
000040 34 95 f9 3e 2e ae 75 bd 73 46 3f 3e 88 fd 9f 3e
       0.48746645 -0.059980564 0.18679218 0.31248116
000050 f3 95 81 3e e9 f2 f8 3d 39 52 a0 3e 13 5e c1 3b
       0.25309715 0.121557064 0.3131273 0.005901107
000060 d8 fb 1d be d0 38 33 bd 02 0a 32 be ba 56 5e bd
       -0.15428102 -0.043755352 -0.1738663 -0.054281928
000070 25 bc 8e 3e 79 43 13 bd ed 9e 1f 3e 3e 3a 9b 3b
       0.27877918 -0.03595302 0.15587969 0.0047371676
000080 5e fb 06 bf cd 35 d8 3e 29 eb d5 be 79 aa 34 3d
       -0.52727306 0.42228547 -0.41780975 0.044107888
000090 fc 04 71 3e fb 3a df bd 75 d9 36 bc 35 fd dd 3d
       0.23537058 -0.108999215 -0.011160244 0.10839311
0000a0 70 76 a3 3e d3 3d b9 3e 92 c7 16 be 99 f1 95 bd
       0.31926298 0.3617998 -0.14724568 -0.07321472
0000b0 5b 40 ab be 99 32 7b 3e f2 dd 22 3e 41 07 21 3e
       -0.33447537 0.2453102 0.15904978 0.15725423
0000c0 95 a5 44 3e b3 5b dc 3d 12 43 a3 be 62 2a 36 3e
       0.1920379 0.10759678 -0.31887108 0.17789605
0000d0 47 9c 1c 3e 26 f9 1d be a9 dc 1a 3e 78 a2 52 be
       0.1529399 -0.15427074 0.15123238 -0.2056979
0000e0 b3 ee 25 be 89 93 fc bd e5 c0 c8 3c fa e1 0a be
       -0.16204338 -0.123328276 0.024506042 -0.13562766
0000f0 7c de 78 3e 6f 0b 20 3d 2f 92 40 be de 71 eb 3c
       0.24303621 0.039073404 -0.18805765 0.02874082
000100 8a 37 7f 3e f0 b9 3d bd 0c 1f b0 3c 27 a9 4b bd
       0.2492353 -0.046319902 0.02149918 -0.049721863
000110 3c 7c 0c 3e 23 dc 93 3d f3 f7 82 be 69 d4 1c 3e
       0.13719267 0.07219722 -0.25579795 0.15315403
000120 e1 82 29 be 5e 7b 4c be 27 09 5c 3e c1 01 30 3e
       -0.16553833 -0.19968936 0.21487866 0.17188169
000130 bb a7 8f 3e c7 00 be 3d ac ce 29 bd f6 7f 51 3d
       0.28057656 0.09277492 -0.041456863 0.051147424
000140 dc 6e 2b 3e 79 2c 6d be 00 b3 03 bc 54 43 08 bd
       0.16741508 -0.23161496 -0.008038282 -0.033267334
000150 38 10 0e bb 42 27 7a bd 05 6c 49 be 32 ae f7 3c
       -0.0021677148 -0.061072595 -0.19670112 0.03023443
000160 ba 56 28 3e 28 87 2b bc aa cc 1d be d8 c3 8a 3e
       0.16439334 -0.0104692355 -0.15410104 0.27102542
000170 6b 89 dd 3e 66 40 95 3d 11 50 89 3d 9a 5b 12 3a
       0.43268904 0.07287674 0.067047246 0.00055831077
000180 a2 56 3a 3e 0a dc 34 be 78 c3 81 3e 8f 05 8b be
       0.1819711 -0.17662063 0.25344443 -0.27152678
000190 b7 d8 6c bd 91 3c 0b 3e a9 da c9 3d e0 e1 bb 3c
       -0.057823863 0.13597323 0.09856159 0.022934854
0001a0 01 45 e5 bb 7c d2 a4 3e de 33 9b 3d e0 eb 08 3f
       -0.0069967513 0.32191837 0.07578252 0.53484917
0001b0 c4 73 86 bd 6f 43 be bd 92 80 df 3c 32 ea 1e be
       -0.06565049 -0.09290206 0.027282987 -0.15519026
0001c0 0c 97 a4 3d f7 71 a6 be dd d3 e7 3d 68 f4 dd 3c
       0.080366224 -0.32508823 0.113197066 0.027094081
0001d0 94 7c 37 be 2a 9b 9a 3d f5 1f 82 be b2 04 17 be
       -0.17918617 0.075491264 -0.25415006 -0.14747885
0001e0 4f a0 83 3d 99 8a 4c be 24 21 91 be e0 04 a1 3d
       0.06427061 -0.19974746 -0.28345597 0.07862258
0001f0 cf 10 88 bd 14 13 00 3e 4f da 57 3e b8 1e 71 bd
       -0.06643831 0.12507278 0.21079372 -0.058867186
000200 e9 5c 0f 3e df f4 05 be 72 99 2e 3e 32 50 8a be
       0.14000286 -0.13081692 0.17050722 -0.2701431
000210 00 91 c8 3d 89 5c f6 3d e0 7a 0b 3e 22 af a4 be
       0.097932816 0.120293684 0.13621092 -0.32164866
000220 e9 52 f6 bd 46 ee cf bd 9c 7d 24 be 1d 4e ce bd
       -0.120275326 -0.10152869 -0.16063541 -0.10073493
000230 43 db aa bd 4e d6 98 bc 2b e3 e1 bd f1 a8 ce 3d
       -0.08342602 -0.018656876 -0.11029657 0.10090817
000240 f1 03 a4 bc 2a aa 8f be 57 28 ab be 84 89 ad 3e
       -0.02002141 -0.28059512 -0.33429214 0.3389398
000250 2c 26 12 3e 54 3a 08 bf c7 1e 8a be 1c 71 c7 bd
       0.14272374 -0.53214 -0.26976606 -0.09738371
000260 fa f9 c8 3d 53 a4 a1 bd 25 dc 2a 3e e6 29 de bd
       0.09813304 -0.078926705 0.16685541 -0.10847835
000270 ae 8c 34 bd 7c ee 9c be 57 92 e9 bd c7 90 1e 3e
       -0.044079475 -0.306507 -0.11404865 0.15484916
000280 fd df 50 bc a1 26 89 be 65 8b f0 3d 0d 7e 14 be
       -0.0127487155 -0.26787284 0.117453374 -0.1450121
000290 41 d8 15 be 7a a5 a4 be 84 a8 88 be b1 45 6b 3e
       -0.14633276 -0.321575 -0.26691067 0.22975804
0002a0 07 b9 a6 3e 87 1d d4 be 0d f2 bd bd af 51 8e be
       0.3256304 -0.41428778 -0.09274683 -0.27796695
0002b0 32 74 90 be d3 cc 6d 3e b2 f2 76 3e 3d bb 30 3e
       -0.2821365 0.23222665 0.24116018 0.17258926
0002c0 9f 47 5d be eb 6b 88 3e f9 87 b5 be 2b b9 b2 3d
       -0.21609353 0.26644835 -0.354553 0.08726724
0002d0 a9 8f 5d 3e b8 0d 2c be b2 15 b2 bd 9e 3b 70 3e
       0.21636833 -0.16802108 -0.08695544 0.23460242
0002e0 5a d6 0b bc a5 6f 31 3b 85 92 8a be b5 6f 3b 3e
       -0.008534992 0.0027074602 -0.2706491 0.18304332
0002f0 2a 33 7f be 59 54 34 3e b7 66 f5 3d 14 aa a7 bd
       -0.24921861 0.17610301 0.11982482 -0.08186737
000300 ad 2c c0 be aa 2c 54 be 12 5b 1d 3e 64 fc 80 bc
       -0.37534085 -0.20720163 0.15366772 -0.01574535
000310 3c e6 01 3e 1c 2a 35 be 5a 35 bd bd a4 49 7f bd
       0.12685484 -0.17691845 -0.09238692 -0.06232609
000320 d6 cb 10 be 57 78 85 bc 04 2a 5a 3d 76 5a 3d bd
       -0.14140257 -0.016292734 0.053262725 -0.04622885
000330 c4 61 a9 3e 80 e1 2c bd 24 cd 98 bd 3c b5 97 be
       0.33082402 -0.04220724 -0.074610025 -0.29630458
000340 83 da 78 3e bb 69 3a 3d fb 13 74 3d 57 bd b0 bd
       0.24302106 0.04551099 0.059589367 -0.08629864
000350 2d 7c 9f bd 95 87 26 be 7e 05 86 be 46 47 35 bd
       -0.077873565 -0.16262658 -0.26176065 -0.044257425
000360 79 3d 90 3e c9 80 1e 3e 3d 76 e0 bd af 37 15 be
       0.281719 0.15478815 -0.10960052 -0.14572023
000370 9a 37 08 bf 57 97 7e 3c f6 4b b5 3e 70 dc 53 3d
       -0.5320984 0.015539012 0.35409516 0.051723897
000380 1a 3f 45 be e8 8d ae 3e 8a 48 9b 3c 4b 3b 07 3e
       -0.19262353 0.3409264 0.018955488 0.13206212
000390 37 80 07 be ce 8c e1 3b e1 54 1c 3e 90 f1 01 be
       -0.13232504 0.0068832403 0.15266754 -0.12689805
0003a0 30 57 b1 bd e8 10 95 3e 1b f0 9b 3e 6b ba 25 be
       -0.08659208 0.2911446 0.30456623 -0.16184394
0003b0 f5 27 03 be d1 c3 04 3d dc 40 3a 3d b1 94 7f 3d
       -0.12808211 0.032413308 0.04547201 0.062397663
0003c0 b8 08 12 be 70 a8 8d be bd 8f e5 3c 23 b3 87 bd
       -0.14261138 -0.2766757 0.028022641 -0.066259645
0003d0 dc 91 15 3e 33 f2 f1 3c e5 2e d0 bd 43 68 b4 bd
       0.14606422 0.029534435 -0.101651944 -0.08808949
0003e0 dc 14 71 3d a6 47 75 3e 30 11 fb bd 86 03 6f bd
       0.058857784 0.23953113 -0.12259138 -0.05835297
0003f0 37 26 53 3e 13 c8 50 bd 34 4c 86 3d 8c 1e 06 be
       0.20620047 -0.050972056 0.06557503 -0.1309759

RNN.bias_hh_l0 f4 [512]
000000 f5 f6 1c be c1 28 a7 3d 57 67 a5 3e 82 38 f2 3d
       -0.15328582 0.0816207 0.32305405 0.11827184
000010 9a b4 2a 3d 43 17 86 3d 69 04 98 be fe b8 72 3e
       0.04167614 0.065474056 -0.29690865 0.23703381
000020 22 ab b3 3d f3 ab df 3e cd 32 4f be 6a b5 7d bb
       0.08772875 0.43685874 -0.20234223 -0.0038712868
000030 5a 26 18 3e eb 25 2e be 27 13 06 3f bc e4 38 be
       0.1485838 -0.17006652 0.52372974 -0.18056005
000040 71 a6 ba 3e 92 9a 6e bd 8f 23 77 3e 4e c9 b5 3e
       0.3645511 -0.05825288 0.24134658 0.35505146
000050 77 91 6b 3e b1 15 12 3d c6 51 b0 3e 0f 2f b6 bd
       0.23004709 0.035665218 0.34437388 -0.088956945
000060 3f c9 38 be ae 0b 70 bd 1b 98 b0 be 61 bf 84 bd
       -0.1804552 -0.05860489 -0.34491047 -0.06481815
000070 0d d5 88 3e 3f a5 77 bd a6 ee 76 3e aa 71 db 3d
       0.26725045 -0.060460325 0.24114475 0.10715039
000080 df 3a 09 bf 6c fb b7 3e ce 9a 8d be b5 35 10 3c
       -0.53605455 0.35934007 -0.2765717 0.008801867
000090 e1 79 17 3e 23 4b f9 bd 5d b2 e3 3d 66 4f a6 3d
       0.14792587 -0.12172534 0.111180045 0.08120613
0000a0 a7 7f 89 3e 28 d8 d5 3e fe 47 6f be 25 04 44 be
       0.26855204 0.41766477 -0.23367307 -0.19142206
0000b0 ec b9 8f be ff 5c 46 3e 9d 97 87 3d 5c 12 b2 3d
       -0.28071535 0.19371413 0.06620715 0.08694908
0000c0 b1 42 52 3e 41 19 8f 3c 2e 1a bb be 23 9b 2e 3e
       0.20533253 0.017468097 -0.3654341 0.17051367
0000d0 67 94 f5 3d 92 8a 39 be ea 1b 00 3e 85 92 83 be
       0.11991196 -0.18119267 0.12510648 -0.25697723
0000e0 47 c2 60 be a8 09 8d be 6a a4 b8 3c 0e 15 67 bd
       -0.21949111 -0.2754643 0.022539336 -0.056416564
0000f0 79 70 be 3d 65 c6 a9 bc 75 88 37 be 16 b0 c4 3d
       0.09298796 -0.020724485 -0.17923148 0.09603898
000100 87 5c 6f 3e 05 fd a3 3d 24 12 ae 3d 8b d7 49 bd
       0.2337514 0.08007244 0.08499554 -0.049277823
000110 80 b6 63 3d 50 8a a9 3d 71 7d 6f be e3 db 1c 3e
       0.055593967 0.08278334 -0.23387696 0.15318255
000120 94 fb d5 bd 38 51 83 bd ce d8 80 3e 2e 83 15 3e
       -0.10448375 -0.064119756 0.2516541 0.14600822
000130 b5 ab 99 3e 48 9f 34 bc f2 1c 3e be 2d ad 95 bc
       0.30013815 -0.011024304 -0.1856573 -0.018271053
000140 0d f9 17 3e 29 00 5e be 55 6d 8b bd 9c 62 a3 bd
       0.14841099 -0.21679749 -0.06807963 -0.079777926
000150 e8 47 d7 bb 9b 19 45 bc 76 31 b2 bd 04 8c 35 bd
       -0.006569851 -0.012030031 -0.0870084 -0.044322982
000160 18 90 2a 3e 31 87 87 3b a0 5d 37 be be 53 4f 3e
       0.1665653 0.004135989 -0.17906809 0.20246789
000170 79 cb af 3e 2f ff 37 3d 96 9d ac 3d 02 3a 84 bd
       0.34334925 0.044921096 0.08428495 -0.064563766
000180 52 cd 4f 3e 63 04 8f be 56 df 5c 3e 37 6d a1 be
       0.20293167 -0.27933034 0.21569571 -0.31528637
000190 ba 5b c8 bd 83 7a a8 3d d7 c4 60 3e d0 19 61 3d
       -0.097831205 0.08226492 0.21950088 0.054956257
0001a0 8c f8 a5 3b dc 34 a8 3e 09 1d 0a 3e 02 f9 0b 3f
       0.0050650295 0.32852829 0.13487639 0.5467683
0001b0 1b ca 54 bd 1d 96 29 be d8 a1 37 bd a6 d8 74 be
       -0.051950555 -0.1656117 -0.04483208 -0.2391077
0001c0 12 09 c3 3d de e0 4d be 5e 0b fe 3d 4e 72 bf bc
       0.095232144 -0.20105311 0.12404512 -0.023369934
0001d0 2d fe 3b be 9e 33 f3 3c 52 cb 88 be a6 6d 61 be
       -0.18358679 0.029687699 -0.2671762 -0.22014484
0001e0 dd f4 12 3d 72 a7 4d be 0c dd 9f be cb ae e8 bb
       0.03587805 -0.20083407 -0.31223333 -0.007100915
0001f0 80 4d 3d bd 33 46 a2 3d 2a d6 c5 3d 4f 9c 74 bd
       -0.046216488 0.07923546 0.09659989 -0.05971938
000200 f0 91 3e 3e 95 3d 21 be 4a 28 1e 3e 32 34 17 be
       0.18610358 -0.15746148 0.15445057 -0.14766005
000210 cf 59 18 bd 83 88 13 3e 4a d6 62 3e 0f 04 a5 be
       -0.037195023 0.14407544 0.22152057 -0.3222966
000220 db 22 07 3d 51 ae 57 bd a1 4a 3b be bb aa 49 3c
       0.032992225 -0.052656475 -0.18290187 0.012308772
000230 90 51 01 be ba cd a1 bc e4 4f 5a bd 7c a6 8d 3d
       -0.1262877 -0.019751418 -0.053298846 0.0691652
000240 d6 81 e8 bd 44 2b 3f be 3c b3 38 be 36 8e a4 3e
       -0.11352889 -0.18668848 -0.18037122 0.32139748
000250 2c 73 43 3e 91 4e 0e bf 64 02 70 be bb cd b3 bd
       0.19086903 -0.5558863 -0.23438412 -0.08779474
000260 3e a9 25 3e 14 7f 4c be ae 11 60 3e 01 47 e4 bd
       0.16177842 -0.19970351 0.21881744 -0.111463554
000270 29 a2 e2 bd af e7 bd be 71 29 1e be de f9 66 3e
       -0.11066086 -0.37090823 -0.15445496 0.22556254
000280 32 a3 2d bd 99 e2 5f be 98 de da 3b 64 76 80 be
       -0.042391963 -0.21863784 0.0066793673 -0.25090325
000290 c7 74 2f be 6c 6a 99 be 70 37 96 be de 02 83 3e
       -0.17134391 -0.29964006 -0.2933917 0.25588125
0002a0 22 e6 a7 3e 6b 74 de be 84 30 18 be 84 9a 85 be
       0.32792765 -0.43448195 -0.14862257 -0.2609445
0002b0 53 36 99 be 71 33 30 3e 4c 50 14 3e 2d 83 b7 3d
       -0.2992426 0.17207123 0.14483756 0.08960567
0002c0 22 63 5c be 57 1a 7c 3e d5 77 b5 be 4e 38 a2 3d
       -0.21522191 0.24619423 -0.35442987 0.079208955
0002d0 2a b0 32 3e 26 85 52 be 4e 0e 69 bd 8f 0e 72 3e
       0.17450014 -0.20558605 -0.056898408 0.23638366
0002e0 e6 28 b7 bd 8e 4d 14 3d 00 e3 60 be fe f6 7f 3e
       -0.08943348 0.036206774 -0.21961594 0.24996564
0002f0 3e fd 1f be f4 f1 e6 3d 00 19 1c 3e 6e d3 a9 bd
       -0.15623948 0.11276618 0.15243912 -0.0829228
000300 22 31 6a be 92 11 89 be 56 7a 44 3e ba ee 80 3d
       -0.22870305 -0.26771218 0.19187292 0.062955335
000310 5b 94 21 3e 28 4d 3e be cd 65 13 3d 1e ab b1 3d
       0.1577925 -0.1858412 0.035985757 0.08675216
000320 34 04 f0 bd 76 8c 0c 3e d7 af 0f 3e 95 32 ba bd
       -0.11719552 0.13725457 0.14031921 -0.09091679
000330 a0 95 b0 3e 93 09 11 bd 97 4b d3 bd ca 0d 4c be
       0.34489155 -0.03540952 -0.10317152 -0.19927135
000340 ac e7 9f 3e fe e0 1e bd 56 74 9e 3c 2a 42 22 be
       0.3123144 -0.038788788 0.019342583 -0.15845552
000350 a5 42 03 3a 6b 0b 37 be b7 37 b3 be 0b 00 f5 bd
       0.0005007184 -0.1787545 -0.35003445 -0.11962899
000360 a7 0a 0a 3e 85 62 59 3d 9e 67 d4 bc 5f 43 17 be
       0.13480626 0.05307247 -0.025928315 -0.14771794
000370 c6 da fc be 4e 44 1a 3e b0 f5 8c 3e 83 a7 8a bd
       -0.4938566 0.15065119 0.27531195 -0.067702316
000380 de a9 53 be 5c a6 d9 3e be 7f 18 bd 7b fe 95 3d
       -0.20670268 0.42509735 -0.0372312 0.07323929
000390 a6 33 e1 bd 28 a2 b0 3d f2 e6 8f 3e 20 17 97 bd
       -0.10996179 0.08624679 0.28105885 -0.073774576
0003a0 a1 bd af bd 89 b9 91 3e b1 fa 6a 3e fa 98 73 be
       -0.08581091 0.28461865 0.22947194 -0.23788825
0003b0 09 36 d9 bc 4c fd 03 3e 3c c1 a2 3d 54 6f e5 3d
       -0.026515024 0.12889594 0.07947013 0.11202875
0003c0 b4 77 6c be 51 7e 89 be c0 70 0c 3e b2 3d d9 bc
       -0.23092538 -0.26854184 0.13714886 -0.026518676
0003d0 e2 45 5f 3e 50 18 86 3d 5f f8 85 bd 94 a5 16 bd
       0.21804002 0.06547606 -0.06541514 -0.036779
0003e0 97 57 8d 3d 6c 76 f0 3d 1a e8 85 bd 0a 92 39 be
       0.06901472 0.11741337 -0.065384105 -0.18122116
0003f0 22 59 21 3e 86 1f ab 3c 12 77 a3 3d 36 23 5f be
       0.15756658 0.020889055 0.07981695 -0.21790776

actor.weight f4 [5, 128]
000000 4f c9 51 be 8e 14 3a 3e 28 fa 91 3e c3 9e e2 be
       -0.2048695 0.18171903 0.28511167 -0.4426175
000010 2a 83 5a 3f 85 af 94 3e 40 d5 93 3d cb ce da be
       0.8535639 0.2904016 0.072184086 -0.42735896
000020 5f d9 7a 3d b9 6f a5 3e 7a d9 8c bd b6 9e 65 bd
       0.061242457 0.323118 -0.06877418 -0.05605956
000030 fd bc b9 bd 63 ba 65 3e 79 7b 5c bf bd f9 1c bf
       -0.0906925 0.22434382 -0.86125904 -0.6131857
000040 d6 a7 e4 be fa f0 52 3e 1c ec 6b 3c 28 e2 0f 3f
       -0.446593 0.20599738 0.014399555 0.5620446
000050 df 19 3b bf 28 7b c2 be b5 cc 5c 3f ea 21 cd 3e
       -0.7308635 -0.37984586 0.8624986 0.40064937
000060 35 52 f5 bd 9f e4 a9 3e 99 5b 66 3e c9 fd 7c 3b
       -0.1197857 0.33182237 0.22495879 0.0038603416
000070 e7 69 bd 3e 18 7a 06 3f 2b 45 ea 3e 2c f1 04 be
       0.3699486 0.5253005 0.45755896 -0.12982625
000080 4a 10 9b 3e cc 86 e8 be 91 f1 21 3f 23 4a 39 bf
       0.30285865 -0.45415342 0.63259226 -0.7237875
000090 c5 59 68 be 96 84 41 3f 88 f5 3c 3e cc 8b 23 3f
       -0.22690494 0.75592935 0.18453038 0.6388519
0000a0 d7 9a 1f 3e 17 50 17 3f 60 cb b7 be 5e 40 03 3f
       0.1558641 0.5910658 -0.3589735 0.5127009
0000b0 f2 dd 55 bf 13 f2 d2 3e ae 61 7a be a6 44 29 3e
       -0.83541787 0.41200313 -0.24451324 0.16530094
0000c0 5b 3d 41 bf 5f c4 ec 3e 23 b0 86 be da 05 0b bf
       -0.75484246 0.4624357 -0.26306257 -0.54305804
0000d0 d9 06 86 be 61 f5 2d be 87 db 31 be 36 94 33 be
       -0.261771 -0.16988136 -0.173689 -0.17537007
0000e0 e0 f6 77 be 1e 3d 2f 3e eb aa 34 3d eb 4a 58 be
       -0.24215269 0.17113158 0.044108313 -0.21122329
0000f0 b3 6b c3 3e 3f 07 7c 3f f7 66 03 be d1 5b 3b be
       0.38168105 0.98448557 -0.12832247 -0.18296744
000100 9c 07 14 3f c2 00 a9 bd 83 17 ea be 52 6d 62 bf
       0.5782411 -0.08252098 -0.45721063 -0.8844806
000110 18 0c a1 be de 51 0e 3e 11 41 c7 3e 74 cf fb 3e
       -0.3145454 0.13898417 0.3891683 0.49181712
000120 b8 46 89 be ea ba 53 3e 87 1c de be bc 31 f6 3e
       -0.26811767 0.20676771 -0.4338114 0.4808482
000130 91 cc d5 3d 9b 2d 9a be 57 58 eb 3e 17 dc b1 be
       0.104394086 -0.3011292 0.45965835 -0.34738228
000140 23 61 c9 bd 1b 5f c4 3e 33 22 57 bf 38 86 b2 bc
       -0.098329805 0.3835381 -0.8403656 -0.021792516
000150 73 c7 6e bf 6b ed 88 3e 73 57 94 3e b1 ba f3 be
       -0.93273085 0.26743636 0.28972968 -0.47603372
000160 aa 33 63 3e 6a a9 f8 3e 58 12 e0 3e a3 9c 02 3f
       0.22187677 0.48566753 0.43763995 0.5102026
000170 80 bc 17 bf c0 fe 7d 3f 5d 7e b3 bd 0a 5a 87 3f
       -0.59272003 0.9921684 -0.08764336 1.0574353
000180 f7 70 b8 3d 33 d4 cd bd 91 66 ac bd 02 c7 c4 3e
       0.09005921 -0.100502394 -0.084180005 0.3843308
000190 9f ba db be 6e c7 94 bc 82 6d cf be c9 ad 23 3e
       -0.42915818 -0.018161502 -0.40513235 0.15984263
0001a0 1f 0f a4 3e 25 be 1b bf d3 c4 00 be 33 08 66 3f
       0.32042786 -0.6083701 -0.12575082 0.8985626
0001b0 f1 31 7c be 7c 5a 84 3f f2 76 8f bf 3b f2 59 be
       -0.24628426 1.0340114 -1.1208174 -0.2128381
0001c0 a0 b9 b2 be 5b 14 e7 3b 8e f0 0f be 4c 48 05 3e
       -0.34907246 0.007051987 -0.14056608 0.1301586
0001d0 21 45 f6 be fa 4d e6 3e 96 42 a3 bd 77 6f a2 3e
       -0.48099616 0.44981366 -0.07971685 0.31725666
0001e0 1a 34 fc be 9e 68 f4 be 5b 4a d8 be 19 87 36 be
       -0.492585 -0.47736067 -0.4224423 -0.17824973
0001f0 07 dd e1 be 94 b3 3b be b3 11 96 be ac cb eb be
       -0.44113943 -0.18330222 -0.29310378 -0.46053827
000200 10 ef 9e be e3 7a 48 3f 32 33 d9 3e fe 84 11 3e
       -0.31041765 0.7831251 0.4242187 0.14210889
000210 5f 8f 90 bf f8 14 ed be d6 a4 92 be 3c c3 09 bf
       -1.1293753 -0.4630506 -0.28641385 -0.5381353
000220 16 ac 17 bf 9d 23 22 3f 4e 9d f2 be b6 4a 73 bd
       -0.5924696 0.6333559 -0.4738564 -0.05939742
000230 9c 2c 39 bf 74 93 0d be 74 7f 34 3d a4 7d 88 3e
       -0.72333694 -0.1382578 0.04406686 0.26658356
000240 3d 8a 3b 3f 5c 84 be 3e 77 f9 53 3f 9a e6 01 3f
       0.7325781 0.37210357 0.8280253 0.50742495
000250 f0 cf 1a 3f fc 53 2b bf fd 5e 46 3e 6a ec 96 3e
       0.6047354 -0.66925025 0.19372173 0.29477245
000260 e5 38 11 3c e2 39 a7 3e 1f 4b 2a 3d eb fe da 3e
       0.008863662 0.3266135 0.041575547 0.42772612
000270 5b f5 f2 3e 61 95 90 be 99 96 d6 be a4 c7 09 bf
       0.47452816 -0.28238967 -0.41911772 -0.5382025
000280 a1 20 b0 3e e1 2e 32 bf 1f 07 41 bf 48 07 d7 bd
       0.34399894 -0.6960278 -0.7540149 -0.10499436
000290 c7 1c b6 be e2 11 45 bf 12 fa 9e bd ef 2a ef 3e
       -0.3556883 -0.7698041 -0.07762541 0.46712443
0002a0 d5 ef 57 bd cd 9c 25 3f 67 7e ad 3e bc 6a 2a be
       -0.052718956 0.64692384 0.338855 -0.16642278
0002b0 e3 d2 11 be 1f 41 09 3f b6 3f c9 be 83 ed 86 3e
       -0.14240603 0.5361499 -0.3930642 0.26353082
0002c0 50 a3 50 3f d1 54 d5 3e be 99 2b be 40 7b e3 be
       0.81499195 0.41666272 -0.16757867 -0.4442997
0002d0 e5 74 8e be 7f b7 2f 3e 96 c3 b3 3e 40 52 bd 3d
       -0.27823558 0.17159842 0.35110158 0.092442036
0002e0 dc b8 85 3d 3f 55 88 be 2f b7 43 3f bf cf e6 be
       0.065294 -0.26627538 0.7645139 -0.45080373
0002f0 bf fd 3b 3f 8f 39 1b bf eb 46 6b be ca e7 7d be
       0.7343406 -0.606347 -0.22976272 -0.24795452
000300 d4 80 02 3f 60 9e a1 bc ac e8 ee be 15 ad 07 3f
       0.50977826 -0.01972884 -0.4666189 0.5299848
000310 29 fb 96 be 72 29 02 bf cd b6 ad 3e c8 8f 02 3f
       -0.29488495 -0.5084449 0.33928528 0.5100064
000320 be 63 9e bd d3 e2 80 be 6e 8a 07 be 63 cd 65 bf
       -0.07733868 -0.25173053 -0.132364 -0.8976652
000330 1b 09 0c bd 2e 35 1e 3f 9a e1 b9 3e 34 fc dc bd
       -0.03418837 0.61799896 0.36304933 -0.107902914
000340 41 be ee 3d b3 97 32 bf b1 97 36 3f d3 12 cc be
       0.11657382 -0.69762725 0.7132521 -0.39858112
000350 fb fa 83 3f 6e 8e ca 3e 2b ff f4 be 4d 83 b5 3d
       1.0310968 0.3956179 -0.47850928 0.08862934
000360 e2 61 8e 3e 1a 17 e6 3e b1 8b bb be f6 ed d1 3e
       0.27809054 0.449395 -0.36630014 0.41001862
000370 fa 0c 14 bf 10 2f cf be ed 74 8c bd bf 72 8e bf
       -0.578323 -0.40465593 -0.06858239 -1.1128768
000380 75 d2 49 3f 47 14 53 3e 2b e7 b6 3e 54 13 91 3e
       0.78836757 0.20613204 0.35723242 0.2833506
000390 6a 7f be be 97 2c 30 be f5 d4 ce be 5a 1c c4 bd
       -0.37206584 -0.1720451 -0.40396848 -0.0957572
0003a0 70 3b 87 bd bd 89 08 bc ed e8 1d be 69 6b fc 3c
       -0.06603134 -0.008333621 -0.15420885 0.030812936
0003b0 30 95 17 be 1b e8 6d bf c0 76 5d 3f 9d f9 1f 3f
       -0.14803004 -0.9293229 0.86509323 0.62490255
0003c0 66 f8 f8 be 63 ea 91 3e 0d 1d 38 be d5 32 00 3e
       -0.48627013 0.28499135 -0.17979832 0.12519391
0003d0 48 41 2a 3f d4 e9 e6 3e a8 3f 2f 3e ee 5e fb 3d
       0.6650586 0.45100272 0.17114127 0.12273966
0003e0 5f 78 a2 3f e4 39 13 3f 4f 52 c5 3e ac 62 2c be
       1.2692984 0.5751021 0.3853936 -0.16834515
0003f0 a7 b8 b7 be d9 0e ad 3d 36 49 9a be 9e da 75 be
       -0.35883066 0.084500976 -0.3013398 -0.24009177

actor.bias f4 [5]
000000 60 6c 9b 3e 77 9a 6a 3e f6 b3 2f be d6 e5 c8 bb
       0.3035612 0.22910486 -0.17158493 -0.006130914
000010 f2 8b e0 3e
       0.4385677

critic.weight f4 [1, 128]
000000 af 4e 8b bd c5 9b 86 be 5f 42 bd bb 9e c2 08 3d
       -0.06802117 -0.26290718 -0.0057757343 0.033388726
000010 14 5d 41 bc c5 96 79 3a 4f 2b 20 bf 1f d4 8a 3e
       -0.011801977 0.00095210626 -0.62566084 0.2711496
000020 58 44 75 3d 45 26 2c bb b6 01 d6 3d 58 f1 56 be
       0.05987963 -0.0026267928 0.10449545 -0.20990503
000030 7f 52 1c 3e fa 84 eb 3d 9b f3 a9 3d ff 7f 40 bd
       0.15265845 0.11499973 0.08298417 -0.046997067
000040 8b da 64 3c 14 d1 96 3c 34 96 07 3e 92 ba 44 3e
       0.01396812 0.018410243 0.13240892 0.19211796
000050 4b 49 14 3e 6c 84 d9 bc ee 41 4c be 83 69 58 3d
       0.14481084 -0.026552401 -0.19947025 0.052835
000060 b3 29 29 3c b9 36 9b 3d 08 7a ab 3e 85 dd bd 3d
       0.010324883 0.07578797 0.3349154 0.09270767
000070 9f 38 38 3d e7 c5 9f 3e 1e 85 53 3e 24 92 cb bd
       0.044975873 0.31205675 0.20656249 -0.099399835
000080 75 81 e9 3d dc d7 d6 3d 95 31 9b 3d 61 36 1c be
       0.11401645 0.10490391 0.075778164 -0.15255119
000090 c0 55 18 be 3e 43 0c 3e c0 65 4a bc 26 59 52 3e
       -0.14876461 0.13697526 -0.012353361 0.2054182
0000a0 8d f6 f0 bd 9d 3c c6 bd a3 46 77 3c 80 b0 6f 3d
       -0.11765776 -0.0967953 0.015092525 0.058517933
0000b0 ef ec 74 3d 74 14 9b 3e 01 5c de 3d ee a7 9e 3e
       0.05979627 0.30289042 0.10857392 0.30987495
0000c0 ae aa ee bc 0c 6b 92 bc 74 46 76 3c cb 83 98 bd
       -0.02913412 -0.01787331 0.015031446 -0.074470125
0000d0 37 92 97 be e8 bf 88 3e 0c 67 79 bd 30 ce dd be
       -0.2960374 0.26708913 -0.06088929 -0.4332137
0000e0 70 40 95 bc 39 85 dc 3e 7c b9 61 3d 83 e6 97 be
       -0.018219203 0.4307039 0.055108532 -0.29668054
0000f0 55 74 8c 3c 1e a8 ea 3b be 1f b9 bd a9 7c 86 be
       0.017145315 0.0071611544 -0.090392575 -0.26266983
000100 6c b9 88 3b 27 dc af 3d 24 4c 28 be 7e f5 5c 3d
       0.0041724946 0.085869126 -0.16435295 0.053945057
000110 d1 46 aa 3c 13 00 c2 3c 96 d5 14 3e ec fd 41 3e
       0.020785721 0.023681676 0.14534602 0.1894452
000120 d0 6d 3c 3d 34 ce 93 be aa 18 2f be d1 04 e4 bd
       0.046003163 -0.28868258 -0.17099252 -0.11133731
000130 49 3a 8e bd e3 fe 32 3e 8a b7 c8 bc 19 05 20 3d
       -0.06944711 0.17480044 -0.02450158 0.03906736
000140 03 9f aa 3d 38 0d 19 3d 2f 8b ec bc 82 95 b4 bd
       0.0833111 0.037366122 -0.028874962 -0.08817579
000150 2a f7 6e bc 78 0c 81 3d ef 92 84 3d 78 57 c6 3c
       -0.014585296 0.06301206 0.06473338 0.02421163
000160 a2 bc 94 3e 92 cd 6b 3e 01 0d 62 3c 8b c6 b2 3d
       0.29050165 0.23027638 0.013797046 0.08729275
000170 18 39 11 3d 5e 2d bb 3d ea d7 a2 bd 71 50 15 3d
       0.03545484 0.091395125 -0.079513386 0.036453668
000180 1f 3f c8 be 65 80 0c 3e d6 42 93 bd 3f 85 19 3f
       -0.39110658 0.13720854 -0.07190482 0.5996894
000190 8b fa c9 bd dd 3d ea bd a2 f8 d7 bd b8 74 da bd
       -0.098622404 -0.11437581 -0.1054547 -0.106667936
0001a0 bf df 9b 3c 9c f2 2b be 69 15 28 be e9 91 06 be
       0.019027589 -0.16791767 -0.16414417 -0.13141598
0001b0 99 7f 74 bc 7d a0 4d bd 7c b2 98 3c e2 09 11 3e
       -0.014923 -0.05020188 0.018639795 0.14163926
0001c0 d9 bb 16 bd 56 21 17 be b4 29 a8 bc 37 d8 75 3e
       -0.03680024 -0.1475881 -0.020527698 0.2400826
0001d0 f8 92 22 be bf ae 4a 3e 70 53 77 be a0 00 5d 3d
       -0.15876377 0.19793223 -0.24152923 0.053955674
0001e0 ec 7a 01 3c dd 2c 0e bd c5 ff 26 3d 98 de 0f be
       0.007902842 -0.034710754 0.040771265 -0.14049757
0001f0 65 1c 64 be 73 d7 45 3d 54 cd 82 3d 82 21 da 3b
       -0.22276457 0.04830117 0.063868195 0.0066568265
