Liu/cont/v_2/train_iter_57500.pt (torch, 966663 bytes, 9 tensors)

h0 f4 [128]
00000000: acc7 0bbf d79d 5d3e 0f90 33bf afe2 ec3f
00000010: abae cc3e 2854 c3bf be40 433e a044 aabf
00000020: 87ba a1bf 2585 c0bf ea25 26bf 1eae 18be
00000030: 6da2 353e 264b c6be 5d60 a83f 98ee 9d3f
00000040: 70a7 e03e e06e 983f 7116 0b40 a2de c0be
00000050: 4f1d 073e 97f0 1b3f b359 053f d826 38bf
00000060: 2caf 81be 75a2 e8be 8ca7 d8bf a6c5 90bf
00000070: 2cd8 d03e c6f4 d23e 0517 883f 8e9d 11bf
00000080: decb 21c0 b3f6 853f 6a4b 33bf c22e 883f
00000090: eea7 7e3f 9740 c3bf c4fe ba3f 0087 47bf
000000a0: 8bfb d8bf 887a 02bf b066 3bbf 2443 f33e
000000b0: 152a d2bf f6a1 9dbf 2589 de3f 8610 b6be
000000c0: ed7d 64be 76c5 34bd 95f5 003f 1d8c 243f
000000d0: b3d7 773e 6d7e a83f bdb3 d03e 8faa 033f
000000e0: e7ce 503f 93b6 2dbf 494d 0a3f 5a39 0ebf
000000f0: 8acd 38be bc21 fc3e 34c9 ae3f 3a7d 8fbf
00000100: b175 ba3f cf03 323f bc13 873f 3fdf 883e
00000110: c87b a53e 5bc9 813e d8ed 183f a8a1 85bf
00000120: 39d6 0ebf 653d 203d e211 5abe a02c bdbd
00000130: ec0b 903f 1515 5cbd 11aa cf3b 00a2 1d3f
00000140: e26b 9fbf fd45 ab3f f256 5f3f 8bd1 eabf
00000150: 2d69 713e d277 e9bf 58e4 cabe bf04 a9bf
00000160: bbfe 5fbe edeb 8fbe 3594 c93e ff4b 68bf
00000170: f39e 46bf a85e 2e3f fd21 a8be aca4 4b40
00000180: 1090 7b3f 2a22 83bf d71a 9b3e 39ac 2fbf
00000190: b14a a6bf 974c ef3c eb0a f33f 7d0d c93e
000001a0: 2a97 84bf aba0 89be 9c3e 45be d7cd 31bf
000001b0: cb65 1cbe 0b84 ac3d d25e 4ebf e7ff 103f
000001c0: ac6d 7c3f 0172 d53e cd48 0cbe 2b97 e23e
000001d0: c8af 613e b831 233f f846 64bf 0dbb 97bf
000001e0: 9afa 9ebf 82f8 7e3e c2db 783f 4a2c 083f
000001f0: bcc4 f13f 0d34 733f 05d7 cebe a69b b9bf
-0.5460155 0.21642242 -0.7014169 1.8506678 0.3997701 -1.5260057 0.19067666 -1.3302193
-1.2635049 -1.5040632 -0.649016 -0.1491017 0.17737742 -0.3872921 1.3154408 1.2338438
0.43877745 1.1908836 2.1732447 -0.37669855 0.13194774 0.60913986 0.52089995 -0.7193427
-0.25328958 -0.45436445 -1.6926131 -1.1310318 0.40789926 0.41202372 1.0632025 -0.56881034
-2.528068 1.0465912 -0.7003695 1.0639269 0.9947499 -1.5254086 1.4608998 -0.7794037
-1.6951765 -0.5096822 -0.73203564 0.47512162 -1.6419092 -1.2315052 1.7385603 -0.3555948
-0.22313662 -0.044133626 0.5037473 0.64276296 0.24203376 1.3163582 0.4076213 0.51432127
0.8156571 -0.6785671 0.5402418 -0.5555626 -0.18047157 0.49244487 1.3655152 -1.1210091
1.4567167 0.6953706 1.0552897 0.26732823 0.32321 0.25348935 0.5973792 -1.0439959
-0.5579563 0.03912105 -0.21295884 -0.09237027 1.1253638 -0.053731043 0.006337412 0.6157532
-1.2454798 1.3380734 0.87242043 -1.8345197 0.23575278 -1.8239691 -0.39627337 -1.3204573
-0.21874516 -0.28109685 0.39370885 -0.9074096 -0.7758629 0.68113184 -0.3283843 3.1819258
0.98266697 -1.0244801 0.30293915 -0.68622166 -1.2991544 0.029211326 1.8987707 0.39268103
-1.0358632 -0.26880392 -0.19262165 -0.6945471 -0.15273206 0.08423623 -0.80613434 0.56640476
0.98604846 0.4168854 -0.13699646 0.44255957 0.22039711 0.6374774 -0.8917079 -1.1853958
-1.2420228 0.24899486 0.97210324 0.5319258 1.8888164 0.950013 -0.40398422 -1.4500625

c0 f4 [128]
00000000: f4dc cfbe 4364 6cbd 9015 8ebf 5371 433e
00000010: ef98 33bf ea1e c03f c5f9 213f 472f c43f
00000020: 1ee7 653e 2588 abbf 0d09 e3be 4b05 16bf
00000030: 909e c23e 4d98 88bf 61c0 38be a009 173f
00000040: b7fa 22c0 fb2d 3b3f 705c a33f 8627 b03f
00000050: 2345 8dbf 7b72 c53e 688a 0c40 474e 54bf
00000060: 3ce7 0a40 6001 ff3d b625 a9bf e43e 13c0
00000070: a9d7 953e 5279 783e 2d54 073f 8c07 13c0
00000080: 39b0 2440 018b f33f 017d 943f 537b 573f
00000090: 55b6 883d 3207 383f 5708 873f f670 803f
000000a0: 5d9d ff3e 52e0 28be dc88 cebe 7ee9 023e
000000b0: 7854 13bf 39cc ba3c 60a9 9ebf be08 d8bf
000000c0: f868 cabd e3b6 28bd 7e24 35be 2b76 64bd
000000d0: 0585 8dbf 256f 95bd b65c 22bb 6fba a1bf
000000e0: 882e a1bc daae efbd b59b 2840 2133 c2be
000000f0: 87ca 2f3f 706d 05be 9ca6 f5be 3b55 24be
00000100: f89c 8a3f 525b 7cbf 2f2c edbe 5cc8 3e3c
00000110: 23dc 023f 7579 70be acd4 d5be d51e 4abf
00000120: c8fe b7bc cbda 273f 9730 36bf 1fa6 98bf
00000130: 8384 db3f 1255 72be 1a49 62bf 9919 e03f
00000140: c5c8 abbe 3f80 483e d4ca 07bf 1c5d 193f
00000150: 1f3c 433e e05d 233f 6a1e 29be 6af9 e9bf
00000160: fac1 2e3e d785 0fbf 0c45 5f3f 1fd2 0ebf
00000170: b506 e83f cef2 843f 6c12 863d 49ac e1be
00000180: 8087 c4be 31ee 2040 73c7 16c0 c49a c7be
00000190: 1b0e e63e a08e abbf 6882 0fbe c588 2dbf
000001a0: 9f14 0c40 817b 90be b099 fb3e 59a0 803f
000001b0: 1c54 323f f6e1 0540 5b6e 00bf 4205 e1bf
000001c0: df3f f9be b3bb 21ba 72dd aebf 67fe 2fbf
000001d0: 24d3 74bf 9325 eabe 4560 54bf 8e5e 65be
000001e0: c7ab ed3b 4df9 18c0 439a 2dbf 0608 cebf
000001f0: 87da 13bf 6434 973f d726 6dbf 3687 783e
-0.4059826 -0.057712805 -1.110033 0.19086199 -0.70155233 1.5009434 0.63271743 1.5326928
0.22451445 -1.3400923 -0.44342843 -0.58601826 0.380116 -1.0671479 -0.18042137 0.5899906
-2.5465524 0.73117036 1.2762585 1.3762062 -1.1036724 0.38563904 2.1959476 -0.8293194
2.1703634 0.12451434 -1.3214633 -2.3007135 0.29266098 0.2426503 0.5286282 -2.2973356
2.5732558 1.9026796 1.1600648 0.8417255 0.06675402 0.7188598 1.054942 1.0034473
0.49924746 -0.16491821 -0.4033879 0.12784383 -0.57550764 0.02280246 -1.2395439 -1.6877668
-0.098833025 -0.04119004 -0.17689702 -0.055776756 -1.1056219 -0.0729659 -0.0024774498 -1.263502
-0.019675508 -0.11703272 2.6345036 -0.37929633 0.6866841 -0.13030028 -0.47978675 -0.16048138
1.0829153 -0.98576844 -0.46322772 0.011644449 0.5111715 -0.23483832 -0.41763818 -0.78953296
-0.022460356 0.65568227 -0.7116789 -1.1925696 1.7149814 -0.23665264 -0.88392794 1.7507812
-0.33551612 0.19580172 -0.53043866 0.599077 0.19065903 0.63815117 -0.16515508 -1.827924
0.17066184 -0.560636 0.8721473 -0.5578937 1.8127047 1.0386598 0.065464824 -0.44076756
-0.38384628 2.514538 -2.3559234 -0.38985264 0.44932637 -1.3402901 -0.1401459 -0.6778682
2.1887586 -0.28219226 0.49140692 1.0048934 0.6965959 2.0919166 -0.5016839 -1.757973
-0.48681542 -0.0006169632 -1.366133 -0.6874756 -0.95634675 -0.45731792 -0.82959396 -0.22399351
0.0072531435 -2.390216 -0.6781351 -1.6096199 -0.5775532 1.1812863 -0.9263739 0.24270329

RNN.weight_ih_l0 f4 [512, 15]
00000000: 4fad b73d bdd1 92be 7793 c73e fc5e 023d
00000010: ac93 92bd 5b37 30be 1526 db3d 10e6 6b3c
00000020: 1db1 34be d3ea 69be 8cbe 9f3d c4d9 d23d
00000030: 997d c63d b88f 0cbc 8c17 2e3e 01c4 f3bd
00000040: 2c7f 3b3f 21ab 90bf 317c 9a3d f0c2 a9bc
00000050: c1a5 e53e caaa 36bc 5cb9 86bd ea34 513d
00000060: 1331 073f 8f55 70be 6183 1c3f 9636 7dbe
00000070: fdfa 0bbe 892e d4bc 1366 8c3e 40e7 343e
00000080: e865 993d b65f 92bd dd3b b03d e230 833d
00000090: 70a2 633e 1d25 65bd 4a81 493e 3769 873d
000000a0: aed6 4d3e a738 e13d 1c52 c43d 181e b13d
000000b0: 663b a53e 9a21 bd3e 4c0b 86be 48eb 8e3e
000000c0: d066 88bb ba2e 2b3d 7ce0 d5bc 9c4e 803e
000000d0: 296a 843d 4ece f63c 9152 80bd cbb8 90be
000000e0: 43c9 6ebc e62b 453d 296c b93d e815 9d3e
000000f0: dbd8 473d 94c8 cd3d 89e9 173d d0ab 72bd
00000100: de55 4c3d d72d b13f 630f 4bbd 7870 5abd
00000110: d0eb 293e 7dc6 aa3f c4e6 243e b7d7 61be
00000120: 326f 5f3d 70f1 07bd 73c8 f03b 6cbe 6b3e
00000130: 7cd6 273f 5460 18bf e02a a73b fbc3 15bd
00000140: cd53 8e3e 1e90 2d3e 6e35 7abd 6dce ae3c
00000150: 06fa 673e 18b0 5f3e 8410 22be 3d5e a73c
00000160: d4c2 dcba d3ae 033e b24f 1dbe e94a 233e
00000170: 9026 4fbd 6003 fa3c 8a96 d4bc 9a5a babe
00000180: 16f7 4cbe e4b2 47bd 1e73 7abd d99d d8be
00000190: 40b7 27be c0e6 be3c a46d 853c af0a 12bd
000001a0: fccc 38be 0b2c 993d 03e7 79bf 564f 123f
000001b0: c206 9cbd c403 05bd 56fb 973e 877e c43d
000001c0: d792 9c3d 8909 f13b b867 763e bdb5 063f
000001d0: f844 cabe 0cc2 49bc ee21 4b3d e689 303e
000001e0: ceb2 b83c 720c 3cbe e96d 17bb d34d 84bd
000001f0: 7dee 14bd 090a d53e a627 f6b9 7387 943d
00000200: 1a2c a2bd abe1 b53e 0eff 5c3e 5dcc 01bf
00000210: 686a 36bd 0e9a 34bd 4bb6 243d d923 ca3e
00000220: 0280 d23d a41d 283e 40f2 663c ab0c a73d
00000230: 0328 cf3e 0dfc af3e b004 093c 9dd9 7d3e
00000240: 459d a43f b005 8b3d 8231 0f3e d490 533e
00000250: 9168 5a3d 5e22 9b3e 0549 27be 6732 113e
00000260: 0dcc 9ebd 9447 62bd 122b 113d 0b9b 2dbe
00000270: 23c1 b4bd a9f5 a23d 8957 2c3d b3c7 5fbf
00000280: 2c63 aebc 249b 77bc 45ab 8c3d 9a28 91bd
00000290: 8db5 3ebe c347 abbd 1f16 863c 7815 0a3d
000002a0: e375 9abd 7d03 823d 3a8f 21bf c8fd cfbd
000002b0: 3e41 783d f852 b03c a730 04bf bfab 333e
000002c0: 80cd 84bd f948 b0bb 6a9f 28be b055 87bd
000002d0: d069 dc3d 83e2 ce3e f124 0a3f 9a8e b0bd
000002e0: 8434 bf3c 8c31 cb3d 0669 47bb 23ae a9bd
000002f0: 5149 1b3f b4e3 2b3e 5611 913c 560f 2f3f
00000300: d224 63bc d341 c43d 185e a73d 7efc 5bbe
00000310: 1b58 723e 9e42 04be af12 9d3d 9e62 573d
00000320: 1e73 ee3e 8471 59be d910 37bd 54a3 a83d
00000330: 517b 963e cba3 5fbd 89bf 963d c330 023e
00000340: a6b3 aebc 882e 74be d504 c53e 5c17 803d
00000350: 3135 c93e 09fa 943d 69cd 9f3d b46e bc3e
00000360: 2fbd c63e 70a0 9bbd 4083 9c3e 38eb 103f
00000370: 5f1e 183e 9be8 713e 42be 2ebd 6b1e e8bc
00000380: 276a b63e d8e4 093e bb88 0dbe b280 5ebc
00000390: 61f1 863d ec68 eb3c a667 723e 96f8 003e
000003a0: fe07 553d f304 16bd 03a6 a23e 31a8 7c3e
000003b0: c24c 3cbe 391b ea3c 1f41 463d 8fce 9e3d
000003c0: a313 163e eacf 423e 544a c13d 78d2 78bc
000003d0: c04e 0e3d 8b84 ab3e c908 bd3d 0111 aa3d
000003e0: 1286 bb3e 27ca 733e a22c 223e 991f b23e
000003f0: aaf3 163d 5033 e63c b380 da3d ac9c 103d
0.08968603 -0.28675643 0.38979694 0.031828865 -0.071570724 -0.17208616 0.10700623 0.014398113
-0.17645688 -0.22843485 0.07800016 0.10295442 0.096919246 -0.008579187 0.1700117 -0.11902619
0.73240924 -1.1302224 0.07543219 -0.020722836 0.44853023 -0.011149118 -0.06578323 0.051075853
0.52809256 -0.23470138 0.6113797 -0.24727854 -0.13669963 -0.025901096 0.27421626 0.1766634
0.0749014 -0.07147162 0.08605168 0.06405808 0.22229934 -0.055943597 0.19678226 0.06611865
0.20101425 0.10997134 0.095859736 0.08648318 0.3227188 0.36939698 -0.26180494 0.2791388
-0.004162647 0.04179261 -0.026108019 0.25059974 0.06465561 0.03012767 -0.06265748 -0.28265986
-0.014574352 0.048137568 0.09053833 0.30680776 0.048790794 0.10048023 0.03708795 -0.059245884
0.049886577 1.3842114 -0.04957522 -0.053329915 0.16593862 1.3341824 0.16103655 -0.22054945
0.054549403 -0.033189237 0.007348114 0.23021859 0.6556165 -0.59521985 0.0051015466 -0.036563855
0.2779831 0.16949508 -0.06108611 0.021338666 0.2265397 0.21844518 -0.15826613 0.020430679
-0.0016842731 0.12859659 -0.15362433 0.15946545 -0.050573885 0.030519187 -0.025950689 -0.36397249
-0.20016131 -0.048754588 -0.06114494 -0.42307928 -0.16378498 0.02330339 0.016287632 -0.03565472
-0.18046945 0.07479104 -0.9761812 0.5715231 -0.076184765 -0.032474294 0.29683942 0.09594446
0.07645195 0.007355873 0.24063003 0.5262106 -0.39505744 -0.012314331 0.049592905 0.17240104
0.022546198 -0.18364123 -0.0023106283 -0.06460156 -0.036360253 0.4160922 -0.00046950317 0.072523974
-0.07918568 0.35523733 0.2158167 -0.5070246 -0.04453507 -0.04409223 0.04021291 0.39480475
0.10278322 0.16417557 0.014095843 0.08156713 0.40460214 0.34371987 0.008362934 0.24790044
1.2860495 0.06788194 0.1398373 0.20660716 0.05332238 0.30299658 -0.16336448 0.14179383
-0.07753763 -0.055244043 0.035441466 -0.16953675 -0.088259004 0.07957012 0.042075668 -0.8741409
-0.021287523 -0.015112672 0.068686046 -0.07087822 -0.18623944 -0.08363297 0.01636797 0.03371188
-0.07542016 0.063483216 -0.6310917 -0.10155827 0.060609095 0.021523938 -0.5163674 0.17545985
-0.064845085 -0.005379793 -0.16467062 -0.066081405 0.1076237 0.4040719 0.5396262 -0.08620949
0.023340471 0.0992156 -0.003042759 -0.08285167 0.60658747 0.1678608 0.017708462 0.68382776
-0.013863759 0.095828675 0.08172244 -0.21483037 0.23666422 -0.12916037 0.07669579 0.052584283
0.46572202 -0.21234709 -0.0446938 0.08234277 0.29390958 -0.054599565 0.07360751 0.12713914
-0.021325897 -0.23845875 0.3848025 0.062544554 0.39298394 0.07274253 0.07802851 0.3680321
0.3881621 -0.075989604 0.30568886 0.56608915 0.14855336 0.23623888 -0.042661913 -0.028334817
0.35627863 0.13466203 -0.1382169 -0.013580488 0.06589008 0.028736554 0.23672351 0.12594828
0.052009575 -0.036625814 0.31767282 0.24673535 -0.18388656 0.028577434 0.048401948 0.07754242
0.14655928 0.19024625 0.09438005 -0.015186898 0.03474307 0.3349956 0.09230191 0.083040245
0.36625725 0.23807584 0.15837339 0.34789732 0.03685347 0.02810064 0.10669079 0.035305664

RNN.weight_hh_l0 f4 [512, 128]
00000000: bc9e bc3d ca64 203e 8e55 493d d8ea 65be
00000010: bb93 1c3e 26fd 20bd 51de 0ebe 310a 9bbd
00000020: 9f0e 53be 7738 48be 1ab7 74bd 7459 18be
00000030: aed2 f03d 7496 18bd ad4b cb3d 4c68 9fbe
00000040: 6f88 e23b c943 323c 7c95 973d 19ee fdbd
00000050: 51fd d7bd b4ac 813e 4ab0 31bc e850 f8bd
00000060: e81e a4be 498f 3ebe f5b5 943d ac94 2abe
00000070: e4fd 01bc c96f 2d3e 9626 dd3d 6048 873b
00000080: 3bd2 98bd 63fa 873c 34c8 f03d f9dc 5d3e
00000090: ab5d f43d be48 fa3d c7c7 e1bd fa71 4cbe
000000a0: 8459 9dbd f9a4 a6bc 9a98 463d b6f1 723e
000000b0: 2f9e d0bd 20c2 81bd 3fae f83d 5ab8 7dbe
000000c0: e802 10bf d640 31bd d4cf 15be 9bcf e83d
000000d0: 701c 7c3e de55 2cbe 2d2e 983d e0e2 47be
000000e0: d4d2 52be 916a 493e e855 1c3e 0b96 c33d
000000f0: 1faf c9bd 75cf 5b3e 875b e33d 72b9 1d3e
00000100: b0a7 973c 851f 203e 65e2 233e 9ed3 d93d
00000110: 97a1 1fbd 2589 2bbc 08d2 4c3d fd02 8abd
00000120: 9000 7c3e 6d84 ea3e f68b 8abd a2cd d23d
00000130: 5b78 30bd 7bd9 313e c640 2f3e 0136 2b3b
00000140: 4e88 5a3c 3d3f 213e 9f54 623d 12ec 32bd
00000150: 78a1 0c3b 6036 f43d ed02 9a3e 13e1 bcbd
00000160: 1129 6ebe 4605 6dbd 22a8 67be b661 aabe
00000170: 2c4c fd3d b56b 1f3d 9a57 c4bd 069c 573d
00000180: eba9 fc3d 5106 f73c 8842 e23b 5e7f b1bd
00000190: 462b 49be d01c 16be 380d 693e 1003 8c3e
000001a0: a00d 9f3b f6a8 f6bd 44ab e1bd 8dc1 78bd
000001b0: 7f5a ccbe b4a6 063e 026c c7bd 64c5 ae3e
000001c0: 4707 333e bfe2 d03e 00f5 56be b4f8 263e
000001d0: 25b8 4abd 2899 39bd f84a 0e3e 24b6 ea3c
000001e0: bce5 2dbd ab19 22bc f745 c3be 28f6 173d
000001f0: a455 62bd 1b82 063e 225e 883d 1840 de3d
00000200: 905d 56be bffc 9ebd 8dda 21be a745 bbbd
00000210: 6541 a1bd 0d08 a5be 8f92 2abf c1c9 023e
00000220: 652e cebd ad86 84bd a600 063e 2a5e dcbc
00000230: e57f 99be b2a4 63be 7058 0f3e 65e7 e7bc
00000240: 3d5d 08be e858 0abd 1b1b 813c fe3b eb3d
00000250: 6611 ad3e c2ba 123e ed4b 04be 8de8 86bd
00000260: c51b 0fbe df3b 3abd 28aa c13c 149c d93d
00000270: a185 a83e ba41 eebc c9cb 6f3e 1322 e9bd
00000280: 072b 673e 82b1 093d a26a d3bc 5d05 3d3e
00000290: 93de 5fbe 1c06 c33d 9a49 b9bc 9a0b 7f3d
000002a0: 47c5 f5bd 032f 20be 9fbc 30bd 3224 323e
000002b0: 5b0b 8c3d 26b5 243e 0270 05be 7664 1a3e
000002c0: fa5d 86be b5db 18bd 1d57 40be fa22 f3bd
000002d0: 7079 11bd 0693 de3d 5fc2 a6bc 636a 86be
000002e0: 5d4f 3f3d 510c 983c 7892 e2bd 2364 45be
000002f0: be46 d8bd 0783 7dbc b7b9 fabd 52a6 f83d
00000300: 8c24 79bd 2db2 a6bc fdb2 87be 635e 033f
00000310: 3b6c abbe 5c50 783e ca8e cbbd a6ae 4f3d
00000320: d494 333e 42b4 4e3c eb72 0abe 2e36 4a3d
00000330: 70f6 86bd 92fa 4a3d 4a8b d93c 9890 643d
00000340: 3204 ba3d 74fa e3bd da7f 063f 811c 603e
00000350: c146 863e 1175 5c3d c4dd 4abe cb30 d1bd
00000360: 22d0 fa3b b672 e73d 2e3a e0bc 3967 44bc
00000370: fbde 9b3d 1a3c 21be de49 3ebd 9285 77be
00000380: b21a c2bd 8cc1 4fbd c904 283e 2a18 433e
00000390: bafe 56ba 9df2 19be 35fc 793d 889b be3e
000003a0: b501 993e 2f20 cbbc 48a9 21be 603c 78be
000003b0: 5d76 753d 6be3 cdbe ff6b 8e3e 61e5 273e
000003c0: a4b0 12be 1b71 023e f1dd 183e e884 f63d
000003d0: 6cc6 953e 5db7 9d3e b056 a03d f08b bf3d
000003e0: 2f97 da3d 3c63 aebd 40e5 d83d a313 12be
000003f0: d2fd 8abe 7fb7 9dbd d5eb 89be 6e70 4d3d
0.09209964 0.15663448 0.049153857 -0.22452867 0.1529073 -0.03930392 -0.13951994 -0.07570303
-0.20611046 -0.1955279 -0.05974493 -0.14877874 0.11758934 -0.03725286 0.099265434 -0.3113426
0.006913237 0.010880419 0.07401559 -0.12398929 -0.10546363 0.25327075 -0.010845253 -0.12124807
-0.3205483 -0.18609346 0.07261268 -0.16658276 -0.007934067 0.16937174 0.10798375 0.004128501
-0.07461973 0.016598886 0.11756936 0.21666326 0.11931928 0.12220906 -0.11024433 -0.19965354
-0.076830894 -0.020342337 0.048485376 0.23725018 -0.10186421 -0.063358545 0.1214261 -0.24777356
-0.56254435 -0.043274723 -0.14630061 0.113677226 0.24620223 -0.1682963 0.07430682 -0.1952014
-0.20588237 0.19669558 0.15267146 0.09550103 -0.09847855 0.21465857 0.11101442 0.15402773
0.018512577 0.15637024 0.16004331 0.10636066 -0.038972463 -0.0104697095 0.05000499 -0.06738851
0.2460959 0.45804158 -0.06764977 0.102931276 -0.04308353 0.17368118 0.17114553 0.0026124718
0.013338162 0.1574678 0.055256482 -0.043682165 0.0021458548 0.11924434 0.30080357 -0.09222617
-0.23257853 -0.057866357 -0.22622731 -0.33277673 0.12368044 0.038921077 -0.09587021 0.05263903
0.12337097 0.03015438 0.006904904 -0.086668715 -0.19645414 -0.14659429 0.22758949 0.27346087
0.004853919 -0.120439455 -0.110189945 -0.06073146 -0.39912793 0.1314953 -0.09737398 0.34134972
0.17483245 0.40797994 -0.20991898 0.1630581 -0.04949202 -0.045312077 0.13895786 0.028651305
-0.04245542 -0.009893815 -0.38139316 0.037099987 -0.055257455 0.13135569 0.066585794 0.10852069
-0.20934129 -0.07763051 -0.15806027 -0.091441445 -0.07873801 -0.32232705 -0.6662988 0.12772276
-0.10067443 -0.06471 0.13086185 -0.02690037 -0.29980388 -0.22230795 0.1399858 -0.02830858
-0.13316818 -0.033776194 0.015759995 0.11486052 0.33802336 0.14329055 -0.12919588 -0.06587324
-0.13975437 -0.045467254 0.023640707 0.10625473 0.3291445 -0.029084075 0.23417582 -0.11383452
0.22575007 0.03361655 -0.025807682 0.18459077 -0.21862249 0.0952265 -0.022618104 0.062266923
-0.12000518 -0.15642934 -0.043148633 0.1739662 0.068381034 0.16084728 -0.13031009 0.15077385
-0.26243573 -0.037318904 -0.18783231 -0.118719056 -0.035516202 0.10867886 -0.020356355 -0.26253042
0.046706546 0.01856056 -0.11063093 -0.1927648 -0.10560368 -0.015473134 -0.122424535 0.12141098
-0.06082587 -0.020348633 -0.26503745 0.513159 -0.3348101 0.24249405 -0.09939344 0.050703667
0.17537242 0.012616219 -0.135204 0.049368076 -0.06589973 0.04955537 0.026555676 0.055801958
0.090828314 -0.111317545 0.52538836 0.21885873 0.26225856 0.05382258 -0.1981116 -0.10214385
0.007654206 0.11301176 -0.027371492 -0.011987501 0.076108895 -0.15745583 -0.046457164 -0.24172047
-0.09477748 -0.05072169 0.16408075 0.19052187 -0.00082014094 -0.15033956 0.06103154 0.37228036
0.29884115 -0.02479562 -0.15787232 -0.24241781 0.059927333 -0.4021257 0.2781677 0.16396095
-0.14325196 0.12738459 0.14928414 0.120370686 0.29252946 0.30803958 0.07829034 0.09352863
0.10673367 -0.08515021 0.10590601 -0.14265303 -0.27146775 -0.07701015 -0.26937738 0.05015605

RNN.bias_ih_l0 f4 [512]
00000000: b7d0 a8bd 6cdb a63c 8f40 ad3e b7c0 4e3e
00000010: f959 0f3d d846 0f3c e849 3bbe 9f6f 383e
00000020: e2c0 d33d d0cd e23e f6aa 59be 3556 41bd
00000030: 5b2a 0b3e fccf 54be 4450 fc3e 2bd8 c6bd
00000040: cecc ee3e 5bc1 5ebd bb2e 163e 095e 903e
00000050: f0e3 7e3e 1851 323e 92ca a73e 2088 e73c
00000060: 83fa 0cbe 2065 e2bc 6d4b 37be 430a cabc
00000070: d0dc 8f3e 39f3 1dbd 5212 413e 04dd 653c
00000080: 1c9f d1be 46f8 cd3e 267f bbbe db35 0d3d
00000090: 69d8 803e 5e7e e5bd 41a2 4dbc c0be 093e
000000a0: 260c 9b3e 5eac e93e 1e2f 21be dde6 d1bd
000000b0: c828 a1be acdd 483e 87f2 263e 65d4 343e
000000c0: 88b3 4b3e 7151 2e3e 3b4d a2be 3e93 de3d
000000d0: 5769 443e ee08 0fbe 2e62 1d3e 16e8 4abe
000000e0: 4319 9fbd ebd3 98bd 744b a0ba ab45 2bbd
000000f0: c712 853e 8b75 9f3d c3ee 35be 7b60 a63c
00000100: 190b a13e 2ba6 c9bc e519 8e3d 3a84 9bbd
00000110: 9757 e03d 4e3d 9b3d 0315 5dbe 1849 1f3e
00000120: 344a edbd 4166 5bbe 5683 653e 3cd3 433e
00000130: e9b7 8c3e 5bf2 673d 0c95 32bd f239 8c3d
00000140: 7a76 533e 7448 47be 3d8a 0ebb 1d35 7cbd
00000150: 2732 833c ebc8 68bd 7f46 33be 25a9 b33b
00000160: 54ad 2a3e 6c8d 273b 50e2 0abe eb84 9d3e
00000170: 74c9 eb3e 8935 c53d 3aee 213e 5bed e3bc
00000180: 3b40 3a3e 74f7 35be f97d 6d3e 1b43 7ebe
00000190: 58e5 f0bd 2319 093e ee70 013e 575e 173d
000001a0: 7e67 11bc 0f8b a03e cd50 cc3d 8ff0 0e3f
000001b0: dd0f 5fbd 4a8c b1bd 5a97 1c3d 3598 d8bd
000001c0: 83c0 223e 7549 a3be 6248 cc3d 7d28 32bc
000001d0: ec1e 3bbe 3c9b 883d 700c 84be 14b2 23be
000001e0: 6ac4 bc3d 6265 71be 29f6 6dbe 1b5f 6a3d
000001f0: 69e8 93bd 0848 323e c7a3 243e 48bb cebc
00000200: b59b e43d bcb1 dabd 4151 3c3e debc 94be
00000210: ef22 073e 1ce0 f93d 3eb3 013e 423f a9be
00000220: bbd2 febd b862 adbd 75fc 10be 4796 b6bd
00000230: 85dd 69bd e6bb 7cbd d928 07be ec7b de3a
00000240: d26c 94bb a3de 95be ba0a abbe f29f a83e
00000250: 8c93 0e3e 12a2 fbbe ec93 a6be c07e a4bd
00000260: d68e d63d 8c2b 5bbd 2026 0d3e 9758 4abe
00000270: 64ad 66bd 3f15 96be bfc0 0abe 4286 283e
00000280: d390 83bd 0bf6 6fbe 0b3f 103e cf7d 1cbe
00000290: 72e5 20be c62e aabe edaf a2be 8c7d 793e
000002a0: bc55 a33e a54b d9be cba1 0fbe f774 8dbe
000002b0: f670 88be 1c31 873e 17af 713e 12da 4e3e
000002c0: 2809 48be 3b18 873e 4e91 aebe ecf8 b03d
000002d0: e7bf 7f3e 927d 03be 62e4 9abd c221 563e
000002e0: 76bd 5ebc 3450 073d 8cc9 8abe 52e4 453e
000002f0: 9ace 80be 8be7 023e e986 ea3d 0f01 6bbd
00000300: eb61 acbe 39bf 87be 05a1 183e 8878 5e3d
00000310: 97b3 fb3d 835f 11be 90a0 cebd b3f7 68bd
00000320: 14cc 9cbd aaa4 d2bd 984b ae3d 5bc5 6abd
00000330: b94e 9e3e 194c 46bd 430b f1bd 79ab 91be
00000340: 13d4 5e3e 68d7 093d 24f8 963d d139 95bd
00000350: 0731 a8bd 9fe4 0abe 47f2 86be dcda 80bd
00000360: e252 8b3e ee75 0e3e 9b6f e5bd 5c29 16be
00000370: 121b fbbe e367 82bd 4216 ba3e 55d4 9a3d
00000380: 09d4 10be 8832 ae3e d711 273d ce34 163e
00000390: 3e59 fdbd af13 ae3d 2e5c 233e 183d 0cbe
000003a0: c583 a7bd 558f 9b3e 948d ac3e 96f2 88be
000003b0: 4fae ddbd 7f75 9abc aef1 f03c 450f 3f3d
000003c0: 2cda 1abe 390e 67be f46f e53d 05cd b3bd
000003d0: 7d53 033e 93e0 923c 4418 ebbd 93dc 13be
000003e0: a0cb c83d 4e41 813e bcd1 aabd 334f e43a
000003f0: ce1f 4d3e 9120 10be 3bb6 b23d bdcd 15be
-0.08242934 0.0203683 0.33838317 0.20190702 0.034997914 0.008744918 -0.18289912 0.1801133
0.10339524 0.44297647 -0.21256623 -0.047201354 0.13590376 -0.20782465 0.49279988 -0.097091995
0.4664063 -0.054383617 0.14666264 0.28196743 0.24891639 0.17413747 0.32771736 0.028263152
-0.13767438 -0.02763611 -0.17899866 -0.024663096 0.28098154 -0.038562033 0.18854645 0.014029745
-0.40941703 0.4022848 -0.36620444 0.03447519 0.25165108 -0.11205743 -0.012550891 0.13451672
0.30282706 0.45639318 -0.1574063 -0.10249112 -0.31476426 0.19615811 0.16303454 0.17659147
0.19892704 0.17023255 -0.31699547 0.10867928 0.19180809 -0.1396825 0.15369484 -0.19815096
-0.0776849 -0.07462295 -0.0012229518 -0.041814487 0.25990888 0.077860914 -0.17766862 0.020309677
0.3145378 -0.024615368 0.06938533 -0.075935796 0.109542064 0.07580052 -0.21590047 0.15555227
-0.11586419 -0.21425726 0.22413382 0.19123548 0.27484062 0.056627613 -0.043599173 0.0684699
0.20650664 -0.19461232 -0.0021749877 -0.06157409 0.016015125 -0.056832235 -0.17507361 0.00548281
0.16667682 0.0025566472 -0.13562894 0.3076547 0.46052134 0.09629352 0.15813532 -0.02782314
0.18188564 -0.17770177 0.23192586 -0.24830286 -0.11762494 0.13388495 0.12640736 0.036955204
-0.008874772 0.31356093 0.09976349 0.55835813 -0.054458488 -0.08669336 0.038230278 -0.10575906
0.1589375 -0.3189198 0.099747434 -0.010873911 -0.18273515 0.066702336 -0.2579074 -0.159859
0.092171505 -0.2357383 -0.23238434 0.057219606 -0.07222063 0.1741029 0.16078101 -0.025235787
0.11162511 -0.106784314 0.18390371 -0.29050344 0.1319692 0.122009486 0.12666032 -0.33056074
-0.124425374 -0.08466095 -0.14158805 -0.08915382 -0.057096023 -0.06170263 -0.13199176 0.0016974187
-0.004529574 -0.2927142 -0.3340662 0.3293453 0.13923472 -0.49147087 -0.3253473 -0.08031988
0.104764625 -0.053508326 0.13784075 -0.19760357 -0.056317702 -0.29313084 -0.1355009 0.16457465
-0.064241074 -0.23433702 0.14086549 -0.15282367 -0.15712526 -0.3323881 -0.31774846 0.24364299
0.31901348 -0.42440525 -0.14026563 -0.276283 -0.26648682 0.26404655 0.23601948 0.20200375
-0.19534743 0.26385674 -0.34095234 0.08641228 0.24975549 -0.1284087 -0.07563092 0.20911315
-0.013594976 0.033035472 -0.27106893 0.19325379 -0.25157624 0.12783639 0.11451513 -0.057374056
-0.33668455 -0.2651308 0.14905174 0.054314166 0.122901134 -0.14196591 -0.100892186 -0.05687685
-0.07656112 -0.102853134 0.08510512 -0.05731712 0.30919436 -0.048412416 -0.11769726 -0.28451136
0.21760587 0.033652693 0.07371548 -0.07286418 -0.08212476 -0.13563775 -0.26356718 -0.06291744
0.27211672 0.13912174 -0.11202928 -0.14664215 -0.4904409 -0.06367471 0.36345106 0.0756003
-0.14143385 0.34022927 0.040788498 0.14668581 -0.12370537 0.08499848 0.15953133 -0.1369518
-0.0817943 0.3038279 0.33701766 -0.26747578 -0.10824262 -0.018854855 0.029412117 0.04664542
-0.15122288 -0.2256402 0.11202994 -0.08779339 0.12824817 0.017929351 -0.11479238 -0.14439611
0.098044634 0.25245136 -0.08340785 0.0017418623 0.20031664 -0.14074923 0.08726164 -0.14629264

RNN.bias_hh_l0 f4 [512]
00000000: 80e1 13be 0fc2 af3d f006 9b3e d170 863d
00000010: dcbb eb3c 447f 243b efc9 98be f2aa 753e
00000020: 08bf a43d 5b1d db3e 4e1f 45be eb9d 7d3c
00000030: 7710 1b3e 24f1 1cbe f636 093f 40dd 28be
00000040: 0bde af3e dbad 57bd d40b 4e3e d029 a63e
00000050: 6f49 673e 2cba b43d 20ca b73e b462 88bd
00000060: e9c7 27be d405 2ebd b638 b3be 2b2d 10bd
00000070: a3f5 893e 962a 81bd 4531 8c3e 6d79 ee3d
00000080: 101e d6be e8bd ad3e be5d 66be 7fc4 59ba
00000090: 6925 283e ae8e ffbd 37d9 e03d 00d0 db3d
000000a0: 5715 813e 5523 033f 92af 79be c6fe 61be
000000b0: 5ca2 85be 0108 143e 51c0 8f3d b9ac d93d
000000c0: a550 593e e00c a43d 5724 babe c274 cf3d
000000d0: 3197 223e 569a 2abe 79a1 023e 7a6a 7fbe
000000e0: 4c60 0abe 9633 68be 6d0a 51bb 212d 193d
000000f0: 83ff e03d 73f9 933c 08e5 2cbe db6b b33d
00000100: 9e1d 993e 6370 d03d 1512 083e 669b 9abd
00000110: 96e8 e43c 79eb b03d 6ea2 46be 9250 1f3e
00000120: c67f 60bd 3627 a1bd e495 853e b254 293e
00000130: e2bb 963e e436 41bd 824e 40be 52b3 78ba
00000140: ae00 403e 261c 38be 96d6 7ebd aa5b ddbd
00000150: 7044 3e3c ad41 ffbb 1de6 85bd 0577 8dbd
00000160: b1e6 2c3e 0697 8c3c f572 24be 4ed6 743e
00000170: 7f0b be3e abf4 8b3d 0c95 333e f559 bebd
00000180: edb6 4f3e 0692 8fbe a5d6 463e 4289 95be
00000190: 4b6a 21be 7433 a43d 7d48 7d3e 7a43 8d3d
000001a0: c2dc 503b 70ed a33e 71ab 223e b0fd 113f
000001b0: 5af2 26bd 733a 23be aaca 0abd 723a 42be
000001c0: 86f9 313e 2190 47be cb7f e23d 303d 7bbd
000001d0: 87a0 3fbe 4e34 ab3c d9b7 8abe 061b 6ebe
000001e0: 879e 823d 3f82 72be fab6 85be ec80 e9bc
000001f0: aafc 54bd 3b58 033e 29d2 3e3d 8fb6 d5bc
00000200: ee82 213e 79a1 08be 1be0 2b3e 820d 2cbe
00000210: a601 4fbb 3d4a 153e a90e 593e 2894 a9be
00000220: 9e47 ec3c ff96 12bd 7ac9 27be a7b4 c33c
00000230: c6b6 ccbd cd9b 80bd 5596 99bd be21 f6bc
00000240: c9c7 c8bd 5994 4bbe f977 38be aaa4 9f3e
00000250: 98e0 3f3e 3ce5 03bf 5e76 94be 75db 90bd
00000260: 9b73 2c3e ed77 32be a45b 423e 2267 4dbe
00000270: 83b2 fbbd 760e b7be ec20 34be 5def 703e
00000280: 8246 c0bd 478b 3dbe ca81 f63c 4376 84be
00000290: f581 3abe bcf3 9ebe d63e b0be e81e 8a3e
000002a0: d682 a43e 89a2 e3be 5fd9 48be d8bd 84be
000002b0: 1733 91be 0dc9 503e a20c 0f3e c1c0 f33d
000002c0: ab24 47be 4573 793e 2981 aebe 0f78 a03d
000002d0: 68e0 543e 04f5 29be b8ab 3abd bff4 573e
000002e0: bb85 c1bd 7843 883d f350 61be bb35 853e
000002f0: 0567 22be 5718 843d 26a9 163e d653 6fbd
00000300: a19b 42be 60ba a6be 58c0 3f3e 1935 083e
00000310: ee87 1d3e 8982 1abe 8f1f e13c d6d3 bc3d
00000320: 3971 56bd 91a4 4f3d 354b 303e d9e7 d0bd
00000330: 9382 a53e 3674 2abd cac4 15be 1afa 3fbe
00000340: 57e4 923e 6673 4fbd 9016 093d 6780 14be
00000350: 45c9 75bb 7768 1bbe 7f24 b4be a99b 0dbe
00000360: 2535 003e 4d37 193d e24d e8bc 0b35 18be
00000370: a186 e7be aa4d 923d febf 913e e482 33bd
00000380: d13e 1fbe fb4a d93e f748 7cbc abf1 b33d
00000390: 5f8c cfbd 7a4e 283e c16a 933e 15ae abbd
000003a0: 39ea a5bd f637 983e d81a 863e fde1 afbe
000003b0: 93bc dabb 74fb 9e3d 50dd 813d 9a2c c53d
000003c0: 1749 75be f3b9 5ebe b576 623e cad2 44bd
000003d0: 8b07 4d3e 0fa8 5c3d d2e1 a0bd d3a3 bebd
000003e0: cc98 dd3d 2d76 053e 9fa2 d6bc 0b11 f8bd
000003f0: b052 1b3e 2c15 8dbd 14e1 cf3d 4bd2 6ebe
-0.1444149 0.085819356 0.3027873 0.06564487 0.028776102 0.002510027 -0.29841563 0.23990992
0.08044249 0.42795834 -0.19250223 0.015479545 0.15143 -0.15326363 0.5359949 -0.1649065
0.34349093 -0.052656036 0.201217 0.32453775 0.22586606 0.08824572 0.35896397 -0.06659451
-0.16384853 -0.042486027 -0.35004205 -0.035199326 0.26945218 -0.06306951 0.2738134 0.11644254
-0.4181981 0.3393395 -0.22496697 -0.0008307173 0.16420521 -0.12478386 0.109789304 0.10733032
0.25211594 0.5122579 -0.24383381 -0.22069845 -0.26100433 0.14456178 0.07019103 0.10628647
0.2122217 0.08010268 -0.3635585 0.10129692 0.15877987 -0.16660437 0.1275691 -0.24942961
-0.13513297 -0.22675928 -0.0031897083 0.037396554 0.10986235 0.018063283 -0.16884243 0.08760806
0.2990541 0.10177686 0.13288148 -0.07549171 0.027942937 0.08638663 -0.193979 0.15558079
-0.054809354 -0.07868807 0.2609092 0.16536215 0.29440218 -0.04717149 -0.18779948 -0.000948717
0.1875026 -0.17979488 -0.062216364 -0.10808499 0.011612996 -0.0077898116 -0.06538031 -0.06907467
0.16884877 0.017161857 -0.16059478 0.23909876 0.37118146 0.06833776 0.17537326 -0.09294502
0.20284624 -0.28041095 0.19417818 -0.29206282 -0.15763204 0.080176264 0.24734683 0.06897636
0.0031869863 0.32017088 0.15885712 0.5702772 -0.04075847 -0.15940265 -0.03388468 -0.18967608
0.17380342 -0.19488575 0.11059531 -0.06133765 -0.1871358 0.020898964 -0.2709339 -0.23252496
0.06377893 -0.23682497 -0.26116163 -0.028503858 -0.05199877 0.12826626 0.046587143 -0.026088027
0.15772602 -0.13342847 0.16784708 -0.16802028 -0.0031586676 0.14579101 0.21196999 -0.33120847
0.028842743 -0.035788532 -0.16385451 0.023889853 -0.09995799 -0.06279717 -0.07499377 -0.030045386
-0.09803731 -0.19880809 -0.18014516 0.31180316 0.1873802 -0.5152166 -0.28996557 -0.07073108
0.16840975 -0.1742856 0.1898027 -0.20058873 -0.12289908 -0.3575322 -0.17590684 0.2352881
-0.09388448 -0.18510161 0.030091185 -0.25871477 -0.18213637 -0.3104533 -0.3442294 0.26976705
0.3213107 -0.44459942 -0.1961417 -0.2592609 -0.2835929 0.20389195 0.13969663 0.11901999
-0.19447581 0.24360378 -0.34082916 0.07835399 0.20788729 -0.16597372 -0.04557392 0.21089457
-0.09449335 0.06653494 -0.22003536 0.26017556 -0.15859611 0.06449955 0.14712963 -0.05842956
-0.1900468 -0.32564068 0.18725717 0.13301505 0.15383884 -0.15088858 0.027480869 0.09220092
-0.05235407 0.050694052 0.17216189 -0.102004714 0.32326183 -0.041614734 -0.1462585 -0.1874775
0.28689834 -0.050647162 0.033468783 -0.14502107 -0.0037504 -0.15176569 -0.35184094 -0.13828911
0.12520273 0.037406255 -0.02835745 -0.14863984 -0.452199 0.071437195 0.2846679 -0.043826
-0.15551306 0.42440018 -0.015398256 0.08786329 -0.101341955 0.16436186 0.28792384 -0.08382813
-0.08101315 0.29730195 0.26192355 -0.34352103 -0.006675312 0.077628046 0.0634104 0.09627648
-0.23953663 -0.21750621 0.22115596 -0.048052587 0.20022409 0.05387121 -0.07855572 -0.09308591
0.10820159 0.13033362 -0.02620059 -0.12112626 0.15168262 -0.06888804 0.10150352 -0.23322408

actor.weight f4 [5, 128]
00000000: 1055 2abe a770 5c3e 192f 9a3e 053b e2be
00000010: 849d 4e3f c847 8e3e 1a7f 133d ff4b f8be
00000020: 046f 263e f2ec b73e c437 94bd d33f f5bd
00000030: 605c dcbd 77bd 8c3e be93 62bf 782b 17bf
00000040: ac6d e4be 3bd1 193e 9db1 213c bf93 123f
00000050: 0ab6 3bbf 2950 ddbe 690e 5e3f 8975 e03e
00000060: 50fa 13be 97d2 bc3e 048a 783e 77bc a33d
00000070: 388a c13e afc4 243f c7f9 d73e ac60 28be
00000080: c3bb 9a3e a02e f2be 73a4 273f b339 41bf
00000090: 47f0 66be d7f6 493f 9068 303e e27f 263f
000000a0: 6fd1 dd3d b2b0 1f3f 1c20 8fbe 591f fe3e
000000b0: ed8a 36bf 14da e33e 04e5 84be 4fd1 4c3e
000000c0: 8f21 48bf be67 ec3e 4a80 89be 5398 10bf
000000d0: 96df 97be 6186 18be 0660 29be 41db 18be
000000e0: 40a6 82be 208c f43d 7a5f 893c 05e5 7abe
000000f0: 4f51 d23e 6f7b 643f c539 0abe 3b43 47be
00000100: 430a 163f d32a 32bd 7a71 edbe 8d16 69bf
00000110: d2a4 afbe 38a5 9d3d 0a0d ce3e 8998 003f
00000120: 8219 93be 3a5f 4b3e bd72 e0be 0a1a 083f
00000130: d479 af3d 8d8e acbe b585 e93e 0c94 c0be
00000140: 432e a8bd e55b bf3e c32f 62bf 1c29 43bd
00000150: e59c 5bbf 9ad8 9a3e d64f a63e 1366 d9be
00000160: a56f 833e d1b0 f23e 20cc e93e f1c4 053f
00000170: 0f5f 1abf e4b4 7a3f 06b2 d7bd 04c9 7e3f
00000180: fe28 d33d c6ad 91bd 9957 f8bd 2a75 a53e
00000190: ce22 c9be c558 6fbd 00c5 d2be 1f4f 0c3e
000001a0: 7abf 803e 97b6 15bf 1dd6 09be 2b68 6b3f
000001b0: 8a1c 8ebe 6c92 813f 7313 85bf 057a 3bbe
000001c0: b794 bcbe ad5c 813d a755 d3bd 6e48 213e
000001d0: 3685 e1be 2052 ec3e 3f99 a8bc c865 b23e
000001e0: c229 01bf 6814 d3be 3268 fbbe 6d4c 38be
000001f0: d099 d9be 292c 13be 2a85 8abe f659 debe
00000200: 168a acbe cfb2 343f 3817 ac3e 38f8 093e
00000210: 7ccc 85bf 1680 f7be 7c13 45be 1260 e9be
00000220: 1b91 2abf d3eb 0d3f 4f9d dabe 5306 823c
00000230: 08bb 2abf d05a 42be e89a 103e 3769 723e
00000240: b252 333f eaf3 cb3e 23cd 4b3f 0bcd db3e
00000250: cf78 273f c207 17bf 3f4b e83d 6632 573e
00000260: 5e35 8a3d 0c34 8d3e b816 173d e7aa b13e
00000270: b4ca cb3e 7d63 26be 37f4 b3be bc7c ebbe
00000280: 28f2 a33e 57f1 1dbf 497e 4cbf 6dbb 8dbd
00000290: 82b3 9abe fee7 4fbf 8e9c 46bc fc26 c63e
000002a0: 254a 013d b013 113f 36d7 8a3e ab60 fcbd
000002b0: fe7e f0bd 5256 ea3e 07de 9cbe 86bd 3f3e
000002c0: 503a 593f 4599 c13e b577 1cbe 2c9f b5be
000002d0: c5c7 4ebe 26bf 053e b42a 9b3e 0c4d de3d
000002e0: 9236 a83d 5359 49be 2edc 403f b7e1 c0be
000002f0: 87a9 273f ab45 00bf 739c 3abe ce0b 4ebe
00000300: 3ea7 dc3e c80b b3bd 68ac cabe 808b 1a3f
00000310: ae34 79be 43f1 d8be e142 8f3e 4a56 df3e
00000320: ba06 0ebd cb54 74be 8e91 6fbd abf2 69bf
00000330: 0ef6 fa3c f8e0 2c3f a0ee a13e f208 60bd
00000340: 3670 6b3d 8217 24bf f357 4b3f ce0f a3be
00000350: d18f 6c3f d0e3 a73e 142b dfbe 940a a43c
00000360: cc93 4e3e cae4 cd3e 3fe2 afbe c116 aa3e
00000370: 98b7 febe b4c0 e0be caec ea3a b252 81bf
00000380: afc1 3d3f e49c 113e bedc cc3e de5c 9e3e
00000390: 6c3c bfbe ca8e bdbd 2d77 a8be 5c05 0cbd
000003a0: 3610 c13c e489 083d 06ff b0bd f0f8 80bd
000003b0: 3754 babd 075a 62bf caf5 423f 30f3 143f
000003c0: 5c2e d2be aee9 763e 4ce5 14be 7556 d93d
000003d0: 8741 203f 9af7 be3e 3a70 d43d 453f 933d
000003e0: 5991 a83f 8a81 053f 6772 eb3e 67e6 debd
000003f0: 9d33 a1be 8d06 113b 1b22 b8be a5aa 5fbe
-0.16634011 0.21527348 0.30114058 -0.44185653 0.807091 0.2778914 0.036009885 -0.4849548
0.16253287 0.35922962 -0.07237199 -0.11975064 -0.10759807 0.274883 -0.88506687 -0.59050703
-0.44614923 0.15021221 0.009869006 0.5725669 -0.73324645 -0.4322522 0.8674074 0.43839672
-0.14450955 0.36879417 0.24271399 0.07994931 0.37800765 0.64362615 0.42182752 -0.16443127
0.30221376 -0.47301197 0.65485305 -0.7547867 -0.22552596 0.7889227 0.17227387 0.65038884
0.10830962 0.6237899 -0.27954185 0.4963329 -0.71305734 0.44502318 -0.25955975 0.2000172
-0.78176206 0.461729 -0.2685569 -0.5648243 -0.2966277 -0.14895011 -0.16540536 -0.14927389
-0.25517464 0.11940789 0.01676916 -0.24501427 0.4107766 0.89250845 -0.134986 -0.1945924
0.5860941 -0.04349787 -0.46375638 -0.91050035 -0.34305435 0.076975286 0.40244323 0.5023275
-0.28730398 0.19860545 -0.43837538 0.5316473 0.08568159 -0.33702508 0.45609823 -0.3761295
-0.08211949 0.37374797 -0.8835413 -0.047646627 -0.8578628 0.3024338 0.32482785 -0.4246069
0.25671116 0.47400525 0.45663548 0.52253634 -0.603013 0.9793227 -0.10532002 0.99525476
0.10310553 -0.07113223 -0.12126083 0.32315952 -0.39284366 -0.058434267 -0.41165924 0.13702057
0.25146085 -0.58481735 -0.13460584 0.9195582 -0.2775615 1.012281 -1.039656 -0.18308266
-0.3683221 0.063165046 -0.10319071 0.15750286 -0.44046944 0.46156406 -0.020580886 0.34843278
-0.5045434 -0.41226506 -0.49102932 -0.17997904 -0.42500162 -0.14372315 -0.2705472 -0.4342801
-0.336991 0.7058534 0.33611465 0.13473594 -1.0453029 -0.4833991 -0.19245714 -0.45581108
-0.66627663 0.55437964 -0.42698142 0.015872156 -0.6669164 -0.18979955 0.14121592 0.23672949
0.7004806 0.3983453 0.7960989 0.42929873 0.65418714 -0.5899621 0.11342477 0.21015319
0.0674846 0.2757877 0.0368869 0.347007 0.39803088 -0.1624889 -0.3514726 -0.45993602
0.32020688 -0.6169638 -0.79880196 -0.06920514 -0.3021508 -0.81213367 -0.0121222865 0.38701618
0.03156485 0.56670666 0.27117318 -0.123231255 -0.11742972 0.45768982 -0.30638143 0.18724641
0.848546 0.37812248 -0.1528004 -0.35473 -0.20193394 0.13061199 0.30306017 0.10854539
0.082135335 -0.1966298 0.7533597 -0.37672207 0.65493053 -0.50106305 -0.18223743 -0.2012169
0.43096346 -0.087424815 -0.3958466 0.6036911 -0.24336502 -0.42371568 0.27980712 0.4362052
-0.034674384 -0.23860471 -0.05848842 -0.91385907 0.030634906 0.67530775 0.3162737 -0.05469603
0.05748006 -0.6409837 0.79431075 -0.31847996 0.92406946 0.32790995 -0.43587554 0.020024575
0.20173568 0.40213615 -0.343523 0.33220485 -0.49749446 -0.4389702 0.0017923352 -1.0103362
0.7412366 0.14220005 0.40012163 0.30930227 -0.37350786 -0.092557505 -0.32903424 -0.0341848
0.0235673 0.033334628 -0.08642392 -0.06297481 -0.09098094 -0.8841862 0.76156294 0.58183575
-0.41050994 0.24112579 -0.14540595 0.106121935 0.62599987 0.3729828 0.10372968 0.07189802
1.3169357 0.52150786 0.4598572 -0.108837895 -0.3148469 0.0022129149 -0.3596352 -0.2184244

actor.bias f4 [5]
00000000: 9a89 a13e 9778 1c3e 4268 0cbe fe73 b03c
00000010: 47e5 b73e
0.31550294 0.15280376 -0.13711646 0.021539684 0.35917112

critic.weight f4 [1, 128]
00000000: 170d 79bd 53b9 97be 5bec abbc 983b 353c
00000010: 442a e0bc 0910 063c 472b 15bf 9447 8b3e
00000020: 0b25 123d 7563 823c b0d4 d13d cc78 25be
00000030: 23b5 093e 7444 fa3d 326c 893d 1995 57bd
00000040: 00a1 15b8 0af7 873b e32c 073e fd49 4b3e
00000050: 761a 213e 04a9 11bd 582e 56be b4ef 723d
00000060: 6735 5f3c bed4 9f3d c6be a73e ecea c83d
00000070: 053b 503d 95fa 533e f4cb 3a3e 499e dfbd
00000080: a881 1b3e 84b6 b83d dbe4 8d3d 22b0 e5bd
00000090: 08be c0bd 3081 ff3d d53c 9bbc 8df6 563e
000000a0: 5904 ebbd 08df 89bd 0eb4 a83c ec27 a63b
000000b0: 37ec 8b3d 9c9c 9b3e 4e7e c13d 1acf 9e3e
000000c0: 6c9d af3b bee5 5ebc 3a78 c8bb cdf0 a7bd
000000d0: c4b1 97be b357 123e e7cf 8bbd ba49 d0be
000000e0: 13b1 5c3b 8c0e d13e a963 833d 9db8 98be
000000f0: 92e3 1c3d b962 043b 931f bcbd a55a 8cbe
00000100: 2f18 0c3c 7dba b83d 3c0f 30be bd19 8e3d
00000110: e186 c4bb 4a7d 933c 8b3b 263e 3490 4b3e
00000120: bd2c 2e3d 27f8 6fbe b8c5 2bbe 8e81 1fbe
00000130: 9639 87bd cdd9 873e a20e 393b 6ce9 a13c
00000140: c245 a13d 7f4e f83c 423f 63bc 79d1 e2bd
00000150: 9b79 1fbc 2659 bc3d b180 983d f2a7 c33c
00000160: 93e9 943e fee1 733e b055 0d3c 1a23 d23d
00000170: b3d2 8bbc dae4 c53d f117 9dbd 0e7b ae3c
00000180: 73b6 d1be 28f7 2d3e 9adf 20bd df33 0d3f
00000190: 2aa2 aebd 07b6 efbd 8fe3 ebbd c9ba eabd
000001a0: f3a4 993c 6880 28be 5a01 25be 29f9 39be
000001b0: 40b0 5fbd c358 89bd 9199 fe3c 4572 2b3e
000001c0: 08fc 62bd 5d7e c6bd a67d 20bb af64 713e
000001d0: edbb 3dbe f3d4 513e 1048 0fbe 738f 803d
000001e0: c552 4dbc a702 39bd 614a be3c 4abe b7bd
000001f0: 2ef5 83be c7b0 6a3d b38e 433d 1d85 35bd
-0.0608035 -0.2963358 -0.020986727 0.011061572 -0.027363904 0.008182534 -0.5826916 0.27203047
0.03567986 0.015916565 0.10245645 -0.16159362 0.13448004 0.12220088 0.0671009 -0.052632425
-3.567431e-05 0.0041493224 0.13200717 0.19852443 0.1573275 -0.035561576 -0.20916116 0.05931063
0.013623572 0.07804249 0.32762736 0.09810433 0.050837535 0.20701058 0.18241864 -0.109188624
0.15186179 0.09019187 0.06928416 -0.11215235 -0.094112456 0.124758124 -0.018949905 0.20992489
-0.114754386 -0.06731993 0.02059367 0.005070677 0.06832164 0.3039292 0.09447919 0.3101738
0.0053593423 -0.0136045795 -0.0061178477 -0.08200226 -0.29627812 0.14291267 -0.068267636 -0.4068125
0.003367488 0.4083141 0.06415493 -0.2982835 0.038302965 0.0020200445 -0.0918571 -0.27412906
0.008550688 0.09019945 -0.17193311 0.06938503 -0.005997524 0.018004078 0.16233651 0.19879228
0.042523134 -0.23434506 -0.16774642 -0.15576765 -0.066027805 0.26533356 0.0028237482 0.019764625
0.07874633 0.030310867 -0.013870062 -0.1107511 -0.009733583 0.09196691 0.07446421 0.023883794
0.29084453 0.23816678 0.0086263865 0.10260601 -0.017068243 0.096627906 -0.07670582 0.021298911
-0.4095951 0.16988814 -0.039275743 0.55157274 -0.08527024 -0.11704641 -0.11518013 -0.11461408
0.018755412 -0.16455233 -0.16113797 -0.18161453 -0.054611444 -0.06706383 0.031079086 0.16742809
-0.055416137 -0.09692071 -0.0024488955 0.23573564 -0.18528719 0.2049139 -0.13992333 0.06277361
-0.012531941 -0.045168545 0.023228826 -0.08971842 -0.25772995 0.057297494 0.04774351 -0.0443164
