Liu/test_flip/v_8/train_iter_0400.pt (torch, 465287 bytes, 9 tensors)

h0 f4 [128]
000000 bc d0 f7 bc 71 27 af 3f 8f 8f 86 bf fa dd 30 bf
       -0.0302509 1.3683912 -1.0512561 -0.6908871
000010 2d 45 31 3e 23 c1 cf be 48 6b 35 be c7 7f 2b bf
       0.17311545 -0.4057704 -0.17716706 -0.6699185
000020 10 75 27 bf 5e c6 f0 3e aa 36 eb 3f b1 5d 6d bf
       -0.65413 0.47026342 1.8376057 -0.92721087
000030 90 e5 0c bf 7a 6d 06 3f e3 4d 1c 3f 5b 1e 7a bd
       -0.55037785 0.525108 0.61056346 -0.061064105
000040 03 80 1a 3f 3c 54 13 bf 25 fc ec 3e 07 da ec bf
       0.6035158 -0.57550406 0.4628612 -1.8504037
000050 6b 2c 04 be 14 3a be 3e ea a2 d3 3e 34 14 c5 bf
       -0.12907569 0.37153685 0.4133523 -1.539679
000060 92 fa 66 be 0f f3 e8 bf 22 35 7c 3f 9f b6 b6 3e
       -0.22556522 -1.8199176 0.98518574 0.35686204
000070 7b 67 be 3f 10 e2 ca bf 43 49 e5 bf 89 5d 27 3f
       1.487533 -1.5850239 -1.7912983 0.653771
000080 5a f6 e7 3e d7 f7 f1 be 53 f7 21 bf fc 12 60 3f
       0.4530514 -0.472594 -0.6326801 0.8752897
000090 d0 6a 8b ba fd 2d f7 bf 7a b2 a7 3e 9d 9c 4a 3f
       -0.0010636691 -1.931091 0.32753354 0.7914522
0000a0 12 23 0c 3f 76 55 d1 bd a0 96 fe be 92 6f db bf
       0.54741013 -0.102213785 -0.49724293 -1.7143424
0000b0 d3 ff 0e c0 3b 57 c8 be 8d 56 32 3f a1 2a a9 3f
       -2.2343643 -0.39129052 0.69663316 1.3216134
0000c0 0d f6 7d bd b2 fb 43 be a1 e2 b7 3f 0e 3f 4d bf
       -0.06200223 -0.19138983 1.4366037 -0.8017434
0000d0 b4 94 ed 3f f1 13 de 3d ac 72 fb be 48 ec bb be
       1.8561006 0.10843647 -0.49110925 -0.36703706
0000e0 8e 84 28 3f 9b e8 f4 3f 3e f1 fc bf 3d 58 f6 3e
       0.6582726 1.9133486 -1.9761121 0.48114195
0000f0 a0 96 62 3e 22 ed f2 bc b9 c2 4f 3f ec b8 da bf
       0.22127771 -0.02965409 0.811565 -1.7087684
000100 fe c6 b3 3c 32 a8 a6 bf 5a ef 0c bd da e5 e1 bf
       0.021945473 -1.3020079 -0.03440795 -1.764827
000110 7b 19 0e 3f 44 52 76 3f 48 b7 4a bf da 1f 83 bf
       0.5550763 0.9621928 -0.79185915 -1.0244095
000120 ab 9d ec bd 07 48 99 3f 20 b3 df bf bd 35 77 be
       -0.1155351 1.1975106 -1.747654 -0.24141593
000130 e0 3e 69 3b 7b b0 98 bf 0a 51 23 40 86 74 1e 3f
       0.0035590455 -1.1928858 2.5518212 0.6189655
000140 36 29 cb 3e 83 56 35 bf aa 53 16 c0 52 03 73 3f
       0.3967988 -0.7083513 -2.3488564 0.9492694
000150 ce d2 5f 3f 76 a3 2d be 1e b4 c6 3d 07 47 95 3f
       0.8743104 -0.16956887 0.097023234 1.1662301
000160 a9 c1 26 bf 9d 0a c4 3e b5 df 5c bf 30 31 13 3e
       -0.6513925 0.38289347 -0.8627885 0.14374232
000170 64 b1 b6 3f af f0 b3 bf 93 60 56 3e c3 0e 9f bf
       1.4272885 -1.4057826 0.20935278 -1.242638
000180 fc 08 11 3f e6 3c 8d be 4c 69 5c 3f e9 81 bc 3f
       0.56654334 -0.27585524 0.8609817 1.4727145
000190 56 94 99 3e 56 5d c2 bf 90 41 f4 3f 28 20 9d bf
       0.29995984 -1.5184734 1.9082508 -1.2275438
0001a0 cf 65 f7 3f ed 90 5b bf 96 80 2e 3f 13 93 48 bf
       1.9327945 -0.85768014 0.68164957 -0.7834942
0001b0 06 13 00 40 92 a5 49 3f db e0 b1 bf ef 4d 90 3e
       2.001161 0.78768265 -1.3896745 0.2818446
0001c0 7a fd ff bf 3f 84 a6 3e b1 5e c4 be da e2 dd 3f
       -1.999923 0.3252277 -0.38353494 1.7334855
0001d0 83 3a 49 bd 25 c3 f7 3f dd 83 ab bf 3a 6b 42 bf
       -0.049128067 1.9356428 -1.3399616 -0.75944865
0001e0 dd b8 11 3d 23 96 63 bf 22 40 bb be 55 45 0f 3e
       0.03557669 -0.88900965 -0.36572367 0.13991292
0001f0 16 40 99 3f 58 f4 73 c0 f1 9c 88 3f 3c a3 fd be
       1.1972682 -3.8117886 1.0672895 -0.495386

c0 f4 [128]
000000 75 8e b8 bf cd c2 fe 3e a2 ed d4 bf 97 f9 00 3f
       -1.4418474 0.49757996 -1.663502 0.50380844
000010 49 72 a1 be f7 bc b8 be 62 b9 0f 3f ec 60 b8 bd
       -0.31532505 -0.3608167 0.56142247 -0.090028614
000020 e7 1b 3e bd 01 b2 24 3f 5b 5b f1 3f 3a a3 ee be
       -0.04641333 0.6433411 1.8856004 -0.46608907
000030 2a 5d bc bf ae 32 a9 3e 92 cb 90 bd 69 64 2f 3e
       -1.4715931 0.33046478 -0.07070078 0.17128147
000040 94 9e 9a be 59 9d ae 3f 19 7e 93 3f 4d b9 4f 3f
       -0.3019911 1.3641769 1.1522857 0.8114212
000050 8e 98 27 be 5f 92 0b 3f 7b 8a 40 3f c7 56 30 3e
       -0.16366789 0.5452022 0.75211304 0.17220603
000060 24 f4 ac be 5c ff f5 3e 80 4e 77 3f 82 77 e3 be
       -0.33780015 0.48046386 0.96604156 -0.44427115
000070 91 16 1a be 17 ca 8e bd 60 ef 8a 3e ec 1e e1 3e
       -0.15047671 -0.06972139 0.27135754 0.43968904
000080 c3 40 6b 3f 2b 72 c6 3e 12 a5 52 bd bf 7d c1 3f
       0.91895694 0.38758978 -0.051426955 1.51165
000090 33 6b 14 c0 d6 e8 94 3e 18 86 04 3f ca 16 83 bf
       -2.319043 0.2908389 0.5176711 -1.024133
0000a0 60 05 38 bf 76 53 14 bf d7 71 04 be 20 6c 27 40
       -0.718832 -0.5793985 -0.12934051 2.6159744
0000b0 6b 50 9a bf d8 9f 95 be cf 75 15 bf fa c0 3b 3e
       -1.2055792 -0.29223514 -0.58382887 0.18335333
0000c0 27 69 f2 3f bb 6e 8d bf bc df a2 be 41 9e a5 bf
       1.893834 -1.1049417 -0.3181132 -1.293892
0000d0 ec e6 9a 3f 9f 46 0e 3e 91 d6 74 3f 7f 55 60 3f
       1.2101722 0.13894127 0.956399 0.87630457
0000e0 14 e7 b6 3e f9 91 6e bd 7d fe 86 bf 0a b6 6d 3e
       0.35723174 -0.05824468 -1.0546414 0.23213974
0000f0 92 73 b7 bf f8 40 84 bf 5c ba 9a bf 1d 27 a7 3e
       -1.4332144 -1.0332327 -1.2088122 0.3264703
000100 5e 40 c1 3e 15 d8 2d 3e 6c 27 d2 3f ed 17 1c bf
       0.3774442 0.1697696 1.6418281 -0.6097401
000110 c1 de b7 bf 6e c1 0e 3f 41 bc 65 bf e9 71 75 bf
       -1.4364854 0.557639 -0.8974038 -0.9587694
000120 25 8c b2 3f 40 55 c1 3e 67 c7 d5 be 6f 20 83 be
       1.3949019 0.37760353 -0.41753694 -0.25610682
000130 92 ff 77 be fd 8c 4f bf 4e 6b bb 3e 50 c7 df be
       -0.24218586 -0.81074506 0.36605304 -0.4370675
000140 ee bf 2e c0 64 22 95 3f 92 48 3e bf 11 46 1d bf
       -2.7304645 1.165112 -0.74329484 -0.6143504
000150 ec 86 39 be c9 f6 d2 bd a1 3a 2a bf 72 63 9a bf
       -0.18117875 -0.10300977 -0.6649571 -1.2061598
000160 a0 fd 18 3f d3 04 39 bf dc 9f 14 3b 63 c9 08 3e
       0.59762 -0.72272986 0.0022678291 0.13358073
000170 b4 3d df 3e 05 93 0e 3f 52 09 f3 3e 83 61 55 bb
       0.43601763 0.55693084 0.47468048 -0.0032559342
000180 c6 ed ac be 69 5f 66 bf 71 67 e4 be 6b 98 bc be
       -0.33775157 -0.89989334 -0.4461017 -0.36835036
000190 a2 a1 e0 3f fc a3 f5 3e d9 b2 49 bf 91 52 47 3f
       1.7549326 0.47976673 -0.78788525 0.7786036
0001a0 64 6a 02 bf 8b 22 80 3d 6c 42 ed 3f 85 d6 13 c0
       -0.5094359 0.062565885 1.8535895 -2.3099682
0001b0 36 76 61 3f 47 8c cc be 02 8c 95 3f 7d 94 46 be
       0.88071 -0.39950773 1.1683352 -0.19392581
0001c0 30 e9 15 be 48 e3 1a 3f 0d 10 48 bf 9b 7d 4c bf
       -0.14639735 0.60503054 -0.7814949 -0.7987916
0001d0 66 b1 d4 3e f2 31 94 bf 25 67 ab bc dd 3c f2 be
       0.41541594 -1.1577742 -0.020923207 -0.4731206
0001e0 e9 5a 96 bf 40 9b 9e 3b 7a b9 98 bf 4c 62 a6 bf
       -1.1746494 0.0048402846 -1.1931603 -1.2998748
0001f0 ec bf 82 be 74 10 40 be eb 2b e1 be ea d7 20 3e
       -0.2553705 -0.18756276 -0.4397882 0.15707365

RNN.weight_ih_l0 f4 [512, 15]
000000 6b ec d1 bd 3a b1 b7 3d d3 68 f1 3d e9 09 76 bd
       -0.10250171 0.0896935 0.11787572 -0.060068045
000010 50 6e 83 bc 2a f9 4a 3d 52 83 7d 3b f8 df 96 bd
       -0.016043812 0.049554028 0.003868301 -0.073669374
000020 ad 85 fe 3c f8 29 9c 3d 85 f3 6f 3d 0b 8f d1 3c
       0.031069601 0.076251924 0.058581848 0.025580904
000030 67 d7 b9 3c 41 af 8d bd 77 08 08 bc 69 43 4d bd
       0.02268572 -0.06918193 -0.008302799 -0.050113115
000040 4e 04 71 bc 14 b4 00 3d 92 93 7d 3d ab 42 b2 3d
       -0.014710499 0.031421736 0.061908312 0.08704122
000050 2a 4e 67 3c b8 ad 25 3d 37 e7 9a bd 96 bf ef 3d
       0.014117757 0.040448874 -0.07563632 0.11706464
000060 03 90 a3 bd af b7 32 bd 36 56 3b bd 5e 07 aa 3d
       -0.079864524 -0.043632206 -0.045736514 0.083021864
000070 ea 78 8a bc 29 2d 56 ba b0 69 cb bd c3 3b f0 3d
       -0.01690336 -0.00081701815 -0.09932268 0.11730149
000080 62 29 93 3d 40 ae e8 bb 94 93 9e 3c 01 64 b4 3c
       0.071856275 -0.0071008503 0.01935748 0.022020342
000090 04 95 8a bd 72 4b 27 bd a5 46 7f 3d ec c7 07 3d
       -0.06766704 -0.040843435 0.06232323 0.033149645
0000a0 f7 f1 42 bb 71 85 18 3e 8c 36 3d bd 90 9c 7d bd
       -0.0029746273 0.14894654 -0.046194598 -0.061916888
0000b0 f9 04 f2 bd aa 87 ec 3c de 89 bb bd 4b 6a 70 bd
       -0.11817355 0.028873283 -0.091571555 -0.05869512
0000c0 38 08 c2 bc 52 f6 49 bd 84 12 ee bb 6c 68 18 bd
       -0.02368556 -0.049307175 -0.007265391 -0.03720896
0000d0 8e e5 dd bc bf 78 12 bd 03 05 4a bd 2b 70 83 3d
       -0.027087 -0.035759684 -0.049321186 0.06417879
0000e0 17 c3 69 3c cb 42 a4 3d 0e 91 53 3d bc 3b 5f 3c
       0.014267704 0.08020552 0.051652007 0.013625082
0000f0 33 e0 03 3d 04 de 93 bd 91 1f cf 3c f4 fe 94 bd
       0.032196235 -0.072200805 0.025283607 -0.07275191
000100 f5 a5 8e 3d 71 cd 02 bd 8f a1 5c bd 9a ce 1d 3d
       0.069652475 -0.031934205 -0.05386501 0.03852711
000110 f7 e9 80 3d cd 6c 9b bd 1f c5 ce bc 37 ee 9f bd
       0.06294625 -0.075891115 -0.025240479 -0.07809108
000120 b5 5b 2a bc 93 5a 72 3d 5b 69 2a bc 62 e5 a8 bd
       -0.010397841 0.05916841 -0.010401095 -0.08246876
000130 7e ce 28 3c 97 ac bf bc b9 fb 9f bd 76 aa 5d 3d
       0.010303138 -0.023397727 -0.07811684 0.054117642
000140 79 b3 f3 3d 24 ae 09 3d 9a df fc bc 18 2c 98 3d
       0.11899466 0.03361334 -0.03086834 0.07430285
000150 4d cf 8b 3d 8b 2c 58 bd d3 6b df bc 1f 11 35 bd
       0.06826649 -0.052776854 -0.027273094 -0.04420578
000160 5d 22 ff bc 72 e5 4e bd e1 35 78 3c ec 9c 05 3e
       -0.031144315 -0.050511785 0.0151495645 0.13048142
000170 eb d4 95 3d ac 07 e6 3c e0 f9 d6 3c dc 54 a7 bd
       0.073160015 0.02807983 0.026242197 -0.081704825
000180 a6 cb ae bd 5c 12 b6 3c fa 09 45 3e 6a 71 ba 3d
       -0.085349366 0.022225551 0.19242087 0.09103663
000190 99 f1 1e 3c ef ec e2 3d ab a6 93 bd 59 cf 33 bd
       0.009701156 0.11080348 -0.07209524 -0.043898914
0001a0 30 57 ef bd 24 b7 a4 3a a1 e4 14 3e d6 4a ae 3d
       -0.116865516 0.0012566787 0.1454034 0.085103676
0001b0 f8 2a e1 bc 38 73 9e bd 93 d8 5b 3d df d7 97 bd
       -0.02748631 -0.0773682 0.05367334 -0.07414221
0001c0 92 cb 64 3d af f5 d0 3d 27 4c 58 bd 83 17 40 3d
       0.055858202 0.102031104 -0.052807 0.046897423
0001d0 d8 1f 30 bc 05 75 38 bc f7 9b af 3c 41 4a 78 3d
       -0.01074978 -0.011258368 0.021436675 0.06061769
0001e0 16 9a 9a bd b1 c7 0e 3e 5a ff 00 3e 90 20 e2 3c
       -0.07548921 0.13943364 0.12597409 0.027603418
0001f0 6c b6 cb bc a2 9b f9 bb bc c8 52 bd fe 34 89 bd
       -0.024867259 -0.00761743 -0.051460966 -0.066995606
000200 e7 51 69 3d 4b 19 da 3d 22 b5 95 3d 2e 96 68 3d
       0.056962874 0.106493555 0.07309939 0.056783848
000210 8c 93 b7 bd 3d 7a 87 3d 39 e5 44 3d f0 54 9c 3c
       -0.08963689 0.06615112 0.048070166 0.01908347
000220 ed 62 00 bd 2f 99 ad 3d 28 d7 64 bd d1 15 8a 3d
       -0.031344343 0.08476483 -0.05586925 0.067424424
000230 99 3e eb 3d f2 66 af 3d 8f f6 b0 3d 04 13 6f bd
       0.11486549 0.08564557 0.08640777 -0.058367744
000240 c9 02 e1 3c 34 62 b0 3c 2d c7 5d bd 6f 40 80 bc
       0.027467148 0.021531202 -0.054145027 -0.015655724
000250 6d 3e 2a bd 35 30 39 bd f7 c4 20 bd 65 87 8f 3d
       -0.04156344 -0.04521199 -0.03925034 0.07008246
000260 2e 32 29 3d 82 a5 51 3d 20 41 e9 bb b8 a8 a2 bd
       0.04130762 0.05118323 -0.007118359 -0.07942337
000270 2b 74 3b bd 33 aa 9f 3d ee 31 15 bc 97 10 01 3d
       -0.045765083 0.07796135 -0.009106142 0.031509962
000280 73 63 b5 bd be d9 78 bd da 2f 9b 3d 19 b9 12 3d
       -0.08856859 -0.06075453 0.07577486 0.035821054
000290 19 8d c3 bd d2 7e 86 3d 13 02 f7 bb 2e 73 ee bc
       -0.095483966 0.06567158 -0.007538089 -0.029107656
0002a0 38 e8 2f 3c 50 26 08 bc 1b 6e 51 ba 00 65 01 3d
       0.010736518 -0.008309916 -0.0007989124 0.03159046
0002b0 18 58 bb 3c cb 5f 3c bb 1f 9d 15 3c bf e7 d0 3d
       0.022869155 -0.002874362 0.009131699 0.10200452
0002c0 1f c1 5b 3c d2 da ba 3d cf 86 ad 3b 60 e1 3a bd
       0.013412743 0.09123768 0.0052956115 -0.04562509
0002d0 10 6e da 3d 66 2c e3 3d 41 0d 68 bd 8d 1c 9e 3d
       0.10665524 0.11092453 -0.056653265 0.077202894
0002e0 78 1e a8 bc 2c 9e 20 3d 1d 41 81 bc 93 5f 94 3d
       -0.020522341 0.039213344 -0.015778119 0.07244792
0002f0 22 31 ae 3d 50 24 43 39 23 f1 85 bc c4 fc 2e 3c
       0.08505465 0.00018610177 -0.016350335 0.010680381
000300 76 d5 af bc a4 06 37 bd 49 af d5 3d f0 d2 84 3c
       -0.02146409 -0.044684067 0.104338236 0.016213864
000310 5b 6a ac 3d 47 8a 28 bc 4a 09 7b 3d 8c 21 6b bd
       0.08418723 -0.010286874 0.061288156 -0.05740504
000320 dd eb 78 3c da 34 d3 3c e5 c5 97 3d 5b d3 ea bb
       0.015192953 0.025782038 0.07410792 -0.007166309
000330 65 fa e3 bd d4 75 73 ba 11 ac 30 ba db 46 e6 3b
       -0.11131743 -0.0009287272 -0.0006739507 0.0070274896
000340 09 f5 f5 3b 0b f5 3c 3d 6a ba 25 bd d3 c3 38 3d
       0.007506017 0.04613213 -0.04046098 0.045108628
000350 c4 98 fb 3d e0 3d 9a 3b fa 28 ad bd 1e 7e a3 3d
       0.12284997 0.004707083 -0.08455081 0.07983039
000360 0b 57 01 3c 2c f4 c5 bc 87 3c a7 bb 32 96 4f 3c
       0.007894288 -0.024164282 -0.005103651 0.012670087
000370 4d 29 6e 3d 8c a2 55 3b 04 22 2a 3d 01 d9 65 bd
       0.058144856 0.0032598106 0.041536346 -0.056115154
000380 1b 70 66 bd 37 35 db 3d b7 0c c5 3d e6 ef bf 3d
       -0.056259256 0.10703509 0.09621566 0.09371929
000390 e8 0f 1b bc 65 e2 9c bd a6 a9 08 3d 98 b4 f4 3c
       -0.009464242 -0.07660369 0.033364914 0.02987127
0003a0 cf ef b0 bd 54 bc 27 bd eb 68 28 3d 93 5c c7 3d
       -0.0863949 -0.040951088 0.041115683 0.09734454
0003b0 e7 b6 2d bb 21 12 54 bd 6f 21 3f 3d ec c9 14 3c
       -0.0026506723 -0.0517751 0.046662744 0.009081345
0003c0 fe e9 a1 bc 6e 19 56 3d 4b ba 5d bc a4 2a d5 3c
       -0.019764896 0.052270345 -0.013533185 0.02602131
0003d0 08 02 09 3d 60 bb c6 3d 2f 5c d6 3d ae ef 28 3d
       0.033449203 0.09703708 0.104668014 0.0412442
0003e0 9d e1 bc 3c 31 16 00 3d 8b 7d 37 bd 84 8c 4c 3d
       0.0230568 0.031271163 -0.04479746 0.049938694
0003f0 05 dd 63 bb 6d b3 03 3c 76 82 9a bc 10 15 61 bd
       -0.003476919 0.008038384 -0.018861037 -0.054951727

RNN.weight_hh_l0 f4 [512, 128]
000000 ee 89 f0 3c df ce 88 3d 1b f0 dc 3c fd 71 c1 bc
       0.029362645 0.066800825 0.02696996 -0.023613924
000010 04 b3 5d 3d fd 15 9b 3c 61 f7 4d 3d d9 80 89 bd
       0.0541258 0.018931383 0.050284747 -0.06714029
000020 c9 66 64 bd 94 bd 83 b9 30 a9 21 bd 0f 63 82 bb
       -0.055762086 -0.00025127514 -0.03946799 -0.003979094
000030 a2 03 93 3d 90 c9 63 bc 9c e7 4f 3d 9c ec a2 3d
       0.07178427 -0.013903037 0.05075799 0.07955286
000040 93 7d 87 3d 77 f5 14 bd 12 15 94 bc 2b e3 6a bd
       0.06615748 -0.036366906 -0.018076453 -0.05734555
000050 56 fc 34 bd 87 f8 c6 bc 3a 97 45 3d ac 1d 75 3d
       -0.04418596 -0.024288429 0.048239924 0.05984275
000060 30 d1 05 bc 76 cb de bc bf c6 9b bb 38 bf 7d bd
       -0.00816755 -0.027196627 -0.004753917 -0.06194994
000070 ca 4c 52 bd de b1 0f 3d ef e4 8b bd 27 7a 09 bc
       -0.051342763 0.035081737 -0.06830775 -0.00839094
000080 b6 e7 b4 3d 27 08 3b 3c e0 b5 88 3c fa b0 03 bb
       0.08833258 0.011415518 0.016688287 -0.00200945
000090 ea 78 90 3d 12 0e 05 bd 4b 5d f2 3c d0 e9 74 bd
       0.070543125 -0.03248412 0.029585501 -0.059793293
0000a0 9d 72 9a 3d 38 fc 85 bd 94 53 59 3d 8a 5d bf 3c
       0.07541392 -0.065422475 0.053058222 0.023360033
0000b0 35 3a 8a bd c5 03 8b 3b 7f f3 49 3d 39 a4 c6 3b
       -0.06749383 0.0042423927 0.04930448 0.0060620573
0000c0 11 1f c9 bc e2 e6 50 bc 77 64 56 bc 07 4f a3 bd
       -0.024550946 -0.012750359 -0.013085476 -0.07974058
0000d0 44 bd 08 3e ca 7d a5 3d 16 7f 90 3d 96 97 40 3d
       0.13353449 0.08080633 0.0705549 0.047019564
0000e0 8d 6f c6 3d e4 71 c8 3d 0a 02 3d bd 1a 7d da 3d
       0.096892454 0.09787348 -0.046144523 0.106683925
0000f0 c9 bf 14 bc 8f a6 1f 3d 2c 13 f8 bc 98 16 be 3d
       -0.009078928 0.038977202 -0.03028258 0.09281653
000100 1d 92 ff ba 94 d7 cd bd b3 04 07 3d ae de f5 bc
       -0.0019498501 -0.10050884 0.032963466 -0.030013409
000110 4d ec 46 bc 9c a6 f7 3c b7 3c 86 3c 79 5f 0c 3d
       -0.012141299 0.030230813 0.016386373 0.034270737
000120 bc ed 93 bd b7 c9 04 3d ff 5f 83 bd 13 4a fe bb
       -0.072230786 0.032418933 -0.06414794 -0.007760295
000130 85 86 3b 3c 38 23 7d 3d 47 24 84 bd b9 a6 df 3d
       0.011445646 0.061801165 -0.06452232 0.10920472
000140 21 26 c4 3d 85 3f 88 bc 17 9a cd bd 0b 96 0e 3d
       0.09577585 -0.016631851 -0.10039156 0.03481106
000150 1b 07 72 3d 30 fc f7 3c dd ad d6 bd db c7 64 3d
       0.059088808 0.03027162 -0.104823805 0.05585466
000160 2c 5c 57 bd 80 b9 9f bd be bb f7 3b 76 11 12 3d
       -0.052578136 -0.07799053 0.0075602224 0.035661183
000170 a9 44 55 3c a7 2d 8e 3c 54 43 08 3e 93 4a 07 3d
       0.013016858 0.017355753 0.13306934 0.033030104
000180 87 03 b2 3d 38 05 78 3d cc 14 02 3d cb 7a 0e bd
       0.08692079 0.060551852 0.031758115 -0.034785073
000190 94 d7 45 bd 89 81 e3 bd e3 f8 e8 3c 68 a5 c0 bc
       -0.048301294 -0.11108691 0.028438991 -0.023516372
0001a0 b8 b1 73 bd 72 c8 02 be af 50 a2 3d 32 77 14 3d
       -0.059495658 -0.12771776 0.079255454 0.036246486
0001b0 0d 63 92 3d db 08 00 3d 70 38 98 bd 6c a7 fb bb
       0.07147799 0.031258445 -0.074326396 -0.0076798704
0001c0 b6 e0 43 3c 79 45 72 3c 26 b0 0d 3c bb c2 16 bd
       0.011955431 0.014787071 0.008647954 -0.036806803
0001d0 6a 41 98 3d f8 49 1f 3d 87 93 5e 3d 9a 76 68 bd
       0.07434352 0.0388889 0.05433991 -0.056753732
0001e0 b8 52 70 3d d3 81 9f bc 3c fc c0 bc 81 c2 e0 bc
       0.058672637 -0.019471085 -0.023557775 -0.027436497
0001f0 3a a6 25 bd d0 16 94 3b 30 7c b3 3c c2 de a4 bc
       -0.04044173 0.004519321 0.021909803 -0.02012575
000200 62 9c a6 3d d5 b6 13 3d 9c 21 d9 bc c4 1b 6b 3c
       0.081352964 0.036063034 -0.026505284 0.014349882
000210 66 48 98 bd 06 50 62 bc 2d 58 0d bc 4a 65 10 bd
       -0.07435684 -0.013813024 -0.00862698 -0.035252847
000220 ed 5e d1 bd 19 29 d4 bc 74 96 2d 3d 88 cb af bc
       -0.10223184 -0.025898503 0.04237981 -0.021459356
000230 09 d3 b9 bd 7f 17 43 bd 88 82 5f 3c 8d 66 d8 3d
       -0.09073455 -0.04762983 0.013641961 0.10566435
000240 65 22 11 3d 6e 8e 9a 3c 4b bc 7c bd fb 75 4c 3b
       0.03543319 0.018866744 -0.061703008 0.0031198252
000250 4f c4 c9 bd d3 6d 8a 3d 90 d0 79 bd b0 eb d2 3d
       -0.09851896 0.067592286 -0.060989916 0.1029886
000260 d0 f7 01 bd e2 73 13 3d 9b 11 2a bd 1d 5c a7 bc
       -0.031730473 0.035999186 -0.041520696 -0.020429665
000270 45 23 b7 3c d5 f7 bd bd fd c1 6a bd e8 ec 71 bd
       0.022355685 -0.09275786 -0.057313908 -0.059063822
000280 64 cd e1 3b 5b eb 2c bd 27 a6 4d bd 98 90 9a 3b
       0.0068909395 -0.04221664 -0.050207283 0.004716944
000290 c5 80 8a bc fc a7 9b bc df d5 c3 bd 5d f8 04 3d
       -0.016907105 -0.019001 -0.09562277 0.03246342
0002a0 28 25 b8 3c e8 ec 91 3d 83 80 13 3d bd a3 dd 3c
       0.022478655 0.071252644 0.03601123 0.027055616
0002b0 e1 13 89 bd 97 84 3a bd 3f 69 00 3d c4 00 23 3d
       -0.06693245 -0.045536604 0.03135037 0.039795652
0002c0 26 e1 42 3d af 4b eb 3d b9 c3 ab 3c 52 4a a2 bd
       0.047578 0.11489045 0.020967351 -0.07924332
0002d0 ca 9b 3b 3d 44 b6 d9 bc 86 2a 02 bd 04 1c 2d 3d
       0.04580287 -0.026576169 -0.031778835 0.042263046
0002e0 be 61 c1 3d 10 18 1c bd 7d 59 00 3d f5 e0 10 bd
       0.09442471 -0.038108885 0.031335343 -0.035370786
0002f0 77 2a 58 3d ea 35 d3 3c 16 ce 2f bd ed 0a 73 bd
       0.052774873 0.025782544 -0.04292115 -0.05933659
000300 7f 35 db bc 4c 00 3e bd 1b 87 59 bd c8 2b 56 bb
       -0.026758907 -0.046387002 -0.053107362 -0.0032679904
000310 98 0e 87 3d d8 4f 5d bc 8a 58 1e bd 8b c5 b5 3d
       0.065945804 -0.013507806 -0.038658656 0.08875569
000320 a0 fb 3e bd 51 a0 54 bd b4 63 a4 bd 9a 91 3c 3c
       -0.046626687 -0.051910702 -0.08026829 0.0115093235
000330 54 73 25 3c 43 05 34 bc 20 62 ae 3b 3d 8e c8 3d
       0.010098297 -0.010987583 0.005321756 0.09792755
000340 7f 0d a5 3d c0 42 04 be 5d df 1b 3d 6b c2 f6 bb
       0.08059215 -0.12916088 0.038054813 -0.0075305006
000350 7b 78 a1 bd ea 31 60 bc 04 9f c4 bd f3 5f 7d 3d
       -0.07884308 -0.013683775 -0.09600642 0.061859082
000360 62 7d 41 bd bc a4 65 3b 6f 09 53 bd 50 65 d0 bd
       -0.047238715 0.0035040816 -0.05152267 -0.10175574
000370 57 a9 f7 3d 78 20 bc bd 43 a4 c7 3d c3 d4 4b bd
       0.12092846 -0.091858804 0.09748127 -0.049763452
000380 23 9d 9e 3d 06 d5 ad bc b3 cc b5 3b 47 75 75 3c
       0.07744815 -0.021219742 0.0055480837 0.014981574
000390 aa dd 84 bd 2a 09 27 3d ad 91 b2 3d f9 1d 09 bd
       -0.064875916 0.040780224 0.08719192 -0.03347585
0003a0 ac 6a e0 3d 46 18 81 3d c2 96 2e 3d 68 51 74 bd
       0.10957846 0.06303458 0.042624243 -0.059647948
0003b0 30 cf ce 3d d4 0d b0 bc b1 23 4f bd 36 90 98 3d
       0.10098112 -0.021490969 -0.050571147 0.07449381
0003c0 fe 59 05 bd b9 eb 8a 3d c5 40 9c bd 2d 47 24 bd
       -0.032556526 0.06783242 -0.07629541 -0.04010694
0003d0 4c 06 80 3d 53 15 b9 ba 72 2e be bd ef 41 95 3d
       0.06251201 -0.0014120735 -0.092862025 0.072879665
0003e0 0d 21 85 3c 69 3c 88 3b 7b 49 2d bb 19 2d 16 bd
       0.016251111 0.004157592 -0.0026441503 -0.036664102
0003f0 4b e9 8c 3d fe 2f fc bc d7 10 4d bd 29 13 e5 bc
       0.068804346 -0.030784603 -0.050064888 -0.027963238

RNN.bias_ih_l0 f4 [512]
000000 8b 18 4d 3d 68 59 e1 bc 39 b1 5d bd e1 53 c1 bd
       0.050072234 -0.027508453 -0.05412409 -0.09439827
000010 9d f4 7f 3d 17 cd 21 bd e2 04 0b 3c 3e 68 1c 3c
       0.06248914 -0.03950223 0.008485051 0.009546338
000020 71 0b 5e 3c 47 eb 14 3d d0 e0 dc bc c9 49 c3 bc
       0.0135525325 0.03635719 -0.026962668 -0.023838894
000030 4e c6 84 3d 3d 47 46 3d 7f 95 d1 bc 64 f0 46 3d
       0.06483136 0.048407782 -0.02558398 0.048569098
000040 6a c5 a9 3d e8 e6 e6 3d 72 bb 52 3d 25 d1 e3 3d
       0.08289607 0.112745106 0.051448293 0.111238755
000050 79 af d3 3c bd 67 24 bc b5 6e 2a bd ee 9d ae 3d
       0.025840508 -0.010034499 -0.041609485 0.085262164
000060 e1 c8 9c 3d e8 63 05 bd 2a 77 94 bd 1f d9 57 3d
       0.07655502 -0.03256598 -0.07249291 0.052697297
000070 be 99 37 bc a2 55 8e 3c dc a7 67 bd 1a f0 07 3e
       -0.011206089 0.017374817 -0.056556568 0.13275185
000080 0d 71 6d 3d 9f a4 9a bc eb e3 12 3c aa b7 8b 3d
       0.05796914 -0.018877326 0.008965473 0.068221405
000090 05 4b b4 3d d7 76 13 3b 24 11 00 3c 66 7f 86 bd
       0.08803371 0.0022501254 0.007816587 -0.06567268
0000a0 2b a9 8b 3d 6e 99 f8 ba ea 48 74 3c cc 4a 9d 3d
       0.068193756 -0.0018966624 0.014909962 0.07680282
0000b0 47 2d 69 3d 9e 5a 91 3d ed 38 c3 bc ad 40 8d bd
       0.056927945 0.07097362 -0.023830855 -0.068971016
0000c0 2f 1f cd 3d 67 15 93 3d c7 26 84 3c 32 46 96 3d
       0.100157134 0.071818165 0.016131772 0.073376074
0000d0 76 a7 83 3d d7 83 8f 3d 9b 6f c8 3a f4 22 1f 3d
       0.06428425 0.07007568 0.001529205 0.038851693
0000e0 9e fb 2e bc c3 64 a1 3d 32 71 c4 3d 48 55 d1 3d
       -0.010680107 0.07880547 0.09591903 0.10221344
0000f0 77 ff c9 bc 68 56 9d 3d 03 45 2a 3d 41 66 65 3d
       -0.024657948 0.07682496 0.04156972 0.05600572
000100 e6 03 5f bd 88 04 81 bd d7 88 8b bd a2 9a 91 bd
       -0.054447077 -0.062996924 -0.068132095 -0.07109572
000110 d1 a2 cc 3c 77 65 a0 3c b7 df 9e 3d 52 88 7b 3d
       0.02497998 0.019579632 0.07757514 0.061409302
000120 d0 d6 f0 3d 76 bb b2 bd d4 c7 b2 3d d6 39 f7 3c
       0.11759722 -0.087271616 0.087295204 0.030178946
000130 cb 9c 6d bd d1 e2 be 3d 66 a5 88 3c d5 2d b5 3d
       -0.058010858 0.093206055 0.01668043 0.088466324
000140 70 7c 7c 3d 77 6e 8d bd db 3b d5 3c 94 88 25 3e
       0.06164211 -0.06905835 0.026029518 0.16165382
000150 15 20 a9 3d 73 a9 e6 bc 9a c5 91 3d 8e f0 bf 3d
       0.08258072 -0.028156972 0.07117768 0.09372054
000160 ad 60 d9 3d ad df d4 bb 07 da e1 3d 6c 11 b3 3d
       0.106141426 -0.006496391 0.110279135 0.08743557
000170 f2 7b 0f bd 3d bd f9 bb ea 6c 0d 3e 66 67 ac 3d
       -0.035030313 -0.007621436 0.13811079 0.08418159
000180 d4 4e c3 3d 07 1a 42 3d fc f2 d2 3d f4 73 36 3d
       0.0953652 0.047388103 0.10300252 0.044544175
000190 cd 66 3d 3c 76 aa 06 3e 61 76 bd 3c 4b 7b f6 3c
       0.011560154 0.13150963 0.023127737 0.030088088
0001a0 9a 5f 2f 3d ba 76 32 3c 0a 03 86 3c ef 5d b6 3d
       0.042815782 0.010892564 0.016358871 0.08904635
0001b0 fa 52 93 3d 65 91 2f 3a 3d 7e 38 bd 48 26 93 3d
       0.07193561 0.00066973857 -0.045042265 0.07185036
0001c0 8f 26 72 3d d6 16 ee bc 2f 0d b0 3d c0 23 21 bd
       0.059118804 -0.029063623 0.085962646 -0.039340734
0001d0 5c b7 bc bc 7d ce a8 3d ba b2 9f 3d 0c 16 fb 3c
       -0.023036651 0.082425095 0.07797761 0.030650161
0001e0 29 03 a0 3d b2 5b 96 3d c7 eb 95 bc e0 ba a6 3b
       0.07813103 0.07341708 -0.018300904 0.005088195
0001f0 c4 f4 15 3d f2 14 c4 3d 2d 43 4c bd 54 70 f4 3d
       0.03661038 0.095743075 -0.04986875 0.119354874
000200 3a 29 c6 3d d7 ed fc ba 0d 73 86 3c 5f 1e 84 3c
       0.09675832 -0.0019296956 0.016412282 0.016127763
000210 f6 96 e5 3d df ba e9 bb 78 a2 94 bc 3e 23 69 bd
       0.11210434 -0.0071328725 -0.018143877 -0.056918375
000220 7d 85 ed 3c e0 bc d9 3d 08 60 a0 bd 57 a9 eb 3c
       0.028994316 0.10631728 -0.078308165 0.028767271
000230 c9 8c 9f 3c 41 26 df 3d 37 d1 5e bd 27 45 15 3a
       0.019476311 0.10895968 -0.05439874 0.00056942034
000240 06 c9 00 bc a5 c8 87 bd 54 36 e5 bc e0 78 44 bb
       -0.007860428 -0.06630067 -0.027980007 -0.0029979274
000250 58 f9 b7 3d 7e f5 14 bd 5e 6f f2 3b a6 5a 82 3c
       0.089831054 -0.036366932 0.00739853 0.015912365
000260 f0 ee e2 bc b8 f6 a6 bd 8d c1 b9 3d cc 7a 56 3d
       -0.027701825 -0.081525266 0.0907012 0.052363202
000270 4a c5 3c ba 7c d1 8e 3d b7 e4 32 3b dc e1 f3 bc
       -0.0007201029 0.0697355 0.002729697 -0.029770784
000280 00 75 e4 3d dd f2 f5 bc 85 d2 17 3d f5 3d 9b 3d
       0.111551285 -0.030023033 0.037066 0.07580177
000290 90 cb 5c bd 76 20 91 3d 2d de 2b 3d 16 3e 7a bb
       -0.05390507 0.070862696 0.04195993 -0.0038183979
0002a0 d4 b2 51 3c d9 c3 86 3d 7b df a1 3d 93 c7 04 3d
       0.012798984 0.06580324 0.07903954 0.03241689
0002b0 c4 ba 86 3d 3c 82 3f bd 3b 04 61 3d e7 8a 5d 3d
       0.065785915 -0.04675506 0.054935675 0.054087546
0002c0 db a6 2d bd fd e5 fc bc 50 55 c7 3a 62 be 00 bd
       -0.042395454 -0.030871386 0.001520792 -0.031431563
0002d0 55 ab b8 3d c1 60 1e 3d 33 96 28 bd 18 48 92 bc
       0.09017054 0.03866649 -0.041158866 -0.017856643
0002e0 9f 45 ec bc 52 20 88 bd a8 8a 90 3c 44 a4 2d bd
       -0.028841792 -0.066467896 0.017644241 -0.042392984
0002f0 d5 62 07 bd 2e 30 5a bd 27 67 c2 3d b0 cb d1 3d
       -0.033053238 -0.053268604 0.09492331 0.102439284
000300 78 d9 9e 3d 27 0e 5d 3d 21 2d 8d bc df 58 bc 3d
       0.077563226 0.053968575 -0.017233433 0.09196638
000310 6a ac c4 3d e4 6f de bb eb 2f ea bc 5f 4d 19 bc
       0.09603198 -0.0067882407 -0.028587302 -0.009356826
000320 42 1f c9 bd f5 19 f5 3c 7c dd 89 3d 00 d7 9d bc
       -0.09820415 0.029919604 0.06731698 -0.019267559
000330 5b 67 b1 3c 94 0e a1 3d 02 99 9c bd 67 71 62 bd
       0.021655729 0.07864109 -0.076463714 -0.05528393
000340 1e 38 c9 bc 78 a6 65 bd 63 63 94 3d 73 54 8f bd
       -0.024562892 -0.05606696 0.07245519 -0.06998529
000350 e1 c4 e8 bc 3c 36 a9 bc ac 55 cc 3c ff 10 2c 3d
       -0.028414192 -0.020655744 0.024943195 0.042008396
000360 d3 81 be 3c ff b1 2c 3d 41 bb 9a bd b2 a6 e3 3d
       0.023255264 0.042161938 -0.07555247 0.11115779
000370 3e ce 82 b9 0d f0 16 bd bb 26 e3 bb 1c 44 c8 3b
       -0.00024949195 -0.036850024 -0.0069321073 0.006111635
000380 54 62 c6 3d ae 57 b9 bc a3 7b 90 3d 2e 2d a6 3d
       0.09686723 -0.022624817 0.07054832 0.08114086
000390 d5 f2 9f 3d 57 84 1b bd 7b 0e 2b 3d 14 93 6f bd
       0.078099884 -0.037968006 0.041761857 -0.058489874
0003a0 61 36 1d 3d 5d 76 d8 3d ab 33 c5 bc e0 08 93 3d
       0.038381938 0.10569451 -0.024072489 0.07179427
0003b0 41 e9 11 bd dd 78 a1 bd 6b ec 92 3d 3b 56 5f 3d
       -0.03562284 -0.07884381 0.071739994 0.054525595
0003c0 10 fc 69 bd 20 c7 86 3d 21 2e d9 3d d1 b9 ce bb
       -0.05712515 0.06580949 0.106045015 -0.006308772
0003d0 e0 95 e7 bc ef a5 17 bc 23 ad 0d bd 27 19 a1 3d
       -0.028269708 -0.00925587 -0.034588944 0.078661256
0003e0 c8 b7 8c bc 50 bb 36 3c bc 1e 50 bc 14 9d ac 3d
       -0.017177477 0.011153057 -0.01270264 0.08428398
0003f0 b3 08 43 3d 93 f9 aa bd 47 6c 94 bd 5f f0 2f bb
       0.047615718 -0.08348384 -0.07247215 -0.0026846153

RNN.bias_hh_l0 f4 [512]
000000 10 26 6d 3c 00 f0 48 3d 3d c0 a6 3c 1f 72 e2 bc
       0.014474407 0.049057007 0.020355338 -0.027642308
000010 a6 73 dd 3d ad e9 a5 3d fb d7 0a bd e9 c5 23 3d
       0.10813074 0.08101211 -0.03389738 0.039983664
000020 0d 43 75 bd 5e fd af 3d b3 2e 11 3d 96 da 80 3d
       -0.059878398 0.08593248 0.035444926 0.06291692
000030 3c eb 88 3d 3d 91 b2 3d 8d 14 75 3d 3c 34 bc 3c
       0.066854924 0.08719108 0.059834052 0.022974126
000040 da 06 3e 3d ed 83 c7 3b 10 be 20 bd 1a 57 19 3e
       0.046393253 0.006088725 -0.039243758 0.14974633
000050 f3 3b 83 bc 23 04 30 3d 74 b4 e2 3c 74 53 ce 3d
       -0.016019797 0.042972695 0.027673937 0.10074511
000060 29 2c 0e bd 9f 4f a7 ba 12 4e 03 bd c4 16 bd 3c
       -0.034710083 -0.0012764818 -0.032056876 0.023082145
000070 9d b1 13 bb ff df b6 3d 23 d8 d6 bc f5 64 8b 3b
       -0.0022536286 0.089294426 -0.026226109 0.0042539784
000080 db 8c 34 3d 25 07 1d bd f7 34 a8 bd de cc 85 ba
       0.044079643 -0.03833689 -0.08213227 -0.001020815
000090 0c ad a2 3d ab 20 1a 3d 8c cd bd 3d e2 9e d2 3d
       0.07943162 0.03762881 0.092677206 0.10284211
0000a0 e3 0b 3e 3c 14 ec e1 3d e3 49 9f 3d ee 17 a7 3c
       0.011599514 0.110313565 0.07777765 0.020397153
0000b0 a2 11 60 bd 45 24 9f 3d 56 81 92 3d ce ad 83 bd
       -0.054704316 0.0777059 0.07153575 -0.06429635
0000c0 f4 b0 21 3d bf e5 e6 3d ec 20 69 bd 1b 81 d6 3d
       0.039475396 0.11274289 -0.056916162 0.10473844
0000d0 90 bc 54 bd 37 c6 66 3c 26 1d 8f 3d ad 14 b7 3d
       -0.05193764 0.014085344 0.069879815 0.089394905
0000e0 dc fa 91 3d d2 9c 90 bc b7 eb 9c 3d 6e e8 5f 3d
       0.07127926 -0.017652903 0.076621465 0.05466502
0000f0 81 1a 10 bd fe 90 dc 3c 1c 49 9e ba a9 97 8e bb
       -0.035181526 0.026924606 -0.0012076232 -0.0043515754
000100 a9 32 8f 3d 6d 73 04 bd 82 0a 7d 3d 93 4c de ba
       0.069920845 -0.03233664 0.0617776 -0.0016960077
000110 72 4c ce 3d ad ac cb 3d 64 58 bb bc 5c 32 8c 3d
       0.100731745 0.09945045 -0.022869296 0.06845543
000120 99 c2 ff 3d 99 ce f1 bd cb f1 dd 3d 0e 26 fb 3a
       0.124882884 -0.118069835 0.10837134 0.0019161121
000130 5c b1 79 bd ee 02 83 bc 62 ee 83 bc 4d 98 40 3d
       -0.06096016 -0.015992608 -0.01610488 0.047020245
000140 c6 bb d8 bc f1 05 86 3c 17 ed 09 3d 12 01 dd 3d
       -0.026456725 0.016360255 0.033673372 0.1079122
000150 a1 71 c3 3d ef a2 0a bb 9a 4e dc 3d b6 8f 92 bd
       0.09543157 -0.0021154245 0.107571796 -0.07156317
000160 2f 41 47 bc 4a ae 64 bd 5e 74 aa 3b df ea 38 3d
       -0.012161537 -0.055830278 0.0052018603 0.045145866
000170 69 78 75 bc 6c 2c c4 3d 93 59 f7 3d 51 35 6a 3c
       -0.014982321 0.09578785 0.12077632 0.014294938
000180 5d 21 76 3b 70 31 59 bc c1 4a ea 3d 23 f6 af 3d
       0.0037556507 -0.013256416 0.114400394 0.08591869
000190 94 ff 96 3c cb eb 35 3d b7 c8 cd 3c cb 9c a9 3d
       0.018432416 0.044414323 0.025120122 0.08281859
0001a0 01 f3 8a 3d 21 f9 d3 3d 0c 11 85 bc db c6 91 bc
       0.067846306 0.10350252 -0.01624348 -0.017795017
0001b0 14 2e cb 3b 16 c1 57 3d 43 ba aa 3b 6e fd 41 bd
       0.0062005613 0.052674375 0.0052101924 -0.04736083
0001c0 c8 a3 e5 3c e7 87 a5 3d e0 98 05 bc 82 6a 57 bd
       0.028032199 0.08082562 -0.008154124 -0.05259181
0001d0 d5 1a 60 3d e7 e9 36 bd d9 4f f5 3d 5c 94 9b 3d
       0.05471309 -0.04465666 0.1197812 0.07596657
0001e0 9b 01 a0 bb 82 a8 a1 3d dc 1f 81 3d cc cc 8f 3c
       -0.004883004 0.078934684 0.06304905 0.01755371
0001f0 d0 8a 6f 3d 1e b3 95 bc 8c 30 a8 bc b9 5f 49 3c
       0.05848199 -0.018273886 -0.020530961 0.0122908885
000200 07 cb e4 3c 9c 1c 8d bc 79 f5 c8 3d de 61 d2 3c
       0.027928842 -0.017225556 0.09812445 0.025681432
000210 64 49 2d 3c d0 c4 9a ba 33 80 84 bc 7f a8 18 3d
       0.01057658 -0.0011807922 -0.016174411 0.037270065
000220 6a 94 1f 3d 6b 55 85 3d 5c 41 75 bc c4 98 4a bc
       0.038959898 0.06510433 -0.014969196 -0.012365524
000230 ba 03 9f 3a c8 60 d7 3d 05 b2 15 3d ff d0 3d bd
       0.0012131848 0.105165064 0.036546726 -0.046341892
000240 c4 33 85 3c a7 43 0d bb 1d 80 31 bd fa d0 cd bd
       0.016260035 -0.0021555217 -0.04333507 -0.10049625
000250 1f e1 ec 3d ba 3c ce 3d 2c ce 2a bd 61 3a fe 3c
       0.11566376 0.100701764 -0.041700527 0.031033697
000260 70 f6 66 bd e2 7e ad 3d f8 7b 97 3d 10 22 93 3d
       -0.056387365 0.084714666 0.07396692 0.07184231
000270 d1 d4 8c 3d ef 1d 35 3d e6 cf 51 bc c5 c6 9b bc
       0.06876529 0.044218 -0.0128059145 -0.01901568
000280 b6 31 9c bc 6b 86 b3 3d ce 83 b5 bc c7 d2 18 3b
       -0.019066673 0.087658726 -0.022157576 0.0023318992
000290 59 72 c4 3c 99 df 52 3c 4f 7f 2e 3b 62 8c 86 bb
       0.023980306 0.012870693 0.0026626175 -0.0041060904
0002a0 fb 49 af 3b bb 05 7f bd 3b 62 97 3d f1 76 60 3d
       0.0053493953 -0.062261324 0.07391783 0.05480093
0002b0 6b c2 8d 3d 48 b3 ea 3c d3 02 1f bd bd ac 9e 3d
       0.06921848 0.028649941 -0.038821053 0.07747791
0002c0 df ab 5f 3d 1b 91 2f bc 2e 48 a3 3d e1 f7 18 3d
       0.05460727 -0.010715748 0.079727516 0.03734577
0002d0 c6 18 2f 3d a2 14 01 bd c4 83 32 3c d1 9c d0 3d
       0.042748235 -0.031513818 0.010895673 0.1018616
0002e0 60 47 b7 3d e3 48 3b 3c 4d 8c 2d bd 8a 12 95 3d
       0.089491606 0.011430952 -0.04237013 0.07278927
0002f0 bb 1d c9 bc 60 73 01 be b7 b5 6a 3c a4 af a4 3c
       -0.02455031 -0.12641668 0.014325551 0.020103283
000300 8a 11 e7 3d 49 7b a6 3d bf 01 9d bd aa 85 33 bd
       0.11282642 0.081289835 -0.07666349 -0.043828644
000310 02 08 78 bd d8 61 f0 bc 9f 03 3e 3d 97 6b aa 3d
       -0.06055451 -0.02934353 0.046390172 0.083213024
000320 15 75 e2 ba db 75 dc bb 97 68 35 bd 7d 32 d9 bd
       -0.0017277325 -0.0067279167 -0.044289198 -0.10605333
000330 4a b6 1a bd 15 c4 d7 3d 20 ae 93 3a cb fc a3 3d
       -0.0377715 0.105354466 0.0011267103 0.08007201
000340 17 20 87 bd f4 9f 4b bd 2c eb 5b bd 71 72 b7 bd
       -0.065979175 -0.04971309 -0.053691074 -0.08957375
000350 f7 42 0c be 50 bc 0a 3d bf c4 9a 3c b8 49 91 3d
       -0.1369742 0.033870995 0.018892644 0.07094139
000360 0a ee f8 bb 8e b4 9f 3d bb a0 ae bd f4 f1 8c 3d
       -0.007596736 0.0779811 -0.08526751 0.068820864
000370 56 c9 49 bc 30 1b c7 bd 99 d3 ab bd d8 bc 6a bc
       -0.012316069 -0.097219825 -0.083899684 -0.01432725
000380 94 51 88 3d b0 83 25 3d 4a 17 84 bd 9c 83 f3 bc
       0.06656185 0.04040879 -0.064497545 -0.029725842
000390 a0 75 9e 3d d2 09 22 bc be cd 39 bd b1 76 82 bd
       0.07737279 -0.009890037 -0.045362227 -0.06370295
0003a0 4a c3 f4 3d 8b 3b 5f 3c 42 2a b1 3d e7 f8 64 3d
       0.11951311 0.013625036 0.08650638 0.055901434
0003b0 e9 61 6c 3d f0 d9 9d bd fa 01 84 bc 09 99 5e 3d
       0.057710562 -0.07707584 -0.016114224 0.054345164
0003c0 04 c5 d6 bc 09 ce 8f bc 08 f9 46 3d 35 86 80 bd
       -0.026216991 -0.0175543 0.04857734 -0.06275598
0003d0 e5 55 46 bc 2e e7 d4 3c de a1 e0 3d f7 59 59 3b
       -0.01210544 0.025989141 0.10968374 0.0033165195
0003e0 b1 8c 3f bd 57 2b fe bb 97 05 d6 3d d1 4e b2 3c
       -0.046765033 -0.0077566314 0.10450285 0.021766098
0003f0 d5 fe 77 bc f5 94 26 be 3b 06 42 bd db 21 d6 3c
       -0.01513644 -0.1626776 -0.047369223 0.02613919

actor.weight f4 [5, 128]
000000 b9 eb 03 3d aa 59 34 3e dd 1f 17 3d 3c f3 9c 3d
       0.032207225 0.17612329 0.03689562 0.07663581
000010 30 df 10 3e f5 88 91 3c 87 91 92 3c 63 54 77 bc
       0.1414764 0.017765502 0.017891658 -0.015095803
000020 10 74 55 bc 47 cf 89 3d ba 29 18 3d f3 79 c5 bd
       -0.01302816 0.06728988 0.03714917 -0.096424006
000030 ee 78 ce bc 66 5f 9c bd e3 14 e1 bd bb 08 8b bd
       -0.025204148 -0.07635383 -0.10990312 -0.067887746
000040 d1 de 2c 3e ca 76 3b bd 54 3b 99 bd e1 b3 1f be
       0.16881873 -0.045767583 -0.07482019 -0.15595962
000050 a7 f2 07 3d 50 00 9b bd 0c 9c 60 be 83 4b e1 bc
       0.033190396 -0.07568419 -0.21934527 -0.027501827
000060 57 57 27 3e d7 14 12 3e 92 07 70 bd c8 d3 81 3d
       0.16341911 0.14265762 -0.05860097 0.06339222
000070 7e f0 90 bc ed 42 8c 3d 32 ac 07 3e 65 12 16 3b
       -0.0176928 0.068487026 0.13249281 0.0022899148
000080 6d 12 38 bd 1b 4a b7 3d c2 b4 9e 3d 0e 3d e4 bd
       -0.044939447 0.08949681 0.077493206 -0.11144458
000090 06 83 58 bd bc b2 4e bd c4 7c 9e 3d bd 8a 1b bd
       -0.05285933 -0.050463423 0.07738641 -0.037974108
0000a0 35 20 d8 bc 6d 5c 42 3d 23 c8 56 bd d8 76 69 3d
       -0.026382545 0.047451425 -0.05243696 0.056998104
0000b0 9c 61 80 bd 77 97 ce 3a d4 d2 b1 bd 45 bb 12 be
       -0.062686175 0.0015761693 -0.086827904 -0.1432925
0000c0 f4 72 ec 3d 88 c8 43 bd 83 2a 81 3d 93 8e 59 bd
       0.11545363 -0.047798663 0.063069366 -0.053114485
0000d0 83 c1 c2 3d ad 6b ca 3d 98 75 ba 3c a2 f9 b5 bc
       0.09509566 0.09883819 0.022761151 -0.02221376
0000e0 4b bf 2d 3d c8 a7 06 bc 04 46 69 bd ac c8 77 3e
       0.04241876 -0.008218713 -0.056951538 0.24197644
0000f0 d6 12 94 bd 9f dd a7 3d d0 da 47 be b5 ab 10 be
       -0.07230155 0.08196568 -0.19517064 -0.14128001
000100 25 aa 0a 3e eb 21 15 be 27 6d 8f bd 53 31 dc 3d
       0.13541467 -0.1456372 -0.07003241 0.10751595
000110 95 7e cf 3d 49 0f ec bc 1d ac 22 be be 43 0a bd
       0.101315655 -0.028815882 -0.15885969 -0.03375601
000120 21 76 ba bd 4c 9d d1 bc 70 9e 14 3e de 8d c8 3d
       -0.091045626 -0.0255877 0.14513564 0.09792684
000130 c4 9d 07 3e a9 11 72 3e 77 02 c8 3c ef e2 88 3d
       0.13243777 0.2363955 0.024415238 0.06683909
000140 f6 16 c2 bc c7 e4 31 be d6 a6 00 bc 87 ba 24 3e
       -0.02369259 -0.17372428 -0.007852277 0.1608678
000150 44 aa e1 bd 5c 1d 2b bd d5 62 47 be d8 07 ef 3d
       -0.11018804 -0.041776046 -0.19471295 0.11671418
000160 f1 cd 38 3d 8f 0d 0f be b3 cf 58 bb 82 a5 aa 3d
       0.045118276 -0.13970016 -0.0033082783 0.08332349
000170 20 dd f7 3d 37 bf 27 3e 4a e3 8c 3d d5 40 1d 3e
       0.12102723 0.16381536 0.068792894 0.15356763
000180 33 3d 16 bd 20 e5 c1 3d 8d 23 b4 bd 8c b3 81 3e
       -0.036679458 0.0946753 -0.08795843 0.25332296
000190 06 2d ec 3c ec 70 e5 bc 11 a4 27 bc 34 21 17 be
       0.028830063 -0.028007947 -0.010231988 -0.1475876
0001a0 ba b9 82 3e d0 ea a5 3c 7e 04 19 3e 01 e9 d2 bc
       0.25532323 0.020253569 0.1494312 -0.02574587
0001b0 30 bb 48 bd bc 8b fb bd d4 3d 11 be a1 d4 98 3d
       -0.04900664 -0.122825116 -0.14183742 0.07462431
0001c0 bc d4 bd 3b 24 6b 70 3d 78 aa a7 bd ff b9 e3 3d
       0.005793182 0.058695927 -0.08186811 0.1111946
0001d0 8e 3b df bd dc 7a 01 3e b8 d5 97 bc ad e5 c9 3d
       -0.10900031 0.12644523 -0.018534526 0.0985826
0001e0 61 5b 96 3c 82 15 3f be 03 ef 68 bd 5b 67 7a 3d
       0.01835412 -0.18660548 -0.056868564 0.061133724
0001f0 b0 3e 96 bd 8f 62 d0 bd f9 26 ba 3d 48 61 c9 3d
       -0.073361754 -0.101750486 0.09089465 0.09833008
000200 ed bd c2 3d 78 af 27 3e 0f 69 e3 bd 0e aa 6e 3d
       0.09508882 0.1637553 -0.11104023 0.058267646
000210 d5 ef 30 be 28 49 29 3d c1 ab 22 3e 05 a4 45 bd
       -0.17278989 0.041329533 0.15885831 -0.048252124
000220 a0 9d 9d bc f3 d7 83 be 77 17 01 3e cb 0d b2 bd
       -0.0192402 -0.25750694 0.12606607 -0.08694037
000230 5a 21 e9 bc 8b 28 b4 bd 4f 9a 06 bc 3a 8b c6 bd
       -0.028458286 -0.087967955 -0.008215501 -0.09694524
000240 aa 9c c7 3d da 81 41 3d 84 38 e7 bc ee 84 78 bd
       0.09746678 0.047242977 -0.028225191 -0.060673647
000250 8f 11 5a bd 00 49 1f bd 16 8b ee bc 96 9f a3 3d
       -0.0532394 -0.038887978 -0.029119056 0.07989423
000260 b2 6d e1 bd d7 bc 53 bc 88 a5 a7 bd 36 e6 b6 3d
       -0.11007251 -0.012923441 -0.081858695 0.08930628
000270 ec db 30 bd a7 c6 26 3e 43 be 7d 3c c2 3a 18 3e
       -0.043178484 0.16286717 0.015487256 0.14866164
000280 f3 87 7e 3c de c1 e7 bd 46 fb 0d 3c ed 40 cb bd
       0.0155353425 -0.11316274 0.008665865 -0.09924493
000290 e6 8c 1f 3e 07 86 26 be cb 30 7b 3d f0 4c df 3c
       0.15581092 -0.16262065 0.06132583 0.027258366
0002a0 b8 00 2e 3d f8 71 6d 3e 7f fd c7 3d 0c 45 ee 3d
       0.042481154 0.23188007 0.097651474 0.116342634
0002b0 cb 85 c1 bc 5b cd de bd a1 18 ca bc 86 85 2a bd
       -0.023623368 -0.10879012 -0.024669947 -0.041631244
0002c0 9e 9c 22 bc 55 36 de 3c 05 47 9c 3d b4 00 d7 3c
       -0.009925036 0.027125517 0.076307334 0.026245452
0002d0 72 dc 84 bc 9f 03 1d 3e ed 64 b8 3d 64 71 21 bd
       -0.016218398 0.15333413 0.09003625 -0.03941478
0002e0 83 7e 51 3c 81 21 87 bd 20 c6 73 bc f6 39 e7 3d
       0.01278651 -0.06598187 -0.01487878 0.11290352
0002f0 69 bb bc bc f9 7f b4 3d cd c6 2b bc 1c 4b 7b 3a
       -0.023038583 0.08813471 -0.0104844095 0.00095860823
000300 21 87 c6 3d b4 92 a7 bc af 16 c8 3c 6e 61 d6 3d
       0.096937425 -0.020455696 0.024424879 0.10467802
000310 b8 3d 83 3d 86 d6 c1 3d 2f 7b b2 3d 1f b4 1e 3e
       0.06408256 0.09464745 0.08714902 0.15498398
000320 66 21 a0 bd 68 ae 81 be 2b 23 a0 3d 46 9d e5 3d
       -0.0781887 -0.25328374 0.07819208 0.11211638
000330 95 4f 6b 3d 99 44 97 3d a5 76 f0 bd a1 83 2a bc
       0.057448942 0.07386131 -0.1174138 -0.010407359
000340 64 16 b1 bd 3b 8c 8d 3d f1 c2 11 bd a8 0c 77 3c
       -0.08646849 0.069115125 -0.0355863 0.015078701
000350 87 1a ca bd 6b 4a c9 bb ca 03 3c bc d8 a0 a4 bc
       -0.09868341 -0.0061429045 -0.011475513 -0.020096228
000360 04 50 5a 3d 24 51 fb bb df 00 92 bd 5e 00 1a bd
       0.053298965 -0.007669585 -0.071290724 -0.037598006
000370 84 bb 39 3e 10 12 9d 3d f8 3a 4c 3e 2d ff 31 3d
       0.18137938 0.07669461 0.1994437 0.043456245
000380 66 24 86 3d 0a fd 7c 3c 7a 66 27 3e a4 f6 c8 38
       0.06549911 0.015441189 0.16347685 9.5826836e-05
000390 99 07 86 bc f8 b6 01 be b5 bf 30 3e 05 93 2e be
       -0.016361045 -0.12667453 0.1726063 -0.17048271
0003a0 93 59 00 be ff 94 1d be 77 dc 8d bd 84 35 9a 3d
       -0.1253417 -0.15388869 -0.06926816 0.075297385
0003b0 cc fd 77 bd d3 a4 d8 bd 8a 12 0b be df ac 8a 3d
       -0.060544774 -0.10578313 -0.13581291 0.06771254
0003c0 df e5 2f 3e 52 00 a6 3c f2 be da 3c bd d0 26 3e
       0.17177533 0.020263825 0.026702378 0.16290565
0003d0 c6 6d f1 3d fd f7 a7 3d 29 d9 08 3e 1e b3 81 bd
       0.11788516 0.08201597 0.1336409 -0.06332992
0003e0 c2 18 d1 3d 0d 58 2a be c0 88 8e bd b0 93 8d bd
       0.102098 -0.16635151 -0.06959677 -0.06912935
0003f0 cb 24 aa bd 05 e1 4f be 20 c5 50 3d 68 a8 18 3e
       -0.08307799 -0.20300682 0.050969243 0.14907992

actor.bias f4 [5]
000000 5a 9b ac 3b b5 80 12 3c 62 0a 9e bc 99 6b ba bb
       0.005267543 0.008941819 -0.01929206 -0.005689096
000010 18 ee 88 3c
       0.016715094

critic.weight f4 [1, 128]
000000 79 cb 97 bd 68 eb b5 bc 66 0f f2 ba e0 9d 0e 3e
       -0.07411856 -0.022206977 -0.0018467724 0.13927412
000010 7b 52 c4 3d 70 5f 33 be db 32 d1 bb aa 26 2c be
       0.095860444 -0.17516875 -0.0063842363 -0.16811624
000020 49 d9 93 3d 1d bd 13 3d 4d 35 91 3c b1 5e b1 ba
       0.07219178 0.036069024 0.017725611 -0.0013532249
000030 18 35 fb 3d ec 0a 94 3d 71 a0 8e 3d 19 90 c1 bc
       0.12265986 0.07228646 0.069641955 -0.023628281
000040 f6 bf f2 3d 66 d5 d2 3c 98 a5 8d bc 65 4f aa 3d
       0.1185302 0.025736522 -0.017290875 0.083159246
000050 3a 28 8f 3d ab c4 45 bc c8 f7 52 bd 31 99 2b 3d
       0.069900945 -0.012070815 -0.051505834 0.04189414
000060 93 e0 e5 bd 12 ab c7 bd 8e f3 19 3c 2b f9 85 bc
       -0.11224475 -0.09749426 0.009396447 -0.016354164
000070 ad 7d 0e be 90 1b 4f 3d 59 00 09 bd 37 6b 29 3d
       -0.13915129 0.050563395 -0.033447597 0.041362014
000080 cd a6 1c 3d 5a 89 ca bc 2a 6d 1b be 36 52 fd bb
       0.03824501 -0.024723697 -0.15178362 -0.0077307476
000090 ee 30 e2 3c 53 eb aa bd 85 3e db bc 59 fd 95 3d
       0.027611222 -0.08345666 -0.02676321 0.07323713
0000a0 1d b8 97 bd 8e 34 38 3d a1 bc de 3d 6e 0e 3e 3d
       -0.07408164 0.044971995 0.10875822 0.04640048
0000b0 a0 ec 89 bb ba e8 bf bd 84 0c bf bd 61 89 ad 3d
       -0.004209116 -0.09370561 -0.09328559 0.084734686
0000c0 19 86 58 be a1 83 34 be a1 7c 17 3e 48 4b 4d bd
       -0.21144904 -0.17628337 0.14793636 -0.050120622
0000d0 24 07 aa 3d 94 24 24 be 62 61 3e bd fd 8f af bd
       0.08302143 -0.16029578 -0.04647959 -0.085723855
0000e0 28 a1 90 bd ec 77 0a 3e 44 eb 7f bd c4 bc f6 3d
       -0.07061988 0.13522309 -0.062480226 0.12047723
0000f0 19 4b f0 bd 37 e3 88 bc 0a cf 4a bd 67 18 ce 3d
       -0.11733074 -0.016709907 -0.049513854 0.10063248
000100 cd fc 18 be 29 2c da bc 06 14 97 3d 52 c2 8a 3d
       -0.14940186 -0.026632385 0.07376866 0.06775345
000110 32 7f b8 3d 85 86 77 bd be fa 3d 3d bb b2 58 3e
       0.090086356 -0.060431022 0.046381705 0.2116193
000120 a1 31 0a bd f7 e6 cc bd 71 aa cc bc ec c5 9f 3c
       -0.033738736 -0.100049905 -0.024983617 0.019503556
000130 aa c9 bb bd 6f 1e 6d 3d 8b 47 c8 bd 23 cd 34 3c
       -0.09169324 0.05789035 -0.09779271 0.0110352365
000140 cd 81 b0 3d 3d 63 d3 bd 94 5d 9e 3d e1 37 1e be
       0.086185075 -0.103216626 0.07732692 -0.15451004
000150 7f 7b 2e 3e 39 02 2e 3e 39 43 06 3d a6 48 b2 bd
       0.17039298 0.16993035 0.032778952 -0.08705263
000160 47 db 7b 3d ba 50 42 be 9f 6c a9 3d 5b 53 37 be
       0.061488416 -0.18976107 0.08272671 -0.17902891
000170 b4 d4 3f bd 8d 07 f0 3d e1 c6 e3 3d 3d b4 e4 bc
       -0.04683371 0.1172019 0.111219175 -0.027917976
000180 8e f0 59 3d de d4 c5 bd 22 4f bf 3b 55 f2 2f 3e
       0.053207926 -0.09659742 0.005838291 0.17182286
000190 47 08 49 3e 6f 38 d5 bc 40 2b c9 3c c3 26 68 3b
       0.19632064 -0.026027886 0.024556756 0.0035423494
0001a0 0f c9 c1 3d a6 df 55 be bd 60 11 3d aa 42 32 39
       0.09462177 -0.20886096 0.035492647 0.00017000237
0001b0 96 fd 8a 3c cd c7 00 3e 70 35 43 be d5 ba bc bd
       0.016966622 0.12576218 -0.19063354 -0.09215323
0001c0 b2 b7 69 bd e8 d1 d6 3d 81 a7 0f be 3d fc fb bc
       -0.05705995 0.10489255 -0.14028741 -0.030759925
0001d0 5d a1 01 be 9c 9b d3 bd 00 c3 48 3e 4c c1 c2 3c
       -0.12659211 -0.103324145 0.19605637 0.023773812
0001e0 6e 45 ec bc 7b 86 fc bc 15 bf ea bd 0d 09 8e bd
       -0.0288417 -0.030825844 -0.11462227 -0.0693532
0001f0 24 0b 00 3e 01 79 cb bc 59 e5 0f bd 87 0e 20 3d
       0.1250425 -0.024837973 -0.035130832 0.039076354
