Liu/test_var/v_6/train_iter_5600.pt (torch, 560711 bytes, 9 tensors)

h0 f4 [128]
0	0xbec458dd	-0.38349047
1	0x3fb1f9a4	1.3904309
2	0xbf260e0a	-0.6486517
3	0xbfca385e	-1.5798452
4	0xbf0af273	-0.542762
5	0x3ef03fcc	0.46923673
6	0x3f551bec	0.8324573
7	0x3ee13aa1	0.43990043
8	0xbf8d3c06	-1.1033943
9	0xbfa217b8	-1.2663488
10	0xbfa96e49	-1.3236781
11	0x3e9764b5	0.2956902
12	0x3d2f98fa	0.0428705
13	0xbf55b987	-0.8348622
14	0xbf3965c9	-0.72420937
15	0x3fa5687b	1.292251
16	0xbe7df36e	-0.24799892
17	0xbf9fe528	-1.2491808
18	0xbf206b33	-0.62663573
19	0xbf5e9f56	-0.8696188
20	0x3d251c32	0.040310092
21	0x3dcd5e7c	0.10027787
22	0x3f961506	1.1725166
23	0x3f8d30b3	1.1030487
24	0x3eff89c3	0.4990979
25	0x3eaf306f	0.3421664
26	0xbe988dad	-0.2979559
27	0x3fb24f4e	1.3930452
28	0x3f43efc8	0.7653775
29	0x3e7d79ee	0.24753544
30	0x3e19b451	0.15010192
31	0x3f3b51fa	0.7317196
32	0xbe213c7b	-0.15745728
33	0x3e0d9d85	0.1382962
34	0xbeb6d57c	-0.3570975
35	0xbe3375df	-0.17525433
36	0x3efd6e8c	0.49498403
37	0xbf36606a	-0.71240866
38	0x3ffe2551	1.9855138
39	0xbc097d1e	-0.008391647
40	0x3f947b12	1.1600058
41	0x3f6485b2	0.892665
42	0x3f23d9e2	0.6400434
43	0x3f1d2a90	0.6139307
44	0xbec12d15	-0.37729707
45	0x3fb9d1cf	1.4517154
46	0xbeb0e314	-0.34548247
47	0x3f16704e	0.58765113
48	0x3f93a2a9	1.1534015
49	0x3f2530a8	0.6452737
50	0x3e9146ce	0.28374332
51	0x3df471d5	0.11935774
52	0x4007e0f9	2.1231062
53	0x3f0df6b4	0.55454564
54	0xbfa7a870	-1.3098278
55	0xbeafa7e5	-0.3430778
56	0x3cdd0172	0.026978228
57	0xc00ecb63	-2.2311637
58	0xbf0709fd	-0.52749616
59	0x3f276730	0.65391827
60	0x3eaf1b23	0.3420039
61	0xbea13910	-0.31488848
62	0x3f0326da	0.5123116
63	0xbf917f55	-1.1366984
64	0xbf893842	-1.0720294
65	0xbfc5109d	-1.5395695
66	0xbf9a35aa	-1.2047627
67	0x3e8a06db	0.26958355
68	0xbfd99b0d	-1.7000443
69	0xbf97de67	-1.1864747
70	0x3cdd1004	0.026985176
71	0xbf6770c7	-0.9040646
72	0xbf2cfc3c	-0.6757238
73	0x3f20cc70	0.62811947
74	0x3f067f45	0.5253795
75	0xbe91c7f0	-0.28472853
76	0xbf0fdbb2	-0.56194603
77	0x40003094	2.002965
78	0xc01833c6	-2.37816
79	0xbfefdb00	-1.8738708
80	0xbfa8a835	-1.3176333
81	0x3f334ddb	0.70040673
82	0x3ef6d1b5	0.4820687
83	0xbfe312bc	-1.7740092
84	0xbfb57077	-1.4174947
85	0x3d29172d	0.041281868
86	0xbd000cd4	-0.031262234
87	0x3ea24572	0.31693608
88	0x3ff724a0	1.9308052
89	0x3f4ba697	0.7955107
90	0x3fdf589c	1.7448916
91	0xbf008b40	-0.5021248
92	0xbf25df8e	-0.6479424
93	0x3e40469c	0.18776935
94	0x3f8ad869	1.0847293
95	0xbf4db5f8	-0.8035579
96	0xbfe4d1ca	-1.7876523
97	0xbcb70fea	-0.022346456
98	0x3f1b8278	0.60745955
99	0x3dd4f6c6	0.10398631
100	0x3f7e20a2	0.99268544
101	0xbfb258c8	-1.3933344
102	0xbe80baeb	-0.25142607
103	0xbfd65d62	-1.6747248
104	0xbf96db30	-1.1785641
105	0xbeef0a7f	-0.46687695
106	0xbe4866f4	-0.19570524
107	0x3ed8389f	0.42230698
108	0x3f22eb1f	0.63640016
109	0x3f3c6da6	0.7360481
110	0xbf8ffb90	-1.1248646
111	0x3f7ac942	0.97963345
112	0xbf8dc353	-1.1075233
113	0x3fa757e9	1.3073703
114	0x3f49a5ce	0.7876862
115	0xbeeda84e	-0.4641747
116	0xbef69ad6	-0.48165005
117	0xbf4b2c02	-0.79364026
118	0xbdc38040	-0.09545946
119	0x3f0d6231	0.55227953
120	0xbff8b10e	-1.9429033
121	0x3f5b866f	0.85752004
122	0x3edebe0c	0.4350437
123	0xbfa3e6cf	-1.2804812
124	0x3f8caa7e	1.098953
125	0xc004bf15	-2.0741627
126	0xbf564064	-0.83692
127	0x3d83e9a3	0.06441047

c0 f4 [128]
0	0xbf8a4341	-1.0801774
1	0x3fa5b69b	1.2946352
2	0xbfb48757	-1.4103802
3	0xbe34cc2f	-0.17656015
4	0x3f641628	0.8909631
5	0x3f4fcbda	0.8117043
6	0x3f97c514	1.1857018
7	0x3f4696cf	0.77573866
8	0xbd8bb80b	-0.06822213
9	0x3f33a539	0.70173985
10	0xbfbaa52f	-1.458166
11	0x3f5d9138	0.8654971
12	0xbf669f4e	-0.9008683
13	0x3fe25842	1.7683184
14	0x3f53cfbe	0.82738864
15	0xbef5d2eb	-0.4801248
16	0x3f79ba25	0.9754966
17	0xbfd6094a	-1.6721585
18	0xbf27aad8	-0.6549506
19	0x3e7dcd73	0.24785404
20	0x3f794844	0.97375894
21	0x3ed24392	0.41067177
22	0x3fd9ad1f	1.7005957
23	0xc02e707e	-2.725616
24	0xbdc0a4e3	-0.0940645
25	0x3f1292de	0.5725535
26	0x3e8d43be	0.27590746
27	0x3da60bca	0.08107717
28	0xbf1b6af1	-0.60710055
29	0x3e86343b	0.26211724
30	0xbf299cf9	-0.66255146
31	0x3f90d373	1.1314529
32	0xbe5cb921	-0.21554996
33	0x3f7b29ae	0.98110473
34	0xbe54e51b	-0.20790522
35	0x3f114b39	0.56755406
36	0xbf635846	-0.8880657
37	0xbf34ba72	-0.7059699
38	0x3f0f2314	0.559129
39	0x3f35fea2	0.71091664
40	0x3f08a12a	0.53370917
41	0x3fba70f3	1.4565719
42	0x3f89c4a7	1.0763139
43	0x3fb1e2f6	1.3897388
44	0xbeaf53ce	-0.34243625
45	0xbfa6dac3	-1.3035511
46	0x3f3b1a00	0.7308655
47	0xbefbaf0d	-0.4915699
48	0xbe068a1b	-0.1313862
49	0x3fcabea5	1.583943
50	0x3f636fc6	0.8884243
51	0x3e84e394	0.25954878
52	0x3f95bf22	1.1698954
53	0x3f314423	0.69244593
54	0x3e70f5bb	0.23531239
55	0x3f68321b	0.90701455
56	0x3ecf2cb2	0.40463787
57	0xbf962714	-1.1730676
58	0x3ff32494	1.8995538
59	0xbd6923da	-0.056918956
60	0x3e8cd092	0.27502877
61	0x3ee90548	0.45511842
62	0xbf25597f	-0.64589685
63	0xbd8ddc8d	-0.06926832
64	0x3f8993f9	1.0748283
65	0x3e2870e7	0.16449319
66	0xbee8de27	-0.4548199
67	0x3d7fb7ec	0.06243126
68	0x3f3f3c4f	0.747014
69	0xbd9c3664	-0.07627562
70	0xbf13a2e1	-0.5767041
71	0xbe3c7e0c	-0.18407458
72	0x3f4b59e5	0.79434043
73	0xbe4cb216	-0.1998981
74	0xbe9c4345	-0.30520073
75	0xbfb6a163	-1.4268001
76	0xbc833da9	-0.016020613
77	0xbf7eac58	-0.99481726
78	0x3ee81f06	0.4533617
79	0xc014ed98	-2.3270016
80	0xbfa23dfe	-1.2675169
81	0xbe9f9c54	-0.31173956
82	0x3f201570	0.6253271
83	0x3f2ef490	0.6834192
84	0xbeb062fe	-0.34450525
85	0xbc65c6c7	-0.014024443
86	0xbfd602ed	-1.6719643
87	0xc01342b4	-2.3009462
88	0xbef28fa6	-0.4737522
89	0x3f8e8875	1.1135393
90	0x3e90350d	0.28165475
91	0x3f8e8b5a	1.1136277
92	0x3f61793d	0.8807562
93	0x3f6ffc56	0.9374441
94	0xbd829e58	-0.06377858
95	0x3f85cfca	1.0454037
96	0xbeb5e550	-0.35526514
97	0x3dfb7260	0.12277675
98	0xbf97db1f	-1.1863745
99	0xc002c351	-2.0431712
100	0x3d7e3296	0.06205996
101	0xbef5fdd1	-0.4804521
102	0x3fee687c	1.8625636
103	0xbe88f203	-0.2674714
104	0x3f455030	0.7707548
105	0xbfa0a3ab	-1.2549948
106	0xbd587930	-0.05284995
107	0xbeff55e4	-0.49870217
108	0xc000e0c5	-2.0137188
109	0xbef734f3	-0.48282585
110	0xbf323bb6	-0.6962236
111	0x3f640b96	0.8908018
112	0xbf3480d4	-0.70509076
113	0xbebffc9f	-0.37497422
114	0x3f849fc8	1.0361261
115	0xbfaa63f5	-1.3311754
116	0xbed331b8	-0.4124887
117	0x3d273e1e	0.040830724
118	0x3ead303e	0.33825868
119	0xbef614b3	-0.48062667
120	0xbeb7be13	-0.35887203
121	0xbebfd332	-0.37465817
122	0xbf60b1fb	-0.87771577
123	0xbf986b94	-1.190783
124	0x3e80cac6	0.25154704
125	0xbd2cb4bb	-0.042164546
126	0x3db67407	0.08908849
127	0x3f471e96	0.77781045

RNN.weight_ih_l0 f4 [512, 15]
0	0xbd3bbf25	-0.045836587
1	0xbd9521f2	-0.07281865
2	0x3ee0e516	0.4392478
3	0x3db2f693	0.087384365
4	0x3da45231	0.08023489
5	0x3e902eef	0.28160807
6	0x3dacda85	0.08440117
7	0x3d80ddd5	0.06292311
8	0x3e0130cf	0.12616275
9	0x3e667b97	0.22508083
10	0x3df843b2	0.12122287
11	0x3eb571e2	0.35438448
12	0xbd21127b	-0.039324265
13	0xbd75bc45	-0.059994
14	0x3dc72e3a	0.09725614
15	0x3ce4115a	0.027840305
16	0xbe4ba624	-0.19887596
17	0x3d796503	0.060887348
18	0x3bf77e00	0.007552862
19	0x3ba26410	0.004955776
20	0xbe5acbbe	-0.21366784
21	0x3c19b65e	0.009381859
22	0x3daaf2ad	0.08347068
23	0xbd43372d	-0.04766004
24	0xbe8e6072	-0.27807957
25	0xbc40c9a7	-0.011766828
26	0x3db96947	0.09053283
27	0xbd1e9955	-0.038720448
28	0x3da601c9	0.08105809
29	0x3da9bb29	0.08287651
30	0x3c925cf7	0.017866595
31	0xbe3acf94	-0.18243247
32	0x3f104478	0.56354475
33	0x3d3ae4b2	0.045628257
34	0xbd26aeae	-0.04069393
35	0x3db56aa6	0.08858232
36	0x3dcbfa80	0.099598885
37	0x3cb591dc	0.022164278
38	0x3d10e887	0.035378005
39	0x3de8dd9f	0.11370396
40	0xbdc80fd3	-0.09768643
41	0x3e63a4a1	0.2223077
42	0xbd8a8ce5	-0.06765155
43	0x3ce24ab2	0.027623508
44	0x3d6e543b	0.058185797
45	0x3dbff9ec	0.09373841
46	0x3e3b0c2a	0.18266359
47	0xbe60d4fb	-0.21956246
48	0x3ccd6d3c	0.025076501
49	0xbce9d726	-0.028544974
50	0x3d935995	0.07194821
51	0x3e33a8f6	0.17544922
52	0x3cc53054	0.024070896
53	0xbd505466	-0.05086174
54	0x3e1fd330	0.15607905
55	0x3df540a8	0.11975223
56	0xbe00898b	-0.12552468
57	0xbd8e7e77	-0.06957715
58	0xbd843685	-0.06455711
59	0x3e21ebf8	0.15812671
60	0xbd34182f	-0.043968376
61	0xbeada315	-0.33913484
62	0x3df0644c	0.1173788
63	0x3d650272	0.055910535
64	0x3c803bec	0.015653573
65	0x3da78d44	0.08181241
66	0xbcdd8b8a	-0.027044076
67	0xbd90a304	-0.07062343
68	0xbe1a23e4	-0.15052754
69	0x3db50bf1	0.08840168
70	0xbcd3b088	-0.025841013
71	0x3cf9396c	0.030422889
72	0x3dab6946	0.08369689
73	0x3d64d397	0.05586585
74	0x3d265ae9	0.040614042
75	0xbd268fec	-0.0406646
76	0x3ddb8265	0.1071823
77	0x3df01da7	0.11724406
78	0xbd55c63b	-0.052191
79	0xbcf15fda	-0.02946465
80	0xbe62e3e4	-0.22157246
81	0x3a2b6009	0.00065374427
82	0xbccfb544	-0.025354989
83	0x3e7eee28	0.24895537
84	0xbe62c989	-0.22147192
85	0x3e3fc440	0.18727207
86	0x3e552890	0.20816255
87	0x3d3cea42	0.046121843
88	0x3d7dac63	0.06193198
89	0x3c7aa294	0.015297551
90	0x3d9ecb15	0.077535786
91	0xbc3c2b1e	-0.011484889
92	0x3d95177d	0.07279871
93	0x3d8f3499	0.06992454
94	0xbdb0a8c2	-0.08625938
95	0x3dbb2e33	0.09139671
96	0x3e330af7	0.17484652
97	0x3d3f51c6	0.046708845
98	0x3d1fbaac	0.038996384
99	0x3d07a87c	0.033119664
100	0x3db6953c	0.08915183
101	0xba2b6684	-0.00065384083
102	0x3d34d102	0.044144638
103	0x3d035cfa	0.03207109
104	0x3e29e334	0.16590577
105	0x3dcd7f12	0.10034002
106	0xbe5c0790	-0.2148726
107	0x3f0f9549	0.56087166
108	0x3db05e1f	0.08611702
109	0xbc9df188	-0.01928021
110	0x3ea311e5	0.3184959
111	0x3e44426e	0.19165966
112	0x3ccbd130	0.024880022
113	0x3daa9e59	0.08330984
114	0x3ddd2c8b	0.107995115
115	0xbdaafbc8	-0.08348805
116	0x3ea1c93b	0.3159884
117	0x3e1bbbb4	0.15208322
118	0x3ae9aac4	0.0017827381
119	0x3e2a0170	0.16602111
120	0xbd1dce78	-0.038526982
121	0x3d5256fb	0.051352482
122	0xbcaf81b8	-0.02142416
123	0xbd50ae26	-0.05094733
124	0x3ba2f910	0.004973538
125	0x3d34010b	0.043946307
126	0x3ceafbd7	0.02868454
127	0x3d17a146	0.037019037
128	0x3de06c93	0.10958209
129	0x3db3b0aa	0.0877393
130	0x3c8eaeb5	0.017417291
131	0xbd9996f3	-0.074994944
132	0xbbb378ff	-0.0054770703
133	0x3cd3674a	0.025806088
134	0x3b4dc09f	0.0031395329
135	0x3e0443dd	0.12916513
136	0x3c617cbf	0.013762652
137	0x3c66f1b3	0.0140957115
138	0x3d56b67e	0.05242013
139	0x3d500872	0.050789304
140	0x3dd7e48c	0.10541639
141	0x3d91c485	0.07117561
142	0xbcde68ca	-0.027149577
143	0x3e23eaf9	0.16007604
144	0xbd116fdc	-0.035507068
145	0x3e35dfd3	0.17761163
146	0xbba161cf	-0.00492499
147	0x3d936204	0.07196429
148	0xbd7cfb51	-0.06176311
149	0x3dd8e5c4	0.10590699
150	0xbc119ee5	-0.008887981
151	0xbc2d3d20	-0.010573655
152	0x3e9ba345	0.30398002
153	0xbcb71dcc	-0.022353075
154	0xbdac27a1	-0.08405996
155	0x3e3a6e0a	0.18206039
156	0x3d3f8e03	0.046766292
157	0xbcc60dc8	-0.024176493
158	0x3d8eff52	0.06982292
159	0x3de6e74d	0.11274586
160	0xbd3478e0	-0.044060588
161	0x3d7924e7	0.06082621
162	0xbdba8588	-0.091075
163	0xb9ede050	-0.00045371288
164	0x3b3e6115	0.0029049565
165	0xbba96ae3	-0.0051702126
166	0x3db2a819	0.08723468
167	0xbd972127	-0.0737937
168	0xbdaff07a	-0.08590789
169	0xbd916f60	-0.07101321
170	0xbe82c122	-0.25537974
171	0x3d20d254	0.039263085
172	0xbd449fa1	-0.048003796
173	0x3dbe3372	0.09287156
174	0xbe6ca74f	-0.23110698
175	0x3d777556	0.060414635
176	0x3cd7429b	0.026276877
177	0x3c211014	0.0098304935
178	0x3dea6e7d	0.11446855
179	0x3cd19705	0.025584707
180	0x3e32e32e	0.17469475
181	0x3de2e6be	0.11079167
182	0xbcdf8a59	-0.027287649
183	0xbd864850	-0.06556761
184	0x3d96bc1f	0.073601
185	0x3eb13f45	0.34618583
186	0x3ce7fc09	0.028318422
187	0xbd5cc7a4	-0.05390133
188	0xbc9cacae	-0.019125309
189	0x3e567d41	0.20946218
190	0x3c8a665e	0.016894516
191	0xbd8167ae	-0.063186035
192	0xbd5db78f	-0.054130133
193	0xbd144c15	-0.03620537
194	0x3e0ab656	0.13546118
195	0x3db18b87	0.08669191
196	0x3e627d92	0.22118214
197	0x3d891b55	0.06694666
198	0x3d0a7e00	0.03381157
199	0xbb45b300	-0.0030166507
200	0x3dfb98b2	0.12284984
201	0x3dbdfddb	0.09276935
202	0x3d931b6b	0.07182964
203	0x3df394f4	0.11893645
204	0x3cc0d5e2	0.023539487
205	0x3e2bf123	0.16791205
206	0x3ccd1feb	0.025039634
207	0xbcb3e916	-0.02196173
208	0xbc5ecfe9	-0.013599374
209	0x3de4f887	0.11180215
210	0xbd303d93	-0.04302747
211	0x3cb0e0c9	0.02159156
212	0x3e14b3c8	0.14521706
213	0x3bf07b30	0.007338904
214	0x3c885660	0.01664275
215	0xbe82a6f3	-0.25517997
216	0x3d276a19	0.040872667
217	0xbcc1cdb0	-0.02365765
218	0x3e5f357e	0.2179775
219	0xbe81258c	-0.25223958
220	0x3ccc5471	0.024942609
221	0x3de90248	0.11377388
222	0xbbfabeb4	-0.007652128
223	0x3d87f4ef	0.06638514
224	0xbca0c7c2	-0.019626502
225	0xbd833ca2	-0.06408049
226	0x3cbab55e	0.02279156
227	0x3f202500	0.6255646
228	0x3c171468	0.009221174
229	0x3d5b2136	0.05349847
230	0x3cb45c7d	0.022016758
231	0x3d96cc84	0.07363227
232	0xbcf887ae	-0.030338135
233	0x3eb6213e	0.35572237
234	0x3dca57ae	0.09880005
235	0x3dca174e	0.09867726
236	0x3ee0109e	0.43762678
237	0xbc36d994	-0.011160273
238	0xbd24b6c4	-0.04021336
239	0xbd77baec	-0.060480997
240	0x3d8528a5	0.06501893
241	0x3d313305	0.043261547
242	0x3d495827	0.049156334
243	0xbd02219a	-0.031770326
244	0xbd2a1c30	-0.041530788
245	0xbe36e175	-0.17859443
246	0xbc04f974	-0.008116115
247	0x3d559c8a	0.05215124
248	0x3dd4e2ea	0.10394843
249	0xbdb98b1f	-0.09059738
250	0x3d1866de	0.037207477
251	0x3d53f1fc	0.051744446
252	0x3dad4b17	0.08461588
253	0x3c3bb05d	0.0114556225
254	0xbc9ee144	-0.019394524
255	0x3d95469c	0.07288858

RNN.weight_hh_l0 f4 [512, 128]
0	0xbdb5afd1	-0.08871425
1	0xbe082916	-0.13296923
2	0xbd9cd004	-0.07656863
3	0xbe361f05	-0.1778527
4	0xbdf7c190	-0.12097466
5	0x3beabc1d	0.007163538
6	0xbd7e41e9	-0.062074576
7	0x3cc929f5	0.02455614
8	0x3dcab003	0.09896853
9	0x3e1d1a00	0.1534195
10	0xbdaad3fb	-0.08341213
11	0xbdac186c	-0.084030956
12	0x3de3ba8f	0.111195676
13	0xbdbfd0b3	-0.09365978
14	0x3e16cbfc	0.14726251
15	0xbdf066b7	-0.11738341
16	0xbd1612d7	-0.03663906
17	0xbe416c32	-0.1888893
18	0x3e56b938	0.20969093
19	0x3e2f8d1b	0.17143671
20	0xbe5e2896	-0.2169517
21	0x3e0d1815	0.13778718
22	0xbda2f082	-0.079560295
23	0xbdcba91e	-0.09944366
24	0xbdb92239	-0.090397306
25	0xbe0e08f4	-0.13870603
26	0xbd3990b6	-0.045304023
27	0xbe1bc1ff	-0.15210722
28	0xbd740f46	-0.05958488
29	0xbd912650	-0.07087386
30	0xbd3ffc43	-0.046871435
31	0xbaa313b8	-0.001244179
32	0xbc8ff1e3	-0.017571395
33	0x3e39c0e0	0.18139982
34	0x3dcbaced	0.09945092
35	0xbdc2be9e	-0.095090136
36	0x3deef1db	0.11667224
37	0xbdc0a569	-0.094065495
38	0xbe87bf6a	-0.26513225
39	0x3e6afb45	0.22947414
40	0x3dfc095c	0.12306473
41	0xbd956538	-0.072946966
42	0xbcb278dd	-0.021786148
43	0xbc6e4cd4	-0.014544684
44	0xbe0d039a	-0.13770905
45	0xbe136461	-0.1439376
46	0x3d285047	0.041092183
47	0xbe668457	-0.22511421
48	0x3e2a07c4	0.16604525
49	0x3d3a3246	0.0454581
50	0x3da8e51e	0.08246826
51	0xbc5d0218	-0.013489269
52	0x3d264092	0.040588923
53	0x3dab2ff4	0.08358756
54	0x3ddb5776	0.10710041
55	0x3c9ce66d	0.019152844
56	0x3c854767	0.016269399
57	0xbe0e4ed1	-0.13897254
58	0x3d7143b0	0.058902442
59	0xbe5f4b6d	-0.21806116
60	0xbd462272	-0.048372693
61	0xbcc0aecc	-0.02352085
62	0xbd83d76f	-0.06437575
63	0x3e0c9407	0.13728343
64	0xbe21dedb	-0.15807669
65	0x3e0dd410	0.13850427
66	0x3cdb3f63	0.026763624
67	0xbdbad3a8	-0.091224015
68	0x3dfe6167	0.12420922
69	0x3e0af8cf	0.13571475
70	0x3e260af0	0.1621511
71	0x3e0764f1	0.132221
72	0x3e28d1c6	0.16486272
73	0xbb3ac432	-0.002849829
74	0x3c99d76c	0.018779479
75	0x3d9e56cb	0.07731398
76	0xbddeb1bc	-0.10873744
77	0x3d596dce	0.053083234
78	0xbd498300	-0.049197197
79	0x3e142994	0.14468986
80	0xbc953d10	-0.018217593
81	0xbd868583	-0.06568434
82	0x3e2c68ca	0.16836849
83	0x3e133234	0.1437462
84	0xbe6497b9	-0.22323503
85	0x3e0a7667	0.1352173
86	0xbdeb5446	-0.11490683
87	0xbd937c28	-0.07201415
88	0x3c612007	0.013740546
89	0x3e0bbec2	0.13646987
90	0xbdec5b9b	-0.1154091
91	0xbd52ce8d	-0.051466513
92	0x3c55a045	0.0130386995
93	0x3e44f821	0.19235279
94	0x3d217967	0.03942242
95	0xbcf4f94d	-0.029904032
96	0x3d683dc9	0.056699548
97	0xbd2a9227	-0.041643288
98	0x3d0b8e5c	0.03407131
99	0x3d98a9a6	0.07454233
100	0xbe65f852	-0.22458008
101	0x3dc34d9e	0.09536289
102	0x3d771143	0.060319196
103	0x3d7fd918	0.062462896
104	0x3d34fced	0.04418652
105	0xbdb5bd51	-0.08874
106	0x3d2338f8	0.03984925
107	0x3d1a86ac	0.03772609
108	0x3da89009	0.082305975
109	0xbd4f1bab	-0.050563496
110	0xbe22dad4	-0.15903789
111	0xbd7df26f	-0.06199878
112	0xbdbeac4c	-0.09310207
113	0x3d1ac9c8	0.03779009
114	0x3d5d517f	0.0540328
115	0xbe3cac97	-0.18425213
116	0x3dd8c5be	0.10584591
117	0xbc9188e9	-0.01776548
118	0x3cf00cfe	0.02930307
119	0x3e121056	0.14264044
120	0xbe3dd979	-0.1853999
121	0xbd1cd2f3	-0.038287114
122	0xbd8afffe	-0.06787108
123	0xbe5bdc73	-0.21470813
124	0xbd4a95c4	-0.049459234
125	0xbb446532	-0.0029967544
126	0xbd132eae	-0.03593319
127	0x3d9ed080	0.07754612
128	0xbd9bef7b	-0.07614037
129	0x3cc3b172	0.023888323
130	0x3d240250	0.040041268
131	0xbe266f91	-0.16253497
132	0xbdae05fb	-0.084972344
133	0xbd548e2d	-0.051893402
134	0x3e360d70	0.17778563
135	0xbdb93c6d	-0.090447284
136	0xbce8a972	-0.02840111
137	0xbdbaf605	-0.09128956
138	0x3b73dfcb	0.0037212248
139	0xba81c60f	-0.0009900945
140	0xbc3539aa	-0.011061111
141	0x3da1e794	0.07905498
142	0xbe4fda85	-0.20298202
143	0x3e02c14c	0.1276905
144	0x3ce3c726	0.027804922
145	0xbcb2f649	-0.021845954
146	0xbdf9cbf5	-0.12197105
147	0x3d678811	0.056526247
148	0xbc1c9a06	-0.009558206
149	0x3d8cfaa9	0.06883747
150	0x3e3025a5	0.1720186
151	0x3d9c6024	0.07635525
152	0x3e137302	0.14399341
153	0x3e1686f6	0.14699921
154	0x3ce6768f	0.028132705
155	0x3cd90152	0.026489887
156	0xbd6a11c9	-0.057145867
157	0x3e1be198	0.15222776
158	0x3d2b6a1d	0.041849244
159	0x3cc1352b	0.023584923
160	0x3b767036	0.0037603504
161	0x3dda217a	0.106509164
162	0xbe260cc8	-0.16215813
163	0x3de32c4d	0.11092434
164	0x3da8f9a3	0.082507394
165	0x3cf7ab8a	0.030233163
166	0xbd10535a	-0.03523574
167	0xbdf6d281	-0.12051869
168	0xbdae57ce	-0.08512841
169	0x3bea3e7f	0.0071485634
170	0xbc722563	-0.0147794215
171	0xbd93eaa7	-0.07222491
172	0x3ddf8c30	0.109154105
173	0x3cee4b43	0.029088622
174	0xbccb5305	-0.02481986
175	0x3d41be02	0.047300346
176	0xbd8e4fb7	-0.06948798
177	0xbd227b00	-0.039668083
178	0xbd5fbdcd	-0.054624368
179	0xbd491bfe	-0.04909896
180	0xbdb9fce0	-0.09081435
181	0x3d612df8	0.05497548
182	0xbd8cf0c5	-0.06881861
183	0xbd959031	-0.07302893
184	0xbddfbaf3	-0.109243296
185	0xbcd36140	-0.025803208
186	0xbd8a794d	-0.067614175
187	0x3d343ef9	0.044005368
188	0x3d45d284	0.048296466
189	0xbd8e0136	-0.06933825
190	0xbc71e5d7	-0.014764271
191	0xbcf33963	-0.02969045
192	0xbd65789c	-0.056023225
193	0xbdf09b76	-0.11748402
194	0x3d7a42b8	0.061098784
195	0x3e25154a	0.16121402
196	0x3d13d5f1	0.036092702
197	0xbe0da9f6	-0.13834366
198	0x3dab738c	0.08371648
199	0xbb1e1310	-0.002412025
200	0xbd2e2ea6	-0.042524956
201	0xbd8a81d3	-0.06763043
202	0xbccff18d	-0.025383735
203	0xbe0ce6ec	-0.13759965
204	0xbbbbbe84	-0.0057294983
205	0x3d57f2ca	0.052721776
206	0xbce87a77	-0.028378708
207	0xbd5da45b	-0.05411182
208	0xbce420db	-0.027847698
209	0x3e159975	0.1460932
210	0x3ce9aa86	0.028523695
211	0xbd57d308	-0.05269149
212	0x3d1a6b2b	0.03769986
213	0xbda7feae	-0.08202873
214	0xbbed5a61	-0.00724344
215	0xbce817c7	-0.02833165
216	0xbd00bab2	-0.031428047
217	0xbd8810c6	-0.06643824
218	0x3da15fbe	0.078795895
219	0x3d19cec8	0.037550718
220	0xbd378f15	-0.044814188
221	0x3dc1abd6	0.09456603
222	0x3d2985a7	0.041387226
223	0xbddff047	-0.10934501
224	0xbd17ce5c	-0.037062034
225	0x3c1b6f56	0.009486994
226	0x3d3bb6ea	0.045828737
227	0x3b8a3248	0.00421742
228	0x3dc4a663	0.09602048
229	0xbd4d46a0	-0.05011618
230	0xba82cac6	-0.0009978644
231	0xbd4f5273	-0.05061574
232	0xbd83cc0d	-0.06435404
233	0x3e1503cb	0.14552228
234	0xbd7d4171	-0.061829988
235	0xbdbc9702	-0.0920849
236	0x3c30ed1e	0.010798721
237	0xbbc7e10f	-0.006099827
238	0x3e160e68	0.14653933
239	0x3c8320cb	0.016006848
240	0x3d0de060	0.03463781
241	0x3d1a830e	0.03772264
242	0xbdae09e4	-0.0849798
243	0x3c2f7702	0.010709526
244	0xbcb4e70b	-0.022082826
245	0xbd99259e	-0.07477878
246	0xbd14732e	-0.036242656
247	0x3d84ff02	0.064939514
248	0xbda3abe9	-0.07991774
249	0x3cd6270c	0.026141666
250	0x3af41637	0.0018622343
251	0x3dc87b81	0.097891815
252	0xbc91f495	-0.017816821
253	0xbbb8bfd0	-0.0056381
254	0xbccb6391	-0.02482775
255	0xbd193618	-0.037405103

RNN.bias_ih_l0 f4 [512]
0	0x3c32ee77	0.010921112
1	0xbdcdd502	-0.10050394
2	0x3d0c52ce	0.034258656
3	0x3e440538	0.19142616
4	0xbd66c6db	-0.056341987
5	0x3d463c11	0.048397128
6	0x3e3ab3bd	0.18232627
7	0x3d1d25c4	0.038366094
8	0x3d458508	0.04822257
9	0x3dc888dc	0.09791729
10	0x3e070ab9	0.13187684
11	0x3d7226b5	0.059118945
12	0x3e2a84b7	0.16652189
13	0x3db3883e	0.087662205
14	0xbd30e4e3	-0.043187033
15	0x3e186552	0.148824
16	0x3dc43389	0.09580142
17	0x3c96edd3	0.01842395
18	0x3d2ef9b8	0.04271862
19	0x3daeb06b	0.08529743
20	0x3dead14f	0.11465704
21	0x3d45013c	0.04809688
22	0xbe4b91bf	-0.19879816
23	0x3d0ab520	0.03386414
24	0x3e52a230	0.20569682
25	0x3d6a5a38	0.057214946
26	0xbcd838c6	-0.02639426
27	0x3dc95808	0.09831244
28	0x3dc379e8	0.09544736
29	0x3e0484dd	0.12941308
30	0x3e0c1ff9	0.13684072
31	0xbcebe657	-0.028796358
32	0x3cbe3fef	0.023223845
33	0x3dd39c42	0.10332538
34	0x3d68e510	0.056859076
35	0x3c79dc8e	0.015250338
36	0xbc0fc91b	-0.008775975
37	0x3d40fb31	0.047114555
38	0x3e13d724	0.14437538
39	0x3dcebb51	0.100943215
40	0xbb417bc8	-0.0029523242
41	0x3de857f0	0.11344898
42	0x3dd65a30	0.10466421
43	0xbb39f6d7	-0.0028375888
44	0x3d2b06b1	0.04175443
45	0x3dde39aa	0.10850842
46	0x3db3ea7b	0.08784958
47	0x3da127d9	0.078689285
48	0x3e3546f2	0.17702845
49	0x3d7c6671	0.061621133
50	0xbd75f54e	-0.060048394
51	0xbe05f465	-0.1308151
52	0xbe01bb46	-0.12669095
53	0x3dc28ee3	0.0949991
54	0x3cebbbf6	0.02877615
55	0x3d87fc29	0.066398926
56	0x3da63650	0.08115828
57	0xbcae5c34	-0.0212842
58	0x3cd89226	0.026436877
59	0x3dc3c56c	0.095591396
60	0x3e296eb8	0.16546142
61	0xbd01ebdc	-0.031719074
62	0x3d55ceb8	0.052199095
63	0xbd8192a5	-0.06326798
64	0x3d3fc08b	0.046814483
65	0x3d9cf8a0	0.07664609
66	0xbc5a1008	-0.013309486
67	0x3de75ace	0.112966165
68	0x3dda3936	0.10655443
69	0xbcdda44e	-0.027055886
70	0xbda1c7ed	-0.07899461
71	0x3e0a5cd3	0.13511972
72	0x3d19419f	0.037416097
73	0x3e1ff423	0.15620475
74	0x3dbd9510	0.09256947
75	0x3e155f3c	0.1458711
76	0x3ddd1327	0.10794669
77	0x3da6f23e	0.08151673
78	0x3e2d792c	0.16940755
79	0xbd5fa709	-0.054602657
80	0x3d03b212	0.032152243
81	0x3de9c216	0.11413972
82	0xbd6b268e	-0.057409815
83	0x3dbd3360	0.09238315
84	0x3d736367	0.05942097
85	0x3df7a0b9	0.12091202
86	0xbd3207d3	-0.043464493
87	0x3e17831e	0.14796111
88	0x3d00c22a	0.03143517
89	0x3d176325	0.036959786
90	0xbd68dfa5	-0.05685391
91	0x3de9dc14	0.1141893
92	0x3dcf93d4	0.10135618
93	0xbc88fd64	-0.016722389
94	0x3dde7614	0.10862365
95	0x3e035f06	0.12829217
96	0x3ca07151	0.019585283
97	0xbe09f1a1	-0.1347108
98	0xbba284e4	-0.0049596895
99	0x3d556810	0.052101195
100	0x3e392341	0.18079855
101	0xbd827db3	-0.063716315
102	0x3d838982	0.06422712
103	0x3daa025b	0.083012305
104	0x3e406c6a	0.18791357
105	0x3ce17848	0.027523175
106	0x3d827312	0.06369604
107	0x3bf15e78	0.007365998
108	0x3cbeaa05	0.023274431
109	0x3dd3020f	0.10303127
110	0x3dc7f7a2	0.09764029
111	0x3e454ccb	0.19267575
112	0x3c022699	0.007943773
113	0x3da4ac69	0.08040697
114	0x3d8354d5	0.06412665
115	0x3ce1d7d8	0.027568743
116	0xbe2b903b	-0.16754238
117	0x3d2b3bbb	0.04180501
118	0x3d8f49f3	0.069965266
119	0x3d31516c	0.04329054
120	0x3da23554	0.07920328
121	0xbba49835	-0.0050230273
122	0xbc87f000	-0.016593933
123	0x3da92188	0.08258349
124	0x3d2e1ce6	0.04250803
125	0x3d511a00	0.051050186
126	0xbd0bf5c2	-0.03416992
127	0x3c013caf	0.007888003
128	0xbd83d630	-0.064373374
129	0x3d4341d9	0.04767022
130	0x3cf128c1	0.029438378
131	0x3b9dd17c	0.0048162322
132	0x3be98d4c	0.0071274396
133	0xbd1d3793	-0.038383078
134	0x3d75d5ed	0.06001847
135	0xbdfd7f93	-0.123778485
136	0xbd9c2224	-0.07623699
137	0x3de6bd48	0.11266571
138	0xbb2c1ba8	-0.0026261602
139	0x3bc03744	0.005865963
140	0x3d5ba070	0.053619802
141	0x3d8411f0	0.06448734
142	0xbcb42a12	-0.021992717
143	0xbe034299	-0.12818374
144	0xbdf629a9	-0.12019665
145	0x3e0cc3d5	0.13746579
146	0x3caeb1ca	0.02132501
147	0x3d6140c7	0.054993417
148	0x3df7d9de	0.12102102
149	0x3b0ff2e6	0.0021964847
150	0xbd16ca62	-0.0368141
151	0xbe303dca	-0.1721107
152	0xbe63b4db	-0.2223696
153	0xbe05733d	-0.13032241
154	0xbd143bc0	-0.036189795
155	0x3dccac03	0.09993746
156	0xbdc9462b	-0.098278366
157	0xbd581f0f	-0.052763995
158	0x3da6c9da	0.08143969
159	0xbd85a9cb	-0.06526526
160	0xbba69d9c	-0.0050847065
161	0x3d0e8f85	0.03480484
162	0x3e07bd8c	0.132559
163	0x3c37e6d7	0.01122447
164	0x3d7f7026	0.062362812
165	0x3d4a4f8f	0.04939228
166	0xbd6c2e7c	-0.05766152
167	0x3e289247	0.1646205
168	0x3ce336f7	0.02773617
169	0xbd18d1f3	-0.0373096
170	0xbe39f41c	-0.18159527
171	0xbccd44fa	-0.025057305
172	0x3d5da112	0.054108687
173	0xbc909184	-0.017647512
174	0x3d1c0a5c	0.038095817
175	0x3dd6da32	0.10490836
176	0xbde9b638	-0.114117086
177	0x3d0fec40	0.035137415
178	0x3cb96ef0	0.022635907
179	0x3e0d92ba	0.13825503
180	0xbd9fd12e	-0.0780357
181	0x3d546597	0.051854696
182	0x3e40a2ef	0.18812154
183	0x3e273a85	0.16330917
184	0x3bd9e947	0.0066501233
185	0x3d3fabf8	0.04679486
186	0x3e0da3d8	0.13832033
187	0x3d027824	0.031852856
188	0x3d1aaf42	0.037764795
189	0x3e32a2b2	0.17444876
190	0x3c8a643f	0.016893504
191	0xbdddda45	-0.10832647
192	0xbd89fa62	-0.0673721
193	0xbdff895c	-0.12477371
194	0x3c137f1b	0.009002472
195	0x3d1ddab7	0.03853866
196	0x3c942a25	0.018086502
197	0x3d846d93	0.06466212
198	0xbcff1910	-0.03113988
199	0xbe27be3f	-0.16381167
200	0x3d74fa80	0.059809208
201	0x3d11b477	0.035572495
202	0xbdbf0a99	-0.09328193
203	0xbd0ca017	-0.03433236
204	0x3e174fc3	0.1477652
205	0x3caa5a49	0.020795004
206	0x3de210d7	0.11038368
207	0x3d111375	0.035418946
208	0xbda79715	-0.081831135
209	0x3e03602e	0.12829658
210	0x3d4cca85	0.049997825
211	0xbdc1667e	-0.09443377
212	0x3d3922f3	0.045199346
213	0xbc7cbd6f	-0.015426024
214	0x3d24d9ec	0.04024689
215	0x3dcad22c	0.09903368
216	0x3cbdd745	0.023173938
217	0x3de36f34	0.11105195
218	0x3c387ce7	0.011260248
219	0xbca7fdea	-0.020506818
220	0xbd92079f	-0.0713036
221	0xbbb1f159	-0.005430382
222	0x3cf9b8bc	0.030483596
223	0x3d289b08	0.041163474
224	0x3bb785ef	0.005600683
225	0x3d2f4b27	0.04279628
226	0xbcb6b19a	-0.022301484
227	0xbcdf96c1	-0.027293565
228	0xbc246a96	-0.010035178
229	0xbd91e890	-0.07124436
230	0x3d77b223	0.06047262
231	0xbc4ccc27	-0.012499846
232	0x3db935c0	0.09043455
233	0x3e1eb2a7	0.15497838
234	0x3dcc84a9	0.099862404
235	0x3c6e9bac	0.014563482
236	0x3ae124ed	0.0017177142
237	0x3e137da1	0.14403392
238	0x3d8b467d	0.06800554
239	0x3d193c11	0.0374108
240	0x3d9bdce7	0.07610493
241	0x3ddb4d3b	0.1070809
242	0x3dd1d7da	0.102462485
243	0x3e11b133	0.14227752
244	0xbd4a6ffc	-0.049423203
245	0xbd92223b	-0.07135435
246	0x3e2a40e6	0.1662632
247	0x3c9e6aa0	0.019337952
248	0x3e39fff8	0.1816405
249	0xbd59c04a	-0.053161897
250	0x3dbafefc	0.09130666
251	0x3df3debf	0.1190772
252	0xbbac9bd9	-0.005267602
253	0x3b984835	0.0046472796
254	0x3d9c0b9b	0.07619401
255	0x3c8ce8bf	0.017200826

RNN.bias_hh_l0 f4 [512]
0	0x3e1f0d8f	0.15532516
1	0xbc6f95a7	-0.014623082
2	0x3df7b917	0.1209585
3	0x3e5d3687	0.21602832
4	0x3b3f9f7a	0.0029239343
5	0xbd0a4b6b	-0.03376333
6	0x3e0fec21	0.1405492
7	0x3d79b689	0.060965095
8	0xbd5ef79d	-0.05443536
9	0x3de59a05	0.112110175
10	0x3d9d9010	0.07693493
11	0x3d9db2b8	0.077001035
12	0x3c1d63af	0.009606286
13	0x3da3ca68	0.0799759
14	0xbc8a3204	-0.016869552
15	0x3d989774	0.074507624
16	0x3dc0b02a	0.09408601
17	0x3dc62ee1	0.0967691
18	0x3c9c604d	0.019088889
19	0x3dd554e6	0.10416584
20	0x3d0b824f	0.03405982
21	0x3d958635	0.073009886
22	0xbe1515e9	-0.1455914
23	0xbd3bfc57	-0.045894947
24	0x3e4a2211	0.19739558
25	0x3dbedac9	0.09319074
26	0xbd49cbf4	-0.04926677
27	0x3d8fc7cf	0.07020532
28	0x3cc2e3ac	0.023790203
29	0x3ceee8a6	0.02916367
30	0x3e261556	0.16219077
31	0xbdf9942a	-0.12186463
32	0x3e0b973d	0.13631912
33	0x3d0ca59c	0.034337625
34	0x3dd151d9	0.10220689
35	0x3db32682	0.08747579
36	0x3dc940d2	0.098268166
37	0x3e1b6d47	0.15178405
38	0x3e3f7236	0.18695912
39	0xbd914b99	-0.07094497
40	0x3e070471	0.13185288
41	0xbc8e6b2a	-0.017385084
42	0x3d5d9502	0.054097183
43	0x3d8d50e3	0.069001935
44	0x3dc865ed	0.09785066
45	0x3dca5fb8	0.09881538
46	0x3cda5d9f	0.02665597
47	0x3e327091	0.17425753
48	0x3e10e6db	0.14150564
49	0x3c9d3be0	0.01919359
50	0xbd8d5a4d	-0.06901989
51	0x3d1184a0	0.03552687
52	0xbcb4f7db	-0.022090843
53	0x3b94940c	0.00453425
54	0x3d4ebd61	0.050473575
55	0x3ccca53b	0.024981132
56	0x3e345802	0.17611697
57	0x3d9c729d	0.07639048
58	0x3e4306dc	0.19045585
59	0x3d890d3e	0.06691979
60	0x3e1aa184	0.15100676
61	0x3da88919	0.08229274
62	0xbda428ce	-0.080155954
63	0x3c87240e	0.016496684
64	0xbca8ff1f	-0.020629464
65	0xbd7963a1	-0.06088603
66	0x3e17df6f	0.14831327
67	0x3d0b0c73	0.03394742
68	0x3e07d90e	0.13266394
69	0xbcdafa84	-0.026730783
70	0xbd1074ad	-0.03526752
71	0x3e417d83	0.18895535
72	0x3d637484	0.05553104
73	0x3df89622	0.121380106
74	0x3e293f1b	0.16527979
75	0x3db56848	0.08857781
76	0x3da3ba71	0.07994545
77	0x3e01f21c	0.12690014
78	0x3db5796d	0.08861051
79	0xbe3b390b	-0.18283479
80	0x3e2af4b4	0.1669491
81	0x3e295891	0.16537692
82	0x3cceee51	0.025260122
83	0x3ce1c50f	0.027559785
84	0x3d494566	0.04913845
85	0xbd09e13f	-0.033662077
86	0xbd6b0e95	-0.057386953
87	0x3d9e917d	0.077425934
88	0xbd286bb3	-0.041118335
89	0x3dee971e	0.11649917
90	0xbd889c59	-0.06670446
91	0x3ca2e2e5	0.019883582
92	0x3ded9aaf	0.11601769
93	0x3cf080bc	0.02935826
94	0x3b2993f1	0.0025875533
95	0x3b9351d9	0.004495841
96	0xbdbeebf1	-0.09322346
97	0xbd9ebdcb	-0.07751044
98	0x3d86ecdc	0.06588146
99	0xbd776cb1	-0.06040639
100	0x3e2df62c	0.16988438
101	0xbe30f8de	-0.17282435
102	0x3de1ced8	0.110257804
103	0x3de0e20c	0.10980615
104	0x3d214d0e	0.039380126
105	0x3da520da	0.080629066
106	0x3e02b69e	0.12764975
107	0x3d73611f	0.059418794
108	0x3dcc0b39	0.09963078
109	0x3d8c23b5	0.06842748
110	0x3bc45775	0.005991871
111	0x3d6eaef1	0.058272306
112	0x3d7b4c57	0.0613521
113	0xbd8d922b	-0.06912645
114	0xbca6f6c2	-0.020381335
115	0x3cd84fb9	0.026405202
116	0xbd9688ae	-0.07350288
117	0x3d952db4	0.07284108
118	0x3e66967a	0.2251834
119	0xbbbd6b2c	-0.005780598
120	0x3cba7e13	0.022765195
121	0xbc6dc13e	-0.014511405
122	0x3cbe451e	0.023226317
123	0x3e1a29b0	0.15054965
124	0x3d99060f	0.07471859
125	0x3e005b8b	0.12534921
126	0xbd05fd28	-0.03271213
127	0x3d790504	0.0607958
128	0xbcabab59	-0.020955728
129	0x3d2fd860	0.04293096
130	0x3c32f3cd	0.010922384
131	0x3d990e08	0.074733794
132	0xbb3f544b	-0.002919453
133	0x3dbafac0	0.09129858
134	0x3ce772a8	0.028252915
135	0xbdb58e91	-0.08865083
136	0xbd9e3a9c	-0.077260226
137	0x3e296a7b	0.16544525
138	0xbd52cc03	-0.051464092
139	0x3d791f39	0.060820792
140	0x3c204a73	0.009783375
141	0x3d5948de	0.053048007
142	0x3ba52588	0.0050398745
143	0x3bcac324	0.0061878134
144	0xbced7574	-0.02898667
145	0x3e00ccbe	0.12578103
146	0x3cc09dd9	0.023512768
147	0xbce8d35a	-0.028421093
148	0xbcbacc0c	-0.022802375
149	0x3e0db914	0.13840133
150	0xbcb637ad	-0.022243345
151	0xbd9fa704	-0.077955276
152	0xbe728f1b	-0.23687403
153	0xbe3f64e1	-0.18690826
154	0xbd35e75f	-0.044410106
155	0x3d8721e2	0.065982595
156	0xbd24691d	-0.040139306
157	0xbdf379a3	-0.11888435
158	0x3c88c34a	0.016694684
159	0x3d25f406	0.040515922
160	0xbc826ab0	-0.015920013
161	0xbd8e42c9	-0.06946332
162	0x3e07a413	0.13246183
163	0xba950c7b	-0.0011371517
164	0xbda5e0f4	-0.08099547
165	0x3d1396f0	0.036032617
166	0xbce4885a	-0.027897049
167	0x3cd1a7d3	0.02559272
168	0x3d98043b	0.07422682
169	0x3d9eda82	0.07756521
170	0xbe02bf78	-0.12768352
171	0x3c3d3420	0.011548072
172	0x3d5d9a2b	0.054102104
173	0xbdaf4c26	-0.08559446
174	0x3d3d20df	0.046173926
175	0x3e4431db	0.19159643
176	0xbd05782f	-0.03258532
177	0x3de0b3ba	0.1097178
178	0xbcbfa60b	-0.023394605
179	0x3bbc2da8	0.0057427473
180	0xbcb30244	-0.021851666
181	0x3d011197	0.031510916
182	0x3d343f6d	0.0440058
183	0x3d970d59	0.07375593
184	0x3d400756	0.046881996
185	0x3cbaea3f	0.022816775
186	0x3de1a111	0.11017049
187	0xbd8ca4e2	-0.068673864
188	0x3d8b3982	0.06798078
189	0x3e2a753a	0.16646281
190	0x3d85e843	0.06538441
191	0x3b9a1045	0.0047016465
192	0xbd860337	-0.06543582
193	0xbca4d5e0	-0.020121515
194	0x3ca7565c	0.020426922
195	0x3cb34d6f	0.02188751
196	0xbdaabfcd	-0.08337364
197	0xbcd3b2ec	-0.025842153
198	0x3dc26249	0.09491403
199	0xbdceef05	-0.10104183
200	0x3d6ee96b	0.058328073
201	0x3df03655	0.11729113
202	0xbe07993b	-0.13242047
203	0x3db395b3	0.08768787
204	0x3e133b46	0.1437808
205	0x3db5fee3	0.088865064
206	0xbc492e59	-0.012279117
207	0xbd3a5257	-0.04548868
208	0xbbf66902	-0.007519842
209	0x3e1a3da7	0.15062581
210	0x3d0db490	0.034596026
211	0xbe02850d	-0.12746067
212	0x3e06001a	0.13085976
213	0x3da512a4	0.08060196
214	0x3dd95262	0.106114164
215	0x3e1b7014	0.15179473
216	0x3cf0b850	0.029384762
217	0x3e52d145	0.20587642
218	0x3dca583a	0.09880109
219	0x3dad50ff	0.084627144
220	0xbd78a987	-0.06070855
221	0x3e156ba2	0.1459184
222	0xbc8dcbf7	-0.017309172
223	0xbdbb2b14	-0.09139076
224	0x3dc4e6e2	0.0961435
225	0x3d84a264	0.06476286
226	0x3d8fd1ba	0.07022424
227	0x3d813572	0.06309022
228	0x3b8ee69a	0.004360986
229	0xbdc53765	-0.09629706
230	0xb828aa98	-4.02132e-05
231	0x3a40dafd	0.00073568505
232	0x3e2d9eec	0.16955155
233	0x3e1dfdc3	0.15428834
234	0x3e1d76f5	0.1537741
235	0x3cac0f89	0.021003501
236	0x3de0d34f	0.10977804
237	0x3da6de9b	0.081479274
238	0x3ded5c1e	0.115898356
239	0xbc54f6f6	-0.012998333
240	0x3e50a590	0.20375657
241	0x3c87ee3c	0.016593091
242	0x3dae654f	0.08515417
243	0x3d894ba1	0.06703878
244	0xbdac64b7	-0.08417647
245	0x3cd6c135	0.026215175
246	0x3dbb9017	0.09158342
247	0x3db067d6	0.08613555
248	0x3cc32d1b	0.023825219
249	0x3cbf93ce	0.023385908
250	0x3de87ce6	0.113519475
251	0x3dafdddb	0.085872374
252	0xbcc63ab9	-0.024197923
253	0x3dae5a51	0.0851332
254	0x3d9a750c	0.07541856
255	0x3c047bdf	0.008086174

actor.weight f4 [5, 128]
0	0xbe495389	-0.19660772
1	0x3db8d242	0.090244785
2	0xbe1fc5f8	-0.15602863
3	0x3eaee074	0.3415562
4	0x3d9551f6	0.072910234
5	0xbe845e5c	-0.2585324
6	0xbd678e42	-0.056532152
7	0x3de868c8	0.113481104
8	0x3c5296a7	0.012853301
9	0x3dae92ce	0.085240945
10	0x3c973515	0.018457929
11	0x3dbace5d	0.09121392
12	0x3c564521	0.013078005
13	0x3d84f646	0.064922854
14	0xbe2d3677	-0.16915308
15	0xbd9d1f6e	-0.0767201
16	0x3deb4777	0.1148824
17	0xbdd65e05	-0.104671516
18	0x3e54d98b	0.20786111
19	0x3e71a636	0.2359856
20	0xbe54f0be	-0.20794961
21	0xbd84dc8c	-0.064873785
22	0xbd18c84c	-0.037300393
23	0x3cd2688d	0.02568462
24	0xbdc46548	-0.0958963
25	0xbcebb7d2	-0.028774176
26	0xbd939e69	-0.07207949
27	0xbe1a5c9d	-0.15074392
28	0xbd93d0ec	-0.07217583
29	0xbe2f6da7	-0.17131673
30	0xbe09c6a8	-0.13454688
31	0x3d9dc4b7	0.07703536
32	0x3cd8256c	0.026385032
33	0xbe898ace	-0.26863712
34	0x3dbbd938	0.091722906
35	0xbd88826f	-0.06665503
36	0xbd82f262	-0.06393887
37	0xbe25b679	-0.16182889
38	0xbe5f0aa2	-0.217814
39	0x3e67442c	0.225846
40	0xbbcf0d48	-0.006318722
41	0x3b4fb9c8	0.0031696428
42	0xbe116bb0	-0.14201236
43	0x3e05a924	0.13052803
44	0xbdcc4578	-0.099741876
45	0xbe3432e4	-0.17597538
46	0x3cdd9e59	0.027053045
47	0x3c5d5da6	0.013511097
48	0x3e0cf707	0.13766108
49	0xbdd03b04	-0.10167506
50	0xbe532468	-0.20619357
51	0xbd2d9b00	-0.042384148
52	0xbcacaa47	-0.021077288
53	0xbe2acdcc	-0.16680068
54	0xbd981b11	-0.074270375
55	0x3e00479c	0.12527317
56	0x3e288fc3	0.1646109
57	0xbcc84d0e	-0.024450805
58	0x3d13a3da	0.036044933
59	0xbd97436c	-0.073859066
60	0xbe0d69a4	-0.1380983
61	0xbd8b0cfc	-0.06789586
62	0xbd0c22c1	-0.03421283
63	0x3dae5096	0.08511464
64	0xbc3bb04b	-0.011455606
65	0x3e0124b4	0.12611657
66	0xbdb3faca	-0.087880686
67	0xbd9fb862	-0.0779884
68	0xbd673b36	-0.056452952
69	0x3d370001	0.044677738
70	0xbd0239dd	-0.031793464
71	0x3d81fcde	0.06347059
72	0xbdc4271b	-0.09577771
73	0xbd23e0b7	-0.040009227
74	0x3e099f51	0.1343968
75	0x3dbd324f	0.09238111
76	0xbe5fa6f1	-0.21841027
77	0x3de7dcf5	0.11321441
78	0xbde1573d	-0.110029675
79	0xbd780f65	-0.060561556
80	0xbe95ddaa	-0.2927068
81	0xbd258c89	-0.040417228
82	0xbddae48d	-0.10688124
83	0x3e44db25	0.19224222
84	0xbeb28d15	-0.34873262
85	0x3dade9f9	0.08491892
86	0x3e046b40	0.12931538
87	0xbe236b88	-0.15958989
88	0x3cfd7904	0.030941494
89	0x3e30fec0	0.1728468
90	0xbda2f48e	-0.07956801
91	0xbe254441	-0.16139318
92	0x3dd4d657	0.103924446
93	0xbe59f5de	-0.21285197
94	0x3c964bfa	0.018346775
95	0x3e16b713	0.14718275
96	0x3d40758e	0.04698711
97	0xbdb525ea	-0.08845122
98	0xbe960361	-0.29299453
99	0xbd8bebf0	-0.06832111
100	0xbe2c66f6	-0.16836151
101	0x3cac8da5	0.021063635
102	0x3e11aaa3	0.14225249
103	0xbcbce750	-0.023059517
104	0x3d5900ed	0.0529794
105	0xbdfe8abb	-0.124288045
106	0xbe0d2af9	-0.13785924
107	0xbda12000	-0.07867432
108	0xbdd5b978	-0.10435766
109	0xbd107a8b	-0.035273116
110	0xbd8fe469	-0.07025988
111	0xbc962375	-0.018327454
112	0xbd8f3367	-0.06992226
113	0x3b0bbfa4	0.0021323944
114	0xbc868975	-0.016422966
115	0x3dad4a86	0.0846148
116	0xbd30edb1	-0.04319543
117	0xbebabdfb	-0.3647307
118	0x3c3236d3	0.010877329
119	0xbe1f9e95	-0.15587838
120	0xbe46bdbf	-0.1940832
121	0x3e8f409f	0.2797899
122	0xbe0a48b3	-0.13504295
123	0xbe2c3492	-0.16816929
124	0xbd8cce8d	-0.06875334
125	0xbd20014a	-0.03906373
126	0x3cc695fd	0.024241442
127	0x3c9aeac9	0.018910782
128	0x3e20d1fe	0.15705106
129	0xbcf25578	-0.02958177
130	0xbe4fb0f0	-0.2028234
131	0xbecb0cd4	-0.39658225
132	0xbe7d0761	-0.24709846
133	0x3ea9183e	0.33026308
134	0xbcef102e	-0.02918252
135	0x3e0d4a55	0.13797887
136	0x3d804d1e	0.06264709
137	0xbd24e6b9	-0.040259097
138	0xbdd3ff09	-0.103513785
139	0x3d9ed288	0.077549994
140	0x3d462b7f	0.048381325
141	0x3c227888	0.009916432
142	0x3d9f3ec1	0.07775641
143	0x3d13507c	0.035965428
144	0x38975600	7.21626e-05
145	0xbd25f7da	-0.040519573
146	0x3cf57a81	0.029965641
147	0x3e07681a	0.13223305
148	0xbde754f3	-0.112955
149	0xbde7bb22	-0.113149896
150	0xbce8e5a3	-0.028429812
151	0xbd7f731c	-0.062365636
152	0xbe83d325	-0.25747028
153	0xbe9c71ea	-0.3055566
154	0xbdaba3b0	-0.0838083
155	0xbcc5f6b0	-0.024165481
156	0xbea1a115	-0.31568208
157	0x3bf1891e	0.007371082
158	0xbd1a9464	-0.037739173
159	0xbd7a9d3d	-0.06118511
160	0xbd6a1e7a	-0.05715797
161	0x3e8e9db0	0.2785468
162	0x3db87541	0.090067394
163	0xbdbce155	-0.09222666
164	0x3e4d7405	0.20063789
165	0xbdabeeae	-0.08395134
166	0xbc281394	-0.010258574
167	0x3d95e3b1	0.07318819
168	0x3e17f416	0.14839205
169	0x3ddb045e	0.10694192
170	0xbe36f0ed	-0.17865343
171	0x3e615262	0.22004083
172	0xbe8f0191	-0.27930883
173	0xbdfb6b5e	-0.12276338
174	0x3c82c910	0.015965015
175	0x3d82f2e5	0.06393985
176	0x3ddefda3	0.10888221
177	0xbe283935	-0.16428073
178	0x3e28263d	0.16420837
179	0xbe21ce7e	-0.15801427
180	0x3ce6833d	0.028138751
181	0x3c3c2781	0.011484028
182	0xbdc0017f	-0.09375285
183	0x3df755ec	0.12076935
184	0x3d92f1cd	0.07175026
185	0xbc8384f7	-0.016054614
186	0x3cdde9b4	0.027088977
187	0xbe0b85b2	-0.1362522
188	0xbd9916a5	-0.07475022
189	0xbca7a0c3	-0.0204624
190	0xbc9f8c29	-0.019476013
191	0x3d2aa47e	0.04166078
192	0xbe5c0151	-0.21484877
193	0x3c8e5775	0.017375687
194	0x3da2c302	0.07947351
195	0xbdff9613	-0.12479796
196	0x3db1e082	0.086853996
197	0x3d80dd10	0.06292164
198	0xbe187849	-0.14889635
199	0x3dc29168	0.0950039
200	0x3e22194b	0.15829961
201	0xbdd83c60	-0.105583906
202	0xbd7ade0a	-0.06124691
203	0x3e0aba00	0.13547516
204	0xbdd62bf0	-0.10457599
205	0xbbb6a2bb	-0.005573598
206	0xbd973a9a	-0.07384224
207	0xbd210159	-0.039307926
208	0x3e6b1343	0.22956567
209	0xbdfeb47f	-0.12436771
210	0x3e3d19cf	0.18466876
211	0x3e7b5cce	0.24547121
212	0xbda04df4	-0.078273684
213	0x3e11703b	0.14202969
214	0xbe7db223	-0.24774985
215	0xbdc99cd8	-0.09844369
216	0x3d822422	0.06354548
217	0x3d11fcc9	0.035641465
218	0xbe5036e7	-0.20333444
219	0x3db4f84c	0.08836421
220	0x3e144fad	0.14483519
221	0x3e191ee3	0.14953189
222	0xbd1d9564	-0.038472548
223	0x3e62cac9	0.22147669
224	0x3d3f075a	0.04663787
225	0xbe5f54ef	-0.21809743
226	0x3e5bb820	0.21456957
227	0x3cdeebe7	0.027212096
228	0xbe1f121c	-0.15534252
229	0xbd7837fa	-0.06060026
230	0x3e037a3b	0.12839596
231	0xbdcc833e	-0.0998597
232	0xbc77bef7	-0.015121213
233	0xbe1a337e	-0.15058705
234	0xbe48cf53	-0.19610338
235	0x3e1f915b	0.15582792
236	0x3c8692ae	0.016427364
237	0x3e0e5fc8	0.13903725
238	0xbe0440af	-0.129153
239	0x3dd8bb03	0.10582545
240	0x3cf13088	0.029442087
241	0xbd8f0c0a	-0.06984718
242	0x3e06c638	0.13161552
243	0xbd536bbc	-0.051616415
244	0xbdc2077a	-0.09474082
245	0x3de7be99	0.113156505
246	0x3d3473dd	0.04405581
247	0x3dd83c90	0.105584264
248	0x3d740e2d	0.05958383
249	0xbeb81387	-0.35952398
250	0x3e23b70e	0.15987799
251	0xbe29c7f6	-0.16580185
252	0x3c6c45e2	0.014420958
253	0x3e0c4210	0.13697076
254	0xbdc10966	-0.09425621
255	0x3e159dd2	0.14610985

actor.bias f4 [5]
0	0xbabf806c	-0.0014610416
1	0x3d448d30	0.04798621
2	0xbdb247d6	-0.08705108
3	0xbdc7a7fa	-0.09748836
4	0x3c86679d	0.016406829

critic.weight f4 [1, 128]
0	0x3cf5c8b7	0.030002935
1	0xbd97bd01	-0.074090965
2	0x3d956e05	0.07296375
3	0x3d2b3d77	0.041806664
4	0xbe2b7bd9	-0.16746463
5	0xbc22e7c4	-0.009942953
6	0xbdaf4a1b	-0.08559056
7	0x3d3b1c77	0.045681443
8	0x3db54ff3	0.0885314
9	0x3dd4366c	0.10361943
10	0x3ca25b71	0.019818993
11	0x3cb510e9	0.02210279
12	0x3d76f34b	0.060290616
13	0xbe2837ed	-0.16427584
14	0x3dc0dcee	0.09417139
15	0x3a2e7a88	0.0006655832
16	0x3d9d973f	0.076948635
17	0xbd7430bf	-0.0596168
18	0xbd11c70a	-0.03559021
19	0x3ca30ce9	0.019903617
20	0xbca6b8fb	-0.020351877
21	0x3dd34cb3	0.103173636
22	0x3d9503cf	0.07276117
23	0x3c5c4193	0.0134433685
24	0x3d975277	0.07388776
25	0x3ca8199b	0.020520022
26	0xbd1565ef	-0.036474165
27	0xbe1dffea	-0.15429655
28	0x3cfe2115	0.031021634
29	0xbdc2afe3	-0.09506204
30	0x3d7b171b	0.061301332
31	0xbe044956	-0.129186
32	0xbcd9989e	-0.026562031
33	0xbd08ce6a	-0.033399977
34	0x3d7a8cfe	0.061169617
35	0x3cd6b928	0.026211336
36	0xbb937dad	-0.0045010657
37	0xbcd0c889	-0.025486248
38	0x3da25b46	0.07927565
39	0xbd76d4e6	-0.06026163
40	0x3e46f4c1	0.19429304
41	0xbe3758a9	-0.17904915
42	0x3e07093a	0.13187113
43	0xbca162b0	-0.019700378
44	0xbd6a3d99	-0.05718765
45	0x3e14b022	0.14520314
46	0x3e16155b	0.14656584
47	0xbe35eb83	-0.17765622
48	0xbc62b177	-0.013836256
49	0x3dd210d6	0.102571175
50	0x3d8a9191	0.06766046
51	0x3c7882ac	0.015167873
52	0x3ca5a376	0.020219546
53	0x3e1b3501	0.15156938
54	0x3d8821f9	0.06647105
55	0x3c4fa51f	0.012673645
56	0x3c807014	0.015678443
57	0xbc230eea	-0.009952286
58	0x3dcbed25	0.09957341
59	0xbd542ab9	-0.051798556
60	0x3ceda598	0.029009625
61	0x3e12b999	0.14328612
62	0xbcdf7529	-0.027277546
63	0x3ca3acfc	0.019979946
64	0xbd5b0c99	-0.05347881
65	0xbd3cb2e5	-0.046069045
66	0xbbd70cdc	-0.0065628123
67	0x3d267f56	0.04064878
68	0x3d886a70	0.06660926
69	0x3c25b48a	0.010113845
70	0x3d395f7e	0.045257084
71	0x3df0c7b2	0.11756839
72	0xbd81c4cf	-0.063363664
73	0x3e1d0e2a	0.15337434
74	0x3d529893	0.051415037
75	0x3d6f9068	0.058487326
76	0xbde43468	-0.11142808
77	0x3cd9fd64	0.026610084
78	0xbb60ea63	-0.0034319393
79	0xbd1e9f37	-0.038726058
80	0xbda19696	-0.0789005
81	0xbe2d55e7	-0.169273
82	0x3dba25ac	0.090892166
83	0x3d265946	0.04061248
84	0x3c76cb90	0.0150631815
85	0x3cb6417a	0.022248019
86	0xbd493b5e	-0.049128883
87	0xbdc75762	-0.09733464
88	0x3e0210f5	0.12701781
89	0x3d29fbcf	0.04149991
90	0x3dc19ede	0.0945413
91	0xbbbfa244	-0.005848201
92	0x3d6aa759	0.0572885
93	0xbd9f388e	-0.07774459
94	0x3cfdbf78	0.030975088
95	0x3cb76bc7	0.02239026
96	0x3d353798	0.04424247
97	0x3d7186d0	0.058966458
98	0x3d4aad1a	0.04948149
99	0xbd1bc13c	-0.03802608
100	0xbe14ade7	-0.14519463
101	0x3d9168b9	0.071000524
102	0xbd1ef2fc	-0.038805947
103	0x3da662c7	0.08124309
104	0x3e4a0d11	0.19731547
105	0x3be2604a	0.006908451
106	0x3e1faeaf	0.1559398
107	0x3e4c1c0c	0.19932574
108	0x3da25970	0.07927215
109	0xbd699fa4	-0.05703701
110	0xbdaed084	-0.08535865
111	0xbbaaa188	-0.0052072443
112	0xbd592694	-0.053015307
113	0xbc5d3697	-0.013501785
114	0x3d0e0670	0.034674108
115	0xbe86fbd6	-0.2636401
116	0xbd1d01a3	-0.03833164
117	0xbe047f07	-0.12939082
118	0x3deed562	0.11661793
119	0xbc5b1dcd	-0.013373804
120	0xbd0d17a1	-0.034446362
121	0xbb392d3c	-0.0028255722
122	0x3d06ba2e	0.0328924
123	0xbe0d44b8	-0.13795745
124	0xbe1db942	-0.15402701
125	0x3e0e833d	0.13917251
126	0xbca5d6a7	-0.020243956
127	0x3e4343d3	0.19068842
