OLD/Liu/cont/v_3/train_iter_53500.pt (torch, 954311 bytes, 9 tensors)

h0 f4 [128]
0	0xbf88c995	-1.0686518
1	0x401d89be	2.461532
2	0xbee4de17	-0.4470069
3	0xc00719be	-2.1109462
4	0x3e8ff6e0	0.28118038
5	0x3f0e7700	0.5565033
6	0xbf1ad19c	-0.6047609
7	0xbea8e282	-0.32985312
8	0xbf02d587	-0.51107067
9	0x3f97c781	1.1857759
10	0x4008043c	2.1252584
11	0x3fec5c97	1.8465756
12	0x3fc731e2	1.5562098
13	0x3ffb6c01	1.9642335
14	0xbe623be3	-0.22093157
15	0x3df8ce20	0.1214869
16	0x3ff671ef	1.925352
17	0xbeebae0e	-0.4603123
18	0xbebb1aa2	-0.36543757
19	0x3ce5c116	0.028046172
20	0xbf171caf	-0.5902814
21	0xbb59ec27	-0.003325233
22	0xbface6db	-1.3507951
23	0xbff4bdcd	-1.9120423
24	0xbfae9ba3	-1.3641247
25	0x3fce9d90	1.6141834
26	0xbed00059	-0.40625265
27	0x3f7d9555	0.9905599
28	0xbf11f478	-0.57013655
29	0x3e902f0e	0.281609
30	0xbecd47b6	-0.40093774
31	0x3f5bcc67	0.8585877
32	0xbf87ef84	-1.0619969
33	0x3fbe4e06	1.4867561
34	0x3ea6aa29	0.32551697
35	0xbfb487d4	-1.4103951
36	0x3e566a73	0.20939045
37	0xbf56589c	-0.8372896
38	0x3e852233	0.26002654
39	0x3f3f0e27	0.7463097
40	0xbec2aead	-0.38023892
41	0xbf22dd6c	-0.6361911
42	0xbf0c2bcb	-0.5475432
43	0xc0069c4f	-2.1032903
44	0xbdd22513	-0.102609776
45	0x3c313716	0.010816356
46	0x3c8168a3	0.015796965
47	0x3e8ecddf	0.27891442
48	0x3f839c84	1.028214
49	0x3fc12458	1.5089216
50	0xbee5e333	-0.44899902
51	0x3fceda7c	1.6160426
52	0x3e3022d0	0.1720078
53	0x3ec4073e	0.38286775
54	0xbfb91ec8	-1.4462519
55	0x3e851c7e	0.259983
56	0x3f62ecf8	0.88642836
57	0x3b4fee38	0.0031727683
58	0xbeee7899	-0.46576384
59	0x3eccda31	0.40010217
60	0x3eac1e1b	0.3361672
61	0xbfcc5ef8	-1.5966482
62	0x3e9f5d95	0.31126085
63	0x3fc138f8	1.509551
64	0x40146f91	2.3193095
65	0x3fb136e7	1.384488
66	0x3e3e52c3	0.18586259
67	0xbfc6affe	-1.5522459
68	0xbfca738a	-1.581651
69	0x3f029a13	0.5101635
70	0x3eecc60e	0.46244854
71	0xbdda7eac	-0.10668692
72	0x3f00f2c2	0.5037042
73	0xbf8b2dc2	-1.0873339
74	0x3fb220e3	1.3916286
75	0xbff007d6	-1.8752391
76	0xbf3176f7	-0.6932215
77	0xbfc1ee2e	-1.5150812
78	0xbeba61d1	-0.36402753
79	0x3f17b026	0.59253156
80	0xbeccf65d	-0.4003171
81	0x4007c52f	2.1214101
82	0xbf074b39	-0.52849156
83	0x3efc12a4	0.49232972
84	0xbe6f6be9	-0.23381008
85	0xbf650874	-0.89466023
86	0xbf997cc5	-1.1991202
87	0xbe7cd438	-0.2469033
88	0x3e9895cb	0.29801783
89	0x3f525045	0.8215373
90	0x3eadd612	0.33952385
91	0x3eb4d7ef	0.35320994
92	0x3e8fb6bf	0.28069112
93	0x3ef1b37a	0.47207242
94	0xbf190983	-0.5978014
95	0x3dd58f20	0.104276896
96	0xbf4b524c	-0.7942245
97	0x3f1af50c	0.6053016
98	0x3e986072	0.29761082
99	0x3e154b90	0.14579606
100	0xbee93910	-0.45551348
101	0x3f3134e2	0.6922132
102	0x3f7120ab	0.9419047
103	0x3f87f2e4	1.0620999
104	0x3fb856a5	1.4401442
105	0x3f185781	0.5950852
106	0x3f2a011b	0.66407937
107	0xbf49de7f	-0.7885513
108	0xbf11b615	-0.5691846
109	0x3f69888a	0.9122397
110	0xbfd5c5a8	-1.6700945
111	0x3fa4ea44	1.2883992
112	0x400e3a36	2.222303
113	0xbed1c938	-0.4097383
114	0xbdf9dbb1	-0.12200106
115	0x3f0cf0fd	0.5505522
116	0x3fbc266e	1.4699228
117	0xbf6098f9	-0.8773342
118	0xbefd40c7	-0.49463484
119	0x3f9547cf	1.1662539
120	0x3e3c4aeb	0.18387954
121	0x3f27e740	0.65587234
122	0xbf9e990c	-1.2390456
123	0xbf983431	-1.1890928
124	0x3f73dd1f	0.9525928
125	0x3e06e68f	0.13173889
126	0x3f862988	1.0481424
127	0xbf5aa929	-0.8541437

c0 f4 [128]
0	0xbd4b826e	-0.049684934
1	0xbe964795	-0.29351488
2	0x3f278cc7	0.65449184
3	0x3f487d74	0.78316426
4	0xbf9bbe23	-1.21674
5	0x3f1678ea	0.5877825
6	0x3fd2dbfd	1.6473385
7	0xbf479c22	-0.77972615
8	0xbf61bf16	-0.881822
9	0x3ecb2cd2	0.39682633
10	0x3df46b34	0.1193451
11	0xbf3ef479	-0.74591786
12	0x3f81e111	1.014681
13	0x3ee75017	0.4517829
14	0xbf2db852	-0.67859375
15	0x3cccfe4d	0.025023604
16	0xbf87b305	-1.0601507
17	0xbf771a5b	-0.9652459
18	0xbf6e5a88	-0.9310689
19	0x3fda22b3	1.7041839
20	0x4000f32b	2.0148418
21	0xbf8b99e8	-1.0906343
22	0xbf119d28	-0.56880426
23	0xbeec8a1d	-0.46199122
24	0xbedd72cc	-0.43251646
25	0x3ea2c20c	0.3178867
26	0x3fc746a3	1.5568432
27	0xbe0e1b93	-0.13877706
28	0xbeee639c	-0.4656037
29	0xbed407ed	-0.41412297
30	0xbf430b0d	-0.7618874
31	0x3e599014	0.21246368
32	0xbf99bbe3	-1.2010463
33	0xbed326fd	-0.41240683
34	0x3f42d083	0.76099414
35	0x3f98575b	1.1901659
36	0xc0145c78	-2.3181438
37	0x3e87837c	0.26467502
38	0x3e74a521	0.23891117
39	0x3f014342	0.5049325
40	0x3e98433f	0.29738805
41	0xbfdc758b	-1.7223371
42	0x3ea16edb	0.3152989
43	0xbfadf9f4	-1.3591905
44	0xbe7aa09c	-0.2447533
45	0xbdaeb4e1	-0.08530594
46	0x3f8d4651	1.1037084
47	0x3f1623da	0.58648455
48	0xbf00480c	-0.50109935
49	0x4002b9db	2.0425937
50	0xbf1186d5	-0.5684636
51	0xc01849b2	-2.379498
52	0x3de84139	0.11340565
53	0x3fdf171e	1.742893
54	0x3f8e4d7a	1.1117394
55	0x3f145138	0.5793643
56	0x3f4e3bd0	0.80560017
57	0x3c904f38	0.0176159
58	0xbf0c7cb3	-0.54877776
59	0x3d9dcb2f	0.0770477
60	0xbeeeb00e	-0.46618694
61	0x3ef2f87b	0.474552
62	0x3f570570	0.8399267
63	0x3f5df4af	0.8670148
64	0x3f046015	0.5170911
65	0xbe72fb8f	-0.23728774
66	0x3e4a417e	0.19751546
67	0x3fc0b9ac	1.5056663
68	0x401f14ea	2.4856515
69	0x3e6e9ff6	0.23303208
70	0x3f487b3b	0.78313035
71	0xbf68095f	-0.906393
72	0xbe65fc3d	-0.22459503
73	0xbfc0c16a	-1.5059025
74	0x3f807fbd	1.0038983
75	0x3fe17916	1.7615077
76	0x3dd11482	0.1020899
77	0xbf3c1ee9	-0.73484665
78	0xc005d371	-2.0910304
79	0x3f7e68ab	0.9937846
80	0x3fca3c15	1.5799586
81	0x3f4b7d4d	0.7948807
82	0xbf61f50d	-0.8826454
83	0xbe06da66	-0.1316925
84	0x3f30da75	0.6908334
85	0xbe74afd2	-0.23895195
86	0x3fa85d02	1.3153384
87	0x3f48c281	0.7842179
88	0x3f038d6c	0.5138767
89	0xbfa611ea	-1.2974217
90	0x3f847a0a	1.0349743
91	0x3f85c2f3	1.0450119
92	0xbe5423a4	-0.20716721
93	0xbf0cc60e	-0.5498971
94	0xbf4401d7	-0.7656531
95	0xbea2c7c4	-0.31793034
96	0x3ee2e632	0.4431625
97	0x3d97e46f	0.07416617
98	0x3e9d68fd	0.30744162
99	0xbf91f87b	-1.1403955
100	0x3f8e5d47	1.1122216
101	0x3f56dc85	0.83930236
102	0x3fc906e5	1.5705229
103	0x3fa1fc03	1.2655033
104	0x3eb90e9e	0.36143965
105	0x3e2ab7e4	0.16671711
106	0x3f21029f	0.62894624
107	0xbfa4fbca	-1.288934
108	0xbcaece8a	-0.02133872
109	0xbdb6c8a8	-0.08924991
110	0x3eb72d27	0.35776636
111	0xbf83a5a9	-1.028493
112	0x3ec08cb3	0.37607345
113	0x3eaeaaec	0.34114778
114	0xbfa3f13e	-1.2807996
115	0x3e38926f	0.1802461
116	0xbde2b056	-0.1106879
117	0xbdbd4bef	-0.09242999
118	0xbf81e747	-1.0148705
119	0x3f744197	0.9541258
120	0x401c95f0	2.4466515
121	0xbc29cd29	-0.010363855
122	0xbf37ccf6	-0.7179712
123	0x401739f4	2.3629122
124	0xbe49763d	-0.1967401
125	0xbf4edc98	-0.8080535
126	0xbd45c53e	-0.048283808
127	0x3f1fbc58	0.62396765

RNN.weight_ih_l0 f4 [512, 15]
0	0x3de781d0	0.11304057
1	0x3f1c910a	0.6115881
2	0xbf1e2f2f	-0.61790746
3	0xbd97b21b	-0.07407018
4	0xbc774b80	-0.015093684
5	0x3ef62389	0.48073986
6	0x3dc43ac2	0.0958152
7	0xbd152bfa	-0.036418892
8	0xbb448200	-0.0029984713
9	0x3ed6f6a4	0.41985047
10	0x3e29dbef	0.16587804
11	0xbd68fc45	-0.056881208
12	0xbdf40e20	-0.11916757
13	0x3b17bcf2	0.0023153392
14	0x3e04b69c	0.12960285
15	0x3e0e8f00	0.13921738
16	0xbea680c7	-0.32520124
17	0x3ec035ed	0.37541142
18	0x3d8651ed	0.06558595
19	0x3d108918	0.035286993
20	0x3e4d4b4d	0.20048256
21	0x3e435f78	0.19079387
22	0xbca675e8	-0.020319894
23	0x3d702cb1	0.05863637
24	0x3d273651	0.040823285
25	0xbe84585e	-0.2584867
26	0x3ed7b3ba	0.42129308
27	0xbdd2f7a0	-0.10301137
28	0xbe3e6274	-0.18592244
29	0x3e8a9c91	0.27072576
30	0x3df235e8	0.11826688
31	0x3edd356a	0.43204814
32	0xbef31cbe	-0.47482866
33	0x3d38808a	0.04504446
34	0x3d896337	0.06708377
35	0x3e60e53c	0.21962446
36	0x3ddd3d76	0.10802738
37	0xbd3216ff	-0.043478962
38	0xbcad0eb0	-0.021125168
39	0x3e024f71	0.12725617
40	0xbde9c4ba	-0.11414476
41	0x3d1f0f13	0.038832735
42	0x3e26bba9	0.16282524
43	0xbd0efe6d	-0.034910608
44	0x3d87e6d7	0.06635826
45	0x3e7b489d	0.24539419
46	0x3e5e7eb5	0.21728022
47	0xbe92c39c	-0.28664863
48	0x3da1fd6f	0.07909667
49	0xbd29a474	-0.0414166
50	0xbf033b1f	-0.51262087
51	0x3e158e97	0.14605175
52	0xbca0dff0	-0.019638032
53	0x3c903d0b	0.017607233
54	0xbee1288f	-0.43976256
55	0x3d8c9e8f	0.0686618
56	0xbc2d777c	-0.010587569
57	0x3d9f1a53	0.07768693
58	0x3d5b3cd3	0.053524803
59	0x3db3663e	0.087597355
60	0xbd9264cc	-0.07148132
61	0xbcb89a79	-0.022534596
62	0x3d3cf49b	0.04613171
63	0xbd80973d	-0.062788464
64	0x3c1af000	0.0094566345
65	0x3cd68d1f	0.026190339
66	0xbe2458e3	-0.16049533
67	0x3cee5eac	0.029097877
68	0x3e0299da	0.12754002
69	0xbd4a20fd	-0.049347866
70	0x3e3f80f1	0.18701531
71	0xbdd7de27	-0.10540419
72	0xbdc5aa99	-0.096516795
73	0x3e0a66cf	0.13515781
74	0xbdd26766	-0.10273628
75	0x3e2279f0	0.15866828
76	0xbe85a3c8	-0.26101518
77	0x3e08409e	0.133059
78	0xbc40b000	-0.011760712
79	0xbd6c0ce2	-0.057629474
80	0x3dfd3367	0.1236332
81	0x3d24cee2	0.04023636
82	0x3d96d979	0.07365698
83	0xbe35c5dd	-0.1775126
84	0xbc5ca84c	-0.0134678595
85	0xbec1dd8e	-0.37864345
86	0xbd175e43	-0.03695513
87	0x3d6eff6d	0.05834906
88	0x3d903914	0.07042137
89	0x3df893d8	0.12137574
90	0x3dbc6101	0.091981895
91	0xbe667ebc	-0.22509283
92	0xbe91e713	-0.28496608
93	0x3ad91ec0	0.001656495
94	0xbc94f5e4	-0.018183656
95	0xbd9f3510	-0.07773793
96	0x3d8bc24f	0.06824171
97	0x3d811f3f	0.06304788
98	0xbead78f7	-0.3388135
99	0xbd9ee4f0	-0.0775851
100	0xbee4ac9a	-0.44662935
101	0xbe8e95b8	-0.278486
102	0xbe1a8acd	-0.15092011
103	0x3ceab695	0.028651515
104	0x3cd5c93f	0.026096938
105	0xbd089e47	-0.03335407
106	0xbe2551f7	-0.16144548
107	0x3ddef0a7	0.108857445
108	0x3cc46b88	0.023977056
109	0xbccded80	-0.025137663
110	0xbc42307b	-0.011852379
111	0x3d0572d6	0.03258022
112	0xbc46a820	-0.012125045
113	0x3bdd0747	0.0067452523
114	0xbe2cd532	-0.16878203
115	0x3e175fb7	0.14782606
116	0x3aa6baa3	0.0012720417
117	0x3d8ecf37	0.06973117
118	0x3e162a6c	0.1466462
119	0x3d6b453c	0.057439074
120	0xbd517f05	-0.051146526
121	0x3e8a67d6	0.27032346
122	0xbe380d12	-0.17973736
123	0xbd8a3289	-0.0674792
124	0xbda0886c	-0.078385204
125	0xbe8361cf	-0.2566056
126	0xbdb3cb90	-0.08779061
127	0xbd31dd4a	-0.04342393
128	0x3da0b358	0.07846707
129	0xbe451d6b	-0.19249503
130	0x3e64341a	0.222855
131	0xbed6cf3a	-0.41954976
132	0xbde0c5b7	-0.10975211
133	0x3dc66fad	0.09689269
134	0x3b8bd3f7	0.0042672115
135	0x3e01c24d	0.12671776
136	0xbc336fc7	-0.010951943
137	0xbe53756c	-0.20650262
138	0x3d5551a2	0.052079804
139	0xbd99e7d0	-0.07514918
140	0xbed0a045	-0.40747276
141	0x3e7022cc	0.23450774
142	0xbd71fe2d	-0.05908029
143	0xb98ebd38	-0.0002722533
144	0xbe5a9f43	-0.21349816
145	0xbeb64311	-0.35598043
146	0x3d46c65f	0.048529025
147	0xbe6d5b49	-0.23179354
148	0xbe578b01	-0.2104912
149	0x3dbdf02c	0.09274325
150	0x3e3aa1d5	0.18225797
151	0x3eba3775	0.36370435
152	0xbd2dd91d	-0.042443383
153	0x3b2780e0	0.0025558993
154	0x3d8a8a19	0.06764621
155	0x3e4f7ef0	0.20263267
156	0x3e15256d	0.14565058
157	0x3cf3096c	0.029667579
158	0x3e6ccce0	0.23125029
159	0x3f0d6a60	0.5524044
160	0xbf053d76	-0.52046907
161	0x3ed25726	0.41082114
162	0x3d9a310a	0.07528885
163	0x3b8a13bc	0.0042137783
164	0x3e10c64c	0.14138144
165	0xbcb71110	-0.022347003
166	0xbeac96ae	-0.3370871
167	0x3e5d61a6	0.21619281
168	0x3d984295	0.074345745
169	0xbd8cb7a2	-0.06870963
170	0xbf83f13b	-1.0307993
171	0x3da37b48	0.079824984
172	0xbd24a38d	-0.040195037
173	0x3d378dfe	0.04481315
174	0xbf54357d	-0.82894117
175	0x3e3e88cd	0.18606873
176	0xbd9e8225	-0.07739667
177	0x3da1ce13	0.07900634
178	0x3cb63b41	0.022245051
179	0x3db7abe3	0.08968332
180	0x3f28d744	0.6595347
181	0x3dc112d3	0.094274186
182	0x3e387cda	0.18016377
183	0xbda9687d	-0.08271883
184	0xbcd70a8a	-0.026250143
185	0x3eeec572	0.46635014
186	0x3f3121ea	0.69192374
187	0xbb981370	-0.004640989
188	0xbd85da88	-0.06535822
189	0x3ee624cd	0.44949952
190	0x3e5758fd	0.2103004
191	0x3e13d848	0.14437973
192	0xbc4300b8	-0.011902027
193	0x3e535b41	0.2064028
194	0x3f18b5f8	0.5965266
195	0x3f193f69	0.5986238
196	0xbda67bf4	-0.08129111
197	0x3db3d6eb	0.08781227
198	0x3c5a7680	0.013333917
199	0xbda57966	-0.080797955
200	0x3ea7e7aa	0.32793933
201	0x3f304a2b	0.6886317
202	0xbd332f3b	-0.043746214
203	0x3d999e96	0.07500951
204	0x3eac44e8	0.3364632
205	0xbe88b454	-0.2670008
206	0x3eea5144	0.45765126
207	0x3e820850	0.25396967
208	0x3e8c0d06	0.27353686
209	0x3f26b105	0.6511386
210	0xbe957082	-0.291874
211	0xbe84678e	-0.25860256
212	0xbed13834	-0.40863192
213	0x3ca6e008	0.020370498
214	0x3cd23e40	0.025664449
215	0x3ea1a75b	0.31572995
216	0xbe9a7a22	-0.30171305
217	0x3d6c076e	0.057624273
218	0xbead5467	-0.33853456
219	0x3e75e69a	0.24013749
220	0xbee2a9ab	-0.4427007
221	0xbe416062	-0.18884423
222	0xbc8cfc24	-0.017210074
223	0xbc218a06	-0.0098595675
224	0xbe905ecf	-0.28197333
225	0x3d110fec	0.035415575
226	0x3ee5f070	0.44910002
227	0xbede7c37	-0.43454143
228	0xbcd5276e	-0.026019778
229	0x3c8b93ac	0.017038189
230	0xbe874695	-0.26421037
231	0x3c3bd8c1	0.011465252
232	0xbd8ac362	-0.067755476
233	0xbe425dac	-0.18981045
234	0xbe65d79c	-0.2244553
235	0xbd986300	-0.07440758
236	0x3d0c2173	0.034211587
237	0x3defb896	0.11705129
238	0x3e0c09bd	0.1367559
239	0xbdb9e28d	-0.09076414
240	0xbd1ebd96	-0.038755022
241	0xbe12e773	-0.14346103
242	0x3dea105b	0.11428901
243	0x3d233982	0.039849766
244	0x3d8e7149	0.06955201
245	0xbdc4d536	-0.09610979
246	0xbe1e420a	-0.1545488
247	0xbd94f41c	-0.07273123
248	0x3cc464dd	0.023973877
249	0xbe1fd0f5	-0.15607055
250	0xbe10f3a1	-0.14155437
251	0x3dda4da3	0.10659339
252	0x3d65771c	0.056021795
253	0xbdb18b0f	-0.086691014
254	0xbe04693c	-0.12930769
255	0xbda5b9fa	-0.08092113

RNN.weight_hh_l0 f4 [512, 128]
0	0x3e9057bc	0.28191936
1	0x3ea97a83	0.33101282
2	0xbe953fe4	-0.29150307
3	0x3d8d2c5a	0.06893225
4	0xbe136f56	-0.1439794
5	0xbd0ff171	-0.035142366
6	0x3dc40529	0.09571297
7	0xbe0907ac	-0.13381833
8	0xbdd3d047	-0.1034246
9	0x3dc236b5	0.09483091
10	0x3e638a81	0.22220804
11	0x3e7e09b6	0.24808392
12	0x3dac5493	0.08414569
13	0x3ef85ecf	0.48509833
14	0xbdc1e9c8	-0.09468418
15	0x3e4a4d4c	0.19756049
16	0xbe305fe3	-0.17224078
17	0xbe2842ab	-0.16431682
18	0xbd3824aa	-0.04495684
19	0x3ebf9196	0.3741576
20	0x3ea4c826	0.3218395
21	0xbe261d13	-0.16222028
22	0x3d528eb2	0.051405616
23	0xbe865e8a	-0.26244003
24	0xbe2f0bf3	-0.17094402
25	0xbcc03383	-0.023462063
26	0x3d821380	0.063513756
27	0x3d9ad07a	0.07559295
28	0x3d091cb0	0.033474624
29	0x3eb9cf2d	0.36290875
30	0x3e810501	0.2519913
31	0x3d0e09a7	0.034677174
32	0x3d1e44f4	0.038639978
33	0xbd062c13	-0.032756876
34	0x3de96bfa	0.11397548
35	0xbdf713be	-0.120643124
36	0xbd04e6f7	-0.032446828
37	0xbe543735	-0.20724185
38	0xbe25a419	-0.1617588
39	0x3cf9eab3	0.030507421
40	0x3e18ed8a	0.14934364
41	0x3e74ddb6	0.23912701
42	0x3dbca76c	0.09211621
43	0xbe828388	-0.25490975
44	0x3d2f85f0	0.042852342
45	0xbe2c2814	-0.16812164
46	0xbdf19473	-0.117958926
47	0xbe83eee0	-0.25768185
48	0xbe0404e4	-0.1289249
49	0x3db14cda	0.086572364
50	0x3ce08240	0.027405858
51	0x3dc4b1a3	0.09604194
52	0x3df8016d	0.12109647
53	0xbdce9d74	-0.100886256
54	0x3e84d90d	0.25946847
55	0xbe551f36	-0.20812687
56	0xbd4f2eb9	-0.050581668
57	0xbd916d66	-0.07100944
58	0x3ecd6108	0.4011309
59	0xbe8713cc	-0.2638229
60	0x3e2cb4b7	0.16865812
61	0xbdde9f1e	-0.10870193
62	0xbe18d36b	-0.149244
63	0x3e887787	0.26653692
64	0x3db434b0	0.08799112
65	0xbd7803cc	-0.060550496
66	0x3e2dbc1a	0.16966286
67	0x3e044d8a	0.12920204
68	0x3d477607	0.048696544
69	0x3e6fbd21	0.2341199
70	0x3edf09f3	0.43562278
71	0x3d330e66	0.043714903
72	0xbdda3b51	-0.10655845
73	0xba5bb3b6	-0.0008380966
74	0x3cd492ca	0.0259489
75	0xbd8f89fd	-0.07008741
76	0x3da18ada	0.07887812
77	0xbdeaceae	-0.11465202
78	0x3e06d215	0.13166077
79	0xbcd45e69	-0.025923925
80	0x3e1009bd	0.14066215
81	0x3e65fc88	0.22459614
82	0x3af8be60	0.0018977635
83	0xbed0eb52	-0.40804535
84	0xbe3ecb45	-0.18632229
85	0x3e12ab8d	0.14323254
86	0xbe6695ee	-0.22518131
87	0xbd3a3ea0	-0.04546988
88	0x3e043989	0.12912573
89	0x3e8ffa2e	0.2812056
90	0x3e161c2e	0.14659187
91	0x3e31efe7	0.17376672
92	0xbe8c6591	-0.2742124
93	0xbe8260df	-0.25464532
94	0xbe6e369d	-0.23263021
95	0xbd01e24f	-0.031709965
96	0xbcec4634	-0.02884207
97	0x3df6fa8a	0.12059505
98	0xbe98b8ce	-0.29828495
99	0x3d8f3d0b	0.06994065
100	0x3ece5042	0.40295607
101	0x3d8116d1	0.0630318
102	0xbd752e5b	-0.05985866
103	0x3d784978	0.06061694
104	0xbd7840b1	-0.06060857
105	0xbd8a91bf	-0.0676608
106	0x3e088f60	0.13335943
107	0xbceae413	-0.028673207
108	0xbe1b8b56	-0.15189871
109	0x3dfc60bf	0.1232314
110	0x3d750752	0.059821434
111	0xbd71a403	-0.058994304
112	0x3dd8a47d	0.10578249
113	0xbe64b939	-0.22336282
114	0x3d252cd7	0.040325966
115	0x3e4c509a	0.19952622
116	0xbe17ed42	-0.148366
117	0xbe1fefc0	-0.15618801
118	0x3cb3b614	0.021937408
119	0x3e24c175	0.16089423
120	0x3d9ea10d	0.07745562
121	0xbbaab78f	-0.00520987
122	0xbdab3ac4	-0.08360818
123	0x3dc5fa7c	0.09666917
124	0x3e134d51	0.14384963
125	0xbc8a82b2	-0.016908024
126	0x3d7bc4b5	0.06146689
127	0xbe223d5d	-0.1584372
128	0xbe2a28b2	-0.16617087
129	0xbd1a2a45	-0.037637968
130	0x3b398535	0.0028308157
131	0xbd951e33	-0.07281151
132	0xbcdddec8	-0.02708377
133	0x3e884d52	0.2662149
134	0x3d1000b2	0.035156913
135	0xbd76b350	-0.0602296
136	0xbd19ae66	-0.037519835
137	0xbd53f157	-0.05174383
138	0x3d82d96a	0.06389125
139	0xbadce99f	-0.0016854292
140	0x3e5782cf	0.21045993
141	0xbc0ecbab	-0.00871555
142	0x3e8249ee	0.2544703
143	0xbe56adc3	-0.20964722
144	0x3de93dac	0.11388716
145	0x3de51a0a	0.11186607
146	0xbe7d8e89	-0.24761404
147	0xbeabce2f	-0.33555743
148	0xbd153c07	-0.0364342
149	0x3dbc1377	0.091834
150	0x3e32e004	0.17468268
151	0xbdd5eb8c	-0.104453176
152	0x3eb87b2a	0.36031467
153	0x3e766d04	0.24065024
154	0xbe363144	-0.17792231
155	0x3df15d15	0.11785332
156	0xbe9d0ade	-0.30672354
157	0xbdff2090	-0.12457383
158	0x3d95cdf8	0.07314676
159	0xbe07b4ab	-0.13252513
160	0xbd94795e	-0.072497115
161	0xbcf4f2ce	-0.029900935
162	0x3da64c88	0.08120066
163	0x3e1838c0	0.14865398
164	0xbe429afa	-0.19004431
165	0x3da2b963	0.07945516
166	0x3ecbefa9	0.39831284
167	0xbd9e44f7	-0.07727998
168	0xbd5627e5	-0.05228414
169	0x3e8f6802	0.2800904
170	0x3e661136	0.22467503
171	0x3ddfb955	0.10924021
172	0x3e4bd291	0.19904543
173	0xbcc532ff	-0.024072168
174	0x3d75bc57	0.059994068
175	0xbe6821cf	-0.22669147
176	0xbdd85079	-0.10562224
177	0x3d7cc5e9	0.06171218
178	0x3d349309	0.044085536
179	0x3dd935c8	0.10605961
180	0xbea11880	-0.31464005
181	0xbe59fe0b	-0.21288316
182	0x3ce9acc3	0.028524762
183	0xbda3bb70	-0.07994735
184	0xbe6b9bb9	-0.23008622
185	0xbe7d91dc	-0.24762672
186	0x3e027710	0.12740731
187	0xbcf88ac9	-0.030339615
188	0x3cffe6f5	0.031238059
189	0xbe8907c7	-0.26763746
190	0xbb66122a	-0.0035106041
191	0xbde0f1be	-0.10983609
192	0xbe78c32a	-0.24293199
193	0xbd7dd436	-0.06196996
194	0x3e561256	0.20905432
195	0xbe09ee87	-0.13469897
196	0x3ea37c58	0.31930804
197	0xbc0eef7a	-0.008724088
198	0xbd92add6	-0.07162063
199	0xbd2197cb	-0.0394514
200	0xbe9364aa	-0.28787738
201	0x3d7d509b	0.06184445
202	0x3dcb968d	0.09940825
203	0xbea55bb1	-0.32296517
204	0x3e07d3f1	0.13264443
205	0x3ed82d98	0.42222285
206	0xbd351191	-0.044206206
207	0x3c0350da	0.008014882
208	0x3e87f90e	0.265572
209	0xbda7ac01	-0.08187104
210	0xbed3eda3	-0.4139224
211	0xbe1f82a8	-0.15577185
212	0x3da0eeef	0.07858073
213	0x3e2e51fe	0.17023465
214	0xbd737323	-0.059435975
215	0x3e0812c9	0.13288416
216	0x3dbda172	0.09259309
217	0xbd838fa8	-0.06423885
218	0xbee2d5d0	-0.4430375
219	0xbedaba27	-0.42720148
220	0x3e48152b	0.19539325
221	0x3e23165b	0.15926497
222	0x3e23a0c8	0.15979302
223	0x3df43bb5	0.11925451
224	0x3ded5d5c	0.115900725
225	0xbea41dd0	-0.32053995
226	0x3ef528ea	0.47882777
227	0x3ebb9656	0.36638135
228	0x3e55cc47	0.20878707
229	0xbdfdf6d3	-0.124005936
230	0xbde4a644	-0.11164525
231	0xba3519f6	-0.00069084705
232	0x3e32ce6d	0.17461558
233	0x3e41bb42	0.1891909
234	0x3e4f777b	0.20260422
235	0xbdf26cff	-0.118371956
236	0xbd8ff111	-0.07028402
237	0xbeb27bd9	-0.34860113
238	0xbcff236a	-0.031144816
239	0xbeb083af	-0.34475467
240	0x3df629ca	0.120196894
241	0xbc2b94d8	-0.010472499
242	0x3d89568c	0.06705961
243	0xbe2576a8	-0.16158545
244	0x3e1512cc	0.14557952
245	0xbdef6459	-0.11689062
246	0xbc6c6488	-0.014428265
247	0xbd27b405	-0.040943164
248	0x3dbdb396	0.09262769
249	0x3e842307	0.25807974
250	0xbe9207f7	-0.28521702
251	0xbe96e98c	-0.29475057
252	0xbdc56d72	-0.09640016
253	0x3e3b97b5	0.1831959
254	0xbe077577	-0.13228403
255	0x3ed90964	0.42389977

RNN.bias_ih_l0 f4 [512]
0	0x3c0ba7cd	0.008523894
1	0x3e23188c	0.15927333
2	0x3e2cc251	0.16871001
3	0x3df9bb7c	0.12193963
4	0xbe0476f1	-0.12935998
5	0xbe08531f	-0.13312958
6	0xbe2bf8c0	-0.1679411
7	0x3e1f1b0b	0.1553766
8	0xbdf90102	-0.12158395
9	0xbd27dcb4	-0.040981963
10	0x3e251728	0.16122115
11	0x3c82f357	0.015985174
12	0x3caad864	0.020855136
13	0x3ea18365	0.3154556
14	0xbe95e15f	-0.29273507
15	0xbd525f7f	-0.051360603
16	0x3c2ddf87	0.010612375
17	0xbe455489	-0.19270529
18	0xbe0d2cb3	-0.13786583
19	0x3d8527b7	0.06501716
20	0x3cee4bc7	0.029088868
21	0xbd71c773	-0.0590281
22	0x3db0be1c	0.086300105
23	0x3e82faba	0.25581914
24	0x3db11c47	0.086479716
25	0x3e139d34	0.14415437
26	0xbe83ed49	-0.25766972
27	0xbdfda829	-0.1238559
28	0x3de2054a	0.11036165
29	0xbd349f3b	-0.044097167
30	0x3e5c0c8a	0.21489158
31	0xbdd0e2cb	-0.10199507
32	0xbd8dc612	-0.069225445
33	0x3e0c3d4a	0.13695255
34	0xbe2ad1b5	-0.1668156
35	0xbd704d4c	-0.058667466
36	0x3e313082	0.1730366
37	0x3db539f8	0.08848947
38	0x3dfd6788	0.12373263
39	0x3e1347fe	0.14382932
40	0x3e717ccc	0.23582762
41	0xbe1c3efb	-0.152584
42	0xbce1b11d	-0.027550275
43	0xbc3f36d8	-0.011670791
44	0x3cf1fe44	0.029540189
45	0x3d96d001	0.07363892
46	0x3df66791	0.120314725
47	0x3d1fe0b7	0.039032664
48	0x3c8dde72	0.017317984
49	0xbd3cc826	-0.046089314
50	0xbd4c3a8e	-0.04986053
51	0x3dc669a0	0.09688115
52	0x3de89607	0.113567404
53	0xbd20f3c5	-0.039294977
54	0x3e46cee8	0.19414866
55	0x3e8d325a	0.27577478
56	0xbd239348	-0.03993538
57	0xbe05fea3	-0.13085417
58	0xbe020e00	-0.12700653
59	0xbdc2e88f	-0.09517013
60	0xbdad3ec6	-0.08459239
61	0xbe8e337a	-0.27773649
62	0xbe07bd52	-0.13255814
63	0x3dbe26a5	0.092847146
64	0xbde30c75	-0.1108636
65	0x3ec6ea4f	0.38850638
66	0x3e423f09	0.18969359
67	0x3cf9b1bf	0.030480264
68	0x3c785ffe	0.015159605
69	0x3daf1085	0.08548073
70	0x3d282331	0.041049186
71	0xbdc87e56	-0.09789722
72	0xbd6412ba	-0.05568192
73	0x3e81a9d9	0.25324896
74	0x3ee4270f	0.4456105
75	0xbdcc4aa0	-0.09975171
76	0x3e8cb8fb	0.2748488
77	0xbcb1f027	-0.021720959
78	0x3def7eb4	0.116940886
79	0xbe6adb28	-0.22935164
80	0xbdf3c7f7	-0.11903375
81	0xbe8a7948	-0.27045655
82	0x3e028610	0.12746453
83	0xbd957515	-0.07297722
84	0xbe5c1f64	-0.2149635
85	0x3d86080f	0.06544506
86	0x3e756158	0.23962915
87	0xbe468276	-0.19385704
88	0x3e91262b	0.28349432
89	0xbcaa00a0	-0.020752251
90	0x3c62d5ec	0.013844948
91	0xbce6b211	-0.02816108
92	0xbd84ae63	-0.06478574
93	0xbe49633b	-0.1966676
94	0xbe5ad9dc	-0.2137217
95	0xbe8dd587	-0.2770197
96	0xbe61b6dd	-0.22042413
97	0x3e22b743	0.15890221
98	0xbd1a6148	-0.03769043
99	0x3e4466c4	0.19179827
100	0xbdbb49dc	-0.09144947
101	0x3de762a8	0.11298114
102	0x3d9f462d	0.07777057
103	0x3c27d075	0.010242571
104	0x3e246305	0.16053398
105	0xbe0f7d57	-0.14012657
106	0x3ce3b068	0.027794078
107	0x39565dfd	0.00020443644
108	0x3e1d9d8f	0.15392135
109	0xbe7b961b	-0.2456898
110	0x3d0ae563	0.033910166
111	0x3e0fc769	0.14040913
112	0x3e6a3f20	0.22875643
113	0x3ee87ed6	0.45409268
114	0xbe575006	-0.2102662
115	0x3e920233	0.28517303
116	0x3dabe73d	0.083937146
117	0x3d142d78	0.036176175
118	0xbd8667db	-0.065627776
119	0xbe276c49	-0.16349901
120	0x3e22fae6	0.15916023
121	0x3e3826aa	0.17983499
122	0xbc3637da	-0.0111217145
123	0x3d6551bd	0.055986155
124	0x3e04e7f6	0.12979111
125	0xbd9bf76f	-0.076155536
126	0xbdcef363	-0.10105016
127	0xbdd3b600	-0.10337448
128	0xbd6e66c9	-0.058203492
129	0xbe6790a3	-0.22613768
130	0xbe1a1d6a	-0.15050283
131	0xbef40f2d	-0.47667828
132	0x3e5b812b	0.21435992
133	0xbd9ef636	-0.07761805
134	0xbe4a0fe3	-0.19732623
135	0xbd5d0cc2	-0.053967245
136	0xbe00811b	-0.1254925
137	0xbe86ef87	-0.2635462
138	0xbd0d9cf1	-0.0345735
139	0xbd380ddf	-0.044935104
140	0x3e1507fb	0.14553826
141	0xbdcc9572	-0.09989442
142	0x3e23298f	0.15933822
143	0xbdd959c8	-0.106128275
144	0xbe0753dc	-0.13215584
145	0x3d6c4888	0.05768636
146	0xbb883606	-0.0041568307
147	0xbbe084db	-0.006851775
148	0xbe0c1914	-0.13681442
149	0xbdd12636	-0.10212366
150	0x3dd0d946	0.101976916
151	0xbe56bc08	-0.20970166
152	0xbe372ce8	-0.17888224
153	0xbdedde9a	-0.116147235
154	0xbbb11fac	-0.005405387
155	0x3d19e68e	0.03757339
156	0xbddcb704	-0.10777095
157	0xbdcd3a78	-0.10020918
158	0x3d667199	0.05626068
159	0xbe445d01	-0.19176103
160	0xbdaaf4a1	-0.083474405
161	0xbe816015	-0.25268617
162	0xbe45439a	-0.19264069
163	0x3cdcdc01	0.026960375
164	0x3f0adbe6	0.5424179
165	0xbe2ac02b	-0.16674869
166	0xbe1c9636	-0.15291676
167	0x3dde4ede	0.108548865
168	0x3debc79e	0.11512683
169	0xbdad2582	-0.0845442
170	0x3d10a99c	0.035318002
171	0xbd8e9e67	-0.069638066
172	0xbbe27235	-0.006910587
173	0xbe8c48db	-0.27399334
174	0xbe42cf4d	-0.19024391
175	0xbdd95edb	-0.10613795
176	0x3e0eebea	0.13957182
177	0xbe0c4822	-0.13699391
178	0xbe0f887d	-0.1401691
179	0xbdf9f381	-0.12204648
180	0x3d1c00fd	0.03808688
181	0x3d23571b	0.039877992
182	0xbdfc1d16	-0.12310235
183	0xbe9ad153	-0.30237827
184	0xbbb4a31d	-0.0055126087
185	0x3caa776c	0.020808898
186	0xbe30cbba	-0.17265216
187	0xbe4f13e4	-0.20222431
188	0xbed576f0	-0.41692305
189	0xbc819763	-0.015819257
190	0xbde82d93	-0.113368176
191	0x3bfaa257	0.007648747
192	0x3e138866	0.144075
193	0xbe5a8427	-0.21339475
194	0xbe602278	-0.21888149
195	0x3c2e1947	0.010626144
196	0x3d6aa7b8	0.057288855
197	0xbdab204c	-0.083557695
198	0xbdcb2397	-0.099188976
199	0x3dbe450e	0.09290515
200	0xbda95c6b	-0.082695805
201	0x3d8a9535	0.0676674
202	0xbcd80dc1	-0.026373746
203	0xbddc78eb	-0.10765251
204	0xbe187c9f	-0.14891289
205	0x3e102ca9	0.14079536
206	0xbec021f9	-0.3752592
207	0x3b0b4897	0.0021252984
208	0x3db562c1	0.088567264
209	0xbda2ba4d	-0.0794569
210	0xbdad2551	-0.08454383
211	0xbd62f021	-0.055404786
212	0x3e1cf153	0.15326433
213	0x3dc6ebd4	0.097129494
214	0xbe641161	-0.22272255
215	0x3cd72a11	0.026265176
216	0x3e0f2a68	0.1398102
217	0xbe25bca7	-0.16185246
218	0xbe108b02	-0.14115527
219	0xbdbf02df	-0.093267195
220	0xbe14770e	-0.14498541
221	0xbc585bc7	-0.013205475
222	0xbe252abe	-0.16129586
223	0x3e4cfae2	0.20017579
224	0x3e3190d9	0.17340411
225	0xbd91eda2	-0.07125403
226	0xbe85590e	-0.26044506
227	0x3dc37681	0.09544087
228	0xbe823833	-0.25433502
229	0xbde53367	-0.11191445
230	0xbd8f19ca	-0.06987341
231	0x3cffcb17	0.03122477
232	0x3deb0a0c	0.11476526
233	0xbd9189e0	-0.07106376
234	0xbd9a2e73	-0.07528391
235	0xbdb73b86	-0.089469
236	0xbdb4ad4f	-0.088221185
237	0xbcca961f	-0.024729786
238	0x3e84e5f7	0.259567
239	0x3dc5f334	0.09665528
240	0xbdbb7ee8	-0.09155065
241	0xbdff21b2	-0.12457599
242	0xbe3abead	-0.182368
243	0xbe5c252e	-0.21498558
244	0xbdf2ed49	-0.11861665
245	0xbe334a1f	-0.17508744
246	0xbdc68ad2	-0.096944466
247	0x3e87dd91	0.2653623
248	0x3e61a5f1	0.22035958
249	0x3e69b093	0.22821264
250	0xbc1327b4	-0.008981634
251	0xbe5ac3ce	-0.21363756
252	0xbde8814f	-0.11352789
253	0xbe8eb6f7	-0.27873966
254	0xbdfd463a	-0.1236691
255	0xbe82b4a4	-0.25528443

RNN.bias_hh_l0 f4 [512]
0	0x3c35144c	0.011052202
1	0x3df4a4b2	0.11945476
2	0x3d2553e4	0.040363207
3	0x3e41ec15	0.18937714
4	0xbdaf6dd0	-0.08565867
5	0xbe8059df	-0.25068566
6	0xbe69e92c	-0.22842854
7	0x3dc860d4	0.097840935
8	0xbe375cca	-0.1790649
9	0x3d130742	0.035895593
10	0x3e4f7098	0.20257795
11	0xbcdac7c0	-0.026706576
12	0x3db96b91	0.0905372
13	0x3e9173f5	0.2840878
14	0xbebd19f2	-0.36933857
15	0x3c4ccc0a	0.012499819
16	0xbdb3e96e	-0.087847576
17	0xbe3f9dce	-0.18712541
18	0xbd7a6afb	-0.06113718
19	0xbd15b1cb	-0.03654651
20	0x3d36e928	0.04465595
21	0xbdd0041d	-0.101570345
22	0x3b9ec654	0.00484542
23	0x3e7c1b4e	0.24619791
24	0x3e4cd64f	0.20003627
25	0x3c8c904b	0.017158648
26	0xbe3d5058	-0.1848768
27	0x3caeb847	0.021328105
28	0x3e17258e	0.1476042
29	0x3d1d6447	0.03842571
30	0x3e1cda8f	0.15317748
31	0x3aa2c507	0.0012418338
32	0xbd769bf9	-0.06020734
33	0x3e2b8601	0.16750337
34	0xbe865f6a	-0.2624467
35	0x3dae37f5	0.08506767
36	0x3e8c3239	0.27382067
37	0x3b5b749f	0.003348626
38	0x3d91ac9a	0.07112999
39	0x3e9f84ab	0.31155905
40	0x3e82a34d	0.25515214
41	0xbe197f05	-0.1498986
42	0x3d46955f	0.048482295
43	0xbdc21dc5	-0.09478334
44	0x3dc6245d	0.096749045
45	0xbcfac8c3	-0.030613309
46	0x3e16cafe	0.14725873
47	0x3d6d9632	0.058004566
48	0x3df7438e	0.12073432
49	0xbdf9f2a8	-0.12204486
50	0xbb56779a	-0.0032725097
51	0x3e03a564	0.1285606
52	0x3e471446	0.19441327
53	0xbdd4aa84	-0.10384086
54	0x3dd13347	0.102148585
55	0x3ec5db93	0.38644084
56	0xbc48d41f	-0.012257605
57	0xbe257132	-0.16156462
58	0xbdc56d10	-0.09639943
59	0xbe6a2355	-0.2286504
60	0x3c3b8ed4	0.011447627
61	0xbe05b520	-0.13057375
62	0xbde4caae	-0.111714706
63	0x3d3e7407	0.04649737
64	0xbde0e66a	-0.10981448
65	0x3ec90e1f	0.39268586
66	0x3e6fcb72	0.23417452
67	0xbd506a83	-0.050882827
68	0x3e305faf	0.17224
69	0x3df69edf	0.12042021
70	0x3cf3c915	0.02975897
71	0xbdeb01e3	-0.11474969
72	0x3d320c8b	0.043468993
73	0x3e82d404	0.2555238
74	0x3eb2ceb6	0.34923333
75	0xbda0c3ed	-0.0784987
76	0x3df5b583	0.11997511
77	0x3ca09a72	0.019604895
78	0x3d4b0589	0.049565826
79	0xbe51fe5d	-0.20507188
80	0xbdaadfcb	-0.08343466
81	0xbe124855	-0.14285405
82	0x3d4ebaa5	0.050470967
83	0xbd47335b	-0.04863296
84	0xbe613a87	-0.21994983
85	0x3dc86f38	0.09786838
86	0x3e21d126	0.1580244
87	0xbe0a9835	-0.13534625
88	0x3e784369	0.24244465
89	0xbde11d0d	-0.10991869
90	0x3d969bc3	0.07353928
91	0x3db0a3f5	0.08625022
92	0xbe1cf9ba	-0.15329638
93	0xbe391f8c	-0.1807844
94	0xbe177e2f	-0.14794229
95	0xbe74f0a0	-0.23919916
96	0xbe8dc776	-0.2769124
97	0x3e044d2e	0.12920067
98	0xbe256d3c	-0.16154951
99	0x3dcbbcce	0.09948121
100	0x3d57033a	0.05249331
101	0x3ddba9ff	0.107257836
102	0xbc6619d5	-0.014044245
103	0xbe11c780	-0.1423626
104	0x3e0815c9	0.1328956
105	0xbe109dcf	-0.14122699
106	0x3d806459	0.0626914
107	0xbc8695d9	-0.016428875
108	0x3e3fd858	0.18734872
109	0xbe923646	-0.28557032
110	0xba096932	-0.00052418106
111	0x3c2aab91	0.010416881
112	0x3e940251	0.28908017
113	0x3e9d4afa	0.30721265
114	0xbe8da80a	-0.27667266
115	0x3df3d344	0.1190553
116	0x3d9b1baf	0.075736396
117	0x3dd2f208	0.1030007
118	0xbdb9cdc2	-0.09072448
119	0xbdb47071	-0.08810509
120	0x3e368d9c	0.17827457
121	0x3e3e41ca	0.18579784
122	0xbcdc57ed	-0.026897395
123	0xbd1d7095	-0.038437445
124	0x3dbc772d	0.092024185
125	0xbcc77ebd	-0.024352426
126	0xbde4dce6	-0.111749455
127	0x3cf44231	0.029816719
128	0xbabe3533	-0.0014511704
129	0xbe4ad00f	-0.1980593
130	0xbe4b014a	-0.1982471
131	0xbeea292f	-0.45734546
132	0x3e2bea3b	0.1678857
133	0xbe54d4f6	-0.20784363
134	0xbe957e66	-0.29197997
135	0xbdabf6fb	-0.08396717
136	0xbcc7d9a7	-0.024395777
137	0xbe87d9b0	-0.2653327
138	0x3d27a1ba	0.04092572
139	0xbe158ab9	-0.146037
140	0x3dc91318	0.09818095
141	0xbe062f8a	-0.13104072
142	0x3e1d6ae2	0.15372804
143	0x3ca9f706	0.020747673
144	0xbdd242fe	-0.10266684
145	0x3d640186	0.055665515
146	0x3d804d2b	0.062647186
147	0xbd952265	-0.07281951
148	0xbe3a0090	-0.18164277
149	0x3af8d706	0.001898498
150	0x3de28592	0.11060633
151	0xbe8691b4	-0.26283038
152	0xbe07e3f9	-0.13270558
153	0xbdda4b33	-0.10658874
154	0x3d54324d	0.051805783
155	0x3d8003bd	0.06250713
156	0xbe4470ff	-0.1918373
157	0xbe35ee65	-0.17766722
158	0xbdad2587	-0.084544234
159	0xbe33d1b6	-0.17560467
160	0xbd379257	-0.044817295
161	0xbe86bceb	-0.26316008
162	0xbe3b34c3	-0.18281846
163	0xbe0b569b	-0.13607256
164	0x3f01dc18	0.5072646
165	0xbc62a0fa	-0.013832325
166	0xbe25e76d	-0.16201563
167	0x3dc6e52d	0.097116806
168	0x3e31f055	0.17376836
169	0x3d146b00	0.036234856
170	0xbd16f3c0	-0.036853552
171	0x3d08b4eb	0.03337566
172	0x3dc6d8d7	0.09709328
173	0xbe674373	-0.22584324
174	0xbe219b84	-0.15781981
175	0xbdfa1cce	-0.12212525
176	0x3e1b691d	0.15176816
177	0xbe3d0e63	-0.1846252
178	0xbd8d9689	-0.06913478
179	0xbdf35b45	-0.11882643
180	0x3d22523e	0.039629214
181	0xbdbd61de	-0.09247182
182	0xbcd84d05	-0.026403913
183	0xbe93703d	-0.2879657
184	0x3d44653a	0.0479481
185	0x3d9100ed	0.07080255
186	0xbe042227	-0.12903653
187	0xbdb01fde	-0.08599828
188	0xbee38ad9	-0.4444187
189	0xbd81a2f0	-0.06329906
190	0xbe145240	-0.14484501
191	0xbda9407a	-0.08264251
192	0x3e807294	0.25087416
193	0xbe864a02	-0.26228338
194	0xbe0cf141	-0.13763906
195	0xbdfa5d9c	-0.12224886
196	0x3e3ac43e	0.18238923
197	0xbe184ea2	-0.14873746
198	0xbc80926f	-0.015694825
199	0x3dc18530	0.094492316
200	0xbda56f7e	-0.08077906
201	0x3d24dc42	0.040249117
202	0xbd274781	-0.040839676
203	0xbd97c518	-0.074106395
204	0xbe2a80c7	-0.16650687
205	0x3d96c1cb	0.07361182
206	0xbebe1b88	-0.3713038
207	0xbd1a4a69	-0.03766862
208	0x3d7343b9	0.059390757
209	0xbe534839	-0.2063302
210	0xbe070b3f	-0.13187884
211	0xbdfd1d87	-0.123591475
212	0x3dbfbb2e	0.093618736
213	0x3e3a3099	0.18182601
214	0xbec22315	-0.3791739
215	0x3ddd5d44	0.10808805
216	0x3d2d5fa7	0.04232755
217	0xbe0768fd	-0.13223644
218	0xbe055fe4	-0.1302486
219	0xbdcdb7f4	-0.10044852
220	0xbe722184	-0.23645598
221	0x3be34ffd	0.0069370256
222	0xbe2c1408	-0.16804516
223	0x3db8808d	0.09008894
224	0x3ddd4e69	0.10805971
225	0xbb943e1c	-0.0045240056
226	0xbeb32dc2	-0.34995848
227	0x3db7c3f9	0.08972926
228	0xbec0869e	-0.37602705
229	0xbe321ff8	-0.17395008
230	0x3c422314	0.011849184
231	0xbdab8b51	-0.08376182
232	0x3e81b8d7	0.25336334
233	0xbd816af0	-0.06319225
234	0xbc42cdab	-0.011889855
235	0xbe3d892c	-0.18509358
236	0xbdb2f467	-0.08738022
237	0x3c1fd056	0.009754261
238	0x3e4d370c	0.2004053
239	0xbc7221f5	-0.014778604
240	0x3cf1f498	0.029535577
241	0xbe548388	-0.207533
242	0xbdeede62	-0.1166351
243	0xbe9b00e2	-0.3027411
244	0xbdf72ace	-0.12068711
245	0xbe559858	-0.20858896
246	0xbd3e9d8d	-0.04653697
247	0x3e873421	0.2640696
248	0x3de68cb9	0.112573095
249	0x3db60ead	0.08889518
250	0x3d1cf025	0.038314957
251	0xbe81cb75	-0.25350538
252	0xbdfe5845	-0.1241918
253	0xbe74e1a3	-0.23914199
254	0xbdc1ff9b	-0.09472581
255	0xbe7151a7	-0.23566304

actor.weight f4 [5, 128]
0	0xbdba6acf	-0.09102403
1	0x3ef01f08	0.46898675
2	0x3e983706	0.2972948
3	0x3ef53890	0.47894716
4	0xbde93ba7	-0.11388331
5	0xbf13d600	-0.57748413
6	0xbf13a521	-0.5767384
7	0xbea67d02	-0.32517248
8	0x3f07c192	0.5302974
9	0xbced2133	-0.028946495
10	0xbeec8c5d	-0.4620084
11	0x3da56931	0.08076704
12	0x3e6e7a2a	0.2328879
13	0xbf0e1b29	-0.55510193
14	0xbe8a752f	-0.2704253
15	0xbe3c3333	-0.18378906
16	0xbe264cd3	-0.16240244
17	0xbf0bc4d2	-0.545972
18	0x3f0ac647	0.542088
19	0x3f464443	0.7744791
20	0x3e7e3e50	0.24828458
21	0x3ecc04b1	0.3984733
22	0x3e794ea5	0.24346407
23	0x3ecf366a	0.40471202
24	0xbf1e4831	-0.61828905
25	0xb9a9342c	-0.00032273063
26	0xbe8c83f4	-0.27444422
27	0x3da2a8fb	0.07942387
28	0x3f273224	0.65310884
29	0x3f1ebe6f	0.6200933
30	0xbf3edd53	-0.74556464
31	0xbd35f3cf	-0.044421967
32	0xbe1df8af	-0.15426897
33	0x3f0471c1	0.51736075
34	0x3e9e4e84	0.30919278
35	0xbf3cb2aa	-0.7371012
36	0xbe31bda0	-0.17357492
37	0x3df614f2	0.12015714
38	0xbe57f2be	-0.21088693
39	0xbef2628b	-0.47340807
40	0x3ebf7df8	0.37400794
41	0x3da419b0	0.08012712
42	0xbf4ef6a2	-0.8084508
43	0xbe99f1a3	-0.30067167
44	0xbf008c97	-0.50214523
45	0x3ee10ce2	0.4395514
46	0xbe283dd4	-0.16429836
47	0x3f39168f	0.72300047
48	0x3ea365d9	0.3191364
49	0xbe135023	-0.14386038
50	0xbf00a101	-0.5024567
51	0xbe955779	-0.291683
52	0x3f09eee2	0.5388013
53	0x3ee2a94a	0.44269782
54	0xbd5a004f	-0.05322295
55	0x3f07046e	0.52741134
56	0x3e37c634	0.17946702
57	0x3f333db3	0.7001602
58	0x3c3aad19	0.011393809
59	0xbd9067c4	-0.07051042
60	0xbeb56f44	-0.3543645
61	0x3d3aec15	0.0456353
62	0x3ea97303	0.3309556
63	0xbe9cf928	-0.3065884
64	0xbdead28f	-0.11465942
65	0x3f4497f1	0.76794344
66	0xbe7da9ee	-0.24771854
67	0x3eb6ef7d	0.3572959
68	0x3d421244	0.0473807
69	0xbefa5a16	-0.48896855
70	0x3f629b51	0.88518244
71	0x3e8e5c95	0.2780501
72	0x3da95b13	0.08269324
73	0x3ed0beac	0.4077047
74	0x3f2a9628	0.6663537
75	0x3eb16d70	0.34653807
76	0xbeaaa357	-0.33327743
77	0xbfa8e928	-1.3196154
78	0x3e91de2b	0.28489813
79	0x3daa31fd	0.08310316
80	0xbf52265b	-0.82089776
81	0x3e1584af	0.14601396
82	0x3eb15825	0.3463756
83	0xbe65586b	-0.2239701
84	0xbd728e48	-0.05921772
85	0x3be594f8	0.007006284
86	0x3edced82	0.43149954
87	0xbf016c6e	-0.50556076
88	0x3e975411	0.29556325
89	0xbe86a4e0	-0.26297665
90	0x3efffcce	0.49997562
91	0x3f628bca	0.8849455
92	0x3e7f53ea	0.24934354
93	0x3c0c4f85	0.008563881
94	0xbe22b572	-0.15889528
95	0x3eca885d	0.39557162
96	0xbf5cdc6b	-0.8627383
97	0x3e2b17a1	0.16708232
98	0xbf3f2296	-0.7466215
99	0xbe38cbf7	-0.18046556
100	0xbef859c2	-0.4850598
101	0x3eeda767	0.4641678
102	0xbefff5d0	-0.49992228
103	0xbe8616d9	-0.26189306
104	0x3e3dbc94	0.18528968
105	0x3ce1f500	0.027582645
106	0xbe9bf553	-0.30460605
107	0x3ee81eb7	0.45335934
108	0x3f07ab38	0.52995634
109	0xbcff5a2e	-0.03117093
110	0x3eb2d52f	0.3492827
111	0x3e289e6c	0.16466683
112	0xbe9f41a5	-0.3110477
113	0xbf13c9d9	-0.5772987
114	0xbe0c47e5	-0.136993
115	0xbc329c9d	-0.010901597
116	0xbeb24000	-0.34814453
117	0x3e902fd6	0.28161496
118	0xbe5cb15d	-0.21552034
119	0xbe9402ec	-0.2890848
120	0x3efabfe1	0.48974517
121	0x3c275eb6	0.010215452
122	0x3f828230	1.019598
123	0x3f4464c1	0.7671624
124	0xbde694f1	-0.11258877
125	0xbeb4229c	-0.35182655
126	0xbddbd236	-0.10733454
127	0xbf169503	-0.58821124
128	0x3ea61ed5	0.32445398
129	0xbed8a98d	-0.42316857
130	0x3ed3ad56	0.41343182
131	0x3ea3517b	0.31898102
132	0xbe009040	-0.12555027
133	0x3ecfa3d2	0.40554672
134	0x3e807000	0.2508545
135	0xbed1739c	-0.40908515
136	0xbe04e7ac	-0.12979001
137	0xbda749a3	-0.08168342
138	0xbeee1d4d	-0.4650673
139	0xbe72d64a	-0.23714557
140	0x3f0899fc	0.5335996
141	0xbef39d69	-0.47581032
142	0x3eb91c39	0.36154345
143	0xbe5af015	-0.21380647
144	0xbdb6a9a7	-0.08919077
145	0xbdff79d9	-0.124744125
146	0xbf56f1f8	-0.83962965
147	0xbf392660	-0.7232418
148	0x3eb80ea5	0.35948673
149	0x3ee2b499	0.4427841
150	0x3e356dee	0.17717716
151	0x3f002142	0.5005075
152	0x3e312e7e	0.17302892
153	0x3dc9a146	0.098452136
154	0xbcf88b63	-0.030339902
155	0x3ed5a2fa	0.41725904
156	0x3d9c8ff2	0.07644643
157	0xbf00a2f2	-0.50248635
158	0x3ea8e6d6	0.32988614
159	0x3ee2f1d9	0.4432514
160	0x3ea14343	0.3149663
161	0x3f057072	0.521247
162	0xbd4841ba	-0.048890807
163	0x3f6e4ec8	0.9308896
164	0xbe07665e	-0.13222644
165	0xbf013426	-0.504702
166	0x3e501dd8	0.20323884
167	0xbf205fd6	-0.62646234
168	0x3ed66ed8	0.41881442
169	0x3ecf61cd	0.40504304
170	0x3ece13fa	0.40249616
171	0xbe8b152a	-0.27164584
172	0x3f10f035	0.56616527
173	0xbed94add	-0.4243993
174	0x3f406ed5	0.75169116
175	0xbf1ce8f8	-0.6129298
176	0x3e256907	0.16153346
177	0x3cd48976	0.025944453
178	0xbed132cc	-0.40859067
179	0xbeef042d	-0.46682873
180	0xbf28c4b6	-0.6592516
181	0xbf19ea5a	-0.6012322
182	0x3e81f315	0.2538077
183	0x3f39e5e6	0.7261642
184	0xbf27bffe	-0.6552733
185	0xbf4f0e29	-0.8088098
186	0x3e417881	0.18893625
187	0xbe5f913d	-0.21832748
188	0xbef86284	-0.4851266
189	0xbdb19458	-0.086708724
190	0xbe9eb1c6	-0.30995005
191	0xbefc21c1	-0.49244502
192	0xbed2e5ba	-0.41190892
193	0x3ec1bee3	0.37840948
194	0xbeb50467	-0.3535492
195	0xbd6c7ae5	-0.05773439
196	0x3e9a2b49	0.3011115
197	0xbef207ee	-0.47271675
198	0xbf4105ad	-0.75399286
199	0x3ee0f3c5	0.4393598
200	0xbeb721ec	-0.35768068
201	0x3f0996d2	0.5374576
202	0xbf5b1215	-0.85574466
203	0xbe8cd3a3	-0.27505216
204	0x3f0d0a22	0.55093586
205	0x3f4b2296	0.7934965
206	0x3e9e07a7	0.30865213
207	0x3eabfabc	0.33589733
208	0x3f60d508	0.8782506
209	0x3e6ee500	0.23329544
210	0xbeafb2a6	-0.34315985
211	0xbe7096c7	-0.23495017
212	0x3d83ebfc	0.06441495
213	0x3e009883	0.12558179
214	0x3f03d980	0.51503754
215	0x3f2bffca	0.6718718
216	0x3ed696be	0.41911882
217	0x3d368010	0.044555724
218	0x3e5e53ab	0.21711604
219	0xbf2c46d0	-0.6729555
220	0xbf0e1a4d	-0.5550888
221	0x3d70d726	0.05879893
222	0xbe4be35a	-0.19910946
223	0xbde6ff62	-0.11279179
224	0x3e893b76	0.26803178
225	0xbe5e34ee	-0.21699879
226	0x3eacf623	0.33781537
227	0x3f3cbd67	0.73726505
228	0x3db82f83	0.08993437
229	0xbe9f664c	-0.31132734
230	0x3dccfe19	0.10009403
231	0xbe64e14b	-0.22351567
232	0x3df5ea7e	0.120076165
233	0x3e19a8b6	0.15005764
234	0x3e477e2b	0.19481723
235	0xbf52bac8	-0.82316256
236	0x3eedd4d9	0.46451452
237	0xbdea244d	-0.11432705
238	0x3ead7121	0.33875373
239	0xbefb7f98	-0.49120784
240	0x3f1c2b9f	0.6100406
241	0xbf01a4a7	-0.50641865
242	0xbd39145b	-0.045185428
243	0xbf43c719	-0.76475674
244	0x3eff5d67	0.49875948
245	0xbd097594	-0.033559397
246	0xbea02be9	-0.312835
247	0x3e9fd8e6	0.31220168
248	0x3eb6e4e4	0.35721505
249	0x3d93c9da	0.072162345
250	0xbf3e8799	-0.74425656
251	0xbedf2ed7	-0.43590423
252	0x3db7e487	0.08979135
253	0x3e85dac2	0.2614346
254	0xbe66524f	-0.22492336
255	0x3ef70133	0.48243102

actor.bias f4 [5]
0	0x3e9f7937	0.31147167
1	0x3e9209f3	0.28523216
2	0xbe80159b	-0.25016484
3	0xbe4db676	-0.20089135
4	0x3f316173	0.6928932

critic.weight f4 [1, 128]
0	0x3d3248d8	0.0435265
1	0x3d79c7e8	0.06098166
2	0xbaae1ca9	-0.0013283688
3	0x3d709b1f	0.058741685
4	0x3dfe5e6e	0.12420355
5	0xbe098f6c	-0.13433617
6	0xbd0195d1	-0.031637017
7	0xbe649ced	-0.22325487
8	0xbe16666d	-0.1468751
9	0xbdaea76c	-0.08528027
10	0xbe6ec404	-0.23316962
11	0x3e1ccefe	0.15313336
12	0x3ed6befa	0.4194258
13	0xbe45d9e3	-0.19321398
14	0x3f0098ac	0.5023296
15	0x3c9ec609	0.01938154
16	0xbcd21126	-0.025642943
17	0x3d16a061	0.036774043
18	0x3daf3e09	0.08556754
19	0xbac5f917	-0.0015104142
20	0x3e72943d	0.23689361
21	0x3e7571db	0.23969214
22	0x3e52af98	0.20574796
23	0xbe36c75c	-0.17849487
24	0x3d710a79	0.058847878
25	0x3ec244c3	0.37943086
26	0xbdaf6f79	-0.085661836
27	0x3da93f0f	0.082639806
28	0x3d8f1464	0.06986311
29	0x3d18bf53	0.037291836
30	0x3d9cd13f	0.07657098
31	0x3c13b244	0.00901467
32	0x3d1664f5	0.036717374
33	0x3de7594f	0.11296331
34	0x3bac8d86	0.0052658943
35	0xbe39a821	-0.18130542
36	0xbe981492	-0.29703194
37	0xbdf04a36	-0.117329046
38	0xbd7da801	-0.0619278
39	0xbe86ae39	-0.26304796
40	0x3d3e1e3a	0.046415545
41	0x3e8dde98	0.27708888
42	0x3dba6914	0.09102073
43	0xbdb4927d	-0.08817003
44	0xbd8c46fa	-0.06849475
45	0xbca90425	-0.02063186
46	0xbe5fa48a	-0.2184011
47	0xbd5d91f7	-0.05409428
48	0x3db09023	0.08621242
49	0xbdd05592	-0.10172571
50	0xbdb8f6fc	-0.090314835
51	0x3ebc7001	0.36804202
52	0xbd2f9d4d	-0.042874623
53	0xbe15ef3d	-0.14642043
54	0xbd91bb56	-0.071158096
55	0xbdc7311c	-0.09726164
56	0xbbf73dc5	-0.0075452053
57	0xbcbaccc0	-0.02280271
58	0xbd8f0b8d	-0.06984625
59	0xbd477af1	-0.04870123
60	0xbdb2cd40	-0.087305546
61	0xbe2408c2	-0.16018966
62	0x3d06e976	0.03293749
63	0xbe343a75	-0.17600425
64	0xbe7697cd	-0.24081345
65	0xbeb62661	-0.35576156
66	0x3e325adf	0.17417477
67	0x3e28930c	0.16462344
68	0x3e52dbe7	0.20591699
69	0x3ecaf0c9	0.3963683
70	0xbddb8036	-0.10717814
71	0x3e523c77	0.20530878
72	0xbdd76010	-0.10516369
73	0x3e7df434	0.24800187
74	0x3d2b6c52	0.04185135
75	0xbdd354ad	-0.10318885
76	0xbdb0ba5c	-0.08629295
77	0x3db39105	0.08767895
78	0x3dfbe570	0.12299621
79	0xbde5a840	-0.11213732
80	0x3d5fd52d	0.05464666
81	0xbd22a3c1	-0.03970695
82	0xbe226727	-0.15859662
83	0xbe23e919	-0.16006888
84	0xbf251663	-0.64487284
85	0x3e8e6dd7	0.27818176
86	0xbdebc7e1	-0.11512733
87	0x3d631f9e	0.055450074
88	0x3ebd8669	0.3701661
89	0x3d2db2bd	0.042406786
90	0x3c909b26	0.017652106
91	0x3d5c77f9	0.053825352
92	0x3cc9cf9f	0.024635134
93	0x3e150879	0.14554013
94	0xbe008fc7	-0.12554847
95	0xbb25b0e0	-0.0025282428
96	0xbeb0f20e	-0.34559673
97	0x3ccfec56	0.025381248
98	0xbd9e449b	-0.07727929
99	0x3e205604	0.15657812
100	0x3f024323	0.5088369
101	0x3e57722c	0.21039647
102	0x3d5bdbbd	0.053676356
103	0xbdd40bf5	-0.10353843
104	0x3d1adfd2	0.037811108
105	0x3ab9e31e	0.0014182066
106	0xbca7c9ff	-0.020482061
107	0xbc269e2f	-0.01016955
108	0xbe6ff876	-0.23434624
109	0x3cfaaad0	0.030599028
110	0x3e968c0c	0.29403722
111	0xbdb232e4	-0.08701113
112	0xbcf57a0f	-0.029965429
113	0x3e340e0f	0.17583488
114	0xbd259a45	-0.040430326
115	0xbd0133ad	-0.031543422
116	0xbbb43db7	-0.005500521
117	0x3d0374cb	0.032093804
118	0xbdbc4592	-0.09192957
119	0x3e28adfc	0.1647262
120	0x3e9f56fe	0.31121057
121	0x3e3d4484	0.18483168
122	0x3d9c721d	0.07638953
123	0xbce58e47	-0.028021945
124	0xbcf08687	-0.029361023
125	0xbdb63a3f	-0.08897828
126	0xbd8ad604	-0.067791015
127	0x3e2cae28	0.1686331
