Codes/models/mymodel_iter19200.pt (torch, 48751 bytes, 17 tensors)

hidden0 f4 [1, 48]
00000000: 92fe e93d 57a5 643e 14df d23d 8f89 03be
00000010: a654 43bd 95df bcbd af80 083e 85b4 e13d
00000020: dd82 3cbe 7dfd 07be 5439 13be dd1b 34be
00000030: 9d69 773d f7d8 30be 7ab1 bcbd 6194 82bd
00000040: ee98 00be 3054 b7bd 4412 133e ba3c 453d
00000050: 51ba f8bd b02a dabd dd5e 34bd 43fb cc3d
00000060: d004 0aba cc84 1c3e b4c2 25be 5fb5 893d
00000070: 652d 073e 1b70 a2bd a012 41be 5202 01be
00000080: 1317 5ebe 4fcd 133e e033 6bbd 88f3 b33d
00000090: 6932 08be 26d4 d3bc 127d 02be 54c2 0d3e
000000a0: d2dd 0e3e 59db 483e fe01 35be 42bb 08ba
000000b0: 5877 3e3e f004 81bd 040c 363d e614 2dbe
0.114255086 0.22328697 0.10296455 -0.12845443 -0.04768815 -0.092223324 0.13330339 0.110207595
-0.18409295 -0.13280292 -0.14377338 -0.17588754 0.060403455 -0.17270266 -0.092135385 -0.06375957
-0.12558338 -0.08951604 0.14362437 0.048153616 -0.12144912 -0.10652673 -0.04403578 0.10008862
-0.00052649993 0.15285033 -0.16187555 0.06724047 0.1320091 -0.07931539 -0.18854761 -0.12598541
-0.2168849 0.14433788 -0.05742252 0.08786684 -0.1330048 -0.025857996 -0.12743023 0.13843662
0.13951805 0.19614924 -0.17676541 -0.0005215892 0.18600214 -0.0629977 0.044445053 -0.16902503

cell0 f4 [1, 48]
00000000: 78c6 37be 3dc0 edbd 4583 e9bd ee68 0e3e
00000010: 2a2f 67be 7b3f efbd c4c9 0a3e 5d88 083e
00000020: 04c5 64be b03b 313e 4bd5 debd 7d34 3cbe
00000030: 2faf 5c3c 9382 7dbd 2a50 28be 2232 38bd
00000040: 816a ab3d a352 393e 0764 6f3e 7399 a0bd
00000050: 39ea 98bc bf34 ea3d 20fe 97bd d2d7 3d3e
00000060: 8436 523e 06ef b53d 9cf9 51be 6a36 08be
00000070: fea2 21bc 1561 61be d72f ee3d 1e25 153e
00000080: 79ff 41be efa3 20be 6dc6 3ebe 7ee3 0e3e
00000090: 811e 363d 5b29 bcbd 0454 15be 50c5 653e
000000a0: 63ca e83c d6b9 20be 3a06 b7bd 3680 15be
000000b0: 21b9 913d 7fa5 b83d 7228 523e 7eb9 c2bd
-0.17946804 -0.11608932 -0.11401991 0.13907215 -0.22576585 -0.1168203 0.1355353 0.13333268
-0.2234078 0.17307925 -0.10880526 -0.18379398 0.013469501 -0.061892103 -0.1643683 -0.044969685
0.083699234 0.1809793 0.23378001 -0.07841768 -0.018666374 0.11435842 -0.07421517 0.1853936
0.20528609 0.08883481 -0.20505375 -0.13302007 -0.0098655205 -0.2200969 0.116302185 0.1456494
-0.18945111 -0.15687536 -0.18630381 0.13953969 0.044462685 -0.091875754 -0.1458283 0.2243855
0.028416818 -0.15695891 -0.089367345 -0.1459969 0.07115389 0.09015941 0.20523241 -0.09508036

lstm.linear_forget_x.weight f4 [48, 6]
00000000: 9ab9 a83b 5a2e 2cbe 447f 14be c7eb 8e3d
00000010: 0095 e03e bc51 593e 83ff d83d a067 ff3d
00000020: f54a 6cbe ea45 903f 3d85 893e dbd2 50be
00000030: fa17 cb3e 9658 c43e 14c1 48be 7d80 90bf
00000040: 7011 efbe c08d f23e 1493 31bd c815 a83d
00000050: 2cc7 9ebe 9968 4abf f93e 6a3f 06d8 fcbd
00000060: a1fb bd3e 783f fc3d 6061 c73c faa6 1bbe
00000070: a649 853e 6e51 0cbe 7d34 a8be 74f9 5d3e
00000080: 40c9 25bc 7989 dbbe 78a4 493f b0ac cabe
00000090: f0ba b83e 008b 6e3e 28ce 83bd cb31 1f3f
000000a0: 4528 c8be ca41 163f a03e f23e 5431 96be
000000b0: 40bb 86be e752 1b3e 1402 383e e00b b13e
000000c0: 279e c33e 2293 a8be d8ae 8dbd 8239 163f
000000d0: 7aa9 5b3e c975 c43e 9db4 ad3e c89b 1f3d
000000e0: e0ff 8cbc 9ec8 353f d197 f33e f052 8c3e
000000f0: 959f a13d 0058 4fbe bc3c abbe 3171 283f
00000100: 1a01 133f 9f69 2abf 6694 2bbd e8f4 f03d
00000110: 80c5 5fbd 7111 213f e2d4 3a3e 7a0e 0fbb
00000120: 5de6 4abe 3de1 96be 045a c53e 7b52 4dbb
00000130: ba1f 1bbf fc92 b63e 71e9 503e 00a6 b03d
00000140: 97e8 36be e323 96bc 78d4 993e 3bb3 93be
00000150: c841 443e 64f3 933d 9a2b ab3e cd48 b8bd
00000160: 633e 733e 76fd 743e 43d3 a03e 175d 93be
00000170: 9a32 a63e 2bfa 073d 463d cfbe 1450 cb3e
00000180: 8bf0 2dbe 5862 683e 50e9 ea3d dfd8 ec3d
00000190: 1afe 61be 5dd7 13be 87f5 073e b086 ba3d
000001a0: b893 1cbd 723b ab3e 7c4a 45bd b8b5 673e
000001b0: 7f2a c43e 505e 833e a77c 9fbe c45f c23e
000001c0: ed92 e1bc 3a2c 793e 2deb 2b3e 708b ba3e
000001d0: 98cd 95bd 559b aabe 8fb8 11be 0fa7 ad3e
000001e0: 9a8f b53e 40ef 73bd ab17 48be 5edf 713d
000001f0: 73f8 f73d 8a08 72be 113e 543e 2a5c 9cbe
00000200: d05e 3e3e e0db eb3e ca37 183e f9e3 90be
00000210: 687e 9a3e 116f c0be 5823 883d 7cae 203c
00000220: e269 12be 1bdf ff3c 40db e03e 7874 7ebd
00000230: d2db cebe d30d 4b3f cd76 5f3d 3cc9 2e3f
00000240: 8224 153f 466d ad3e 35e8 bcbe 1f43 963e
00000250: 8eb1 453e 5168 0c3e 03f7 e73e d89e 0ebe
00000260: 92a4 c4be 60b1 2b3e 5981 a43e 7882 69be
00000270: eeff 4f3d 5b6e 56be 79ba 3dbe 679b 913e
00000280: a15a 973e a051 343e 6b93 2ebe bc03 abbd
00000290: 50bd 87bd 2720 6dbf 2c51 55be 865c 683f
000002a0: 4cee 02bf b8fe efbd c41a 903e 7f3a 68be
000002b0: 5147 a2be 21d1 cabe 8af7 113f 70d6 153d
000002c0: 06b6 933e aa82 a53e ae13 b63e b566 c53e
000002d0: 95ff 8cbe fc9a 1fbe e0b8 ff3d 37ba 283f
000002e0: b194 243f aa08 13bd 0291 61be e4e3 00be
000002f0: 68ea 563d be53 10be fc55 0e3e 3183 ea3e
00000300: 2a26 26be 60cb 3d3e d006 c8bd 5ab4 dcbc
00000310: b5c8 fc3e fa94 333d c93b 31be 20e7 07be
00000320: 3ef2 9fbe 38a4 8b3e 9bcd c33d 7e10 3b3e
00000330: f70f 24be 20e0 f23c a438 6fbe 5247 133f
00000340: cd75 053f 732a 6d3d 1978 51be d6a5 853e
00000350: 3d7a 92be ed78 4e3e 50be 573e b9e9 263d
00000360: 8d0c 85bd dbd2 c8be bcba d8bd b7dc 99be
00000370: fe94 9f3d 2c9f 0bbd 5813 9f3e b262 c23e
00000380: 7844 97bd a5e4 d5be 370b 903e 5061 aa3c
00000390: 7422 463e eae2 1abe 9c7d b6be 35d3 c9be
000003a0: 9cf4 93be 7c52 193f e068 263e bc4c 4ebe
000003b0: 94a4 0d3e 1f41 943e eedb 0a3f 2d1b 19bd
000003c0: 176a c3be ac30 053e f054 b63c 3371 e4be
000003d0: 048a e4be 8451 923d b1f8 48be 7002 6b3e
000003e0: 8847 08bd 70fb 3e3e a709 c6bd 240a 9c3e
000003f0: 9ed5 85be 04dd 013e da40 bcbe b9dc ebbe
0.0051490786 -0.16814557 -0.14501673 0.06978565 0.43863678 0.21222585 0.1059561 0.12470937
-0.23075469 1.1271336 0.26859465 -0.20392935 0.3966673 0.38348836 -0.19604903 -1.1289212
-0.4669299 0.47373772 -0.043353155 0.082072794 -0.3101133 -0.79065853 0.9150234 -0.12345891
0.3710604 0.12316793 0.024338424 -0.15200415 0.26032752 -0.13702938 -0.32852545 0.2167719
-0.0101187825 -0.4287832 0.78766584 -0.39584875 0.36080122 0.23295212 -0.064358056 0.62185353
-0.39093223 0.58694136 0.47313404 -0.2933451 -0.26314735 0.15168343 0.17969543 0.34579372
0.38206598 -0.32924753 -0.069181144 0.586815 0.21451369 0.38371113 0.3392686 0.038966924
-0.017211854 0.7100924 0.47576764 0.27407026 0.07891766 -0.20248413 -0.33444774 0.65797716
0.57423556 -0.66567415 -0.04188957 0.11765462 -0.05463171 0.6291724 0.18245271 -0.0021828697
-0.19814439 -0.29468718 0.3854524 -0.003132968 -0.60595286 0.35659015 0.20401551 0.08625412
-0.17862163 -0.018327659 0.30044913 -0.2884768 0.19165719 0.072241575 0.33431703 -0.08998261
0.23754267 0.23924813 0.3141118 -0.2878196 0.3246048 0.033197563 -0.40476435 0.39709532
-0.16986291 0.22693765 0.11470282 0.115648024 -0.22069588 -0.14437623 0.13277255 0.09107721
-0.038226813 0.3344379 -0.048166737 0.22627914 0.38313672 0.25657892 -0.3114979 0.37963688
-0.02753588 0.24333277 0.16788931 0.36434507 -0.073146045 -0.33321634 -0.1423056 0.33916518
0.35461122 -0.05955434 -0.19540279 0.05905091 0.12107935 -0.2363607 0.20726801 -0.30539066
0.18590856 0.4606619 0.14865032 -0.2829893 0.30174565 -0.37584737 0.06647366 0.009807225
-0.14298204 0.031234315 0.43917274 -0.062122792 -0.40402085 0.7931797 0.054556657 0.6827581
0.5825883 0.33872432 -0.3689591 0.29348084 0.19306013 0.13711669 0.45305642 -0.13927782
-0.38406807 0.16766882 0.32129934 -0.22803676 0.050781183 -0.20940535 -0.18528165 0.28438875
0.29561332 0.17609262 -0.17048423 -0.08350322 -0.06627905 -0.92627186 -0.20831746 0.9076618
-0.5114486 -0.117185056 0.2814542 -0.22678564 -0.31695035 -0.39612678 0.5701834 0.036581457
0.2884981 0.3232625 0.3556189 0.38554922 -0.27538744 -0.15586466 0.12486434 0.6590914
0.64289385 -0.035896935 -0.22027972 -0.12586933 0.05246964 -0.14094445 0.13899988 0.45803216
-0.16225496 0.18534613 -0.097669244 -0.026941467 0.49371877 0.043843247 -0.17307962 -0.13271761
-0.31239504 0.27273726 0.095607005 0.1826801 -0.16021715 0.029647887 -0.2336145 0.575307
0.52132875 0.05790181 -0.2045597 0.26103085 -0.28608885 0.20163317 0.21068692 0.04075024
-0.064965345 -0.3922337 -0.10582492 -0.30051205 0.0779209 -0.034087345 0.31069446 0.37965924
-0.07386106 -0.41776004 0.28133556 0.020798355 0.1934908 -0.15125623 -0.35642707 -0.3941895
-0.2889756 0.59891486 0.16250944 -0.2014646 0.13832313 0.28955933 0.54241836 -0.037379432
-0.38166878 0.13006848 0.022257298 -0.44617614 -0.44636548 0.07144454 -0.19626118 0.22950149
-0.033271343 0.18650603 -0.0966981 0.30476487 -0.2613954 0.12681967 -0.36768228 -0.46066836

lstm.linear_forget_x.bias f4 [48]
00000000: 4964 243c 2b1c 79be 0c49 d23e 3309 9f3e
00000010: fb95 5abd 07ff fb3d 0a43 a1bd 33e2 d53d
00000020: 664a 2b3f 0771 a33e d8bc f0be 54fb 5abd
00000030: b18d 0e3e ba81 c8bd de12 8c3e 3692 443e
00000040: 1832 84bb 7f52 833e 10b4 583e e578 123e
00000050: 78bb 5a3e 7db1 0a3e e6c3 823d 5c8f 973e
00000060: 1583 113e b518 bd3e b322 5a3e a993 16bd
00000070: 9701 c6be 7839 ec3e 8583 b83e e1f1 d93e
00000080: 6c10 063f 31ff 893d 38b1 0c3f 8fb8 0f3f
00000090: 447f 4ebe 687b ba3e 0686 5dbc 2c82 013f
000000a0: 2b16 a03e 6bad 093e 622c a63e e0f1 af3e
000000b0: 4e3c 943e 7d49 c73d 7ac2 0e3e 7728 46be
0.0100336755 -0.24327151 0.41071355 0.31061706 -0.05336569 0.12304502 -0.07874115 0.10443535
0.669104 0.3192217 -0.47019076 -0.05346234 0.13921238 -0.097903684 0.27358145 0.191964
-0.004034292 0.25648877 0.21162438 0.1430393 0.21360576 0.13544269 0.06385021 0.29601562
0.1421016 0.36932912 0.21302299 -0.036761913 -0.38673088 0.46137595 0.3603784 0.4256735
0.5236881 0.06738127 0.54957914 0.5614099 -0.20165735 0.36422276 -0.013520723 0.5058925
0.31266913 0.1344506 0.32455736 0.34364223 0.2895226 0.09730814 0.13941374 -0.19351374

lstm.linear_forget_h.weight f4 [48, 48]
00000000: 513b 873e 03bb db3e adf1 9e3e aeb1 8bbe
00000010: f9ae 9fbe ca0c 99be 52ec d63e f74b 963e
00000020: 27f7 bbbe 1776 bfbe 7f80 66be 6e81 c3be
00000030: fcf8 a83e b9c8 b2be c6e5 cbbe f527 d0be
00000040: 96d5 17be e342 a6be 857d d33e b1bc 9b3e
00000050: aa38 43be 7b8d b1be c4a6 1bbe 21f1 3f3e
00000060: dc19 6c3d 8d43 d83e 412a 2abe 35b1 ca3e
00000070: 301e d83e d940 96be a92d 93be 441e c4be
00000080: dede 94be 8e27 d13e ea61 cebe cdd5 bb3e
00000090: f347 6abe 6aa8 05be 2d38 5fbe 607b 823e
000000a0: d0a8 7e3e bd4e 9c3e 4807 99be dc31 4a3e
000000b0: aaa0 3c3e fde0 5bbe b2ff ca3e 02bb 88be
000000c0: f873 483e f804 9e3d d6af cc3d 0759 07be
000000d0: a2cb fcbd 8bf8 713c 846f bfbc 8efe 333e
000000e0: a8b0 59be 1b1c 923c d6a9 4cbe 4239 fabd
000000f0: e255 ef3d eaf1 3e3d 943d e1bc 1fa8 17be
00000100: 6ab9 e3bd c1bd 4bbe 3e41 473e ff23 1d3d
00000110: b74c 463c 570f 5dbd c429 0ebe c5ba 243e
00000120: 8a90 a6bd 972a 90bd 401c d9bd c4bd f53d
00000130: 505a b73d 4ccf 9fbb a257 adbd 5eba 823c
00000140: a5e0 c9bd dca3 7ebd 618a 3cbe 78d1 ee3d
00000150: 9a10 1fbe 94f8 6ebd afb8 52be 8906 68bc
00000160: 434f 163e 4d11 f0bc 972e c63b d7c1 89bb
00000170: 4299 213c 6628 b5bd 2e0c 2b3e 69c9 fabd
00000180: 7873 2bbc b64c f3bb 04e4 c03c ddb0 e03b
00000190: 23a2 693c 94d4 053d f1a6 283e 61a5 883d
000001a0: 6493 07be 048b 66bc 9ed5 2fbc be06 313d
000001b0: 8410 413d 90f8 a7bb 2185 af3d 4d2a 17be
000001c0: b0f9 e0bd 725f b53c 6568 a8bd e045 56bb
000001d0: 70b3 1dbe d0b1 7cbd 12db 3bbd 753f aabd
000001e0: dd83 153e 520c b73d a6cb 2ebe a584 eebd
000001f0: 3498 b3bd 8ac3 dbbd b4a9 b6bd dfaa b03c
00000200: afb8 e33c 5742 e6bd e2b1 cabc ae6d fbbd
00000210: 342b fcbd c969 a43d 1b86 20be 6831 bf3c
00000220: 3e22 b3bc 064a 3fbd 071d 483c 721e dfbc
00000230: 20ce d23d 2903 9d3d 3698 bd3c 3df6 e3ba
00000240: 774f 0e3d 41e0 e53d d836 f53d 9635 07be
00000250: 4e06 57be bd24 57be 7413 183d 47a2 0f3d
00000260: b72e b2bd 3678 ddbd 16b2 1e3d d229 19be
00000270: 03b2 a33d e20d 15be 28a4 75bd 5959 66bd
00000280: 38f9 6ebd 8e85 49be 99a5 c73d 5edf 64bd
00000290: 79bb 6b3d e736 403d f60b 02be ca8b 223e
000002a0: 1e4d c43c 1932 853c 989b f7bd 2c4f 0a3d
000002b0: e1de 39bd d0f8 7abd 64d8 23be 0e45 fdbd
000002c0: fa87 633c 1044 08bd 8353 babd 3083 6db9
000002d0: 295c 823d 59df 72bd 9d0c 0cbe a5d9 0b3d
000002e0: 8326 1b3e 483e d23c f982 a5bd b616 2d3e
000002f0: 7e29 88bd eed6 883d 1cfb 513e 9bd1 14be
00000300: c6e2 763e 3624 803e 92f5 343e 22f2 d3be
00000310: 8a1a 92be 6d8e 8abe 6999 d83e 2155 973e
00000320: 7607 68be c178 1bbe 39e7 a6be adf7 a5be
00000330: 965e ae3e 69f5 57be a2f9 41be d992 b3be
00000340: ea00 b9be 40de d9be 7351 863e c665 873e
00000350: 2cb0 abbe 2576 adbe ddb3 cfbe 972c c93e
00000360: e7a8 9d3d 5769 363e f6e3 8abe 63bf 603e
00000370: b6fc 9c3e eb95 96be 89b8 d3be 7008 8fbe
00000380: 51bd dfbe 843d a93e 3010 c4be 8979 aa3e
00000390: 8611 46be 350b a6be a922 dabe b29a 863e
000003a0: ba7f c23e e824 b43e e3dd d5be 5348 a73d
000003b0: de01 4a3e b8a8 c7be b413 5e3e fd4b 9dbe
000003c0: ac98 913d f336 b4bc f5f7 453e 220c 9e3d
000003d0: 3e3d 37be 0aca adbd 5cba b03d cc63 8b3d
000003e0: eea9 09be dda3 28be a553 3dbe 775a a3bd
000003f0: d6d2 4a3e 4f70 42be 5d1c 15be c82c 43be
0.26412442 0.42916116 0.3104376 -0.27283996 -0.3118818 -0.2989257 0.41977173 0.29354832
-0.36712 -0.37394783 -0.22509955 -0.38184685 0.3300246 -0.34918764 -0.3982374 -0.40655485
-0.1482757 -0.32472906 0.413067 0.30417398 -0.19064584 -0.34678254 -0.15200335 0.18744327
0.05764185 0.42239037 -0.16617681 0.39588323 0.4221053 -0.2934635 -0.28745773 -0.3830434
-0.29076284 0.4085049 -0.40309078 0.36686555 -0.22879009 -0.13052526 -0.21798773 0.25484753
0.24869084 0.30528823 -0.29888368 0.19745582 0.18420663 -0.21472545 0.39648205 -0.26705176
0.19575489 0.077157915 0.099944755 -0.13217555 -0.123435274 0.01476873 -0.023368604 0.17577574
-0.21258795 0.017835667 -0.19986662 -0.12217952 0.11686303 0.046617426 -0.027495183 -0.14810227
-0.11119349 -0.19896604 0.19458482 0.038364407 0.012103251 -0.053969707 -0.1388312 0.16086872
-0.081330374 -0.07039373 -0.106010914 0.119990855 0.089527726 -0.0048770066 -0.0846398 0.015958007
-0.09857301 -0.062167987 -0.18412162 0.11661047 -0.15533677 -0.05834253 -0.20578264 -0.014161714
0.14678673 -0.029305125 0.0060480344 -0.0042040157 0.0098632 -0.08845596 0.16703865 -0.12245447
-0.010464542 -0.007424916 0.023546226 0.0068570212 0.014259848 0.032673433 0.16469933 0.066721685
-0.13239819 -0.01407123 -0.010732083 0.04321932 0.04713489 -0.0051260665 0.08570314 -0.1476223
-0.10985124 0.022140238 -0.08223037 -0.0032695457 -0.15400481 -0.061693013 -0.04586322 -0.08312885
0.14601083 0.08937897 -0.17069873 -0.11646394 -0.08769265 -0.107306555 -0.08919087 0.021565853
0.027798025 -0.11243122 -0.024743024 -0.12276779 -0.12312928 0.080279894 -0.15676157 0.023338988
-0.021866914 -0.046701454 0.012213952 -0.027236197 0.102932215 0.076666184 0.023143869 -0.001739211
0.034743752 0.11224414 0.11973351 -0.13204035 -0.20998499 -0.21010108 0.037127927 0.03506687
-0.087003164 -0.10813944 0.038744055 -0.1495736 0.079929374 -0.14556077 -0.059971005 -0.056237552
-0.058343142 -0.19679853 0.09748382 -0.055877082 0.057551835 0.04692736 -0.12699875 0.15873638
0.023962554 0.01625924 -0.12090224 0.03376691 -0.04537857 -0.061272442 -0.16000515 -0.12366687
0.0138874 -0.033268034 -0.0909796 -0.00022650952 0.063652344 -0.059295032 -0.13676687 0.03414311
0.1515141 0.025664464 -0.08081622 0.16903195 -0.06648539 0.066816196 0.20505947 -0.14533083
0.24109945 0.25027627 0.17671803 -0.4139567 -0.28535873 -0.27061787 0.42304543 0.29557136
-0.22659096 -0.15182783 -0.32598284 -0.32415524 0.34056538 -0.2108971 -0.18942884 -0.35072973
-0.3613351 -0.42552376 0.26234016 0.26444834 -0.33532846 -0.338792 -0.40566912 0.39291832
0.07698231 0.17813621 -0.27127045 0.21948008 0.30661553 -0.29411253 -0.41351727 -0.27936125
-0.43699124 0.33054745 -0.382936 0.3329585 -0.19342622 -0.32430425 -0.4260457 0.26289898
0.37988073 0.35184407 -0.4177085 0.081680916 0.19727275 -0.3899591 0.21687204 -0.30722037
0.07109198 -0.021998858 0.1933287 0.07717158 -0.17894456 -0.084858015 0.08629295 0.06806144
-0.1344373 -0.16468759 -0.18488939 -0.07976239 0.1980699 -0.18988155 -0.14561601 -0.19060051

lstm.linear_input_x.weight f4 [48, 6]
00000000: 4792 19be d321 c7be e6d6 b33e e7f4 1d3e
00000010: e189 8f3e 1501 d13e 796f 213f 0421 803e
00000020: 1cec c4be 9126 2bbc 3137 cc3d c3a3 883f
00000030: 589e bd3e 2046 91bc 24b6 5f3e eef9 1940
00000040: 6821 8f3f d01d 843e aecf 8d3e 72f2 0abe
00000050: d48a 5b3e 6c7d 1240 3d29 1abf f580 673f
00000060: d6a8 f03d 0751 8abe 4208 cd3e 7045 153e
00000070: e73a 1dbe dddf 153f 4ede d13e f893 8cbe
00000080: 40f4 dc3d 27c8 c33f 46c8 c63d 43e8 523f
00000090: 5679 2b3e c7d1 c4be 10d7 32bd d0fc c13e
000000a0: cb0b eebe b1b8 103f 6c5b 9d3e d2e8 81be
000000b0: f9e7 3bbe 82fe 63bd 654c 943e 1ee7 893e
000000c0: 7f9f 053f 8c3a 533e 247d 343e d433 61be
000000d0: 9f16 263f 69aa bb3d c32d 4e3e 800e 39be
000000e0: 0038 b83c 8ea6 163f 14dd 19be be02 1b3d
000000f0: 211b c5be 6096 523e f2c6 8dbe 489b 3440
00000100: a713 05bf ad6d 5b3e 3e05 fa3e 206b 073e
00000110: c124 9cbe 9bcb 0e3f 5b11 f63e c448 d13e
00000120: 52be 82be c0fc ae3b 2c5d bfbe a774 2c40
00000130: e837 6539 d915 8cbe db18 8e3e 759f b3be
00000140: a89b 22bd 7f37 37bf e74e 9d3f 34c7 62be
00000150: 4fd8 893e 4140 9ebe 5cd4 fabd 76d6 043f
00000160: 37a8 183e 7269 123f f3b8 093d 36fe 24be
00000170: c103 83be cbbb 843e 5b4c eabe 3aa6 423e
00000180: 8daf e03a 8a53 bf3e 4e64 75be c225 8cbc
00000190: e926 52be 0c5a 9c3d 95a6 bebd f266 b0be
000001a0: f864 763d c277 993d 5b06 a4bd 901b 23be
000001b0: 05c3 0c3f a08f b03e a4e2 9d3e 322e 693d
000001c0: ae0c b6bd e941 663e 3c92 da3e e84f bf3d
000001d0: 259a a5be dc61 aabf aefa 7fbf 50ea 2f3f
000001e0: 5707 86be 9854 3e3d 61c1 8cbe 8957 1140
000001f0: 4374 443f b476 a0be 8c98 f63e 80f9 13bd
00000200: 4058 cabc b950 283f 3e80 333f 0a6f 88bd
00000210: e825 bcbe e064 09bd dcfa 973e 963f a93e
00000220: 8fc3 053e 3d10 9d3e 56e4 52bc 77bf 9cbe
00000230: 462b 8abe 80c0 8b3e 6f81 693e f770 c53e
00000240: 2ac5 023f 8aee cbbe 6814 b53e 9a0b a33e
00000250: f428 75be c475 fbbd ce4f dd3e ec11 313e
00000260: d0d6 01bd 7ccb fc3e 7ef2 e03e 09e3 17be
00000270: 8f84 c83e 40c9 e73d d614 823e cbc4 f83e
00000280: 4889 9dbe a748 b23e b4ec 1b3e 9ef3 19be
00000290: a4fd 713e 5ccc 0340 729e 903f 3632 db3e
000002a0: dbf9 dfbd d8e1 c83d 7e7d bf3e dbca 433f
000002b0: 8baf a03e fc82 99be dd31 0bbe c010 823e
000002c0: d035 313e 3815 233f 4668 963e fc35 373f
000002d0: 3749 a73e 307d c73e d0c6 2c3e 202f 2c3e
000002e0: 0fef b23e 2db5 803e e94e 733e 70ba 3cbd
000002f0: beb6 5bbe 56e0 90be 8449 a03d 4089 113f
00000300: d0aa 273e 10f0 e0bd f2cd 78be aab4 cc3e
00000310: ea6d 4c3e f3bb 0d3e a650 ec3e 141c 453e
00000320: b4ac 84be 25cc c13e 4680 ca3d bb11 84bd
00000330: e71f a2bc 963e b93e 7828 3fbd dd95 d8bc
00000340: b7dc 0f3f 8f7e 51bd fe7a af3d de1c a8be
00000350: 20b6 7a3c 26c5 31be 1eee 0b3f 5f2d b93e
00000360: 1321 8e3d 383f a03d 78ee d73d 2bb9 9fba
00000370: a6b9 3e3e 54c0 a0bd 188d 9cbc 3c0d a0bd
00000380: 0d71 4cbe 77d4 bc3f 57ea 95bd 16d3 c53e
00000390: e893 d93e 908d 8dbe 9031 77be 5761 303e
000003a0: fc9f 55be 7b35 763e e45d 823e be57 babe
000003b0: 377a c3be bec3 103f 9bc3 b73d 8e7a c6bd
000003c0: 4dff 8c3e 8856 4d3e 2863 0bbd 274f 1c40
000003d0: 0ee2 a73f 4441 4b3e 1ff7 0a3f 407a 8bbb
000003e0: 042d 85bd abd1 063f 77b5 573d 04b9 2abe
000003f0: 1203 cd3e d09a fabd c0a9 5d3c c8d7 fa3f
-0.14997207 -0.38892993 0.35124892 0.15425454 0.2803488 0.40821138 0.6306072 0.2502519
-0.38461387 -0.010446207 0.099714644 1.0674976 0.3703487 -0.017733634 0.21846825 2.4058795
1.118207 0.25803995 0.2769751 -0.13569048 0.21439677 2.2889051 -0.60219175 0.9043115
0.11750953 -0.27014944 0.40045363 0.1457727 -0.153545 0.58544713 0.40989918 -0.2745664
0.107887745 1.5295457 0.09706168 0.82385653 0.16745505 -0.38441297 -0.04366213 0.37888193
-0.46493372 0.56531817 0.30733812 -0.2537294 -0.1835021 -0.05566264 0.28964534 0.2693414
0.52196497 0.20627803 0.17625862 -0.21992427 0.6487827 0.091633625 0.20134644 -0.18071938
0.02248764 0.5884789 -0.15025741 0.037844412 -0.3849726 0.20565176 -0.27690846 2.8219776
-0.5198311 0.21428557 0.48832124 0.13224459 -0.3049679 0.5577943 0.48060116 0.40875828
-0.25535828 0.0053401887 -0.37375772 2.69462 0.00021859969 -0.27360418 0.27753338 -0.35082594
-0.039699227 -0.71569055 1.2289704 -0.22146302 0.26922843 -0.30908397 -0.122475356 0.5188974
0.14907919 0.57192147 0.033623647 -0.16112599 -0.25588802 0.25924525 -0.4576138 0.19008723
0.0017142162 0.37368423 -0.23964044 -0.017107848 -0.20522656 0.076343626 -0.09309117 -0.3445354
0.060154885 0.07493545 -0.08009025 -0.15928483 0.54985076 0.34484577 0.30836976 0.05692882
-0.08889137 0.2248608 0.42689693 0.09341413 -0.32344165 -1.3311114 -0.9999188 0.6871691
-0.26177475 0.046467394 -0.27491286 2.2709677 0.767399 -0.31340563 0.4816326 -0.036126614
-0.024700284 0.65748173 0.7011756 -0.06661804 -0.3674767 -0.033543468 0.29683578 0.33056325
0.13062881 0.3067645 -0.012871822 -0.30614826 -0.2698614 0.27295303 0.22803281 0.38562748
0.510821 -0.39830428 0.3536713 0.3184479 -0.23941404 -0.122783214 0.4322495 0.17291993
-0.031699 0.49373996 0.43935007 -0.14832701 0.39163634 0.11317682 0.25406522 0.4858764
-0.307688 0.34821054 0.15227014 -0.15034339 0.23631912 2.059348 1.1298354 0.42811745
-0.10936328 0.09808701 0.3740043 0.7648141 0.3138393 -0.29982746 -0.1359324 0.25403404
0.17305684 0.6370425 0.2937643 0.7156675 0.32673046 0.38962698 0.16872716 0.16814852
0.34948012 0.25138226 0.2376057 -0.04607624 -0.2145643 -0.28296155 0.07826522 0.5685005
0.16373754 -0.10983288 -0.24297312 0.39981586 0.19963804 0.13841228 0.4615528 0.19248992
-0.25913012 0.37851062 0.098877475 -0.06448694 -0.019790603 0.36180562 -0.046669453 -0.026438648
0.5619616 -0.051146086 0.08568381 -0.32834524 0.015302211 -0.17360362 0.54660213 0.36167428
0.06939902 0.07824558 0.10543531 -0.0012185922 0.18625507 -0.07849184 -0.019110247 -0.07815024
-0.19965 1.4752339 -0.073200874 0.38637608 0.42495656 -0.27647066 -0.2414 0.17224632
-0.2086181 0.24043839 0.25462258 -0.36395067 -0.3817918 0.5654868 0.08972856 -0.09691344
0.2753853 0.2005254 -0.03403011 2.442331 1.3115861 0.19849116 0.54283327 -0.0042565167
-0.06502727 0.5266368 0.052663293 -0.1667214 0.40041405 -0.122365594 0.013529241 1.9597101

lstm.linear_input_x.bias f4 [48]
00000000: 9148 ab3e 3dbe 0d3f db70 a9bc 487a cd3e
00000010: 3186 3a3e 5282 b03e c389 7bbd aa8b 02be
00000020: 1078 09bd 61f4 023f 4d09 aabe 5ed4 e5bc
00000030: bd09 b63e 0361 1a3f bf39 b93d 03f2 abbe
00000040: 7de1 2a3d fd38 c33d b339 b23e a694 193d
00000050: c7fb eb3e a8ec a63e 8f1c 6bbe f809 e63e
00000060: f81d 223f 14e9 843e 2d0e cd3e cdae 8d3e
00000070: 2dec 9c3e 3a08 39bc 25d9 a43e 3b19 873e
00000080: 6b24 d43e 9586 cbbd 21b9 923e 2935 213f
00000090: 7995 be3e 926e ec3d b62a fd3e f3b1 153f
000000a0: 6bcf 693d 82c3 e83d ec6d 963c a0dd 033e
000000b0: 2755 9d3e 1186 88bc 1bc3 003f c920 9b3e
0.334538 0.55368406 -0.020683696 0.40132356 0.18215252 0.34474427 -0.061410677 -0.1274859
-0.033561766 0.5115414 -0.3321022 -0.028055366 0.35554305 0.6030428 0.09044217 -0.33583078
0.04171895 0.09532354 0.34809646 0.037495278 0.46090528 0.3260243 -0.22960113 0.4492948
0.6332698 0.25959074 0.40049878 0.27672425 0.30648938 -0.011293465 0.32196918 0.26386437
0.41434035 -0.09937779 0.28656867 0.6297174 0.37223414 0.11544527 0.49446648 0.58474654
0.057082575 0.11365415 0.018362962 0.12877512 0.3072903 -0.01666549 0.5029771 0.3029845

lstm.linear_input_h.weight f4 [48, 48]
00000000: 7c56 073d 17c0 d53d 31db 013e 838d 22be
00000010: 8b86 4fbe c663 1bbd 9ee4 193e e8e1 dc3d
00000020: 48fd 94bd 30cd 66be e4b5 25bd 4de8 8bbe
00000030: 7606 783e 9ace b5bd 5b9a 61be 8bb1 aebd
00000040: 9e56 8bbd 1170 f7bc 1b50 2b3e f922 753e
00000050: 2e8c a6bd f02a d0bd fd4a b7bd 39ed b03c
00000060: 9ea6 84bd 0a9f ba3d 6720 5cbe a99f 0b3e
00000070: 9585 4f3d 34b5 18be 3fa3 65bd 70c7 8cbe
00000080: f063 c7bd 4b21 8b3e 330b 4fbd 0024 783c
00000090: f058 9fbb 2720 00be 5482 3dbe 0da4 c73c
000000a0: 2425 3a3e 17bf 613c 15d2 96bc fec2 c93d
000000b0: 0dbd 073d 3423 91bd 78f4 693e 4b46 37be
000000c0: 7c7e 043f 48de 183f 4a29 493f 88ac 09bf
000000d0: 8750 4abf 0379 48bf 608d 393f 4bee 4c3f
000000e0: 3fbb 42bf 1702 43bf 0247 1dbf 799a 23bf
000000f0: 2ce1 193f 42c8 09bf bc36 44bf 5d86 10bf
00000100: 1f25 06bf 6b64 3cbf 69fb 4c3f abe7 1b3f
00000110: 3e72 34bf cb57 3cbf 18ab 08bf ec73 463f
00000120: b3fa 3c3f b137 433f 0673 13bf 052e 293f
00000130: 1dea 3a3f 8983 17bf 0e42 46bf 9a55 26bf
00000140: 1fc7 17bf b804 093f daab 4dbf 26de 283f
00000150: cdf3 47bf 1784 35bf 9941 47bf 0e29 273f
00000160: bf2b 4c3f 08dc 153f 6403 4abf 856b 043f
00000170: 3518 2e3f 0868 0dbf d574 053f e36b 29bf
00000180: dce3 073e dcbe c93e 4c01 d83d 361f 55be
00000190: ac42 58be 5689 70be b624 2d3e c806 5f3e
000001a0: 6749 c0be dbca 4abe cc9c b5be a16c 9fbe
000001b0: 1078 a23e 130f 52be 2056 bfbe 90ce a9be
000001c0: 0570 88be 9fe9 ecbd d93c b83e 9dbc 043e
000001d0: 0422 b3be cec2 24be 36f1 12be c62e 673e
000001e0: b5fd 703e 11e6 6a3e 21f1 00be cd4a 5c3e
000001f0: bddc 333e 445a b6be 5fe5 c8be 7131 73be
00000200: 9a42 91be 444f 9d3e cf35 78be ed5d 733e
00000210: 55a3 87be 9da2 0ebe d084 70be 2256 073e
00000220: 65e0 223e 4d88 bc3e d088 babe b8c5 923e
00000230: 4923 653e 07fb 65be 8ed3 413e 3017 8bbe
00000240: 73a9 c63d 4a7f 483e 3273 3e3d 0eca 22be
00000250: de8a 49bd 6592 21be 92b1 003d 47dd fa3d
00000260: 7903 c0bb 52fa 3abe beb6 41bc f6f1 38be
00000270: 4db3 013e 9679 80bd 95cc 12be b749 a7bd
00000280: 4ca2 86be 22e8 66be 0230 3c3c ca71 b43d
00000290: 9365 49bd de43 29bd af9d 42be 90f9 973d
000002a0: ec83 f53c f0f1 8d3d 0199 8bbd ef35 543d
000002b0: 0b2c 323e 04c4 d2bd 2447 61be 54ac 8dbc
000002c0: aa7e 41be b0a9 643d ed68 64be cb4d 873e
000002d0: c4e2 4dbe 7e17 5dbe 2e93 6ebe 4068 b23d
000002e0: c038 143b 45dd ce3d 777d 43be 4238 753e
000002f0: 2853 953d 5ec9 2abc 3b3c e83c 4b1d 1fbe
00000300: c342 1e3e 2318 8e3e 5f66 733e 2582 68be
00000310: 0a85 5dbe 32a8 c4be bdf7 b03e a221 6f3e
00000320: 6b38 b9be 5c29 7abe 9b0f a6be fed6 babe
00000330: 719c b13e 311f c6be de6b 87be 6ac9 84be
00000340: 0219 a9be 6676 8bbe c4a8 d23e f0ca 9f3e
00000350: 7930 63be 8969 a7be 3833 5dbe 9675 833e
00000360: da0e 663e 0284 4f3e fae7 98be 25bf 1e3e
00000370: 3b1e 963e fd08 1ebe 168f 9cbe 5690 83be
00000380: 7fe9 c3be abd4 cf3e aa53 50be e557 9f3e
00000390: 100b 3bbe 8c62 97be a91c c7be e156 093e
000003a0: ff04 433e 558f cd3e 9cb4 b4be 81e1 503d
000003b0: 3e70 963e a49c 3ebe 3966 1c3e 902b 54be
000003c0: 6b08 2b3e e6c4 543e 2f1b e93d fc96 c1be
000003d0: 0325 f3bd 24f8 c7be 9881 3d3e d2b5 953e
000003e0: ae3e 2abe fd3e a2be 52fd 2dbe fb1e 2cbe
000003f0: 4771 a63e b9aa 4dbe 0a38 62be f554 38be
0.033041462 0.10437029 0.12681271 -0.15874295 -0.20266168 -0.03793695 0.15028617 0.10785276
-0.07274872 -0.2253921 -0.040456668 -0.2732567 0.24221215 -0.08877297 -0.22031538 -0.085299574
-0.0680363 -0.030204805 0.16729777 0.23939122 -0.08132206 -0.1016444 -0.0894985 0.021597492
-0.06477092 0.091123655 -0.21496736 0.13635124 0.050664503 -0.14912874 -0.056063887 -0.2749591
-0.097358584 0.27173838 -0.05054779 0.015145302 -0.004862897 -0.12512265 -0.18506747 0.024370218
0.1817823 0.0137784695 -0.018410722 0.09851645 0.033139277 -0.070867926 0.22847164 -0.17897908
0.517555 0.59714174 0.7857863 -0.53778887 -0.79029125 -0.7830965 0.72481346 0.80051106
-0.76066965 -0.76175064 -0.61436474 -0.6390758 0.6010921 -0.53821194 -0.7664602 -0.5645502
-0.5240039 -0.73590726 0.8007112 0.6090037 -0.7048682 -0.7357146 -0.5338607 0.7752063
0.73820037 0.76256853 -0.57597387 0.66085845 0.7301348 -0.5918508 -0.7744454 -0.6497437
-0.5928821 0.53522825 -0.8034035 0.6596397 -0.78106385 -0.7090468 -0.7783447 0.6529702
0.7975425 0.58538866 -0.78911424 0.5172656 0.68005687 -0.55236864 0.52131397 -0.6618025
0.13270515 0.39403427 0.10547122 -0.20812687 -0.21119183 -0.2348989 0.16908535 0.2177993
-0.37556002 -0.19803946 -0.3547119 -0.31137565 0.31732225 -0.20513563 -0.37370396 -0.33165407
-0.26647964 -0.11567997 0.35983923 0.12962575 -0.3498689 -0.16089937 -0.14349827 0.22576436
0.23534282 0.22939326 -0.12591983 0.21512909 0.17564674 -0.35615742 -0.39237496 -0.23749329
-0.28371125 0.30724537 -0.24239276 0.23766299 -0.264918 -0.1392922 -0.23488164 0.13216451
0.15905912 0.3682274 -0.36432505 0.28666472 0.22376741 -0.2245904 0.18928358 -0.27166128
0.097002886 0.19579807 0.046496578 -0.1589739 -0.0492047 -0.15778501 0.031419344 0.122492366
-0.005859789 -0.18259552 -0.011823354 -0.18061051 0.12666054 -0.06273191 -0.14335854 -0.08168357
-0.26295698 -0.22549489 0.011486055 0.08810766 -0.049169134 -0.04132449 -0.19005464 0.07420647
0.029970132 0.069309115 -0.068162926 0.051809248 0.17399614 -0.10291293 -0.21999794 -0.017294087
-0.18895975 0.05582589 -0.22305651 0.2642654 -0.20106035 -0.21590993 -0.23298332 0.0871129
0.0022616833 0.101007976 -0.1909083 0.23947242 0.072912514 -0.010423986 0.028349033 -0.15538518
0.15455155 0.2775279 0.2376952 -0.22705896 -0.21632782 -0.38409573 0.3456401 0.23352674
-0.36175856 -0.2442984 -0.3243378 -0.3649215 0.34689668 -0.38695672 -0.26449484 -0.25934917
-0.33026892 -0.27238768 0.41144383 0.31209517 -0.2218646 -0.32697704 -0.2160157 0.25675648
0.22466603 0.202652 -0.29864484 0.15502603 0.2931994 -0.15433116 -0.30577916 -0.25696057
-0.3826408 0.4059194 -0.20344415 0.31121746 -0.18265939 -0.29567373 -0.38889053 0.13412048
0.19044875 0.40148416 -0.35294044 0.050996307 0.2938251 -0.18614441 0.1527337 -0.20719743
0.1670243 0.20778236 0.11382138 -0.37810504 -0.11872294 -0.39056504 0.18506467 0.2924028
-0.16625473 -0.3168868 -0.16991165 -0.16808693 0.325083 -0.20084657 -0.2209169 -0.18001159

lstm.linear_newmemory_x.weight f4 [48, 6]
00000000: 111b 07bf 8802 5c3e 9c8c 8d3d f4a3 56be
00000010: 894b fabd 31ad a23d 3d31 a53e 7040 9dbc
00000020: d4b4 523e 820e d7bf c249 8abf eede e43e
00000030: 6db9 2d3e 90de 64bd b4a2 a53e 6861 a93f
00000040: d2d2 ca3e 1cab afbf e199 37be c465 823e
00000050: bc2b 1c3e ffb1 81bf 3522 ca3f f70e abbe
00000060: 4e95 17bf 950a 82be 8048 c33d b23b efbc
00000070: d717 18bf f620 2ebe 9a27 cfbe 5a9b 913e
00000080: f066 4d3d 164d 733f 9bbf 94bf 5179 d83e
00000090: 8585 33be ca68 a3be 18e6 c93e 6973 dabd
000000a0: 290d 81bc 5ffb 75bd 1f2f ea3e 88f8 fd3d
000000b0: a88d ba3d c20e 343f 3a74 d93e b3ab 32be
000000c0: 8e7d 21bf 60f8 a43c 58d2 703e 2c75 a0bd
000000d0: fc68 1bbe 570e 043d 8c0e d3bc a864 cc3e
000000e0: 3e11 b73e e5f7 c73e a63f db3e 5417 073f
000000f0: 9472 243e 5cb4 413e 6065 81bc 4bce f33e
00000100: 1d79 7dbf 6ea7 113f 7d49 0c3e 90d5 2f3d
00000110: 3e1b 8cbe a5d6 05bf 34e0 c6bd 01a3 dbbe
00000120: ee65 6fbd ce2c 873e 3203 a13e bcf3 f2be
00000130: 0d4e 4bbf de4b 9a3f 54bf 9dbe ba77 cf3e
00000140: 643e 663e 9408 bfbf 8f14 043f 100e 4bbf
00000150: f784 e4be 229e a03e 44c9 9dbe 0527 f8be
00000160: 29e7 2fbf 0d09 9bbd d5c6 a9bc 60c7 ac3e
00000170: 45eb a3be dc65 bcbe a40a 82be 6658 073e
00000180: d86c 933e a462 703e 342f 8e3e f807 b3b9
00000190: 4480 90bd 44ad c73d 1f0e 7ebd 984b 05bd
000001a0: a483 3b3e 1536 3a3f 863a 473f 4125 d93e
000001b0: 9128 f13e a858 1bbe 9113 aabe 20f1 1f3f
000001c0: 5ce9 0a3d 7f9d 8e3e 6291 b43e 005e 82bd
000001d0: 364f 813e 0f32 8f3f e807 1e3f e3a3 0dbe
000001e0: 77ab 1ebe 7874 61bd c0c3 f0bb 6afc 863f
000001f0: 6362 f73e 7c4a 5fbf af1f 803e 0acf 92be
00000200: 40f8 b93e 4d4e ab3e b511 283f 5667 743e
00000210: 96b3 b63d fa09 a0be 2ff9 4dbe 1cf3 07bf
00000220: f620 b33c 0c34 c03e 64b1 103b 6059 953c
00000230: c052 7bbd 4396 343f 0862 92be eca7 483f
00000240: 6df7 76bd a487 29be b86f 753e a591 f83e
00000250: 2fab 2abd 96b9 043f d2c7 123f aad4 c93e
00000260: ff46 bbbe 2261 a43e 018f 253e 653d 663e
00000270: ecfc 00bf d0d8 da3d 8d5d b9be e48a 8f3d
00000280: bca2 7cbe 4a1c 3c3e 76a2 d2be 996c 93be
00000290: c0b2 ce3b ced0 b43f aa7e 163f d057 9dbf
000002a0: dd7c 93be 04a3 363e dcbc 1f3e d5e8 823e
000002b0: c15a 17bf a799 d63e faed 663e d017 853c
000002c0: 80e9 c63e 70b7 46bf 22a8 ba3c 38fe 2ebf
000002d0: a30b a23e ca90 89be a43a 0fbe 92e0 ea3e
000002e0: 13eb a33e c27c dcbd ffff 9ebc 7ff5 ccbe
000002f0: 3e17 98be 9aea 803f 87b2 863f e8eb 00bf
00000300: 6197 263c 839b c8be 3849 383e 6b91 63be
00000310: 352c 81be 7f06 bdbd 5cac be3c fc4e 943e
00000320: c490 463e 5c5c 203f 0d28 9fbe dcb9 223f
00000330: e42f b9be 27dc b3be 366a 9fbe d678 a4be
00000340: 8f62 b0be b410 c8bd 6204 f0bd de23 cdbe
00000350: e045 733c 5b15 f53e 5120 553e a8c9 313f
00000360: dd3c b5bc d847 b73e 887d 0d3e 0f2f 383e
00000370: 4e81 a93c 5c51 793e 2378 3cbe acaa a6bd
00000380: ae47 863e 6ef9 303f 6806 60bf eb14 c03e
00000390: 82a6 77bb a475 283e 7050 25bd f571 3fbf
000003a0: f62b 13bf a8fc a53e bcd6 f23e 38e9 953e
000003b0: cec7 3dbe d1d8 1bbe d489 923e 0dc9 4fbe
000003c0: d311 d33d feea 933e 5af2 873e 1089 86bf
000003d0: af90 f1be 5125 793f 4d05 02bf 98e0 bdbd
000003e0: 64ba 2f3e 929f b1be 3be6 aabd 6238 723c
000003f0: ef5d c13c 3ea7 9bbe 80b7 aabe 0bc0 1c3f
-0.52775675 0.2148534 0.06911585 -0.2096098 -0.122214384 0.0794319 0.32264128 -0.019195765
0.20576793 -1.6801302 -1.0803759 0.44701332 0.16965266 -0.055876315 0.32350695 1.3232851
0.39613968 -1.3724093 -0.17929794 0.25468266 0.15251058 -1.0132445 1.5791689 -0.33409855
-0.59212196 -0.25398698 0.09535313 -0.02920327 -0.59411377 -0.17004761 -0.404599 0.28438836
0.050146997 0.950395 -1.1620973 0.42280057 -0.17531402 -0.31915885 0.3943336 -0.10666544
-0.015753346 -0.06005418 0.45739076 0.12400919 0.0910905 0.7033502 0.42471486 -0.1744831
-0.63082206 0.020137966 0.2351774 -0.07834849 -0.15176767 0.032240238 -0.025763772 0.39920545
0.35755342 0.39056316 0.42821997 0.5276997 0.16059333 0.18916458 -0.01579541 0.47618327
-0.9901293 0.568961 0.13699909 0.04292828 -0.27364534 -0.52280647 -0.09710732 -0.428978
-0.058446817 0.2640137 0.3144775 -0.4745158 -0.7941597 1.2054403 -0.30810034 0.40521032
0.22484738 -1.4924493 0.5159387 -0.7931833 -0.44632694 0.31370646 -0.30817616 -0.4846727
-0.687121 -0.07570086 -0.020724693 0.3374586 -0.32015434 -0.36796463 -0.25398743 0.13217315
0.2879398 0.23475128 0.27770388 -0.00034147478 -0.07055715 0.09749845 -0.062025186 -0.032542795
0.18311936 0.7273877 0.77823675 0.42411235 0.47101262 -0.15170538 -0.33218053 0.624773
0.033913955 0.27854535 0.35267168 -0.06365585 0.25255746 1.1187152 0.61730814 -0.13832049
-0.15495096 -0.055042714 -0.007347554 1.0545781 0.4831725 -0.8722303 0.25024173 -0.28673583
0.36322212 0.33458176 0.6565202 0.23867545 0.08920972 -0.31257612 -0.20114587 -0.5310533
0.021866303 0.3753971 0.002207839 0.018231094 -0.061358213 0.7054178 -0.28590417 0.7838123
-0.060294557 -0.16555649 0.23968399 0.48548618 -0.04166716 0.5184568 0.5733615 0.39420062
-0.36577603 0.32105356 0.16167833 0.22484358 -0.5038593 0.10685885 -0.36204186 0.07008913
-0.24671453 0.18370166 -0.41139573 -0.2879379 0.0063079298 1.4126222 0.58787024 -1.2292423
-0.288062 0.17835623 0.15599388 0.25568262 -0.59122854 0.41914102 0.22551718 0.016246706
0.3885002 -0.77623653 0.02278525 -0.6835666 0.31649503 -0.26868278 -0.13987213 0.4587446
0.32015285 -0.10765983 -0.019409178 -0.4003105 -0.29705232 1.0071595 1.0523232 -0.50359964
0.0101679275 -0.39181146 0.1799668 -0.22223441 -0.2522904 -0.09229755 0.023275547 0.2896651
0.19391161 0.6264093 -0.31085244 0.6356485 -0.3616935 -0.351289 -0.3113572 -0.3212344
-0.34450194 -0.09768811 -0.11719586 -0.40066427 0.0148482025 0.47867855 0.20813109 0.6944833
-0.022123748 0.35797 0.13817418 0.17986701 0.02069154 0.24347442 -0.18405204 -0.08138022
0.26226562 0.691306 -0.87509775 0.3751596 -0.0037788455 0.16451126 -0.040359914 -0.7478326
-0.57488954 0.32419324 0.47429454 0.29279494 -0.1853325 -0.15219428 0.2862078 -0.20291539
0.10306134 0.28890222 0.26552087 -1.0510578 -0.47180697 0.97322565 -0.5078934 -0.092713535
0.17160946 -0.34692055 -0.08344694 0.0147839505 0.023604361 -0.30401033 -0.33343124 0.61230534

lstm.linear_newmemory_x.bias f4 [48]
00000000: 2a3a 103e d51d 8e3c 44f8 89be 2790 c8bd
00000010: 2076 61bd 7523 2cbc 1a47 f73e 439e b33d
00000020: acb8 2cbf 62b9 e83d 600f 4abe 4f48 f7bd
00000030: 934e 6b3e 1dc7 99bd dd14 bebe 1f6d 0bbe
00000040: 42c6 863e e608 2d3e 6f16 3d3e fcd1 25be
00000050: 3271 443a 2ee1 af3d 3753 2bbe c345 56be
00000060: 4cf0 cd3e 6acd 24be 6961 f0be 1432 cc3d
00000070: 8a36 3dbe fa7b dcbb f920 1a3e a7fa 773d
00000080: d9df f0be 5a1f c0be 33c7 133d d218 a53d
00000090: a40d e63e 1cda 9c3e 475e 12bc 771f ff3e
000000a0: 97d4 1b3e b1ab 8ebe b138 cd3d eedc e23d
000000b0: 8cc7 613e 4f00 913d 5f3c 753d c5c8 393e
0.14084688 0.01734821 -0.26947224 -0.0979312 -0.055044293 -0.0105065005 0.48296434 0.087704204
-0.67469287 0.11363484 -0.19732428 -0.12074339 0.22979192 -0.07508681 -0.37125292 -0.13615845
0.26323134 0.16897926 0.18465589 -0.16193384 0.0007493674 0.085878715 -0.16730963 -0.2092505
0.40222394 -0.16093984 -0.46949318 0.09970489 -0.18477836 -0.0067286463 0.1505164 0.060541775
-0.47045782 -0.3752392 0.036078643 0.08061375 0.44932282 0.30635154 -0.00893361 0.49828693
0.15217815 -0.27865365 0.10020579 0.11077295 0.22048777 0.07080137 0.059872027 0.18142994

lstm.linear_newmemory_h.weight f4 [48, 48]
00000000: 835a 8dbe e76c 41be 4c2b e6be 27ec e33e
00000010: c3eb a93e 85c7 363e 875a cfbe aac5 dbbe
00000020: 55c2 6a3e 3d61 3c3e a0db 9f3e 915f 463e
00000030: 6537 5bbe ae8a b33e 88be c73e 8bd7 8a3e
00000040: 1059 dc3e d56e 383e 401f a6be 6e05 4cbe
00000050: abcc 9a3e b740 b63e 99d6 d53e 88c9 73be
00000060: 1cc4 85be 9457 88be b4c7 833e bf41 b5be
00000070: fe76 ccbe b81b ba3e 8a5d 8d3e c554 7a3e
00000080: 2e5e 4e3e ecdf 69be 3a0e b83e ccd0 dcbe
00000090: 0cd7 dd3e 5293 7e3e c969 633e 7b57 96be
000000a0: 6c51 a3be b308 c6be 5b8b e23e 4329 65be
000000b0: 5a19 81be 4dd2 af3e 33e9 48be 779a c83e
000000c0: 7890 c3bd ffbb 713d b97a 6d3c 71d7 af3d
000000d0: 35aa d83c 25e8 96bd daba 86bd e964 cdbd
000000e0: 9860 da3d 6b25 1cbd 890c 46bd d7fb 9e3d
000000f0: c9d1 10be f54f 75bd 7185 6c3d 0f1c d3bd
00000100: 7793 9c3d 8c30 e93c 010b 25bd 0c04 ffbd
00000110: f569 053e 58d3 503d 07b5 cc3d bb13 d7bd
00000120: 217a 03be b550 acbd f0e1 50b8 cd6b f93d
00000130: 6c17 aa3c 417b 193d 116d df3d 2f7a f13c
00000140: 7b0f 01bd 4877 a1bd 5ce4 5cbd 3563 a4bd
00000150: 3918 21bd 89af fc3d 692b d63c b63f b1bd
00000160: b4b6 c53d 0357 fcbc 646e e5bd 0e7b 053e
00000170: cbc3 8e3c fd0f 0dbd bc8f a6bd 0430 1cbc
00000180: 216a d9bd 7ac2 8bbd 8402 6abd 0bb2 1d3e
00000190: f6d1 333e 649d 0f3e 7e95 39be 8a0a 44be
000001a0: d9ab 753e a9fa 1c3e 41e2 8d3d 96d3 593e
000001b0: 45e3 1bbe fe00 203e 2936 083e 17fa 2bbc
000001c0: f3f1 0dbd 480e 213e af9b 44be 8e41 073b
000001d0: 875f 993c 12e4 ac3d da58 3abc b2a3 a73c
000001e0: f6b7 1ebe 8c65 06be 473e 253e bcda 4ebe
000001f0: 50df 63bc b899 20bd 2467 563e e862 f43d
00000200: ba55 fa3d 1873 73bd 75d6 cb3d ba10 a7bd
00000210: d22a e33d c4fe 353e 775a 323e a757 0ebc
00000220: 781c abbd 72a8 40be 0e82 d03d aba0 14be
00000230: 1e79 99bd db75 583d 94b6 903c 4c0c f03d
00000240: 6b45 883c 7101 2a3e 0abd 423e 972e 08be
00000250: 09cd 1bbe 0e47 34be d8f3 5a3e dd51 763e
00000260: d14d dfbd 6c67 80be 77d3 23be 6e28 f7bd
00000270: d2e5 313c d4ab 1ebe 7128 20be 14ed 28be
00000280: 2092 60be 78ad 62be 3052 ab3d d224 253e
00000290: 5867 82be ef5c 01bd 3668 46be 223a cbbb
000002a0: 4bd3 cd3c c451 b83c cd30 9cbd 9076 503c
000002b0: 98f7 733e 1f15 08be e6cd 6dbd 20a6 8bbd
000002c0: 7949 eebd 8fba 633e 71a4 d3bd d717 b33d
000002d0: d714 8f3c a542 17be 98e5 93bd 8654 233e
000002e0: f158 5d3d 3b70 213e f946 26bd 2896 093e
000002f0: 229a 423e 397f 87be 0188 773e 54b2 42be
00000300: 0ddb d4be 2670 cabe c125 82be f1b2 d53e
00000310: 5439 e33e 788d 873e 5e13 ccbe 90f5 c4be
00000320: 9149 dd3e c606 8e3e 3e50 b83e ed66 713e
00000330: 6e8f d3be e2b7 c93e 9c2b ee3e e987 873e
00000340: 0340 ad3e 5c94 ed3e 1511 00bf aacb c3be
00000350: 7108 643e 8b6f a53e e830 c33e 269c f5be
00000360: 9596 16be 677d b7be d869 dc3e 17e1 cfbe
00000370: f16e 90be 07f3 a53e d3a2 e73e 17fa dd3e
00000380: 6312 8e3e 6d13 6ebe 54dc d53e d24a c3be
00000390: 9a78 a23e 4d64 c23e a938 813e ab7c c9be
000003a0: bf28 f0be 84dd d9be 0ebc a83e 31b0 83be
000003b0: 9df7 acbe 58cb 8d3e 1561 d5be 320d d93e
000003c0: af37 93bd 0162 e2bd c968 83bd 9005 34bb
000003d0: 802b 1e3e 3839 34bc 41b7 5ebd 3a53 d1bd
000003e0: 025d 3b3e b8ac b1bd b11d fa3d 2b23 143e
000003f0: 41d6 a03d b106 bf3d 73c9 193e 5407 e7bc
-0.27608117 -0.18889199 -0.44954908 0.44516107 0.33187684 0.17849548 -0.40498754 -0.42924243
0.22925694 0.18396468 0.31222248 0.19372393 -0.2140785 0.35066742 0.3901255 0.2711757
0.430367 0.18011029 -0.32445717 -0.19923946 0.30234274 0.35596249 0.41765288 -0.23807347
-0.26126182 -0.26629317 0.257383 -0.35401723 -0.39934534 0.36349273 0.27610427 0.244464
0.20153114 -0.22839326 0.35948354 -0.4312805 0.4332813 0.24860886 0.22208323 -0.29363617
-0.31898057 -0.38678512 0.44246945 -0.22379021 -0.25214654 0.34340134 -0.19620208 0.39180347
-0.095490396 0.059017178 0.014494591 0.08586014 0.026448349 -0.07368497 -0.06578608 -0.10029013
0.10662955 -0.038121622 -0.0483518 0.077628784 -0.14142527 -0.059890706 0.057744447 -0.10308086
0.07645314 0.028465532 -0.040293697 -0.12451944 0.130287 0.050982803 0.09995466 -0.1050181
-0.12839557 -0.08413831 -4.9801485e-05 0.121787645 0.020763122 0.03747106 0.10909475 0.029477207
-0.031508904 -0.07884079 -0.053928718 -0.08026735 -0.03932974 0.12338168 0.026143746 -0.0865473
0.096539885 -0.03080321 -0.11202696 0.13035223 0.017427346 -0.034439076 -0.08132884 -0.009532932
-0.106159456 -0.06824203 -0.057131305 0.15399949 0.17560562 0.14024884 -0.18123433 -0.19144645
0.23991336 0.15329994 0.0692792 0.2127212 -0.15223415 0.15625378 0.1330191 -0.010496638
-0.03465457 0.15728104 -0.19200014 0.002063844 0.018722309 0.084419385 -0.011373723 0.020463798
-0.15499863 -0.13124675 0.16137038 -0.20200628 -0.013908222 -0.039209098 0.20937783 0.11932927
0.12223382 -0.059435934 0.09953014 -0.08157487 0.11092152 0.17772967 0.17417322 -0.00868789
-0.08355039 -0.18814257 0.10181056 -0.14514415 -0.074938044 0.05284677 0.017665185 0.117210954
0.016634664 0.16602112 0.19017425 -0.13299023 -0.15214933 -0.1760523 0.21382082 0.24054666
-0.10903514 -0.25078905 -0.15998636 -0.12068258 0.010858016 -0.15495235 -0.15640427 -0.16496688
-0.21930742 -0.22136486 0.083652854 0.16127327 -0.2546947 -0.03158277 -0.19375691 -0.0062019983
0.025125166 0.022499926 -0.076264955 0.01272358 0.23824918 -0.13289307 -0.05805769 -0.06818795
-0.116351075 0.22239135 -0.10334099 0.087447815 0.017465992 -0.14771517 -0.07221526 0.15950212
0.0540399 0.15765469 -0.04059503 0.13436186 0.1900411 -0.2646425 0.24172975 -0.1901334
-0.41573372 -0.39538687 -0.2541943 0.41738084 0.44379675 0.2647512 -0.39858526 -0.384686
0.4322019 0.27739543 0.3599872 0.2357442 -0.41320366 0.39398104 0.46517646 0.2647088
0.338379 0.46402252 -0.50026065 -0.3824132 0.22268845 0.32311663 0.3812325 -0.47970694
-0.1470588 -0.35837862 0.43049502 -0.40601417 -0.28209642 0.32411978 0.45241413 0.43354866
0.27748403 -0.23249598 0.4176966 -0.3814302 0.31732637 0.37967148 0.2523854 -0.39352927
-0.46906087 -0.42551816 0.32955974 -0.2572036 -0.33782664 0.276942 -0.4167563 0.4239288
-0.07188355 -0.11053849 -0.064164706 -0.0027469136 0.15446281 -0.01099997 -0.054373983 -0.10220952
0.18297198 -0.086755216 0.122126944 0.1446654 0.07853366 0.09327448 0.15018253 -0.028201737

lstm.linear_output_x.weight f4 [48, 6]
00000000: 9e1a 5ebe cee4 b4be 5021 fa3c 1cd3 ad3e
00000010: aeba 8d3e 7397 84be c516 eebd ec2b bb3e
00000020: 72f5 8a3e 928a 92bf 50df bcbe 9231 cb3f
00000030: 23db 66be 7c85 7a3e ecdd 2dbe e411 1240
00000040: 29dd 6c3f 257b f5bd a563 db3e 84f1 743e
00000050: 6f55 b1be 3728 1640 970e 4dbe ab7c 843f
00000060: 87c4 973e 74d1 bfbe ac64 bfbe 2059 2b3e
00000070: 765d eebd 908a 983e 7411 19be 1515 2fbe
00000080: 0eb3 1bbe 4dd0 db3f 3f25 103e 3c22 b03e
00000090: 0a8c 61be 98b5 afbd a012 c13d bfd3 84be
000000a0: d044 efbd fd6f 653e 1e1d 033e 28f6 373d
000000b0: 0039 223d 02b8 f8be e80f 01bf c31b 143f
000000c0: e9a3 513e 4b20 48be 9083 c33d ccfb 2cbd
000000d0: 8e3a d03e 4650 6d3e 365a f33e 5a54 b53e
000000e0: a290 aabe 55a2 1f3e 640b 233e ef2b 9e3e
000000f0: 7802 a9be b4a6 1e3e 8806 793e 584f 2b40
00000100: 85c7 38be 5c07 2f3f 7670 48be 8c62 4b3e
00000110: aee8 8dbe 5aa2 893e 6054 a4be c4a4 143d
00000120: 0fd9 5dbd 0b42 81be 7ca1 5d3e 19f9 5440
00000130: 1829 abbb a805 d4be 6c3c a23e a0c3 9ebd
00000140: 7492 e6bd 81a6 41bf 095e 823f 38b0 e2be
00000150: 5455 87bd 0280 a43e 7966 48be bc59 9e3e
00000160: abec c03e f140 2ebd 26e7 79bd b09a af3c
00000170: c0ff 8e3e 39f8 aa3e 42cd 35bc ec43 5abe
00000180: 52a5 19be d862 223d 24a3 893e a0f0 f23e
00000190: 1272 d03b 38a1 873e dd51 08be 7628 c33e
000001a0: ee45 a1be b273 2d3f a1a8 1f3f 2028 5fbc
000001b0: 399f b03e 22f1 1fbe 42ad 92be e439 a73e
000001c0: 4aa6 c43e 4902 e93e aeb1 7f3c 6b43 2bbe
000001d0: f032 773e 9c51 adbf 86c1 0ebf 107b 633f
000001e0: 78d3 003f b661 29be 3e6f 02be ac2f 0440
000001f0: aa78 0c3f 4ade debc 7689 87bc 2aca bbbe
00000200: e406 783e 3281 633e c3a0 7dbd 853f 4a3d
00000210: 972e 9b3e b0c5 cf3d 500d 13be a7b5 54bc
00000220: 9a2e b3be 2c8a 8b3e 23e4 643e 0c3d f4bd
00000230: e0fb 5fbc 4686 b8be 7deb 153f 247a 203e
00000240: 8260 2b3f 20d6 cf3e 1833 bf3d 935b d93e
00000250: c341 953e 29a2 edbd 5e0f ec3e bc8c 63be
00000260: ac40 1c3e 0c3e 4dbe 1272 a63d 2f20 133f
00000270: 52d8 0a3e 22c1 2bbe ac97 b3be 333e eb3e
00000280: 4bcb 8b3c a6a0 8c3e b6b9 6b3d 5ad6 9e3e
00000290: 1090 383e 71bf 1040 0013 b13f e2c4 8abd
000002a0: 7320 70bd cad4 a4be 206b 29be 9417 8f3f
000002b0: b9bb 8c3e ad38 93be ed86 c03e cdd3 2ebe
000002c0: c07c 353c 28b1 203d debf 983b 1774 afbd
000002d0: 4935 7c3e 6077 633c 60ec c53d 011d 3c3d
000002e0: 38a6 49be 5918 93bd 2f17 973e 30fe 2b3d
000002f0: c4b3 9fbe 32c9 e2bd c0a3 2e3e a11f bb3e
00000300: 2a23 243e 46aa 41be b449 133e 38e8 283e
00000310: 5b47 623e 1ad0 1a3e dfb6 b33c 10f9 6f3d
00000320: faa7 bfbe 5891 1a3f aa87 29bb 0bd3 5c3d
00000330: e015 d03e 2946 6bbe 52e4 aa3e ca95 b83e
00000340: 7412 963e 104d 6d3e a092 48be b259 b03e
00000350: bc3c 6abe 508a 3e3e 6b78 fa3e 28b4 85bd
00000360: 4bb0 a63e 9ce0 2fbe b800 0e3e 897f 053d
00000370: de66 9a3d ef54 93bd c2f4 863e 00d0 243e
00000380: dc11 efbd 9325 8e3f 9ab7 98bd da44 1a3f
00000390: da71 293e 90eb 813c d437 263e 256f cc3d
000003a0: c8d3 103e 26c0 e33e c238 bb3d 7c88 883d
000003b0: 1c9f 8e3e f044 153f f86e 11be 48ae 433e
000003c0: dc38 5abe 28cd d9bd d06b 88bd d8ea 1640
000003d0: e903 333f 271b ab3d 4534 36bc dc0c 3d3e
000003e0: 4b97 6ebe 646c cf3d 173e 19bb 8c20 11be
000003f0: 3a31 a63d c4c7 a33d 8825 abbe 94a2 0340
-0.21689841 -0.35330814 0.030533463 0.33950126 0.27681488 -0.25896797 -0.11625437 0.36556947
0.27140385 -1.1448538 -0.36889124 1.5874503 -0.22544532 0.24464983 -0.16979188 2.282342
0.92524964 -0.119863786 0.4284946 0.23920256 -0.34635493 2.3462045 -0.20025097 1.0350546
0.29642126 -0.37464488 -0.37381494 0.16733217 -0.1163892 0.29793215 -0.14948064 -0.17097886
-0.15205023 1.7172943 0.14076708 0.3440112 -0.22026077 -0.08579558 0.094273806 -0.259428
-0.11683047 0.22406001 0.12804076 0.044912487 0.03960514 -0.48577887 -0.50414896 0.5785486
0.20472683 -0.19543569 0.09546578 -0.04223232 0.40669674 0.23175153 0.47529763 0.35415918
-0.3331347 0.15589269 0.15922314 0.30892894 -0.33009696 0.1549328 0.24318898 2.6767178
-0.1804486 0.68370605 -0.1957415 0.19861811 -0.27716583 0.26881677 -0.32095623 0.036289945
-0.05416208 -0.252457 0.21643633 3.3277037 -0.0052234046 -0.41410565 0.31686723 -0.07752156
-0.112584025 -0.7564469 1.0184947 -0.4427507 -0.06608072 0.32128912 -0.1957034 0.30927837
0.37680563 -0.0425424 -0.061011456 0.021436065 0.27929497 0.33392504 -0.011096301 -0.21314973
-0.15004471 0.039645046 0.2688228 0.47449207 0.0063612545 0.26490188 -0.13312478 0.38116807
-0.31498665 0.6775466 0.6236668 -0.013620406 0.34496477 -0.15619329 -0.2864781 0.32661355
0.38408118 0.45509556 0.015606327 -0.16724937 0.24140525 -1.354053 -0.55764043 0.88859653
0.50322676 -0.1654118 -0.12737748 2.0654097 0.5487162 -0.027205605 -0.016545039 -0.36677676
0.24221379 0.22217253 -0.061920892 0.049376983 0.30308983 0.10145128 -0.14360547 -0.012982762
-0.34996492 0.27253854 0.22352652 -0.11925706 -0.0136708915 -0.36039943 0.5856245 0.15671593
0.66944134 0.40593052 0.09335917 0.42452678 0.29151735 -0.11603195 0.46105474 -0.22221655
0.15259045 -0.200432 0.08127226 0.57470983 0.13559082 -0.16772893 -0.35076654 0.45945892
0.017064711 0.27466315 0.057550155 0.31022912 0.18023705 2.2616847 1.3833923 -0.06775834
-0.058624696 -0.32193595 -0.16544771 1.117907 0.2748697 -0.28754178 0.3760294 -0.17072983
0.011077106 0.03923145 0.004661544 -0.08567064 0.24629702 0.013883442 0.096642256 0.045926098
-0.19692314 -0.07182378 0.29509875 0.04199046 -0.31191838 -0.11073531 0.17054653 0.36547568
0.16029039 -0.1891261 0.14383584 0.16494834 0.22097532 0.15118447 0.021937786 0.058587134
-0.37432843 0.60378027 -0.0025868216 0.053912204 0.4064169 -0.22975983 0.3337732 0.3605178
0.29310954 0.23173928 -0.19587183 0.34443432 -0.22874731 0.1860745 0.48919997 -0.06528503
0.32556376 -0.17175525 0.13867462 0.03259233 0.075391516 -0.07193934 0.2635861 0.1609497
-0.11673328 1.1105217 -0.07456894 0.6026131 0.16547337 0.015859395 0.16232234 0.09982137
0.14143288 0.44482535 0.09141685 0.06666657 0.27855766 0.58308315 -0.14202487 0.19109452
-0.21310753 -0.106348336 -0.066611886 2.3580837 0.6992784 0.08354788 -0.01112086 0.18461937
-0.23299901 0.10128096 -0.0023382956 -0.14172572 0.08114858 0.07997087 -0.33427072 2.056798

lstm.linear_output_x.bias f4 [48]
00000000: 2efa 06be 42e2 37be 7739 b63d adb2 6bbe
00000010: c8d8 c8bd 0e9b a23e df67 ec3e c8b7 7d3e
00000020: 711a ca3e b6bb 3c3c 44ac a43e e6c7 663e
00000030: c8f0 2f3e 3a67 ec3e bb90 13be b358 ad3e
00000040: f85b 6fbe cb2e f23e a4fd 5e3d 9181 e63d
00000050: 9d26 673e 568d d53d 7ba9 89be b1e2 623e
00000060: 2275 103e 64ef a0be 1600 a23e 9c2d 623d
00000070: 384a cdbe 9a13 ec3d ef68 4d3d 790f ccbc
00000080: 3156 923d c615 393e 126c ca3e 3cc0 9abd
00000090: c919 d93e 7904 513e f52a 9a3d 9248 223d
000000a0: 0650 2e3e a90a 9d3d 5caf 8fbd 4d38 483d
000000b0: ee4e fdbc ac80 ae3e 7405 c13e 7cc4 853e
-0.13181373 -0.17957404 0.08897679 -0.23017378 -0.09806973 0.31758922 0.46172997 0.24777138
0.39473298 0.011519363 0.32162678 0.22537193 0.17181695 0.46172506 -0.14410679 0.33856735
-0.23374927 0.47301325 0.05444111 0.112551816 0.22573324 0.10427348 -0.26887116 0.22156788
0.14107183 -0.3143264 0.3164069 0.055219278 -0.40095687 0.11527176 0.0501489 -0.024909722
0.07145346 0.18074712 0.39535576 -0.07556197 0.42402485 0.20411862 0.07527725 0.03961999
0.17022714 0.07668049 -0.07015869 0.048881818 -0.030921426 0.34082544 0.37699473 0.26126468
