Codes/models/mymodel_iter5600.pt (torch, 48751 bytes, 17 tensors)

hidden0 f4 [1, 48]
00000000: da1f 313e 1ca7 5a3e 3b6e 303e 6a31 37be
00000010: 10b8 10be 687b 26be 2ed1 313e 86e4 213e
00000020: 14c7 39be 03ff 24be b4a6 24be c643 43be
00000030: 1e9e 0a3e 619a 53be 09d4 21be 5812 28be
00000040: 9b1b 19be ecd9 25be c441 363e 3798 043e
00000050: 70ae 29be 5583 23be 6a9d 41be b7b4 113e
00000060: 47cb 163e e211 1d3e 416b 15be de5d 3f3e
00000070: 44ba 1f3e 24e8 08be 6296 4dbe 0523 31be
00000080: bdf5 42be 34c4 303e 0106 33be a4b7 0f3e
00000090: 544b 2ebe 4ac1 23be be7a 1abe 4000 193e
000000a0: 5caa 243e 2108 423e f66c 42be 6856 0a3e
000000b0: 2a16 343e db82 3ebe 81d7 2f3e 960a 54be
0.17297307 0.2135281 0.1722955 -0.17889944 -0.14132714 -0.16258013 0.17364952 0.15809831
-0.18142349 -0.16112904 -0.16079217 -0.19068822 0.1353688 -0.2066436 -0.15803541 -0.16413248
-0.14951937 -0.16196412 0.17798525 0.1294869 -0.16570449 -0.15968068 -0.18907705 0.14229093
0.14725982 0.15338853 -0.14591695 0.18688151 0.15598398 -0.13369805 -0.20076898 -0.17298515
-0.19039054 0.17262346 -0.17482759 0.14034897 -0.17020923 -0.15991703 -0.15085885 0.14941502
0.16080612 0.18948413 -0.18986878 0.13509524 0.1758658 -0.18604605 0.17172052 -0.20707163

cell0 f4 [1, 48]
00000000: bcd4 41be ded5 edbd 084a d3bd faf8 053e
00000010: 96ca 5ebe 79fc ccbd 6f15 ea3d 2f01 cf3d
00000020: d508 45be 509d 343e cf33 bdbd 2ee1 45be
00000030: cd02 563c 7d59 5fbd 9de4 30be 4cc8 9cbd
00000040: 04b0 f93d b67a 3e3e b369 543e 4baf 90bd
00000050: 4c7e f5bc fe27 e53d 16f6 e7bd 9d27 233e
00000060: 53d0 463e 1a50 d53d 8828 3abe 184f f6bd
00000070: 3896 b4bc abf1 43be 45e6 c23d ab55 033e
00000080: d065 29be 40db 0bbe 284e 3fbe 37fb fb3d
00000090: 9b82 8e3d 126a b1bd ad71 0dbe 6ce9 5b3e
000000a0: 692d 143d 9fa1 36be 5479 aebd 889c f8bd
000000b0: 882f 933d 4d34 8c3d 1d4b 483e 0ce7 c4bd
-0.18928808 -0.116130576 -0.10316855 0.13083258 -0.21756968 -0.10009093 0.114298694 0.10107648
-0.1924165 0.17638135 -0.09238397 -0.1932418 0.013062191 -0.054528702 -0.17274709 -0.07655391
0.121917754 0.18601498 0.20743446 -0.070646845 -0.02996745 0.111892685 -0.11326234 0.1593308
0.19415407 0.10415669 -0.18179524 -0.12026805 -0.022044286 -0.19135158 0.09516577 0.12825648
-0.16542745 -0.13657856 -0.18682158 0.12303775 0.06958505 -0.086628094 -0.13812895 0.21475762
0.03617612 -0.17835091 -0.08519235 -0.12139231 0.071868 0.06845913 0.19559903 -0.09614381

lstm.linear_forget_x.weight f4 [48, 6]
00000000: ce44 b3bc 5a2e 2cbe 447f 14be 00ca 213d
00000010: e46d ea3e cd6d 423e b201 f33d a067 ff3d
00000020: f54a 6cbe 86c0 6d3f 6379 6f3e 98ee 2cbe
00000030: 6706 d23e 9658 c43e 14c1 48be 07c7 4fbf
00000040: 4067 dcbe 4db3 c63e 1c8c 22bd c815 a83d
00000050: 2cc7 9ebe 1585 3fbf c139 4e3f 408f bbbd
00000060: 30d7 a63e 783f fc3d 6061 c73c 2f58 36be
00000070: 18ed 893e 3bed 2abe e4e3 a4be 74f9 5d3e
00000080: 40c9 25bc 223d b5be d086 393f 662e b8be
00000090: 2d3f b03e 008b 6e3e 28ce 83bd 7ad3 103f
000000a0: e99f c1be a62b 0d3f cb42 dc3e 5431 96be
000000b0: 40bb 86be 6f01 313e 7f86 073e 5c04 ab3e
000000c0: b320 a63e 2293 a8be d8ae 8dbd 6d02 0a3f
000000d0: 20cd 543e 5e04 9e3e 6a95 9d3e c89b 1f3d
000000e0: e0ff 8cbc 560e 2f3f 5fc9 f43e 697d 713e
000000f0: 7749 d33d 0058 4fbe bc3c abbe 98a6 df3e
00000100: a5d4 0c3f 6810 17bf 01eb 87bd e8f4 f03d
00000110: 80c5 5fbd 0459 1c3f 882f 483e bba5 febc
00000120: 40f1 7bbd 3de1 96be 045a c53e 3e9d 2c3d
00000130: 9495 c1be eb35 c03e f66a 623e 00a6 b03d
00000140: 97e8 36be 3017 15be 4709 a63e 725b 8cbe
00000150: 873f 2e3e 64f3 933d 9a2b ab3e 1420 d5bd
00000160: 3558 803e 7107 7d3e 2d2a bc3e 175d 93be
00000170: 9a32 a63e b0c9 e13d 95f2 a9be 8cf2 e93e
00000180: c05e 09be 5862 683e 50e9 ea3d 1463 0c3e
00000190: a9b4 20be f17c bbbd 8590 d43d b086 ba3d
000001a0: b893 1cbd 838d 9d3e 6291 4bbd 1e2d 613e
000001b0: 7403 a83e 505e 833e a77c 9fbe 4695 aa3e
000001c0: 1f12 08bd 7281 2d3e 0b3c 313e 708b ba3e
000001d0: 98cd 95bd b1d6 a1be 1a39 04be 7a54 b23e
000001e0: 7b4e db3e 40ef 73bd ab17 48be 9df0 6a3e
000001f0: 6262 533e 6c14 49be c56e 413e 2a5c 9cbe
00000200: d05e 3e3e 438f f33e 96e9 e63d 9755 87be
00000210: 3567 a93e 116f c0be 5823 883d de24 ea3c
00000220: d958 cebd a8b7 a33d 2057 d53e 7874 7ebd
00000230: d2db cebe 34e3 3d3f afef 6f3d 7eab 1f3f
00000240: 9855 083f 466d ad3e 35e8 bcbe d124 833e
00000250: 300c 403e 227d bf3d 9160 ee3e d89e 0ebe
00000260: 92a4 c4be 0992 3f3e 74b7 a43e b74c 42be
00000270: 1cb5 8f39 5b6e 56be 79ba 3dbe 7f99 813e
00000280: 8b43 973e 95af f33d d05d 28be bc03 abbd
00000290: 50bd 87bd cc3a 22bf 0e93 3bbe 4b72 533f
000002a0: 6952 a3be b8fe efbd c41a 903e 8ac3 4bbe
000002b0: 5353 6bbe 1a3e febd fbda 023f 70d6 153d
000002c0: 06b6 933e 5f95 8e3e 5b0a ae3e 332c 9c3e
000002d0: a5f7 9cbe fc9a 1fbe e0b8 ff3d ff32 2b3f
000002e0: d83e 163f 032d f9bc 50eb 7ebe e4e3 00be
000002f0: 68ea 563d c0a2 e4bd a702 d53d c933 e93e
00000300: a3ed 58be 60cb 3d3e d006 c8bd a356 1dbd
00000310: 8b08 fd3e 881b 4239 e799 50be 20e7 07be
00000320: 3ef2 9fbe 1020 8c3e a8bb 8a3d 4311 353e
00000330: 11dc 4abe 20e0 f23c a438 6fbe 4466 0e3f
00000340: 1d28 093f d270 783c fd6d 73be d6a5 853e
00000350: 3d7a 92be 790f 393e 0251 5b3e 1212 7a3b
00000360: 8117 0bbc dbd2 c8be bcba d8bd fd6f 70be
00000370: a27a 1c3e 19bb 003d 1641 a13e b262 c23e
00000380: 7844 97bd 53b7 cbbe 61a7 633e 4651 893d
00000390: 1b17 313e eae2 1abe 9c7d b6be c46c b6be
000003a0: 4d6b 95be 8633 1c3f ab8e df3d bc4c 4ebe
000003b0: 94a4 0d3e 806a 8b3e c76b 0c3f c23c b2bd
000003c0: ec50 a0be ac30 053e f054 b63c e438 69be
000003d0: 5224 b9be 98e7 b13d b439 47be 7002 6b3e
000003e0: 8847 08bd 7647 393e 6442 7bbd 58ac 9d3e
000003f0: cdcc 7cbe 04dd 013e da40 bcbe fd0b f0be
-0.021883395 -0.16814557 -0.14501673 0.039499283 0.45786965 0.18987198 0.11865558 0.12470937
-0.23075469 0.9287189 0.23386149 -0.16887891 0.4102051 0.38348836 -0.19604903 -0.81163067
-0.43047523 0.3880867 -0.0396844 0.082072794 -0.3101133 -0.7481244 0.80556875 -0.09158182
0.3258605 0.12316793 0.024338424 -0.17807077 0.269387 -0.16692059 -0.32205117 0.2167719
-0.0101187825 -0.35398203 0.7247133 -0.359729 0.344232 0.23295212 -0.064358056 0.5657269
-0.37817314 0.5514473 0.4301971 -0.2933451 -0.26314735 0.17285703 0.132349 0.33401763
0.32446823 -0.32924753 -0.069181144 0.5390995 0.20781374 0.30862707 0.30778056 0.038966924
-0.017211854 0.6838125 0.47809884 0.23582996 0.10316747 -0.20248413 -0.33444774 0.43681788
0.5501197 -0.5900941 -0.0663662 0.11765462 -0.05463171 0.6107333 0.19549382 -0.031084886
-0.06150937 -0.29468718 0.3854524 0.042142145 -0.37809432 0.37541136 0.22111115 0.08625412
-0.17862163 -0.14559627 0.32428953 -0.27413517 0.17016421 0.072241575 0.33431703 -0.10406509
0.25067297 0.2470987 0.36750928 -0.2878196 0.3246048 0.11024797 -0.33192888 0.4569286
-0.1341505 0.22693765 0.11470282 0.1370967 -0.15693916 -0.0915469 0.103791274 0.09107721
-0.038226813 0.30772027 -0.049699195 0.21989867 0.32815135 0.25657892 -0.3114979 0.33317012
-0.033220407 0.1694391 0.17308061 0.36434507 -0.073146045 -0.3160911 -0.12912408 0.34830076
0.42833313 -0.05955434 -0.19540279 0.22943349 0.20642999 -0.19636697 0.18889911 -0.30539066
0.18590856 0.47570238 0.11275022 -0.26432487 0.33086553 -0.37584737 0.06647366 0.028582033
-0.1007554 0.07994014 0.41668034 -0.062122792 -0.40402085 0.7417481 0.05857819 0.6237105
0.53255606 0.33872432 -0.3689591 0.25614026 0.18754649 0.09350039 0.4655805 -0.13927782
-0.38406807 0.18708052 0.32171214 -0.18974577 0.00027410022 -0.20940535 -0.18528165 0.2531242
0.2954372 0.11898724 -0.16442037 -0.08350322 -0.06627905 -0.63370967 -0.18317816 0.8259627
-0.3189881 -0.117185056 0.2814542 -0.19898811 -0.22981004 -0.12414189 0.5111539 0.036581457
0.2884981 0.27848336 0.33992276 0.3050247 -0.30657688 -0.15586466 0.12486434 0.6687469
0.5868964 -0.030416971 -0.24894452 -0.12586933 0.05246964 -0.111638546 0.104008965 0.4554732
-0.21184401 0.18534613 -0.097669244 -0.0384127 0.4942058 0.00018511538 -0.20371209 -0.13271761
-0.31239504 0.27368212 0.06774074 0.17682366 -0.19810511 0.029647887 -0.2336145 0.55624795
0.53576833 0.015163617 -0.23772426 0.26103085 -0.28608885 0.18072309 0.21417621 0.0038157743
-0.0084894905 -0.3922337 -0.10582492 -0.2348022 0.15281156 0.03142843 0.3149497 0.37965924
-0.07386106 -0.39788303 0.22231819 0.06704955 0.1729397 -0.15125623 -0.35642707 -0.35629857
-0.29183426 0.6101612 0.10915884 -0.2014646 0.13832313 0.2722969 0.54851955 -0.08702995
-0.31311738 0.13006848 0.022257298 -0.22775608 -0.36160523 0.08686751 -0.19455606 0.22950149
-0.033271343 0.18093666 -0.061342612 0.3079555 -0.246875 0.12681967 -0.36768228 -0.46884146

lstm.linear_forget_x.bias f4 [48]
00000000: f940 8bbc fc1a 6cbe 7937 d93e 30ea a03e
00000010: 07dd c9bd 7aa0 043e 0f32 c3bd c0e2 7b3d
00000020: b58b 1c3f d451 933e 4152 e4be 839e 9fbd
00000030: ce3b 8d3e dd7e a5bd a611 813e 4240 7b3e
00000040: 87c1 013d cff7 683e 1866 203e c3c9 173e
00000050: 991c 933e 5ac4 ef3d 5267 be3d 3c0b 8c3e
00000060: c28d bc3d 4382 c33e bc6a 263e 3d7a fbbc
00000070: 80ef 46be 3b00 ce3e 758b a83e dc44 cb3e
00000080: 10bd f23e db85 163d 2efe 023f e23a 073f
00000090: a0aa 14be 26a9 bc3e 8b8e 0bbd a5b3 e73e
000000a0: 562f c33e 686c 0b3e 7c9b ad3e 5c92 a53e
000000b0: 7907 9f3e 941d ae3d 4651 ca3d 41c2 2ebe
-0.016998755 -0.23057169 0.42425135 0.3142867 -0.09856611 0.12951842 -0.09531032 0.061495543
0.61150676 0.28773367 -0.44594005 -0.077939056 0.2758469 -0.08080838 0.25208777 0.24536231
0.031678703 0.22750781 0.15663946 0.1482306 0.28732756 0.11707373 0.092970505 0.2735232
0.09206726 0.3818532 0.16251653 -0.030697936 -0.194273 0.4023455 0.32918897 0.39700973
0.47409868 0.03674875 0.511691 0.52824223 -0.14518213 0.368478 -0.034071486 0.45254245
0.38122052 0.13615572 0.33907688 0.32338226 0.3106039 0.08501735 0.09878783 -0.1706629

lstm.linear_forget_h.weight f4 [48, 48]
00000000: 7d4c 793e 8fd5 d13e 2428 973e 7756 84be
00000010: 2e55 9dbe 4159 91be 9cd9 cd3e fd3c 913e
00000020: 5111 b3be 95ac b7be 504e 56be 5d44 b7be
00000030: 0469 a63e 2a20 a9be 5b53 c8be de70 cdbe
00000040: d45a 09be 3744 a0be 24e5 c83e 0de5 9a3e
00000050: 7fa1 31be a8c1 a9be afad 19be 1507 353e
00000060: 00bd 433e 6e2b ce3e 9fe9 17be e114 c43e
00000070: 8c5a cc3e 807c 92be b19b 88be 26ad bcbe
00000080: b519 8bbe 565a c73e ae52 ccbe dda9 b33e
00000090: 6960 5bbe 7621 0cbe 9c1a 4abe 583e 743e
000000a0: cb60 6e3e 5f61 913e 2b2c 8fbe f51d 8d3e
000000b0: f061 273e edf4 52be 4da6 c83e 7d25 7fbe
000000c0: 7981 5f3e 94f0 b33d 84e3 ea3d 2007 13be
000000d0: 9098 13be 7258 86bb b8e2 14bc 6039 3a3e
000000e0: b4b6 62be 82ae b53b f673 57be 48c1 10be
000000f0: 2689 063e 787f 023d bbf2 03bd c97f 1cbe
00000100: 0984 fcbd 6edf 5cbe 8e85 5b3e 8e89 543d
00000110: 05b2 acbb 25a0 93bd 1b8c 15be baf1 2f3e
00000120: da75 60bd 4002 63bd c85b f2bd 96e3 0f3e
00000130: 31de e53d a96b 5abc 465f cbbd a992 aa3a
00000140: 5cf5 debd 9fb6 3ebd 5aa8 47be 90e7 0c3e
00000150: f223 2abe d3b4 88bd 621f 69be 4bfb 973a
00000160: 32ea 223e 8b00 68bc 100a 0abc d9e3 bf3b
00000170: cb03 c03c 66a4 d2bd 0e28 383e 4af3 08be
00000180: 00f9 773c 1c82 c93b 5e17 2d3d 118c 00bc
00000190: 0acd 23bc 23c5 253c a63c 3b3e d31e 9b3d
000001a0: 9ac2 13be 8096 f6bc a926 ccbc c975 a93c
000001b0: d4bb 863d 0d43 bcbc 62ea a03d 181a 1fbe
000001c0: 24cb 00be 4569 023b bdc7 71bd 7489 753c
000001d0: 1578 33be 16f3 aabd 86af 63bd 07e1 8bbd
000001e0: 59f4 363e 7a0b de3d 1679 3fbe 9520 bebd
000001f0: 3780 7bbd f5ad f5bd 648a dbbd ae3a 693b
00000200: 97e2 6b3c 986d bebd d591 1dbd 8a92 c7bd
00000210: 98a7 0cbe 4c4d 8d3d 50b3 3abe b803 2e3d
00000220: 1fb1 bebb 0921 e6bc 75c2 b8bb dba6 c8bb
00000230: 721a f63d 16ff 6f3d f06c 243d d72f 84bc
00000240: c7ef ef3c 5330 f33d 410d fb3d 7c94 0dbe
00000250: 475f 54be f2bf 55be 90fd 243d bea9 3f3d
00000260: 6db5 c3bd eb4a e8bd eee5 013d 2eda 16be
00000270: 008a ab3d 639c 17be 90c9 95bd 6896 8ebd
00000280: 9bcf 82bd bd85 4abe 3642 c23d d50d 50bd
00000290: d038 6b3d 5985 423d 374c 0dbe d1ab 293e
000002a0: aa1a a73c 1985 983c 300d 01be 77a0 fc3c
000002b0: 904a 51bd 9d5e 91bd 4c6a 26be 7d9c 01be
000002c0: 2fdb e23b ef36 01bd 6e40 c9bd 2cab 6dbb
000002d0: 8ad2 683d 237b 8ebd ad38 07be abbf 143d
000002e0: a984 203e 218f e23c ce43 abbd 4cef 393e
000002f0: efbc 80bd 1685 813d 859c 573e b401 1bbe
00000300: 872d 4e3e 91b0 5a3e 8b36 133e c0cd c3be
00000310: 8371 86be 6bf5 72be 1670 c63e 86d7 893e
00000320: 74c9 44be 5a27 f4bd 110c 96be 9e23 90be
00000330: ae10 a33e e254 32be 4328 2abe 3b9b a8be
00000340: 43de a8be 27b3 cabe 2d66 643e fcc7 7b3e
00000350: 06a7 99be a759 9cbe 854d c6be 25ff ba3e
00000360: 0fcd 463e fee6 0f3e 9ca3 71be efad 403e
00000370: fd69 873e cf58 8abe e1f6 bfbe cd1d 7dbe
00000380: 091b cdbe 323a 963e 5060 b9be 31cc 983e
00000390: 68ac 25be d7ea a0be d3e4 c5be 013a 6a3e
000003a0: 2e78 b13e 40fa 9f3e 98e2 c2be 719a 113e
000003b0: fb8d 223e bf42 babe 85e6 473e ca3c 8bbe
000003c0: 5c18 8e3d a81e 40bc bd4e 4d3e 4213 883d
000003d0: 4cd5 3abe 852b b4bd dc4a bf3d 89de ad3d
000003e0: 3789 16be b77c 32be d0de 48be f22e a5bd
000003f0: 44c9 543e 64fb 48be 9446 28be dfba 56be
0.24345584 0.40983245 0.29522812 -0.25847217 -0.3072905 -0.28388408 0.40205085 0.28366843
-0.3497415 -0.35873857 -0.20928311 -0.35794345 0.32501996 -0.33032352 -0.39126095 -0.40125173
-0.13413554 -0.31302044 0.3923732 0.30252877 -0.17346762 -0.3315556 -0.15007661 0.17678483
0.19115067 0.4026751 -0.14835213 0.3829718 0.39912832 -0.2861061 -0.26681283 -0.36850852
-0.2716805 0.38936108 -0.3990683 0.35090533 -0.21423496 -0.1368464 -0.19736713 0.23851907
0.23279111 0.283946 -0.27963385 0.27561918 0.16345954 -0.20601244 0.39189377 -0.24916644
0.21826734 0.08786121 0.114691764 -0.14358187 -0.14413667 -0.004099899 -0.009087257 0.1818595
-0.22140008 0.0055444846 -0.2104033 -0.14136231 0.13138255 0.031859845 -0.032213908 -0.15283121
-0.12329871 -0.21569607 0.21437666 0.051888995 -0.005270245 -0.072082795 -0.14604227 0.17182055
-0.054799892 -0.055422068 -0.11833912 0.14051661 0.1122402 -0.013331332 -0.09930281 0.0013013679
-0.10886642 -0.04656088 -0.19497815 0.13760209 -0.16615275 -0.066751145 -0.22765878 0.0011595277
0.15909651 -0.014160286 -0.008425251 0.005856019 0.023439309 -0.10285263 0.1798403 -0.13374057
0.01513505 0.0061495434 0.042258613 -0.007845894 -0.009997616 0.010117802 0.18284854 0.07574239
-0.14429703 -0.03010106 -0.024920778 0.020686047 0.06578794 -0.022981191 0.07857205 -0.15537298
-0.12577492 0.0019899171 -0.059028376 0.014986385 -0.17526276 -0.08347146 -0.055587314 -0.0683003
0.17866649 0.10842033 -0.18698534 -0.09283558 -0.061401572 -0.1199607 -0.10719755 0.0035587954
0.014397285 -0.09298247 -0.038469154 -0.09744747 -0.13735807 0.06899509 -0.18232465 0.042484015
-0.0058194543 -0.028091924 -0.0056384155 -0.0061234063 0.12016763 0.05859288 0.040142953 -0.016136093
0.02928914 0.118744515 0.12258387 -0.13826174 -0.2073947 -0.20874003 0.04028088 0.04679274
-0.095560886 -0.113424145 0.03171342 -0.14731666 0.08375931 -0.1480575 -0.073138356 -0.069622815
-0.06387254 -0.1977758 0.09485285 -0.05079444 0.057427227 0.04749045 -0.13798605 0.16569449
0.020398457 0.018618153 -0.12602687 0.030838234 -0.0510965 -0.07098124 -0.16251487 -0.12657352
0.0069231014 -0.03154653 -0.09826742 -0.0036265356 0.05684141 -0.0695708 -0.13205214 0.0363156
0.15675606 0.02765614 -0.08362542 0.18157691 -0.06286036 0.06324212 0.21055801 -0.15137368
0.20134555 0.21356417 0.14376275 -0.38242912 -0.26258478 -0.23726432 0.3875739 0.26922244
-0.19217473 -0.11921568 -0.2930608 -0.28152174 0.31848663 -0.17415193 -0.16616921 -0.3293093
-0.32982072 -0.39589807 0.22304602 0.24588007 -0.3001024 -0.3053715 -0.38731018 0.36522785
0.19414161 0.1405296 -0.23597568 0.1881635 0.2644805 -0.2702088 -0.3749304 -0.247184
-0.4005969 0.29341274 -0.36206293 0.29843286 -0.16179049 -0.3142917 -0.38651142 0.22873689
0.34662002 0.31245613 -0.38063502 0.14219071 0.15874474 -0.36379048 0.1952153 -0.27194816
0.0693824 -0.011726059 0.20049568 0.06644298 -0.18245429 -0.08797363 0.0934045 0.08489711
-0.14700781 -0.17430387 -0.19616246 -0.08065595 0.20779902 -0.19627148 -0.16433173 -0.20969723

lstm.linear_input_x.weight f4 [48, 6]
00000000: 6218 28be d321 c7be e6d6 b33e 9206 0b3e
00000010: e95a 9e3e 3ac7 c43e 631b f73e 0421 803e
00000020: 1cec c4be 35d4 0d3e 009c 723d c7ce 813f
00000030: 9644 b83e 2046 91bc 24b6 5f3e b15d d33f
00000040: 2385 883f a350 873e 9a18 983e 72f2 0abe
00000050: d48a 5b3e 5263 bc3f 22b7 14bf 0bd1 6f3f
00000060: 3450 a03d 0751 8abe 4208 cd3e a33b d43d
00000070: 9e20 18be 8bf3 043f 8680 cd3e f893 8cbe
00000080: 40f4 dc3d 6af0 833f 73f5 d23d a6ad 4a3f
00000090: d9f7 183e c7d1 c4be 10d7 32bd a060 ae3e
000000a0: 79c0 e6be 3fc9 073f 785f 843e d2e8 81be
000000b0: f9e7 3bbe 2a1f 42bd 5403 6b3e d868 883e
000000c0: 9ad7 e73e 8c3a 533e 247d 343e 67f1 76be
000000d0: 0bdd 243f e26d 0b3d 673f 2d3e 800e 39be
000000e0: 0038 b83c 35c9 0e3f 2276 13be 5592 8dbb
000000f0: 7711 91be 6096 523e f2c6 8dbe eaf1 f63f
00000100: 401e ffbe 4232 df3e a2a8 ea3e 206b 073e
00000110: c124 9cbe a3b1 083f ad03 fd3e d293 be3e
00000120: dd40 04be c0fc ae3b 2c5d bfbe 287c dd3f
00000130: 9671 ca3c 1ce8 88be 0435 6a3e 759f b3be
00000140: a89b 22bd 3fdc 1abf bc27 843f 8ce0 54be
00000150: 6966 6a3e 4140 9ebe 5cd4 fabd 2127 fd3e
00000160: be29 073e 5089 0c3f 63ce 943d 36fe 24be
00000170: c103 83be 5da0 9b3e 371e ccbe 16ac 7d3e
00000180: 5fc9 8f3c 8a53 bf3e 4e64 75be 2ed2 48bc
00000190: a643 1ebe 50a8 e23d fee1 02be f266 b0be
000001a0: f864 763d 8159 283d 2903 a5bd e405 26be
000001b0: f97a f93e a08f b03e a4e2 9d3e f3bc 303b
000001c0: 4c8d c3bd 79b2 163e 1a3a e73e e84f bf3d
000001d0: 259a a5be 49aa 9ebf b0e9 72bf c45d 053f
000001e0: 5265 81be 9854 3e3d 61c1 8cbe 7ad4 bb3f
000001f0: b5de 3e3f 35d3 98be e0a1 e23e 80f9 13bd
00000200: 4058 cabc 736b 283f 06fb 1d3f a099 84bd
00000210: c010 a7be e064 09bd dcfa 973e 83a0 b63e
00000220: b218 3b3e 3c9d bd3e cd0c 5abd 77bf 9cbe
00000230: 462b 8abe 36fe 503e dd53 903e b752 a63e
00000240: bbff e73e 8aee cbbe 6814 b53e 1d52 8b3e
00000250: a23f 7ebe dadd 37be fd11 d93e ec11 313e
00000260: d0d6 01bd d01d 003f 0be1 cd3e ffa1 fcbd
00000270: 9ed6 ad3e 40c9 e73d d614 823e 76cc df3e
00000280: 19cf a1be 31d4 863e 60de f93d 9ef3 19be
00000290: a4fd 713e d1e7 a63f bcdb 863f 764f db3e
000002a0: 97bb c3bd d8e1 c83d 7e7d bf3e bb8b ea3e
000002b0: 0909 9a3e b46a d8bc 885e 39be c010 823e
000002c0: d035 313e bdb0 193f fa86 993e 3cc4 223f
000002d0: 4bf5 8c3e 307d c73e d0c6 2c3e 9f54 333e
000002e0: 7316 913e fdfd 813e 2abb 213e 70ba 3cbd
000002f0: beb6 5bbe 7aa8 7fbe 3771 de3c 03c9 013f
00000300: 1899 d93d 10f0 e0bd f2cd 78be 6e07 bc3e
00000310: 9804 493e a8d9 8b3d fde0 e53e 141c 453e
00000320: b4ac 84be bc88 9a3e af88 a03d f5da 5abd
00000330: e6aa 53bd 963e b93e 7828 3fbd d60b 1fbd
00000340: 7188 153f 8958 90bd ed5f 083d de1c a8be
00000350: 20b6 7a3c b61b 59be 961a 0d3f c069 a03e
00000360: 61b0 993d 383f a03d 78ee d73d ed8a 423c
00000370: 35ce 4a3e e514 1bbd 66f6 75bb 3c0d a0bd
00000380: 0d71 4cbe f50b 783f 9c7d 82bd 499b e33e
00000390: f74f c93e 908d 8dbe 9031 77be 20f8 3d3e
000003a0: 088d 7fbe 254d 983e f99b 423e be57 babe
000003b0: 377a c3be 5e9c 053f 8b66 af3d a477 31be
000003c0: b9a4 923e 8856 4d3e 2863 0bbd 164d d33f
000003d0: aa17 a63f cc60 593e e4fb 033f 407a 8bbb
000003e0: 042d 85bd 20cd fe3e 09b3 7c3d 006c 44be
000003f0: a7d1 dd3e d09a fabd c0a9 5d3c c919 953f
-0.16415551 -0.38892993 0.35124892 0.13576725 0.30928734 0.38433248 0.48263082 0.2502519
-0.38461387 0.13850482 0.059230804 1.0141228 0.35989827 -0.017733634 0.21846825 1.6512967
1.066563 0.26428708 0.2970627 -0.13569048 0.21439677 1.471781 -0.5809194 0.9367835
0.078277975 -0.27014944 0.40045363 0.10362937 -0.14856192 0.5193412 0.40137118 -0.2745664
0.107887745 1.0307744 0.10300722 0.79171216 0.14938296 -0.38441297 -0.04366213 0.34058094
-0.4506872 0.5304145 0.25854087 -0.2537294 -0.1835021 -0.047393 0.22950488 0.2664249
0.45281678 0.20627803 0.17625862 -0.24115525 0.64399785 0.03404034 0.16918717 -0.18071938
0.02248764 0.5577577 -0.14400533 -0.0043204227 -0.28333637 0.20565176 -0.27690846 1.9292576
-0.49827766 0.4359303 0.45831782 0.13224459 -0.3049679 0.5339605 0.49416867 0.37222153
-0.12915368 0.0053401887 -0.37375772 1.7303514 0.024712365 -0.26739585 0.22871786 -0.35082594
-0.039699227 -0.6049232 1.0324626 -0.20788783 0.22890629 -0.30908397 -0.122475356 0.49443915
0.13199517 0.5489702 0.07265928 -0.16112599 -0.25588802 0.30395785 -0.39866802 0.24772677
0.017552076 0.37368423 -0.23964044 -0.012257142 -0.15455493 0.11067259 -0.12781522 -0.3445354
0.060154885 0.041100983 -0.080572434 -0.16213185 0.48726633 0.34484577 0.30836976 0.0026968091
-0.095484346 0.1471652 0.45161515 0.09341413 -0.32344165 -1.2395717 -0.9488783 0.520962
-0.25272614 0.046467394 -0.27491286 1.4674218 0.74558574 -0.29848638 0.44264126 -0.036126614
-0.024700284 0.65788954 0.61711156 -0.06474614 -0.32629967 -0.033543468 0.29683578 0.35669336
0.1827114 0.37034023 -0.053234864 -0.30614826 -0.2698614 0.20409474 0.28188983 0.3248498
0.45312294 -0.39830428 0.3536713 0.27211085 -0.24828961 -0.17955723 0.42396536 0.17291993
-0.031699 0.5004549 0.40210757 -0.12335586 0.33952802 0.11317682 0.25406522 0.4371068
-0.31603315 0.26333764 0.12200618 -0.15034339 0.23631912 1.3039495 1.0535808 0.4283406
-0.09557264 0.09808701 0.3740043 0.4580973 0.30085018 -0.026418068 -0.18102467 0.25403404
0.17305684 0.60035306 0.2998579 0.6358068 0.27530894 0.38962698 0.16872716 0.17512749
0.2833744 0.2538909 0.15794054 -0.04607624 -0.2145643 -0.24966612 0.027153594 0.50697345
0.106249034 -0.10983288 -0.24297312 0.36724418 0.19630659 0.06828624 0.44898215 0.19248992
-0.25913012 0.30182445 0.0783857 -0.05343147 -0.051676653 0.36180562 -0.046669453 -0.038829647
0.5841132 -0.07048137 0.033294607 -0.32834524 0.015302211 -0.21201977 0.5511869 0.3133068
0.07504345 0.07824558 0.10543531 0.011873943 0.19805224 -0.037861723 -0.0037530898 -0.07815024
-0.19965 0.96893245 -0.06371614 0.4445441 0.3931882 -0.27647066 -0.2414 0.18551683
-0.24956143 0.29746357 0.19004811 -0.36395067 -0.3817918 0.5219172 0.085644804 -0.17330796
0.28641298 0.2005254 -0.03403011 1.65079 1.2975972 0.21228331 0.5155623 -0.0042565167
-0.06502727 0.49765873 0.06169418 -0.19181824 0.43324015 -0.122365594 0.013529241 1.1648494

lstm.linear_input_x.bias f4 [48]
00000000: 7a05 a43e cfb8 cf3e 6d10 ffbc 34c3 d73e
00000010: 255a 123e 8a24 ac3e 05c8 a2bd 4b83 34be
00000020: f557 d2bd bd71 f53e 5aff 6bbe 35cf 6dbd
00000030: 6da7 f63e dee1 0d3f 4e4c 4d3d 85f5 97be
00000040: c8c0 6b3d ff36 783d 052f 923e 7dd4 7e3d
00000050: cc9d f03e fcf5 923e 4bf2 40be bc5f d13e
00000060: c658 133f 56ab 803e 3c60 b23e 5760 7c3e
00000070: 02fc a33e daf4 66bd 3985 8a3e aa9e 3c3e
00000080: 4cb5 b63e ea45 e5bd a765 823e cfcb 133f
00000090: 4179 c13e fdf0 053e cbe6 ec3e 152a 053f
000000a0: c17d 8b3d 3de8 b03d 3fac 513d 92f5 083e
000000b0: 30e2 8a3e 7062 68bd fedc e23e b75a 683e
0.32035428 0.40570685 -0.031135762 0.42141116 0.142922 0.33621627 -0.07948307 -0.1762821
-0.10270683 0.47938338 -0.23046628 -0.058058936 0.4817461 0.5542277 0.050121598 -0.29679504
0.057556897 0.060599323 0.28551498 0.062214363 0.4699539 0.28703296 -0.18842427 0.40893352
0.5755733 0.2513072 0.34839046 0.24646126 0.32028204 -0.056385852 0.27054766 0.184199
0.35685194 -0.11194976 0.2546818 0.5773286 0.37787822 0.13080211 0.4626983 0.5201734
0.06811095 0.08638046 0.051189657 0.13374928 0.27125692 -0.056734502 0.4430923 0.22690855

lstm.linear_input_h.weight f4 [48, 48]
00000000: bd1e d93c 3e31 c73d 45a7 fe3d 1b31 20be
00000010: 7875 58be fb6e 14bd 89c1 143e a6ad df3d
00000020: 5bb5 89bd 66d8 63be 7a1b 16bd c4b0 86be
00000030: 9d5f 7f3e 3f65 a9bd f6bb 65be 261d babd
00000040: 4e91 87bd d69a 00bd 5311 243e 25d0 7f3e
00000050: 5322 9ebd 001b ccbd 1a5f cabd ebd6 bb3c
00000060: c8cb a73d 65a8 ac3d 9299 56be dd33 0c3e
00000070: 7faa 2b3d 61ec 1cbe d6d0 45bd 34c8 8bbe
00000080: 473d b9bd 2cf6 873e 03da 6ebd 3b1d 533c
00000090: c784 15bb 7224 12be 90b6 36be c3d3 aa3c
000000a0: 1373 363e 099a b13b d369 43bc 6842 413e
000000b0: ee9b cd3c 7bcb 98bd b0a3 713e 3880 31be
000000c0: 0726 c13e 1991 e73e 4214 253f f1f2 c9be
000000d0: f4b1 26bf 9d9b 24bf 9551 153f 80a9 273f
000000e0: 3b9d 1dbf 9a85 1ebf 3142 f1be 2bd7 febe
000000f0: bae9 eb3e 9068 cabe 09a0 1ebf a4c4 d6be
00000100: fc5d c3be 3e40 18bf d8f1 283f fa75 f03e
00000110: e480 10bf f355 18bf 9832 c7be 27fc 213f
00000120: 4c2e 1e3f 0105 1f3f 2fed ddbe 4b46 053f
00000130: fa27 173f 8026 e6be 91b8 21bf 9fed 01bf
00000140: 0077 e5be a3bf c93e 4fef 28bf 8f69 053f
00000150: 123e 23bf afbe 10bf 8c80 23bf 4fed 023f
00000160: 37b2 273f 3eca e23e 2d81 25bf a715 cc3e
00000170: c295 093f 9db1 d2be c72b c33e 0695 04bf
00000180: 17f6 063e c83f c33e 1f00 c63d ffaf 48be
00000190: e3f6 54be f7b5 6bbe 6dbc 233e 6905 4d3e
000001a0: 9fcb b8be 1046 3fbe 0bfa aebe 0f51 9dbe
000001b0: ecad 9d3e ae2e 49be 6f97 b5be 8b0a a0be
000001c0: 4d90 82be 19af debd 9b62 b63e 5b16 f43d
000001d0: 5aff afbe 762b 1fbe 17d9 01be 7026 5a3e
000001e0: 4121 703e a441 623e 1014 ebbd 9917 593e
000001f0: a634 333e db82 aebe 6c6f c4be f010 6abe
00000200: bf8c 8abe 5b4e 993e 1ee4 6abe 75b9 703e
00000210: 2c1f 81be d0eb fcbd 3cee 6ebe 95dd fd3d
00000220: 1468 173e db52 b83e 91f4 b5be f44a 8a3e
00000230: a51b 5b3e 316e 5cbe db81 363e dcde 84be
00000240: 0fff d93d 4566 5d3e 038e 7f3d 3adb 36be
00000250: b327 79bd c65d 2ebe 7459 433d 8023 173e
00000260: 8b7a e4bc 2ace 4dbe 6c39 02bd 3039 45be
00000270: b0a4 123e ec54 a2bd 8d86 2ebe 5e71 ddbd
00000280: b224 90be 7329 76be bddc bc3c 1d58 d73d
00000290: d33f 80bd 9362 5fbd ba20 5cbe a968 c03d
000002a0: 83d9 203d c26b ad3d e279 b0bd c5fc 813d
000002b0: da02 3b3e c180 ffbd d9f2 71be 3b08 0bbd
000002c0: 7492 56be 7c10 913d 0318 7abe f25f 8c3e
000002d0: d862 62be 7abe 75be cb40 78be ab36 d23d
000002e0: 4e70 a83c 0307 ef3d e163 54be afe2 823e
000002f0: a810 b83d baf7 debc 39b3 3d3d a24b 33be
00000300: 264e fe3d d55a 7a3e 70e1 563e 906c 4bbe
00000310: a018 4dbe 541f b7be c25f a13e 96e7 543e
00000320: 7fec a8be 88b7 5cbe 44b0 96be e62c a9be
00000330: 9bf6 a73e 510e b6be 2b22 77be 9b5a 73be
00000340: ace2 9abe e34e 7ebe 3285 c23e 03c2 973e
00000350: b54e 45be 91a9 99be 3a49 4bbe f86b 6d3e
00000360: e0f4 b43e 4aa9 2e3e 48ef 88be 5741 063e
00000370: 0d74 853e 32d5 06be 2fa9 8bbe d4ee 6abe
00000380: 410f b3be ecc2 bf3e 5855 3dbe 88b3 913e
00000390: 0e8d 1dbe c3b2 92be 9061 b7be 6a78 d73d
000003a0: 5cc9 243e f467 bc3e 5b64 a4be 6e06 f63d
000003b0: 4c4a 853e 9c33 28be 8d7b 093e e0e1 33be
000003c0: b88c 183e 32f2 4c3e 638c d13d 1b75 bdbe
000003d0: 0f77 d4bd 8e6c c0be 54eb 313e 0769 943e
000003e0: 5b23 24be 2188 9dbe ea09 26be 19ea 1bbe
000003f0: e21f a13e 2824 42be 35aa 61be b06f 37be
0.026503915 0.09726189 0.12434248 -0.15643732 -0.21138561 -0.03623865 0.14526953 0.10921793
-0.06724044 -0.22250518 -0.036647297 -0.26306736 0.24938817 -0.08271264 -0.22434983 -0.09087591
-0.066195115 -0.031397663 0.16022234 0.24981745 -0.077213906 -0.09966087 -0.098814204 0.02292963
0.08193165 0.08430556 -0.2095702 0.1369166 0.041910645 -0.15324546 -0.048294865 -0.2730118
-0.09044891 0.26555002 -0.05831338 0.012885387 -0.0022814737 -0.14271715 -0.1784308 0.020852929
0.17817335 0.0054199737 -0.011927086 0.18872988 0.025098767 -0.07460686 0.23597598 -0.17334068
0.37724325 0.45227888 0.64484036 -0.39443162 -0.65115285 -0.6429995 0.5832761 0.6549301
-0.6156804 -0.6192261 -0.47120813 -0.49773535 0.46076757 -0.395329 -0.61962944 -0.419469
-0.38157642 -0.59473026 0.65994024 0.4696501 -0.5644667 -0.5950615 -0.38905787 0.6327538
0.61789393 0.6211701 -0.4334502 0.52060384 0.59045374 -0.44951248 -0.6317225 -0.50753206
-0.44817352 0.3940402 -0.65990156 0.52114195 -0.63766587 -0.5654096 -0.6386802 0.51143354
0.6550631 0.44294924 -0.6465023 0.3986027 0.5374414 -0.41151133 0.38119337 -0.5178989
0.13179813 0.381346 0.09667992 -0.19598387 -0.20797305 -0.23018633 0.15989847 0.20021595
-0.3609285 -0.1867907 -0.34175143 -0.30725905 0.30796754 -0.19646713 -0.35467097 -0.31258044
-0.25500718 -0.10873241 0.35622105 0.119183265 -0.34374505 -0.15543923 -0.1268047 0.21303725
0.23450185 0.22095352 -0.11478436 0.21200408 0.17500553 -0.3408421 -0.38366258 -0.22858024
-0.27060506 0.29942593 -0.22938582 0.23508246 -0.25219095 -0.12349665 -0.23333067 0.12395779
0.14785796 0.36000714 -0.35538152 0.2701031 0.21397264 -0.2152641 0.17822973 -0.25951278
0.10644352 0.21621044 0.062391292 -0.17857066 -0.060828876 -0.17027959 0.04769273 0.14759636
-0.027890464 -0.20098177 -0.031793043 -0.19260097 0.14320636 -0.07926354 -0.17043515 -0.10812639
-0.28152996 -0.24039249 0.023054475 0.10514853 -0.062621735 -0.054537367 -0.21496859 0.09394962
0.039269935 0.08467819 -0.08616997 0.0634704 0.18262807 -0.1247573 -0.23627795 -0.033943396
-0.20954305 0.07083222 -0.24423222 0.2741695 -0.22108018 -0.23998442 -0.24243467 0.10264333
0.020561364 0.11671259 -0.20741226 0.2556357 0.08987552 -0.027217735 0.0463135 -0.1750932
0.124172494 0.24448712 0.20984435 -0.19865632 -0.20028925 -0.3576609 0.3151837 0.20791468
-0.32992932 -0.21554387 -0.29431355 -0.33042067 0.32805333 -0.35557798 -0.24134128 -0.23765032
-0.30251062 -0.2483478 0.37992245 0.29640207 -0.19268306 -0.3001218 -0.19852152 0.23185718
0.35343075 0.17056766 -0.26745057 0.13110863 0.26065102 -0.13167265 -0.27277514 -0.22942668
-0.34972575 0.374534 -0.18489587 0.28457284 -0.1538584 -0.2865201 -0.35816622 0.10521014
0.16092438 0.3679806 -0.32107815 0.12012945 0.26033247 -0.16425937 0.13426037 -0.17566633
0.1489743 0.20014265 0.10231855 -0.37003407 -0.10374271 -0.3758282 0.17374927 0.2898638
-0.16029112 -0.3076792 -0.1621472 -0.1522602 0.31469637 -0.18959105 -0.22037585 -0.17913699

lstm.linear_newmemory_x.weight f4 [48, 6]
00000000: 0610 dfbe 8802 5c3e 9c8c 8d3d 4afa febd
00000010: dace debd f46d 373e e79f 9f3e 7040 9dbc
00000020: d4b4 523e 34ee adbf e02f 7ebf 121f ce3e
00000030: c50b 4f3e 90de 64bd b4a2 a53e 8d94 703f
00000040: c452 d23e 8541 89bf 346e 4ebe c465 823e
00000050: bc2b 1c3e 4ed6 5bbf ba86 923f 76b4 abbe
00000060: abd7 f1be 950a 82be 8048 c33d f338 2c3d
00000070: beb7 10bf 4e1e 83bd f795 c6be 5a9b 913e
00000080: f066 4d3d 1665 383f 129b 6bbf 3e1b d53e
00000090: fd1d 81be ca68 a3be 18e6 c93e e23d 21be
000000a0: 18b3 dcbc cc24 08be 80b8 ca3e 88f8 fd3d
000000b0: a88d ba3d 0add 353f 2328 9e3e d59a 53be
000000c0: 5311 02bf 60f8 a43c 58d2 703e 2c8e 3d3c
000000d0: 90f4 f5bd 970d 223e b618 eabd a864 cc3e
000000e0: 3e11 b73e 4eed 973e a78a c63e 5d72 da3e
000000f0: 5e81 223e 5cb4 413e 6065 81bc ec4a de3e
00000100: 4097 25bf 0852 053f c3d1 563e 90d5 2f3d
00000110: 3e1b 8cbe 1f69 e8be 1053 78bd 9b30 a5be
00000120: 05dc 26bd ce2c 873e 3203 a13e d30a a8be
00000130: 0551 33bf 6d48 6d3f 3cc4 9fbe ba77 cf3e
00000140: 643e 663e dbc4 98bf faeb f13e a459 38bf
00000150: 3328 babe 229e a03e 44c9 9dbe b59d e2be
00000160: 5183 1cbf d40d c7bb 00d0 f6ba 60c7 ac3e
00000170: 45eb a3be d9a5 b5be 9a65 4dbe da97 ef3d
00000180: e180 6d3e a462 703e 342f 8e3e 0155 8cbd
00000190: 267c 9abd 300a 9e3d 8ecd 0cbe 984b 05bd
000001a0: a483 3b3e 2395 293f 8a15 333f c704 b73e
000001b0: 18e1 be3e a858 1bbe 9113 aabe ab36 093f
000001c0: f1c6 0ebc 22ff 0e3e 66ea bc3e 005e 82bd
000001d0: 364f 813e 1772 463f a361 133f 0bfc cebd
000001e0: fc2c 0cbe 7874 61bd c0c3 f0bb 86ab 423f
000001f0: 12c9 f33e 9b99 24bf 425d 2f3e 0acf 92be
00000200: 40f8 b93e 5a31 9c3e d58f 033f c797 593e
00000210: 8788 c83d fa09 a0be 2ff9 4dbe 0270 04bf
00000220: 3c68 8d3d 1eb1 b73e e413 5dbc 6059 953c
00000230: c052 7bbd 4788 2c3f b393 8bbe e607 313f
00000240: 80ad 13be a487 29be b86f 753e 2d86 e13e
00000250: cdd9 c9bd a8e8 c83e aa1a fd3e aad4 c93e
00000260: ff46 bbbe ce5e 873e 4182 703d c85d 5a3e
00000270: 6941 c6be d0d8 da3d 8d5d b9be 54e2 013e
00000280: 13bb 60be 901c 923e 3f9f c0be 996c 93be
00000290: c0b2 ce3b aa4c 813f 55f8 1a3f 11f4 69bf
000002a0: 0139 96be 04a3 363e dcbc 1f3e 0d24 263e
000002b0: 9fcc fdbe 5df2 b33e f4d5 903e d017 853c
000002c0: 80e9 c63e 0ea5 42bf c12d 5b3d 25bb 11bf
000002d0: 73ec 753e ca90 89be a43a 0fbe a9f8 e53e
000002e0: 2642 423e 390c 0cbe bbcf aebc 7ff5 ccbe
000002f0: 3e17 98be bd18 7e3f a687 703f 8381 f7be
00000300: 77df 023e 839b c8be 3849 383e 25ff 06be
00000310: 6eb0 63be 6484 1f3d 7276 203d fc4e 943e
00000320: c490 463e 02cd 033f b141 6abe 718f 1c3f
00000330: dbe3 86be 27dc b3be 366a 9fbe 3248 73be
00000340: 0344 a4be f9d0 da3b 53b9 33be de23 cdbe
00000350: e045 733c d4c8 e53e 2c38 3c3e 11bf 153f
00000360: 5dbd b3bd d847 b73e 887d 0d3e b86d 173e
00000370: 0fb5 37bd 3bd6 7d3e dfd5 34be acaa a6bd
00000380: ae47 863e 6425 113f b872 2cbf 8a03 b13e
00000390: 4186 013d a475 283e 7050 25bd ea3b 44bf
000003a0: 6918 e7be ed06 ab3e fded c23e 38e9 953e
000003b0: cec7 3dbe 87ca 4fbe 902e 843e fcf9 87be
000003c0: c8e1 af3d feea 933e 5af2 873e 4d6a 3bbf
000003d0: 82a4 eebe b528 3a3f cc9f d8be 98e0 bdbd
000003e0: 64ba 2f3e 2fc9 81be 89ad 3bbd 1bb0 c43d
000003f0: b4b6 0d3d 3ea7 9bbe 80b7 aabe 82b7 033f
-0.43566912 0.2148534 0.06911585 -0.124500826 -0.108792976 0.17913038 0.31176683 -0.019195765
0.20576793 -1.3588319 -0.992918 0.4025808 0.20219333 -0.055876315 0.32350695 0.9397667
0.4107877 -1.072312 -0.20159227 0.25468266 0.15251058 -0.8587388 1.1447365 -0.33536118
-0.47234854 -0.25398698 0.09535313 0.0420465 -0.5653037 -0.064022645 -0.3878629 0.28438836
0.050146997 0.72029245 -0.92033494 0.41622347 -0.25218192 -0.31915885 0.3943336 -0.15746263
-0.026940867 -0.13295287 0.39593887 0.12400919 0.0910905 0.71040404 0.30889997 -0.20664532
-0.50807685 0.020137966 0.2351774 0.011569541 -0.12009537 0.15825497 -0.114304945 0.39920545
0.35755342 0.29673237 0.38777658 0.42665377 0.15869662 0.18916458 -0.01579541 0.43416536
-0.64683914 0.52078295 0.20978455 0.04292828 -0.27364534 -0.453927 -0.06062609 -0.32263646
-0.04073717 0.2640137 0.3144775 -0.32820758 -0.700455 0.9268864 -0.31204402 0.40521032
0.22484738 -1.1935076 0.47250348 -0.7201178 -0.36358795 0.31370646 -0.30817616 -0.44260946
-0.6113787 -0.0060746465 -0.0018830299 0.3374586 -0.32015434 -0.35478094 -0.20058289 0.11698885
0.23193695 0.23475128 0.27770388 -0.06852151 -0.07543211 0.07716787 -0.13750288 -0.032542795
0.18311936 0.6624319 0.6995474 0.35745832 0.37281108 -0.15170538 -0.33218053 0.5359904
-0.0087144235 0.13964513 0.36897582 -0.06365585 0.25255746 0.7751784 0.57570857 -0.10106667
-0.13689035 -0.055042714 -0.007347554 0.76042974 0.47614342 -0.64296883 0.17125419 -0.28673583
0.36322212 0.30506402 0.51391345 0.21249305 0.097916655 -0.31257612 -0.20114587 -0.5173341
0.06904647 0.35877317 -0.013493512 0.018231094 -0.061358213 0.6739544 -0.27261123 0.6915268
-0.14421654 -0.16555649 0.23968399 0.4404768 -0.09855995 0.39240003 0.49434406 0.39420062
-0.36577603 0.26439518 0.05871797 0.21324837 -0.3872178 0.10685885 -0.36204186 0.12683994
-0.21946363 0.28537416 -0.37621495 -0.2879379 0.0063079298 1.0101521 0.60535175 -0.9138804
-0.29340366 0.17835623 0.15599388 0.1622469 -0.49570176 0.35145846 0.28288233 0.016246706
0.3885002 -0.76033103 0.05351043 -0.56926185 0.2401598 -0.26868278 -0.13987213 0.44916275
0.18970546 -0.13676538 -0.021339288 -0.4003105 -0.29705232 0.992565 0.93956983 -0.48340997
0.12780558 -0.39181146 0.1799668 -0.13183267 -0.22235271 0.038944617 0.03917546 0.2896651
0.19391161 0.5148469 -0.22876622 0.61156374 -0.26345715 -0.351289 -0.3113572 -0.23758009
-0.3208314 0.0066777435 -0.17551164 -0.40066427 0.0148482025 0.44879782 0.18380803 0.5849467
-0.087763526 0.35797 0.13817418 0.14787948 -0.044850405 0.24788754 -0.1765971 -0.08138022
0.26226562 0.5669768 -0.67362547 0.34573013 0.031622175 0.16451126 -0.040359914 -0.7665392
-0.4513581 0.3340372 0.38072196 0.29279494 -0.1853325 -0.20292102 0.25816774 -0.2655791
0.08587986 0.28890222 0.26552087 -0.7320908 -0.46609885 0.72718364 -0.42309415 -0.092713535
0.17160946 -0.25348803 -0.045819793 0.09603902 0.034598067 -0.30401033 -0.33343124 0.51451886

lstm.linear_newmemory_x.bias f4 [48]
00000000: 4286 6e3e 8f21 d43b f79d 72be 0539 f6bd
00000010: 5490 843d 222e cc3b e8eb cf3e 340e d73c
00000020: 714c 0dbf 7c91 cd3c 9600 4cbe 836f 44bd
00000030: 2371 7d3e 4cdb a1bd 19b8 93be c443 f0bd
00000040: 8933 543e 5a7d bf3d b90e b13d 5c20 15be
00000050: b715 9a3c a9cd e13b d068 22be d659 66be
00000060: 64f8 a23e 87b8 75be 01a9 b4be a31f 0a3e
00000070: e9ae 42be 146a 4f3d 3cec 973d ba12 703d
00000080: eba4 b4be 4dfb b7be 6989 093e 47aa b63c
00000090: 1f72 c43e 34ab a03e 11d2 d83c bd36 cf3e
000000a0: 633c 0a3e 0482 46be c4bc e33d 9f7f 033e
000000b0: 31c4 4a3e ef2c 953c a9a9 53bd 42a7 2b3e
0.23293403 0.006473727 -0.23693071 -0.12022594 0.06472841 0.0062310854 0.4060967 0.02625189
-0.55194765 0.025093786 -0.19922099 -0.04795791 0.2475019 -0.07903156 -0.28851393 -0.11731675
0.20722784 0.09350081 0.08645386 -0.14563125 0.018809183 0.0068909717 -0.15860295 -0.22495207
0.31830132 -0.23996173 -0.3528519 0.13488631 -0.19012035 0.050638273 0.07418105 0.05861161
-0.35282072 -0.35933915 0.13431324 0.022297991 0.38368317 0.31380618 0.026467355 0.4047145
0.13499598 -0.19385535 0.111199886 0.12841652 0.19801404 0.018209903 -0.051675472 0.16763023

lstm.linear_newmemory_h.weight f4 [48, 48]
00000000: 785a 40be d1fb d5bd 3b87 bcbe 9c31 bb3e
00000010: 3218 853e f6c2 c53d 1082 a4be 01e0 b5be
00000020: a4aa 163e ae57 d33d 1ed2 6c3e bbb7 d23d
00000030: 1b83 12be 0221 883e be7f a33e bff3 4e3e
00000040: 8184 b33e 3cda d03d cf71 72be e1ab 06be
00000050: 4ddd 5f3e 9d40 8c3e 57f2 b33e fbec 25be
00000060: ea41 a6be 79ae 38be d70a 323e 1150 8cbe
00000070: f307 9ebe f021 953e 0e07 423e 1bf7 273e
00000080: 545d f03d a86f 12be 03a6 943e 7016 b2be
00000090: cd10 b53e 64b1 423e 1c23 093e 0624 58be
000000a0: 5f41 73be c33f 99be 1bee b63e ff00 70be
000000b0: 748c 29be 4099 893e 7aea 00be cd10 9e3e
000000c0: f22f edbd 5e14 4e3d 8ef1 fb3a 16fc c23d
000000d0: b6e9 373d e89c 69bd c28e 9fbd 27d7 d5bd
000000e0: 0f57 e83d 3efa e4bc f966 23bd abd7 c13d
000000f0: 826d 1dbe ff67 41bd 810f 783d 1d71 cdbd
00000100: 6d02 b13d e044 303d 1a28 6dbd 4110 0bbe
00000110: 13f3 143e 6e04 893d 5b7c d73d b02c e9bd
00000120: 800a 1cbe b483 c6bd d949 263c 96da d33d
00000130: d06a 9439 7e6b 333d c025 f93d 9011 2c3d
00000140: fb49 bebc 7bfb bcbd 56bb 38bd 92ad cabd
00000150: 3482 fabc 2be1 043e c783 3b3d 722c ccbd
00000160: c1d6 b03d e783 33bd 331b ccbd 58db fb3d
00000170: 99a7 c33b c9b7 b5bc d250 bcbd acb1 94b9
00000180: 4993 aebd 36ab 14bd 0565 f7bc 4858 fc3d
00000190: 0c1c 1d3e 4ff1 ee3d ca72 1dbe c001 1fbe
000001a0: 6474 533e 0389 fd3d b137 1c3d 96a5 413e
000001b0: 8b30 00be 835c 033e 2959 c23d 14ba 43bd
000001c0: ae99 83bd 8c8d 063e d20d 2dbe f6ee ef3c
000001d0: f4f6 c0bb d94c 763d 9e92 40bd 171c 513d
000001e0: 9711 10be 7c4a d6bd da59 073e ae8e 37be
000001f0: a782 cb3b 21d9 92bd 9ffa 393e 226a bb3d
00000200: 89b3 b83d dfd1 07bd e475 8a3d d0c4 78bd
00000210: 2e46 a33d d1db 123e ee0e 1d3e a63d 933c
00000220: d093 5dbd dbd2 24be e05e 973d efd0 fabd
00000230: 02b8 3ebd 3e1f cf3c 48d3 3c3d 4d54 b03d
00000240: e0fa 5bbc d9b0 163e 0569 2c3e d194 e9bd
00000250: ebc9 ffbd ccb5 19be 3fde 443e 4d13 683e
00000260: 76d7 bcbd 43b0 6cbe a95a 11be 5f09 c0bd
00000270: 831c 24bc 0195 07be 9118 13be 6e69 1cbe
00000280: 9cb2 4cbe 2737 4abe 27f8 663d 7237 113e
00000290: 40c1 6bbe 4a6f d0bb 2457 37be 386d c6bc
000002a0: f015 94ba 74dd 7039 5593 67bd 60ea 73bc
000002b0: 931d 553e 91eb f0bd f4ff 11bd 89e0 3cbd
000002c0: 01bd c8bd db38 4c3e 308d aebd a81d 753d
000002d0: 0a99 123d 78a5 07be cc64 30bd 5131 0c3e
000002e0: 23b2 0c3d b305 0a3e b146 97bc a49e ff3d
000002f0: afda 2c3e 1834 79be b5e2 633e 3814 2fbe
00000300: df5e 98be 96bf 91be 6f10 15be 6c9f 9f3e
00000310: 63c2 af3e 6b0e 1e3e 7150 93be 5d64 92be
00000320: cf19 a63e e02e 2e3e e29e 813e b25d ed3d
00000330: 38be a1be db47 903e 8a66 bd3e 5f8b 2f3e
00000340: 00b7 6d3e 7560 b73e d375 c4be 9abf 93be
00000350: ea9e e33d 86f6 593e f67d 943e b065 c1be
00000360: e1a3 39be f3e7 7abe 720d a43e fd2e 98be
00000370: 9858 25be 804d 683e c337 ad3e 7df1 a63e
00000380: a026 2b3e 40bc f4bd 9638 a53e 5fb6 89be
00000390: 66e3 583e ca95 973e aff1 093e 0334 91be
000003a0: def2 b8be 56ed 9ebe 6e51 5e3e 8582 74be
000003b0: ef87 65be 9a91 333e eaeb a3be e0ff a03e
000003c0: 00d4 43bd 26d6 c9bd d4c4 4abd beaa 66bc
000003d0: acdc 0a3e 0078 f5bc 5072 22bd 9b1d c6bd
000003e0: d290 313e dad6 cabd d266 e43d d0cd fc3d
000003f0: f970 b93d bc9e 9e3d 22d1 153e 747c 00bd
-0.18784511 -0.10448421 -0.36821923 0.36561286 0.25995022 0.096563265 -0.3213048 -0.35522464
0.14713532 0.10319458 0.23127028 0.1028895 -0.14307825 0.26587683 0.31933397 0.2021017
0.3506203 0.10197875 -0.23676227 -0.13151504 0.21861763 0.27393046 0.35145828 -0.16203682
-0.32472163 -0.18035306 0.17386948 -0.27404836 -0.3086544 0.29127455 0.18948004 0.16402857
0.11736551 -0.14300406 0.29032907 -0.34782743 0.3536438 0.19012982 0.133923 -0.21107492
-0.23755406 -0.2993146 0.35728535 -0.2343788 -0.16557485 0.26874733 -0.12589446 0.30872193
-0.115814105 0.050312392 0.0019221769 0.09520738 0.04490062 -0.057034403 -0.07790901 -0.10441428
0.1134473 -0.027951356 -0.039893124 0.094649635 -0.15373805 -0.04721832 0.06056166 -0.1003134
0.08643041 0.043034434 -0.057899572 -0.13580419 0.1454585 0.06690298 0.10521766 -0.113854766
-0.1523838 -0.09693089 0.010149443 0.10344426 0.0002830834 0.043803684 0.12165403 0.042008936
-0.023228636 -0.092276536 -0.045100532 -0.09896387 -0.030579664 0.1297652 0.04577997 -0.09969415
0.08634711 -0.043826964 -0.09966125 0.12297696 0.005970907 -0.022182362 -0.09195103 -0.00028361136
-0.08524186 -0.036296092 -0.030199537 0.12321526 0.1534273 0.1166712 -0.1537582 -0.15528011
0.20649868 0.123796485 0.03813905 0.18910822 -0.12518518 0.12828259 0.09489662 -0.04778488
-0.064257964 0.13139933 -0.16899803 0.02928875 -0.005888814 0.06013188 -0.047014825 0.05105218
-0.1406921 -0.104634255 0.1321787 -0.17925522 0.0062106433 -0.0717032 0.1816201 0.091511026
0.090186186 -0.033159133 0.06760767 -0.06073457 0.0797237 0.14341666 0.15337726 0.017973732
-0.054096043 -0.1609606 0.07391143 -0.12246882 -0.046562202 0.025283452 0.04609993 0.08609829
-0.0134265125 0.147159 0.16836937 -0.114053376 -0.12489685 -0.15010756 0.19225405 0.22663613
-0.092207834 -0.23114114 -0.1419474 -0.093767874 -0.010016563 -0.13240434 -0.1436484 -0.15274593
-0.19990009 -0.19747601 0.056389 0.14181307 -0.23022938 -0.006360923 -0.17904335 -0.024222001
-0.0011298042 0.00022970681 -0.05653699 -0.014887422 0.20812063 -0.11763681 -0.035644487 -0.04611257
-0.09801675 0.19943564 -0.08523023 0.059842736 0.03579048 -0.13246715 -0.043064877 0.13690688
0.034349572 0.13478737 -0.018466325 0.1248143 0.16880296 -0.24336278 0.2225445 -0.17097557
-0.2975988 -0.2846648 -0.1455705 0.31176317 0.34327993 0.15435188 -0.2877231 -0.28592196
0.32441565 0.17010069 0.2531653 0.115901366 -0.31590438 0.2817982 0.36992294 0.1714301
0.2321434 0.35815778 -0.38371143 -0.28857118 0.11114295 0.21285447 0.2900235 -0.37772894
-0.18128921 -0.24502544 0.32041508 -0.2972335 -0.16147077 0.22685814 0.33831605 0.32606116
0.16713953 -0.11949968 0.32269734 -0.2689695 0.21180496 0.29606467 0.13471101 -0.28359994
-0.36122793 -0.31040448 0.2171075 -0.23877914 -0.22415136 0.17536011 -0.32015926 0.31445217
-0.0478096 -0.09855299 -0.049504116 -0.014078794 0.13560742 -0.029964447 -0.0396598 -0.096736155
0.17340401 -0.09904261 0.11152424 0.12343943 0.09054751 0.0774512 0.14630559 -0.031368688

lstm.linear_output_x.weight f4 [48, 6]
00000000: 0c3f 61be cee4 b4be 5021 fa3c 6915 b23e
00000010: 0dd9 9f3e 37e4 85be 08f8 f3bd ec2b bb3e
00000020: 72f5 8a3e f6f1 53bf 3769 a7be 4254 b63f
00000030: bdab 63be 7c85 7a3e ecdd 2dbe 08aa cd3f
00000040: 84b4 623f 8d77 d6bd cc74 e83e 84f1 743e
00000050: 6f55 b1be 12a0 c53f b2c0 2fbe 2c05 863f
00000060: 3c17 853e 74d1 bfbe ac64 bfbe 6b2b 073e
00000070: 69a4 d4bd 02d8 7b3e 0ec8 13be 1515 2fbe
00000080: 0eb3 1bbe 760b 9d3f 58a2 223e d0e8 a63e
00000090: 0974 6bbe 98b5 afbd a012 c13d 9f03 83be
000000a0: bf12 d0bd 1ca7 673e d5ff d93d 28f6 373d
000000b0: 0039 223d 8081 cebe 984f 02bf 6261 163f
000000c0: d48e 123e 4b20 48be 9083 c33d 9a68 a3bd
000000d0: 20db cd3e 39a1 2f3e acd1 e53e 5a54 b53e
000000e0: a290 aabe 4467 023e 4113 363e 1063 943e
000000f0: e8b5 84be b4a6 1e3e 8806 793e 4639 ea3f
00000100: 0d02 1fbe 8673 693f b767 50be 8c62 4b3e
00000110: aee8 8dbe b89d 833e b62b 93be e964 e33c
00000120: 1d48 6f3d 0b42 81be 7ca1 5d3e 7b98 1740
00000130: 55d6 0e3c cda9 d2be 7501 9b3e a0c3 9ebd
00000140: 7492 e6bd 2923 21bf 021c 413f 602e cdbe
00000150: dbdd bcbd 0280 a43e 7966 48be 68cd 953e
00000160: 6b98 c03e 9d58 2ebd 7e10 cfbc b09a af3c
00000170: c0ff 8e3e 139f b93e 10ac 053d e33e 1ebe
00000180: 9d47 e8bd d862 223d 24a3 893e 7cdc fe3e
00000190: ed8d 8b3d 4189 9e3e 6f3d 1cbe 7628 c33e
000001a0: ee45 a1be 4052 2a3f 0a7a 1d3f 7356 79bc
000001b0: 022d 923e 22f1 1fbe 42ad 92be 9a24 923e
000001c0: 31c6 c23e ba78 c33e df42 3a3d 6b43 2bbe
000001d0: f032 773e abc4 a7bf f6bc f9be 1257 453f
000001e0: c1c7 033f b661 29be 3e6f 02be 75a8 9a3f
000001f0: a63c 073f 6aa4 16bc 73e5 41bd 2aca bbbe
00000200: e406 783e 589a 733e 490b bdbd 7e90 8d3d
00000210: 15bc b53e b0c5 cf3d 500d 13be 3b67 003d
00000220: ddc0 8cbe 0eac ad3e 2cc1 3b3e 0c3d f4bd
00000230: e0fb 5fbc e458 b6be d4aa 133f 4853 113e
00000240: 44d2 1c3f 20d6 cf3e 1833 bf3d 4e4e c83e
00000250: 176f 923e 4bee 2abe 22df ef3e bc8c 63be
00000260: ac40 1c3e ce23 30be 907b df3d e319 1d3f
00000270: b9ad a83d 22c1 2bbe ac97 b3be 8791 d43e
00000280: edc1 683c ca0c 4f3e f003 6c3d 5ad6 9e3e
00000290: 1090 383e 34b7 d53f 89f2 aa3f ec8c 5dbd
000002a0: 325c 11bd cad4 a4be 206b 29be 7f56 4d3f
000002b0: 0ea7 8e3e 5457 ccbb fedf a83e cdd3 2ebe
000002c0: c07c 353c 19e4 1d3c bd86 933c 4552 04be
000002d0: c08b 5e3e 6077 633c 60ec c53d 162d a53d
000002e0: 12c5 63be e729 69bd e73c 723e 30fe 2b3d
000002f0: c4b3 9fbe 894d 92bd 02c1 043e 5064 ab3e
00000300: 1d49 f33d 46aa 41be b449 133e 22f5 143e
00000310: 3ead 673e 2a95 da3d 401d 673c 10f9 6f3d
00000320: faa7 bfbe ecaa 063f b034 adbb 3b28 783d
00000330: c621 c53e 2946 6bbe 52e4 aa3e 3cbd ad3e
00000340: 62d3 a13e 2d19 503e eb97 6cbe b259 b03e
00000350: bc3c 6abe eb4d 3c3e 05fc 003f 0cb3 cbbd
00000360: 24b8 ad3e 9ce0 2fbe b800 0e3e dcc2 673d
00000370: efc4 c63d bb6f ddbc 6b78 8a3e 00d0 243e
00000380: dc11 efbd cb5b 243f f603 8cbd 43c6 1f3f
00000390: 332c 183e 90eb 813c d437 263e 0280 f43d
000003a0: d2e9 043e 2eec fa3e b521 4f3d 7c88 883d
000003b0: 1c9f 8e3e c93f 0c3f 1180 0cbe 6e68 033e
000003c0: 422b 49be 28cd d9bd d06b 88bd 7162 c03f
000003d0: 3792 2f3f d615 d43d 28e4 cfbc dc0c 3d3e
000003e0: 4b97 6ebe 95f7 aa3d db66 c33c 8972 10be
000003f0: a7d6 cd3d c4c7 a33d 8825 abbe 2ba2 aa3f
-0.21996707 -0.35330814 0.030533463 0.3478196 0.31220284 -0.26150677 -0.119125426 0.36556947
0.27140385 -0.8279108 -0.3269746 1.4244463 -0.22233482 0.24464983 -0.16979188 1.6067514
0.88556695 -0.10472021 0.4540161 0.23920256 -0.34635493 1.5439475 -0.17163351 1.0470328
0.2599429 -0.37464488 -0.37381494 0.13200156 -0.10382921 0.24594119 -0.14431784 -0.17097886
-0.15205023 1.2269123 0.15882242 0.32599497 -0.22993483 -0.08579558 0.094273806 -0.255887
-0.101598255 0.22622341 0.10644499 0.044912487 0.03960514 -0.40333176 -0.509027 0.58742344
0.14312297 -0.19543569 0.09546578 -0.079789355 0.40206242 0.17151345 0.4488653 0.35415918
-0.3331347 0.12734705 0.17780782 0.2898183 -0.25920033 0.1549328 0.24318898 1.8298728
-0.15528126 0.911919 -0.20352064 0.19861811 -0.27716583 0.25706267 -0.28744286 0.027758079
0.058418382 -0.252457 0.21643633 2.3686817 0.008718093 -0.41145173 0.3027455 -0.07752156
-0.112584025 -0.62944275 0.7543336 -0.40074444 -0.09222003 0.32128912 -0.1957034 0.29258275
0.37616286 -0.042564977 -0.025276419 0.021436065 0.27929497 0.36254176 0.032634795 -0.15453677
-0.11341784 0.039645046 0.2688228 0.4977759 0.068141796 0.3096409 -0.1525781 0.38116807
-0.31498665 0.66531754 0.6151434 -0.015218365 0.28549963 -0.15619329 -0.2864781 0.2854355
0.38041833 0.38178045 0.04547393 -0.16724937 0.24140525 -1.3106893 -0.48776978 0.77085984
0.51476675 -0.1654118 -0.12737748 1.2082659 0.5282692 -0.009194473 -0.04733796 -0.36677676
0.24221379 0.23789346 -0.09230668 0.06912325 0.35495058 0.10145128 -0.14360547 0.03134845
-0.27490893 0.3392033 0.18335408 -0.11925706 -0.0136708915 -0.35614693 0.5768254 0.14191926
0.6125834 0.40593052 0.09335917 0.39122242 0.2860038 -0.16692464 0.46849924 -0.22221655
0.15259045 -0.17201158 0.109122396 0.61367625 0.0823626 -0.16772893 -0.35076654 0.4151728
0.014206392 0.20219722 0.057620943 0.31022912 0.18023705 1.6696534 1.3355266 -0.05408947
-0.035488315 -0.32193595 -0.16544771 0.8021011 0.27861828 -0.0062359963 0.32983392 -0.17072983
0.011077106 0.009636902 0.018008584 -0.12922008 0.21732998 0.013883442 0.096642256 0.0806524
-0.22243145 -0.056924727 0.23656045 0.04199046 -0.31191838 -0.07143695 0.12964252 0.3347497
0.118791796 -0.1891261 0.14383584 0.14546636 0.2262468 0.10672982 0.014106095 0.058587134
-0.37432843 0.52604556 -0.005285822 0.06058524 0.3850233 -0.22975983 0.3337732 0.33933437
0.31606585 0.20322104 -0.23104827 0.34443432 -0.22874731 0.18389098 0.5038455 -0.0994626
0.3392955 -0.17175525 0.13867462 0.056582317 0.09705531 -0.027030816 0.27044997 0.1609497
-0.11673328 0.64202565 -0.06836693 0.624119 0.1486061 0.015859395 0.16232234 0.11938478
0.1297982 0.49008316 0.050569255 0.06666657 0.27855766 0.5478483 -0.13720728 0.12832806
-0.19645408 -0.106348336 -0.066611886 1.5030042 0.6858248 0.103557274 -0.025377348 0.18461937
-0.23299901 0.08348004 0.023852756 -0.14106192 0.10050707 0.07997087 -0.33427072 1.333074

lstm.linear_output_x.bias f4 [48]
00000000: 9e1e 0abe bcd2 3abe 9398 bc3d 4d90 51be
00000010: 93c6 09be ff3f a53e 2574 e73e 7a9a 673e
00000020: ef8f aa3e fb4f 74bc d4f8 c83e a5d0 5e3e
00000030: 709c 913e 432c e53e 1755 2ebe b1a4 bf3e
00000040: 76da 49be 2139 e83e 00a8 a4bb 6cd6 113e
00000050: 93f7 723e e07c 963d 7f37 5ebe babf 393e
00000060: 2a76 ac3d a01f 9dbe 4cbf 863e fc77 623d
00000070: b271 c1be 0779 8d3d 5b84 ad3c 52e5 aabd
00000080: 7264 f53c d110 313e f877 bf3e bfca e2bd
00000090: a221 e03e bf0b 583e 7a3e 6f3d 02f1 a0ba
000000a0: a05d 3f3e 26b0 7f3d b113 50bd 7806 6a3d
000000b0: 181d 0abd 1ba8 a13e 923d aa3e f254 8d3e
-0.13488242 -0.18244451 0.09208789 -0.20465203 -0.13454656 0.32275388 0.452058 0.22617522
0.33312938 -0.014911647 0.3925234 0.21759279 0.28439665 0.44760332 -0.17024647 0.37430337
-0.19712242 0.45356086 -0.00502491 0.14241952 0.23727255 0.07348037 -0.21700858 0.18139544
0.084209755 -0.3068819 0.26317823 0.055290207 -0.37782055 0.0690785 0.021181276 -0.08344521
0.029955123 0.17291571 0.37396216 -0.11073827 0.4377566 0.21098231 0.05840919 -0.0012278857
0.18688059 0.062423848 -0.05080003 0.057135075 -0.033719152 0.31573567 0.332501 0.2760387
