Liu/cont/v_3/train_iter_49000.pt (torch, 756679 bytes, 9 tensors)

h0 f4 [128]
0	0xbf841068	-1.0317507
1	0x4020f517	2.514959
2	0xbeedd184	-0.4644891
3	0xc005a1df	-2.0880048
4	0x3e8fd8d4	0.28095114
5	0x3efb5685	0.49089447
6	0xbf0c5e9c	-0.5483186
7	0xbe9c3191	-0.30506566
8	0xbf074502	-0.5283967
9	0x3f9bfd23	1.2186626
10	0x40079f01	2.1190798
11	0x3ff025f4	1.8761582
12	0x3fc94a80	1.572586
13	0x3ff6764e	1.9254854
14	0xbe4ab5e5	-0.1979595
15	0x3db1535a	0.08658476
16	0x3ff4dbbc	1.9129558
17	0xbef6e227	-0.48219416
18	0xbeaec9c8	-0.34138322
19	0x3cdccd5e	0.026953395
20	0xbf16b03a	-0.5886265
21	0x3c9f7031	0.019462677
22	0xbfa58f90	-1.2934437
23	0xbff71c53	-1.9305519
24	0xbfb1ef71	-1.3901197
25	0x3fcf762b	1.6207937
26	0xbedf1f93	-0.43578777
27	0x3f7a5675	0.9778817
28	0xbf17c6fc	-0.59288
29	0x3e8b0c9a	0.27158052
30	0xbecc91d5	-0.3995501
31	0x3f4db60f	0.80355924
32	0xbf817485	-1.0113684
33	0x3fbcc4aa	1.4747517
34	0x3eb67b8d	0.35641137
35	0xbfbb9db2	-1.46575
36	0x3e579ef4	0.2105673
37	0xbf59e131	-0.8510924
38	0x3e83af3e	0.25719637
39	0x3f3a89e2	0.7286664
40	0xbec7bf10	-0.39012957
41	0xbf140e94	-0.57834744
42	0xbf0529e4	-0.52017045
43	0xc0051b70	-2.0797997
44	0xbe21f925	-0.15817697
45	0x3d12fe89	0.035887275
46	0xbc723573	-0.014783251
47	0x3e973a9d	0.29536906
48	0x3f883aba	1.0642922
49	0x3fc8c9bd	1.5686566
50	0xbedac03d	-0.4272479
51	0x3fd783ea	1.6837132
52	0x3e6ca487	0.23109637
53	0x3ebdc16e	0.37061638
54	0xbfb2ca4e	-1.3967988
55	0x3e620f14	0.22076064
56	0x3f61aca9	0.88154083
57	0xbc356120	-0.01107052
58	0xbeef7e92	-0.46776253
59	0x3eb9a2f9	0.3625715
60	0x3e9f48f4	0.31110346
61	0xbfc9d35c	-1.5767627
62	0x3e9ac1c6	0.30225962
63	0x3fbbd795	1.4675165
64	0x40124b3f	2.2858427
65	0x3fac8116	1.3476894
66	0x3e74cc1e	0.2390599
67	0xbfc1d71c	-1.5143771
68	0xbfc435c3	-1.5328907
69	0x3f0c385f	0.54773515
70	0x3ef317e3	0.47479162
71	0xbdb371a8	-0.087619126
72	0x3ef54a93	0.47908458
73	0xbf898d10	-1.0746174
74	0x3fb311a2	1.3989756
75	0xbff08930	-1.8791866
76	0xbf3ccc64	-0.73749375
77	0xbfbee161	-1.491253
78	0xbed5bc1d	-0.41745082
79	0x3f019088	0.5061116
80	0xbed3f96b	-0.41401228
81	0x400767ed	2.1157181
82	0xbf009487	-0.50226635
83	0x3ef8cf1a	0.48595506
84	0xbe635e0f	-0.2220385
85	0xbf59cfc2	-0.8508264
86	0xbf9c8336	-1.2227542
87	0xbe4e796b	-0.20163505
88	0x3eabeef3	0.3358074
89	0x3f5a6cd4	0.8532231
90	0x3ebd23e1	0.36941436
91	0x3eaf7d4b	0.34275278
92	0x3e4a13fe	0.19734189
93	0x3ef0bceb	0.47019133
94	0xbf1e7b0d	-0.6190651
95	0x3ddc22e7	0.107488446
96	0xbf51b1ba	-0.81911814
97	0x3f275ece	0.65379035
98	0x3e70a66f	0.2350099
99	0x3e47b0b1	0.19500996
100	0xbed3bece	-0.4135651
101	0x3f3557c8	0.7083707
102	0x3f7abd92	0.9794551
103	0x3f849672	1.0358412
104	0x3fb9338f	1.446886
105	0x3f183ce2	0.594679
106	0x3f1872d7	0.5955023
107	0xbf50431e	-0.8135241
108	0xbf1afa6e	-0.60538375
109	0x3f6b9b43	0.92033786
110	0xbfd78f5a	-1.6840622
111	0x3fa0d01e	1.2563512
112	0x400df746	2.2182174
113	0xbeda0896	-0.42584676
114	0xbe17bb8e	-0.1481764
115	0x3f15302b	0.58276623
116	0x3fbbf382	1.4683688
117	0xbf592bda	-0.8483254
118	0xbf0e59ff	-0.55606073
119	0x3f94c0ef	1.1621379
120	0x3e433db8	0.19066513
121	0x3f340c36	0.7033113
122	0xbf9a2e4d	-1.204538
123	0xbf94f4f4	-1.1637254
124	0x3f73bc74	0.9520943
125	0x3e1376ff	0.14400862
126	0x3f8613e0	1.0474815
127	0xbf4d5cce	-0.80219734

c0 f4 [128]
0	0x3c1d66ef	0.009607061
1	0xbe6c7768	-0.23092425
2	0x3f2cfc02	0.67572033
3	0x3f45ddcb	0.77291554
4	0xbf953170	-1.1655712
5	0x3f070dd9	0.52755505
6	0x3fde313a	1.7358773
7	0xbf4d6edf	-0.802473
8	0xbf597a9b	-0.84952706
9	0x3f022a22	0.5084554
10	0x3de7f3e2	0.11325814
11	0xbf4d5715	-0.80211
12	0x3f8389e4	1.0276456
13	0x3ee9cb80	0.4566307
14	0xbf27ff89	-0.6562429
15	0x3c93c034	0.018035986
16	0xbf89f614	-1.0778222
17	0xbf73afb8	-0.9519
18	0xbf76bffc	-0.96386695
19	0x3fd32ac1	1.6497422
20	0x4001279b	2.0180423
21	0xbf89b963	-1.07597
22	0xbf1943ec	-0.59869266
23	0xbee882e7	-0.4541237
24	0xbeca0098	-0.39453578
25	0x3ea61809	0.32440212
26	0x3fc892e9	1.5669833
27	0xbdbba3ee	-0.091621265
28	0xbed6718a	-0.41883498
29	0xbeed5aee	-0.46358436
30	0xbf41f0f2	-0.7575828
31	0x3e3161e2	0.17322496
32	0xbf99757d	-1.198898
33	0xbedcd39d	-0.43130198
34	0x3f43baa3	0.7645666
35	0x3fa1f1a3	1.2651867
36	0xc013e5f1	-2.3109095
37	0x3e5e7ece	0.2172806
38	0x3e85abd0	0.26107645
39	0x3eec42c4	0.46144688
40	0x3e99d183	0.30042657
41	0xbfd7f287	-1.6870888
42	0x3eb3c3ed	0.35110417
43	0xbfabf935	-1.3435427
44	0xbe4ade12	-0.19811276
45	0xbdf6dba7	-0.12053614
46	0x3f8add2e	1.0848749
47	0x3f1dd53a	0.6165348
48	0xbf0d5c7a	-0.55219233
49	0x4002954c	2.0403624
50	0xbf1194b0	-0.56867504
51	0xc0194de8	-2.39538
52	0x3d810c33	0.06301155
53	0x3fdea7d0	1.7394962
54	0x3f8c98c0	1.0984116
55	0x3f1dbb2e	0.6161374
56	0x3f48e25d	0.784704
57	0xbb61d0f8	-0.003445683
58	0xbf08c659	-0.53427655
59	0x3cd73873	0.026272034
60	0xbef2e7a7	-0.47442362
61	0x3ee00834	0.43756258
62	0x3f4732ff	0.7781219
63	0x3f56e60e	0.83944786
64	0x3ef003f4	0.46878016
65	0xbe42651e	-0.18983886
66	0x3e81c8e8	0.25348592
67	0x3fbeee56	1.4916484
68	0x401d6b5c	2.4596777
69	0x3e792658	0.24331033
70	0x3f48511e	0.78248775
71	0xbf58c89b	-0.846811
72	0xbe65139e	-0.22370765
73	0xbfbe10c9	-1.4848872
74	0x3f85498c	1.041307
75	0x3fe2093e	1.765907
76	0x3dcbd251	0.09952224
77	0xbf362a26	-0.71158063
78	0xc004c2a7	-2.0743806
79	0x3f6c2349	0.9224134
80	0x3fd00198	1.6250486
81	0x3f44fed1	0.7695132
82	0xbf5b1154	-0.85573316
83	0xbe027adb	-0.12742178
84	0x3f2b4516	0.6690229
85	0xbe7014c7	-0.23445426
86	0x3facd7b7	1.3503331
87	0x3f5058a7	0.8138527
88	0x3f0da407	0.5532841
89	0xbfa08304	-1.2539983
90	0x3f81c708	1.0138865
91	0x3f85ce5f	1.0453604
92	0xbe3eaeac	-0.1862132
93	0xbf04a607	-0.5181584
94	0xbf4e78cd	-0.8065308
95	0xbeb8008e	-0.35937923
96	0x3edfe765	0.43731228
97	0x3d95b582	0.073100105
98	0x3ea31b70	0.3185687
99	0xbf8e94f6	-1.1139209
100	0x3f8d7182	1.1050265
101	0x3f5715b2	0.8401748
102	0x3fcc0e6a	1.5941899
103	0x3fa0048b	1.2501386
104	0x3ebbe61e	0.36699003
105	0x3de32096	0.110902
106	0x3f2c03c1	0.6719323
107	0xbfa44ce0	-1.283596
108	0x3c342f38	0.010997586
109	0xbdfa8127	-0.12231665
110	0x3ebeda70	0.3727603
111	0xbf8950e3	-1.072781
112	0x3ec9e558	0.39432788
113	0x3eab107e	0.3341102
114	0xbfae0615	-1.3595606
115	0x3e41bfe5	0.18920858
116	0xbe21047e	-0.1572437
117	0xbdc1c5f2	-0.09461583
118	0xbf7d4d2d	-0.98945886
119	0x3f744c52	0.95428956
120	0x401f1f06	2.4862685
121	0xbc38294e	-0.011240317
122	0xbf2eac7b	-0.68231934
123	0x40184cd9	2.3796904
124	0xbe1437b2	-0.14474371
125	0xbf5398d4	-0.8265507
126	0xbdaae1cc	-0.083438486
127	0x3f22d601	0.63607794

RNN.weight_ih_l0 f4 [512, 15]
0	0x3deac341	0.11463023
1	0x3f104a43	0.56363314
2	0xbf0d7303	-0.5525362
3	0xbd97b21b	-0.07407018
4	0xbc774b80	-0.015093684
5	0x3ee814a3	0.45328245
6	0x3dc77c1f	0.09740471
7	0xbd152bfa	-0.036418892
8	0xbc20726d	-0.009792906
9	0x3ec93694	0.39299452
10	0x3e3a0379	0.18165387
11	0xbd9815d0	-0.074260354
12	0xbdfba67f	-0.12287616
13	0x3b6c3a66	0.003604555
14	0x3e0675d2	0.13130882
15	0x3e03ec76	0.12883171
16	0xbea26535	-0.3171784
17	0x3ec210fc	0.37903583
18	0x3d8651ed	0.06558595
19	0x3d108918	0.035286993
20	0x3e394e8f	0.18096374
21	0x3e38bce8	0.18040812
22	0xbca675e8	-0.020319894
23	0x3d995528	0.074869454
24	0x3ccb99ee	0.024853673
25	0xbe7d8e8a	-0.24761406
26	0x3ed6d251	0.41957334
27	0xbda05d70	-0.07830322
28	0xbe3330f8	-0.17499149
29	0x3e85d4f2	0.26139027
30	0x3dce7c61	0.10082317
31	0x3ed51cf7	0.4162366
32	0xbeeb3259	-0.4593685
33	0x3d38808a	0.04504446
34	0x3d896337	0.06708377
35	0x3e7059a2	0.23471692
36	0x3db983e1	0.09058357
37	0xbd3216ff	-0.043478962
38	0xbbe9b70b	-0.007132416
39	0x3e13217a	0.14368239
40	0xbdb1492d	-0.08656535
41	0x3d13d429	0.036091004
42	0x3e393da7	0.18089925
43	0xbcd10177	-0.025513394
44	0x3d4b154a	0.04958085
45	0x3e760fa9	0.24029411
46	0x3e8a3bf2	0.2699886
47	0xbea1bf27	-0.3159115
48	0x3da1fd6f	0.07909667
49	0xbd29a474	-0.0414166
50	0xbf0641c7	-0.5244412
51	0x3e10559c	0.14095157
52	0xbca0dff0	-0.019638032
53	0x3c9aeaa2	0.01891071
54	0xbee77ec7	-0.4521391
55	0x3df680d0	0.12036288
56	0xbc594130	-0.013260171
57	0x3d7d3e52	0.06182701
58	0x3d384542	0.044987924
59	0x3da8eb9b	0.08248063
60	0xbd4c19c8	-0.049829274
61	0xbd55c9ee	-0.05219453
62	0x3d2b00df	0.041748878
63	0xbd80973d	-0.062788464
64	0x3c1af000	0.0094566345
65	0x3d3fb602	0.046804436
66	0xbe0e2cea	-0.13884321
67	0x3cee5eac	0.029097877
68	0x3df1c9d2	0.11806072
69	0xbd301058	-0.042984337
70	0x3e22a38b	0.15882699
71	0xbde96752	-0.1139666
72	0xbdf9c915	-0.121965565
73	0x3defa69d	0.11701701
74	0xbda81504	-0.082071334
75	0x3e2ea850	0.17056394
76	0xbe8b1b5c	-0.2716931
77	0x3dedbb55	0.116079964
78	0xbc40b000	-0.011760712
79	0xbd6c0ce2	-0.057629474
80	0x3e2154db	0.15755026
81	0x3d5588b8	0.05213234
82	0x3d96d979	0.07365698
83	0xbe3a7b99	-0.18211211
84	0x3cbe0265	0.023194501
85	0xbea8234e	-0.32839435
86	0xbd9c4a9b	-0.07631417
87	0x3d976260	0.073918104
88	0x3dd698d3	0.10478368
89	0x3e093870	0.13400435
90	0x3ddd637a	0.10809989
91	0xbe69538c	-0.22785777
92	0xbe92ebb4	-0.28695452
93	0x3ad91ec0	0.001656495
94	0xbc94f5e4	-0.018183656
95	0xbd4d8c4e	-0.050182633
96	0x3dacc4a8	0.08435947
97	0x3d811f3f	0.06304788
98	0xbeae5ca5	-0.34055057
99	0xbd4706b7	-0.04859039
100	0xbef541df	-0.47901818
101	0xbe922bf1	-0.2854915
102	0xbe0692be	-0.13141915
103	0x3cb9dad0	0.022687346
104	0x3d2e4056	0.042541824
105	0xbc92efff	-0.017936705
106	0xbde49c12	-0.111625805
107	0x3ddfba4d	0.10924206
108	0x3cc46b88	0.023977056
109	0xbccded80	-0.025137663
110	0x3baede04	0.005336525
111	0x3d44990f	0.04799753
112	0xbc46a820	-0.012125045
113	0x3cf71934	0.030163385
114	0xbe1b2d2b	-0.15153949
115	0x3e27a943	0.16373162
116	0x3cd5c79c	0.026096158
117	0x3da0c7a3	0.07850578
118	0x3dfcd5bc	0.12345454
119	0x3d9546e9	0.07288916
120	0xbd867315	-0.06564919
121	0x3e81eb7f	0.25374982
122	0xbe2741c3	-0.1633368
123	0xbd8a3289	-0.0674792
124	0xbda0886c	-0.078385204
125	0xbe89b928	-0.26899076
126	0xbdd17f1b	-0.102293216
127	0xbd31dd4a	-0.04342393
128	0x3d8511d0	0.06497538
129	0xbe50d48f	-0.20393585
130	0x3e60beed	0.21947832
131	0xbecf6595	-0.40507188
132	0xbdcc20f9	-0.099672265
133	0x3db6fe78	0.08935255
134	0xbc187629	-0.009305515
135	0x3e237e4d	0.15966149
136	0xbcef43e4	-0.029207177
137	0xbe4d37da	-0.20040837
138	0x3d5551a2	0.052079804
139	0xbd99e7d0	-0.07514918
140	0xbec3a143	-0.3820897
141	0x3e88ef5e	0.26745123
142	0xbd71fe2d	-0.05908029
143	0xbb69c462	-0.0035670032
144	0xbe40168e	-0.18758604
145	0xbed0dfd3	-0.40795764
146	0x3dcba783	0.0994406
147	0xbe51f6be	-0.20504281
148	0xbe35d31d	-0.17756315
149	0x3e002007	0.12512217
150	0x3e2f97e2	0.17147782
151	0x3ec410e6	0.38294142
152	0xbd962272	-0.07330789
153	0x3b2780e0	0.0025558993
154	0x3d8a8a19	0.06764621
155	0x3e6707f6	0.2256163
156	0x3e0a1b7a	0.13487044
157	0x3cf3096c	0.029667579
158	0x3e48fe30	0.19628215
159	0x3f058d6f	0.52168936
160	0xbf03c293	-0.5146877
161	0x3ec0d9c8	0.37666154
162	0x3daebe60	0.08532405
163	0xbca47c77	-0.02007888
164	0x3e062b2d	0.13102408
165	0x3c6c4a52	0.014422016
166	0xbe9e13f4	-0.30874598
167	0x3e4580e7	0.19287454
168	0x3d984295	0.074345745
169	0xbd8cb7a2	-0.06870963
170	0xbf6ff288	-0.9372945
171	0x3deec8a1	0.11659361
172	0xbd24a38d	-0.040195037
173	0x3cb24caf	0.021765081
174	0xbf3e85b3	-0.7442276
175	0x3e6c58be	0.23080727
176	0xbdfc5644	-0.12321141
177	0x3e0427a0	0.1290574
178	0x3d42f4d2	0.04759676
179	0x3e011590	0.12605882
180	0x3f29a79d	0.6627138
181	0x3dcb09da	0.099139884
182	0x3e2c264f	0.16811489
183	0xbda9687d	-0.08271883
184	0xbcd70a8a	-0.026250143
185	0x3efdf3bc	0.49600017
186	0x3f31f243	0.6951029
187	0xbb981370	-0.004640989
188	0xbd8141bb	-0.06311365
189	0x3ef97061	0.4871855
190	0x3e544b8b	0.20731942
191	0x3e091145	0.13385494
192	0xbbdbe355	-0.0067104497
193	0x3e566127	0.20935498
194	0x3f18e968	0.5973115
195	0x3f07c1d0	0.5303011
196	0x3d270b5e	0.040782325
197	0x3d77dab9	0.060511325
198	0x3c5a7680	0.013333917
199	0xbda57966	-0.080797955
200	0x3e9d18b4	0.3068291
201	0x3f1ecc92	0.620309
202	0xbd332f3b	-0.043746214
203	0x3da6bf27	0.08141928
204	0x3ea1dc4a	0.3161338
205	0xbe8dcc5e	-0.27694982
206	0x3edb5084	0.42834866
207	0x3e6d0d4a	0.231496
208	0x3e7e8a46	0.24857435
209	0x3f17573e	0.59117496
210	0xbe7f901a	-0.24957314
211	0xbe83eafa	-0.2576521
212	0xbea38aa1	-0.31941703
213	0x3ca6e008	0.020370498
214	0x3cd23e40	0.025664449
215	0x3eb3f954	0.3515116
216	0xbe84d1ab	-0.25941214
217	0x3d6c076e	0.057624273
218	0xbe92f68f	-0.28703734
219	0x3e8d4326	0.27590293
220	0xbed5e628	-0.41777158
221	0xbe26e101	-0.1629677
222	0xbccc1ac3	-0.024915105
223	0xba8d2c80	-0.0010770708
224	0xbe756a76	-0.23966393
225	0x3c9da534	0.019243814
226	0x3ed53476	0.41641587
227	0xbee1aafd	-0.44075766
228	0xbcd5276e	-0.026019778
229	0x3c8b93ac	0.017038189
230	0xbea533e4	-0.32266152
231	0xbb9a3944	-0.0047065336
232	0xbd8ac362	-0.067755476
233	0xbe5a7cfb	-0.21336739
234	0xbe90c9d4	-0.28278983
235	0xbd3bc92a	-0.045846142
236	0x3b83cca7	0.004022199
237	0x3e0b4650	0.13601041
238	0x3dc39600	0.095500946
239	0xbddbd1e6	-0.10733394
240	0x3cde5b86	0.027143251
241	0xbddda994	-0.1082336
242	0x3da82d73	0.08211794
243	0x3d233982	0.039849766
244	0x3d8e7149	0.06955201
245	0xbd281f23	-0.04104532
246	0xbdb58e77	-0.08865064
247	0xbd94f41c	-0.07273123
248	0x3cc8e2c0	0.024522185
249	0xbdd0f205	-0.102024116
250	0xbe1fa595	-0.15590508
251	0x3dbb8906	0.091569945
252	0x3d48eef7	0.04905602
253	0xbdf74e41	-0.120754726
254	0xbd829f0b	-0.06377991
255	0xbd5034de	-0.050831668

RNN.weight_hh_l0 f4 [512, 128]
0	0x3e95350b	0.2914203
1	0x3eaf421b	0.34230122
2	0xbe8a3c6f	-0.26999232
3	0x3d624bae	0.055247955
4	0xbe477ad0	-0.19480443
5	0xbd34ae05	-0.04411127
6	0x3e05d5b9	0.1306981
7	0xbe05538a	-0.13020149
8	0xbdf054fe	-0.11734961
9	0x3e33ef30	0.17571712
10	0x3e615ec0	0.220088
11	0x3e5b073a	0.21389475
12	0x3dbdbcae	0.092645034
13	0x3f011e66	0.5043701
14	0xbd8c7dae	-0.06859909
15	0x3e50eab7	0.20402037
16	0xbe2dc871	-0.16970994
17	0xbe453428	-0.19258177
18	0xbc5d58ff	-0.013509988
19	0x3ecbf8c8	0.39838243
20	0x3e9a0d73	0.30088386
21	0xbe37fda6	-0.17967853
22	0x3dbf2f7d	0.093352295
23	0xbe7c4757	-0.24636589
24	0xbe2ded21	-0.16984989
25	0xbd5e12ec	-0.054217264
26	0x3c8cc766	0.017184924
27	0x3daeb040	0.08529711
28	0x3d6fb63b	0.058523398
29	0x3ebbb730	0.36663198
30	0x3e55b248	0.2086879
31	0x3cbffdb5	0.023436407
32	0x3d975bfa	0.0739059
33	0xbd02a150	-0.03189212
34	0x3e0b3099	0.13592757
35	0xbdf89866	-0.12138443
36	0xbd153b30	-0.0364334
37	0xbe416460	-0.18885946
38	0xbe1dddf4	-0.154167
39	0x3d1601d5	0.03662284
40	0x3e1af5de	0.15132853
41	0x3e441508	0.19148648
42	0x3dab9f7b	0.08380028
43	0xbe6313c0	-0.22175503
44	0xbba8db1f	-0.0051530744
45	0xbe197bdb	-0.14988653
46	0xbd9f6b0a	-0.07784088
47	0xbe7d692c	-0.24747151
48	0xbde2cdf9	-0.110744424
49	0x3d997845	0.07493643
50	0x3cb1df8a	0.021713037
51	0x3db6256b	0.08893856
52	0x3dacf92a	0.08445962
53	0xbd8a7a93	-0.067616604
54	0x3e482075	0.19543631
55	0xbe4aced1	-0.19805457
56	0x3ca1a228	0.019730642
57	0xbccb83e4	-0.024843164
58	0x3edb5a45	0.42842308
59	0xbe91f9c1	-0.2851086
60	0x3e399302	0.18122485
61	0xbe304584	-0.17214018
62	0xbe137305	-0.14399345
63	0x3e8b135d	0.2716321
64	0x3db5ae7c	0.08871171
65	0xbd35ba94	-0.044367388
66	0x3e368ee8	0.17827952
67	0x3e2c6455	0.16835149
68	0x3d5bacf6	0.053631745
69	0x3e7448c3	0.23855881
70	0x3eecac2e	0.46225113
71	0x3d20b7ce	0.03923779
72	0xbda6f54e	-0.08152257
73	0xbc161092	-0.009159224
74	0x3d93c305	0.072149314
75	0xbe03a993	-0.12857656
76	0x3ce253f4	0.027627923
77	0xbe2691a1	-0.1626649
78	0x3e26a963	0.16275553
79	0xbd9310c0	-0.07180929
80	0x3defb58a	0.11704548
81	0x3e44d94e	0.1922352
82	0xbba8491b	-0.005135668
83	0xbeb67a59	-0.3564022
84	0xbe3f2631	-0.18666913
85	0x3e17b566	0.14815292
86	0xbe52b3ee	-0.2057645
87	0xbdaf20fb	-0.085512124
88	0x3df4517c	0.119296044
89	0x3e93e118	0.2888267
90	0x3e0222bd	0.12708564
91	0x3e198938	0.14993751
92	0xbe88cea0	-0.26720142
93	0xbe48cbda	-0.19609013
94	0xbe92ad87	-0.28648016
95	0xbcb7c9d0	-0.022435099
96	0xbd5ea468	-0.05435601
97	0x3e17733c	0.14790052
98	0xbe99266c	-0.29912126
99	0x3d34387f	0.04399919
100	0x3edee2e4	0.4353248
101	0x3d882ef2	0.06649579
102	0xbcd66fe9	-0.02617641
103	0x3d28ae90	0.0411821
104	0xbd47a205	-0.0487385
105	0xbd9f81ea	-0.07788451
106	0x3da2a45a	0.07941504
107	0xbc632530	-0.013863847
108	0xbde67f17	-0.11254709
109	0x3d29e480	0.04147768
110	0x3d6cac04	0.057781234
111	0xbc30a3fa	-0.010781283
112	0x3da27003	0.07931521
113	0xbe7cd4fe	-0.24690625
114	0x3da9b357	0.082861595
115	0x3e54839d	0.20753331
116	0xbdf200e1	-0.11816574
117	0xbe271acf	-0.1631882
118	0x3d203696	0.039114557
119	0x3db71f49	0.08941514
120	0x3d94cc3b	0.07265516
121	0xba4e5065	-0.0007870256
122	0xbd629023	-0.05531324
123	0x3dc3f61e	0.095684275
124	0x3e17e21a	0.14832345
125	0xbda7554a	-0.081705645
126	0x3cd8c96a	0.02646323
127	0xbe09c15f	-0.13452671
128	0xbdee7c89	-0.11644847
129	0xbd19cca8	-0.03754869
130	0x3bd61688	0.0065334477
131	0xbd830fad	-0.06399474
132	0x3c405d34	0.011740971
133	0x3e9d7603	0.30754098
134	0xbb2b6108	-0.0026150364
135	0xbd8cb3df	-0.06870245
136	0xbd8fc2a2	-0.07019545
137	0xbdd4b21f	-0.103855364
138	0x3d3fafab	0.04679839
139	0x3ce15b99	0.027509497
140	0x3e6643bb	0.22486775
141	0xbcaa9d39	-0.020826923
142	0x3e861e11	0.26194814
143	0xbe3c7063	-0.18402247
144	0x3da4a0ce	0.080384836
145	0x3d6985dc	0.057012424
146	0xbe50a7ff	-0.20376585
147	0xbe868549	-0.26273564
148	0xbc6b8661	-0.0143753
149	0x3cd551fb	0.026040068
150	0x3e4c247e	0.19935796
151	0xbdb5aae7	-0.08870488
152	0x3e9ccd2f	0.30625293
153	0x3e909500	0.28238678
154	0xbe342e96	-0.17595896
155	0x3e0f7fd5	0.14013608
156	0xbea3e352	-0.3200937
157	0xbd84a8a7	-0.064774804
158	0x3aa5b260	0.0012641661
159	0xbe213967	-0.15744554
160	0xbd8c190e	-0.06840716
161	0xbc436138	-0.011925034
162	0x3cc4a7f0	0.02400586
163	0x3e195be1	0.14976455
164	0xbe4c1693	-0.19930486
165	0x3d4d8154	0.050172165
166	0x3ed3be5f	0.4135618
167	0xbdbe171d	-0.09281752
168	0xbd0ace9a	-0.033888437
169	0x3e71527d	0.23566623
170	0x3e3e1ce5	0.1856571
171	0x3d50ead5	0.051005203
172	0x3e5ce8ad	0.21573134
173	0xbda6a60e	-0.08137141
174	0x3dbbeceb	0.09176048
175	0xbe9e317a	-0.30897123
176	0xbda18492	-0.07886614
177	0x3dd22238	0.10260433
178	0x3ce138dd	0.027492935
179	0x3de0754e	0.10959874
180	0xbe941c2d	-0.28927746
181	0xbe4dbbbe	-0.20091149
182	0xbcd48e64	-0.025946803
183	0xbd9e7661	-0.07737423
184	0xbe20d5e6	-0.15706596
185	0xbe5f7618	-0.21822393
186	0x3e2066e6	0.15664253
187	0xbc7d0239	-0.015442424
188	0x3caaabad	0.020833815
189	0xbe877a8a	-0.26460677
190	0xbccbde35	-0.02488623
191	0xbdffcf7c	-0.124907464
192	0xbe7e6fd8	-0.24847353
193	0xbd212e30	-0.03935069
194	0x3e21ccc7	0.15800773
195	0xbdf0c45b	-0.11756202
196	0x3ea10f9b	0.3145722
197	0xbc3aec1d	-0.011408833
198	0xbd5166cf	-0.051123437
199	0xbcea4fd8	-0.028602526
200	0xbe9f522a	-0.31117374
201	0x3d9e0098	0.07714957
202	0x3dbab62c	0.09116778
203	0xbebbadec	-0.3665613
204	0x3e39c43a	0.1814126
205	0x3ebf5007	0.37365744
206	0x3c59e529	0.013299265
207	0x3d18a652	0.03726799
208	0x3e728380	0.23682976
209	0x3c9c61ee	0.019089665
210	0xbee04dc1	-0.43809322
211	0xbe4fd011	-0.20294215
212	0x3da28055	0.07934634
213	0x3e303899	0.1720909
214	0xbd5ce810	-0.05393225
215	0x3de2a87b	0.11067291
216	0x3dcfbb99	0.10143203
217	0xbcc7b76b	-0.024379453
218	0xbeee5dcb	-0.46555933
219	0xbed33864	-0.4125396
220	0x3e53bffe	0.20678708
221	0x3e3ae481	0.1825123
222	0x3de1b5c3	0.110209964
223	0x3db83cee	0.089959964
224	0x3d48b282	0.048998363
225	0xbea0265d	-0.3127927
226	0x3ee4fab8	0.44722533
227	0x3ea2cde2	0.317977
228	0x3e4bf8fe	0.19919202
229	0xbd93d74c	-0.07218799
230	0xbe293524	-0.16524178
231	0xbc9826f0	-0.018573254
232	0x3e528784	0.20559508
233	0x3e2f6d04	0.1713143
234	0x3e29faa2	0.16599515
235	0xbe06bebc	-0.13158697
236	0xbd0545f8	-0.03253743
237	0xbea56cee	-0.3230967
238	0xbc940756	-0.018069904
239	0xbea55868	-0.3229401
240	0x3e16b61c	0.14717907
241	0xbd0a0200	-0.033693314
242	0x3caeae61	0.021323385
243	0xbe18875f	-0.1489539
244	0x3daa51ae	0.083163604
245	0xbe1b2c0c	-0.15153521
246	0xbc8d76af	-0.017268507
247	0xbd874208	-0.06604391
248	0x3de16b54	0.11006799
249	0x3e7fd7b7	0.24984632
250	0xbe5c2b8c	-0.21500987
251	0xbe860000	-0.26171875
252	0xbd53fecb	-0.05175666
253	0x3e543043	0.20721535
254	0xbdf838d7	-0.12120216
255	0x3ebb2aa1	0.3655596

RNN.bias_ih_l0 f4 [512]
0	0x3c792cf2	0.01520847
1	0x3e347f45	0.17626674
2	0x3e318637	0.17336355
3	0x3dec5576	0.11539738
4	0xbe0b27db	-0.13589422
5	0xbdfb4081	-0.122681625
6	0xbe1c0cfb	-0.15239327
7	0x3e452a85	0.19254501
8	0xbe060ad5	-0.1309007
9	0xbccec3ef	-0.025239913
10	0x3dff864c	0.12476787
11	0x3d324a99	0.043528173
12	0x3cbd50c5	0.023109803
13	0x3ea43612	0.32072502
14	0xbe7dfbea	-0.24803129
15	0xbd97b879	-0.07408232
16	0x3cf85181	0.030312302
17	0xbe1a2efc	-0.15056986
18	0xbe2040dd	-0.15649743
19	0x3d9527e8	0.07283002
20	0xbc370108	-0.011169679
21	0x3c8b5648	0.017008916
22	0x3dce0730	0.10059965
23	0x3e843232	0.25819546
24	0x3d953092	0.07284655
25	0x3e0f69e2	0.14005235
26	0xbe838842	-0.25689894
27	0xbdd3e31d	-0.10346053
28	0x3ddf2162	0.10895039
29	0xbc92f422	-0.017938677
30	0x3e4dcb07	0.2009698
31	0xbd7da14f	-0.061921414
32	0xbdb5f9ac	-0.08885512
33	0x3e259bf7	0.16172777
34	0xbe0a8bcb	-0.1352989
35	0xbd8809d6	-0.06642501
36	0x3e2e614b	0.17029302
37	0x3d86ccd2	0.06582035
38	0x3e08e867	0.13369904
39	0x3e1be224	0.15222985
40	0x3e517d18	0.20457876
41	0xbdf51291	-0.11966432
42	0xbd0ff346	-0.035144113
43	0x3ce9c8eb	0.028538188
44	0x3d82d5b2	0.063884154
45	0x3cd6c973	0.026219105
46	0x3e028e57	0.12749611
47	0x3c862033	0.016372776
48	0x3d14f8f8	0.036370248
49	0xba890955	-0.0010455052
50	0xbd483932	-0.04888267
51	0x3e05f168	0.1308037
52	0x3d7a9d7d	0.06118535
53	0xbc3df9d9	-0.011595213
54	0x3e5edd7f	0.21764182
55	0x3e89a700	0.26885223
56	0xbcecfb9b	-0.028928569
57	0xbdf12451	-0.11774505
58	0xbdb15927	-0.086595826
59	0xbdca40b6	-0.09875624
60	0xbd8b4088	-0.06799418
61	0xbe73afec	-0.23797578
62	0xbdbef0f1	-0.093233
63	0x3dc77649	0.09739358
64	0xbcb511fb	-0.0221033
65	0x3ebb62f7	0.36598942
66	0x3e2f51b8	0.17121017
67	0x3c7e0a60	0.015505403
68	0xbbb86a6b	-0.0056279204
69	0x3ddd85eb	0.108165585
70	0x3db5dac5	0.088796176
71	0xbd9886aa	-0.0744756
72	0xbd3f2217	-0.04666337
73	0x3e8e13a6	0.27749366
74	0x3edd3fca	0.4321273
75	0xbde14245	-0.10998968
76	0x3e812381	0.252224
77	0xbd1b83b9	-0.037967417
78	0x3e1629df	0.1466441
79	0xbe5ffbe4	-0.21873432
80	0xbe159260	-0.14606619
81	0xbe88d7d1	-0.26727155
82	0x3e065536	0.13118443
83	0xbd13ad92	-0.0360542
84	0xbe3f1ecf	-0.18664096
85	0x3d9578f2	0.07298459
86	0x3e8b0c03	0.27157602
87	0xbe5952ab	-0.21222942
88	0x3e72b7f2	0.23702982
89	0x3bd66105	0.0065423273
90	0x3c8ef855	0.017452398
91	0xbd031c1a	-0.03200922
92	0xbd72326c	-0.059130117
93	0xbe7e3ca7	-0.24827825
94	0xbe4e39a6	-0.20139179
95	0xbe8c941c	-0.27456748
96	0xbe3c68fd	-0.18399425
97	0x3e2c4bd9	0.16825809
98	0xbd2d74fb	-0.04234789
99	0x3e4d9056	0.20074591
100	0xbd6a5215	-0.057207186
101	0x3dfd1db8	0.12359184
102	0x3d37c9e0	0.044870257
103	0xbc48d35a	-0.012257421
104	0x3e001df6	0.12511429
105	0xbdca112b	-0.09866556
106	0x3c09b14d	0.008404088
107	0x3c175c43	0.0092383055
108	0x3e2ffeb3	0.17187004
109	0xbe86895b	-0.2627667
110	0x3d4e04b3	0.05029745
111	0x3e3ccdfe	0.18437955
112	0x3e228a41	0.15873052
113	0x3ee988d8	0.45612216
114	0xbe2a1eea	-0.16613355
115	0x3ea50245	0.32228294
116	0x3da17f97	0.07885664
117	0x3cf9a3b2	0.030473564
118	0xbd58335c	-0.052783355
119	0xbe19e061	-0.15027
120	0x3e2c82bf	0.1684675
121	0x3e3b9a12	0.18320492
122	0xbcc053d3	-0.02347747
123	0x3db8f79d	0.090316035
124	0x3e1b77c2	0.15182403
125	0xbd8c3ba6	-0.068473145
126	0xbdcdffcc	-0.10058555
127	0xbdb73d4a	-0.08947237
128	0xbd9d5c10	-0.07683575
129	0xbe31f884	-0.17379957
130	0xbe16c4c6	-0.147235
131	0xbef2e17b	-0.47437653
132	0x3e4ac1e6	0.19800529
133	0xbd9184b6	-0.07105391
134	0xbe3784e3	-0.17921786
135	0xbc65bdc0	-0.014022291
136	0xbe14abae	-0.14518616
137	0xbe9266c9	-0.28594044
138	0xbb6a88da	-0.0035787136
139	0xbd81ff96	-0.06347577
140	0x3e1b3b42	0.15159324
141	0xbdb5fe36	-0.088863775
142	0x3e19d1d2	0.15021446
143	0xbdf3f622	-0.119121805
144	0xbe0b4c76	-0.13603386
145	0x3d8d8aaf	0.069112174
146	0xbd21c7a7	-0.039497044
147	0x3d0eb359	0.034839008
148	0xbe186fe0	-0.14886427
149	0xbdab6865	-0.08369521
150	0x3dc8dd63	0.09807851
151	0xbe55250a	-0.2081491
152	0xbe560b55	-0.2090276
153	0xbdec487a	-0.11537261
154	0xbcd489bb	-0.025944581
155	0x3d2e7923	0.042595994
156	0xbe0930af	-0.13397478
157	0xbd8ce8c9	-0.06880338
158	0x3cbf1d3f	0.023329375
159	0xbe3b0890	-0.18264985
160	0xbd3b4ad7	-0.04572567
161	0xbe8066c0	-0.25078392
162	0xbe3f549c	-0.1868462
163	0x3cfc4ce5	0.030798385
164	0x3f0943cb	0.5361907
165	0xbe351838	-0.1768502
166	0xbdc9c8c4	-0.09852746
167	0x3de24209	0.110477515
168	0x3daf4990	0.08558953
169	0xbd384394	-0.044986323
170	0x3d857af8	0.06517595
171	0xbd92fd67	-0.07177239
172	0xbc59928f	-0.013279571
173	0xbe853c55	-0.26022592
174	0xbe3cf1dc	-0.18451637
175	0xbdf8fcf8	-0.12157625
176	0x3e05ea68	0.130777
177	0xbdfe172a	-0.12406762
178	0xbe0849b4	-0.13309366
179	0xbe08e486	-0.13368425
180	0xbcabcc59	-0.020971464
181	0x3d93683b	0.07197615
182	0xbe18b214	-0.14911681
183	0xbea287da	-0.31744272
184	0xbc782f7b	-0.015148039
185	0x3c5b509b	0.013385917
186	0xbe1fd6c5	-0.15609272
187	0xbe24b97c	-0.16086382
188	0xbeba09c3	-0.36335573
189	0xbd8bca50	-0.068256974
190	0xbdbd810d	-0.0925313
191	0x3c70724f	0.014675691
192	0x3e2d8511	0.16945292
193	0xbe3d0bf0	-0.18461585
194	0xbe7b87df	-0.2456355
195	0xbbbe6d3f	-0.005811363
196	0x3c9070b7	0.017631872
197	0xbdfacf60	-0.12246585
198	0xbdea2882	-0.114335075
199	0x3dad90cc	0.084748834
200	0xbd7c0611	-0.061529223
201	0x3d24c310	0.04022509
202	0xbd0652e6	-0.0327939
203	0xbe06eb40	-0.13175678
204	0xbe2f3b25	-0.17112406
205	0x3df8ca2f	0.121479385
206	0xbea0132f	-0.31264636
207	0x3c4e8d16	0.01260688
208	0x3db750ec	0.089509815
209	0xbde21a80	-0.11040211
210	0xbda79bb1	-0.08183993
211	0xbd845701	-0.06461907
212	0x3e145d27	0.1448866
213	0x3db9819e	0.09057926
214	0xbe7c4e09	-0.24639143
215	0x3d805d03	0.062677406
216	0x3e24683a	0.16055384
217	0xbe25deaa	-0.16198221
218	0xbdea6d48	-0.11446625
219	0xbd9a27ab	-0.07527097
220	0xbdd2ef42	-0.10299541
221	0xbba56d7f	-0.0050484533
222	0xbe5705e4	-0.20998341
223	0x3e746b68	0.23869097
224	0x3e281a42	0.16416267
225	0xbdbee90c	-0.09321794
226	0xbe81cd93	-0.25352153
227	0x3df1d4d6	0.11808173
228	0xbe43fb2b	-0.19138782
229	0xbdc0f3bd	-0.094214894
230	0xbdc83923	-0.09776523
231	0x3c994cd1	0.018713387
232	0x3d9a4421	0.07532526
233	0xbcf9afcd	-0.030479336
234	0xbda9b012	-0.08285536
235	0xbd9efb8a	-0.07762821
236	0xbde2f4ec	-0.110818714
237	0x3c4cbca3	0.012496146
238	0x3e7e9db3	0.24864845
239	0x3e0ec20c	0.1394121
240	0xbe0835fc	-0.13301843
241	0xbe03038e	-0.12794325
242	0xbd803822	-0.062607065
243	0xbe4f7964	-0.2026115
244	0xbe138cd1	-0.14409186
245	0xbdf9af7d	-0.12191675
246	0xbdda7d61	-0.106684454
247	0x3e64c513	0.22340803
248	0x3e68a13e	0.22717759
249	0x3e6105f4	0.21974927
250	0x3946655f	0.00018920515
251	0xbe30e372	-0.17274264
252	0xbe18e597	-0.14931332
253	0xbe9613c7	-0.29311964
254	0xbdd509d1	-0.10402263
255	0xbe7fe330	-0.24989009

RNN.bias_hh_l0 f4 [512]
0	0x3c914cbd	0.017736787
1	0x3e0bb917	0.13644825
2	0x3d386345	0.045016546
3	0x3e3b3947	0.18283568
4	0xbdbccfb8	-0.09219307
5	0xbe7600f6	-0.24023804
6	0xbe59fd63	-0.21288066
7	0x3e0a3ffa	0.13500968
8	0xbe40e704	-0.18838125
9	0x3d53821e	0.05163776
10	0x3e2a1c91	0.1661246
11	0x3a5b4565	0.00083645276
12	0x3dbe09ab	0.09279188
13	0x3e9426a3	0.28935727
14	0xbea63684	-0.32463467
15	0xbc2779e7	-0.010221935
16	0xbd8b9105	-0.0681477
17	0xbe147847	-0.14499007
18	0xbda35dac	-0.07976851
19	0xbceb62b3	-0.028733587
20	0x3b90180d	0.0043973983
21	0xbcd12b12	-0.025533233
22	0x3c9cd61e	0.019145068
23	0x3e7e8a3a	0.24857417
24	0x3e3ee0a1	0.18640377
25	0x3c55ecdd	0.013056961
26	0xbe3c862f	-0.18410562
27	0x3d2ae649	0.041723523
28	0x3e15b376	0.1461924
29	0x3d8444c8	0.064584315
30	0x3e0e9909	0.13925566
31	0x3d293a80	0.041315556
32	0xbda38199	-0.07983703
33	0x3e44e4b3	0.19227867
34	0xbe6c78c9	-0.23092951
35	0x3d9e54bc	0.077310055
36	0x3e8acaa3	0.27107725
37	0xbc9e467c	-0.019320719
38	0x3da615dc	0.08109638
39	0x3ea3d1c5	0.3199598
40	0x3e6546c5	0.22390278
41	0xbdef92a8	-0.11697894
42	0x3d277ab3	0.0408885
43	0xbd5f8985	-0.05457451
44	0x3e063d2f	0.13109277
45	0xbd9fcfe9	-0.078033276
46	0x3e1e2580	0.15443993
47	0x3d10c57b	0.035344582
48	0x3e0f2431	0.1397865
49	0xbd9db298	-0.0770008
50	0xbb166341	-0.0022947344
51	0x3e2661f6	0.16248307
52	0x3e1170a1	0.14203121
53	0xbd9beff8	-0.0761413
54	0x3e00a82c	0.12564152
55	0x3ec25036	0.3795182
56	0xbaa3ee06	-0.001250685
57	0xbe1804bb	-0.14845555
58	0xbd65548c	-0.055988833
59	0xbe6dcf53	-0.23223619
60	0x3ce5c054	0.02804581
61	0xbdb9fc5d	-0.090813376
62	0xbd9440f7	-0.072389536
63	0x3d511330	0.05104369
64	0xbcac79ec	-0.02105423
65	0x3ebd86c4	0.3701688
66	0x3e5cde25	0.21569116
67	0xbd86e067	-0.0658577
68	0x3e1b1674	0.15145284
69	0x3e128a2a	0.14310518
70	0x3d9ebb6f	0.07750594
71	0xbdbb0a52	-0.09132828
72	0x3d56fd3e	0.052487604
73	0x3e8f3dd0	0.27976847
74	0x3eabe774	0.33575022
75	0xbdb5bbb4	-0.08873692
76	0x3dc75fb7	0.09735053
77	0x3b5c1775	0.0033583317
78	0x3da25805	0.07926945
79	0xbe471f15	-0.1944545
80	0xbde23c62	-0.11046673
81	0xbe0f056a	-0.13966909
82	0x3d5df6f3	0.054190587
83	0xbc3fdba0	-0.0117100775
84	0xbe4439ee	-0.19162723
85	0x3dd7e021	0.10540796
86	0x3e4287f3	0.18997173
87	0xbe1d686f	-0.1537187
88	0x3e48aedd	0.19597955
89	0xbda936cf	-0.08262407
90	0x3d9dff3c	0.07714698
91	0x3da8c28e	0.08240233
92	0xbe172f30	-0.14764094
93	0xbe6df8ea	-0.23239484
94	0xbe0ade00	-0.13561249
95	0xbe726db1	-0.23674656
96	0xbe76412e	-0.24048302
97	0x3e0de1cb	0.13855664
98	0xbe2a3245	-0.16620739
99	0x3dde0fb9	0.108428426
100	0x3db1a2a7	0.086736016
101	0x3df1651c	0.11786863
102	0xbd4048f0	-0.04694456
103	0xbe28d1dc	-0.16486305
104	0x3dc7a165	0.097475804
105	0xbdcc5209	-0.099765845
106	0x3d315ca4	0.04330124
107	0xbbf25230	-0.0073950514
108	0x3e52397e	0.20529744
109	0xbe9af495	-0.30264726
110	0x3c81f361	0.015863122
111	0x3d5ec586	0.05438759
112	0x3e604fbc	0.21905416
113	0x3e9e54ff	0.30924222
114	0xbe6e1f34	-0.2325409
115	0x3e1fe9c1	0.15616514
116	0x3d90b407	0.070655875
117	0x3dc7448d	0.09729872
118	0xbd9f7f8b	-0.07787999
119	0xbd995878	-0.07487577
120	0x3e401575	0.18758185
121	0x3e41b530	0.18916774
122	0xbd20c7fb	-0.039253216
123	0xbb8698c7	-0.004107568
124	0x3de996ef	0.114057414
125	0xbc888f86	-0.01667
126	0xbde3e946	-0.11128478
127	0x3d3312c0	0.043719053
128	0xbca4857a	-0.020083178
129	0xbe1537ef	-0.14572118
130	0xbe47a8a6	-0.19497928
131	0xbee8fb7d	-0.4550437
132	0x3e1b2afe	0.15153119
133	0xbe4e1c34	-0.20127946
134	0xbe8c38ed	-0.2738718
135	0xbd3450d7	-0.044022407
136	0xbd349718	-0.044089407
137	0xbe9350f0	-0.28772688
138	0x3d934b0b	0.07192048
139	0xbe288706	-0.16457757
140	0x3dd57986	0.104235694
141	0xbdf5c7e3	-0.12001016
142	0x3e141325	0.14460428
143	0x3bfe13ef	0.007753841
144	0xbdda3441	-0.10654498
145	0x3d896734	0.067091376
146	0x3cdfb2ea	0.027306993
147	0xbcff01a4	-0.031128712
148	0xbe46575d	-0.19369264
149	0x3ca6841e	0.02032667
150	0x3dda89c5	0.10670809
151	0xbe85c63d	-0.26127806
152	0xbe26c267	-0.16285096
153	0xbdd8b4f9	-0.10581393
154	0x3d00115b	0.03126655
155	0x3d8a4d1a	0.06752987
156	0xbe5f462d	-0.21804114
157	0xbe15c58c	-0.1462614
158	0xbdf096e2	-0.117475286
159	0xbe2a7d44	-0.16649348
160	0xbbe7a008	-0.0070686378
161	0xbe85c372	-0.26125675
162	0xbe3545c7	-0.17702399
163	0xbe076871	-0.13223435
164	0x3f00440e	0.50103843
165	0xbcc411a0	-0.023934186
166	0xbddc6b38	-0.10762638
167	0x3dcad857	0.09904545
168	0x3e13b156	0.14423117
169	0x3d9b394c	0.07579288
170	0xbbe53bb2	-0.0069956416
171	0x3cffeda5	0.031241247
172	0x3db9cda3	0.09072425
173	0xbe592a3c	-0.21207517
174	0xbe1bbe14	-0.15209228
175	0xbe0cdd5c	-0.13756317
176	0x3e12679d	0.14297338
177	0xbe2fd1d4	-0.17169887
178	0xbd7e31ee	-0.062059335
179	0xbe05985a	-0.13046399
180	0xbc9f29ca	-0.019429106
181	0xbd774a6c	-0.06037371
182	0xbd56b452	-0.05241806
183	0xbe9b26c8	-0.30303025
184	0x3d1ceda5	0.038312573
185	0x3d81cd11	0.063379414
186	0xbde65a53	-0.11247697
187	0xbd36d5c6	-0.044637464
188	0xbec81dad	-0.3908514
189	0xbded0768	-0.11573678
190	0xbdfdf7f4	-0.12400809
191	0xbd9adc4e	-0.07561551
192	0x3e8d7102	0.2762528
193	0xbe6f1bfe	-0.23350522
194	0xbe285687	-0.16439258
195	0xbe0e03b3	-0.13868599
196	0x3e122878	0.1427325
197	0xbe402627	-0.18764554
198	0xbcfca5d8	-0.0308408
199	0x3db0d0e2	0.08633591
200	0xbd742c28	-0.059612423
201	0x3c51d364	0.012806747
202	0xbd419392	-0.047259875
203	0xbdc922ac	-0.09821066
204	0xbe413f4b	-0.188718
205	0x3d5e6542	0.054295786
206	0xbe9e0cbd	-0.30869094
207	0xbcdeb74c	-0.027187012
208	0x3d771ff9	0.060333226
209	0xbe72f85f	-0.23727559
210	0xbe04466a	-0.12917486
211	0xbe07fe3b	-0.13280575
212	0x3dae92f1	0.085241206
213	0x3e337b93	0.17527609
214	0xbece417a	-0.4028433
215	0x3e13f7cd	0.14449997
216	0x3d812baa	0.063071564
217	0xbe078b0d	-0.13236637
218	0xbdd4173c	-0.10355994
219	0xbda8dcc6	-0.08245234
220	0xbe47220c	-0.19446582
221	0x3c774d41	0.015094102
222	0xbe5def2f	-0.21673273
223	0x3e03b0f6	0.12860474
224	0x3dca6162	0.098818555
225	0xbcd8fd69	-0.026488023
226	0xbeafa24e	-0.34303516
227	0x3de62241	0.11237002
228	0xbea04c0a	-0.31308013
229	0xbe200036	-0.1562508
230	0xbc836be2	-0.016042653
231	0xbdc52ae2	-0.0962732
232	0x3e5b0ebb	0.21392338
233	0xbcb933a7	-0.022607638
234	0xbc9f6d55	-0.019461313
235	0xbe31694d	-0.17325325
236	0xbde13bf9	-0.10997767
237	0x3d406e44	0.046980157
238	0x3e4208ec	0.18948716
239	0x3ce532b2	0.027978275
240	0xbc437f86	-0.011932259
241	0xbe57f637	-0.21090017
242	0x3b4cd3a1	0.003125407
243	0xbe94aafb	-0.29036698
244	0xbe15ab9e	-0.14616248
245	0xbe1f25ef	-0.15541814
246	0xbd668275	-0.056276757
247	0x3e637226	0.22211513
248	0x3df48396	0.119391605
249	0x3da4b971	0.08043183
250	0x3d4280b7	0.047486033
251	0xbe59b68d	-0.21261044
252	0xbe23d10f	-0.15997718
253	0xbe81cdb6	-0.25352257
254	0xbd99c33e	-0.075079426
255	0xbe6bcb82	-0.23026851

actor.weight f4 [5, 128]
0	0xbdd0068d	-0.101574995
1	0x3ee6859e	0.45023817
2	0x3e8cb3fc	0.27481067
3	0x3ee6b977	0.45063373
4	0xbdc692cd	-0.09695969
5	0xbf116c62	-0.56806004
6	0xbf102145	-0.56300765
7	0xbeac11a7	-0.33607218
8	0x3f12a89f	0.57288545
9	0xbcde4ee6	-0.027137231
10	0xbee768ee	-0.45197242
11	0x3dc5db73	0.09660997
12	0x3e81c364	0.25344384
13	0xbf0a67cd	-0.5406464
14	0xbe94d30d	-0.2906727
15	0xbe1be9c9	-0.152259
16	0xbe3b8f2e	-0.18316337
17	0xbf0bc8d6	-0.54603326
18	0x3f00f889	0.50379235
19	0x3f56d9c1	0.83926016
20	0x3e66e78a	0.22549263
21	0x3ed409da	0.41413766
22	0x3e6444e6	0.22291908
23	0x3ec23e9d	0.37938395
24	0xbf1bc085	-0.60840636
25	0x3d25677b	0.04038189
26	0xbe8478cc	-0.2587341
27	0x3d87a8b8	0.066239774
28	0x3f1fb040	0.6237831
29	0x3f1bdbc7	0.6088223
30	0xbf39e1d2	-0.726102
31	0xbd2272f8	-0.039660424
32	0xbe371e65	-0.17882688
33	0x3f015e82	0.5053483
34	0x3e897cf1	0.26853135
35	0xbf3c3bdc	-0.7352884
36	0xbe3ea086	-0.18615922
37	0x3df0dd0d	0.11760912
38	0xbe52a239	-0.20569696
39	0xbeec754c	-0.4618324
40	0x3eaf12c0	0.34193993
41	0x3de2fec0	0.11083746
42	0xbf50129f	-0.81278414
43	0xbeabe0ad	-0.33569852
44	0xbee524dc	-0.44754684
45	0x3ed5bd23	0.41745862
46	0xbe2e1cb9	-0.17003144
47	0x3f33ee74	0.70285726
48	0x3ea70ea7	0.32628366
49	0xbdce2efc	-0.10067555
50	0xbef9cd20	-0.4878931
51	0xbe898bbb	-0.26864418
52	0x3f07918c	0.5295646
53	0x3eefa8ba	0.46808416
54	0xbd150704	-0.036383644
55	0x3f047a2e	0.5174893
56	0x3e38b673	0.18038349
57	0x3f2ab263	0.66678447
58	0xbcf153ca	-0.029458899
59	0xbd976ea5	-0.07394151
60	0xbeabce88	-0.33556008
61	0x3d9a8900	0.07545662
62	0x3ea26552	0.31717926
63	0xbe97010b	-0.29492983
64	0xbdcb0bb5	-0.09914342
65	0x3f400945	0.75014144
66	0xbe7b31b0	-0.24530673
67	0x3eb136df	0.34612176
68	0x3da3a67f	0.07990741
69	0xbef0b59d	-0.4701356
70	0x3f5dbc33	0.86615294
71	0x3e8a532d	0.27016583
72	0x3d8a2834	0.067459494
73	0x3ecebd22	0.40378672
74	0x3f223f3b	0.6337773
75	0x3ec0f50f	0.37686965
76	0xbea8077a	-0.32818204
77	0xbfa42883	-1.2824863
78	0x3e63b40a	0.22236648
79	0x3dab1782	0.08354093
80	0xbf484b30	-0.7823973
81	0x3e0305b9	0.12795152
82	0x3eba72f3	0.36415824
83	0xbe7bb035	-0.24578936
84	0xbd09c81e	-0.033638112
85	0x3cb8a645	0.022540221
86	0x3ed2d211	0.41175893
87	0xbef45917	-0.4772422
88	0x3e911013	0.28332576
89	0xbe869dd9	-0.26292303
90	0x3f048323	0.517626
91	0x3f68b3e6	0.90899503
92	0x3e7f69e8	0.24942744
93	0xbd1d17ff	-0.038352963
94	0xbe1b4487	-0.1516286
95	0x3eb59420	0.35464573
96	0xbf3da18b	-0.7407462
97	0x3e329f1d	0.1744351
98	0xbf37979b	-0.71715707
99	0xbe402303	-0.18763356
100	0xbf0544bf	-0.52058023
101	0x3eef3978	0.46723533
102	0xbf0400bd	-0.51563627
103	0xbe668b57	-0.22514091
104	0x3e2407e1	0.1601863
105	0x3cef9efb	0.029250612
106	0xbe9b2f2c	-0.30309427
107	0x3ee0d7b9	0.43914583
108	0x3f058dc1	0.52169424
109	0x3c91d8e6	0.01780362
110	0x3ea9efbd	0.33190718
111	0x3e25540b	0.16145341
112	0xbe9e1cbe	-0.30881304
113	0xbf10f457	-0.56622833
114	0xbe6f14da	-0.23347798
115	0x3a6b04a6	0.0008965231
116	0xbebb3195	-0.36561266
117	0x3e9e1ff1	0.30883744
118	0xbe389c05	-0.18028267
119	0xbe970ce1	-0.29502013
120	0x3ef4630c	0.47731817
121	0x3c7fff1b	0.015624787
122	0x3f816345	1.010842
123	0x3f4e1578	0.8050151
124	0xbde123f7	-0.10993188
125	0xbebd0451	-0.36917356
126	0xbd7c09d3	-0.061532807
127	0xbf1ca915	-0.611955
128	0x3e9fb0f2	0.31189686
129	0xbedc2342	-0.4299565
130	0x3eca22b3	0.39479598
131	0x3e9d2b0f	0.30696914
132	0xbe1e115a	-0.15436307
133	0x3ed057d1	0.40692
134	0x3e610778	0.21975505
135	0xbebccdec	-0.36875856
136	0xbe19df63	-0.15026622
137	0xbde8184a	-0.11332758
138	0xbedc274a	-0.42998725
139	0xbe801966	-0.25019377
140	0x3ef3da60	0.47627544
141	0xbee3a0af	-0.4445853
142	0x3ebc57cb	0.3678573
143	0xbe5f47fe	-0.21804807
144	0xbd9430c6	-0.07235865
145	0xbdc77848	-0.09739739
146	0xbf460ab8	-0.77360106
147	0xbf4bbc88	-0.7958455
148	0x3eba859d	0.36430064
149	0x3ed33302	0.41249853
150	0x3e315f3b	0.17321484
151	0x3efaef2a	0.49010593
152	0x3e2ebad7	0.17063461
153	0x3d59ec67	0.053203966
154	0xbc050182	-0.008118035
155	0x3eca4a82	0.3950997
156	0x3d8c4967	0.06849938
157	0xbefc7d17	-0.49314186
158	0x3e9b6cdd	0.30356494
159	0x3edc7999	0.43061522
160	0x3eaa4b63	0.3326064
161	0x3ef9ad5c	0.48765075
162	0xbd7a05bf	-0.061040636
163	0x3f6e377f	0.9305343
164	0xbdaaafb8	-0.08334297
165	0xbeff8266	-0.49904174
166	0x3e3b2ba1	0.18278362
167	0xbf17e3b1	-0.59331805
168	0x3ed21218	0.4102943
169	0x3eb1cac6	0.34725016
170	0x3ed45bbf	0.41476247
171	0xbe59d939	-0.2127427
172	0x3f0ef790	0.558465
173	0xbed76a12	-0.42073113
174	0x3f36cb7a	0.7140423
175	0xbf1ba8d1	-0.6080447
176	0x3df7d3d2	0.121009484
177	0x3c6d95c0	0.014501035
178	0xbec1661a	-0.3777321
179	0xbee37987	-0.44428656
180	0xbf25fdc2	-0.6484033
181	0xbf1c5677	-0.61069435
182	0x3e7c735d	0.24653383
183	0x3f301484	0.68781304
184	0xbf255bc1	-0.6459313
185	0xbf4e3289	-0.8054586
186	0x3e670a53	0.22562532
187	0xbe37593b	-0.17905132
188	0xbee9b0fa	-0.45642835
189	0xbdcda5a6	-0.100413606
190	0xbe8aec5f	-0.27133462
191	0xbeeadc8d	-0.45871392
192	0xbec1274b	-0.3772529
193	0x3eb34cb1	0.35019448
194	0xbead6cfe	-0.33872217
195	0xbd85c971	-0.065325625
196	0x3e763ce1	0.24046661
197	0xbee76fae	-0.45202392
198	0xbf38e2e8	-0.7222123
199	0x3ed14fa4	0.40881073
200	0xbecc9b5e	-0.39962286
201	0x3f0184df	0.5059337
202	0xbf5b663f	-0.8570289
203	0xbe95ac41	-0.29232982
204	0x3f084def	0.5324392
205	0x3f44e769	0.76915604
206	0x3eaab037	0.33337566
207	0x3eb85484	0.3600198
208	0x3f5f26d8	0.87168646
209	0x3e797a5e	0.24363086
210	0xbeb47f4d	-0.35253373
211	0xbe4d6f57	-0.20062004
212	0xbad652e5	-0.0016351609
213	0x3d914837	0.07093852
214	0x3efba372	0.49148136
215	0x3f265d89	0.64986473
216	0x3ec57698	0.38567042
217	0x3db98aaa	0.09059651
218	0x3e455fe3	0.19274859
219	0xbf377ec6	-0.71677816
220	0xbf0e8593	-0.5567257
221	0x3dac6841	0.08418322
222	0xbe287cc2	-0.16453841
223	0xbd6933ca	-0.056934156
224	0x3e0a3f61	0.1350074
225	0xbe7c4177	-0.24634348
226	0x3eacfc95	0.33786455
227	0x3f38caf4	0.7218468
228	0x3e02b257	0.12763344
229	0xbeab4a20	-0.3345499
230	0x3dbba1ff	0.09161758
231	0xbe75b31a	-0.23994103
232	0x3ddd6620	0.108104944
233	0x3e1f56a8	0.155604
234	0x3e6112da	0.21979848
235	0xbf44e4a4	-0.7691138
236	0x3edc4791	0.4302335
237	0xbe18a7d5	-0.14907773
238	0x3ea37f4e	0.31933063
239	0xbf034a87	-0.51285595
240	0x3f15dc99	0.5853973
241	0xbef2a28c	-0.47389638
242	0x3d51cce2	0.051220782
243	0xbf3a93e3	-0.7288191
244	0x3f04920e	0.5178536
245	0xbda4e982	-0.080523506
246	0xbe9d8a70	-0.30769682
247	0x3e9ba5cd	0.30399933
248	0x3ea5ddc4	0.32395756
249	0x3d17aef4	0.037032083
250	0xbf43e900	-0.76527405
251	0xbeee2efa	-0.46520215
252	0x3d876b21	0.0661223
253	0x3e97e943	0.29670152
254	0xbe7d4592	-0.2473357
255	0x3efca183	0.49341974

actor.bias f4 [5]
0	0x3e9a18b3	0.3009697
1	0x3e80d4b1	0.2516227
2	0xbe7cf24a	-0.24701801
3	0xbe1cbf82	-0.1530743
4	0x3f24ce75	0.6437753

critic.weight f4 [1, 128]
0	0x3d0bf7d7	0.034171905
1	0x3d4066ec	0.046973154
2	0xbca91ab2	-0.020642612
3	0x3d53eb69	0.051738176
4	0x3e0ebc4c	0.13939017
5	0xbe017f67	-0.12646256
6	0xbce11f2a	-0.02748068
7	0xbe6997a2	-0.2281175
8	0xbe156a10	-0.14591241
9	0xbdb11fa5	-0.08648614
10	0xbe69fc1b	-0.22850077
11	0x3e3ca5b0	0.1842258
12	0x3ed347bf	0.41265675
13	0xbe6b0d2c	-0.22954243
14	0x3ed7c1fa	0.4214018
15	0xbca6aa44	-0.02034486
16	0x3d2e1d50	0.042508423
17	0xbc0f48b8	-0.008745365
18	0x3dea2ef6	0.11434738
19	0x3ccb738a	0.024835367
20	0x3e1976d7	0.1498674
21	0x3e48a7cd	0.19595261
22	0x3e5acb4e	0.21366617
23	0xbe13c01f	-0.14428757
24	0x3d195cc6	0.03744199
25	0x3eb6b512	0.3568502
26	0xbd900eb6	-0.07034056
27	0x3daae680	0.08344746
28	0x3c0b6c3b	0.008509691
29	0xbb2cd9a3	-0.0026374839
30	0x3dbdbfa5	0.09265069
31	0x3d097f68	0.03356877
32	0x3d3fac6b	0.04679529
33	0x3dc986a6	0.09840135
34	0x3a8dec62	0.0010827894
35	0xbe311599	-0.17293395
36	0xbe92dbe9	-0.28683403
37	0xbd9dde62	-0.07708432
38	0xbd5a39fa	-0.053277947
39	0xbe831f7f	-0.25609967
40	0x3d8930b6	0.06698744
41	0x3e87de06	0.26536578
42	0x3da1142e	0.07865177
43	0xbde48324	-0.111578256
44	0xbd72ae60	-0.05924833
45	0xbd09e837	-0.033668723
46	0xbe67066c	-0.22561044
47	0xbd2d7bba	-0.042354323
48	0x3de30d1e	0.11086486
49	0xbd81388e	-0.06309615
50	0xbda3737b	-0.079810105
51	0x3eb1a487	0.34695837
52	0xbd898ff6	-0.067169115
53	0xbe05e942	-0.13077262
54	0xbd52b79a	-0.051444627
55	0xbd9a0897	-0.0752117
56	0x3c35fa37	0.011107019
57	0xbce0b86a	-0.027431685
58	0xbdfc4da2	-0.12319495
59	0xbd4faccd	-0.050701905
60	0xbda31d2a	-0.07964547
61	0xbdea5d17	-0.11443537
62	0x3cc57599	0.024103926
63	0xbe30d11f	-0.17267273
64	0xbe6c767e	-0.23092076
65	0xbeb97d40	-0.3622837
66	0x3e1fda98	0.1561073
67	0x3e071add	0.13193841
68	0x3e407985	0.18796356
69	0x3ed58d18	0.41709208
70	0xbda25f03	-0.07928278
71	0x3e5aa4ea	0.21351972
72	0xbd87ced2	-0.06631245
73	0x3e8160fe	0.25269312
74	0x3ca967c5	0.020679364
75	0xbd9669f0	-0.07344425
76	0xbd71e758	-0.059058517
77	0x3d827209	0.06369407
78	0x3dd37f7b	0.10327049
79	0xbdf66a81	-0.12032033
80	0x3d63abf7	0.05558392
81	0xbbfec4fd	-0.0077749477
82	0xbe1359c1	-0.14389707
83	0xbd97346a	-0.07383044
84	0xbf175787	-0.5911793
85	0x3e83f683	0.2577401
86	0xbda6fc77	-0.081536226
87	0x3d70c3e0	0.05878055
88	0x3eb913c7	0.361479
89	0x3c24732c	0.010037225
90	0x3c92f3b2	0.017938469
91	0x3d4a2f27	0.049361374
92	0xbc07086e	-0.008241756
93	0x3df44d6d	0.1192883
94	0xbded5955	-0.11589304
95	0x3d234fe8	0.039871126
96	0xbed62d2b	-0.41831335
97	0x3d37a3cc	0.044833943
98	0xbdadebcf	-0.084922425
99	0x3e191c6e	0.14952251
100	0x3f0835d3	0.5320713
101	0x3e5a8845	0.21341045
102	0x3d2c26c4	0.042029157
103	0xbdc51cd7	-0.096246414
104	0x3d713b93	0.058894705
105	0x3a6f6435	0.00091320585
106	0xbc393d85	-0.011306171
107	0xbb93ba34	-0.004508281
108	0xbe3796e0	-0.17928648
109	0x3da13881	0.078721054
110	0x3e95d0f9	0.29260996
111	0xbd96224c	-0.0733076
112	0xbad60869	-0.0016329411
113	0x3e3268ee	0.1742284
114	0xbd590099	-0.052979086
115	0xbc69e734	-0.0142763145
116	0xbd13358e	-0.035939746
117	0x3d4d1fd8	0.050079197
118	0xbdca35bc	-0.0987353
119	0x3e297891	0.16549899
120	0x3e9ccef8	0.30626655
121	0x3e26daf5	0.16294463
122	0x3d9f745b	0.07785865
123	0xbd115326	-0.035479687
124	0xbd234d1c	-0.03986846
125	0xbdafabc1	-0.08577681
126	0xbca1635c	-0.019700699
127	0x3df293b9	0.11844582
