OLD/Liu/test/v_3/train_iter_1400.pt (torch, 708167 bytes, 9 tensors)

h0 f4 [128]
000000 37 f7 64 3f 7a a5 9a bf e6 1c 67 be b1 ec 38 3d
       0.8943972 -1.208175 -0.22569618 0.0451476
000010 24 6c 94 bf 9e 58 17 bf b3 98 d9 bf 7e b0 62 bf
       -1.1595502 -0.59119594 -1.6999725 -0.88550556
000020 69 e1 31 3f 57 c3 af bf 54 6f 41 bf 04 4d 06 3f
       0.69484574 -1.3731488 -0.755605 0.52461267
000030 5a 15 85 bf 30 5c 69 3f ac 33 a5 bc 64 fb 71 3f
       -1.0397141 0.9115629 -0.02016624 0.94524217
000040 3e 78 63 3e 32 bf 04 be ae f9 c9 bf ea 73 01 be
       0.22213838 -0.1296356 -1.5779321 -0.12641874
000050 2a 68 af 3e 8e 4e f9 be 82 71 a1 bd 2c 37 cb bf
       0.34259158 -0.48692745 -0.07882978 -1.5876212
000060 02 9d d6 be e8 16 96 be cb 38 2b bf 8b 49 1c c0
       -0.41916662 -0.2931435 -0.66883534 -2.4419887
000070 96 26 9f be c6 76 36 bf cb ee fa 3d 0b aa 04 bf
       -0.31084126 -0.71274984 0.122525774 -0.51821965
000080 4f f8 b2 bf 0b 49 1f 3f 00 cf 2e 3f 15 6b b6 bf
       -1.3982028 0.6222083 0.68284607 -1.4251429
000090 7e 30 17 40 5c 2e 5d 3f 6d b5 81 bf b9 c9 1e be
       2.3623347 0.86398864 -1.0133492 -0.15506639
0000a0 8f 69 43 bf f1 da ca be 5a e3 82 be ec e5 16 bf
       -0.76332945 -0.39620164 -0.2556408 -0.5894458
0000b0 7a e9 03 3d 7d 2b a4 bf 9a c1 84 3e d8 36 f8 bf
       0.032205082 -1.2825772 0.25928956 -1.9391737
0000c0 48 bc f0 3f 58 55 66 3f 66 ea ef 3f 56 29 a4 3e
       1.8807459 0.89973974 1.8743408 0.32062787
0000d0 54 b9 04 bf 9e 26 54 3f 24 70 a3 bb 4f a4 0d 3e
       -0.5184529 0.82871425 -0.0049877334 0.1383221
0000e0 3f f2 93 be e8 92 42 bf 44 43 70 3f f1 b9 04 c0
       -0.28895757 -0.7600541 0.9385264 -2.073849
0000f0 de de 89 be 14 5c 12 be 40 1c 1a c0 29 6f 23 3f
       -0.26927847 -0.14292938 -2.4079742 0.6384149
000100 e7 aa fc 3f b9 83 6e 3f 3b 5f 8d 3f e0 29 bf 3f
       1.9739655 0.9316974 1.1044687 1.4934654
000110 8a 4a 36 3e d8 dd 4a be 64 f2 07 3f 10 9b f5 bd
       0.17801872 -0.19811189 0.53104234 -0.119924664
000120 cd 58 9f bf 87 01 fe 3f 32 e3 99 be b3 1c 87 3f
       -1.2448975 1.9844216 -0.3005615 1.0555633
000130 e2 bf f1 3f d7 0a d5 be f1 3f c0 3d 8b d6 8f 3f
       1.8886683 -0.41609833 0.09387196 1.1237348
000140 af b8 b9 3e 9b 8f 48 3f c2 9a 2e be 5f 1f 1d bd
       0.36273715 0.78344125 -0.17051223 -0.038359996
000150 83 41 a6 3f 1a c1 b9 3f 70 2e 36 40 10 dd 1e bf
       1.2988743 1.4512055 2.8465843 -0.62056065
000160 bc bd c0 3e 7a 5e 08 c0 e7 0b ef bd 77 7a b3 3e
       0.37644756 -2.1307664 -0.11672192 0.3505437
000170 5e aa 93 bf 4d c8 f0 bf ed 0d 82 3f 77 d6 01 40
       -1.1536367 -1.8811127 1.01605 2.028715
000180 3c 5e 30 bf 7a 84 cb be f4 d1 17 c0 dc 85 4f 3e
       -0.6889379 -0.3974951 -2.3721895 0.20265907
000190 12 e9 76 be 1b 9f a3 3f 87 ae b9 3f 73 3a 4a 3f
       -0.24112347 1.278293 1.4506387 0.78995436
0001a0 73 f3 3b 3f e0 c6 86 3f fa b8 b1 3f 25 17 5f bf
       0.7341835 1.0529442 1.3884575 -0.8714469
0001b0 d3 85 b5 bf ba 3b 1e c0 2a e7 26 bf 77 5a ab bf
       -1.4181465 -2.4723954 -0.6519648 -1.3386983
0001c0 37 ab a0 bc ee 42 1b 3d ee 5d 2d c0 39 52 18 40
       -0.019612892 0.037905626 -2.708858 2.3800185
0001d0 7a 60 8a bf f0 de 9e bf 93 66 a3 3e 69 7a 36 3f
       -1.0810692 -1.2411785 0.31914195 0.71280533
0001e0 fe fe 67 3e 43 08 01 3e d9 5c e2 bf 80 42 9c 3f
       0.22655866 0.12600808 -1.7684585 1.2207794
0001f0 79 e3 e0 3e e2 bb 8a bf c7 95 51 3e ec bf 7f bf
       0.43923548 -1.0838587 0.20467292 -0.99902225

c0 f4 [128]
000000 7d 70 0b c0 bd cc 26 3f 3f 4b 9a 3e 18 3a d5 3f
       -2.1787407 0.65156156 0.30135533 1.6658354
000010 09 e8 cc be c0 78 20 bf 39 2b e4 be 14 36 53 3f
       -0.4002078 -0.6268425 -0.44564226 0.8250439
000020 3e b2 be bf f3 bf c3 3e 07 85 fd 3e 7c aa 69 3f
       -1.4898145 0.38232383 0.49515554 0.91275764
000030 58 ce 74 3f 88 31 db be e1 3c 66 bf ed 4b 6a 3e
       0.95627356 -0.42811227 -0.89936644 0.22880526
000040 62 ea 26 40 33 a4 90 bd 57 3a 0f 40 0b 8e 8d 3f
       2.6080556 -0.070625685 2.2379358 1.1058973
000050 4d 9c f3 bf 2b 2d 6d 3d 49 64 05 bf de 42 a7 3e
       -1.9032074 0.057904404 -0.5210615 0.32668203
000060 25 a4 5d 3e 96 e4 2f bf a0 59 82 3e 03 9d 6b bf
       0.21644647 -0.6870817 0.25459003 -0.92036456
000070 89 0e ef be b6 c0 6b be 70 e8 6a 3f 37 90 be bd
       -0.46690777 -0.23022732 0.9176092 -0.093048505
000080 a9 d6 7b bf 3d f2 9a bf 19 40 f7 3f e9 c8 0a be
       -0.9837442 -1.2105175 1.9316436 -0.13553204
000090 a1 d6 71 be ab 41 47 3f 80 18 4b 3f ad 18 f7 3e
       -0.2361703 0.77834576 0.7933426 0.48261014
0000a0 2a b6 ca 3f a6 7c b2 bd 0f 0c 87 3f 6d cc ed be
       1.5836842 -0.08715181 1.0550555 -0.46445027
0000b0 d7 f0 48 40 06 21 14 bf 4f 97 e1 be b3 8a c9 bf
       3.1396997 -0.5786289 -0.44060752 -1.5745453
0000c0 68 f5 ea be 75 a9 a5 3f a9 18 a0 bc 73 d3 93 3f
       -0.45890355 1.2942339 -0.019543009 1.1548904
0000d0 ed bb e1 be 67 0e 7f 3d 17 fe 18 be df 53 31 bf
       -0.44088688 0.062269595 -0.14940678 -0.692686
0000e0 91 cd 2f bf f0 8d 4a bf 8a da 31 be 8c b2 80 3f
       -0.68673044 -0.7912283 -0.17368522 1.0054488
0000f0 88 47 c8 3f 31 8f dc bf a1 a5 fe bf 0d ee 27 bf
       1.564683 -1.7231199 -1.9894296 -0.6559761
000100 7f 0b 13 be 61 23 04 c0 99 65 d8 3d 47 2f 95 be
       -0.14359854 -2.0646594 0.10566253 -0.29137632
000110 e4 51 2d be 21 94 a5 bf 09 bb 82 bf 06 13 dc 3f
       -0.1692577 -1.293583 -1.0213329 1.7193305
000120 4d 55 8a bf 76 34 b8 bf 38 18 90 bf 47 5c 02 3d
       -1.0807282 -1.439101 -1.1257391 0.031826284
000130 6d 2b 96 3f ad 7b 77 3f b6 fb e3 bd 2f e3 80 3d
       1.1732002 0.9667309 -0.111319944 0.06293332
000140 f0 af 51 3f d8 8b ec be 1c 34 a7 3e ec f0 44 3e
       0.81909084 -0.46200442 0.32656944 0.1923253
000150 58 23 ce 3f 36 54 26 3f 64 24 a0 3f 8a 34 92 be
       1.6104536 0.64972246 1.2511106 -0.2855571
000160 08 14 12 bf 87 c0 a4 3f e5 e1 3b 3f e0 44 18 be
       -0.57061815 1.2871255 0.7339156 -0.14870024
000170 cd a0 d5 be bb 43 86 3f 34 83 53 3d af 54 44 3f
       -0.41724244 1.048942 0.051638797 0.76691717
000180 bf 44 41 3f f5 af d1 3e 27 b5 97 3d 21 5c 3b bf
       0.75495523 0.40954557 0.07407599 -0.7318745
000190 70 2b 07 40 70 3e cf bf d3 e8 86 be a0 7c 70 3f
       2.1120262 -1.619093 -0.26349506 0.9394016
0001a0 3f bd 9c 3d 1c 7c c2 bf 6c c9 1f 3f 73 1b 8b 3f
       0.07653283 -1.5194125 0.6241672 1.0867752
0001b0 50 c0 c0 3f 7d df e7 be d4 a3 3a 3f 5c 74 92 3f
       1.5058689 -0.45287696 0.7290623 1.144176
0001c0 87 f7 99 bd 47 c3 f0 3e a6 10 09 40 c2 1f 72 bf
       -0.07517915 0.47023985 2.1416411 -0.9457971
0001d0 62 38 57 be ff 00 bb bf ba 2f 12 c0 d0 9a f3 3f
       -0.21017602 -1.4609679 -2.284163 1.903162
0001e0 55 58 94 bf 7a 04 74 bf 9c 69 cc 3f b4 01 40 3f
       -1.1589457 -0.9531933 1.596973 0.750026
0001f0 8b d2 51 3e 9a 66 02 be 3c 3c 9c be 8d 3c 17 bf
       0.20490472 -0.12734452 -0.30514705 -0.5907677

RNN.weight_ih_l0 f4 [512, 15]
000000 4e 1e 9a 3c a4 09 b5 3d 48 75 1c 3e dd 89 a3 3d
       0.018813279 0.088397294 0.15279114 0.0798528
000010 fa e5 37 3e 24 b7 18 bd 66 c2 ee bd de c3 9a 3d
       0.17958823 -0.03728403 -0.11658172 0.0755689
000020 40 90 32 3e e7 33 3d 3e 4e 3c f0 3c a7 0d 8c 3c
       0.1743784 0.1847683 0.02932563 0.017096354
000030 df d3 dd bc d5 93 ab 3d 1c 3c b3 bc 11 92 13 3d
       -0.027078567 0.08377806 -0.021879248 0.03602797
000040 e5 14 d8 3d 8d d2 b2 3d 9c e9 b5 bc cd 8c 96 3d
       0.1055086 0.087315656 -0.02220612 0.07351074
000050 ed d8 c1 bc 6a 1b 19 bd 16 30 14 3d 35 06 58 3d
       -0.023663009 -0.03737966 0.03617867 0.052740294
000060 8f fa 8d bd 39 f8 a2 3d e7 8d a0 3d 39 3a e3 3d
       -0.06932556 0.07957501 0.07839566 0.110950895
000070 83 b3 7e bd 2b 69 e1 bc f7 77 8f 3d 82 f3 57 bd
       -0.062182914 -0.027515968 0.07005303 -0.05272246
000080 a9 4a 46 3e 7e 5c 56 3d 54 6b a3 bd 27 b1 32 3e
       0.19364418 0.0523343 -0.079794556 0.17450391
000090 93 39 ee 3d ca fa dd ba 9e 27 58 3c 9b 65 0a bc
       0.11632075 -0.0016935703 0.013193039 -0.008447076
0000a0 e9 61 80 3d 63 bd 99 bc e3 85 55 3d 8d a8 87 bd
       0.06268675 -0.018767064 0.052129637 -0.066239454
0000b0 8f 66 25 bc c8 c4 21 bd 4a d8 f7 bc 6d b0 86 bd
       -0.010095253 -0.039494306 -0.030254502 -0.06576619
0000c0 6b 08 e1 3b 8a 71 5d bd 89 e3 ff 3d d0 1f 1c 3d
       0.0068674586 -0.054063357 0.12494571 0.038116276
0000d0 fc 8d 75 3d 65 16 8b bd 5c de d6 bd d4 2c b4 bc
       0.05994986 -0.06791381 -0.104916304 -0.021994032
0000e0 b3 18 54 3d 82 32 a0 3c 40 ce e7 bc 86 1f 79 3d
       0.051781368 0.019555334 -0.02829659 0.06082108
0000f0 06 50 e4 3b 4d 9b 0c bd ef 2d 95 3d 4d 87 0b bc
       0.0069675473 -0.034327794 0.07284152 -0.008516145
000100 99 88 a8 3d 4a 0a 20 bd 04 1a 74 3b 5d 43 2d 3d
       0.08229179 -0.039072312 0.0037246952 0.04230057
000110 47 a7 85 3d 47 5b d2 bc bc 0b 1e bd cd b1 d2 3d
       0.06526046 -0.02567829 -0.03858541 0.10287819
000120 2d 89 f9 3c 5d 8e 99 bc f1 bf 5d 3d cd 03 9e 3d
       0.030460918 -0.018744642 0.054138128 0.07715569
000130 91 6b d4 3c a8 92 bf bc 2f 48 5d bd bb 92 02 3d
       0.025930198 -0.02338536 -0.054023918 0.031878214
000140 6e d8 3c 3d f2 8b de 3d 17 9f b1 3d 3c 51 79 3d
       0.04610484 0.10866536 0.08672922 0.060868487
000150 d4 4d 02 3d 7b 5a 0c 3d bc 49 53 bd 3b 7d c8 bb
       0.031812504 0.034265976 -0.05158399 -0.0061184443
000160 63 d0 bd 3d b8 c7 bd 3d 00 f0 27 bb 22 31 c9 3d
       0.09268262 0.09266609 -0.002562523 0.098238245
000170 cc 85 19 bd 56 b7 ba 3d be ac b4 bd 30 d6 24 3e
       -0.037481114 0.09117 -0.088220105 0.16097331
000180 97 cb 3d 3e 38 a0 fc bc d1 97 07 3d 8b 7f c2 3d
       0.18534695 -0.030838117 0.033103768 0.09496983
000190 4a 10 dc 3d a5 c1 e6 3d 21 0b fc 3d 51 19 6b 3d
       0.107452944 0.112674035 0.1230681 0.05739719
0001a0 d2 f6 ae 3c 42 3d 6c bd 79 20 fb bd a7 14 43 3e
       0.021357927 -0.057675608 -0.12262053 0.19050847
0001b0 98 21 29 3d 7a a9 f6 3d 27 49 11 3e e4 61 97 bd
       0.041291803 0.12044044 0.14188062 -0.07391718
0001c0 40 2f 66 bc eb 92 0e 3e ea 44 50 3d 21 94 ae 3d
       -0.014049351 0.13923232 0.05084697 0.08524347
0001d0 1d 64 0f 3d 23 8a e0 3d e0 d1 9f bd cb 8c 66 bd
       0.035007585 0.109638475 -0.07803702 -0.056286614
0001e0 f2 48 1a 3d 3d b7 9c bb f5 3d 90 3d f6 8a b8 bd
       0.037667222 -0.004782586 0.07043067 -0.0901088
0001f0 ff 75 5a 3c 9b 4b 6e 3e 58 e5 74 3d df 04 26 bc
       0.0133337965 0.23271029 0.05978903 -0.010132997
000200 6a 21 63 3d 2f 1e 2c bd f8 0e 89 bd 83 fc 35 3d
       0.055451788 -0.042020973 -0.06692308 0.044430267
000210 6c 93 62 3d 83 76 20 3d 5d 9c e3 3d 1a 2e 42 3d
       0.055316374 0.03917552 0.11113808 0.047407247
000220 9e 2f 7d bd 8a d4 95 3d 02 95 4f bd 15 4e da 3c
       -0.06181299 0.07315929 -0.050679214 0.02664856
000230 9e 38 9c 3e 8b 93 66 3c 6f 5f df 3c 2e ea 8f bd
       0.30511945 0.014073263 0.027267186 -0.07027088
000240 83 05 04 3d 59 d9 00 3d 32 96 9f 3d 6e 21 51 3d
       0.03223182 0.03145728 0.07792319 0.05105727
000250 84 8b 87 bb ad 9e a6 bc dc b3 ba 3d 95 d1 a1 3d
       -0.0041365046 -0.020339334 0.09116337 0.07901303
000260 af e9 b6 3d 8f 12 bd 3c 96 26 ed 3d 7c 81 57 be
       0.0893129 0.023080138 0.11579625 -0.21045488
000270 b3 4a 97 bc 7a 1d ff 3b 21 69 18 bd 92 24 bb bd
       -0.018468237 0.0077854963 -0.037209634 -0.091378346
000280 ae 55 4b bd 4f 93 f2 bc ff 5f c2 bc b3 42 11 3d
       -0.049642257 -0.029611258 -0.023727415 0.035464
000290 51 fe 04 bd 6c bd d2 3c 46 4d 6d bd b9 bf 86 bd
       -0.032469098 0.025725089 -0.05793502 -0.06579537
0002a0 0d f3 81 3d 6c 65 40 3d ec 2d c3 bb 34 ec e2 3d
       0.063451864 0.046971723 -0.005956402 0.110802084
0002b0 d2 82 16 3e 26 e0 ae bc a5 02 01 bd 06 97 d4 3d
       0.14698341 -0.021347117 -0.031496663 0.10380368
0002c0 b5 b6 84 3d c2 4c e8 bd 2f 8e 1c 3c 4e 7b 31 bd
       0.06480161 -0.113427654 0.009555384 -0.043330483
0002d0 16 b8 4b 3d 83 70 52 bc 71 26 94 3d 19 70 ab bb
       0.049736105 -0.012844208 0.072338946 -0.005231869
0002e0 c3 5f b0 bd 3d ad f9 3d 90 d3 36 3e 22 dc 01 3c
       -0.08612015 0.12191246 0.17854142 0.007926019
0002f0 1c 2a 4f 3d 24 b3 2d bb 18 d3 96 3d 9d 3c 1f bc
       0.050577268 -0.0026504481 0.07364482 -0.009719041
000300 3a 72 18 3e 1d 00 cc bc cb ea 30 3e 85 f6 69 bd
       0.14887324 -0.024902398 0.17277066 -0.057119865
000310 0c 49 fc bb 75 26 22 3d c1 62 80 bc 1e a4 0b bd
       -0.0076991376 0.039587457 -0.01567209 -0.03409206
000320 54 07 29 3e f1 60 25 3d 8b 0d 9d bd 29 ca 26 bc
       0.16506702 0.040375654 -0.07668599 -0.010180035
000330 a3 5b 76 3c 57 4f be 3c 3c 8f 59 bc 63 5a 14 bd
       0.015036496 0.023231192 -0.013278779 -0.036219012
000340 0f 03 b5 3d f9 29 af 3d 90 30 3f 3d 22 93 44 3d
       0.08838474 0.085529275 0.046677172 0.04799188
000350 c4 e3 c6 3d 3f 90 80 3d af 82 6c bd 6c 83 00 bd
       0.097114116 0.06277513 -0.057741817 -0.031375334
000360 6f 5d 3d 3e f9 27 18 3d ac a7 2f 3e ae 58 94 bd
       0.18492673 0.037147496 0.17153805 -0.07243477
000370 ed 68 82 bb 3d 21 71 3d 0f f7 38 3e 0a 39 97 bd
       -0.0039797933 0.05886959 0.18062995 -0.07383926
000380 73 67 5a 3d dd 69 62 bc 2d f2 8e 3d 9b 99 71 bb
       0.053321313 -0.013819185 0.06979785 -0.0036865238
000390 9d f9 90 3d ab ed a1 bd 28 33 03 bd 78 df ad 3d
       0.0707886 -0.0790666 -0.03203121 0.08489889
0003a0 b7 46 09 3d f3 75 53 bb f2 b1 81 bc f7 b0 a9 3d
       0.033514705 -0.0032266348 -0.015831921 0.082857065
0003b0 e2 e1 58 3d 56 80 17 3e 44 b9 98 3d f7 9e 84 bd
       0.052949794 0.1479505 0.074572116 -0.06475633
0003c0 fc d9 8c bc c0 ba 1a 3d d7 48 4a 3c 83 06 6a bc
       -0.017193787 0.037775755 0.012346468 -0.014283779
0003d0 67 0a f6 bc e8 1f d5 3d 00 15 9b 3c 7b d1 a2 bb
       -0.030034257 0.10406476 0.018930912 -0.0049688197
0003e0 f7 71 cf ba 9e b0 7b 3d 73 49 74 bd 0c 4e ac 3c
       -0.0015826811 0.061447732 -0.05964036 0.02103331
0003f0 e9 5f 4b 3b 0e a5 6a 3b 53 f9 3b bd d0 e2 4d bc
       0.0031032509 0.0035803947 -0.04589207 -0.012566283

RNN.weight_hh_l0 f4 [512, 128]
000000 0f 80 d9 bc 05 6a 46 3d 73 62 22 be 52 03 c5 3d
       -0.02655032 0.04844095 -0.15857868 0.09619774
000010 37 4a db bd a8 c1 3e bd 19 ca 92 3d 03 9c 20 bd
       -0.10707515 -0.046571404 0.07167453 -0.039211284
000020 1d 10 95 3d 5e 26 e6 bc 62 f7 29 bd 56 bb 8c 3d
       0.07278464 -0.028094467 -0.04149569 0.06871669
000030 4d d3 58 bd 6c 1d e8 3b ac ab d7 bd be 3e 99 bc
       -0.052935887 0.0070835855 -0.10530791 -0.018706676
000040 23 fc 44 3d 58 45 f2 bc df 60 35 bc 9c eb 95 bd
       0.04809202 -0.029574081 -0.011070459 -0.073203295
000050 ca 5d 67 3c 51 b7 c1 bd 90 e4 62 3c fe c1 90 3d
       0.014121482 -0.09458793 0.013848439 0.07068251
000060 61 99 39 3d f1 b8 33 bd 09 83 10 3d c7 1a 02 3d
       0.04531229 -0.043877546 0.035281215 0.031763818
000070 b7 91 1d bc 15 b2 41 bd e2 00 19 3c b9 ba 8e bd
       -0.009617261 -0.047288973 0.009338589 -0.06969208
000080 0a 0a ef bc 95 d7 a0 bd 1b 8e 42 3d f7 5e db bc
       -0.029179592 -0.07853619 0.047498804 -0.026778681
000090 ab e9 c5 3c d6 53 8e bc c5 99 10 bd aa a2 8a bd
       0.024159273 -0.01737396 -0.035302896 -0.06769307
0000a0 8f 59 85 bd 59 3a c1 3c 7c 01 89 bd 78 8c 9c 3d
       -0.065112226 0.023587393 -0.06689736 0.0764398
0000b0 07 fc 97 bc 42 10 1b bd 65 e2 8a bb da 00 29 3d
       -0.018552793 -0.0378573 -0.004238414 0.041260578
0000c0 6b c0 b5 3c d0 06 c8 3c 3c 62 45 bd 34 31 5b 3d
       0.022186479 0.024417311 -0.048189387 0.05351372
0000d0 6d 4d a5 bd 7b 30 45 bc 62 52 14 bd e2 8a 78 3d
       -0.080714084 -0.012035484 -0.03621138 0.060679324
0000e0 4c 8d 4c bd ba a8 79 bc 3f 51 7f 3c 40 87 40 bd
       -0.04993944 -0.015237981 0.015583335 -0.047003984
0000f0 ee dd 17 3d 1c a3 3d bc b3 b4 34 bd 58 6f c6 3d
       0.037076883 -0.011574533 -0.04411764 0.09689206
000100 30 d1 09 bd 49 8c dc bd 23 74 3e 3d ab 30 90 3d
       -0.033646762 -0.10768945 0.046497475 0.07040533
000110 13 e3 a2 3d b2 e0 19 bc ec 0a e9 3d 9f 9a d7 3c
       0.07953467 -0.00939195 0.11379036 0.026318846
000120 0c ea de bd be ce 03 bd 0e 45 43 3c 2f 63 f6 3d
       -0.10884485 -0.032179587 0.011918319 0.120306365
000130 51 c8 71 3d c9 de bd bb 66 18 bc 3d d3 7e 73 bc
       0.059028927 -0.0057943803 0.09184341 -0.01486178
000140 56 97 b5 3d d9 5c dd bc 27 37 42 3d ec bc 58 3d
       0.08866756 -0.027021812 0.04741588 0.052914545
000150 7d 9e 5b bd 6a 35 32 bc 0b ce ac bd 9b b6 f5 bd
       -0.053617943 -0.010876993 -0.08437737 -0.1199772
000160 f9 71 09 be c8 ee f3 3d ab f1 6a bd 43 c2 e4 3d
       -0.13422383 0.11910778 -0.05735938 0.11169865
000170 fa 7c 52 bb 1c fd 60 bd 49 e8 52 bd eb 09 98 bc
       -0.003211795 -0.054928884 -0.051491056 -0.018559417
000180 c9 f0 32 bd dd 94 aa 3d ad d9 de bd 7a 7c 19 bd
       -0.043686662 0.08329175 -0.10881362 -0.037472226
000190 96 cc a1 3d e8 75 96 bd 3a 33 7d 3c 2c 77 3d 3d
       0.0790035 -0.073467076 0.015454108 0.04625623
0001a0 f3 0c 0a 3e 57 b5 e9 3c 84 e5 4d 3d a0 e7 9c bd
       0.13481502 0.028528852 0.05026771 -0.076613665
0001b0 0f 0c e3 bc 05 1f af 3c be 1f 2d bd 94 06 44 bd
       -0.02771571 0.021377096 -0.0422666 -0.047857836
0001c0 9a 6c 9a bd e7 47 ce bc b9 60 8f bc 67 f6 d4 bc
       -0.07540245 -0.02518077 -0.017502176 -0.0259964
0001d0 84 09 66 3d bf fa fd bc 39 5a 4a 3d f2 b4 24 3d
       0.05616142 -0.031003354 0.04940245 0.040211625
0001e0 15 66 cf bc 8a 5f cf 3d 3b 34 b3 bc 05 a6 c3 bd
       -0.025317231 0.101256445 -0.021875491 -0.0955315
0001f0 32 ac 38 bc 70 8b 76 bd f0 ea 90 3d 52 84 05 bd
       -0.011271523 -0.06019157 0.07076061 -0.032596894
000200 c7 8f a7 3d 39 2a 8d 3d 2b 49 85 bd fc 0d ad 3b
       0.0818172 0.06892819 -0.06508096 0.005281208
000210 8e 13 89 bd 9f d6 c1 bc af fc e1 3d 98 cd 42 3d
       -0.06693183 -0.02366191 0.11034524 0.04755935
000220 be f7 19 bd db 3f b3 bd 9a 66 64 3d 46 b7 77 3d
       -0.03758978 -0.08752414 0.05576191 0.060477518
000230 fb 44 a8 bd d4 14 b1 bc 7e 7c b7 bd 79 c6 9b bd
       -0.08216282 -0.021616377 -0.08959292 -0.07606215
000240 e1 92 96 bc b7 74 69 bd 56 b2 3d 3c 4b 1c a2 bd
       -0.018380584 -0.056996074 0.011578163 -0.07915553
000250 d1 a4 12 3d 39 98 9f 3c ab 08 ca 3b 32 ec 4f 3c
       0.035801712 0.019481765 0.006165584 0.012690591
000260 ed 4b 84 3c 8d 87 9f 3d 61 fe e1 bd 00 03 47 bc
       0.016149485 0.07789526 -0.11034847 -0.012146711
000270 91 b3 71 3c 68 6c 49 3d d2 14 a1 bd 1d 60 f5 bd
       0.014752285 0.04917565 -0.07865299 -0.11981223
000280 7f 6b bf bd 54 ad 49 bd 93 86 32 3d c9 14 82 3c
       -0.09346675 -0.049237564 0.04358537 0.015879052
000290 73 c1 af 3d 8b 95 d1 bb 9b 9b 06 3e 36 bb e5 3d
       0.085818194 -0.0063960007 0.13145296 0.11217348
0002a0 65 b1 00 3c 96 53 8d 3d fa 1e 95 bc 1c f9 64 3d
       0.007854794 0.069007084 -0.018203247 0.05590163
0002b0 62 c7 8b 3d c6 ea 9b 3a e5 10 eb 3d 52 7f e8 bc
       0.06825139 0.001189553 0.11477832 -0.028381024
0002c0 72 a3 97 3d 73 47 8d 3c 40 f9 80 bd 2f f7 99 bc
       0.074042216 0.017245984 -0.06297541 -0.018794624
0002d0 40 ad 8e 3d f1 e8 8b bd 2a 86 f9 3d 31 ae 12 be
       0.069666386 -0.068315394 0.12183793 -0.14324261
0002e0 bd 03 4d bc 6d ec e2 bd 68 63 f1 bc 4a 7d 32 3d
       -0.012513098 -0.11080251 -0.029466346 0.043576516
0002f0 5b 31 86 bd fa 7d e5 bd a1 f4 8c bb 32 48 bb bb
       -0.065523826 -0.11205669 -0.004301623 -0.0057153935
000300 87 e3 4b 3d 83 f4 c6 bd cc 35 ee 3b 90 16 54 bd
       0.049777534 -0.09714606 0.0072695967 -0.05177933
000310 ee a9 c0 3d ba cc ee bd 64 d7 cc 3c 3c f2 84 bc
       0.094074115 -0.11660142 0.02500505 -0.016228788
000320 ba 93 40 3d e6 60 5d bd 14 ae 2c bd f5 9a c0 3c
       0.047015883 -0.054047488 -0.0421582 0.02351139
000330 9f 51 82 bc b8 ae 86 3d 63 e4 14 bd 32 e9 98 bc
       -0.01590806 0.06576294 -0.03635062 -0.018665884
000340 54 32 3c 3d 57 01 ae bc 25 5c c3 3c a8 9a d3 3c
       0.045946434 -0.021240873 0.023847649 0.025830582
000350 04 9f 5e bd 5e 5c 2e 3d 0f fd 14 bd 8e a9 9f 3b
       -0.054350868 0.042568557 -0.036374148 0.0048725074
000360 d0 e4 f9 3b cc 4b 56 bc f4 83 2d bc a5 43 d0 3d
       0.0076261535 -0.013079595 -0.010590542 0.10169152
000370 cc 24 dc 3c 94 65 a8 bc 5b 87 31 bd 14 af 99 3b
       0.026873015 -0.020556249 -0.043341976 0.0046900604
000380 bd a9 38 bc 57 ed 24 bc d9 ff af 3c bd e0 3a 3d
       -0.0112709375 -0.010066352 0.021484302 0.045624483
000390 d2 55 cb 3d b3 9f 89 3d 6b ff d5 3d ee 1f 73 3d
       0.09928478 0.06719913 0.10449108 0.059356622
0003a0 b3 24 63 3d f6 15 0c 3c 02 97 d2 3a 3e 77 2e bd
       0.05545492 0.008550158 0.0016066732 -0.042594187
0003b0 ae 7e 10 bd 7c 97 ff bb df c7 37 3d a8 fe bc bc
       -0.03527706 -0.0078000408 0.044868346 -0.023070648
0003c0 5a 83 91 3b e1 88 f3 bd 5d 0b 58 3d 39 3c a4 bd
       0.004440707 -0.11891342 0.052745212 -0.08019299
0003d0 6d 3a 0e bd 24 d7 e2 bd ff 5d 7a bd 65 9f 65 3d
       -0.034723688 -0.11076191 -0.061124798 0.056060214
0003e0 b2 2e 90 bd 31 c9 7e 3d 9a e7 fd 3c 51 7f f5 bd
       -0.070401564 0.06220359 0.030994225 -0.11987174
0003f0 46 ab fb 3d c5 6a de 3c c4 d3 48 3c 73 18 1f 3c
       0.12288527 0.027150521 0.01225752 0.009710419

RNN.bias_ih_l0 f4 [512]
000000 34 a4 52 3c 42 c1 95 3d 7f 66 86 3d fa 03 d0 3d
       0.012856532 0.073122516 0.06562518 0.101570085
000010 ca 5f c4 3d 61 9c 85 3d 58 c1 4e 3d 74 b6 88 3d
       0.09588583 0.065239675 0.050477356 0.06675425
000020 f3 63 3b 3c 18 97 50 bd 79 5a a3 3d fc 74 6e bd
       0.011437404 -0.050925344 0.07976241 -0.058217034
000030 b0 41 cf 3d c2 6d 01 3e c6 95 67 3d 5a c4 bf 3c
       0.10119951 0.12639526 0.05653932 0.023409057
000040 56 00 69 bc 03 ca 7b bd 7c 8d 21 3e 29 41 53 bd
       -0.0142212715 -0.06147195 0.15776628 -0.051575813
000050 db 1f a1 3d 24 1f 3b 3e bc 73 ae bc 22 0d 48 3d
       0.07867404 0.18273598 -0.02129542 0.04884065
000060 20 39 41 3c 85 4c 6d bc 99 e9 8e bc e9 cb 47 3d
       0.011793405 -0.014483576 -0.017445372 0.04877845
000070 36 e3 88 3d 72 cf 22 bd 10 a3 34 3d 31 68 32 3d
       0.06683962 -0.039748617 0.04410082 0.043556396
000080 58 d3 9d bd 99 8f 13 bd 11 9f 33 3d a4 af 43 3e
       -0.07706326 -0.036025617 0.04385287 0.1910997
000090 8d 89 fd 3d 91 13 09 bd 60 53 9e 3d fd be 96 3d
       0.12379751 -0.033465926 0.07730746 0.07360647
0000a0 7e 83 e9 3c a3 2c cc 3b 52 39 b9 3d f2 5d 68 3d
       0.028505083 0.006230907 0.09044136 0.05673022
0000b0 4b 73 87 3d 04 1f 29 3c ae 31 3f bc e1 f0 7a 3c
       0.06613787 0.010322336 -0.011669559 0.015316219
0000c0 af 58 9a 3d 38 03 d5 bc 7a 49 e9 3d 51 2f 03 3d
       0.07536446 -0.026002511 0.11390968 0.032027546
0000d0 e9 c7 c3 3d ea d4 dd bc d5 ed 83 3d 7c f8 db bc
       0.09559614 -0.027079064 0.06441847 -0.026851885
0000e0 e8 50 cf 3d 73 dd 47 3c cb 45 d1 3d 83 ff 11 3d
       0.101228535 0.012198794 0.1021839 0.035644066
0000f0 e9 38 b2 bc 61 1f 52 3d 4f ce b2 3c e2 bf 7f 3d
       -0.021755653 0.051299457 0.021826891 0.062438853
000100 d2 45 87 3d 77 14 ee bb 4e e3 e9 3c 11 21 fc 3d
       0.06605114 -0.007265623 0.02855077 0.123109944
000110 08 a3 0f 3b 89 72 29 3e e6 83 9b 3d 26 f1 25 3d
       0.0021917243 0.16547598 0.07593517 0.04051318
000120 b0 fe ae 3d 1f 82 55 bd 07 89 87 3d 9d 53 0c 3e
       0.085446715 -0.052126046 0.06617933 0.13703771
000130 86 49 b6 3d 52 6c 0b 3d 94 6c 49 bd eb 5f b3 bc
       0.08900742 0.03403885 -0.049175814 -0.021896323
000140 3a 9b 9c 3d 36 ef ed 3d ec 36 e2 3d 3f 82 f8 3c
       0.076467946 0.116178915 0.11045632 0.030335544
000150 92 4c 64 bc c8 b7 28 3e 10 52 84 3d 29 fc eb 3b
       -0.013934271 0.16476357 0.06460965 0.0072016907
000160 15 dd f3 bc ea f0 f7 3c 3e de e1 3c a0 6c 5e bc
       -0.029768506 0.030266244 0.027571794 -0.013575703
000170 51 82 65 3d 3a 74 b7 3d da 55 d9 3d 4a 49 97 3d
       0.056032483 0.08957715 0.10612078 0.07387026
000180 98 d7 f3 bc 4e 5f 28 3d fb 8e e9 3c 8c e9 87 bc
       -0.029765889 0.041106515 0.028510561 -0.016590856
000190 ee 3f 31 bd 42 74 16 3d 57 f8 94 3d 37 e2 07 bc
       -0.04327386 0.036731966 0.072739296 -0.00829368
0001a0 ee 72 e7 3d 2d 98 c8 3c 41 97 c8 3d 26 56 cd 3d
       0.11301218 0.024486626 0.097944744 0.10026197
0001b0 4f 0f 0a bd f7 77 b2 3d b2 1d 91 3c 0c c1 4b bd
       -0.033706006 0.08714288 0.017714355 -0.04974465
0001c0 0d e7 6b 3d fd 38 82 3d 12 a4 04 3d a0 2b a2 3d
       0.057593394 0.06358526 0.032383032 0.07918477
0001d0 fa cf e7 bc e5 83 b4 3d a2 c8 a5 3d 86 0b 5c 3d
       -0.028297413 0.088142194 0.08094908 0.053721927
0001e0 8b b4 70 3d 5d 64 3d 3c 22 70 81 ba 10 2f dd 3c
       0.05876593 0.011559573 -0.0009875337 0.02699998
0001f0 da ea 7e 3d 26 9f f3 bc 68 ca 09 3c 2f 25 83 3d
       0.06223569 -0.029738974 0.008410074 0.064035766
000200 0b 7e 9c bd 43 64 90 3d 55 0c 70 3d 4c 62 b3 3c
       -0.07641228 0.070503734 0.05860551 0.021897458
000210 12 98 8a bc 87 fd e0 3d c1 7b e5 3c 29 a7 64 3d
       -0.016918216 0.109858565 0.028013112 0.05582348
000220 22 f7 c8 3c d6 11 77 bd c9 f7 31 3d 1e eb e8 bb
       0.024531905 -0.060319744 0.043449197 -0.0071081063
000230 c9 06 0e be 53 b6 9b 3d 95 64 9a bd ab 32 d0 3d
       -0.13869776 0.07603135 -0.07538716 0.10165914
000240 52 96 b7 3c bb c3 af 3d 75 04 07 bd b0 a1 2e 3d
       0.022410545 0.085822545 -0.032963235 0.042634666
000250 ba 15 e6 3d fe 82 ef bd 2c 67 f5 bc d2 10 03 bd
       0.11234613 -0.11694907 -0.029956423 -0.031998463
000260 3e 9c 98 3d 82 85 3e 3d b5 19 21 bc be db 3d bc
       0.07451676 0.04651404 -0.009832789 -0.011588035
000270 6c 33 ff 3d bc 2e 05 bc c8 50 90 3d fa e8 a4 3d
       0.1246098 -0.008128818 0.07046658 0.08052249
000280 24 4e 4b 3d 25 da b8 3d c2 4e 1e bd e3 d8 e2 3c
       0.049635068 0.09025983 -0.038649328 0.02769131
000290 63 d1 63 3d 2b 87 b7 3d a5 c9 9e 3c 29 5b f9 bc
       0.05561961 0.08961328 0.019383261 -0.030438976
0002a0 0a ee 10 3d ec d8 78 3d 45 93 fe 3d 8b ca 83 bd
       0.03538326 0.060753748 0.12430433 -0.064351164
0002b0 0a 52 1b bd 5a 5e 22 3d ca cc 29 bd 22 92 f6 3d
       -0.037920035 0.039640762 -0.041455068 0.12039591
0002c0 a8 86 40 3c 1b 8c 85 3d 1e e2 c1 3d 91 29 b7 3c
       0.011750855 0.065208636 0.094669566 0.022358688
0002d0 1a 54 f3 3c d5 76 57 3d 78 ae 26 3d 60 91 17 bb
       0.029703189 0.05260356 0.04069373 -0.0023127422
0002e0 44 f9 9c 3d 3d 09 34 bd 4c f6 16 3c 90 f5 d5 3d
       0.07664731 -0.043954123 0.009213995 0.10447228
0002f0 3e 72 83 3d be 15 5a 3c 56 2d 2a 3c dd cb 8b 3d
       0.06418274 0.013310848 0.0103867855 0.06825993
000300 bc 51 be 3d 64 04 d9 3c 7c 78 dd bc 0f 41 c5 3c
       0.09292933 0.026491351 -0.02703499 0.024078874
000310 64 91 4d 3c 14 5e 9c bd 2b a9 ad bc 14 94 b4 3d
       0.012546871 -0.076351315 -0.02119883 0.08817306
000320 4c e7 0d bd d8 47 67 3c 17 45 85 3c c2 63 b4 3b
       -0.03464441 0.01411625 0.016268296 0.005505056
000330 e1 ae b7 bc d9 77 d5 3d 78 65 7f 3d 06 f2 18 3d
       -0.022422256 0.1042325 0.062352628 0.037340187
000340 38 80 d2 bd 7a ae 8f 3d 94 ac 88 3d 8a ea a6 3d
       -0.10278362 0.07015701 0.06673542 0.081502035
000350 04 52 78 3d ae af f2 3d 32 f7 ea 3b c9 7c 18 bc
       0.06062509 0.118499145 0.0071705813 -0.009307095
000360 5d 02 c6 bc cc 73 10 bd 95 53 44 bc f4 7e 0f bd
       -0.024171049 -0.035266683 -0.011982818 -0.03503318
000370 b6 4c 4f bd a8 65 05 3c d2 f2 8f bd c6 52 6f bd
       -0.050610267 0.0081419125 -0.07028736 -0.05842855
000380 6d 96 e1 3d 9f 6d 00 bd f6 9e 66 3d 9d 38 2f 3c
       0.110150196 -0.031354543 0.05630394 0.01069465
000390 1e 1e 8d 3d 53 fa 41 3d bf 2b b8 3d 4c 23 a5 bc
       0.0689051 0.04735787 0.08992719 -0.020158432
0003a0 65 e0 3d 3c b5 db 27 3d 46 af 15 bd 6a cc a1 bc
       0.011589144 0.040981013 -0.036544107 -0.019750793
0003b0 b1 4c 15 3d 5d 44 30 3c 8f d8 47 3d b1 1e cc bc
       0.03645009 0.010758487 0.04879051 -0.024916979
0003c0 05 de 88 bc 80 35 71 3d 32 21 8b bd 13 b4 a3 3d
       -0.01670743 0.058888912 -0.06793441 0.07993331
0003d0 0a f9 d4 bc 7c 27 b2 3d 87 d0 2a 3c cb 15 7d 3d
       -0.025997657 0.08698937 0.010425693 0.06178836
0003e0 56 42 17 3d 87 ab fc bc 3b 32 c4 3d a1 28 cf 3d
       0.036928497 -0.03084351 0.09579893 0.10115171
0003f0 17 06 eb bc c9 2b b6 bc a6 07 92 bd bd 4d 9e 3d
       -0.028689427 -0.022237675 -0.07130365 0.07729671

RNN.bias_hh_l0 f4 [512]
000000 de 31 e2 3d 66 e2 b2 3c de f3 ae 3b 98 3e 1d bd
       0.11044668 0.02183647 0.00533913 -0.038389772
000010 6b 52 ad 3d 5e 22 95 3d 3e 1b 11 3e 19 14 14 3c
       0.084629856 0.07281946 0.14170548 0.009037995
000020 4b e5 a2 ba b3 ca 82 bd d9 d3 ff 3d 21 e7 e8 3c
       -0.0012427954 -0.06386318 0.124915786 0.028430523
000030 e3 55 36 3e 00 0f 02 3e eb d5 17 3e 60 fe 86 3c
       0.178062 0.12701035 0.14827697 0.016478717
000040 db 1e 35 bc c3 17 6b bd 78 60 a2 3c 7e 01 48 3d
       -0.01105472 -0.057395708 0.01982139 0.048829548
000050 cc 26 50 bd 8f fb 2f 3e 34 fd 96 bc a3 6b 0e 3d
       -0.05081825 0.17185806 -0.018431284 0.03477062
000060 0f d6 b6 3d 39 b9 a2 3c 4e 90 5f 3d db 54 28 3b
       0.08927547 0.019863712 0.05458098 0.0025685343
000070 4a c6 df 3d 8f a7 96 3d 40 cb 33 3d c9 98 5a 3d
       0.109264925 0.07356178 0.043895006 0.053368364
000080 c6 2e 12 3c f4 41 af 3a aa 62 03 bd 4b c8 ae 3d
       0.0089222845 0.0013371096 -0.032076515 0.085342966
000090 fe 8a f3 bc f0 93 c1 3d 7b 76 af 3d df 58 44 3b
       -0.029729363 0.09452045 0.0856752 0.0029960198
0000a0 6b 54 4d 3c 83 1b e5 3d 17 a2 df 3d 5c e4 8e 3b
       0.012532334 0.11186888 0.10919588 0.0043607187
0000b0 88 dd a1 3d 66 e8 bc 3c 7c 71 5c 3c 21 d5 e8 3d
       0.07903582 0.023060035 0.013454791 0.11368776
0000c0 ea b9 0b 3e 3c 35 82 3d 87 96 ab 3d 8d a6 0a bd
       0.1364514 0.0635781 0.0837832 -0.03385024
0000d0 97 c8 37 3c 63 14 1d 3d 59 ba 88 bc 66 99 90 3d
       0.011217258 0.03834952 -0.01669042 0.070605084
0000e0 77 80 e0 3d 62 db 3d 3d 72 c3 e3 bc 51 53 38 3d
       0.10962003 0.046351798 -0.027803157 0.04500133
0000f0 13 59 52 bc e2 12 e1 3d 91 e6 2d bd 20 7d b1 bd
       -0.01283862 0.1098993 -0.042456213 -0.08666444
000100 5f 35 99 3b 50 12 d5 bd 3e 32 73 3d 48 8d 14 3e
       0.004675552 -0.104038835 0.059374087 0.1450702
000110 c6 f2 8b 3d a3 cc dd 3d b8 a8 b0 3d 26 d0 67 3d
       0.06833415 0.10830047 0.086259305 0.05659499
000120 11 9d ba bc 4b fd 9a 3d b8 07 a0 3d 20 a0 1a 3c
       -0.022779973 0.07567843 0.07813972 0.009437591
000130 28 9f 0d bd c2 51 d5 3d d6 71 7b bd de 34 6f bc
       -0.03457561 0.10415985 -0.06138786 -0.014600007
000140 cd b0 0e 3e 00 cd c3 bc 0e a4 31 bd 69 0e d8 bc
       0.13934632 -0.023901463 -0.043369345 -0.026374059
000150 19 d6 98 bd c5 db e4 3d 7c 30 b3 3c 0a f8 4c 3c
       -0.07462711 0.1117473 0.021873705 0.012510309
000160 ca 3d c8 3d b5 cc ce 3d d8 fe 19 3d 11 33 01 3d
       0.0977741 0.100976385 0.037596554 0.03154284
000170 23 c3 75 bd e9 b9 48 bc 94 9e 9d 3d c1 7c 8c 3d
       -0.06000055 -0.012251356 0.07696262 0.068597324
000180 14 58 35 bd 31 fc 8b 3d 6d da 55 3d 94 76 43 3d
       -0.04427345 0.06835211 0.05221026 0.047720507
000190 4d 3f ae 3d a9 64 62 3d b6 c9 39 3b ac c2 3d 3d
       0.085081674 0.05527178 0.002834899 0.04632823
0001a0 5d 89 57 bd 57 cf 50 3c cf c8 c4 3d 42 91 49 3d
       -0.052621234 0.012744746 0.09608614 0.049210794
0001b0 61 20 8f 3d 5e fe 2a 3d 98 90 b5 3d 9e 98 14 3d
       0.06988598 0.04174649 0.0886547 0.03627836
0001c0 d9 d0 30 3d f9 3d 95 bb 66 55 11 3d 1f 7e 17 3d
       0.043167923 -0.004554507 0.035481833 0.036985513
0001d0 db f1 a6 bc f9 a1 a9 bc ae b4 91 bd a0 4d 11 bd
       -0.020378998 -0.020707117 -0.0711454 -0.03547442
0001e0 d6 82 bc 3d 9d 5a 80 3d 2a 21 bb 3b 61 0d b7 3d
       0.092046425 0.06267283 0.0057107406 0.08938099
0001f0 31 74 16 bd 82 3d 2d 3d cb 5f ad bc 0c 9e 08 ba
       -0.036731903 0.042294987 -0.021163842 -0.0005211539
000200 4f 37 b5 bc e0 ba 10 3d 3f 48 a9 bc 36 f9 9f 3d
       -0.0221211 0.035334468 -0.020664332 0.07811205
000210 57 41 a9 3d ab fc 18 bb 83 03 ad 3c f7 d3 97 3d
       0.08264416 -0.0023343961 0.021119839 0.07413476
000220 e8 87 3b 3c 15 38 80 bd e2 bc ac 3d 14 6d 07 3e
       0.011445977 -0.06260697 0.08434464 0.13225204
000230 b8 7d f1 bd 33 e7 3b 3d c8 8b 8a bc f1 0c 3f 3d
       -0.11791557 0.045874786 -0.016912356 0.0466432
000240 58 ba db 3d c4 99 86 3d 96 12 eb bd 9f 7b b3 3d
       0.107289016 0.06572297 -0.11478154 0.08763813
000250 4a 88 f5 3c 1f 90 f5 bd b9 89 06 bd 2b 8a 00 3e
       0.029972214 -0.119903795 -0.032846186 0.12552707
000260 35 0e f6 3d 40 bf ac bc c3 ec 7f bd 26 54 06 3d
       0.120144285 -0.021087289 -0.062481653 0.032795094
000270 bd 9c 61 3d 48 e7 e8 3d 00 70 0b 3d 03 37 a1 3d
       0.055081118 0.113722384 0.03404236 0.07871821
000280 60 f4 cc 3d c2 9e 2a 3d b9 d5 6f 3c 00 b0 c8 bd
       0.10007548 0.04165531 0.014638358 -0.09799194
000290 ba 2d f5 3c dd 44 86 bd 4b d7 98 bc 6d 70 d9 bd
       0.02992903 -0.065561034 -0.018657347 -0.10617147
0002a0 fb 4e be 3d 08 98 03 bd 1e d2 06 3e 63 8a 70 3d
       0.09292408 -0.03212741 0.13166091 0.058725726
0002b0 29 a7 a1 3c a7 18 29 bd 15 13 af bb f7 e2 44 3d
       0.019733028 -0.041283276 -0.005342851 0.048068013
0002c0 95 c9 f2 bd a9 89 f6 bc 21 a2 27 3d 6e 1b 38 3d
       -0.11854855 -0.030094938 0.040926103 0.044948034
0002d0 93 a1 58 bd b8 2c d4 3d 45 11 d8 bb 5b f5 cd 3d
       -0.052888464 0.10360092 -0.0065938556 0.100565635
0002e0 02 c9 29 bd 05 4f 53 bd cb 2e ed bc 81 2d 9c bc
       -0.04145146 -0.05158903 -0.028952977 -0.019064667
0002f0 a6 17 82 3c ff 86 a5 3d 7c 86 1d bd 1b 54 c3 3d
       0.015880417 0.08082389 -0.038458332 0.09537526
000300 c2 d3 43 bc c1 1f a7 3c e0 bc 04 bc ad 74 2e 3d
       -0.011952342 0.020400884 -0.008101672 0.04259174
000310 e4 ed ae 3c 64 63 e8 bd bc e8 59 bc 19 94 3f 3d
       0.02135367 -0.11347082 -0.013300117 0.046772096
000320 34 41 6e 3d c9 f7 e7 3d 77 59 36 3d d7 0b d9 bc
       0.05816765 0.11326558 0.044518914 -0.026494903
000330 16 57 9a bb 79 c1 8a 3d 0f 78 bb 3c 13 8f 89 3b
       -0.0047100885 0.06775183 0.022884397 0.004197964
000340 3c 43 2e bd aa 32 87 bd 25 b5 12 3c 3d 17 d1 3d
       -0.04254459 -0.0660146 0.008954321 0.102095105
000350 65 aa e8 bd 7b fa e2 3c 77 8f 29 3d 36 eb a8 3d
       -0.11360625 0.027707329 0.041396584 0.08247988
000360 69 6a 07 bc 81 2b e2 3d c3 fe e9 3d ab 32 50 3d
       -0.008265116 0.11043454 0.11425545 0.05082957
000370 ee eb 76 bd bb 98 84 bd db 94 f8 bc ac f5 6a bb
       -0.060283594 -0.064744435 -0.030344417 -0.0035851998
000380 d2 80 c9 bc 28 35 3c 3d dd d3 6f 3d 0c ec e1 3c
       -0.02459756 0.04594913 0.058551658 0.027578376
000390 be cb d5 3d 94 fc ba 3d 55 aa f7 3b 23 23 2e 3d
       0.10439251 0.09130207 0.007558147 0.042513978
0003a0 04 e4 f2 3d 4b 91 02 3e 45 b9 ca 3d 9c a9 42 3d
       0.11859897 0.12750737 0.098986186 0.047525033
0003b0 5c 4b 49 3c 87 8d 7f 3d 5a 98 29 3d cb 3f de bc
       0.0122860335 0.06239083 0.04140506 -0.027130028
0003c0 1b 5f c6 3d 6e b0 67 bc d5 02 39 3d b7 d4 04 3c
       0.09686109 -0.014141185 0.045168716 0.008107356
0003d0 9c 4f 72 bb 75 72 fa 3d 18 23 01 3d 6f a4 81 3c
       -0.003697372 0.12228862 0.03152761 0.015825478
0003e0 df e3 90 bd cc 3e bd 3d 2e f3 fe 3d 27 2d 0c ba
       -0.07074713 0.09240493 0.124487266 -0.00053473044
0003f0 71 2c cd 3d bf 04 ad 3d 47 60 23 3d ba 51 b1 3d
       0.10018242 0.08448171 0.03988674 0.08658166

actor.weight f4 [5, 128]
000000 fe 8a 53 3c 6c b0 43 be f9 92 6b be f5 b6 05 3e
       0.012911556 -0.19110268 -0.23005284 0.13058074
000010 f0 76 18 3d a5 78 b9 bc 6e dc ee 3d d4 e3 c0 bd
       0.037222803 -0.022640536 0.116631374 -0.09418455
000020 24 f3 02 3e 12 1c 88 bd dc 03 d4 3d ea be 50 3e
       0.12788063 -0.06645979 0.103522986 0.20385328
000030 a2 43 6b be a9 d9 f3 bd 33 fb 18 3e 92 5a ac 3d
       -0.22975019 -0.1190675 0.14939575 0.084157124
000040 00 97 23 3d e4 e2 2e bd 5e 1d 72 3e 97 c9 08 be
       0.039938927 -0.04269685 0.23644015 -0.1335815
000050 61 9e 09 be bf 3d 53 be dd ca db 3d 09 3f bf 3d
       -0.13439323 -0.20629023 0.107320525 0.09338195
000060 d7 6a 99 3d 38 d0 1e be 96 58 d4 3d 80 af 10 3e
       0.07491081 -0.15509117 0.10368459 0.14129448
000070 73 be 7e 3e 54 36 44 3d 57 70 0d 3e 7d 00 94 bd
       0.24877338 0.047903374 0.13812385 -0.07226656
000080 e0 dd 2c 3d 0f 72 ea bd 8d 67 72 3e 40 5d ba be
       0.042203784 -0.11447536 0.23672314 -0.3639927
000090 4b fb 82 be ce 0d 4f bd 49 be ac 3d 46 b8 a0 3e
       -0.25582346 -0.050550275 0.084347315 0.3139059
0000a0 46 c3 dc 3d fc 32 e7 3d 14 b2 89 bd 93 2f 41 3d
       0.10779433 0.112890214 -0.06723419 0.04716451
0000b0 dc f1 b7 3d cb e8 81 bc 04 32 af bd 19 3c 39 3d
       0.08981678 -0.015858075 -0.085544616 0.04522333
0000c0 66 58 32 be 62 d5 90 be e9 be 40 be ba 8c 24 3e
       -0.17416534 -0.28287798 -0.18822826 0.16069308
0000d0 0c ce 07 be ba 00 be bc 2e ef 87 3d 49 b0 82 3c
       -0.13262194 -0.023193706 0.06637417 0.0159532
0000e0 ee 75 4f be b3 95 5e bc 46 bf 81 3d 8b 3a 8b bb
       -0.2025983 -0.013585496 0.06335311 -0.004248922
0000f0 f7 54 50 3e ff bc 37 be 81 7f e0 39 d2 4e fa 3d
       0.20344912 -0.1794319 0.00042819607 0.12222065
000100 5c 03 4e 3d d1 5b 53 3d b7 a4 57 3e ef 0a 6b 3e
       0.050296172 0.051601235 0.21058927 0.2295339
000110 04 89 db bd 47 89 35 be 23 e4 5d 3e 9f 2a e8 3d
       -0.10719493 -0.17728148 0.21669059 0.11336254
000120 a7 6f dd 3d 8b 2e f7 bd 7e bd 4e bc 81 6c 88 3e
       0.108123116 -0.12069424 -0.012618421 0.26645282
000130 02 d9 02 3e 64 28 fa 3d 96 5e 78 bd 17 94 83 3c
       0.12778094 0.12214735 -0.06063708 0.016061826
000140 6a 8c 86 3e 91 4a 78 3e 76 a3 e4 bd cb 45 3c 3e
       0.26279002 0.24247195 -0.1116399 0.18385999
000150 4b b0 32 3e 2b b3 44 3e b6 44 3a be ea 6e 94 bd
       0.17450063 0.19208972 -0.18190274 -0.07247718
000160 f4 86 95 3d 8f 55 8e bd 83 f5 4c bd 41 8e 65 be
       0.07301131 -0.06949913 -0.050038826 -0.22417547
000170 90 e3 34 bb b3 4e 5a be d0 cf 38 3e 0f 94 d6 be
       -0.0027601458 -0.21319084 0.18048024 -0.41909835
000180 dc 2c ba bb 65 c3 3e 3d c8 2b f8 bc 49 18 23 3e
       -0.005681617 0.04657306 -0.030294314 0.15927233
000190 74 25 cc 3d bb 69 ca bd aa 95 1a 3e 0a a3 cc bd
       0.09968081 -0.09883448 0.15096155 -0.09992035
0001a0 01 4b f7 bc ea 46 17 be 35 4a 60 3e 2f ec 2c bd
       -0.030187132 -0.14773145 0.21903308 -0.04221743
0001b0 e0 8a d6 bb 0f 6b 9c 3d e4 0b 1f be e8 4e 5a 3d
       -0.006547317 0.07637607 -0.1553188 0.053297907
0001c0 8f 6f 5c be e1 8b a4 3c 5e 4e 46 be cd 34 2b be
       -0.21526931 0.02008623 -0.19365832 -0.1671936
0001d0 93 5f 1c 3e c2 66 55 be 54 70 d6 3d c2 fe 83 3d
       0.15270834 -0.2083998 0.10470644 0.064450756
0001e0 29 e1 99 bd f7 c9 94 3d 8d f9 b5 3d 1b b0 e8 bd
       -0.07513649 0.07265084 0.08885489 -0.113617145
0001f0 3c 79 9f 3e 05 86 41 bd 5b 3d 2a 3b 9c a6 09 bd
       0.31147182 -0.04724695 0.0025976512 -0.033606157
000200 f7 ab 94 be 4c 43 e8 bd 6e c0 51 be 90 4b 3e 3d
       -0.2903745 -0.11340961 -0.20483562 0.04645878
000210 c4 22 6e 3d d3 81 cb 3c 29 b1 c8 3d e2 0c 04 bc
       0.058138624 0.024842178 0.097994156 -0.008059712
000220 53 31 ad 3c 33 6b bd bd 49 8b b4 bd 5b e9 c0 3b
       0.021141684 -0.09248962 -0.08815629 0.005887193
000230 83 54 98 bd 75 b7 6e bd 35 fa 1a be bb ad ae 3c
       -0.07437994 -0.058280427 -0.15134509 0.021323076
000240 03 7e ea 3d 77 1f 12 bd 19 dd 22 be ff 6e 5f 3e
       0.11449816 -0.03567454 -0.15904655 0.21819685
000250 c6 c1 b1 bd 9e 50 97 bd 03 d7 c0 bd f9 3f ad bd
       -0.086795375 -0.073884234 -0.0941601 -0.084594674
000260 fd 41 f1 3c 8d c1 5b bd d9 44 46 be 3b c7 82 bd
       0.029450411 -0.05365138 -0.19362201 -0.063856564
000270 2e d5 85 3d b3 c9 99 bd 10 11 51 3b fc 4b c7 3d
       0.065348014 -0.07509174 0.003190104 0.0973129
000280 e5 84 f4 3d 77 31 bc 3c ce ca c8 bd fa 9b 8c be
       0.1193941 0.022972805 -0.09804307 -0.2746275
000290 a5 08 a0 bd f1 4e cc bd d5 54 0b bd 56 7e 47 3e
       -0.07814149 -0.099759944 -0.03401645 0.19481787
0002a0 ea d0 31 be 25 74 cd bc b2 84 0a be f5 95 df bd
       -0.1736485 -0.025079796 -0.13527182 -0.10917274
0002b0 3a 39 0d be 35 75 ce bd 47 dd dd bd 0c 9f 1b 3d
       -0.13791361 -0.10080949 -0.10833221 0.037993476
0002c0 8d 55 5a bd b5 e2 0e 3d 74 c3 a7 3d ef 62 ff 3d
       -0.053304244 0.034884173 0.081915766 0.12470042
0002d0 04 db ad 3d 73 29 97 3b 11 19 48 be 8f 4a 98 bc
       0.084890395 0.0046130954 -0.19540812 -0.01859024
0002e0 79 4e 1a 3e af 73 e3 3c d7 51 68 bd 55 ef 50 3e
       0.15068997 0.027765123 -0.056718674 0.20403798
0002f0 88 37 05 3e f4 0b 18 3c c7 1e b2 bd a8 13 48 bd
       0.13009465 0.009280194 -0.086972766 -0.04884687
000300 93 e0 6c 3d dc c5 47 3c c8 b8 df bb 5d 43 27 3e
       0.05783136 0.012193169 -0.0068274476 0.16334291
000310 ef b3 0c 3e e6 28 98 3c d8 19 d2 3d e5 25 d6 3d
       0.13740514 0.01857419 0.102588356 0.104564466
000320 4b 19 57 3a ff 47 29 be d4 5c 42 3e 58 1b 9e 3d
       0.0008205368 -0.1653137 0.18980724 0.07720059
000330 db 43 aa bd 5f 86 75 bd 72 2e d7 bd 06 86 80 bd
       -0.08313724 -0.0599426 -0.105069056 -0.06275563
000340 fb 1d 07 3e a0 75 32 3e e1 63 a4 3d 61 0c a3 3d
       0.1319503 0.17427683 0.08026863 0.079613455
000350 c7 6f 29 3e f4 c9 27 3d 5e 64 04 bd 25 ad 29 be
       0.16546546 0.040964082 -0.03232228 -0.16569956
000360 44 ed c2 3b a2 5e bc 3d b1 c5 e7 bd 6f 5c 4e bd
       0.0059486944 0.09197737 -0.113170035 -0.05038112
000370 62 13 4b 3b a0 6b 0a 3e 7f 27 b0 3d b6 5b 63 bd
       0.0030986895 0.13517618 0.08601283 -0.055507384
000380 26 ca 54 3d f6 1c df 3c 53 4e 28 3d df 98 df 3d
       0.051950596 0.02723549 0.04109032 0.1091783
000390 0f 8a 20 be 14 58 a3 3e 42 5e 1a be 60 6e a4 b9
       -0.15677665 0.31903136 -0.15075019 -0.00031362753
0003a0 9c c7 68 3d 33 de a8 bc 3c 85 a2 bd c0 a1 9e bd
       0.056830987 -0.020613765 -0.07935569 -0.07745695
0003b0 8c e7 a1 3c f8 d4 11 3d e8 e5 11 3d 53 be 95 bd
       0.01976373 0.035603493 0.035619646 -0.07311692
0003c0 8c 18 85 3d d3 0e a3 3d df b8 66 3d ec 04 d4 3d
       0.064988226 0.07961812 0.05632865 0.10352501
0003d0 f9 ef 1b 3e 4e 34 13 bd ed f2 a8 3d e0 ee 51 3d
       0.15228261 -0.035938554 0.082494594 0.0512532
0003e0 13 d4 34 3e ba b0 7b bd ef f6 ee bd b2 1b 94 3c
       0.17659025 -0.061447836 -0.116681926 0.018079612
0003f0 db 6b ea 3b ac 92 2d 3d b8 e8 ba 3c 53 ec 49 bd
       0.0071539707 0.042376205 0.022816047 -0.049297642

actor.bias f4 [5]
000000 c5 6f 18 3d 80 e0 4d bd 7a 66 7c 3c 99 7f e0 bc
       0.037215967 -0.050262928 0.015405292 -0.027404593
000010 f1 4a 1c 3d
       0.038157407

critic.weight f4 [1, 128]
000000 1b 70 b0 bc 61 01 8e 3c 75 77 20 be 61 02 e7 3d
       -0.021537831 0.017334642 -0.15670569 0.112797506
000010 68 a5 b0 bd 5e 9b 0e bd c4 15 49 3e 89 fe b6 3d
       -0.08625299 -0.03481614 0.19637209 0.089352675
000020 3e f0 8f 3d ea 9f 7c bd 22 32 e6 bd 9e 99 1a 3e
       0.070282444 -0.061675943 -0.11240031 0.15097663
000030 46 0a cb bd 09 7a fa bc 41 9e 2b bd 5a c0 76 bd
       -0.09914069 -0.030575769 -0.04189897 -0.060242034
000040 ab 68 70 3d ca 3f 57 3c 40 bc d1 bd 8b ee 98 bb
       0.05869357 0.013137767 -0.10240984 -0.0046671084
000050 47 04 93 bd ab cc 60 bd 9c d5 46 3e 2c fb c8 3c
       -0.0717855 -0.054882687 0.19417423 0.02453383
000060 38 1d c6 3d 0f 77 d7 3c d0 65 ec 3d cc e2 81 3d
       0.09673542 0.026301889 0.11542857 0.06342086
000070 55 91 bd 3d a4 55 0b be f3 4b 76 bd 32 cd 43 3e
       0.092562355 -0.13606888 -0.060131025 0.19121245
000080 c4 5b 74 be 08 98 3a 3d 09 97 8b 3d c2 1e 5d 3d
       -0.23863131 0.045555145 0.06815917 0.05398441
000090 7e 4f 75 3d cb a9 f6 3d 89 07 d3 3d 27 58 da bc
       0.059890263 0.12044104 0.103041716 -0.026653362
0000a0 a4 12 81 bd dc d2 93 bc 1a 22 39 be c7 9f 17 3e
       -0.063023835 -0.018044882 -0.18079415 0.14807044
0000b0 6c 88 8f 3d 39 f2 80 bd ed 94 03 3e ad f2 28 3e
       0.07008442 -0.062962 0.1284978 0.16498823
0000c0 2b a4 d2 bd 87 d5 a8 3d d3 bb 12 be 0d 11 4a bc
       -0.10285219 0.08243852 -0.14329462 -0.012333167
0000d0 77 2e 14 be 01 d8 b0 3d 4a 18 95 3d 29 98 f3 3c
       -0.1447085 0.086349495 0.072800234 0.029735642
0000e0 9d 10 b8 3c 81 a2 ae 3c da 1a 24 3d 9b 4d a9 bd
       0.02246886 0.021317722 0.04006467 -0.08266755
0000f0 c8 a9 4b bd e2 cd 74 3d eb dd 4d 3e d2 57 4d be
       -0.049722463 0.059766658 0.20104186 -0.20053032
000100 4d 51 df 3d a6 c9 50 3d bc 51 56 3c 45 af 2d bc
       0.10904179 0.050973557 0.01308101 -0.01060087
000110 8c ff ef 3d 38 d3 40 3d 80 a1 25 3e 45 93 03 bd
       0.117186636 0.047076434 0.16174889 -0.03212287
000120 41 c4 06 be 0a 0a 0a 3d 9c fd be 3b c8 05 8c bd
       -0.13160802 0.03370098 0.0058285724 -0.0683704
000130 4e c5 2b 3e 67 f7 33 bd 3f 66 f4 bd 2d 16 cd 3d
       0.16774485 -0.043937113 -0.119335644 0.10013995
000140 c3 3f 58 be ab 49 ce bd cf a8 9d bd a4 05 83 3c
       -0.21118073 -0.10072645 -0.07698213 0.0159939
000150 1f 21 96 bd 35 91 33 3d f2 1b d7 bd 6e a2 44 be
       -0.07330536 0.043839652 -0.10503377 -0.19202587
000160 d2 b1 6a be 3e 84 58 3e 1c ea 3c 3e cc b2 5b 3d
       -0.22919396 0.21144196 0.1844868 0.05363731
000170 93 91 2b bd ef db 1d be 16 e6 6f bd e4 db 40 3e
       -0.041886877 -0.1541593 -0.058569036 0.18833882
000180 98 1e 46 be f6 a4 c9 3d d3 73 dc bd b2 2d 4e bc
       -0.19347608 0.09845917 -0.10764279 -0.012584137
000190 eb ce f2 3b b8 9d 40 be 3e 6c 91 3d 42 23 82 3e
       0.0074099205 -0.18810165 0.07100724 0.25417525
0001a0 58 76 61 3e ae 84 a1 bd ad 1f 9d 3d d2 2c 49 3d
       0.22017801 -0.07886635 0.07672057 0.04911501
0001b0 97 a3 f5 3b 97 10 0e 3e 24 de 4f bc eb 8e fa 3c
       0.007496308 0.13873516 -0.01268724 0.030585727
0001c0 4e 7e 50 3d 82 e6 bc 3d ec 48 37 3d 24 d3 08 3e
       0.050901704 0.092236534 0.044747278 0.13361794
0001d0 58 9a 08 3e 53 14 95 3b d4 9c 92 3d 7b 71 4b 3e
       0.13340127 0.004549542 0.07158819 0.19867508
0001e0 17 8d 1b 3c 34 3a eb 3d 26 50 d1 3d c1 f3 a4 bd
       0.009494088 0.11485711 0.10220365 -0.08054305
0001f0 6d 04 7f 3d 2a cd 12 3d 84 14 00 3e 32 8d 0b be
       0.06226008 0.03584019 0.12507826 -0.1362808
