Liu/test_flip/v_1/train_iter_2800.pt (torch, 472519 bytes, 9 tensors)

h0 f4 [128]
000000 af 11 7d bf 12 53 10 bd e2 2a 7f bd b5 ca 4c be
       -0.9885511 -0.035235472 -0.062296756 -0.19999202
000010 58 50 23 40 7e 4b 1e bf d0 ab 49 bf c8 c2 fc be
       2.5517788 -0.6183394 -0.7877779 -0.49367356
000020 e7 d6 6a 3f e0 65 d0 be 31 c3 40 3f c7 a1 b8 bf
       0.91734165 -0.40702724 0.7529784 -1.442437
000030 ab db f9 3d 0a 68 91 3e 03 b8 68 3e a8 28 6a 3f
       0.122001015 0.28399688 0.22726445 0.91468287
000040 dd ad 46 3f b1 b3 19 bf bf f0 a5 3f 93 76 52 40
       0.77609044 -0.6003981 1.2964095 3.2884872
000050 b2 a3 5a bf cb b9 e3 3e 25 36 3e 3e 3f 69 0d bf
       -0.8540603 0.44477686 0.18575342 -0.5523872
000060 5b 51 9b 3f ae a7 9a bf f9 4f cd bf 6a ad 97 be
       1.2134203 -1.2082422 -1.6040031 -0.29624492
000070 49 82 8b bd e6 9e de 3e d2 33 9f bf 2a a0 4a be
       -0.06811959 0.43480605 -1.2437689 -0.1978766
000080 f7 69 cc bf ad 18 25 bf 55 4b 1d c0 aa ce e8 be
       -1.5969838 -0.6449078 -2.457723 -0.45470172
000090 23 09 e5 be 5d 1b c2 bf e7 fa b6 3e 3a 29 6f 3e
       -0.44733533 -1.5164601 0.35738298 0.2335557
0000a0 ad f0 33 bf 74 6d d1 bf 98 a4 52 bf 86 80 10 3f
       -0.7028912 -1.6361527 -0.822824 0.5644611
0000b0 6c d6 00 3f cc 48 c9 3e a7 e5 10 3e 52 66 f1 bf
       0.5032718 0.39313352 0.14150105 -1.8859351
0000c0 55 f1 b8 be ef 57 17 bf 3b 4c 65 bf d7 5d 8a 3e
       -0.36121622 -0.5911855 -0.89569443 0.2702472
0000d0 14 dc fd be 7f d9 3c bf b6 b0 04 3f 0a 90 eb bf
       -0.4958197 -0.7376937 0.5183214 -1.8403332
0000e0 ae 45 10 bd ea 18 bc 3f 20 f2 05 40 05 dc 91 bf
       -0.0352227 1.4695103 2.0929031 -1.139527
0000f0 3b a3 15 bd 5d d3 c6 be 0d c6 a1 3e 50 d2 76 bf
       -0.03653262 -0.38833132 0.31596413 -0.9641466
000100 3e 85 c3 bf 9c b8 8a be 61 eb 2f 3f cd 6a 4f bf
       -1.5275037 -0.2709397 0.68718535 -0.8102234
000110 36 a4 93 bf de 63 af 3f 1e 74 fa bf c9 e6 5a 3f
       -1.1534488 1.3702352 -1.9566686 0.855084
000120 c1 ab d5 3f f9 ba c3 be 63 88 41 bf 4c c2 65 bf
       1.669304 -0.38228586 -0.75598735 -0.897496
000130 9a 2e 18 3e 02 cd 02 3f 39 ca 87 be c6 8b a7 bf
       0.14861527 0.5109407 -0.2652147 -1.308953
000140 e7 4d 00 3e 03 f2 95 3f 5d da 4b bf 63 a5 88 3f
       0.12529717 1.1714481 -0.7963007 1.0675472
000150 8a b6 1a c0 4d 9b ba 3e b9 fa 7c 3e fb 11 83 3e
       -2.4173913 0.3644661 0.24705018 0.25599656
000160 58 0c 25 bf 7f 91 92 bf a6 78 72 bf 1a 5d 8a be
       -0.6447196 -1.1450652 -0.94715345 -0.27024156
000170 ff a9 51 3f fe 0d ce be a0 8c 36 3f b0 40 1c 40
       0.8190002 -0.4024505 0.71308327 2.4414482
000180 b0 ef 07 bf 2c 40 98 bf 17 78 96 3f 54 c8 ec 3f
       -0.5310011 -1.1894584 1.1755399 1.8498635
000190 3a ca b3 bd 6d a6 85 3f 76 04 15 bf ca 1b b0 bf
       -0.08778806 1.0441414 -0.5820993 -1.375848
0001a0 f7 c5 b2 bf a4 cb 94 bf 14 6e aa 3e 57 79 5f bf
       -1.3966664 -1.1624646 0.33287108 -0.87294525
0001b0 55 40 4d 3e df 85 26 bf 28 6a a9 3f 8e d2 92 3f
       0.20044072 -0.6504802 1.3235521 1.1470506
0001c0 fb bb 03 bf 5a 3a 58 3d d4 9a b1 3f 48 c7 2d c0
       -0.5145871 0.052790023 1.3875375 -2.7152882
0001d0 6a 87 33 3f 21 5d 14 3f 8f 2f b7 3f bb c3 de be
       0.701285 0.57954603 1.4311389 -0.43508705
0001e0 db a4 44 be 6b 63 1a 3d 5d a3 96 3e c6 8a 18 40
       -0.19203512 0.03769247 0.2942151 2.38347
0001f0 ed 6c c0 3e cd 7b 01 c0 0f 03 6d be f2 dc 82 bd
       0.37583104 -2.0231812 -0.23145698 -0.06389798

c0 f4 [128]
000000 da 57 f4 3e 97 ae b5 be 15 da 7b bf b2 14 31 3f
       0.47723275 -0.35484764 -0.9837964 0.69172204
000010 94 5b e2 bf 88 a8 a8 3f 86 52 e9 bf ee 32 98 be
       -1.7684197 1.3176432 -1.8228309 -0.29726356
000020 70 c2 f5 3d ee 0b b3 3f 51 04 2e 3f 40 ec 35 c0
       0.11999977 1.3988016 0.67975336 -2.8425446
000030 24 83 6f bf 87 eb 52 3d e3 9c 0c 3f be 98 84 3e
       -0.9355948 0.051494148 0.5492689 0.25897783
000040 20 33 c4 bd 13 99 5e 3e 87 92 53 bf 1d 9b 21 40
       -0.09580064 0.2173808 -0.8264546 2.5250924
000050 cd 5f 6a bf 0d 33 20 bf fd 85 b8 bd 51 6a 9d 3e
       -0.9155243 -0.625779 -0.09009931 0.30745175
000060 08 0f d3 3f cb 3a 9e 3d c3 cb 6a be 4c 03 8e bf
       1.6488962 0.077260576 -0.22929291 -1.1094756
000070 49 e3 03 bf c6 93 a3 be 01 de 3d 3f 1d 5f be 3f
       -0.51518685 -0.3194868 0.74166876 1.4872776
000080 3b af ba bf 26 6d 28 c0 44 c4 0e bf 67 08 f1 3b
       -1.4584726 -2.631662 -0.5576823 0.007355738
000090 68 5b 38 bf ed c3 b7 3f 54 92 bb bf d1 48 13 3f
       -0.72014475 1.4356667 -1.4654031 0.57532984
0000a0 bb 91 ee be 45 b4 b8 be 3a eb a2 bf 6a 86 29 bf
       -0.4659556 -0.36075035 -1.2728035 -0.66220725
0000b0 21 0c ad 3f 85 dc a7 bd d4 90 44 bf 3a 88 8f 3f
       1.3519326 -0.08196358 -0.7678349 1.1213448
0000c0 77 76 2e 3a 1e aa 9a bd 6b 49 3b be 56 45 37 be
       0.0006655226 -0.075519785 -0.18289725 -0.17897543
0000d0 89 eb 78 bf c3 40 84 be 28 fb c8 bf 54 15 07 bf
       -0.972344 -0.2583066 -1.5701647 -0.5276692
0000e0 62 68 8a 3e ab dd bb 3f 3a 0c 26 be f0 20 c0 be
       0.27032763 1.4677023 -0.16215602 -0.3752513
0000f0 3a ce 01 c0 15 6b 20 3f 17 58 87 3f aa 3f a8 3f
       -2.028212 0.62663394 1.0573758 1.3144429
000100 db 24 8e bf 86 4b c5 3f 93 7d 2d bf 7f 51 53 bf
       -1.1104997 1.5413673 -0.67769736 -0.8254623
000110 b8 d0 f9 be ed 99 92 be 4b c3 40 3f 0d d5 89 3f
       -0.48792052 -0.2863306 0.75297993 1.0768143
000120 cf f5 01 bf 42 3a 70 bf ef 92 c1 bd 58 99 35 bf
       -0.507657 -0.93838894 -0.094518535 -0.7093711
000130 42 2a d3 bf 5c ab af 3f c7 c6 53 3f 1c 0f 03 3f
       -1.6497271 1.372417 0.82725185 0.5119493
000140 70 1c 1e 3f 6b fe 9a be 01 7c 38 bf 32 a6 32 3f
       0.6176214 -0.3027223 -0.72064215 0.69784844
000150 ed ec 95 3e 3c b7 85 bf bb 4d 9c bf 8a 94 b8 3f
       0.29282323 -1.0446544 -1.2211221 1.442033
000160 82 7c 1d 3e 2e cc 28 3f 40 ae 00 40 f0 9b ff 3e
       0.15379527 0.65936553 2.0106354 0.49923658
000170 c9 0a a2 3f 7e ea 85 3f 5c 66 5b bf 30 40 74 3e
       1.2659541 1.0462186 -0.85703063 0.2385261
000180 72 40 16 3e fe 75 a7 3d 8c 8f af be ca 20 f4 bf
       0.14673021 0.08176802 -0.34289205 -1.9072506
000190 a3 2c 20 bf 58 5f 5c bf 3b b1 06 3f ae 52 1b 3f
       -0.6256811 -0.86082983 0.5261418 0.60673034
0001a0 79 a0 5d 3d cc 59 5a bf 9f ca 78 3f d9 66 4c be
       0.054108117 -0.8529327 0.97184175 -0.19961108
0001b0 d3 94 eb be 28 96 2a 3f f8 fc f8 bf 11 3c 29 3f
       -0.4601198 0.6663537 -1.94522 0.6610728
0001c0 bb bf ed be 0b ff 76 3f d6 6f f8 3e aa 43 99 bf
       -0.4643534 0.96482915 0.48522824 -1.1973774
0001d0 45 02 da 3e fa 17 2c 3f f0 94 d6 3f b8 d2 21 3f
       0.42579857 0.67224085 1.6764202 0.63212156
0001e0 a3 77 e8 bf 0b 9f fd bc 89 08 8c 3f 0f 07 21 3f
       -1.816151 -0.030959627 1.0940105 0.62901396
0001f0 ee b5 bf bf f1 ef 02 3f 6f 59 62 3f 17 2f b9 3f
       -1.4977396 0.5114737 0.88417715 1.4467496

RNN.weight_ih_l0 f4 [512, 15]
000000 a9 13 cf 3c 2e 3e b8 3d cb 01 5d 3d c6 f1 21 3d
       0.02527793 0.08996235 0.053956788 0.039537214
000010 be 41 48 3d 46 b3 05 3e 61 d6 89 3d a0 11 a6 bb
       0.04889082 0.13056669 0.06730343 -0.005068019
000020 39 ec 10 3d 64 ac 93 bc e4 21 22 3e ba bb bd 3d
       0.03538153 -0.018026538 0.15833241 0.092643216
000030 20 d7 fc 3c 08 2d 3e bd 4a cc 88 bb bc d2 4a 3d
       0.030864298 -0.046429664 -0.004174744 0.04951738
000040 3e 99 f7 bc 69 a0 5f bd d0 84 8c 3b ba 01 1d 3d
       -0.030224439 -0.05459634 0.0042882934 0.038331725
000050 d5 ec c8 3c 0e 0f 26 bd c2 c0 65 3d 45 5f 17 3d
       0.024526993 -0.0405417 0.05609203 0.03695609
000060 90 b6 0e be ee 6a ab 3c 98 58 b5 bb 17 0e ab bd
       -0.1393683 0.020925011 -0.005534243 -0.08352297
000070 6c 70 84 3d 19 46 77 3d 63 9b 4c bc d9 54 dc 3c
       0.06466755 0.060369585 -0.012488219 0.026895927
000080 97 26 1a bd 00 ad 37 ba 0a e1 1a 3d 53 a7 85 3e
       -0.03763446 -0.0007006675 0.03781227 0.2610422
000090 6c 7f 73 3d cc 22 f2 3c 90 d2 8b 3b 91 e0 33 3d
       0.05944769 0.029557608 0.0042670444 0.043915335
0000a0 35 c7 f2 3c 61 78 c6 3c 4a f3 7b 3d b8 a4 84 3c
       0.029636005 0.024227323 0.061511315 0.016191825
0000b0 98 e5 e6 3b bf ca 13 3c f0 c2 16 3d f0 bd 54 3e
       0.0070464127 0.009020506 0.036807 0.2077558
0000c0 27 05 8b bd 80 3f 0f ba ac 25 6a 3e 86 3f 6e bd
       -0.06788092 -0.00054644793 0.22865933 -0.05816605
0000d0 22 57 0e 3d c0 83 42 3d fa da 64 3e 58 51 cb 3d
       0.034751065 0.047488928 0.22349158 0.099276245
0000e0 8b a8 92 3d c2 eb a0 3c 64 89 a0 3d c6 f7 00 bc
       0.07161053 0.019643668 0.07838705 -0.007871574
0000f0 9b 71 98 3d d1 ca 78 3c 01 7c ee 3c 4f 56 66 bd
       0.074435435 0.015185074 0.029111864 -0.056234654
000100 fb 2e 9e 3d f3 74 22 be b5 b5 99 3d f2 12 3b 3d
       0.077238046 -0.15864925 0.07505361 0.045672365
000110 c4 ea 68 bc 28 5d 0a be 82 e4 0c 3e d1 22 44 be
       -0.014216129 -0.13512099 0.13759044 -0.19153906
000120 12 33 f7 3c f3 3a e2 3d ee f2 cb 3c 0d 30 95 bd
       0.03017572 0.110464 0.024896111 -0.072845556
000130 20 9c c8 3d b1 b0 86 3d 80 b8 8f bd d7 5f b2 3d
       0.097954035 0.0657667 -0.070176125 0.08709686
000140 fd b8 3b 3e eb db 06 3d fa 82 ae bd 42 35 39 3d
       0.18332286 0.032924574 -0.085210755 0.045216806
000150 2c 88 84 3d 90 6b 02 3d ad 02 0b bd 51 9a 4f 3d
       0.06471285 0.03184086 -0.0339381 0.050684277
000160 5e 09 fb bc be 05 84 3c 16 db 42 bd 05 3a 99 3d
       -0.030644115 0.01611602 -0.047572218 0.074817695
000170 92 9e 17 3e 20 8c c5 bb e4 7d 94 3c a9 f5 fb bd
       0.14806584 -0.006028667 0.018126436 -0.12302715
000180 54 7e 52 3d 41 c1 ae bd c6 83 30 3e 4a 0e 49 3d
       0.051390007 -0.08532954 0.17237768 0.049085893
000190 e9 62 41 bc 8b 60 89 3c 82 3d b4 bd b6 a5 7b 3d
       -0.011803367 0.016769668 -0.08800794 0.06143733
0001a0 71 73 c2 3d 27 06 bc 3d ed 51 a9 bc 65 77 02 bc
       0.09494675 0.09180861 -0.020668948 -0.007963036
0001b0 82 47 f4 bc aa ff 42 3d a6 ac 07 bb d7 4c 1c 3e
       -0.029819254 0.0476071 -0.0020702272 0.15263687
0001c0 f8 41 b7 bc 48 a1 b0 3d 8a 52 e5 bd a2 2a d4 3b
       -0.022370324 0.08624512 -0.11197384 0.006474809
0001d0 ea 80 db 3d 57 dd af 3c 8e 8e 2c 3b c5 25 78 3d
       0.10717948 0.021467848 0.0026330086 0.060582895
0001e0 2c 6e 1d 3e 9e 46 47 3d 24 a0 b8 bc 56 e3 59 3d
       0.15374058 0.04865133 -0.022537299 0.05319532
0001f0 08 43 dd 3c 11 77 9a 3d c8 7d e2 3d 2b c9 86 3d
       0.027009502 0.07542241 0.11059147 0.065813385
000200 f3 9f 5b bd 8a 53 ec bc 7b 81 cf bc 4e b8 8f 3c
       -0.053619336 -0.028848428 -0.025330296 0.017543938
000210 c1 ad 36 3d cd 30 43 bd b0 6a 0b 3e e8 e8 10 3e
       0.0445993 -0.047653962 0.13614917 0.14151347
000220 d4 ff e5 bc 99 0a 50 bc e0 9d e6 bb a6 5d fc bc
       -0.02807609 -0.012697839 -0.007037863 -0.030806374
000230 e4 7d 07 3e 83 22 62 3d d6 30 42 3d 3b d5 b7 bd
       0.13231617 0.055208694 0.047409855 -0.08976217
000240 ac 88 9f 3a c6 9c e7 bd b4 d5 21 3e 6b b2 50 bd
       0.0012171469 -0.11309199 0.15804178 -0.050951403
000250 e1 70 d1 bd 15 48 b5 3c ea 8c 4e ba a0 03 fe 3d
       -0.10226608 0.022129098 -0.0007879274 0.12403035
000260 53 ed 77 bd 46 3e 33 3d 36 6b 45 3d df c6 6a 3d
       -0.060529064 0.04376056 0.048197947 0.057318565
000270 90 51 5d 3d ec 29 01 3d eb 2e 06 bc 53 46 24 3c
       0.054032862 0.03153412 -0.008189897 0.010026532
000280 e4 5a 3b 3d 57 5d dd 3a 9d 7b 57 3d 29 7b 1e 3d
       0.045740977 0.0016888779 0.05260812 0.038691673
000290 72 03 fd 3c fd bc 57 bb f0 c7 91 bd 95 1c 18 bb
       0.030885432 -0.0032919042 -0.07118213 -0.0023210396
0002a0 35 89 4d bd 00 dd 6e 3a c3 af 69 3e 4b 62 14 bd
       -0.05017968 0.0009111911 0.22820954 -0.036226552
0002b0 e5 28 b3 bd 98 60 b4 bd e3 ba cb 3d d5 79 b5 bd
       -0.087480344 -0.08807486 0.09947755 -0.08861128
0002c0 c1 e3 bd 3c d8 5d 92 3d ec 3e 99 bd f1 bd 11 3e
       0.02317989 0.071468055 -0.074827045 0.14232613
0002d0 42 c7 cb 3d 94 ff 72 3d b3 a0 ff 3d 55 6c a3 3d
       0.09950115 0.05932577 0.12481823 0.07979647
0002e0 7c 7b 92 bc e6 1a 1e 3e 68 f3 81 3d 7a db 9a bd
       -0.017881148 0.15439948 0.06345254 -0.07561393
0002f0 f0 c8 c0 3d 3f dd 85 3d 61 ec ed 3d 44 e4 95 3c
       0.09413326 0.0653634 0.11617351 0.018297322
000300 17 70 0a 3d 4f 6d a3 bc 2c a8 b1 3d 4b a8 fc 3d
       0.033798303 -0.019949583 0.08674654 0.12336787
000310 2a 49 8a 3d cd 9e c8 3d 4e 3e 5c 3d 44 8f 9d bd
       0.06752236 0.09795914 0.053770356 -0.076933414
000320 fe 45 e8 be 9a 8e ac 3c 48 92 83 bd 58 a2 81 3d
       -0.453659 0.021064091 -0.06424385 0.06329793
000330 00 2f 8d be 7e a8 93 3d 05 dc 4d 3c e0 c5 92 bd
       -0.2757492 0.07209872 0.012564664 -0.07166648
000340 6c 29 be bd 76 71 ad 3d 1e b1 71 bd 75 5a ad 3d
       -0.09285244 0.084689066 -0.059006803 0.08464519
000350 c9 f6 33 3e 34 ce 94 bc d2 e0 31 3d 15 3d e1 bd
       0.1757461 -0.018164732 0.043427296 -0.109979786
000360 e4 57 0a bd c3 85 87 bd 05 b9 fb 3d b5 4f 0e be
       -0.033775225 -0.0661731 0.12291149 -0.13897593
000370 83 2f e7 3d a8 d5 95 3d b4 3c 27 b8 59 4b 99 3d
       0.11288359 0.07316142 -3.9872437e-05 0.074850745
000380 21 28 c5 bd 8f b1 82 3b d6 5d 17 3d ed f4 a0 bc
       -0.096267946 0.003988452 0.036954723 -0.01964804
000390 d4 f5 ce bc 69 b0 ae bd 7c 79 d1 3d 74 4e 43 3d
       -0.025263704 -0.08529741 0.102282494 0.04768224
0003a0 52 26 13 3d c8 1e 99 3d 7d 05 8f bc 11 f8 14 3e
       0.035925217 0.07476574 -0.017458672 0.14547755
0003b0 34 c2 88 3d 72 6a bb 3d 10 37 a0 3d f8 32 d8 3d
       0.06677666 0.09151162 0.07823002 0.105565965
0003c0 ea c9 39 bd bf 72 dc 3c 32 0f 80 ba d6 72 2f bd
       -0.045358576 0.026910184 -0.0009770154 -0.042834125
0003d0 40 88 b9 3c 23 f6 fa bd a5 4c 12 bd bc 5c a1 3c
       0.022647977 -0.12253978 -0.035717625 0.01969754
0003e0 c3 62 2c 3e 93 a9 08 3d dd 87 8b 3d 8d fd 08 3e
       0.1683455 0.033364844 0.06813023 0.13377972
0003f0 66 30 9e bd 02 4b b3 bc 51 1e 8c 3d 3b 23 aa 3d
       -0.07724075 -0.021886352 0.0684172 0.08307501

RNN.weight_hh_l0 f4 [512, 128]
000000 b2 ec bb 3d 4f 59 f3 3d b0 fb 03 be 91 a8 c4 3c
       0.091760054 0.11882269 -0.1288898 0.02400616
000010 72 9b c4 bc 16 46 22 3e c9 fd b2 bd d8 98 fc bd
       -0.023999903 0.15847048 -0.08739812 -0.1233384
000020 06 5e 94 3a 53 d2 c1 3d 78 0d c9 bc 6b 87 a3 3c
       0.0011319525 0.09463944 -0.024542555 0.019962033
000030 af 7f ab 3c 27 7d 67 3e ad 49 35 3d e6 0b d6 3d
       0.020934908 0.22606336 0.044259716 0.10451488
000040 e8 e7 30 bc 86 cb b5 3d c4 61 7c bc c9 7b c1 bb
       -0.010797478 0.0887671 -0.0154041685 -0.005904649
000050 21 96 91 3d 91 70 5a 3d f9 ca 73 bd 37 cd 14 3e
       0.07108713 0.053330008 -0.05951974 0.14531408
000060 08 61 18 3d e9 31 01 be e9 79 13 3e 13 34 2d bd
       0.03720191 -0.12616695 0.14401974 -0.04228599
000070 94 6b 88 bd 04 75 d8 bd e7 b3 97 3c f0 1f 58 3c
       -0.06661144 -0.10569194 0.018518401 0.013191208
000080 4c 99 2d 3d d0 a5 82 3c 87 01 35 bb 2c 68 a9 3d
       0.042382523 0.015948206 -0.0027619319 0.08271822
000090 a9 1c 6e 3d 10 71 87 3d 46 8e 3e bd 52 34 88 bc
       0.0581328 0.06613362 -0.0465224 -0.01662651
0000a0 36 c7 7a bd 1b 99 c4 3d ae 01 f4 3a b0 65 7c 3d
       -0.06122514 0.09599515 0.0018616223 0.061620414
0000b0 d1 28 3c 3e ec 16 91 bd f1 e0 2b bd 1f be a4 3d
       0.18374945 -0.0708445 -0.041962568 0.08044075
0000c0 37 6c 9e 3c b8 46 a6 3d 80 5e 92 3b a4 18 38 3e
       0.01933871 0.08118957 0.0044668317 0.1797815
0000d0 8a f8 15 bd 33 a7 1d 3d 8c 0f 3a bc 59 a9 d7 3c
       -0.03661398 0.03848953 -0.011356246 0.026325868
0000e0 44 ce 05 3d 03 99 91 bc c3 66 27 3d f8 db c3 3d
       0.032667413 -0.017773157 0.040869486 0.0956344
0000f0 8c b1 b3 bd cf fc 67 3a c0 cb 4c 3d 40 68 ec 3d
       -0.08774099 0.0008849622 0.049999 0.115433216
000100 4e a0 de bb a2 c9 0c 3c 55 ee ac bc 0f 37 cb 3d
       -0.006794012 0.008592995 -0.02110974 0.09922611
000110 df e5 e4 3b ac 56 2e 3d db 67 31 3d ce 2c 9e bc
       0.0069854106 0.042563125 0.043311935 -0.019308474
000120 a5 b9 28 3c f8 40 76 3c 0a a4 0a bd 38 5f 48 3d
       0.010298167 0.015030138 -0.033847846 0.048918933
000130 5c ed df bd 80 77 8e bd 05 0b 3f bd ef c3 25 bd
       -0.109339446 -0.069563866 -0.04664137 -0.04047006
000140 2f f5 93 3d ef 06 05 be c1 0c a1 bd ff 1d 2a 3d
       0.072244994 -0.12990926 -0.07863761 0.041532513
000150 91 52 dd 3d 91 fe 83 3d e2 6f b3 bb 09 e4 25 bd
       0.10806764 0.06445039 -0.005475984 -0.040500674
000160 83 c3 53 3d df f1 65 3d 4c 89 fd 3c 7a b8 b3 3d
       0.051700126 0.05613887 0.030949257 0.087754205
000170 40 b0 40 bc 65 58 10 bd 9a d4 16 be 50 89 1a bc
       -0.011760771 -0.03524055 -0.14729539 -0.009432152
000180 79 c7 7c 3b 3a 26 c0 3d ff c9 3f 3c 0c 1c 46 bd
       0.0038571043 0.09382291 0.011705874 -0.04836659
000190 e8 17 01 3c dd dc 97 bc 25 51 0d 3e 15 62 bb 3b
       0.007879235 -0.018537933 0.13800485 0.0057184794
0001a0 9a 3d cf 3d d8 4c 99 3d 1f cf 98 bd 71 01 e4 3c
       0.101191714 0.0748536 -0.0746138 0.027832719
0001b0 47 76 49 3d bf d1 e4 3c 8a 13 a8 bd 11 64 05 3d
       0.049185064 0.027932046 -0.08206852 0.032566134
0001c0 74 a7 70 3d 55 96 4f 3b f4 cf a9 3c 06 7e 97 3d
       0.058753446 0.0031675298 0.020729043 0.07397084
0001d0 01 e8 49 3d fa 3f 67 3d 46 87 ca 3c 8c ee 9e bc
       0.04929352 0.056457497 0.024722707 -0.019400857
0001e0 40 df c2 3c 4c 2f c9 3b 33 40 88 bd d7 88 e5 bd
       0.023788095 0.0061396714 -0.0665287 -0.11207741
0001f0 f2 17 db bd f4 1b 21 3d e6 8c e0 3c a4 f4 dc 3c
       -0.106979266 0.0393333 0.027410936 0.026972122
000200 49 33 f1 bd ec cd 09 3e 62 d8 aa ba a6 7a 8c 3c
       -0.1177736 0.13457459 -0.0013034458 0.017148327
000210 76 6b 33 3d 11 4c f6 3c 63 09 f5 bc 59 95 1c 3d
       0.043803655 0.030065568 -0.029911702 0.038228367
000220 a3 21 0c bc 0e ec f6 3d d1 09 70 3d 6c 1a cd bd
       -0.0085529415 0.120567426 0.05860311 -0.10014805
000230 17 f6 35 bd 80 ad 8b 3d 42 c8 93 3d 22 1e 8c 3d
       -0.044424143 0.06820202 0.072159305 0.06841685
000240 45 d2 50 3d 51 8d 46 bd 7a 7d d8 3d e0 b1 82 bc
       0.05098178 -0.048474614 0.10570808 -0.015953958
000250 4d 6a bb bd f4 10 02 3d 55 25 f2 3c 7b 72 1e 3e
       -0.09151135 0.03175445 0.029558817 0.15473358
000260 d9 57 23 3e cb 62 5b 3d 6b 1f d4 39 0a e1 6a bd
       0.1595148 0.053561013 0.000404592 -0.05734352
000270 c6 73 ac 3d 6a fe 81 bc fe 4c 08 be f2 90 c9 3d
       0.084205195 -0.015868384 -0.1331062 0.09842099
000280 cd 8a 09 be 9c 40 4b bc 50 a0 65 be 18 15 98 bd
       -0.13431855 -0.012405541 -0.22424436 -0.07425898
000290 cc a6 1c be e0 77 2b 3d 7e 1d ca bc 42 1c f0 3c
       -0.15298003 0.04186237 -0.024672266 0.02931035
0002a0 05 d3 2d bd 03 2a e6 bd d0 66 8f 3d 40 89 00 3e
       -0.042437572 -0.11238482 0.07002032 0.12552357
0002b0 b3 eb 92 3d 94 d1 46 bd 2c d2 29 bd b9 1a 11 be
       0.07173862 -0.048539713 -0.0414602 -0.1417035
0002c0 e8 c9 30 3d 78 b5 1c 3d 51 7c 33 3d f7 33 68 bb
       0.043161303 0.038259 0.04381973 -0.0035431364
0002d0 12 b9 93 bd 7c 0e 50 3c 39 ac 82 3d 28 f5 a2 3c
       -0.07213034 0.012698766 0.06380505 0.01989229
0002e0 3e 48 99 3b c0 93 d6 3c d7 65 93 3d 02 24 95 bd
       0.0046778014 0.0261935 0.07197159 -0.072822586
0002f0 16 16 d0 bc 9c 84 60 3d 54 0f 06 3e c2 a6 bb 3d
       -0.025401156 0.054813966 0.13091785 0.09162666
000300 27 c3 63 3c e7 49 ea ba 7c f6 1b 3d 00 f1 27 3c
       0.013901508 -0.0017874808 0.038076863 0.01025033
000310 ef 3e be bd d1 a7 ca 3d 17 13 82 bd 42 b5 62 3a
       -0.092893474 0.0989529 -0.06351297 0.00086482253
000320 b6 f0 bc 3d b6 95 81 3d d3 ae 12 be 64 cd 65 3d
       0.092255995 0.06327383 -0.14324503 0.05610408
000330 95 46 f8 bd da a9 6f bd 6c ed 8e bd 8a 67 51 3d
       -0.121228375 -0.058511592 -0.069788784 0.051124133
000340 30 6f 44 3c ef 14 a6 bd 4c 6a 83 bd fc d8 9c 3d
       0.0119894 -0.081094615 -0.06416759 0.07658574
000350 72 bb aa 3c 41 20 1b 3e b9 e0 90 3c a2 05 b4 bd
       0.020841334 0.15149023 0.017685281 -0.08790137
000360 0c b6 92 3d c3 f7 33 be f2 35 fd 3b 31 c4 11 bd
       0.07163629 -0.17574982 0.007727378 -0.035587493
000370 b2 4c 8a bd a9 72 98 bd eb 43 bd 3b bd 08 93 3d
       -0.0675291 -0.07443745 0.0057759187 0.07179401
000380 74 34 06 be 63 48 b1 bd ab 4c 00 be a6 01 b5 bc
       -0.13105947 -0.08656385 -0.12529247 -0.022095513
000390 66 32 1d 3d 1f 58 64 bc 68 3a 9f 3b 91 7e 38 bd
       0.03837814 -0.013937025 0.0048592575 -0.045042578
0003a0 65 fb 2d bd 23 8b 93 bd 57 32 87 3d 8f ea f3 bd
       -0.042476077 -0.072042726 0.066013984 -0.11909973
0003b0 d4 3c 6d bb 8f df 7e 3c 9d 01 4d 3d 93 ce 26 3d
       -0.0036199586 0.01555623 0.050050367 0.04072435
0003c0 f3 ce bf bc bd 1c d9 bc d1 36 e4 3d fe 75 ea bd
       -0.02341411 -0.026502961 0.11143268 -0.114482865
0003d0 6c d3 a2 3c 6d b3 76 3d 88 af b0 3d e2 81 ef ba
       0.019876204 0.060229708 0.0862723 -0.0018272961
0003e0 d9 09 06 3c 1c 5d 74 bd 6f 57 38 3d e9 00 db 3d
       0.008181059 -0.05965911 0.04500526 0.10693533
0003f0 87 8a 2e 3d 65 b5 11 3d 29 f2 99 bd 93 6e 03 3d
       0.04261258 0.035573382 -0.075168915 0.032087874

RNN.bias_ih_l0 f4 [512]
000000 2c 27 8f bc 55 d7 19 3e a8 a5 96 bd 18 3d 30 3d
       -0.017474733 0.15023549 -0.07355815 0.043027014
000010 0b 19 0d bd 34 8d 4c 3c b6 a5 e5 3d 54 c9 b7 3d
       -0.03444771 0.012484837 0.112132475 0.08973947
000020 9a 9b dc 3d f9 01 65 3d e7 fc da 3d 13 c0 5e bd
       0.10771866 0.055910084 0.106927685 -0.054382395
000030 49 f2 19 3e 97 b2 bd 3d bb 91 53 3d 97 a5 e4 3b
       0.1503383 0.09262579 0.05165265 0.0069777477
000040 e3 90 a5 3c 6c 57 ee bc 96 71 6a bd 08 8c d1 3d
       0.020210689 -0.02909442 -0.05723723 0.10231787
000050 55 ac 50 3d 8e 30 f1 3c 26 e3 38 3d 0f 19 e6 bc
       0.0509456 0.029442098 0.0451385 -0.02808812
000060 cb 0c 58 bd 37 89 ee 3c 9c d7 86 3d fc 10 2f 3d
       -0.052746575 0.029118164 0.06584093 0.042740807
000070 5d e9 6a 3c 28 a7 38 3d 5b 27 9b bc 42 5f af 3d
       0.014337865 0.045081288 -0.018939665 0.08563091
000080 af cb cb 3c 5e b4 97 bc 2e f1 d2 3b 37 31 b8 bd
       0.024877397 -0.018518623 0.0064374423 -0.08993762
000090 11 52 df 3d 87 3d 43 bb 55 b0 db 3c e7 d9 ac 3d
       0.10904325 -0.0029791312 0.02681748 0.08439999
0000a0 b7 69 86 3c 58 24 59 3d de 8f 58 bc 52 30 81 3d
       0.01640783 0.053013176 -0.013217894 0.063080445
0000b0 9d c8 16 3e 86 6b 2c 3d 55 e8 a4 3c 6b f2 ed bc
       0.14724965 0.04209473 0.020130316 -0.029046258
0000c0 70 fd d6 3d 4c 61 de 3d 1f 08 36 3c c5 7e c3 3c
       0.10497558 0.10858402 0.011110335 0.02386416
0000d0 d3 e4 43 3d 7b 5f 3e 3b 5a f4 34 ba 97 c4 f5 3c
       0.047825646 0.002904861 -0.00069028663 0.030000968
0000e0 65 72 5b 3d 6c 2c bf 3c 18 12 c2 3d df 34 9a 3d
       0.053575892 0.023336612 0.09476107 0.075296156
0000f0 4f 6e e6 3c 5a 12 76 3d af cd ab 3d df ad e1 3c
       0.028128771 0.060076095 0.083888404 0.027548729
000100 12 bd 81 bd 51 3a d4 bc 3b 59 26 3e 73 43 d6 bc
       -0.063348904 -0.025906714 0.16244976 -0.02615521
000110 4a 5a 34 3d c4 5b c2 3c 12 23 67 3d f4 2d 5f 3c
       0.04403142 0.023725398 0.05642993 0.013621796
000120 11 68 d8 3d 37 0e ce 3b ac 4f 91 bc 53 10 60 3d
       0.10566724 0.0062883156 -0.017738186 0.054703068
000130 08 0b c1 3d af 04 4a 3d 08 0f 97 3d a1 c0 0f 3d
       0.09425932 0.049320873 0.07375914 0.035095815
000140 c5 a4 14 3d c1 62 8e bc eb 94 0c 3b 2c 3a 72 bd
       0.03628995 -0.017381074 0.0021451067 -0.05913751
000150 64 91 72 bd ec 4c 80 3b dd a9 08 bd 65 6a 89 3c
       -0.059220687 0.00391542 -0.03336512 0.016774366
000160 2f a3 9d 3d ad 62 9d 3b 21 70 7c bc e9 df d3 3c
       0.076971404 0.004803023 -0.015407593 0.025863605
000170 4d 94 88 3d ef 55 22 bd 64 5f 6f bd 6a 33 a4 bc
       0.06668911 -0.039632734 -0.05844058 -0.020044047
000180 b3 bf 10 3e 48 35 64 3d b0 01 f8 3d 53 4c c3 3c
       0.14135627 0.055714875 0.12109697 0.023840105
000190 5a d8 f3 3d ea df 30 bd 4f 4c 70 3c 27 db 3a 3e
       0.119065 -0.04318229 0.014666631 0.18247662
0001a0 65 2c 46 bc a5 64 9c 3d 08 97 d3 3d fb b5 f0 3d
       -0.012095545 0.07636384 0.10331541 0.1175346
0001b0 4c cf 8f 3d f2 14 5b 3d cb 56 9d bd ca 9c 73 bd
       0.070219606 0.053486772 -0.0768257 -0.059475698
0001c0 b2 42 8d 3d 1f 2e bc bc f3 06 3d bd 32 a0 12 3d
       0.06897487 -0.022971211 -0.046149205 0.035797305
0001d0 f0 34 15 3e 76 5a ef 3d 26 7e f4 bb 63 8e f8 3c
       0.14570975 0.11687176 -0.007461327 0.030341333
0001e0 44 b9 c6 bb fc 59 22 3e 0b 26 52 3d 13 73 7d 3d
       -0.006064566 0.15854639 0.05130581 0.06187732
0001f0 4a f3 c7 3d 91 e9 98 3d 47 c2 d4 3d 43 6b 72 3c
       0.097632006 0.07466424 0.10388618 0.014796081
000200 ef c6 00 3d 5a b6 11 bd 2b 95 b1 3d 09 c1 da 3c
       0.031439718 -0.035574295 0.0867103 0.026703374
000210 30 2e 4d bc 3f 93 63 bc ac 3a 81 bc 51 9f d1 3d
       -0.012523219 -0.013890087 -0.015775047 0.10235465
000220 8f 71 9d 3c 66 b0 f3 bb dc 14 05 3c 89 de 45 bb
       0.019219188 -0.0074368 0.008122649 -0.0030192456
000230 c2 4d 82 3b d5 28 fa 3b d5 9e 0e 3d c8 9f 8b 3d
       0.0039765546 0.007634262 0.034819443 0.06817585
000240 fb 63 a8 3d c9 00 9c 3d 42 37 88 3b 67 7d af 3d
       0.08222195 0.07617337 0.004156978 0.085688405
000250 b8 e4 8d bc 62 4f fc bd bc 42 d5 3d 13 0e 32 bd
       -0.017320976 -0.123198286 0.10413119 -0.043470453
000260 40 19 39 3d 5b 5d e3 bc cf 88 fa bc de 41 12 3c
       0.045190096 -0.027754476 -0.030582814 0.008926837
000270 ca be b8 3c 1d 42 96 3d fd 57 1e 3d ce 41 d3 3d
       0.022551913 0.07336829 0.03865813 0.103152856
000280 39 82 97 bc cb b0 9c bc 13 05 b7 3d 2d 04 e8 3d
       -0.018494712 -0.01912727 0.08936515 0.113289215
000290 81 8c cd 3d fd 5b 43 3d 92 ed 78 bd b7 d9 c1 bd
       0.100365646 0.04769515 -0.06077344 -0.09465354
0002a0 8c a0 e7 bc cb 59 5a 3d ac 78 da 3d e3 28 e3 3c
       -0.028274797 0.05330829 0.106675476 0.027729457
0002b0 52 cd 9f 3c 34 77 0d bd 6a d1 b0 3d 1f 08 16 be
       0.019507084 -0.03453751 0.086336926 -0.14651535
0002c0 38 dc bd bc 7a d5 77 bd c1 12 06 3d 1b 02 45 3d
       -0.023176298 -0.06050632 0.03273273 0.04809771
0002d0 10 70 cf 3c cc de 12 bd ab b2 77 bd 2d e2 99 bc
       0.02532199 -0.035857007 -0.060473125 -0.018784607
0002e0 ed aa b8 3d 18 e4 6d bd a5 cb 9b bd 24 18 8f 3b
       0.090169765 -0.058078855 -0.076072015 0.0043668915
0002f0 eb de 09 3c 3a 3d e2 bd 83 5c 2d 3d d7 4f d5 3d
       0.008414964 -0.11046834 0.042324554 0.10415619
000300 25 42 e4 3d a5 ff 83 3d 87 c5 40 3c fa 81 09 bd
       0.111454286 0.06445245 0.011765844 -0.03357122
000310 13 5d 80 bc 36 53 04 3d e1 c4 91 3c c9 d3 2a bd
       -0.015669381 0.03230592 0.017794074 -0.04170588
000320 d6 4a 21 3d 29 41 25 bd cc 75 a1 bd 1c ff df 3d
       0.03937801 -0.040345345 -0.07883796 0.1093733
000330 2f df 14 bd ba ed 51 3d ce a3 95 bd 62 96 38 bc
       -0.036345657 0.051252104 -0.07306634 -0.011266323
000340 1e 57 b5 3b 84 c5 9e 3c 5f 97 a9 3d 41 e9 95 3c
       0.005534067 0.019381292 0.08280825 0.0182997
000350 33 fb 66 3b 57 67 37 bd b7 20 8f 3c 75 3c d1 bc
       0.0035244941 -0.044776287 0.017471654 -0.025541523
000360 1e 47 04 3d 93 81 44 3d f6 3a 21 bd 4b f5 2f bd
       0.032294385 0.047975134 -0.03936287 -0.04295854
000370 9a cf bd 3d 7d e7 ae 39 b8 1e c5 3c 44 14 2a bc
       0.092681125 0.00033360338 0.0240625 -0.010380808
000380 64 d6 02 3e a1 1c 59 bd 15 91 46 3d 43 b8 da bb
       0.12777096 -0.05300582 0.048478205 -0.0066747977
000390 8b 1f 55 bd 66 42 86 bd b9 4e ce 3c 0c ea 3f be
       -0.052032035 -0.06555633 0.025184022 -0.18741626
0003a0 07 ea 32 bd 18 42 70 bd 0f ee b9 bd c0 c3 31 bc
       -0.043680217 -0.058656782 -0.09078609 -0.010849893
0003b0 56 8e cf 3b 19 38 b0 bd 05 e3 d1 3c 1b 6a 5f bd
       0.0063341064 -0.0860445 0.025620947 -0.05454455
0003c0 41 8a 35 be 27 ad 27 3d c2 dc 78 3d 64 ee f2 ba
       -0.17728521 0.040936615 0.060757406 -0.0018534181
0003d0 15 99 b2 bd ad 21 96 bc d8 2f fd bc be 74 32 bd
       -0.08720604 -0.018326605 -0.030906603 -0.043568365
0003e0 31 2f 80 bc 77 2e ae 3d 9b 45 3b bd 04 e5 af 3d
       -0.015647503 0.08504956 -0.045720678 0.08588603
0003f0 01 76 36 3b dd 23 20 3d 09 ea 84 bb 55 e9 c1 3d
       0.0027841332 0.039096702 -0.0040562195 0.09468333

RNN.bias_hh_l0 f4 [512]
000000 f7 84 9e bb 35 9d a0 3d 2b d4 34 3c e1 1a 24 3e
       -0.004837628 0.07842485 0.011036913 0.16025878
000010 15 fd c5 3a ad 46 9b 3c d8 63 0d 3d 1c 4e 87 bc
       0.0015105332 0.0189546 0.034519047 -0.016516738
000020 77 f1 2c 3d 55 21 3b ba 43 ec c9 3d b5 e9 40 bc
       0.042222466 -0.0007138451 0.098595165 -0.01177447
000030 ab c3 0a 3e ee 9b 23 bb ea 86 cf 3d a4 9b b9 3d
       0.13551204 -0.0024964768 0.10133155 0.09062889
000040 47 5d aa bb 6e 29 1b 3d d1 a0 85 bd 2e fe 0e 3e
       -0.005199108 0.037881307 -0.06524814 0.1396415
000050 a1 20 88 3d f7 83 4d 3b 76 df 71 3c 99 2e 3a 3d
       0.066468485 0.0031359175 0.01476275 0.045454595
000060 bf 12 38 bd 46 17 51 bd b3 0d 56 bd 0b 8a ff bc
       -0.044939753 -0.051047586 -0.05225916 -0.031193754
000070 7b 8b 7c 3c f0 81 15 3e 11 e5 f9 bc ad d6 e8 3d
       0.015414114 0.14600348 -0.030504735 0.11369071
000080 83 ab 1f 3e 11 be 67 3d 38 a9 3d bd ea 30 87 3d
       0.1559277 0.056577746 -0.046303958 0.066011265
000090 93 0a 80 bb 01 d0 27 3d 73 53 0f 3e d1 0a 6d 3d
       -0.0039075105 0.040969852 0.13996677 0.057871643
0000a0 b9 ab 84 bc 7a 8f ce 3d 0f ff 48 bd 6f 45 12 3d
       -0.016195165 0.1008596 -0.049071368 0.03571075
0000b0 fa 57 f2 3d 2a b0 3b 39 c3 b7 1d 39 01 02 b6 bd
       0.118331864 0.00017899336 0.00015041143 -0.08887101
0000c0 30 99 a1 3c 9d 94 48 3c f8 2a 3f bd a5 45 da bb
       0.019726366 0.012242463 -0.046671838 -0.0066611343
0000d0 ee cf d5 3c c2 c0 0d 3e 18 7e d2 39 91 5c de bc
       0.026100125 0.13843063 0.00040148268 -0.027143748
0000e0 53 8b 09 bb 6a fe 59 3d eb 0d 10 3e b6 42 31 3d
       -0.0020987585 0.053221144 0.1406781 0.04327651
0000f0 95 b9 6b 3d b0 54 8f bd cc d1 66 3d 27 bd 06 bc
       0.05755003 -0.06998575 0.05635242 -0.008223808
000100 a0 2f cb 3d 56 04 6f 3c 57 83 2e 3d d0 0f 82 3d
       0.09921193 0.014588436 0.042605724 0.06350672
000110 3f 7c 9b 3d b8 c5 97 3c 17 7a ac 3c 4d 92 eb 3d
       0.075920574 0.018526897 0.02105431 0.11502514
000120 1a ad 7d 3d 5c cf e3 bb 68 ad 3e bc bb 50 cf 3c
       0.06193266 -0.0069522094 -0.011638023 0.02530705
000130 cc 14 32 bd 40 7a 7a 3c 7d 46 66 3c c2 1a 8f 3d
       -0.043476865 0.015287936 0.014054892 0.069875255
000140 39 07 f6 3d 72 f7 6d bc 30 d7 b8 3d 20 62 f4 bc
       0.12013096 -0.014524328 0.09025419 -0.029831946
000150 6f d0 d1 3d 09 b5 13 bd ee 44 9f 3d fd f9 c3 3d
       0.10244834 -0.03606132 0.07776819 0.09569166
000160 fa 41 b4 bb ce f5 a7 3d 2f ab 93 3d a3 5f b3 3d
       -0.005501029 0.082011804 0.07210385 0.08758476
000170 83 d1 f3 bb cd 9c c7 3c 39 0c 0c bd 5f 0a 74 3d
       -0.007440747 0.02436676 -0.034191344 0.059580203
000180 21 5f 3c 3d 88 91 73 3d 30 b9 a1 3d cd d1 ba 3d
       0.04598916 0.05946496 0.0789665 0.091220476
000190 d2 c3 1d 3e 00 a6 13 bd 3c 26 af 3c 78 49 db 3d
       0.15406731 -0.03604698 0.021380536 0.107073724
0001a0 0e 96 47 bd 29 f0 42 3d b1 67 2b 3d fa 6d 19 3e
       -0.048727088 0.047592316 0.041846935 0.14983359
0001b0 f7 61 ea 3a ee fb 5d 3e a2 d7 8c 3d f4 63 12 38
       0.0017881979 0.21678135 0.06877066 3.49022e-05
0001c0 45 67 30 3d 6f d4 9a 3d 56 20 ac 3d 0a 61 f6 3c
       0.043067235 0.0756005 0.08404605 0.030075569
0001d0 1d 48 c2 3d ef 29 1a 3d 58 88 94 3d af b2 52 bd
       0.09486411 0.037637647 0.07252568 -0.051439937
0001e0 88 fc e9 3d 1b db 27 3d 23 e9 93 3c d4 2f b9 3d
       0.1142512 0.04098044 0.018055504 0.090423256
0001f0 14 16 b8 3d 44 61 2f 3d 9a 3c 94 3c f7 27 3e 3d
       0.08988586 0.04281737 0.018095303 0.046424832
000200 06 54 d7 3c f6 e5 80 3d ee dc 98 3d 95 92 81 3c
       0.026285183 0.062938616 0.07464014 0.015816966
000210 98 17 09 3a ae 0e 05 3d 5f f0 c0 bc 99 7e 78 3d
       0.0005229651 0.032484703 -0.023552118 0.060667608
000220 0b c0 07 3e 8a cf 84 3d fb d3 b5 bc 2b 1d 6b bc
       0.13256852 0.064848974 -0.022195807 -0.014350216
000230 71 23 ab 3d 1e 07 1b 3d c9 fb ed 3d dc 75 9d 3d
       0.08356369 0.037848584 0.1162029 0.076884955
000240 63 a8 1a 3d 15 7e d5 3d 1d 9b 3c 3d 11 5f dc 3d
       0.037758242 0.10424439 0.046046365 0.1076032
000250 c6 d3 a5 3c cf 74 53 bc b7 38 2c 3d ce e7 a8 3d
       0.020242583 -0.012906267 0.042046275 0.08247338
000260 46 a4 48 3d 34 0b 65 3c 3a 84 b1 bc ec 53 c1 3c
       0.04898479 0.013979722 -0.021669496 0.023599587
000270 4b 08 ca 39 64 34 b3 3d 2a b8 39 bc 2d b1 23 3e
       0.0003853462 0.08750227 -0.011335412 0.15985556
000280 9a 63 a9 3d 26 c3 20 3d e2 fe 45 3a b9 6a 44 3d
       0.082709506 0.039248608 0.0007552934 0.04795334
000290 e9 5f 07 bd b8 63 c4 3d 7d 36 1d bd 3b 75 56 be
       -0.03305045 0.09589332 -0.038382042 -0.20943157
0002a0 52 f3 08 bd 7b df a6 bc eb d6 1c bb c6 d3 84 3d
       -0.033435173 -0.020370236 -0.0023931812 0.06485705
0002b0 c6 e1 01 be 79 e2 97 3c 7b 83 5d bd 64 20 4a bc
       -0.12683782 0.018540608 -0.054080468 -0.012336824
0002c0 84 30 97 3d ec 08 d4 3d 72 56 80 3d 6d 1d d2 3d
       0.073823005 0.10353264 0.06266488 0.10259519
0002d0 c8 bc 6a 3d 3f cc f1 ba 39 9d b3 3d d4 af 13 bd
       0.057308942 -0.0018447711 0.08770222 -0.036056355
0002e0 da a1 5c 3d fc a8 62 3d 8a 45 1e 3d f7 e7 b9 3c
       0.05386529 0.055336937 0.038640536 0.022693617
0002f0 9a 49 3f bd 68 6b 2e bd 85 80 ca bb cc 7f f1 3d
       -0.04670105 -0.0425829 -0.0061798715 0.117919534
000300 fd 22 49 bd 38 53 23 bd 14 81 9f bc 5b a8 6a 3d
       -0.049105633 -0.039874285 -0.019470729 0.057289463
000310 d9 5f a4 3c e6 fe 67 3d 2b 6f 8f 3c 7a b5 d3 3d
       0.020065235 0.056639574 0.017509064 0.10337348
000320 fc 76 5a bc 1a 4a 46 bd 75 2d 11 bd 3a dc 5d bd
       -0.013334032 -0.048410513 -0.03544374 -0.054165103
000330 47 d9 be 3c da 2b c5 3d 7b 57 c6 bd c5 f6 6a bd
       0.023296965 0.09627505 -0.09684654 -0.057364244
000340 9f a1 03 bd 80 f0 50 3d 78 32 f9 bc b2 7e e0 3c
       -0.032136556 0.05101061 -0.030419573 0.027404163
000350 cc c8 47 3d 8c b3 ec 3c 66 43 2b bd 5e aa 8e bd
       0.04877548 0.028894208 -0.041812323 -0.06966089
000360 b5 4c 20 bd d2 a3 a7 3d 50 fc 01 bd fc 15 b2 bc
       -0.039135654 0.08185543 -0.031734765 -0.021738999
000370 4b 97 de 3c 1f 61 d9 bc 64 5d 43 3d f7 77 a7 3d
       0.027171751 -0.026535569 0.047696486 0.08177178
000380 bf 7d d4 bc 83 cd 80 3c f4 25 ee 3d 41 86 d1 3b
       -0.025938867 0.015722996 0.11628333 0.006394178
000390 b6 dc 2b be b3 ff e4 bd 0d 78 c8 3d f7 82 06 be
       -0.16783413 -0.11181583 0.09788523 -0.13135897
0003a0 80 95 a6 bc f4 84 16 3d 53 a4 14 be c2 0b 0f 3e
       -0.020334959 0.036747888 -0.1451581 0.13969329
0003b0 df a8 14 3d 6f 82 04 bd de 7e 02 bd 7b 59 68 bd
       0.03629386 -0.032350954 -0.03185927 -0.05672596
0003c0 10 7a a2 bd 7c 0f fd 3d 91 2d 72 bc eb 71 7a 3d
       -0.07933438 0.12356469 -0.014781372 0.061143797
0003d0 21 72 da bd 8a 4c e6 bc aa b9 ec 3c e4 c0 b2 bc
       -0.106662996 -0.028112669 0.028897125 -0.021820493
0003e0 52 35 1c bd eb 5f 25 bd 91 f3 be bd a8 83 0c bc
       -0.038136788 -0.040374678 -0.093238 -0.008576311
0003f0 56 a1 c8 3d 1f bc 33 3d 57 95 dc 3d e5 50 f6 3d
       0.097963974 0.043880578 0.10770672 0.12027148

actor.weight f4 [5, 128]
000000 f3 04 b1 ba 7e 23 36 3e 3b ca 49 be 48 02 e4 3d
       -0.0013505503 0.17786977 -0.19706051 0.111332476
000010 cb bd 4c be 7f 20 7b 3e 79 65 21 3d 47 46 b5 bd
       -0.19994275 0.24524115 0.039403412 -0.08851295
000020 c0 94 02 3e e5 c3 20 3d 4a 7d cb b9 70 dc 62 bd
       0.12752056 0.03924932 -0.00038812525 -0.055386007
000030 d6 2b dc 3d 8c ef 23 bc af f5 81 3c 86 b8 29 3e
       0.107505485 -0.010005843 0.015864221 0.16574296
000040 64 79 6a 3d 9f 1d ba 3d 48 c6 fa 3b 45 50 43 3e
       0.057244673 0.09087681 0.0076530315 0.19073589
000050 7f 99 8e bd 3b fd 7a 3b 7c 62 6d 3e 3c b9 75 3e
       -0.06962871 0.003829791 0.231821 0.23996443
000060 78 d1 b9 3d a9 58 a3 bd 00 84 d3 3c 0b 2e a7 bc
       0.09073156 -0.07975895 0.025819778 -0.020407697
000070 ec af 3d 3c 85 ac 45 be b7 92 d8 bb c5 bd 84 ba
       0.011577588 -0.19304092 -0.0066092866 -0.0010127357
000080 99 78 72 3e f9 2c 56 be 21 04 07 be 0f 09 f4 3b
       0.23678817 -0.20915593 -0.13185169 0.007447369
000090 12 73 12 be c7 f1 93 3c d9 98 ea bd a0 83 1c 3e
       -0.14301708 0.018059624 -0.114549346 0.15284586
0000a0 ac a0 07 3c a6 cf cc bd be 25 17 bd c3 52 bc 3d
       0.008278053 -0.10000543 -0.036901228 0.09195473
0000b0 c5 db b6 3e 42 49 88 3e b2 a2 dc bc c7 a2 74 bd
       0.35714546 0.2661839 -0.026933048 -0.05972555
0000c0 38 71 8e bb f3 ce 7c 3e 4b fa 99 be c2 04 41 bc
       -0.004346993 0.2468832 -0.3007377 -0.0117809195
0000d0 b8 70 14 be d8 a7 04 3e 87 36 89 bc d9 4e bf bd
       -0.14496124 0.12954652 -0.016749633 -0.09341211
0000e0 6c 01 29 3c 14 8c c2 3d 5d 72 c1 3d 56 9e d7 3c
       0.01031528 0.09499374 0.09445641 0.026320618
0000f0 73 6f 26 3d 0a be 41 bd 9c fe 72 bd ef c4 0a 3d
       0.04063363 -0.047300376 -0.059324846 0.033879217
000100 48 4e 03 be 30 15 4b 3e 13 9b 84 3c 9a c3 19 bd
       -0.1282283 0.19832301 0.016187226 -0.037540056
000110 09 b8 3a bd 50 2a 60 be e1 7c d1 3d d0 d9 1c 3e
       -0.045585666 -0.21891141 0.10228897 0.15317464
000120 fd dc 43 3d 88 88 e9 3b fe 5f ef 3d dc 74 21 bd
       0.047818173 0.0071268715 0.11688231 -0.039418086
000130 67 fe b2 3c d5 95 bc bd d4 71 06 be 88 34 68 3c
       0.021849824 -0.09208266 -0.1312936 0.014172681
000140 af f8 97 bd 76 d1 13 be d7 05 d5 3b 29 b7 2d 3d
       -0.074204795 -0.14435372 0.0065009403 0.042411003
000150 45 4c bb 3d 0d 27 3a 3d e4 7f 73 bd b3 b2 47 3e
       0.09145407 0.045447398 -0.059448138 0.19501762
000160 0d dc 3c 3e d5 bd ba be 56 17 56 3d b8 cb 69 3d
       0.18443318 -0.36472955 0.05226835 0.057079047
000170 01 8f f9 bd ce f9 09 be 52 d9 27 be 03 bd 08 3d
       -0.12185479 -0.13474199 -0.16391495 0.03338338
000180 58 d1 b1 3d ae 7a 1c be 56 29 84 bd a2 36 18 3e
       0.08682507 -0.15281174 -0.06453197 0.14864591
000190 e6 6e 48 be 4a ce ff 3d 36 ae 80 bc e9 bd ec 3d
       -0.19573554 0.124905184 -0.01570807 0.1155966
0001a0 c5 6c 6d be 12 44 2e 3c 6e dd 05 be a1 dd d2 3c
       -0.23186024 0.010636346 -0.1307275 0.025740447
0001b0 13 0a 82 be 53 58 17 3e 72 fc f8 3d 64 84 bf 3d
       -0.2539831 0.14779787 0.12157525 0.093514234
0001c0 99 6e 2d be 3b 59 21 3e 39 b3 92 bd 56 3e 29 3e
       -0.16936721 0.15756695 -0.0716309 0.16527686
0001d0 a0 6d 62 3d e3 ee 06 3e 42 06 28 be 76 51 3d bd
       0.055280328 0.13177066 -0.16408637 -0.046220265
0001e0 d4 50 b8 3c b8 f7 dc bd 9f ce 09 bd 1d 9d b1 bc
       0.02249948 -0.10789436 -0.033644315 -0.021681363
0001f0 69 5f ef bd 3b 57 10 3e a5 4b 08 bd 03 69 e6 3d
       -0.1168812 0.14095776 -0.033275265 0.11250498
000200 13 8c bb 3c 7d a5 77 3d 18 1d 9c bc 58 78 6a b9
       0.022893941 0.060460556 -0.019056842 -0.0002236081
000210 35 b1 3f 3e 90 4c ef 3c 4a 31 a1 3d 15 ea 2f be
       0.18719943 0.029211313 0.07870729 -0.17179139
000220 ef 35 e1 3d df a8 d0 be bd b3 72 bd 65 0d 1d bd
       0.10996615 -0.40753838 -0.059253443 -0.038342852
000230 da 50 0a be eb a9 b0 bd ee 00 05 be e5 68 3d 3d
       -0.13507405 -0.08626159 -0.12988636 0.046242613
000240 13 3a a8 3d 4e 25 b5 3d 75 3a d5 3d 43 78 f7 3d
       0.08214202 0.08845006 0.104115404 0.12083485
000250 0c d3 05 be 34 e1 42 3d e2 08 88 39 cd b4 17 bd
       -0.13068789 0.04757805 0.0002594656 -0.03703766
000260 19 d3 e1 bc 74 98 6c be 23 62 d1 bd 1d 14 3d be
       -0.02756648 -0.23105031 -0.10223796 -0.18464704
000270 dc fd 0a be 59 00 93 bc 59 82 e7 bd 10 1c 06 3c
       -0.13573402 -0.017944502 -0.11304159 0.008185402
000280 e8 87 19 3e 0b 7e 44 bd 01 41 41 3e c6 57 7c bd
       0.1499325 -0.047971766 0.18872453 -0.061607145
000290 91 47 bc 3d e8 11 01 3d 48 e3 6c be 5b b6 7d 3b
       0.09193338 0.031511217 -0.23133576 0.0038713429
0002a0 1c b7 c7 3d e0 3f 9f 3c 6e 41 18 be 2a 67 53 3d
       0.09751722 0.019439638 -0.1486871 0.051612057
0002b0 ba 29 54 3b 03 a2 c4 bb 70 bd 95 3d e8 35 0c be
       0.0032373504 -0.0060007586 0.07311523 -0.13692439
0002c0 ea 9b 25 be 2a 4a 56 bd 5f 62 e5 bd 84 5f 20 be
       -0.16172758 -0.052316822 -0.112004034 -0.15661436
0002d0 53 a9 26 3d a4 ae 22 3d 30 ad 31 3d 00 8d 06 be
       0.040688824 0.03971733 0.043378055 -0.13139725
0002e0 c9 65 be bc 90 7c f0 bc 9e fe 2c 3e eb e1 91 3d
       -0.023241894 -0.029356271 0.16894004 0.071231686
0002f0 70 f0 ca bd d9 4f 54 bc e8 01 73 3c f7 48 ed bd
       -0.09909141 -0.01295849 0.014831997 -0.115861826
000300 06 bb c6 bd 7a d3 86 bd 15 ba 81 be 74 e2 21 3e
       -0.09703641 -0.06583305 -0.25337282 0.15809041
000310 c0 9d 21 3e 03 5a e1 bd 16 be 6b be 14 50 b3 bc
       0.15782833 -0.110034965 -0.23021731 -0.02188877
000320 c1 b5 3a 3e 4c a6 e9 3c 27 53 0c be b7 16 08 3e
       0.18233396 0.02852168 -0.13703595 0.13289915
000330 2b a7 15 be 67 27 bb bd f6 60 85 be cc 02 4d bc
       -0.14614551 -0.09138375 -0.26050538 -0.012512874
000340 2b f0 a9 3d a2 e9 61 bd 56 8e 89 3d 5b 1e 7a bd
       0.082977615 -0.05515445 0.067166016 -0.061064105
000350 67 a4 c9 bc 3d 27 c2 bd 0b 59 3c 3d 4d 1a 1b be
       -0.024614526 -0.0948014 0.045983355 -0.15146752
000360 d7 32 9c bc e4 bc 02 3e 39 5e 14 be e2 09 e8 bc
       -0.019067211 0.12767369 -0.14489068 -0.028325025
000370 e7 f6 99 3c bd 2f e0 bc 8e a1 a8 bd 2c 24 c6 3d
       0.01879449 -0.027366513 -0.08233939 0.09674868
000380 6c ae 60 bd 6a ed 0f be 88 46 2f 3e 12 3c a7 3c
       -0.05485384 -0.1405541 0.1711675 0.020414386
000390 3d 26 aa bd 78 cb bb bd 0e 6d c6 bc 28 3a 9a 3e
       -0.083080746 -0.09169668 -0.024221923 0.30122495
0003a0 8d f1 69 be e1 b6 87 3d 16 91 40 bd 4d 5f 65 bd
       -0.2284605 0.06626678 -0.047013365 -0.05599909
0003b0 2a 0e fb 3a e0 a2 28 3e d0 60 dc 3c 40 2c 10 3d
       0.0019154001 0.16468382 0.026901633 0.03519845
0003c0 b3 4d 12 be 66 71 62 bd ed 80 0a 3e db a3 12 3e
       -0.14287452 -0.055283926 0.13525744 0.14320318
0003d0 71 a4 8d 3e 50 5d 61 bd 80 3e 54 3d 76 fa da bb
       0.2766452 -0.05502063 0.051817417 -0.0066826893
0003e0 6c 23 9b 3d 5c a9 d5 3d 79 14 13 be e3 82 28 be
       0.075751156 0.10432693 -0.14363278 -0.1645618
0003f0 cb 5b 08 3e 0c b1 28 bd f2 42 ee bc 3e 47 33 bb
       0.13316266 -0.04118447 -0.029084656 -0.0027355696

actor.bias f4 [5]
000000 d1 2e 34 3d 2c 4a fd bb 49 2d b5 bd 13 48 a4 bd
       0.04398996 -0.0077297892 -0.08846528 -0.080215596
000010 11 fd 4a 3c
       0.012389437

critic.weight f4 [1, 128]
000000 09 aa d2 bd a5 68 4a bb 4f 78 d9 bb 19 f8 02 3c
       -0.10286338 -0.0030885127 -0.0066366564 0.007993721
000010 f0 20 a0 bd 8e 65 a1 3d af 31 05 3c e1 85 f9 3c
       -0.07818782 0.07880698 0.008129521 0.030459346
000020 a3 dd 4d bd 23 f2 4c bd ef 45 93 3d 60 60 75 be
       -0.050260197 -0.050035607 0.07191073 -0.23962545
000030 16 af 91 bd 95 a8 24 3e c6 59 d7 bc b4 37 40 3d
       -0.07113473 0.16079934 -0.026287924 0.046928123
000040 7f 48 8e bc 4c 80 1c bd 2d 44 01 be 79 bc 28 3c
       -0.017368553 -0.03820829 -0.12623663 0.010298842
000050 f3 c7 f1 3d 90 83 86 3c 83 aa 2f bd 00 f6 df 3d
       0.118057154 0.016420156 -0.042887222 0.10935593
000060 5a f1 60 bb 2a 20 50 be dd fa 6e 3b b0 32 5b 3d
       -0.0034323544 -0.2032477 0.0036465444 0.053515136
000070 a1 1d f2 bd b5 df 20 bd ed 75 4c be b8 20 a6 bb
       -0.118220575 -0.039275844 -0.1996686 -0.0050698183
000080 9c cc e9 bd 52 b1 0f 3d e6 00 49 be 9b 93 c6 bd
       -0.11415979 0.035081215 -0.19629249 -0.09696122
000090 43 31 d9 3d 59 68 bd bd ed b9 0a be 87 bd 00 be
       0.10605099 -0.09248418 -0.13547488 -0.12572299
0000a0 32 6f 74 bd 3f ea 26 3e a4 79 a5 3d 8c 68 8b 3d
       -0.059676357 0.16300295 0.08079842 0.0680705
0000b0 88 8c 9e 3d 9b 72 2e bd 86 93 df bc 4e 86 bf 3c
       0.07741648 -0.042589765 -0.027292024 0.023379471
0000c0 38 e5 ff b9 c8 50 95 bc 38 7f 5a bd c4 23 f6 3d
       -0.0004880817 -0.018226996 -0.05334398 0.120185405
0000d0 cd 52 b6 bd 15 65 92 3d eb 6c b0 3d 7c c6 8d bb
       -0.08902512 0.07148186 0.086145245 -0.0043266397
0000e0 f4 93 f2 bc 93 3c 8a bd ab 36 d3 3d cd cb b4 3c
       -0.029611565 -0.06749835 0.103131615 0.022069836
0000f0 5d 24 45 3d e7 8e 75 be 24 85 12 3e ff 10 ef bc
       0.04813038 -0.23980294 0.14308602 -0.029182909
000100 ca da 2e 3d 4f b2 3d 3e ab 26 18 be 71 a8 97 bd
       0.042689122 0.1852505 -0.148585 -0.074051745
000110 8b 88 70 3d 62 96 01 3e e8 0b 40 3d a2 78 6a 3d
       0.058723968 0.12655023 0.046886355 0.05724395
000120 60 61 0f bb 41 9a 8e 3d 4b 03 f6 3d c8 5c 5d 3e
       -0.0021878108 0.06963015 0.12012347 0.21617424
000130 b3 1c a5 3c 71 0c 6f bd c4 99 1c bd 26 fa 79 3d
       0.020155286 -0.058361474 -0.03823258 0.061029576
000140 54 2a 6c be 22 82 83 3d f3 32 0b 3c 23 c9 50 bd
       -0.23063022 0.06421305 0.008496034 -0.05097307
000150 19 c8 09 3e 4a 5d 05 3e c5 0c 01 be 02 b1 ab bd
       0.13455237 0.13023868 -0.12602527 -0.08383371
000160 5a 56 2a 3e c7 cc 85 3d b3 3f 5a bd 78 4e 88 bc
       0.16634503 0.06533199 -0.053283405 -0.01663898
000170 5e ac 9c be f1 02 c7 3d 24 04 32 3e 01 d5 b3 bd
       -0.30600256 0.09717358 0.17384392 -0.08780862
000180 01 44 3e be ed 59 63 bd 3e b4 78 3d 6e e1 16 3d
       -0.18580629 -0.05550568 0.060718767 0.03683608
000190 8d 78 23 3e ff cb fc 3d ce 3d 89 3d 41 99 9e 3d
       0.15963955 0.12343597 0.067012414 0.077440746
0001a0 94 ce 3e be 34 05 72 3d a8 9f ad 3b 11 9b 86 3d
       -0.18633491 0.059086993 0.0052985735 0.06572545
0001b0 e4 6f b5 3d 41 e3 01 3e d8 52 ef bd 24 9a 43 bc
       0.08859232 0.12684347 -0.11685723 -0.011938605
0001c0 ca ac 1c 3e e2 ff 6d bd 2b 14 a1 bd b6 04 d7 3d
       0.15300289 -0.058105357 -0.07865175 0.104989454
0001d0 65 5d 21 bd a7 06 b2 ba 90 b9 06 be 5d c7 9b bc
       -0.03939571 -0.0013582305 -0.13156724 -0.019015962
0001e0 c2 eb 3a 3d 34 91 6e 3c ef f1 c1 3b b2 61 ae bd
       0.045634992 0.014560986 0.0059187333 -0.08514728
0001f0 8a 03 62 3d 1c 69 c3 bc 29 2b ed bb 67 25 e3 bd
       0.055179156 -0.023853831 -0.007237811 -0.11091118
