Liu/test_var/v_2/train_iter_19600.pt (torch, 602311 bytes, 9 tensors)

h0 f4 [128]
00000000: 54ab 913f 5580 f23f 1c5c e13f 01a3 b13f
00000010: e231 a4be 7ad9 c73e 6b50 53bf 41e2 543f
00000020: 1f7a 7abe c638 cd3f 374f 133f a581 c23e
00000030: d2b4 0340 fa0b a5bf a585 483f e9d3 933f
00000040: 781c 02c0 4570 f3be 2704 ca3e d5bb 143d
00000050: 0827 d3bf e21b 63bf 4759 afbe c63e c33e
00000060: 7e99 973f dc5c 9abf 6c74 523e d63d 5f3f
00000070: b530 7f3f c754 793f b61a 4abf 9ceb 09c0
00000080: 1020 c6bf 7e69 c5be f8b6 a3bf 1e23 1d40
00000090: 74ff c9bf 09ff 01c0 20cb abbe 604c 98bf
000000a0: 39cc 72bf b72c bd3e 7389 353f 3512 8c3e
000000b0: c144 4ebf d352 4abf 6fd4 653f 05c7 2d3f
000000c0: b6a9 78bf 9039 643e af2c b9bf ab7a cf3e
000000d0: 026e 5bbc 06a7 ce3f 1679 c8be 60c9 383f
000000e0: 2e78 b03f 3d43 b4bf c7e4 8f3f 37a1 3e3f
000000f0: 7fd3 a4be bac9 b53f 3a79 50bf 4acc c6bf
00000100: ef76 8a3e 69c5 013c 0258 953f 89ce f1bd
00000110: 4589 bb3b 985f edbd 231a 98bf dc79 40c0
00000120: 5b1a c8bd bbee 6e3f 9a10 67bf a354 00be
00000130: 85d2 803f 7235 363e a136 32bf 92c9 2b3f
00000140: 0b97 ca3e 805a eb3f aca2 bcbf dfb9 5dbc
00000150: 4cec 08c0 c950 d8bf f269 87be a78e 443e
00000160: d723 f1be 2ade 0c3f 4012 e33d b4b7 4fbf
00000170: dbf1 01bf 5cbb 983f 3d78 343f a0ad 2cbf
00000180: a072 8d3f 1ab0 47bf 74c7 493f 5b20 91be
00000190: 1a17 37bf 5225 2440 231d bfbd 9c8b 88bd
000001a0: b506 21bf 0c25 753f af47 48bf db0f 383f
000001b0: 3a82 993f 1b92 10bf d123 97bf 3ec7 863f
000001c0: 386b bbbf 68b1 403f d80b d8bf d5da 663f
000001d0: 0099 25bf 17aa 023f ffab 403f d48e 69be
000001e0: ef41 35bf e476 e13d ef93 0b3f 8756 5fbf
000001f0: e407 0bbf 9688 c2bf ac32 c43e b5a2 a33e
1.138041 1.8945414 1.7606235 1.387787 -0.32069308 0.3903311 -0.82544583 0.83157736
-0.24460648 1.6032951 0.5754275 0.37989536 2.0579114 -1.289428 0.78328925 1.1549045
-2.0329876 -0.47546592 0.39456293 0.036311943 -1.6496286 -0.8871442 -0.342478 0.3813383
1.1843717 -1.2059588 0.20552224 0.8720373 0.99683696 0.97394985 -0.7894701 -2.1550055
-1.5478535 -0.38557047 -1.2790213 2.4552684 -1.5781083 -2.031191 -0.3355341 -1.1898308
-0.9484287 0.36948177 0.70912856 0.2735764 -0.8057366 -0.7903263 0.8977727 0.67881805
-0.9713396 0.22287583 -1.4466761 0.40523276 -0.013392927 1.6144722 -0.3915488 0.72182274
1.3786676 -1.408302 1.1241692 0.74464744 -0.3219261 1.4202187 -0.8143498 -1.5531094
0.27043864 0.007920601 1.1667483 -0.118069716 0.005723151 -0.11590499 -1.1882976 -3.0074377
-0.09770652 0.93333024 -0.90259707 -0.12532286 1.0064245 0.17793825 -0.6961461 0.67104447
0.39568362 1.8386993 -1.4737144 -0.013533085 -2.1394224 -1.6899654 -0.26448017 0.19195043
-0.47097656 0.55026495 0.11087465 -0.81139684 -0.5075967 1.1932178 0.7049597 -0.6745243
1.1050606 -0.78003085 0.78819966 -0.28344998 -0.71519625 2.5647779 -0.09331729 -0.066672534
-0.6290086 0.95759654 -0.7823438 0.71899194 1.1992867 -0.5647294 -1.1807805 1.0529554
-1.4642096 0.752707 -1.6878614 0.9017766 -0.64686584 0.51040787 0.75262445 -0.22808391
-0.7080373 0.11009005 0.54522604 -0.87241405 -0.54308915 -1.5197933 0.3831991 0.31960073

c0 f4 [128]
00000000: cc4d 52bd 9d23 a0bf f03d 073f a5fc 2c3f
00000010: 7847 31bf b9b3 45bf f4af c9bf c02c 5abe
00000020: 8816 80bf 7fd1 2cbf 33bc d9bd 228a f7be
00000030: 97c4 94bf 41bd c93f 82d0 2c3f 143e 22bf
00000040: 855b 773f 2d94 73be a456 413f 3296 1640
00000050: defd 08bf dd4c e93e 602d 98bf a776 d8be
00000060: 89b0 26bf 51f8 f53e c450 38bf 9078 4c3d
00000070: 3fb2 17c0 768d 4bbf 751f 4a3f 0bd5 eb3f
00000080: 0c8c 9d3d 2c12 cc3e 6e0e da3e 48f7 25c0
00000090: 54f1 8e3e 7251 2d3f f880 053e d7c5 bebe
000000a0: a578 57bd 4164 6fbe bf70 8f3f 105d 6a3e
000000b0: 0d3f f0bf bf52 21bf 6517 573f daa3 04c0
000000c0: 074f 853f 5552 2c3f 6675 5e3f 2452 02bf
000000d0: 2c7c 613e eb09 fe3e 1e15 a13e d217 b63e
000000e0: 8cd7 ab3c 93a9 1d40 3a44 f3bd dccd 91bd
000000f0: ca41 72bf e9e6 d93e f83c 11c0 4c17 fcbf
00000100: b90b fabe b7b4 0dbf 8b2b b3bf 0666 15c0
00000110: 116a 523f 9ca3 ae3f cb98 2ebf ecd0 4e3e
00000120: 5ba5 4cbf 37d3 a33e b2b5 6abf 050e 3bbf
00000130: 154f a73e f236 71bf d0b3 b83d cfb2 63bf
00000140: 4d1a 1b3f e8bf c03d 1059 92bd 0a47 9ebf
00000150: 1206 98bf bda6 6bbf 271a a6bd 6125 473f
00000160: 0f8c 0440 bd91 8abf 340a 6dbe 7b26 243f
00000170: 045c 89be 8501 25c0 7ce5 833e 04e6 d8be
00000180: ea29 7e3f f068 c03e 2c73 f5bd 976e 4bbe
00000190: 1a9c fdbb bc37 d13e a2ac b2be 72de 9e3f
000001a0: a639 203f 19e6 1fbf 1ae8 76bf 584c 663f
000001b0: 69dc d9be 123d 07bf ac6c b2be 7822 3c3e
000001c0: 67b2 cc3d 9882 c5bd 2947 3a3f cc81 423f
000001d0: 958f 1ec0 39d6 673f 6148 4540 a11e f6bf
000001e0: cac1 4ebd 608a 273f 8b76 14c0 38c6 6b3f
000001f0: bcde cbbf 13ce a5bd e97d 35bf 4503 cebf
-0.051343724 -1.2510868 0.52828884 0.67573005 -0.6924968 -0.7722736 -1.5756822 -0.21306133
-1.0006876 -0.67507166 -0.10631599 -0.48347574 -1.1622494 1.5760881 0.6750566 -0.63375974
0.9662402 -0.23786993 0.7552283 2.3529172 -0.5351237 0.45566455 -1.1888847 -0.42278025
-0.6511312 0.48041013 -0.7199824 0.049919665 -2.3702543 -0.7951273 0.7895425 1.842439
0.076927274 0.39857614 0.42589134 -2.5932178 0.27918494 0.677024 0.13037479 -0.37260315
-0.05260529 -0.23378088 1.1206282 0.22887063 -1.8769242 -0.63016886 0.8402007 -2.0725007
1.0414742 0.6731313 0.86897886 -0.50906587 0.22020024 0.49616942 0.31461424 0.35565048
0.020976804 2.463475 -0.118782476 -0.07119343 -0.94631636 0.42558983 -2.2693462 -1.969461
-0.4883707 -0.55353874 -1.3997663 -2.334352 0.82193094 1.364368 -0.68201894 0.20196885
-0.7993981 0.31997082 -0.91683495 -0.7306827 0.32677522 -0.94224465 0.090186715 -0.88944715
0.60587007 0.09411603 -0.071458936 -1.2365429 -1.1876853 -0.920513 -0.08110457 0.7779141
2.0710485 -1.0825726 -0.23148423 0.64121217 -0.26828015 -2.5782177 0.2576102 -0.42362988
0.99282706 0.3758006 -0.11984858 -0.19866405 -0.007739556 0.40862834 -0.34897333 1.2411635
0.62587965 -0.62460476 -0.9644791 0.8996024 -0.42550972 -0.5282756 -0.34848535 0.18372524
0.09994965 -0.096440494 0.7276483 0.75979304 -2.4775136 0.9056125 3.0825427 -1.9228097
-0.05047778 0.6544552 -2.3197353 0.9209933 -1.5927348 -0.08095946 -0.7089525 -1.6094748

RNN.weight_ih_l0 f4 [512, 15]
00000000: 7e64 123e 7671 343e 5d7b 523d 00d3 a1ba
00000010: 22cb 3b3d b6b2 db3d 5c0b 023c 4e0d 3a3d
00000020: d5a7 3d3e 9882 05bd 4e9f 573e 209d a8bc
00000030: 57bc 9a3b 329c 9ebb 435e 153d 3758 0d3d
00000040: 51f4 143c ea7a 49bd 74d5 c3bc b8d7 993c
00000050: e13f f53c bb05 f03d d313 af3d ea97 a53c
00000060: f624 193c dfff 7b3d 3fff b83c 5c25 be3d
00000070: 5bf1 c6bd a229 083d e63c d4bc 1b2b c03d
00000080: e55a 3dbd fec6 2dbd a106 46bd 3771 543d
00000090: 5c6f 8bbb 30dd c7bc 7587 4d3c 5141 9e3d
000000a0: 3f0d 40bd e0ad 273e 2cec a43c dbd1 843d
000000b0: 26ca 8e3c d3a0 063e 6daa bfbd 0a03 4c3d
000000c0: 0060 f3ba a1df a4bd 580d ad3e 8bc8 16bd
000000d0: 46e9 febc 73b0 7b3d d5e5 893e 9840 5fbd
000000e0: d9c5 0cbc ce0d a03d 0091 513c 8e51 bc3c
000000f0: 767b 593d 1ee4 983e b121 93bd 9856 403c
00000100: a8c2 693c ab46 bfbd edf1 acbd a44f db3c
00000110: a975 3d3e a522 1dbc f854 8b3e cc9c 973d
00000120: 986b 363e 2c80 e73e f3a1 aebc dcb4 13bd
00000130: 673c 77be c475 d63b 15f9 0cbd f8a6 583c
00000140: 1bb0 233e c9f2 e9bd 5b12 953d 0d1f bbbb
00000150: db90 813d a151 0dbd 94e8 3fbd 4e68 c73d
00000160: c553 b43d 5a70 40be ca4e 6dbc 5cb8 a8bd
00000170: c36c da3c 0c4e 70bd 50e8 8abb 2158 3a3d
00000180: 86a6 f73b 3dd7 15bd 96f5 bebd 0a0c f43d
00000190: faf7 cd3d 1aa5 583d 7c7b f23c 5419 edbc
000001a0: 02da afbd 57dc 183e 1a48 473e 1da4 8b3e
000001b0: 1da2 acbd 5dce ab3d a56b 003b b137 ec3d
000001c0: 1f12 7cbd b4b1 e73d 1da7 823d 12da c93e
000001d0: 70ad 32be c977 19bd 4b90 abbd bd9d eb3d
000001e0: 466b b53d 14f8 073f dfcb 473e 82cf 5d3d
000001f0: 180a a13c c7bb 28be b3d9 e93c 36e2 613d
00000200: 7551 153f dd19 6dbe b32d b93e ae70 853e
00000210: 1a0b 2cbd 3274 983b 27cf 7d3d aa15 423e
00000220: 0ba8 ca3d 57ea c33d 249f 86bc c47e b1bd
00000230: 8b7a cdbc 869e 5c3e 9113 9d3d 17ba 2b3e
00000240: 00b2 343e 77c7 233e d722 ba3d b0b5 73bd
00000250: 0f6a ec3c 3017 2e3e 6e54 94bc 735f 843d
00000260: 9efe 073f a056 de3b a461 aebd 16ca 763d
00000270: a121 e23d 5048 57bc 3ca8 9d3d 9879 893d
00000280: c8f0 aa3d 67aa 02bd d5ab 1d3e a79a 80bd
00000290: 68fb 18bc 458c f03c c3cb 14be 71a9 1c3e
000002a0: 5882 0cbd 5c96 7fbd 4c91 23bc 3d7f 53bd
000002b0: 60dc 9fbd cb93 203d 30a1 203c 27f8 9bbd
000002c0: 2dc1 8e3d 990d 8b3e b9d4 033e 6d02 c13c
000002d0: 1224 f2bc 6879 7c3e 09f3 0a3d b616 423d
000002e0: d1ef b0bd 4e1f 063e b982 303d a616 84bd
000002f0: cac3 613e d2b9 343e e91e 403e 6d62 d33d
00000300: ffda 363d da62 febc a5d0 ee3c 85c6 7a3e
00000310: 91b8 abbd d1c3 883c 740f 96bc d0ac 99bd
00000320: 78a5 c03d 7ee7 003e 8365 82bd 9d4a bb3d
00000330: 1b5f 033d 8c1e bb3c 0ac5 213e 228e 8d3d
00000340: 5102 4abd 94cb 7d3e c147 ea3d 531b d83a
00000350: 9cf6 b33d fafb 413d 6010 053d a872 b23d
00000360: f6a3 033e 094f 823d 97a5 c1bd fffd 5b3d
00000370: a23e 5abd e406 1839 d8f0 093c d37d ff3c
00000380: aa3f 803e 33d4 b73d 2859 093c b06a ff3b
00000390: c6fe 483d 0edd 683d d641 133e b61c 4a3e
000003a0: f88c 18bc 031e a1bd 6892 de3d b791 84bc
000003b0: a2b5 3b3c 820d f2bc b4ed 093e 1317 443d
000003c0: 5a7c 57bd 9ed1 58bd e6a9 a33e e06e d03c
000003d0: 9913 66bd f6aa 643f 0262 913d 90aa 393c
000003e0: fa01 403e 71d3 633f 0506 a83d c476 5e3d
000003f0: cf5c b23b d4a5 533c f6b1 1ebc 09c9 d23d
0.14296147 0.17621407 0.05138718 -0.0012346208 0.04584802 0.10727446 0.007937279 0.045422845
0.18521054 -0.032595247 0.21056864 -0.020582736 0.004722159 -0.0048403973 0.036466848 0.034507956
0.009091453 -0.049189486 -0.023905493 0.01877962 0.029937686 0.11719843 0.08548703 0.02021404
0.009347191 0.061523315 0.022582648 0.092844695 -0.09714004 0.03324283 -0.025907945 0.09383222
-0.046229262 -0.042426102 -0.048346166 0.051865783 -0.0042552184 -0.024397463 0.0125445025 0.07727302
-0.046887632 0.16374922 0.020132147 0.06485339 0.017430376 0.13147287 -0.09358678 0.049807586
-0.0018568039 -0.08050466 0.33799243 -0.036812346 -0.031117093 0.061447572 0.2693316 -0.05450496
-0.008592092 0.07815133 0.012790918 0.022988107 0.053096257 0.2986154 -0.071841605 0.011739396
0.014267601 -0.09339651 -0.08444581 0.026771374 0.18501915 -0.009590779 0.27213264 0.074029535
0.17814481 0.45214975 -0.021317458 -0.036061153 -0.24144135 0.0065448005 -0.03441723 0.013223402
0.15985148 -0.11423261 0.07278892 -0.0057104887 0.06326457 -0.034501676 -0.046852663 0.097366914
0.0880504 -0.18792859 -0.014484117 -0.08238289 0.02666319 -0.05866818 -0.0042391196 0.045494203
0.007557693 -0.03658222 -0.093241856 0.11916359 0.100570634 0.052891828 0.029599898 -0.028942741
-0.085865036 0.14927803 0.19461098 0.27273646 -0.08429358 0.0838897 0.001959541 0.1153406
-0.06154072 0.11313191 0.063795306 0.39424187 -0.17448974 -0.03746775 -0.08377131 0.115046956
0.088583514 0.5311291 0.19511364 0.054152973 0.019658133 -0.16477881 0.02854619 0.055147372
0.5832742 -0.23154397 0.36167678 0.2606253 -0.042002775 0.0046525234 0.061965134 0.18953577
0.09895333 0.09566181 -0.016433306 -0.08666757 -0.025082847 0.21544847 0.076697476 0.16770206
0.17646027 0.15994059 0.090886764 -0.059499443 0.028859166 0.17001033 -0.018106665 0.06463518
0.5312289 0.006785229 -0.08514717 0.060251318 0.110415705 -0.013139799 0.07698104 0.06712645
0.08346707 -0.03190079 0.1539758 -0.062794976 -0.009337284 0.02936376 -0.14530854 0.15299012
-0.034303993 -0.062399253 -0.009983372 -0.051635016 -0.07805705 0.039203446 0.009804055 -0.07615691
0.06970439 0.27158812 0.12874116 0.023560727 -0.029558215 0.24655688 0.033923183 0.04738494
-0.08639491 0.1309788 0.043093417 -0.06449632 0.22047344 0.1764901 0.18761791 0.103215076
0.044642445 -0.031052995 0.029152224 0.24489792 -0.083848126 0.016694935 -0.018317915 -0.075036645
0.09406561 0.12588307 -0.06367018 0.09145091 0.03207312 0.022841714 0.1579782 0.06911875
-0.049318615 0.2478469 0.11439467 0.0016487635 0.087872714 0.047359444 0.03248632 0.08713275
0.12855515 0.06362731 -0.09455412 0.053709026 -0.053282388 0.00014498417 0.008419238 0.031187927
0.25048572 0.08976021 0.008383073 0.0077947006 0.049071096 0.05685144 0.14380583 0.19737515
-0.009310953 -0.078670524 0.108677685 -0.016182764 0.011456879 -0.029547457 0.13469583 0.047873568
-0.052608825 -0.05293428 0.3196556 0.025443494 -0.056171034 0.89323366 0.07098772 0.011332169
0.18750754 0.8899451 0.08204273 0.054312482 0.0054431926 0.0129179545 -0.009685984 0.10292251

RNN.weight_hh_l0 f4 [512, 128]
00000000: 276f 1d3e fa97 8b3d e37e 213e c73c 333e
00000010: e4b3 34bb 8cf3 8c3c c369 0bbd 151e 88bd
00000020: c1d8 73bd 2c49 b5bc e0e3 f13d f9f5 a73d
00000030: 731d 1f3d 0d04 fabc 2e6b 533e e413 253e
00000040: 6537 d2bc 45b6 133d dd1f 2abd 8558 c63d
00000050: ab10 0ebe fa01 a6bc c27c 0fbe 5cbe 71bd
00000060: cef4 383c 53e0 20be 50af be3d 3cdb 4fbc
00000070: d4e1 cfbc e551 ad3d 10dd a63c d966 9cbd
00000080: 43ec 31be c408 f73a ab17 293c 295d c9bb
00000090: 1ab1 60bd 336f 04bb 12ec 99bd 343d 77bd
000000a0: cf82 1e3d 8a61 f83d 7f60 223e 2b7b 323e
000000b0: a30e 30be 89d6 37be f7ee 163e 0b12 8abc
000000c0: 4ff3 133e aa51 b3bd e2ee a9ba d0bd e03d
000000d0: 4f1f da3d e548 0c3e b00f 44bd 31e9 67bd
000000e0: 7b2f fb3d c2e6 da3c e472 33bd 44d5 293d
000000f0: 90d9 9bbb 40be 483d dba5 08be 1a05 cebd
00000100: a5b0 b83d f6d7 97be f249 26bc 7266 a0bd
00000110: edab 103e 2b1c 203e 420e 163d 3474 8dbd
00000120: 142d bebd 6264 cdb9 e8d4 f1bd 346d 003e
00000130: 850a 2d3e 53a5 303e 8353 21bd fb48 6e3d
00000140: edad 883c ec7c 4cba 00a7 873d b94d 743e
00000150: 3c17 f8bd e3cc 1abd 221b 953c be4e 413d
00000160: 4e9c 0d3e cd0c 1d3e 6d33 2bbe a6b4 983d
00000170: 8b9d 42be aa11 023e f0b6 473d 9dd7 20be
00000180: adae 883d 33c5 9ebd 6676 7a3d 82d0 2cbe
00000190: 6e6b ddbb a1e6 203e 742d 093e 00ee b6bd
000001a0: bb4f dbbd 7dfe 46bd 539c b6bd 2420 343d
000001b0: c4f3 893d 9631 2abd 3bb4 64be 54b0 a03c
000001c0: 0f5d 11be 404a 4bbd 2055 7ebd a8c9 803c
000001d0: 4cf8 05be 0596 afbd 6460 163e f8b0 45bc
000001e0: 3f66 08be 3780 823d 12b4 0abe e2e8 983d
000001f0: 1dac eebd 674d 3abd c103 2a3d 133d f33d
00000200: 6ed3 ac3d b0ab 5bbd f49d f5bd 56f2 0fbe
00000210: bc57 61be 63a3 05be 5957 493d ae67 e5bd
00000220: e79c 3e3e 778f 0ebe 9c4f 51be cfbd 97bd
00000230: 78d3 ba3d b590 f83d bdde 26bc 88e9 883c
00000240: 4777 bd3c 5faa c63d 7bb7 0d3d 02a1 9bbc
00000250: bcab 5e3e 71a3 35bc 7d19 5d3e b472 40bc
00000260: 6758 12bc 07ae f53d a2d4 7abe 6ce3 1bbe
00000270: 2c3c 3ebe 7ae4 24be 6731 563e 3dc3 b1bc
00000280: 80c9 b6bc f48e c53d d46b 4d3e 109c 1fbe
00000290: 34ad 513d a7e0 963b cbff a53d 8a27 06bb
000002a0: e58e 1b3d 3742 c43d 76ef 19be ae5e 813d
000002b0: 4855 d73d f21f 213e 1ea2 7ebd 3e0e 04be
000002c0: 5603 873d bd1f ec3c 4c2f b53d 0d5d 0d3d
000002d0: 4834 3b3e 3f7f 08be 1ab1 f83d fc90 e5bd
000002e0: c1a4 bdbd 9e5c 263e 16c7 213c 347d 1bbe
000002f0: 4703 36bd 64a9 9f3d c663 dabd 1372 f93d
00000300: e466 21be 86c5 7ebc b618 d0bd 2d03 03be
00000310: b3ef af3d 3beb 873d 3a78 803d 19b9 343e
00000320: 0762 02bd a3a4 52be b903 2d3e d913 073e
00000330: 0f94 a8be 78b4 4d3b 246d 16bd ac7d 1ebd
00000340: 13fa 933c c2c5 1fbe 934c f1bc fdf8 1e3e
00000350: e286 453e 8a76 b9bc bacf 7b3e abf8 20be
00000360: 1d5a 963d ea5e fcba 8848 93bd 2fde ac3d
00000370: 9ee0 8cbd b45f c73c 68dd 48be f920 523e
00000380: 0cfe 61be c3e5 3abd 8463 60be 7bdd a5bc
00000390: c98e 343e 20b8 e7bd 7ab3 ce3d 6605 1a3e
000003a0: aae8 3f3d 281a dfbd f7a3 8b3d c7fe 3dbe
000003b0: 0218 40bd 8b42 a93d 53ae a73d 830c 52be
000003c0: 514e 013e 7c37 933c 4c3a 363c 67f5 183e
000003d0: cad1 5dbc 5233 c13d 02ea 87bd f70d 883e
000003e0: c6f9 11bc 3a58 e4bd 5e97 0bbe 6cb4 063d
000003f0: ff60 5a3e 31df 043e d895 3fbe 585c 3bbd
0.15374433 0.068160966 0.1577106 0.17503653 -0.0027573043 0.017205976 -0.03403641 -0.06646363
-0.059532885 -0.022129618 0.11811042 0.082012124 0.038846444 -0.03051951 0.20646355 0.16120869
-0.02566118 0.036062498 -0.041534293 0.096848525 -0.13873546 -0.020264614 -0.14012435 -0.05901943
0.011288835 -0.15710573 0.09310782 -0.012686547 -0.025376238 0.08462886 0.020369083 -0.07636804
-0.17375283 0.0018847217 0.010320584 -0.0061451388 -0.054856397 -0.0020207881 -0.0751573 -0.060361102
0.038698968 0.12127979 0.15857123 0.17429797 -0.17193083 -0.17952932 0.14739595 -0.016854307
0.14448284 -0.087558106 -0.0012964869 0.10973704 0.10650503 0.13699682 -0.047866523 -0.056618873
0.122649156 0.026721362 -0.04381074 0.04146315 -0.00475616 0.04900956 -0.13344519 -0.10059567
0.09018067 -0.29656953 -0.010149466 -0.0783204 0.14128084 0.15635745 0.03663469 -0.069069296
-0.09285942 -0.00039175438 -0.11808187 0.12541658 0.16898544 0.17250566 -0.039386284 0.05817507
0.016684497 -0.0007800597 0.066236496 0.23857774 -0.121138066 -0.03779305 0.018201414 0.047194235
0.13829157 0.15336914 -0.16718836 0.07456331 -0.1900541 0.12702051 0.048758447 -0.1570725
0.06673942 -0.077524565 0.06114807 -0.16876414 -0.0067571914 0.15712978 0.13396245 -0.08932114
-0.10708567 -0.048582543 -0.08916535 0.043975964 0.06735948 -0.041551195 -0.22334377 0.01961533
-0.14195655 -0.049631357 -0.0620929 0.015721157 -0.13082999 -0.08573536 0.14685208 -0.012066118
-0.13320254 0.06372111 -0.13545254 0.07466294 -0.11653922 -0.045483973 0.041507486 0.11876883
0.084387645 -0.05363053 -0.11993018 -0.14057288 -0.22006124 -0.13050608 0.049155567 -0.11201416
0.18614541 -0.13921915 -0.20440525 -0.0740925 0.09122366 0.12136976 -0.010184941 0.016712919
0.023128165 0.097004645 0.03459881 -0.018997673 0.21745199 -0.011086331 0.21591754 -0.011746097
-0.00893221 0.11996084 -0.24495175 -0.15223473 -0.18577641 -0.16102782 0.20917283 -0.021699542
-0.02231288 0.09646407 0.20060664 -0.15586877 0.05119057 0.0046044174 0.08105429 -0.0020470344
0.03797807 0.09582942 -0.15032753 0.06316887 0.10514313 0.15734842 -0.062166326 -0.12896058
0.06592433 0.028823728 0.08846912 0.03451257 0.18281662 -0.1332979 0.121431544 -0.11209294
-0.0925994 0.16246268 0.009874126 -0.1518448 -0.04443672 0.077959806 -0.106635615 0.12179961
-0.15761906 -0.015550023 -0.10160963 -0.1279418 0.08590641 0.066366635 0.062729314 0.17648734
-0.031831767 -0.20570616 0.16895951 0.13191165 -0.3292546 0.0031388085 -0.03672518 -0.03869407
0.01806358 -0.15602782 -0.029455459 0.15524669 0.19289735 -0.022639532 0.2459096 -0.1571986
0.073414065 -0.0019254361 -0.071915686 0.08440816 -0.0687878 0.024337627 -0.1961571 0.2052039
-0.22069567 -0.045629274 -0.21912962 -0.020247212 0.17632593 -0.11314416 0.10092826 0.15041122
0.046852745 -0.10893661 0.06818383 -0.18554221 -0.046897896 0.08264645 0.081875466 -0.20512585
0.12627532 0.017970793 0.0111222975 0.14937364 -0.013538787 0.09433617 -0.0663643 0.26573154
-0.008909648 -0.111496404 -0.13631961 0.032886907 0.21326064 0.12975766 -0.18709505 -0.045742363

RNN.bias_ih_l0 f4 [512]
00000000: bc5c 4f3d 1c93 9cbb 744f 93bd 37ca e8bb
00000010: 97f1 023e b868 16be 56cb 063d 4961 4a3e
00000020: e0c3 0e3e da12 713e a10c 163e 1b16 8cbd
00000030: 7f71 0a3e 4ad4 d33d 9b4f 073e ce3e 123e
00000040: b3f1 823d 93c9 073e 2b53 aebd 15bf ddbd
00000050: 9c45 bd3d 484f ff3d 3f68 6a3b 315b 9d3d
00000060: 8e93 1ebe 0a5e 663e c0af a43e c571 353e
00000070: 1f21 aabd c9b3 efbd 38ed 39bd 085f 0bb9
00000080: 501c 94bd 4b4e 2a3e a96f 5e3c bd59 13be
00000090: d512 3dbc 8ce4 b03d 3012 423e d59e 913e
000000a0: 5f66 d13d 623b d5bd f72a 463e 45cb 153d
000000b0: d647 5f3e 4bd7 283e 3c8a 643e 0e17 d03d
000000c0: 6837 b53d 8f21 b13d 69f2 253e 8bcf 5ebd
000000d0: 641c 023d 57ad fe3d 055a 2dbe a8bf b1bd
000000e0: f94e 9e3e c611 173c 9d80 fc3c ba42 573d
000000f0: fa97 243d 170a 503e c9aa 783d 1782 c5bd
00000100: 6993 153e cc21 a83d afb5 693e dd04 e53d
00000110: a5f2 4c3d 7c2d 073e 0902 423d 682e fabc
00000120: 7606 d83d 198c 993d 1ffc 373e fdd3 3f3d
00000130: 4e29 9e3e d7ae 203e 519e 323e 0280 ec3c
00000140: 1216 0bbd 95cf cf3d fb10 9fbd 9438 b53d
00000150: 5057 9e3d defe a63c 4ba8 963d 0530 04be
00000160: 4c1e 353e ac92 1c3e 8b84 1b3e 0026 8e3d
00000170: 7732 763e 5faa 083e c365 0c3c 7e61 8fbb
00000180: d6ce 9f3d 7b3b cebc ec95 3b3e befd 163e
00000190: 58a7 2abc a6a2 103e 7690 783a 7346 313e
000001a0: e4c0 6b3e f315 403e f91f 6d3e 89bd 513e
000001b0: 6c02 9ebd 5833 d83d 46d0 b7bd 5d92 ef3d
000001c0: 4282 743d 50d3 ce3e 029f 653d 2e58 983e
000001d0: a5a4 ef3d 6bbf 3d3e 6aaa 0c3e f065 863e
000001e0: 46ff 1e3d efe7 46bd 297d 1c3e e6fe 323e
000001f0: 92db 203e 911c e13d 854a b73e 037b 133e
00000200: a045 3a3e c897 133e c9b4 43bd 003b fd37
00000210: 6932 7dbe c427 6bbc e084 d93d 220f ad3d
00000220: 1492 1e3d df84 223e 3e1f 2bbe c68b 003e
00000230: 5dbf 5a3d bc87 e03d d4da c03d 2148 b53d
00000240: 6aae 4fbe 72f6 86bc 9471 983d 0dca c63e
00000250: 80ad 993d b907 22be bc50 a93d aa50 f4bc
00000260: 284f 593c 76bb 44be a82c 7cbe f815 863d
00000270: 6948 973d 8244 b03d e0e1 03bd ad44 b4bb
00000280: 349b 963d 0c07 513d aaea 7d3d 54fc 283e
00000290: 8d31 69bd 58f9 5ebe 475b f33c ccaf 563c
000002a0: 4e90 4abb 5ed2 7fbd 45ed 11bd 6d48 ec3d
000002b0: 78ba df3d 5012 27bd 9d8d e4bd a96b 113d
000002c0: a00b 243e 95d3 d63c f4cf 1abd acfb 3d3d
000002d0: 35c1 c73d 41e9 0ebd c003 303e 7259 553d
000002e0: 32ad 25bc 88b9 273e 4fcd 373d b05a f53d
000002f0: 4d86 583b ae92 73be 86a7 11be 6459 f33d
00000300: a010 dcbc 4579 123e 05af c83d f58a a43c
00000310: cfa8 c03d 9197 ff3d 9cd4 a9bd 89d8 c0bd
00000320: 6cd0 1b3e 506a 963d 460c d2bb 6cbc 68bd
00000330: 5894 b9be 9a22 84bd 84ec 173d 9641 a73d
00000340: 8ad0 593d d765 973d e734 3a3d 5f16 913c
00000350: c4a9 19bb fe18 513d 981a ec3b d675 033e
00000360: f818 233e 503e 0f3e 4749 2b3e 2f08 0f3e
00000370: a97d d7bd 6860 93bc 2850 813d 76f9 89be
00000380: 2a0b 313d 569e 143e fb91 15be e2c2 2b3e
00000390: 9cd0 a43c 18aa c2bd 77b6 a13d ad54 e7bd
000003a0: 6fb1 81bd c030 ffbb 4309 2b3e 46aa 80be
000003b0: c0a6 853b 7877 63be 47e8 443d f5a3 96be
000003c0: bd80 a93d e2dd 86bd 0088 4d3b 6d0c 0cbe
000003d0: 1a14 64bd 98bf 6fbe fec3 993d d315 bc3d
000003e0: 0358 b03c 627e 62bd ca3b 413e 5639 e33d
000003f0: 4312 6f3d 5a4d bc3d 0ae5 9b3d 2a03 f13d
0.050625548 -0.004778279 -0.07192889 -0.007104184 0.12787472 -0.14688385 0.03290876 0.19763674
0.13941908 0.23542348 0.14653255 -0.06840154 0.13519858 0.10343225 0.13213961 0.1428177
0.06393757 0.13260488 -0.08511957 -0.10827462 0.092417926 0.124662936 0.0035767702 0.07683409
-0.15485975 0.2249681 0.32165337 0.17719181 -0.083070986 -0.11704213 -0.045392245 -0.00013291475
-0.07231963 0.16631429 0.013576427 -0.14389701 -0.011540134 0.08637342 0.1895225 0.28441492
0.10224604 -0.10411717 0.19352327 0.036570806 0.21804747 0.16488378 0.22318357 0.10160647
0.088484585 0.08648979 0.16205753 -0.054397147 0.031765357 0.12435406 -0.16928871 -0.08679134
0.30919626 0.009220546 0.030823046 0.05255387 0.040184 0.20316349 0.06070975 -0.09643953
0.14607014 0.08209571 0.22823213 0.11182568 0.05003609 0.13200945 0.047365222 -0.030539706
0.10548107 0.07497425 0.1796727 0.046833027 0.30890888 0.15691696 0.17443205 0.028869633
-0.033956595 0.10147015 -0.07766911 0.08848682 0.07731497 0.020385202 0.07356318 -0.12908943
0.17687339 0.15290326 0.1518728 0.06940842 0.24042688 0.13346241 0.008569184 -0.0043756356
0.07803123 -0.025174847 0.1831891 0.14745232 -0.010415874 0.14124545 0.00094819756 0.1731203
0.230228 0.18758373 0.23156728 0.20482458 -0.07715306 0.10556668 -0.08975272 0.116978385
0.059694536 0.40395594 0.056059845 0.29754776 0.11701325 0.18530051 0.13736883 0.26249647
0.038817666 -0.048561033 0.1528212 0.17480049 0.1570876 0.10991777 0.3579904 0.14402394
0.18190622 0.14413369 -0.047779832 3.0187424e-05 -0.24726261 -0.014352743 0.10621047 0.08450152
0.03871353 0.15870999 -0.16711137 0.1255332 0.053405154 0.10963389 0.09416738 0.08851648
-0.20281377 -0.016474936 0.07443538 0.38826028 0.075037956 -0.15823258 0.08267352 -0.02982362
0.013263501 -0.19212136 -0.2462641 0.06547159 0.07386858 0.08606817 -0.032197833 -0.005501351
0.073538214 0.05103211 0.06199137 0.16502506 -0.05693202 -0.21774805 0.02970661 0.013103437
-0.0030908766 -0.06245648 -0.03562667 0.115372516 0.10924238 -0.04078895 -0.11159823 0.035503063
0.1602006 0.026223937 -0.037795976 0.04638259 0.09753648 -0.034890417 0.1718893 0.052087255
-0.010112094 0.16379368 0.044873532 0.11980188 0.0033039034 -0.23786423 -0.14224061 0.11882284
-0.026863396 0.14304073 0.09799007 0.020085791 0.09407198 0.12480081 -0.08292505 -0.09416301
0.15216225 0.07344496 -0.0064101545 -0.056820318 -0.3624599 -0.06451912 0.037090793 0.081668064
0.053177394 0.07392471 0.045460608 0.017710863 -0.0023447135 0.051049225 0.0072053187 0.1283792
0.15927494 0.13988614 0.16727172 0.13967966 -0.10522015 -0.017990306 0.06314117 -0.26948136
0.043223538 0.14513525 -0.14606468 0.1677356 0.020119004 -0.09505099 0.078961305 -0.112954475
-0.06332671 -0.007787794 0.16702752 -0.25129908 0.004078716 -0.22213542 0.04807308 -0.29421964
0.08276508 -0.065852895 0.003136158 -0.13676615 -0.055683233 -0.23412931 0.07508086 0.0918385
0.021526342 -0.05529631 0.18870464 0.1109492 0.058367025 0.09194441 0.07612045 0.117681816

RNN.bias_hh_l0 f4 [512]
00000000: eecf 103d 990c 883d e84d b4bc c82c 993d
00000010: c7af a03d 0790 fabd 4209 723d 1508 093e
00000020: 375a 7c3d a382 883e 47c6 453e e48c 30bc
00000030: f2e5 0f3e 9486 6b3e 919f d43d c915 113e
00000040: 3e7b 1d3e c684 de3d add0 b23c 5be2 bebd
00000050: 8b7f 853d 605f db3d fe1c 403c ded2 1c3d
00000060: e2cb a2bd 54b0 493e 5514 9b3e a8d9 f83d
00000070: 9efd 6f3d 4721 04be 3f48 90bd 8341 db3c
00000080: f2f8 3b3c 47eb f83d 6530 0f3d 04c8 c6bd
00000090: a111 fc3d 98d8 5e3b 01a5 623e 5d04 813e
000000a0: 98a5 f03d 0f0d 22bd c914 ed3d deb0 c83d
000000b0: bf71 733e d91c 2c3e 25d0 b93e a6df f03c
000000c0: 48fc 373e aa79 db3d b67c 0e3e 3404 9a3d
000000d0: 4cc8 153e f286 253e 02de 41be 28c3 3dbd
000000e0: a3a8 6e3e 9425 0d3e a1be c83d 9060 50bd
000000f0: 76b2 123c cda4 ac3e b234 003e d973 11be
00000100: 7e4f 3e3e 06c3 b43d 4e7d 8b3d fa55 113e
00000110: c901 e13c 4742 273e 17a6 a23c 8a6c c63b
00000120: 69fe 303e 7f9a 533e 1090 1c3e 4bd3 473d
00000130: b577 c33e a08a c23c 2382 e73d 8aa8 44bc
00000140: 651a 3cbd 5c99 92bc a74b 163c 0bd3 3b3e
00000150: 89d2 023e dd95 81bd 6f70 b5bc 437a a3bd
00000160: 45ab 513e 6a55 a23d 4f63 1b3e 3cfb ab3d
00000170: 66c6 913e 232b 1e3d 9f8a f43b 4149 023e
00000180: d5b7 513d 630b 003d c33d 333e e9e8 0f3e
00000190: 2a37 b8bd 3850 023e 61e8 023e ae29 123e
000001a0: d3d4 a63d 2b35 e83d c314 693e bc09 3b3e
000001b0: 9ba8 0abd dcd2 c13c ee2c 983d b116 183e
000001c0: 990c 823d 713b b53e 821c 223e 3cc7 5e3e
000001d0: 2ae7 62bb 286b 7c3e 6238 393e 4d15 9f3e
000001e0: b4aa 86bd e16f 75bd 9639 a13d 4cef 783d
000001f0: 80ac e63d 722a d23d 27a6 6f3e 28b0 523e
00000200: 8e93 673e c883 003e 1611 403d 4706 883d
00000210: 8d35 d2bd 7e9c 6fbd f166 b63b ac50 5c3d
00000220: 705d c83c b910 6f3e 4161 1abe 6324 cb3d
00000230: d76f 143e 6bdf 663e 94f3 373e e93d 86bd
00000240: 4dca 78be e927 81bc f6ea e43d df5d b83e
00000250: 2358 3a3c 05cf fcbd eacd 983d 4c93 3fbd
00000260: f101 ac3c bbd1 02be bc77 97be 5072 933d
00000270: 9342 683d 2f0a 233e 1b4f dfbb 4c3d 843b
00000280: 2643 013c 59eb e13d 7cb0 333e c1e0 333e
00000290: f69b c8bd df0b 66be fc89 77bc 94ba 84bd
000002a0: 2106 9b3d 0f06 8dbd b403 0dbe 0f2e f53d
000002b0: 5039 a33d e1ed a63c 2283 103c 0dbb 9e3c
000002c0: 0bd6 8c3e c9b1 0b3c bc66 03be 6c68 843c
000002d0: 53a7 f73c e053 3fbe 6379 2b3e 4c95 893d
000002e0: d1d8 a03c 7968 a23c 5317 013e 4e5a f53d
000002f0: 11f9 88bd 0dc1 97be 004f 603b b145 0a3e
00000300: 52da 8ebd eaf8 103e fe75 6a3d ef28 3c3d
00000310: 8928 8e3b cf77 243e 4d88 90bd 6008 d1bd
00000320: b61f c03d 475a 6f3d 49ff 11be 20aa 5abd
00000330: f5b5 55be e15b f7bc 3f9a f73c 0c34 a53d
00000340: 89f5 afbd 24d9 c83d d68d e93d 978d 7f3d
00000350: 42c3 653c b30a fbbb 4f04 77bc fff2 4e3e
00000360: d115 3c3e 4eaa 8b3c ac91 9c3d 8307 383e
00000370: ada0 5bbc 7dbb 9fbc f1ee 913b 10a0 fdbd
00000380: 1a93 48bd 445e 3c3e 4f4d e2bd 5ff1 c93d
00000390: 03e0 7abd 00ab 64bd 0d11 523d 4446 edbd
000003a0: cca4 b2bc 4f42 ddbd 8f78 253d c1a2 74be
000003b0: b8d9 9d3d cf44 79be feb7 b63d b434 d1be
000003c0: a1c8 383d 56ca 9e3c 6baf acbd 0a08 b8bd
000003d0: fddb 8cbd 9d06 87be 74b5 273e 3a2f 593e
000003e0: fd40 673d 965c 9fbd f6d1 493e 9d8d b83d
000003f0: a00e b73d 9d91 183e bad5 eabc b008 c93d
0.035354547 0.06643028 -0.022009805 0.074792445 0.07846027 -0.12234502 0.05909086 0.1338199
0.061609473 0.26662168 0.19313918 -0.010775778 0.14052561 0.23000556 0.103819974 0.14168467
0.15379044 0.10865168 0.02182802 -0.09320518 0.065184675 0.10711551 0.011725662 0.038287036
-0.07949044 0.1969617 0.3028895 0.1215089 0.058591478 -0.1290332 -0.0704503 0.026764637
0.011472927 0.121542506 0.034958262 -0.09706119 0.1230805 0.0034003612 0.22133256 0.2519864
0.117503345 -0.039563235 0.1157623 0.0979936 0.2377386 0.1680788 0.36291614 0.029403519
0.17967331 0.10716565 0.13914761 0.07520333 0.14627188 0.16164759 -0.18932346 -0.046328694
0.23306517 0.13783866 0.098019846 -0.05087334 0.008953681 0.33719483 0.12520102 -0.14204349
0.18585011 0.0882626 0.06811009 0.14192954 0.027466672 0.16333877 0.019854588 0.0060554193
0.1728455 0.20664404 0.1528933 0.04878549 0.38177267 0.023747742 0.113041185 -0.0120030735
-0.04592361 -0.017895393 0.00917331 0.18342225 0.12775625 -0.06327412 -0.02214834 -0.07982304
0.2047549 0.07926448 0.15174602 0.083975285 0.28471678 0.038615357 0.007462814 0.12723257
0.051200707 0.03126086 0.17504029 0.14053692 -0.08994897 0.12725914 0.12783958 0.14273712
0.08146062 0.11338266 0.22761826 0.18265432 -0.0338522 0.023660116 0.07430445 0.14852406
0.06350059 0.35396913 0.15831187 0.2175569 -0.0034622648 0.24650252 0.18087915 0.3107094
-0.06575528 -0.05992115 0.07872312 0.060775086 0.112633705 0.10262002 0.23403226 0.20575011
0.22614881 0.1255027 0.046891294 0.06641822 -0.1026412 -0.058498852 0.005566471 0.053787872
0.024458617 0.23346223 -0.15076162 0.099190496 0.14495789 0.22546165 0.17964011 -0.06554777
-0.24295922 -0.015766101 0.11177628 0.36009118 0.0113735525 -0.12344173 0.0746115 -0.046771333
0.02099702 -0.12775318 -0.29583538 0.07199538 0.056704115 0.15921853 -0.00681485 0.0040356275
0.007889545 0.11031217 0.17547792 0.17566206 -0.09795372 -0.22465466 -0.015108582 -0.064808995
0.07569528 -0.06885921 -0.13770944 0.119716756 0.07969916 0.020377101 0.008820327 0.019376302
0.27507052 0.008526274 -0.12832159 0.016163073 0.030231154 -0.1868434 0.16745524 0.06717929
0.019634636 0.019825207 0.12606554 0.11980115 -0.06688131 -0.29639474 0.0034226775 0.13503148
-0.06975235 0.14157453 0.057241432 0.045937475 0.0043383283 0.16061328 -0.07057247 -0.102066755
0.093810484 0.058435705 -0.1425754 -0.0533849 -0.20870192 -0.030195178 0.030224917 0.08066568
-0.08591754 0.09807041 0.11404006 0.06239089 0.014023604 -0.0076611876 -0.015076711 0.20209883
0.18367697 0.017048981 0.07644972 0.17971615 -0.013405007 -0.019498581 0.004453533 -0.12384045
-0.048968412 0.18395334 -0.11049902 0.09860491 -0.06124879 -0.05582714 0.051285792 -0.11585668
-0.021807097 -0.10803663 0.040398177 -0.2389021 0.07707542 -0.24342655 0.089218125 -0.40860522
0.04511321 0.01938359 -0.08431896 -0.08985908 -0.06877897 -0.26372233 0.16377813 0.21209422
0.056458462 -0.07781331 0.19709 0.090113856 0.08938336 0.14899297 -0.028666366 0.0981611

actor.weight f4 [5, 128]
00000000: 7ff1 13be 6c11 903e 9bfb febd 52dc 123e
00000010: 0bd5 373e 3016 13bc 4a88 ba3d c951 c8bb
00000020: c3b5 b0be 6aa4 9dbd aa3c 033e 9c16 973d
00000030: 589c bc39 14c6 553e b19c 7c3e 02d4 913d
00000040: 595f 093f 322b 993d 2676 923e 48a3 c43d
00000050: 2014 16bd 17a5 1e3d 20eb a03e 6978 d5bd
00000060: 6196 893d 0a01 d0bc 08f7 553e c8ff 80be
00000070: 58c0 edb9 8926 08bd 4c23 983c 5986 a7bd
00000080: a689 0cbe 7750 f2bd e124 dabc 0d2c 29bd
00000090: a2fb 5b3e bb3f a1bd fafc 9cbe 8640 b13e
000000a0: d8d3 06be 301f 8ebd d892 6d3d 792f 30bd
000000b0: 4c54 37be 421f 83be 8331 abbe d64c d7bc
000000c0: 4dfe 77bd da2e 00bf 4f95 91bd 2836 023e
000000d0: 6734 cabd b4a3 b73e 0181 153e 6c63 9b3d
000000e0: a108 0b3e 42e8 9c3d 04e0 8abd 16ec 733e
000000f0: 15be 8bbe 25f0 debd 24d2 133e 14fc 7e3d
00000100: 45d4 043f a58c d6bd 6134 16be 2276 84be
00000110: d4ad f53e b072 833c 1619 3abd efad e33d
00000120: 1439 da3c c16d 1bbd edd4 cebe 7526 fc3b
00000130: 418d 913e d247 a83e e126 98be bb80 2e3e
00000140: d351 033f da03 413e 0131 0b3e e286 92bd
00000150: 5a67 e0bd 535d 393d 3040 023f 8246 03bc
00000160: 2972 563e ec1a 123d 3383 823d 21d5 bb3d
00000170: ab69 97bd d08e ed3d 80ce 3fbe 627d 8dbe
00000180: b256 2abe ef7d 6fbc 24cb 3e3e ae92 43bd
00000190: 216a 87be 8ad1 b13e 2f33 823d d4af 7bbe
000001a0: df2d 5bbd d007 e73d 7bdc cc3d 0ce3 853e
000001b0: bd45 373e 9212 763c 9f34 59be e176 483e
000001c0: 9e43 37bd 7441 4abe 181e 9f3e 4a1c 92be
000001d0: 0a3d 68be c423 d8be 25c5 4c3e 4214 83be
000001e0: df20 8a3e 483f d73e a400 063d 8b27 5fbe
000001f0: a838 29bd 11fe 853c cb08 e8bb 45a4 07bd
00000200: 0002 34bd 2dd1 323d 8efc a23d e33b abbe
00000210: 7920 253c 6bb5 923d b336 05bd 4ee2 b7bc
00000220: 2c4e a73d b552 073d 246e 2c3e e5fd 363d
00000230: db6c 5d3e 1daa 4f3d deef a03d de73 663e
00000240: 2017 aebe 5b3a 8bbe 317a a6be 54e7 433e
00000250: e0e9 1bbe 1115 8b3e a0b9 b2be b961 0fbe
00000260: 375c 003c ede5 16be d70a 873e 2007 8abe
00000270: 49dd 3abe 4e0e 77bd 605a 4cbd f116 7e3e
00000280: 1337 b43c 1e4b 1cbe 4e5c d03d 4ee1 d8bd
00000290: 6b4f 883c 214b 45be 2bb4 333e d770 86be
000002a0: cf89 8d3e 4843 d3bd 949d 063d 1755 f1bd
000002b0: 72ef 73bd 9e51 103d 8d0c 053f 7f6d ffbd
000002c0: 039c b43d 77b4 163e b1d5 323e 394c 613e
000002d0: 8d8b a9bb 9bf2 bf3d addc d93d bb73 6fbe
000002e0: 38c8 c73d 6575 563d c51d 09be 4f7c 2cbe
000002f0: 8eaa c63e 6e13 b2bd 0eda 553e 04b6 03be
00000300: 42c1 8cbe 20b5 3ebe 264b 6bbe 5f2b 903e
00000310: d40f f7be b01d 143e 51cd acbd 3c49 46be
00000320: 845e a73d 7364 5fbe 2398 9bbd b7c5 01be
00000330: 60f1 723e f5f0 c2be 1685 4d3e ae31 0f3e
00000340: 6494 d1be 64ba b83d 6973 3b3b f64e 9ebd
00000350: 764c 1fbe 3011 e33b 8869 28bf ff1a c23d
00000360: ffe9 4f3e 8936 b93d 8d1a b33d ec22 0d3b
00000370: 89f8 203e b6a0 093e 279a bebb 1b3a 863d
00000380: cecb 833c 3b9a 5bbd 3428 81bd 529d 29be
00000390: 3bec 393e c353 063e c075 84bd 7628 b3bd
000003a0: 72bc 32be 7ec8 3abe 385f 003e b9f1 a03e
000003b0: 5c40 43be 221c 67be 547c 95bd edb2 263e
000003c0: 64f0 c1bb cac7 8cbe 09d6 6fbe 2df7 a9bd
000003d0: 5f53 093f 04a3 a1be 07c5 f33d 6f6f 98be
000003e0: f7a6 b1be d897 92be 38e3 19be 2795 b93d
000003f0: 0224 db3d 4ab4 d43b 3591 42be 46eb 533d
-0.14447592 0.28138292 -0.12450334 0.14341858 0.17952363 -0.008977458 0.09108026 -0.006113265
-0.34513673 -0.07697375 0.1281611 0.07377359 0.0003597464 0.20876342 0.24669148 0.071205154
0.53661114 0.07478942 0.28605765 0.09601456 -0.036640286 0.03873166 0.31429386 -0.10423357
0.067181356 -0.02539112 0.20895016 -0.25195146 -0.0004534747 -0.033239875 0.018571518 -0.08179922
-0.13724384 -0.11831754 -0.026628913 -0.041301776 0.21482709 -0.07873484 -0.30661756 0.3461954
-0.1316675 -0.06939542 0.05800137 -0.043014023 -0.1790325 -0.25609785 -0.33436212 -0.026281755
-0.060545254 -0.5007149 -0.071085565 0.12715971 -0.09873276 0.35867083 0.14599992 0.075873226
0.1357751 0.07661487 -0.06781009 0.23820528 -0.2729346 -0.10885648 0.14435631 0.06225212
0.518864 -0.104760446 -0.14668418 -0.25871378 0.47984183 0.016045898 -0.04543408 0.111171596
0.026638545 -0.037946466 -0.40396824 0.007695014 0.2842808 0.32867295 -0.29717162 0.17041294
0.5129673 0.18849126 0.13592912 -0.07154633 -0.10957213 0.045255017 0.5087919 -0.008012416
0.20941986 0.035670206 0.063726805 0.091715105 -0.073932014 0.11599505 -0.18731117 -0.27634722
-0.16634634 -0.014617427 0.1863218 -0.047747307 -0.26448157 0.34730178 0.06357419 -0.24578792
-0.053510543 0.11280787 0.10002991 0.26149786 0.17897697 0.015019076 -0.2121148 0.19576599
-0.04474222 -0.19751531 0.31077647 -0.28537208 -0.22679535 -0.42214787 0.1999708 -0.25601393
0.26978204 0.42040467 0.032715455 -0.21792428 -0.041313797 0.0163565 -0.0070811263 -0.033115644
-0.04394722 0.043656517 0.07958327 -0.33444127 0.010078543 0.07163509 -0.03252287 -0.022446778
0.08169207 0.03303786 0.1683889 0.044675726 0.21623556 0.050699342 0.07858251 0.22505137
-0.34002018 -0.2719296 -0.325151 0.19131213 -0.15225935 0.2716451 -0.34907246 -0.14002122
0.007834486 -0.14736147 0.26375458 -0.2695856 -0.18248476 -0.060316376 -0.049890876 0.24813439
0.021998918 -0.1526303 0.10173856 -0.105898485 0.016639432 -0.1926694 0.17549197 -0.26257965
0.27644202 -0.10315567 0.032865122 -0.11783808 -0.059554525 0.035234086 0.51972276 -0.124720566
0.088188194 0.1471728 0.1746433 0.22001733 -0.0051741065 0.09372445 0.10637794 -0.23383991
0.097549856 0.05235805 -0.13390262 -0.16844295 0.38801998 -0.08695112 0.20883963 -0.12862402
-0.27491194 -0.18623781 -0.22977886 0.2815809 -0.48254263 0.1446445 -0.084375985 -0.19363874
0.08172324 -0.21815662 -0.07597377 -0.12673078 0.2372489 -0.3807446 0.200703 0.13983795
-0.40933526 0.09019926 0.0028602725 -0.07729904 -0.15556511 0.006929539 -0.6578603 0.09477805
0.20304106 0.09043605 0.087452985 0.0021535708 0.15719809 0.13440213 -0.0058167162 0.065540515
0.016088393 -0.053613883 -0.06306496 -0.16563919 0.18156521 0.1311789 -0.064677715 -0.08747952
-0.17454699 -0.18240544 0.12536323 0.3143442 -0.1906752 -0.22569326 -0.07299104 0.16279192
-0.0059185494 -0.27496177 -0.23421492 -0.08299098 0.5364284 -0.31569684 0.11902814 -0.29772517
-0.34697697 -0.28631473 -0.15028083 0.09061652 0.10700227 0.0064912187 -0.19000705 0.051738046

actor.bias f4 [5]
00000000: 974f 773c cf57 ad3d 6bdc 46bd 8682 61bd
00000010: 2a06 a03d
0.015094659 0.08464014 -0.04855005 -0.055056117 0.07813676

critic.weight f4 [1, 128]
00000000: ec5d e13d 5b81 6b3c 51f7 363d a69b b23d
00000010: 29cf 133e b11e 4fbd dd8c 9c3d fa51 c63e
00000020: 86e6 28bb d0a1 45bd b8be 363e 087a 0ebf
00000030: 452f a33c eb16 383e 7efa c93d 182b 71ba
00000040: 7bda 6abe c900 163d 9022 b23c 3c1d b23e
00000050: 867c 9c3c 8669 13be 0f44 553d e368 41bd
00000060: 72b4 1ebe 7181 6d3d 60e6 10bd 61d5 1fbe
00000070: 60c5 4e3c 3dbe a0bc 93e9 ea3d a2ea b03d
00000080: 2066 e6bc 4668 edbc aedd 7dbb bf99 0c3e
00000090: c3ac 303d ff9e 8bbd ea2e 933d c90b e3bb
000000a0: 05b5 85bd f7f7 01be f9ea 13be 60d4 113e
000000b0: 922d 8fbd e26b 2e3d 3cc9 383d dac2 d0bc
000000c0: 5d3a f73d 8157 52bc 589f 273e e992 b33d
000000d0: 89b9 df3d 8f37 93bd e9a5 a63d 2e11 103b
000000e0: a37c f9bd 150b 773d 73b1 2d3e 0baf 073d
000000f0: ba7a 20bd 8023 593d ca77 6fbd 4b6c 4bbe
00000100: 25a7 61ba 2b50 f1bd 7ffa c1bc 943b 813d
00000110: db69 2e3e 095a 0a3d 232c 0cbd bb14 3fbe
00000120: 846d 67be cbc3 13be 4951 7c3e cca0 9e3d
00000130: 4100 2ebc ef8b cd3c d6d4 e23d 9ca3 f43d
00000140: dbaa e7bc 53cb e33c e5cc ae3d cb3f df3d
00000150: 8281 da3c f2b1 abbc dd8a b83b 1fe4 99bd
00000160: c076 fa3d 6034 093e 1a04 02bd b9fe a93e
00000170: e785 85bb 9b0f 3a3e 557f 273c a8fd e3bc
00000180: 6981 89bd d086 33be 056c 343d 310c 0ebe
00000190: 7feb 553e 0cf7 06bc 6e2d ba3c cc5b 01bd
000001a0: 1541 863b 28b5 5bbd a558 2f3e 00a1 b43c
000001b0: 249c 813e f2a2 cbbc 3f5c d5bd 5f7c 39bd
000001c0: e4e2 423e 72b7 d1bc 5ea8 a83d fa6c b2bd
000001d0: f8b4 5bb9 387b 90bd f065 af3d a292 a4bd
000001e0: db07 91bd 1f61 263c c54d a1bd 84d9 1c3e
000001f0: 05e8 fe3d f46e 9cbd 359e b4bb 439e be3d
0.11004242 0.0143741025 0.044669453 0.08721094 0.14434494 -0.05056638 0.07644055 0.38734418
-0.0025772168 -0.04825002 0.17846191 -0.55654955 0.01992 0.17977493 0.09862231 -0.0009199842
-0.22934906 0.036621843 0.021744996 0.3478793 0.019102346 -0.14395723 0.05206686 -0.04721917
-0.15498522 0.057984773 -0.035375953 -0.15608741 0.0126203 -0.019621963 0.11470332 0.08638503
-0.028124869 -0.028980386 -0.0038736868 0.13730524 0.04313351 -0.068174355 0.071866825 -0.006928895
-0.06528667 -0.12692247 -0.14445104 0.14241171 -0.06991114 0.042583354 0.045113787 -0.025483537
0.12071679 -0.012838245 0.16369379 0.08768255 0.1092406 -0.07188331 0.081371136 0.0021982896
-0.12181976 0.060313303 0.16962223 0.03312592 -0.03917954 0.05301237 -0.05846385 -0.19865529
-0.00086079753 -0.11782869 -0.023679016 0.06310192 0.17032568 0.03377727 -0.03422178 -0.18660252
-0.2260037 -0.14430158 0.24640383 0.07745513 -0.010620178 0.02509114 0.110757515 0.119452685
-0.028279712 0.027806913 0.08535174 0.109008394 0.026673082 -0.020958874 0.005631788 -0.07514214
0.12229681 0.13398886 -0.031742193 0.3320215 -0.0040748003 0.18170016 0.010223229 -0.027830914
-0.06714136 -0.17531896 0.044048328 -0.13871838 0.20890616 -0.0082376115 0.02272674 -0.031581685
0.004097114 -0.05363956 0.17123659 0.022049427 0.25314438 -0.024857972 -0.10417985 -0.045284625
0.19031864 -0.025600169 0.082352385 -0.08712192 -0.00020952884 -0.07054752 0.08564365 -0.080357805
-0.070815764 0.010154991 -0.078761615 0.1531735 0.12446598 -0.0763835 -0.005512024 0.0930753
