OLD/Liu/test/v_4/train_iter_16800.pt (torch, 750599 bytes, 9 tensors)

h0 f4 [128]
0	0xbec7aea1	-0.3900042
1	0xbf3f0eeb	-0.7463214
2	0x3f03c8f8	0.5147853
3	0x3f425640	0.7591286
4	0xbe567127	-0.20941602
5	0xbf073961	-0.5282193
6	0xbf8d789b	-1.1052431
7	0xc02e6bd9	-2.7253325
8	0xbea6df03	-0.3259202
9	0xbfa86582	-1.3155978
10	0x3f55caf2	0.83512795
11	0x3f8fb9b5	1.1228548
12	0x3e224826	0.15847835
13	0x3e6f1bf8	0.23350513
14	0xbf2bdf3b	-0.671375
15	0xbeaf67f1	-0.34258988
16	0xbe03c60d	-0.12868519
17	0xbf6187c7	-0.88097805
18	0xbfa53ab2	-1.2908537
19	0xbf3f68c5	-0.7476924
20	0xbaa9d5ab	-0.0012957355
21	0xbeae7bc1	-0.34078792
22	0xbfaffa01	-1.374817
23	0x3ebca0d1	0.36841443
24	0x3f9c9122	1.2231791
25	0x3f0c666b	0.5484378
26	0x3f75aaac	0.9596355
27	0x401be896	2.436071
28	0xbeabbdd8	-0.33543277
29	0xbff0be09	-1.8807994
30	0xbf4de103	-0.80421466
31	0xc02a7017	-2.6630914
32	0xbf5fa260	-0.8735714
33	0xbe54593c	-0.20737165
34	0x3fce9eff	1.6142272
35	0x3f85127a	1.0396264
36	0xbf11a7f2	-0.5689689
37	0x3ff78944	1.9338765
38	0xbf0afc38	-0.54291105
39	0x3d218e67	0.039442446
40	0x40281b19	2.626654
41	0x3fbc77a3	1.472401
42	0x3f9d8453	1.2306007
43	0xbf0976a5	-0.5369666
44	0x3d77e9a4	0.06052555
45	0x401b7f3f	2.4296415
46	0xbe48ecfd	-0.19621654
47	0x3e10235d	0.1407599
48	0x3eba71a7	0.36414835
49	0xbf6fb1c0	-0.936306
50	0x3e6be44e	0.2303631
51	0xc024aeac	-2.5731611
52	0x3ff46961	1.9094659
53	0x3f61c56a	0.88191855
54	0x3ea7f87b	0.32806763
55	0xbffc974e	-1.9733675
56	0x3fe717ca	1.8054135
57	0x3ef24135	0.47315374
58	0xbe34aecf	-0.17644809
59	0xbe9ff84f	-0.31244132
60	0xbfa57f35	-1.2929446
61	0x3fc98949	1.5745021
62	0x3fbe51bb	1.4868692
63	0xbecaf0e0	-0.39636898
64	0x3f1e74b6	0.61896837
65	0x3f3f69bf	0.7477073
66	0x3f856f59	1.0424606
67	0x3e7d95f9	0.24764241
68	0xc015a1aa	-2.3379922
69	0xbf83cc59	-1.0296737
70	0xbec68548	-0.3877356
71	0x3fbad7a3	1.4597057
72	0x3eb29d58	0.3488567
73	0xbf5be9f4	-0.8590386
74	0xbefa1036	-0.48840493
75	0xbf580efd	-0.8439787
76	0x3d0a4a66	0.033762358
77	0x3e8dd762	0.27703387
78	0x3f8a7b09	1.0818797
79	0x3f32a7dd	0.6978739
80	0x3e0c1b2d	0.13682242
81	0xbdd28e24	-0.102810174
82	0x3eaa4653	0.33256778
83	0xc013bead	-2.308513
84	0x3fa133a1	1.2593881
85	0xbf6eecbc	-0.9332998
86	0x4005b7a3	2.0893333
87	0x3fc94aa8	1.5725908
88	0x3f3654a3	0.71222895
89	0x3f0d6345	0.552296
90	0xbe812a36	-0.25227517
91	0x3e3b352b	0.18282
92	0x3f6716ec	0.9026935
93	0xbf60536f	-0.8762731
94	0xbf30c470	-0.6904974
95	0x3e864a8a	0.26228744
96	0x3f0ebd9c	0.5575807
97	0xbfbf0385	-1.4922949
98	0x3f87cecc	1.0609984
99	0xbfa41df2	-1.2821639
100	0x3eca8de4	0.3956138
101	0x3f2115b0	0.6292372
102	0xbe06055d	-0.13087983
103	0x3d5f5f4c	0.05453424
104	0xbf660aaa	-0.8986002
105	0xbe6d6b49	-0.23185457
106	0xbb430498	-0.0029757377
107	0xbfba546e	-1.4557016
108	0xbf4f2cca	-0.8092772
109	0x3f0135b7	0.5047259
110	0x3e7a8d66	0.24468002
111	0x3fb04d44	1.377358
112	0xbec48493	-0.38382396
113	0x401a5b31	2.411816
114	0x3ed5f1c5	0.41786018
115	0xbf986da3	-1.1908458
116	0xbeae5030	-0.34045553
117	0x3f900a05	1.1253058
118	0xbeb3d26f	-0.35121486
119	0xbe3632be	-0.17792794
120	0x3e9e31d5	0.30897394
121	0x3ea1af15	0.3157889
122	0x3fbd2234	1.4776063
123	0xbec57fb9	-0.38574007
124	0x3fa571dd	1.2925373
125	0x3ead52d9	0.3385227
126	0xbe6beb81	-0.23039056
127	0x3e75df63	0.24010997

c0 f4 [128]
0	0x3e86e1aa	0.26344043
1	0xbf190990	-0.59780216
2	0xbf1306ab	-0.5743205
3	0x3f99f6e4	1.202847
4	0x3f85398c	1.0408187
5	0x3fb492ac	1.4107261
6	0x3e829d47	0.25510618
7	0xbf0093d6	-0.5022558
8	0xbe989fae	-0.29809326
9	0x3f1d9233	0.6155121
10	0xbdb10ad7	-0.08644646
11	0xbed8cd47	-0.42344114
12	0xbf8e4ee2	-1.1117823
13	0x3f8fc510	1.1232014
14	0xbe16eca9	-0.14738716
15	0xbf202bc2	-0.6256677
16	0xbe0dbda6	-0.13841876
17	0x3f8d0611	1.1017476
18	0x3fb63a0b	1.4236463
19	0x3dd6c504	0.104867965
20	0x3f335ea2	0.70066273
21	0x3f8cb803	1.0993656
22	0x3f9944f5	1.1974169
23	0xbfdfe6e9	-1.7492343
24	0xbbc809c5	-0.0061046802
25	0x40071642	2.1107335
26	0x3ec1eeab	0.37877402
27	0xbcddeb21	-0.027089657
28	0xbfacb05e	-1.3491323
29	0x3f035230	0.51297283
30	0x3f9490ce	1.1606691
31	0xbf154eb9	-0.58323246
32	0x3fe8cb52	1.8187048
33	0x3fd49b03	1.6609806
34	0xbe120f66	-0.14263687
35	0xbf6aabb1	-0.9166823
36	0x3ebee630	0.37284994
37	0xbfe33f4c	-1.7753692
38	0xbea4a1d9	-0.3215473
39	0x3ea36d82	0.31919485
40	0x3eaa247e	0.33230966
41	0x3f96287b	1.1731104
42	0x3f89a698	1.0753965
43	0x3f0ab1c3	0.5417749
44	0xbe90e5d7	-0.28300354
45	0x3fa6cf8e	1.3032091
46	0x3dfe7caf	0.12426125
47	0xbfac986a	-1.3484013
48	0x3f164f9f	0.5871524
49	0xbe9e4c97	-0.30917808
50	0x3ef6e23c	0.48219478
51	0x3fe73e2a	1.8065846
52	0x3efd0721	0.494195
53	0x401c0c93	2.4382675
54	0xbfd2c099	-1.6465026
55	0x3f9531bf	1.1655806
56	0x3f9fb1b7	1.2476109
57	0xbf88979f	-1.0671271
58	0x3fbdf883	1.4841465
59	0xbf610ad2	-0.87907135
60	0xbef52c43	-0.47885332
61	0x3e884680	0.26616287
62	0xbfb7518b	-1.432176
63	0x3d98b413	0.074562214
64	0x3f637e16	0.88864267
65	0x3fa63172	1.298384
66	0xbf1ae5d4	-0.6050694
67	0x3eb579d6	0.35444516
68	0xbe18c15c	-0.14917511
69	0x3f30c973	0.6905739
70	0x3f5ba6e5	0.85801536
71	0x3f9102a2	1.1328928
72	0x3e86b07e	0.26306528
73	0x3c4a3ae8	0.012343146
74	0x3f9c2483	1.2198642
75	0xc00ea00a	-2.228518
76	0x3ecf2ec6	0.40465373
77	0x3f995e62	1.1981928
78	0xbf3813bf	-0.7190513
79	0x3e2a32cd	0.16620941
80	0xbfb3c874	-1.4045548
81	0x3f8fefca	1.1245053
82	0x3e900115	0.28125826
83	0x3fa9fdc6	1.328057
84	0xbfa048e8	-1.2522249
85	0x3eef6836	0.46759194
86	0x3e3287d2	0.17434624
87	0xbf549880	-0.83045197
88	0x3ffe0e84	1.984818
89	0xbfb34e7d	-1.4008328
90	0xbd195771	-0.037436906
91	0xbf213cce	-0.62983406
92	0x403b4958	2.9263515
93	0x3eef3eba	0.46727544
94	0x3f768153	0.96291083
95	0x3f40d28d	0.75321275
96	0xbfd8cf74	-1.693831
97	0x3f2b6d86	0.66963995
98	0x3e9de5dc	0.3083943
99	0x3fc3440c	1.5255141
100	0x3f053992	0.5204097
101	0x3f0bf42e	0.54669464
102	0x3f9c9bf1	1.223509
103	0x3f2e22b6	0.68021715
104	0x3e261d16	0.16222033
105	0x3f00039a	0.50005496
106	0xbf935289	-1.1509563
107	0xbd9299ac	-0.07158217
108	0xbd912949	-0.07087953
109	0xc006bd8e	-2.1053195
110	0xbd0b18cc	-0.033959195
111	0x3fab2ff4	1.3374009
112	0x3fc0bbb0	1.5057278
113	0xbea3a67f	-0.31962964
114	0xbff43a8c	-1.9080367
115	0xbf95b45e	-1.1695669
116	0xbfb4ab2d	-1.4114739
117	0x3e913c89	0.28366497
118	0xbf8d1b0e	-1.1023881
119	0xbf943c61	-1.1580926
120	0xbf2f71ce	-0.6853303
121	0xbed82179	-0.42213038
122	0xbf2dd2e4	-0.6789992
123	0xbf9af533	-1.2106079
124	0x3f89672b	1.0734609
125	0x3fc19e51	1.5126439
126	0xbf397ce8	-0.72456217
127	0x3f154521	0.5830861

RNN.weight_ih_l0 f4 [512, 15]
0	0x3eb2bf78	0.34911704
1	0x3e5e8912	0.21731976
2	0xbcd4f060	-0.025993526
3	0x3d22e6a5	0.03977074
4	0x3dccfd44	0.10009244
5	0x3dcba56d	0.09943662
6	0x3e6f936d	0.23396082
7	0x3e148910	0.1450541
8	0x3cdbaf74	0.026817061
9	0x3ddf9b83	0.109183334
10	0xbc0eca18	-0.008715175
11	0x3e11e33e	0.14246842
12	0xbdc8be43	-0.098019145
13	0xbc342464	-0.010995004
14	0x3e8ad94b	0.27118906
15	0x3cf534a1	0.029932322
16	0x3d7b04d0	0.061283886
17	0x3dfcb72c	0.12339625
18	0xbbefe80c	-0.0073213633
19	0x3bbbe549	0.00573412
20	0x3d93ad8a	0.07210834
21	0x3e04ce4e	0.12969324
22	0x3cd2bdfa	0.025725354
23	0x3e3ba7a2	0.18325666
24	0xbbc22bbb	-0.0059256232
25	0x3d18263a	0.03714583
26	0xbd001f40	-0.031279802
27	0xbd833eab	-0.06408437
28	0x3e6f2893	0.23355322
29	0x3dce1849	0.10063226
30	0x3ed8aa77	0.42317554
31	0x3e61048a	0.21974388
32	0x3b014c7c	0.0019729426
33	0x3dae4f37	0.08511203
34	0x3e647a38	0.22312248
35	0x3d88c665	0.06678466
36	0x3e4f3d8a	0.20238319
37	0x3e277b84	0.16355711
38	0x3dc37af6	0.09544937
39	0x3d8da589	0.06916339
40	0x3da3b6d2	0.079938546
41	0x3e4d3c9c	0.20042652
42	0x3d180f96	0.03712424
43	0x3da14c2d	0.078758575
44	0x3e2eafb8	0.17059219
45	0x3e0ddfac	0.13854855
46	0xbcffda74	-0.031232096
47	0x3e11f39d	0.14253087
48	0xbd8e3418	-0.0694353
49	0x3e344174	0.17603093
50	0x3ca9e555	0.020739237
51	0x3e148a3c	0.14505857
52	0x3d9a1886	0.07524209
53	0x3da7941e	0.08182548
54	0xbd11d1f9	-0.035600636
55	0xbd0b4c4c	-0.03400831
56	0x3dc6e460	0.09711528
57	0x3d14e0c1	0.036347155
58	0x3d8631dc	0.06552479
59	0x3d0dc9fe	0.034616463
60	0x3d8022ad	0.06256614
61	0xbfeb7e9a	-1.8398011
62	0x3f3eea60	0.7457638
63	0xbb3a2b07	-0.0028406994
64	0x3e18f3b1	0.14936711
65	0x3e93ad6d	0.2884325
66	0xbd301053	-0.042984318
67	0x3e4da3eb	0.20082061
68	0x3e5632d1	0.20917822
69	0x3f42c3af	0.7607984
70	0xbc1a6237	-0.00942283
71	0x3e271328	0.16315901
72	0x3d1155a0	0.03548205
73	0x3e2b37fd	0.16720577
74	0x3d86c8c9	0.065812655
75	0x3e303528	0.17207778
76	0x3d331f7b	0.043731194
77	0x3d92ed00	0.071741104
78	0xbd85106c	-0.06497273
79	0x3d8f3656	0.06992786
80	0xbc0397a3	-0.0080317585
81	0x3dd78830	0.105240226
82	0x3dce62e0	0.10077453
83	0x3e154fc7	0.14581214
84	0x3db8ddb2	0.0902666
85	0xbc4f2664	-0.01264343
86	0x3b1314f0	0.00224429
87	0xbd5a5ff2	-0.053314157
88	0x3c82827e	0.015931364
89	0x3df8146e	0.12113272
90	0x3edc0de0	0.42979336
91	0xbe4254b8	-0.1897763
92	0x3e0213a2	0.12702802
93	0x3d8e9c5b	0.06963416
94	0x3e0ff91b	0.1405987
95	0xbcb1fb0a	-0.02172615
96	0x3e914955	0.2837626
97	0x3d7ca6d5	0.06168254
98	0x3d0e5822	0.03475202
99	0x3ddec4eb	0.10877403
100	0xbd1d44ab	-0.038395565
101	0x3ddae700	0.10688591
102	0x3d87e281	0.06634999
103	0x3e117312	0.14204052
104	0x3e502d01	0.20329668
105	0x3e392fec	0.18084687
106	0x3c14753c	0.009061154
107	0x3d097192	0.033555575
108	0xbc4ab624	-0.012372527
109	0xbd2f633c	-0.042819247
110	0x3eeb0af3	0.4590679
111	0x3e99c80b	0.30035433
112	0xbca91c67	-0.020643426
113	0x3d0510d7	0.032486763
114	0x3d7e895f	0.062142726
115	0x3e3cbc88	0.18431294
116	0xbc525e0c	-0.012839805
117	0x3d5e05db	0.054204803
118	0xbba653c9	-0.005075906
119	0x3e2ffe86	0.17186937
120	0x3d4ba195	0.049714644
121	0xbf250444	-0.64459634
122	0x3dc7520c	0.09732446
123	0x3d9c69c6	0.07637362
124	0xbe667a96	-0.225077
125	0x3c1c9e0c	0.009559166
126	0x3df75cdf	0.12078261
127	0xbe7ee131	-0.24890591
128	0x3dceb890	0.10093796
129	0x3de0eb20	0.109823465
130	0xbe0bbeb9	-0.13646974
131	0xbe400a7f	-0.18754004
132	0x3d2af7a4	0.041740075
133	0x3c085598	0.008321188
134	0x3e53d6ae	0.20687363
135	0xbb4cc08e	-0.0031242701
136	0x3f2e4578	0.6807475
137	0xbe79dea5	-0.24401338
138	0xbd73e02f	-0.05953997
139	0xbd1a023e	-0.037599795
140	0xbe92c3f6	-0.2866513
141	0x3d7c90b6	0.061661445
142	0xbd090a57	-0.033457126
143	0x3bf7367d	0.0075443373
144	0xbe88b945	-0.2670385
145	0xbd2ed87e	-0.04268693
146	0xbd58887f	-0.052864548
147	0x3dc71a8f	0.097218625
148	0x3c57a36b	0.0131615205
149	0x3c7785c8	0.0151075795
150	0x3d88f8cc	0.06688079
151	0xbd46766a	-0.048452772
152	0x3e4927ce	0.1964409
153	0xbd45fd1b	-0.048337083
154	0x3e591b21	0.21201755
155	0x3e994ffc	0.29943836
156	0x3d7f16e1	0.06227768
157	0x3e536141	0.20642568
158	0x3e2dc7bf	0.16970728
159	0x3dc6a585	0.09699539
160	0xbd2abb86	-0.041682743
161	0x3e6c2b2f	0.23063348
162	0x3d1a8ccc	0.03773193
163	0x3da25f9f	0.079283945
164	0xbdd891d3	-0.10574689
165	0xbcc049dd	-0.02347272
166	0x3d7ba40f	0.061435755
167	0x3e07a284	0.13245589
168	0x3d347de7	0.044065382
169	0x3e07487e	0.13211247
170	0x3f5a35f9	0.85238606
171	0xbda38b2f	-0.079855315
172	0x3e384155	0.17993672
173	0x3d706a07	0.058694866
174	0x3f773a27	0.9657311
175	0x3ce41ef8	0.027846798
176	0x3e3fb807	0.18722545
177	0x3e264b0a	0.16239563
178	0x3daa4766	0.083143994
179	0xbc3f320f	-0.01166965
180	0x3cade4ab	0.021227201
181	0x3dbf98dc	0.093553275
182	0x3e29604a	0.16540638
183	0xbd7c9bb8	-0.061671942
184	0x3e108d34	0.14116365
185	0x3ba26b28	0.0049566217
186	0xbceeafe9	-0.029136615
187	0x3e1d9f96	0.15392908
188	0x3e3ac7b9	0.1824025
189	0xbea9e001	-0.33178714
190	0x3ccce96a	0.025013644
191	0x3e1a615a	0.15076199
192	0xbb466096	-0.0030269972
193	0x3e680857	0.22659431
194	0xbb395e23	-0.002828487
195	0x3dfb9b74	0.1228551
196	0xbe872f0d	-0.26403084
197	0x3e6f5cc0	0.23375225
198	0xbd706cb9	-0.058697436
199	0x3e7c3a10	0.24631524
200	0x3e78f1d7	0.24311005
201	0x3d6a68c8	0.057228833
202	0x3ddabcbc	0.106805295
203	0x3e52bfea	0.20581022
204	0x3eaf82b2	0.342794
205	0xbd2d8cca	-0.042370595
206	0x3e636594	0.22206718
207	0xbd702488	-0.05862859
208	0x3df0b2df	0.11752867
209	0x3cb4a604	0.022051819
210	0xbc9d4f5d	-0.019202882
211	0x3dd8e9d2	0.10591473
212	0x3e34b9d8	0.17649019
213	0xbd298845	-0.041389722
214	0x3e1b27a5	0.15151842
215	0xbc8417ed	-0.01612469
216	0xbdb07cd2	-0.086175576
217	0x3d22cd68	0.039746672
218	0x3cbc6b53	0.023000395
219	0x3a512e36	0.0007979603
220	0xbb7ceeac	-0.0038594408
221	0x3db27339	0.08713383
222	0xbcb4b176	-0.022057276
223	0x3dfd3f54	0.123655945
224	0xbd921bbb	-0.071341954
225	0x3e146dce	0.14495012
226	0x3d8943c3	0.06702378
227	0x3e13e736	0.14443669
228	0xbd21678d	-0.039405394
229	0x3d6d7f57	0.05798277
230	0x3eaff459	0.3436611
231	0x3e1c2d76	0.15251717
232	0x3dd99441	0.1062398
233	0x3da3a0a6	0.07989626
234	0x3d6b659b	0.057469945
235	0xbd8e9473	-0.06961908
236	0x3e02fe12	0.12792233
237	0x3dd4143b	0.10355421
238	0x3e3f506f	0.18683027
239	0x3e1d8f44	0.15386683
240	0x3d825a0b	0.063648306
241	0x3f416d1b	0.75557107
242	0xbe089abc	-0.13340276
243	0x3d9e0487	0.07715707
244	0x3d3bd540	0.045857668
245	0x3e8ee58c	0.27909505
246	0x3c258d5f	0.010104506
247	0x3d26d57b	0.040730935
248	0x3e7add0f	0.2449839
249	0x3d691ade	0.05691039
250	0xbd0fc1b2	-0.03509683
251	0xbd977af5	-0.07396499
252	0x3d912287	0.07086664
253	0x3e63df8f	0.2225325
254	0x3cb2f007	0.02184297
255	0x3e47912b	0.19488971

RNN.weight_hh_l0 f4 [512, 128]
0	0x3dfdfede	0.12402128
1	0x3ebd3b64	0.36959374
2	0x3e940bf6	0.28915375
3	0x3e673b0f	0.22581123
4	0x3db6633e	0.08905648
5	0x3e89fd05	0.2695085
6	0x3d2363a1	0.039889935
7	0xbd4f5d52	-0.050626107
8	0xbe173ae3	-0.14768557
9	0x3deee3b3	0.11664524
10	0x3c63a362	0.013893934
11	0x3e1f6c82	0.15568736
12	0xbeba7ee5	-0.36424938
13	0x3d9ba883	0.076005004
14	0xbe3b5e6b	-0.18297736
15	0xbe0951e7	-0.1341015
16	0xbdddd85b	-0.10832282
17	0xbe54c7e2	-0.20779374
18	0x3e1c1ba1	0.15244915
19	0x3d99c97c	0.07509133
20	0x3e8fa97f	0.28059003
21	0x3deeb6f6	0.11655991
22	0x3caa05a2	0.020754639
23	0xbe1791d2	-0.1480172
24	0xbe8ec687	-0.2788584
25	0x3e36c734	0.17849427
26	0x3e46271a	0.19350854
27	0x3cc0294f	0.023457197
28	0xbe124aa2	-0.14286283
29	0xbe92f48b	-0.28702196
30	0x3eae644a	0.3406089
31	0x3cb7c43e	0.022432443
32	0xbe5197e7	-0.20468102
33	0x3d897451	0.06711639
34	0xbc983050	-0.018577725
35	0xbd3fdba7	-0.046840336
36	0xbe8545a5	-0.26029697
37	0xbccd4088	-0.025055185
38	0x3e22b5a3	0.15889601
39	0x3e92f1f8	0.28700233
40	0x3e61ebe7	0.22062646
41	0xbda2182d	-0.079147674
42	0x3e50dd4e	0.20396921
43	0xbe650020	-0.22363329
44	0x3cc00f57	0.023444815
45	0x3e1a9a01	0.1509781
46	0xbe9fc5d8	-0.3120563
47	0xbe816859	-0.25274923
48	0xbd026410	-0.03183371
49	0x3de7316e	0.11288725
50	0x3e1f999f	0.15585946
51	0xbdc4d9bd	-0.09611843
52	0x3e5646da	0.20925465
53	0x3e9cf7aa	0.30657703
54	0x3d893c31	0.06700934
55	0xbd9cfa3a	-0.076649144
56	0xbdceb719	-0.10093517
57	0xbe1d1a8f	-0.15342163
58	0xbcb7f488	-0.022455469
59	0xbe81bbe8	-0.25338674
60	0xbe7a4b3a	-0.24442759
61	0x3e4ce4c0	0.20009136
62	0xbcc5d19d	-0.024147803
63	0xbe4e3c4e	-0.20140192
64	0xbe3893c3	-0.18025117
65	0xbe8d94c6	-0.27652568
66	0xbe0542da	-0.13013783
67	0x3e34d30a	0.1765863
68	0xbd071d2c	-0.032986805
69	0xbe63ab2a	-0.22233263
70	0xbe818c00	-0.25302124
71	0x3e59f358	0.21284235
72	0x3e6c6485	0.2308522
73	0xbdc3778b	-0.095442854
74	0x3e0e640c	0.13905352
75	0xbe098cb4	-0.1343258
76	0x3e319ccb	0.17344968
77	0x3caa57f0	0.020793885
78	0x3e8ea064	0.27856743
79	0xbdceae66	-0.100918576
80	0xbe1cd1fd	-0.15314479
81	0xbdef4aad	-0.11684165
82	0x3e71f12c	0.23627156
83	0x3d637def	0.05554002
84	0xbe129bb6	-0.14317212
85	0xbe43ab48	-0.19108307
86	0x3eaa8f17	0.33312294
87	0x3e770eb7	0.24126707
88	0xbe30849f	-0.17238091
89	0xbdf36aea	-0.118856266
90	0xbd10d536	-0.035359584
91	0xbe8c9feb	-0.27465758
92	0x3b90006b	0.004394581
93	0x3e0dca57	0.13846718
94	0xbe511b05	-0.20420463
95	0xbd444638	-0.04791853
96	0xbe82ffe6	-0.2558586
97	0xbd57c01e	-0.05267345
98	0xbe1fff7a	-0.156248
99	0xbe04e93b	-0.12979595
100	0xbe3ef20b	-0.1864702
101	0x3e37e952	0.17960098
102	0xbd15005f	-0.036377307
103	0xbe3675b5	-0.17818339
104	0x3dc8edce	0.09810983
105	0xbe185e10	-0.14879632
106	0x3d304332	0.043032832
107	0xbe9c6a5e	-0.30549902
108	0xbe37c5e8	-0.17946589
109	0xbdaa524e	-0.083164796
110	0xbe2258cf	-0.1585419
111	0xbc955360	-0.018228233
112	0x3cb0f146	0.021599423
113	0x3de0beeb	0.10973915
114	0xbdeeec9f	-0.11666226
115	0xbe00a07b	-0.12561218
116	0x3e549d45	0.20763119
117	0x3e063565	0.13106306
118	0x3d860b86	0.06545167
119	0x3dac2fe8	0.08407575
120	0xbdb06943	-0.08613827
121	0x3de6e18b	0.11273488
122	0x3e7914af	0.24324296
123	0x3e4d5aac	0.2005412
124	0x3d7fb1f9	0.062425587
125	0x3e4a165e	0.19735095
126	0x3e281e6b	0.16417854
127	0xbd97beff	-0.074094765
128	0x3c9a1703	0.018809801
129	0xbd88860c	-0.066661924
130	0x3b7c8c58	0.00385358
131	0x3d885266	0.06656341
132	0xbdd6a2eb	-0.10480293
133	0x3dd54bf2	0.10414876
134	0xbdeb7508	-0.11496931
135	0xbe2f7ebb	-0.17138188
136	0xbcd8b223	-0.02645213
137	0xbd6897c4	-0.05678536
138	0x3d808cfc	0.06276891
139	0x3c3fd6de	0.011708943
140	0xbe13e602	-0.1444321
141	0x3e110515	0.14162095
142	0xbd39673c	-0.045264468
143	0xbe647660	-0.22310781
144	0xbde0c21c	-0.109745234
145	0xbe316e3e	-0.1732721
146	0xbc95e5b2	-0.018298004
147	0xbe27bbdf	-0.16380261
148	0x3e0ccbf2	0.13749674
149	0x3e02fc1f	0.12791489
150	0xbdaf942f	-0.08573186
151	0xbe35073b	-0.1767854
152	0x3d707cab	0.058712643
153	0x3db4fb6f	0.0883702
154	0x3d8a150f	0.06742298
155	0xbc38b203	-0.01127291
156	0xbe437430	-0.19087291
157	0xbdacce25	-0.084377564
158	0x3d8ded80	0.06930065
159	0xbdad5df5	-0.084651865
160	0xbdb24363	-0.08704259
161	0x3df79142	0.120882526
162	0x3d9b7f63	0.075926565
163	0x3d34c772	0.04413552
164	0xbe012ea7	-0.12615453
165	0xbcbcc271	-0.023041936
166	0x3d616bb6	0.05503436
167	0x3a63f6b8	0.0008696127
168	0x3dc2d2d1	0.09512866
169	0x3d654e63	0.05598296
170	0x3e667e9a	0.22509232
171	0xbdda3a72	-0.10655679
172	0x3ddc1708	0.1074658
173	0x3e8da325	0.27663532
174	0xbda05a7f	-0.07829761
175	0xbe1cb1fa	-0.15302268
176	0x3e0ac3d0	0.13551259
177	0x3d0b1537	0.03395578
178	0x3e3c5d2d	0.18394919
179	0xbe84093b	-0.25788292
180	0x3e02fb14	0.12791091
181	0x3e235acd	0.15952606
182	0x3d42c344	0.0475495
183	0xbdb917c0	-0.09037733
184	0x3d1cc87e	0.03827714
185	0xbe1d6eb6	-0.15374264
186	0x37895f88	1.6376158e-05
187	0xbde49181	-0.11160565
188	0xbdddc179	-0.108279176
189	0x3e0273bc	0.12739462
190	0xbdb4343c	-0.087990254
191	0xbe5ad981	-0.21372034
192	0x3c85b18b	0.01632001
193	0x3d18f304	0.037341133
194	0xbe3f593a	-0.18686381
195	0x3def1c85	0.116753615
196	0xbddebfd8	-0.10876435
197	0xbe395d51	-0.18102004
198	0xbdf4e947	-0.119585566
199	0x3e57e030	0.21081614
200	0x3dcac364	0.09900549
201	0xbe17f586	-0.14839754
202	0x3d8341e8	0.06409055
203	0xbe61147f	-0.21980475
204	0x3dfc3e94	0.12316623
205	0x3e1c72b4	0.15278131
206	0x3e0cb240	0.13739872
207	0x3aa4445e	0.0012532582
208	0xbdc317e1	-0.09526039
209	0xbde4c921	-0.11171175
210	0x3cbe79d5	0.023251453
211	0xbc2b1881	-0.010442854
212	0xbcc17fd4	-0.023620524
213	0xbe40a1f8	-0.18811786
214	0x3e90ee40	0.2830677
215	0x3e0c8d53	0.13725786
216	0x3d706e68	0.05869904
217	0x3d138c94	0.036022738
218	0x3d331709	0.04372314
219	0xbe3b72ec	-0.18305558
220	0xbcf3db55	-0.029767672
221	0x3de2956b	0.110636555
222	0xbe7e7b37	-0.2485169
223	0xbd73e097	-0.059540357
224	0xbe315d1c	-0.17320675
225	0x3ccc14e3	0.024912303
226	0xbd81a4da	-0.06330271
227	0xbe403f23	-0.18774085
228	0xbe45dd36	-0.19322667
229	0x3e2c17a2	0.1680589
230	0x3c935bd3	0.017988121
231	0xbd026435	-0.031833846
232	0xbd14b29e	-0.036303155
233	0xbe0166d1	-0.12636878
234	0x3d5c6a7c	0.05381249
235	0xbe245a54	-0.16050082
236	0xbe3d046b	-0.18458717
237	0x3df66d4c	0.120325655
238	0xbdaa1c7f	-0.083062164
239	0x3e1997d9	0.14999332
240	0x3aa9ac6b	0.0012945061
241	0x3e385905	0.18002708
242	0xbd98a1d3	-0.074527405
243	0xbe259a3b	-0.16172116
244	0xbdb48eb6	-0.088162825
245	0x3e2a72f1	0.16645409
246	0x3e121dd9	0.14269198
247	0x3e0d038b	0.13770883
248	0xbd8ae52b	-0.067819916
249	0x3c829cd4	0.015943922
250	0x3e3cb0fb	0.18426888
251	0x3d47374e	0.048636727
252	0x3e0af06b	0.13568275
253	0x3dab0c9f	0.08352017
254	0x3e0df82a	0.13864198
255	0xbd12e21e	-0.035860173

RNN.bias_ih_l0 f4 [512]
0	0x3e9f6004	0.31127942
1	0x3e3ba878	0.18325984
2	0x3e97e8bc	0.2966975
3	0x3e1badf6	0.1520308
4	0x3c6f96a8	0.014623322
5	0x3df58216	0.119877025
6	0x3e80e010	0.25170946
7	0x3e19f515	0.15034898
8	0x3df7b12c	0.1209434
9	0x3c4c28f1	0.012460933
10	0x3d25befe	0.040465347
11	0x3e06366e	0.13106701
12	0x3dba6f4d	0.0910326
13	0x3e407803	0.18795781
14	0x3e104e3a	0.14092341
15	0x3dcfda79	0.10149092
16	0x3de40e2d	0.11135516
17	0x3def8d97	0.11696928
18	0x3e26ea32	0.16300276
19	0x3c108103	0.008819821
20	0x3e4e44bc	0.20143408
21	0x3def0595	0.116709866
22	0xbd4b7bbc	-0.04967855
23	0x3d5351d6	0.051591717
24	0x3e6952d7	0.22785507
25	0xbe03bf5c	-0.12865967
26	0x3e38e767	0.18057023
27	0x3e9abc83	0.30221948
28	0x3d710673	0.05884404
29	0x3e16d52f	0.1472976
30	0x3db0555c	0.08610031
31	0x3e7e7eeb	0.24853103
32	0x3e51e53a	0.20497599
33	0x3e759150	0.23981214
34	0x3e89465e	0.26811498
35	0x3e2e12a7	0.16999303
36	0x3d1d2c58	0.038372368
37	0x3e1e32bf	0.15449046
38	0x3da46923	0.08027866
39	0xbde68c96	-0.112572834
40	0x3ebcb83b	0.36859307
41	0x3e204038	0.15649498
42	0x3da510d7	0.080598526
43	0x3dd181ad	0.10229812
44	0xbd527c98	-0.051388353
45	0x3d429b2e	0.047511272
46	0x3e01bd15	0.12669785
47	0x3d848995	0.06471554
48	0x3e31fe03	0.17382054
49	0x3e2e4206	0.17017373
50	0x3df89dbb	0.1213946
51	0x3e9d071b	0.30669484
52	0xbc9217eb	-0.01783367
53	0x3e27e053	0.16394167
54	0x3e647dea	0.22313657
55	0x3e23e3fa	0.16004935
56	0x3d9a99e4	0.075488836
57	0x3e027a2d	0.12741919
58	0xbd77bad4	-0.060480908
59	0x3e0d8e04	0.13823706
60	0xbc106ecc	-0.0088154785
61	0x3e702b0c	0.23453921
62	0x3e8d6505	0.27616134
63	0x3e048c93	0.1294425
64	0x3e24f21b	0.16107981
65	0x3dc25d03	0.09490397
66	0x3dbe85ae	0.09302841
67	0xbd92be01	-0.071651466
68	0x3db7e62c	0.08979449
69	0x3e599f75	0.21252234
70	0xbd9ee533	-0.0775856
71	0x3e405a48	0.1878444
72	0x3df65c08	0.12029272
73	0x3e4aba1a	0.19797555
74	0x3dbb5205	0.09146503
75	0x3e30c1bd	0.17261405
76	0x3e1eeb6a	0.15519491
77	0xbe099358	-0.13435113
78	0x3db33322	0.08749987
79	0x3d94f6bc	0.07273623
80	0x3e45285b	0.19253676
81	0x3dd1e429	0.10248596
82	0x3e217b34	0.15769655
83	0x3e3c218f	0.18372177
84	0x3e9ec572	0.31010014
85	0x3d6a9995	0.057275373
86	0x3e9cb550	0.3060708
87	0x3e5b2286	0.21399888
88	0x3e0d89f0	0.1382215
89	0x3eaf2510	0.34207964
90	0x3ea195b4	0.31559527
91	0x3e4fd94f	0.2029774
92	0x3e9d08e9	0.3067086
93	0x3d3e396e	0.046441488
94	0x3ddbf796	0.10740583
95	0x3dbdd9e1	0.09270073
96	0x3e347ea8	0.1762644
97	0x3ea16b1b	0.31527027
98	0x3e7a61e2	0.24451402
99	0xbd8a1096	-0.06741445
100	0x3e1afe66	0.15136108
101	0x3e929b1e	0.2863397
102	0x3ecb9f6a	0.3977006
103	0x3ceabcd7	0.028654499
104	0x3e57b92a	0.21066728
105	0x3e212cad	0.15739699
106	0xbd989635	-0.07450525
107	0x3e01af60	0.12664557
108	0x3e41f9a2	0.18942884
109	0x3e3d779f	0.18502663
110	0x3e3e73f1	0.18598916
111	0xbd1d0f13	-0.038344454
112	0x3d256002	0.040374763
113	0x3e0e9588	0.13924229
114	0x3d2ae47d	0.04172181
115	0x3e8c7f4a	0.27440864
116	0x3dfd15d7	0.12357681
117	0xbe1efc24	-0.15525872
118	0x3d635341	0.05549932
119	0x3d8d6c60	0.069054365
120	0x3e50e35f	0.20399235
121	0x3e18e16c	0.14929742
122	0x3db31538	0.087442815
123	0x3e2781d6	0.16358122
124	0x3dfb7ec1	0.12280036
125	0x3e51c327	0.20484601
126	0x3caa6326	0.02079923
127	0x3e3535ec	0.17696351
128	0x3d1723d4	0.036899403
129	0x3c6503c4	0.013977949
130	0xbe15561e	-0.14583632
131	0x3dc77016	0.097381756
132	0xbbbead7b	-0.0058190203
133	0x3decd67a	0.11564346
134	0xbdbbc086	-0.0916758
135	0xbdb596e1	-0.088666685
136	0xbe55070c	-0.2080347
137	0x3d2dd4a2	0.04243911
138	0x3dff9c97	0.12481039
139	0x3b7518ba	0.0037398771
140	0x3e0dac47	0.1383525
141	0xbd00c16e	-0.03143447
142	0xbd2ca446	-0.04214885
143	0x3e45886f	0.19290327
144	0xbd987d1c	-0.07445738
145	0x3dd5d3a7	0.1044076
146	0x3dfb08a4	0.122575074
147	0xbd7ceee8	-0.061751276
148	0x3e005793	0.12533407
149	0x3e00029c	0.12500995
150	0x3cbe0079	0.023193585
151	0x3e1d2460	0.15345907
152	0x3e45dea7	0.19323216
153	0x3da309f7	0.07960885
154	0x3da97d6d	0.08275876
155	0xbd026c71	-0.0318417
156	0x3c95e51b	0.018297723
157	0x3d0739e4	0.033014193
158	0x3e429432	0.19001845
159	0x3dd1741d	0.10227225
160	0x3dacdd0c	0.08440599
161	0x3ce0f1f6	0.027459126
162	0xbda96632	-0.08271445
163	0xbd227ce7	-0.039669897
164	0x3df27332	0.11838378
165	0x3e0bcd9b	0.13652651
166	0x3ddfb302	0.10922815
167	0x3ee44f61	0.4459181
168	0xbdb4367d	-0.08799455
169	0x3e0d1115	0.13776048
170	0x3df5e920	0.12007356
171	0xbdd34185	-0.10315231
172	0x3da515c7	0.08060794
173	0x3df34d19	0.118799396
174	0x3e2c3a5e	0.1681914
175	0x3e43f893	0.19137792
176	0xbc260962	-0.010134073
177	0x3e357ae0	0.17722654
178	0x3db30c11	0.08742536
179	0xbe5ff5b1	-0.21871068
180	0x3dbd669d	0.092480876
181	0x3da0b49a	0.07846947
182	0x3e0d7b73	0.13816623
183	0x3d199489	0.03749517
184	0x3d976da9	0.07393963
185	0x3e47c0f7	0.19507204
186	0xbd201316	-0.0390807
187	0x3dd874cb	0.105691515
188	0x3e053ab3	0.13010673
189	0xbe96fba9	-0.29488876
190	0x3c9cde23	0.019148892
191	0xbdf0594b	-0.11735781
192	0x3ded078e	0.115737066
193	0x3e196f4b	0.14983861
194	0x3da80161	0.08203388
195	0xbaa1449a	-0.001230377
196	0x3d867983	0.06566145
197	0x3c87ba50	0.016568333
198	0x3e12b1ba	0.1432561
199	0x3debbcab	0.11510595
200	0x3e0e12fb	0.13874428
201	0xbe34d970	-0.17661071
202	0x3daa5dbb	0.08318659
203	0x3d905fc4	0.07049516
204	0xbdc7566d	-0.09733281
205	0x3daf3fcb	0.085570894
206	0xbdca324e	-0.09872876
207	0x3d5bb299	0.05363712
208	0x3e7a3e62	0.2443786
209	0x3d62e79c	0.05539666
210	0x3e13e802	0.14443973
211	0xbe4ea169	-0.2017876
212	0xbe4297be	-0.19003198
213	0xbe29785a	-0.16549817
214	0xbdab674d	-0.083693124
215	0x3e04fd1e	0.12987182
216	0x3cb5e102	0.022202019
217	0x3d44d7f6	0.04805752
218	0xbd7bf179	-0.061509583
219	0x3e00a899	0.12564315
220	0xbe4b8074	-0.1987322
221	0x3dceb154	0.100924164
222	0x3d83a045	0.06427053
223	0x3e36bc25	0.17845209
224	0x3e18851f	0.14894532
225	0xbd5ab9cc	-0.053399846
226	0x3c8a8e6f	0.01691362
227	0x3e2b94c0	0.16755962
228	0x3d8d0a4b	0.06886729
229	0x3d51d514	0.051228598
230	0x3bb2213b	0.0054360903
231	0xbdc981a0	-0.09839177
232	0x3e4807ad	0.19534178
233	0xbd86689c	-0.065629214
234	0x3c5ca1ff	0.013466357
235	0x3e2d4465	0.16920622
236	0x3e74948a	0.23884788
237	0xbd9763db	-0.07392093
238	0x3d903b67	0.0704258
239	0xbe255666	-0.1614624
240	0x3bf63cd8	0.0075145774
241	0x3d79f256	0.061022125
242	0x3de5b823	0.11216762
243	0xbe07ba88	-0.1325475
244	0x3d987ddd	0.074458815
245	0xbd831c1d	-0.064018466
246	0xbe00a09a	-0.12561265
247	0xbe3ba9cb	-0.1832649
248	0x3e21ea4a	0.1581203
249	0xbc069ac8	-0.008215614
250	0x3d05aaa7	0.03263345
251	0x3de2434d	0.11047993
252	0xbd68ab11	-0.056803767
253	0x3dd6c420	0.104866266
254	0x3d9061d9	0.07049913
255	0xbd8e0007	-0.06933599

RNN.bias_hh_l0 f4 [512]
0	0x3e63b469	0.2223679
1	0x3e3179fe	0.17331693
2	0x3e76f807	0.24118052
3	0x3e1c49df	0.15262555
4	0x3e050014	0.12988311
5	0x3e371762	0.17880014
6	0x3eaa512a	0.33265048
7	0x3e853b88	0.2602198
8	0x3d9685ef	0.073497646
9	0xbde429c9	-0.111407824
10	0x3d2a036f	0.04150718
11	0xbcc0456c	-0.023470603
12	0x3da31476	0.07962887
13	0x3df20a04	0.118183166
14	0x3e1d664e	0.15371057
15	0x3e33ddb9	0.17565049
16	0x3d714525	0.058903832
17	0x3dbbd79b	0.09171983
18	0x3e2ce1de	0.16883036
19	0x3d89aee4	0.06722811
20	0x3d940bf5	0.07228843
21	0x3e300f9d	0.17193456
22	0xbe525038	-0.20538414
23	0x3d582750	0.052771866
24	0x3e2ded93	0.16985159
25	0xbe4b863d	-0.19875427
26	0x3e20b87d	0.15695377
27	0x3e4cabcb	0.19987409
28	0x3de9f168	0.11422998
29	0x3e3f6645	0.18691356
30	0x3e3712b2	0.17878225
31	0x3dee3d36	0.11632769
32	0x3e00a5b3	0.12563209
33	0x3e7bf0a7	0.2460352
34	0x3e3efae1	0.1865039
35	0x3e2c8d22	0.16850713
36	0x3da0c61c	0.07850286
37	0x3e35cea5	0.1775461
38	0x3e309460	0.172441
39	0xbbc74081	-0.0060806875
40	0x3e969aa8	0.29414868
41	0x3e0364ba	0.12831393
42	0x3e6e5d64	0.23277813
43	0xbb903bfd	-0.0044016824
44	0x3d92a94d	0.07161198
45	0x3e32b6cb	0.17452542
46	0x3e74503a	0.23858729
47	0x3dccaef9	0.09994311
48	0x3e83ee82	0.25767905
49	0x3e3cb1ca	0.18427196
50	0x3ddd3d6b	0.1080273
51	0x3ecc6b60	0.3992567
52	0xbcb7f433	-0.02245531
53	0x3d5c665b	0.05380855
54	0x3e1f03ec	0.1552884
55	0x3dc97207	0.09836202
56	0x3e5c3f0b	0.21508424
57	0x3dcce81a	0.10005207
58	0xbd30bf8b	-0.04315142
59	0x3e194228	0.14966643
60	0x3e0d4ee7	0.1379963
61	0x3e8f93ca	0.28042442
62	0x3e8aef0d	0.27135506
63	0x3d23b5f5	0.03996845
64	0x3e882c58	0.26596332
65	0x3e5bf70c	0.2148096
66	0x3e2c5e60	0.16832876
67	0xbdf91b0a	-0.121633604
68	0x3e37d53b	0.17952435
69	0x3e6d82f1	0.23194481
70	0xbe67d4be	-0.22639748
71	0x3db8ced8	0.09023827
72	0x3e73f0e6	0.23822364
73	0x3e5e1c9a	0.21690598
74	0x3dd8a185	0.105776824
75	0x3e2998d4	0.16562206
76	0x3e3f90de	0.18707606
77	0xbe2859ae	-0.1644046
78	0x3e016ead	0.12639876
79	0x3d97ab6c	0.07405743
80	0x3d128151	0.035767857
81	0x3e03a603	0.12856297
82	0x3e235373	0.15949802
83	0x3ea3cd05	0.31992355
84	0x3eec7c15	0.46188417
85	0x3cd417a7	0.025890185
86	0x3ec5146f	0.38492152
87	0x3e310d3a	0.17290202
88	0x3da1a97c	0.07893655
89	0x3ec5da2c	0.38643014
90	0x3ec614fb	0.38687882
91	0x3e75a647	0.23989211
92	0x3e916caf	0.28403232
93	0x3e19155f	0.14949559
94	0x3e59f17e	0.21283528
95	0x3e114016	0.14184603
96	0x3e15148b	0.14558618
97	0x3e8aa89d	0.27081767
98	0x3e0e57b0	0.13900638
99	0xbcbac8ea	-0.022800881
100	0x3e2dc69d	0.16970296
101	0x3ededef4	0.43529475
102	0x3ecd53c7	0.4010298
103	0x3dc7d448	0.09757286
104	0x3e540ce0	0.20708036
105	0x3e92b98d	0.2865719
106	0xbc5f33f6	-0.013623228
107	0x3e0e7f9d	0.13915868
108	0x3df71112	0.12063803
109	0x3e7ee750	0.24892926
110	0x3e56d2bd	0.20978828
111	0x3cbc9831	0.02302179
112	0x3dfb296e	0.122637615
113	0x3e36fc6b	0.17869727
114	0x3e44d938	0.19223487
115	0x3e131053	0.14361696
116	0x3e800e6d	0.25011006
117	0xbd85ab3b	-0.065268
118	0x3d50948b	0.05092291
119	0x3e539df9	0.2066573
120	0x3e57e3a9	0.21082939
121	0x3df576d8	0.11985558
122	0xbd294c12	-0.041332312
123	0x3e009311	0.12556101
124	0x3e6728b7	0.22574125
125	0x3e400dc9	0.18755259
126	0x3d90a71e	0.07063125
127	0x3d991493	0.07474627
128	0x3d99dc8c	0.07512769
129	0x3de465c0	0.1115222
130	0xbe09e154	-0.13464862
131	0x3e72813d	0.23682113
132	0x3d641968	0.05568829
133	0x3e178a54	0.14798862
134	0xbd6c26e2	-0.05765427
135	0xbd5689b0	-0.052377403
136	0xbe548fed	-0.20758028
137	0x3d2af63d	0.041738737
138	0x3e085c3e	0.13316438
139	0xbe231d2f	-0.15929101
140	0x3e5640a4	0.20923096
141	0x3c066117	0.008201859
142	0x3ad19b8a	0.0015991789
143	0x3e3006c7	0.17190085
144	0x3cba6dde	0.022757467
145	0x3e2ae91b	0.16690485
146	0x3e532b36	0.20621952
147	0xbd85a9da	-0.06526537
148	0x3ddc1cc6	0.107476756
149	0x3e1864bc	0.14882177
150	0xbdb2a20d	-0.08722315
151	0x3def5759	0.11686582
152	0x3d9924aa	0.07477696
153	0x3d8cb86a	0.06871112
154	0x3e66b31b	0.22529261
155	0xbcf784ad	-0.030214632
156	0xbc22fa42	-0.009947361
157	0x3c6f7265	0.014614676
158	0x3e38256a	0.17983022
159	0x3c87be34	0.016570188
160	0x3e015e27	0.12633573
161	0xbd5fc08b	-0.054626983
162	0xbbbb5087	-0.0057163867
163	0xbb70ce14	-0.0036743926
164	0x3d0544b4	0.032536224
165	0x3e51b63e	0.20479676
166	0x3e00746b	0.1254441
167	0x3e9db80f	0.30804488
168	0xbdea05cb	-0.11426886
169	0x3dadc550	0.084849
170	0x3e169ea1	0.1470895
171	0xbd71642b	-0.05893342
172	0x3db08c39	0.08620495
173	0x3e32b783	0.17452817
174	0x3d247e83	0.040159713
175	0x3e432161	0.19055702
176	0x3cc2a235	0.023758987
177	0x3d15f3e3	0.03660954
178	0x3e53a4ef	0.20668386
179	0xbea080d2	-0.31348282
180	0x3de75329	0.112951584
181	0x3e3dab23	0.18522315
182	0x3de3447d	0.110970475
183	0x3e171d83	0.14757352
184	0x3e2e1e5f	0.17003773
185	0x3e721af6	0.23643097
186	0xbba0c9a4	-0.00490685
187	0x3e837141	0.25672343
188	0x3b35e137	0.0027752647
189	0xbe6dfe37	-0.23241507
190	0xbdfba101	-0.122865684
191	0xbd8f6881	-0.070023544
192	0x3e215923	0.15756659
193	0x3e08b727	0.13351117
194	0x3e7bb0ba	0.24579135
195	0x3ba0b4b5	0.0049043545
196	0x3d7cfcc3	0.06176449
197	0x3d914a97	0.07094305
198	0x3e5745c4	0.21022707
199	0x3e1db983	0.15402798
200	0x3ddae743	0.10688641
201	0xbe990998	-0.29890132
202	0x3d09d316	0.033648573
203	0x3e407895	0.18795998
204	0xbe483ba6	-0.19554004
205	0x3db9c97e	0.09071635
206	0xbd9f25d1	-0.07770885
207	0x3ca05091	0.019569667
208	0x3db78b02	0.089620605
209	0x3e179515	0.14802964
210	0x3dc04b88	0.093894064
211	0xbe5e3d22	-0.21703008
212	0xbe238ac4	-0.15970904
213	0xbde5a881	-0.1121378
214	0xbe3ac24b	-0.1823818
215	0x3dfbe1b9	0.122989126
216	0x3d0bd09f	0.034134503
217	0xbb907ea0	-0.004409626
218	0x3cc2f9ea	0.023800809
219	0x3da9e604	0.08295825
220	0xbe0a7d0c	-0.13524264
221	0x3d479fbf	0.04873633
222	0x3e25a4a2	0.16176084
223	0x3d628e30	0.05531138
224	0x3e60cf9d	0.21954198
225	0x3d21e6aa	0.03952662
226	0x3df37cbe	0.11889027
227	0x3e11859f	0.14211129
228	0x3d3d6502	0.046238907
229	0xbc949fe5	-0.01814265
230	0x3c88493b	0.016636482
231	0xbdc3ccdc	-0.09560558
232	0x3e78d30a	0.24299255
233	0xbd8a622b	-0.06757005
234	0x3db24628	0.087047875
235	0x3d8eb923	0.06968906
236	0x3e2118d8	0.15732133
237	0xbd2a3de5	-0.041562933
238	0x3da902e2	0.08252503
239	0xbdbff767	-0.0937336
240	0x3d8100c5	0.06298975
241	0xbc846247	-0.016160144
242	0x3e2f89f9	0.17142476
243	0x3a6e42e0	0.00090889446
244	0xbd899937	-0.067186765
245	0xbd63230c	-0.055453345
246	0xbdc8ccdb	-0.09804698
247	0xbe52630f	-0.205456
248	0x3e3e592d	0.18588705
249	0xbd21744b	-0.039417546
250	0x3e356018	0.17712438
251	0x3cc98d0a	0.024603385
252	0xbb08b919	-0.002086228
253	0x3e7b8e90	0.24566102
254	0x3e247414	0.16059905
255	0xbcae681f	-0.021289883

actor.weight f4 [5, 128]
0	0xbd602263	-0.054720294
1	0x3e56e9c1	0.20987608
2	0x3db6e9ce	0.089313135
3	0x3d8f0f6c	0.06985363
4	0x3dc687f8	0.09693903
5	0x3da54595	0.08069912
6	0x3df7f04f	0.12106382
7	0x3de7e76e	0.113234386
8	0x3e5db051	0.2164929
9	0x3e980500	0.29691315
10	0x3e4ceb55	0.20011647
11	0xbcd9138d	-0.02649858
12	0xbdba824e	-0.09106885
13	0xbe2a82ca	-0.16651455
14	0x3b764c20	0.0037581995
15	0x3df567a2	0.11982657
16	0x3e95b579	0.29240015
17	0xbe46760f	-0.19380973
18	0x3d0dcc26	0.03461852
19	0x3e4cd3e7	0.2000271
20	0x3db1bc0d	0.08678446
21	0xbdae7dcc	-0.085200876
22	0x3d30dac6	0.04317739
23	0x3cbac9bd	0.022801274
24	0xbeaeb379	-0.34121302
25	0x3dd9218b	0.10602101
26	0x3d128f72	0.03578133
27	0xbe1896f2	-0.14901331
28	0xbc49a5e7	-0.012307621
29	0xbdfafe08	-0.12255484
30	0x3dd8f002	0.10592653
31	0xbdb3b47e	-0.087746605
32	0xbe5a64e6	-0.21327552
33	0x3d1d16c9	0.038351808
34	0x3cee5b7c	0.029096358
35	0xbd573a54	-0.05254586
36	0xbe629484	-0.22126967
37	0x3e28662f	0.1644523
38	0x3dca4c38	0.09877819
39	0xbeb45321	-0.35219672
40	0x3d8ba097	0.068177395
41	0xbe094425	-0.13404901
42	0x3c3f2346	0.011666125
43	0x3d541d01	0.051785473
44	0x3e1f0cc7	0.15532218
45	0xbd6c3de5	-0.057676215
46	0xbd229812	-0.039695807
47	0x3b864c55	0.004098455
48	0x3b44d1a7	0.003003219
49	0x3cc116dd	0.023570472
50	0xbd7e5f55	-0.062102634
51	0xbdbfbb92	-0.09361948
52	0x3de8f359	0.1137454
53	0x3e569488	0.20955098
54	0x3d996c4f	0.07491361
55	0x3ca035dc	0.019556932
56	0x3d31399d	0.043267835
57	0x3dc317ce	0.09526025
58	0xbe3cfab2	-0.18455008
59	0xbcfd55fc	-0.03092479
60	0x3d62c7f1	0.05536646
61	0x3e1c6f38	0.15276802
62	0x3e56240b	0.20912187
63	0x3d6ec0d7	0.058289375
64	0x3d1f90b3	0.038956355
65	0xbe388bee	-0.18022129
66	0x3e3521e3	0.17688708
67	0x3df1992a	0.11796792
68	0xbe696b5c	-0.2279486
69	0xbe7ebd15	-0.24876817
70	0xbcc39833	-0.023876285
71	0xbdff8822	-0.12477137
72	0x3c8a4578	0.016878828
73	0x3e39483b	0.1809396
74	0xbda9a01a	-0.0828249
75	0x3d8b8b2a	0.06813653
76	0x3ddb661e	0.10712837
77	0xbd2120ae	-0.039337806
78	0x3e41ff7d	0.18945117
79	0xbc7a632e	-0.015282435
80	0xbcf78059	-0.030212568
81	0x3c7abbc7	0.015303559
82	0xbda79475	-0.08182613
83	0xbe72c48c	-0.23707789
84	0xbdb2e281	-0.087346084
85	0xbdda4bd1	-0.10658992
86	0x3dd96969	0.106158085
87	0x3e646570	0.2230432
88	0xbe32cd8d	-0.17461224
89	0x3dd47489	0.1037379
90	0xbea8674d	-0.32891312
91	0xbe2b7cb4	-0.16746789
92	0x3c140268	0.009033777
93	0xbcfab9d7	-0.030606193
94	0x3c8669e7	0.01640792
95	0xbe934f01	-0.28771213
96	0xbd93bffe	-0.07214354
97	0xbe33de84	-0.17565352
98	0xbc3ddf66	-0.011588907
99	0xbd37d3d8	-0.044879764
100	0xbd7e0c42	-0.06202341
101	0x3c9abec4	0.018889792
102	0xbe84a3b3	-0.25906143
103	0xbe6d218e	-0.23157331
104	0x3d0f6374	0.035006955
105	0x3ddb0402	0.10694124
106	0xbc8f6d2c	-0.017508112
107	0x3e09dffa	0.13464347
108	0xbdffdcaf	-0.12493264
109	0xbe610580	-0.21974754
110	0xbdb98cb9	-0.09060044
111	0xbe084acc	-0.13309783
112	0x3d85c018	0.065307796
113	0x3dc437c5	0.0958095
114	0xbe0bd9c3	-0.13657288
115	0x3daad5d0	0.08341563
116	0x3e5126a0	0.2042489
117	0xbdef17b4	-0.11674443
118	0xbe30b7a4	-0.17257553
119	0x3dcd56d6	0.10026328
120	0xbd9564d4	-0.07294622
121	0x3e877117	0.26453468
122	0x3e38b89a	0.1803917
123	0xbd93a23d	-0.07208679
124	0xbde30878	-0.110856
125	0x3dbe0fc2	0.09280349
126	0xbde7348a	-0.11289318
127	0xbdc63370	-0.0967778
128	0xbeb34041	-0.3500996
129	0x3eb5da5c	0.35518157
130	0xbed23344	-0.41054738
131	0x3cec0bcc	0.028814219
132	0x3e3a8a25	0.1821676
133	0x3e49981d	0.19686933
134	0x3eb08195	0.34473863
135	0xbec8e505	-0.39237228
136	0xbea1fc1b	-0.31637654
137	0x3d362a30	0.044473827
138	0x3e2bf4e3	0.16792636
139	0x3deac788	0.11463839
140	0xbcee8daf	-0.029120294
141	0x3d54fad1	0.05199701
142	0x3b66ac5a	0.0035197944
143	0xbd15dbc2	-0.03658653
144	0xbe4e387d	-0.20138736
145	0xbd6f7074	-0.058456853
146	0x3de0a989	0.10969836
147	0xbd7a6ce8	-0.061139017
148	0x3e7e7e63	0.248529
149	0x3d28567c	0.041098103
150	0xbe0d42d1	-0.1379502
151	0xbc6843c9	-0.0141763175
152	0xbe5bf49c	-0.2148003
153	0xbdaa2d1b	-0.083093844
154	0x3e510452	0.20411804
155	0xbd359c42	-0.044338472
156	0xbda5080b	-0.08058175
157	0xbe7c2a20	-0.24625444
158	0x3e8b10f3	0.2716137
159	0x3e4ac920	0.19803286
160	0xbdd1a96d	-0.102373935
161	0xbe37555e	-0.17903659
162	0xbe17959a	-0.14803162
163	0xbdac7c3f	-0.084221356
164	0x3c9ecfbb	0.019386163
165	0xbdcd1ced	-0.10015283
166	0x3e863878	0.26214957
167	0xbdd901d6	-0.10596053
168	0x3d218147	0.03942993
169	0xbe0b14e6	-0.13582191
170	0x3d955b3d	0.07292793
171	0x3eb639d4	0.35590994
172	0xbcee5c3e	-0.029096719
173	0x3d0a62e7	0.033785727
174	0xbdc94d81	-0.09829236
175	0xbe15051b	-0.14552729
176	0xbdb5a0ba	-0.08868547
177	0x3e1d6fc5	0.15374668
178	0x3df93cb7	0.121697836
179	0x3ec370d6	0.38172024
180	0x3de5f95a	0.11229201
181	0x3dcea00f	0.100891225
182	0x3da11138	0.07864612
183	0x3c91d5d1	0.01780215
184	0xbdbd891c	-0.09254667
185	0xbe0acd85	-0.13554962
186	0xbe300c57	-0.17192207
187	0xbe118512	-0.14210919
188	0xbd22e6a1	-0.039770726
189	0x3e816bf1	0.25277665
190	0xbc3773c4	-0.011197034
191	0xbe3ab8b5	-0.18234523
192	0xbddd5423	-0.108070634
193	0xbe20f69d	-0.15719076
194	0xbd2fa2e8	-0.04287997
195	0xbdb2f747	-0.08738571
196	0xbde64ce8	-0.112451375
197	0xbdbc1e6b	-0.09185489
198	0x3de82b81	0.11336423
199	0x3def128c	0.116734594
200	0x3e417304	0.18891531
201	0xbe674946	-0.22586545
202	0xbdcdf595	-0.10056607
203	0xbd2f3a08	-0.042779952
204	0xbef2ed09	-0.47446468
205	0xbe82eed5	-0.2557284
206	0xbea8fe81	-0.3300667
207	0xbe1251e7	-0.14289056
208	0xbdd667ba	-0.10469003
209	0xbe29691a	-0.16544
210	0x3dbf3bfd	0.09337614
211	0x3e9e79af	0.30952212
212	0x3e890f53	0.26769504
213	0xbe229377	-0.15876566
214	0xbe44efb0	-0.19232059
215	0x3e983def	0.29734752
216	0xbe2843de	-0.1643214
217	0xbe733c80	-0.23753548
218	0x3dc98ca9	0.09841282
219	0xbe5d023f	-0.21582888
220	0x3ec4fe5e	0.38475317
221	0x3e6ca8af	0.23111223
222	0x3c3eb7b6	0.01164048
223	0xbe62c0f2	-0.22143915
224	0xbe2f6257	-0.17127357
225	0x3e3f5959	0.18686427
226	0x3c7187c2	0.01474184
227	0xbeb46542	-0.35233504
228	0xbdc02a60	-0.093830824
229	0x3e4fa63c	0.20278257
230	0xbeb9b6dd	-0.36272326
231	0xbe9c3621	-0.30510047
232	0x3e787ac4	0.24265581
233	0x3e81e7a9	0.25372055
234	0x3e2c8edc	0.16851372
235	0xbdd385e0	-0.10328269
236	0xbe7f72ef	-0.24946187
237	0x3e23bbb2	0.15989569
238	0xbe2cebaf	-0.16886781
239	0x3d679e04	0.05654718
240	0x3e3193b6	0.17341504
241	0x3e85efc6	0.26159495
242	0x3b92e865	0.00448327
243	0xbe7f0af5	-0.24906524
244	0x3ea7445c	0.32669342
245	0x3e0b8084	0.13623244
246	0x3db5df61	0.08880497
247	0x3e2ea429	0.1705481
248	0xbe3614d3	-0.17781381
249	0x3e81496b	0.25251326
250	0x3ed2baab	0.4115804
251	0x3c0b060d	0.008485329
252	0xbe32c3e0	-0.17457533
253	0x3dfa64e4	0.122262746
254	0x3e2321d5	0.15930875
255	0xbe8a9356	-0.27065533

actor.bias f4 [5]
0	0x3d293d92	0.041318484
1	0x3d9450a2	0.07241942
2	0x3d8fea92	0.070271626
3	0x3ccc5eb0	0.024947494
4	0x3df53e5a	0.11974783

critic.weight f4 [1, 128]
0	0x3c977cb3	0.018492078
1	0xba5655b2	-0.0008176222
2	0x3db6c94b	0.08925112
3	0x3de58a80	0.112080574
4	0xbe81c5ad	-0.25346127
5	0x3d4db4f4	0.0502214
6	0x3dd3f61b	0.10349675
7	0xbdcd9958	-0.100390136
8	0x3d07b7dc	0.033134326
9	0x3df5b73d	0.119978406
10	0x3e092452	0.13392761
11	0x3e766587	0.24062167
12	0xbbe4a342	-0.0069774697
13	0x3cbab92c	0.022793375
14	0x3d2e06fb	0.042487126
15	0xbe5f9f02	-0.21838
16	0x3c175a63	0.0092378585
17	0xbe0e5753	-0.13900499
18	0x3decc3fa	0.11560817
19	0xbd81086b	-0.06300434
20	0x3d8ef224	0.069797784
21	0x3e024484	0.12721449
22	0xbe678177	-0.2260798
23	0xbe6a0021	-0.22851612
24	0xbd729e2b	-0.059232872
25	0x3e13702e	0.14398262
26	0xbcb451ec	-0.02201172
27	0xbe233672	-0.15938738
28	0x3d4cd275	0.050005395
29	0x3bc6f087	0.0060711536
30	0x3c583317	0.0131957745
31	0x3d4bf9c2	0.049798734
32	0xbe53e13d	-0.2069139
33	0x3d4628df	0.04837882
34	0x3d6bcd1c	0.057568654
35	0x3c438067	0.011932469
36	0xbd27f23f	-0.04100251
37	0xbd997838	-0.07493633
38	0x3e11f98f	0.14255355
39	0x3ed0c1f2	0.4077297
40	0xbe0f7e41	-0.14013006
41	0xbd28caf3	-0.041209172
42	0x3e110f6d	0.1416604
43	0xbd302177	-0.043000665
44	0x3eacfac2	0.33785063
45	0x3e22b352	0.15888718
46	0xbc0d9bd8	-0.008643113
47	0xbdf2ac3b	-0.118492566
48	0xbbfc97a4	-0.0077085067
49	0x3d368f12	0.044570036
50	0x3c241dae	0.010016842
51	0xbde49772	-0.111616984
52	0xbde40ef8	-0.111356676
53	0x3df9b38a	0.121924475
54	0x3e296676	0.16542992
55	0xbdf39ab2	-0.1189474
56	0xbd2a10e6	-0.04152002
57	0xbd974055	-0.07385317
58	0xbd641d1e	-0.05569183
59	0xbe0df7a9	-0.13864006
60	0x3b8c629e	0.004284217
61	0xbcecc3ad	-0.0289019
62	0x3d35db45	0.044398565
63	0xbc8a2f96	-0.016868394
64	0xbdc78dae	-0.0974382
65	0xbe4ff121	-0.20306827
66	0xbda90129	-0.082521744
67	0xbe8c166b	-0.27360854
68	0x3e5bf6a2	0.21480802
69	0xbe02b3d7	-0.12763916
70	0xbd7cf9f1	-0.0617618
71	0x3d24a3fc	0.04019545
72	0x3d81a8c1	0.063310154
73	0xbc226453	-0.0099116145
74	0xbd265625	-0.040609498
75	0xbe7235a4	-0.23653275
76	0x3d933f6a	0.0718983
77	0x3e2d4a9a	0.1692299
78	0x3d778129	0.06042591
79	0x3cbe3114	0.023216762
80	0xbd77b278	-0.060472935
81	0xbdf6773c	-0.12034461
82	0xbcef09e1	-0.029179515
83	0x3dbaf8d9	0.09129495
84	0xbd927a46	-0.07152228
85	0xbb3dd57c	-0.0028966358
86	0x3df9fb4d	0.12206135
87	0x3db31bdb	0.087455474
88	0xbe366ed2	-0.17815712
89	0xbd917dda	-0.071040824
90	0xbe156b76	-0.14591774
91	0xbd4be43f	-0.04977822
92	0x3c28144f	0.010258748
93	0x3d821776	0.06352131
94	0xbde26331	-0.110540755
95	0xbc2aa2de	-0.010414807
96	0xbe87104d	-0.26379624
97	0x3dd5bbab	0.104361854
98	0xbe2e944c	-0.17048758
99	0xbd85e6e4	-0.065381795
100	0xbdfdc078	-0.12390226
101	0x3cb1fa32	0.021725748
102	0x3e0bb26c	0.13642281
103	0x3d55edb2	0.052228637
104	0x3d415cb8	0.047207564
105	0x3e0717fa	0.1319274
106	0xbd5f7ade	-0.054560535
107	0xbd586d0c	-0.05283837
108	0xbe408066	-0.1879898
109	0x3e2506d7	0.1611589
110	0xbd248c6e	-0.040172987
111	0xbddd338f	-0.1080085
112	0xbc8a9d4a	-0.016920704
113	0x3d51fb6d	0.05126517
114	0xbda2adbd	-0.07943294
115	0x3dfdb5f0	0.123882174
116	0x3cedc8f5	0.029026488
117	0x3d4e3423	0.05034269
118	0xbccc0ef7	-0.02490948
119	0xbd485a55	-0.048914272
120	0xbd447f0f	-0.047972735
121	0x3cd923bc	0.026506297
122	0x3b9ed808	0.0048475303
123	0x3e1b0fce	0.15142748
124	0xbd4aad4a	-0.049481668
125	0x3e6eec82	0.23332408
126	0xbbabe89d	-0.0052462355
127	0xbe2c72a6	-0.1684061
