Liu/test_var/v_3/train_iter_17800.pt (torch, 597191 bytes, 9 tensors)

h0 f4 [128]
0	0xbfa2e2f1	-1.2725507
1	0x3f134be8	0.575377
2	0x3f5b6907	0.85707134
3	0xbf852437	-1.0401677
4	0xc03377d2	-2.8041883
5	0x3cbffcf0	0.02343604
6	0x3fb4bd9f	1.4120368
7	0xbfbe2383	-1.4854587
8	0x401529c9	2.3306754
9	0xbdaca242	-0.08429386
10	0x3edb09cc	0.42780912
11	0xbf865292	-1.0493948
12	0x3f9a2ee3	1.2045559
13	0x3e59d0e3	0.2127109
14	0xbf0331ca	-0.5124785
15	0x3f86d845	1.053475
16	0x3f53cffb	0.8273923
17	0x3f6c9935	0.92421275
18	0x3f2461c7	0.64211696
19	0x3dcd44c8	0.100228846
20	0x3f4c58a9	0.79822785
21	0x3fbfc8e2	1.498318
22	0x3f2e9133	0.68190306
23	0xbec8eec9	-0.3924468
24	0xbee39485	-0.4444925
25	0xbe40e9e7	-0.18839227
26	0x3ec7e324	0.39040482
27	0xbf11f2f1	-0.57011324
28	0x3f14bc92	0.58100235
29	0x3e1abc57	0.15110908
30	0x3eed9518	0.46402812
31	0x3f4b6b86	0.7946094
32	0x3ff6dd7e	1.9286344
33	0x3fc9e4fa	1.5773003
34	0x3f74d226	0.9563316
35	0xbee8d870	-0.4547763
36	0x3f10d7eb	0.56579465
37	0x3f934222	1.1504557
38	0xbe0683ce	-0.13136217
39	0xbf99f683	-1.2028354
40	0xbf825931	-1.0183469
41	0xbfca2aea	-1.5794346
42	0xbf37650a	-0.7163855
43	0x401a329d	2.4093392
44	0xbea21eae	-0.31664032
45	0x3ec89b1a	0.39180833
46	0x3ef0778b	0.46966204
47	0xbf001168	-0.5002656
48	0xbf10906d	-0.56470376
49	0x3ff7dc5f	1.9364127
50	0xbfe4e258	-1.7881575
51	0xbf078f89	-0.5295339
52	0xbf770347	-0.96489376
53	0xbfc3b799	-1.5290405
54	0xbf16c831	-0.5889922
55	0xbf1e578d	-0.6185234
56	0x3ee1baa7	0.44087717
57	0xbfbbf31c	-1.4683566
58	0x3e83c985	0.25739685
59	0xbff3b592	-1.9039786
60	0x3f3a8c63	0.72870463
61	0xbf0b8a31	-0.5450774
62	0x401fc9f1	2.4967005
63	0x3d44cfdd	0.048049796
64	0xbe18f8cd	-0.1493866
65	0xbfd0e690	-1.6320362
66	0xbf2a1049	-0.664311
67	0xbeca70d6	-0.39539212
68	0xbe40fe4c	-0.18847007
69	0xbfc3691a	-1.526645
70	0xbff856e6	-1.9401519
71	0x3b310505	0.0027011049
72	0x3f68908c	0.9084556
73	0xbf7150d9	-0.9426399
74	0xbfbc712e	-1.472204
75	0x3f1a7684	0.6033709
76	0xbf21a2d0	-0.6313906
77	0xbf6af26c	-0.91776156
78	0x3f602706	0.87559545
79	0xbf6fcc52	-0.93671143
80	0x3fda08e9	1.7033969
81	0x3eb22305	0.34792343
82	0x3f96a955	1.1770426
83	0x3fb4af85	1.4116064
84	0x3e9ba847	0.30401823
85	0x3e84915f	0.2589216
86	0xbe33f925	-0.1757551
87	0xbf0f8ab7	-0.5607104
88	0x3fab22a4	1.3369946
89	0xbf06befa	-0.5263516
90	0xbfb4cc8d	-1.4124924
91	0xbf0895dd	-0.53353673
92	0x3eaa349a	0.33243257
93	0xbedc81cb	-0.43067774
94	0x3f878516	1.058749
95	0xbfe03840	-1.7517166
96	0xbfa2d135	-1.2720095
97	0x3f26c346	0.65141714
98	0x3ebf16f2	0.37322193
99	0x3ecc8e7d	0.3995246
100	0xc019c1ba	-2.4024491
101	0xbf6ae3f7	-0.91754097
102	0xbe1d64f5	-0.15370543
103	0x3e96974a	0.294123
104	0xbf202ea9	-0.625712
105	0x3f1caddb	0.6120278
106	0xbeb72444	-0.35769856
107	0x3f4d1466	0.8010925
108	0x3f0813e6	0.5315536
109	0x3e814674	0.25249064
110	0x3f1232a9	0.5710855
111	0x3ff4bf1f	1.9120826
112	0xbf7e420f	-0.9931955
113	0xbf63deda	-0.8901192
114	0x3e9e0f50	0.30871058
115	0xbf5b5e93	-0.85691184
116	0x3fa8f883	1.320084
117	0x3eb8b901	0.36078647
118	0x3f874ee0	1.0570946
119	0x3f1e08f9	0.6173244
120	0x3f6bcf8f	0.92113584
121	0x3f945449	1.1588222
122	0xbfd9b001	-1.7006837
123	0xbe970d08	-0.2950213
124	0xbe86e6a9	-0.26347855
125	0x3f50f232	0.8161956
126	0xbfa203a0	-1.2657356
127	0x3f088309	0.53324944

c0 f4 [128]
0	0x3e17ffc4	0.1484366
1	0xbecb654d	-0.39725724
2	0xbe908d12	-0.28232628
3	0x3fc74588	1.5568094
4	0x3e9aee63	0.3026
5	0xbd9a8c46	-0.07546286
6	0xbf3e92bc	-0.7444265
7	0xbe4d0cde	-0.2002444
8	0xbf133ec5	-0.57517654
9	0xbd8f58e3	-0.06999376
10	0xbfaaae34	-1.3334413
11	0x3f18a1c8	0.5962186
12	0x3fa3f7e8	1.281003
13	0x3f87abf6	1.0599353
14	0xbf436ed7	-0.76341003
15	0xbf6b51c9	-0.9192167
16	0x3ede7b2f	0.43453357
17	0x3fbaf763	1.4606746
18	0x3f64370c	0.89146495
19	0xbd1926a1	-0.037390355
20	0x3f45e1ce	0.77297676
21	0x3e820e2b	0.25401434
22	0xbf04e638	-0.51913786
23	0x3f942684	1.1574254
24	0x400d0af1	2.2037928
25	0xbf1e4abe	-0.618328
26	0xbe604649	-0.21901812
27	0x3f5843cd	0.84478456
28	0x400386e6	2.0551085
29	0xbf01431c	-0.50493026
30	0x3f2e7739	0.6815067
31	0x3fc14f84	1.5102391
32	0xbeb4d8f2	-0.35321766
33	0x3e3e37b5	0.18575938
34	0xc00048f5	-2.004453
35	0xbf8f5973	-1.1199173
36	0x3e8f83f4	0.2803036
37	0xbf4ad3fa	-0.792297
38	0xbf019099	-0.50611264
39	0x3e7d36de	0.24727961
40	0xbfa89b53	-1.3172401
41	0x3f392e99	0.7233673
42	0x40275af7	2.614927
43	0xbf8f1ce4	-1.1180692
44	0x3fa45dab	1.2841085
45	0x3fc12dee	1.5092142
46	0x3fc8e368	1.5694399
47	0xbc9fd238	-0.01950942
48	0x3f9fd2af	1.248617
49	0x3efd16ae	0.49431366
50	0xbf8a8341	-1.0821306
51	0xbf370b0f	-0.7150125
52	0x3f872bfe	1.05603
53	0xbf44c806	-0.7686771
54	0xbeca37c4	-0.3949567
55	0xbf881be8	-1.0633516
56	0x3ff193a2	1.8873179
57	0x3d82e084	0.06390479
58	0x3fa9a7f3	1.3254379
59	0x3f2d7ac3	0.67765445
60	0xbf0e91d1	-0.5569125
61	0x3e9bf1c6	0.30457896
62	0x3ee136f1	0.4398723
63	0x3eccb2f3	0.39980277
64	0x40068c30	2.1023064
65	0x3f5dc54f	0.86629194
66	0x4001b893	2.0268905
67	0x3db4f18f	0.08835136
68	0xbf59f693	-0.8514187
69	0xbf432bf8	-0.76238966
70	0xbda66bb6	-0.08126013
71	0xbf3ff45a	-0.74982226
72	0x3f072362	0.52788365
73	0xbf73f7c4	-0.95299935
74	0xc007fa6d	-2.1246598
75	0xbf630a2b	-0.8868739
76	0xbde59459	-0.11209936
77	0x3f8b9858	1.0905867
78	0x3e8c8105	0.27442184
79	0xbf9a8303	-1.2071232
80	0xbf06df77	-0.5268473
81	0xbfde65e4	-1.7374845
82	0xbeeb2bd9	-0.4593189
83	0x3f80446a	1.0020878
84	0x3fdab457	1.7086285
85	0xbf1ad520	-0.6048145
86	0x3fd4ac4c	1.6615081
87	0x3de9d60a	0.11417778
88	0xbf69572c	-0.9114864
89	0x3e89fa7a	0.2694891
90	0xbcc37e83	-0.023864036
91	0x3e6d15cf	0.2315285
92	0xbfb5f3a5	-1.421498
93	0xbf85d75f	-1.0456351
94	0xbb1a42d2	-0.0023538363
95	0x3fe1ca08	1.763978
96	0x3ed6d030	0.4195571
97	0x3f4f3e75	0.80954677
98	0x3f1b0e7e	0.6056899
99	0x3e928326	0.28615683
100	0xbf5a6839	-0.8531528
101	0x3f4ac239	0.7920261
102	0x3f41073a	0.7540165
103	0x3f7e9cd6	0.9945806
104	0x3f75c8e7	0.9600968
105	0xbe68817e	-0.22705647
106	0x40047ad4	2.0699968
107	0xbe8e8aa0	-0.27840137
108	0x3ed6ed5f	0.41977975
109	0xbfa681d5	-1.3008372
110	0x3ea008c8	0.312567
111	0xc0233f0b	-2.5507228
112	0xbf1cd83f	-0.61267465
113	0xbed54259	-0.41652182
114	0x40047d02	2.0701299
115	0xbfa9f7df	-1.3278769
116	0xbdfac3d7	-0.12244385
117	0x3f150f7d	0.5822676
118	0xbf200438	-0.6250644
119	0xbea47faa	-0.3212865
120	0xbfb3d1d5	-1.4048411
121	0x3f6335d6	0.8875402
122	0xbee70711	-0.4512258
123	0x3fc1cbbb	1.5140299
124	0x3f0cbebc	0.5497854
125	0xbf1e5d70	-0.61861324
126	0xbf11163b	-0.56674546
127	0xbe58c22a	-0.21167818

RNN.weight_ih_l0 f4 [512, 15]
0	0x3d4512c7	0.04811361
1	0x3dd3a6f3	0.103345774
2	0x3db94a2e	0.09047352
3	0x3d55aeba	0.052168585
4	0x3cf9a098	0.030472085
5	0x3dd2552b	0.10270151
6	0x3df569c7	0.11983066
7	0x3d886f1f	0.0666182
8	0x3dd99c72	0.10625543
9	0x3e17bf30	0.14819026
10	0x3e901ffe	0.28149408
11	0x3d7d01b6	0.06176921
12	0xbe761024	-0.24029595
13	0xbe26e108	-0.1629678
14	0x3dd8c1a4	0.10583809
15	0xbd269cad	-0.04067676
16	0x3e1c8a03	0.15287022
17	0xbf18275e	-0.5943507
18	0x3d8a5b43	0.06755688
19	0x3d0a65ea	0.0337886
20	0xbd1886cb	-0.037237924
21	0x3d95bfa5	0.07311944
22	0x3db23a41	0.08702517
23	0xbd5328a0	-0.051552415
24	0xbdc312f5	-0.095251
25	0x3ce36b87	0.027761234
26	0xbde3d166	-0.11123924
27	0x3d46981f	0.048484918
28	0xbc2a5b3e	-0.01039773
29	0x3d3df8e2	0.04637993
30	0xbda1f5a2	-0.07908179
31	0x3eb36915	0.3504111
32	0xbe4aff58	-0.19823968
33	0xbd9a7492	-0.07541765
34	0x3da31dd1	0.079646714
35	0x3cd35a14	0.025799789
36	0xbb1b25d7	-0.0023673677
37	0x3da29ef5	0.07940475
38	0x3e97990f	0.29608962
39	0x3a97b1aa	0.0011573334
40	0x3e98d182	0.29847342
41	0x3d93e6ca	0.07221754
42	0xbd055614	-0.032552794
43	0x3ccd3f97	0.025054736
44	0x3d006576	0.03134676
45	0x3d1e7c2e	0.038692646
46	0xbe1c2b9f	-0.15251015
47	0x3e697e21	0.2280202
48	0x3d51d3c2	0.05122734
49	0x3d8dd4d5	0.0692536
50	0xbe57573c	-0.21029371
51	0x3df82c2f	0.12117802
52	0x3cc5b610	0.024134666
53	0xbc134730	-0.00898914
54	0xbdc778cb	-0.09739836
55	0xbd4b3942	-0.049615152
56	0x3e766cbf	0.24064921
57	0xbe0c02d2	-0.13672951
58	0x3cf5711e	0.029961165
59	0x3b1b200f	0.0023670231
60	0x3eac3d2d	0.33640423
61	0x3e3e3dc3	0.18578248
62	0x3e1da3de	0.15394542
63	0x3bb88e80	0.0056322217
64	0xbc9b4310	-0.018952876
65	0x3e08026c	0.13282174
66	0x3ea21c1d	0.31662074
67	0xbd9fd798	-0.07804793
68	0x3e110f1d	0.14165922
69	0x3e1599c6	0.14609441
70	0x3e00c5f2	0.1257551
71	0x3e772948	0.24136841
72	0x3d8addf8	0.067806184
73	0x3d4ad328	0.04951778
74	0x3e807991	0.25092748
75	0xbd4f374d	-0.05058985
76	0xbdacb356	-0.08432643
77	0x3ecaaf68	0.3958695
78	0xbbfba6a0	-0.0076797754
79	0xbda071c0	-0.07834196
80	0xbf35bbd4	-0.7098973
81	0xbc1c5fa0	-0.009544283
82	0xbd22ac1a	-0.03971491
83	0x3c516879	0.012781256
84	0xbeb24b54	-0.34823096
85	0xbd8ea408	-0.0696488
86	0x3e4cd8cf	0.20004581
87	0x3e6d70dd	0.23187585
88	0x3dc7d134	0.09756699
89	0xbda4d3df	-0.08048224
90	0x3e368726	0.17824993
91	0x3e2e240c	0.17005938
92	0x3e22635f	0.1585822
93	0x3d860dc9	0.06545598
94	0x3d598e6e	0.053114347
95	0x3ce9755b	0.028498342
96	0x3d8fca61	0.070210226
97	0x3ccd2e80	0.025046587
98	0x3dd6603e	0.104675755
99	0x3dab9cde	0.083795294
100	0x3b7b69d9	0.003836265
101	0x3e5fc666	0.21853027
102	0xbd74ab0f	-0.059733447
103	0xbd81829d	-0.06323741
104	0x3d67a608	0.056554824
105	0xbd599e4c	-0.05312948
106	0xbe0a45f6	-0.1350325
107	0x3e90f72e	0.28313583
108	0xbd19f120	-0.03758347
109	0x3cdfe038	0.027328596
110	0x3cb54081	0.022125484
111	0xbb2b3fc0	-0.0026130527
112	0xbd962778	-0.07331747
113	0x3dbb30e0	0.091401815
114	0xbd12a857	-0.035805073
115	0xbda6d628	-0.08146316
116	0x3e5bedd7	0.21477447
117	0xbcf14bad	-0.02945503
118	0x3cc58ae6	0.024114083
119	0xbc9672b2	-0.018365238
120	0x3e390861	0.18069603
121	0x3d02e30a	0.031954803
122	0x3ea82a9c	0.32845008
123	0x3d47f8ae	0.048821144
124	0x3c84c7e8	0.016208604
125	0x3e9a9bb9	0.30196932
126	0x3ea07729	0.31340912
127	0xbdaa0be2	-0.08303048
128	0x3e4f36af	0.20235704
129	0x3dcdb3ff	0.10044097
130	0x3de78187	0.11304002
131	0x3e50fe0c	0.20409411
132	0x3de691b8	0.112582624
133	0x3d9cb881	0.07652379
134	0x3eb5a5a6	0.35477942
135	0xbc886ae2	-0.016652528
136	0x3e721331	0.23640133
137	0xbf0f2312	-0.5591289
138	0xbd7393e1	-0.0594672
139	0xbc82b50c	-0.01595547
140	0xbddffdc0	-0.10937071
141	0xbdb28fef	-0.087188594
142	0x3d233be2	0.03985203
143	0xbd046d04	-0.032330528
144	0xbd6fd360	-0.058551192
145	0x3d88447e	0.06653689
146	0xbe9de799	-0.30840757
147	0x3df4f678	0.11961073
148	0x3e3c5572	0.1839197
149	0xbde4fb1d	-0.111807086
150	0x3dee6a8c	0.11641416
151	0x3dd99a22	0.106251016
152	0xbc1f64d7	-0.009728632
153	0x3c04b040	0.008098662
154	0x3d32761e	0.043569677
155	0x3dde1604	0.10844043
156	0x3da01422	0.0781634
157	0xbd44bbfd	-0.048030842
158	0xbcf26320	-0.029588282
159	0x3df971ad	0.12179885
160	0x3dc4c288	0.096074164
161	0x3d98aa79	0.0745439
162	0xbd39f3fa	-0.04539869
163	0x3d89d85b	0.0673072
164	0x3df93b18	0.12169474
165	0xbe113029	-0.14178528
166	0xbd80ac7d	-0.062828995
167	0x3dd445cc	0.10364875
168	0x3c94c09c	0.01815825
169	0xbc332288	-0.010933526
170	0xbdcf5d46	-0.10125212
171	0xbd5339f2	-0.051568933
172	0xbdb22503	-0.08698466
173	0xbd228ba7	-0.039683964
174	0xbe04da33	-0.12973861
175	0xbdd43053	-0.103607796
176	0x3cb819db	0.022473266
177	0x3d87934d	0.06619892
178	0x3d28c28d	0.041201163
179	0xbdb259c1	-0.087085254
180	0xbdcd0dda	-0.100124076
181	0x3e204abf	0.15653513
182	0x3cc2ec12	0.023794208
183	0x3d4d0286	0.050051235
184	0xbd7ec6e9	-0.062201414
185	0xbdec930e	-0.11551486
186	0xbd2f5ee7	-0.042815115
187	0x3c850348	0.016236916
188	0x3e3e432d	0.18580313
189	0xbc90ebab	-0.0176905
190	0x3d967fbf	0.073485844
191	0xbd45a442	-0.04825235
192	0xbdbe7936	-0.09300463
193	0xbd670fe9	-0.056411657
194	0xbe0de33e	-0.13856217
195	0x3bd9c278	0.006645497
196	0x3e1e5352	0.15461472
197	0xbe38ad40	-0.1803484
198	0xbc5359b0	-0.012899801
199	0x3cf6aadc	0.030110769
200	0x3f926639	1.1437446
201	0xbdb58c81	-0.088646896
202	0xbcf116e2	-0.029429857
203	0xbc9337a7	-0.017970873
204	0x3f8c23d0	1.0948429
205	0x3e197536	0.14986119
206	0xbdc2daeb	-0.095144115
207	0xbe861902	-0.26190954
208	0xbd21b2ef	-0.039477285
209	0xbdadfdd7	-0.08495682
210	0x3d9879bd	0.07445095
211	0x3de60124	0.11230686
212	0xbe15f48b	-0.14644067
213	0xbce175e0	-0.027522027
214	0xbbfbb130	-0.0076810345
215	0x3dcd7bdb	0.10033389
216	0x3dc29239	0.09500546
217	0x3b857050	0.0040722266
218	0x3d2b46c0	0.04181552
219	0x3bb91e1f	0.0056493427
220	0x3db049a4	0.08607796
221	0xbe10df8f	-0.14147781
222	0xbcfa645a	-0.03056543
223	0xbd5a7dc5	-0.0533426
224	0x3e28912d	0.1646163
225	0x3e2275b7	0.15865217
226	0x3e2be7bc	0.16787618
227	0xbdfe1939	-0.124071546
228	0xbcd86ddc	-0.026419573
229	0xbcc64e44	-0.024207242
230	0x3e637bb5	0.22215159
231	0x3d90d0d6	0.07071082
232	0xbc7d5698	-0.01546254
233	0x3e2ec72d	0.17068167
234	0x3e80820a	0.25099212
235	0x3e77d10b	0.24200837
236	0x3d6dec21	0.05808652
237	0xbc3aeadc	-0.011408534
238	0x3d863379	0.065527864
239	0x3e4b2726	0.19839153
240	0xbdc8d612	-0.09806456
241	0x3e70c5a6	0.23512897
242	0xbd8220ff	-0.0635395
243	0xbc82f790	-0.015987188
244	0x3d433b9e	0.047664277
245	0x3e355f07	0.17712031
246	0xbd9ff9ec	-0.07811341
247	0xbdb402a9	-0.0878957
248	0xbd5553e2	-0.05208195
249	0x3ddc40b2	0.10754527
250	0x3e3bf4eb	0.18355148
251	0xbd8e9964	-0.06962851
252	0xbe0229fb	-0.12711327
253	0x3d20a1d8	0.039216846
254	0xbda44633	-0.08021202
255	0x3c8d0cd1	0.017218025

RNN.weight_hh_l0 f4 [512, 128]
0	0xbdeb032f	-0.114752166
1	0x3dbc13e6	0.09183483
2	0x3d5d67f0	0.0540542
3	0xbdcf4f5d	-0.10122559
4	0x3d228e22	0.03968633
5	0xbd4b5e5c	-0.049650535
6	0xbddb6aea	-0.107137516
7	0x3c86214e	0.016373303
8	0xbd1f0fdb	-0.03883348
9	0x3d79a55e	0.060948722
10	0xbda66411	-0.08124555
11	0xbbe14a18	-0.0068752877
12	0xbdd8571e	-0.10563491
13	0xbe468598	-0.193869
14	0xbd4d12d4	-0.050066784
15	0x3d0efad5	0.03490718
16	0x3d4e1a59	0.050318096
17	0xbde07616	-0.10960023
18	0x3cb7196a	0.022350986
19	0xbd985a39	-0.074390836
20	0x3e02f768	0.1278969
21	0x3da5e837	0.08100932
22	0xbdf36846	-0.11885123
23	0x3e8239d0	0.25434732
24	0xbe397f64	-0.18115002
25	0xbd3e76ac	-0.046499893
26	0x3de7f6b0	0.11326349
27	0x3bc6df66	0.0060691116
28	0x3c75dfe3	0.015006992
29	0xbdb28b48	-0.08717972
30	0x3e6e3acf	0.23264621
31	0x3dbac793	0.09120097
32	0xbbdd881d	-0.0067606107
33	0x3e8577a9	0.26067856
34	0xbbde6fac	-0.0067882147
35	0x3e01129f	0.1260476
36	0x3d935b08	0.07195097
37	0x3e3b25f3	0.18276195
38	0x3d5e0b83	0.054210197
39	0xbe021411	-0.12702967
40	0x3cc88a7c	0.024480097
41	0x3e074ac4	0.13212115
42	0x3d76a869	0.060219202
43	0x3dfd4e33	0.12368431
44	0x3e33dfef	0.17565893
45	0x3d97e0f4	0.07415953
46	0x3d863775	0.06553546
47	0xbe27c464	-0.16383511
48	0x3d80ff87	0.06298738
49	0x3e743bd3	0.23850946
50	0xbe6b6257	-0.22986732
51	0xbdeaab86	-0.11458497
52	0xbdc79ecd	-0.09747086
53	0xbe299f19	-0.16564597
54	0x3daecb9b	0.085349284
55	0x3e3658d8	0.17807329
56	0x3e0d371b	0.13790552
57	0x3c7b3891	0.015333311
58	0x3e41af75	0.18914588
59	0xbe38ff5f	-0.18066166
60	0x3bbc2f23	0.005742924
61	0xba83d40e	-0.0010057704
62	0xbe06e46d	-0.13173075
63	0xbe2b5ece	-0.16735384
64	0x3e538bb3	0.2065876
65	0xbe6a2d26	-0.22868785
66	0xbdc81298	-0.097691715
67	0xbd64fe24	-0.05590643
68	0xbe8db1f2	-0.27674824
69	0xbcd55aff	-0.026044367
70	0xbd0c47ae	-0.034248047
71	0xbe6001b6	-0.21875653
72	0x3e138366	0.14405593
73	0x3e14341f	0.14473008
74	0xbe1d6403	-0.15370183
75	0x3df0e1b6	0.11761801
76	0xbe35e0cd	-0.17761536
77	0xbd426404	-0.047458664
78	0xbe104b47	-0.14091216
79	0xbdd0a040	-0.10186815
80	0xbdb77095	-0.0895702
81	0x3e13e7eb	0.14443938
82	0x3d49ec8e	0.04929786
83	0x3d497ff8	0.049194306
84	0xbc840a6a	-0.016118247
85	0x3e3bc404	0.18336493
86	0x3e1a0cad	0.15043898
87	0x3df80e9b	0.12112161
88	0x3ccb1f6b	0.024795255
89	0x3db601d4	0.088870674
90	0xbe4ce146	-0.2000781
91	0x3c2ceae4	0.010554049
92	0x3e206884	0.1566487
93	0x3b883db5	0.0041577467
94	0x3e54a56d	0.2076623
95	0xbd8cb19f	-0.06869816
96	0xbe1268eb	-0.14297836
97	0x3da50650	0.08057845
98	0x3dda85f7	0.10670083
99	0x3e1eed4b	0.15520208
100	0xbe03fd02	-0.12889484
101	0xbd71f101	-0.05906773
102	0x3e8227a1	0.2542086
103	0x3e0c667f	0.13710974
104	0xbd9843dc	-0.07434818
105	0xbca3c8ba	-0.019993175
106	0x3d42a660	0.04752195
107	0xbdbba41a	-0.09162159
108	0xbde71ec1	-0.11285163
109	0x3cd2d28c	0.025735162
110	0x3d2552f9	0.040362332
111	0xbd81c6ca	-0.06336744
112	0xbca54785	-0.020175705
113	0xbe33c90b	-0.1755716
114	0xbd933aff	-0.07188987
115	0x3d9716ec	0.07377419
116	0x3d0d3d43	0.03448225
117	0xbce6a8cc	-0.02815666
118	0x3e15cd64	0.14629132
119	0x3e16a234	0.14710313
120	0x3d0a2b6e	0.033732824
121	0x3d02c0c9	0.031922136
122	0x3bcd4c7a	0.00626522
123	0x3e1c351a	0.15254632
124	0xbdebc80c	-0.11512765
125	0xbe0ce4f3	-0.13759212
126	0x3c957969	0.01824637
127	0x3dbcac78	0.09212583
128	0xbe182a06	-0.1485978
129	0x3c5f11f8	0.013615124
130	0x3db56709	0.08857543
131	0xbaa30ce4	-0.0012439755
132	0x3d1f1fc4	0.038848653
133	0x3dcffa88	0.10155207
134	0x3e1718b7	0.14755522
135	0x3cd80e85	0.026374111
136	0x3d44d9b8	0.048059195
137	0xbd755be5	-0.05990209
138	0x3d943092	0.072358266
139	0xbe164577	-0.14674936
140	0xbcf6e39e	-0.030137833
141	0x3bb07016	0.0053844554
142	0xbd10f63c	-0.035391077
143	0xbdcb5df2	-0.09930028
144	0xbc749f37	-0.014930538
145	0x3d9b9378	0.07596487
146	0x3b5f692c	0.0034089787
147	0x3dc57021	0.096405275
148	0xbd52e2c9	-0.05148581
149	0x3de18109	0.1101094
150	0xbc6c58db	-0.014425482
151	0xbe0e0917	-0.13870655
152	0x3d81b281	0.06332875
153	0xbe192774	-0.14956456
154	0xbcc9a7ea	-0.0246162
155	0xbcbffd4f	-0.023436217
156	0x3de693dd	0.112586714
157	0x3d92d0de	0.071687445
158	0x3d091a57	0.033472385
159	0x3d3517ad	0.044212032
160	0x3ccd8d89	0.025091903
161	0x3d472b55	0.04862531
162	0x3c39129e	0.011295943
163	0x3c25c0d1	0.010116772
164	0x3e1eff4b	0.15527074
165	0xbd649fdd	-0.05581652
166	0xbe2939fc	-0.16526026
167	0xbc9db509	-0.019251363
168	0xbe1a7fea	-0.15087858
169	0xbe1cd0af	-0.15313981
170	0xbc2ab62d	-0.010419411
171	0x3e40ef71	0.1884134
172	0xbd93adaa	-0.07210858
173	0xbd845030	-0.06460607
174	0x3d185e17	0.037199106
175	0x3ca1f119	0.019768285
176	0xbd988db6	-0.07448904
177	0x3dc8744d	0.097878076
178	0x3d1edfb8	0.038787574
179	0xbce11d93	-0.027479922
180	0x3d872e96	0.066006824
181	0xbd9adcc4	-0.07561639
182	0xbdb0a803	-0.08625796
183	0xbe034017	-0.12817417
184	0xbdc82a25	-0.097736634
185	0xbdc2b3d3	-0.09506955
186	0xbd541e1a	-0.05178652
187	0x3dc435e5	0.09580592
188	0x3e1d0a1e	0.1533589
189	0xbcedb574	-0.029017188
190	0x3ca27398	0.01983051
191	0x3df5832e	0.11987911
192	0xbdd352ff	-0.103185646
193	0x3d42eb27	0.04758754
194	0x3dd670ab	0.104707085
195	0xbd8b50bd	-0.06802509
196	0x3dbd79c3	0.0925174
197	0xbe359172	-0.17731264
198	0x3c83feb3	0.016112661
199	0x3d8820c0	0.066468716
200	0xbdbac0f5	-0.09118835
201	0xbe0ef77a	-0.13961592
202	0xbced4ca5	-0.028967211
203	0xbd35c3be	-0.044376127
204	0xbe03dce4	-0.12877232
205	0xbcd214fa	-0.025644768
206	0x3db50531	0.08838881
207	0xbd3e82ee	-0.046511583
208	0x3db89dee	0.09014498
209	0x3cc18335	0.023622135
210	0x3c5df5c5	0.013547366
211	0x3ca4c194	0.020111836
212	0x3db6852e	0.08912121
213	0xbe0cf9bb	-0.1376714
214	0xbd76dfeb	-0.06027214
215	0xbc9e618e	-0.019333627
216	0x3e120415	0.1425937
217	0xbd728a0d	-0.059213687
218	0x3e32db82	0.17466548
219	0x3b6d7ee3	0.003623896
220	0x3bf4261f	0.0074508335
221	0x3dad744e	0.08469449
222	0xbca76ba3	-0.020437067
223	0xbd97ee9a	-0.074185565
224	0xbd288edc	-0.041151866
225	0x3c4ea6b1	0.0126129845
226	0xbcf20359	-0.029542612
227	0xbd8076d3	-0.06272664
228	0x3dfbd93a	0.12297292
229	0xbe1c8471	-0.15284897
230	0x3cd77096	0.026298802
231	0x3d06de9c	0.03292714
232	0x3d5a19d8	0.053247303
233	0xbd102034	-0.03518696
234	0xbe2c438e	-0.16822645
235	0xbd69b338	-0.057055682
236	0x3b677772	0.0035318998
237	0xbe1f3dae	-0.15550873
238	0x3cb9c622	0.022677485
239	0x3e339c3e	0.1754007
240	0xbd6a4050	-0.05719024
241	0xbda36b45	-0.079794444
242	0x3dc18d67	0.094507985
243	0xbddcf99f	-0.10789799
244	0x3e1cae4d	0.15300865
245	0x3da2dcc2	0.079522625
246	0x3d5cacdd	0.053875793
247	0x3c9db3ae	0.019250717
248	0x3dace044	0.08441213
249	0x3e241162	0.16022256
250	0x3dd04cdc	0.1017091
251	0xbd483781	-0.048881058
252	0x3de1d6e2	0.11027314
253	0x3cfac0e8	0.030609563
254	0xbdf66391	-0.120307095
255	0xbd5e100d	-0.054214526

RNN.bias_ih_l0 f4 [512]
0	0x3e6d8433	0.23194961
1	0xbcb3ccbf	-0.021948216
2	0xbc210889	-0.009828695
3	0x3d22a98e	0.03971248
4	0x3e7a2167	0.24426804
5	0xbd5946d1	-0.05304605
6	0x3e831f42	0.25609785
7	0x3e51d9e9	0.20493282
8	0x3eb7f741	0.35930827
9	0x3c8152f9	0.015786635
10	0x3da0b030	0.07846105
11	0xbde3483b	-0.11097761
12	0x3da28f7a	0.07937522
13	0xbcb31b8e	-0.021863725
14	0x3e08c07e	0.1335468
15	0x3e3246d6	0.17409834
16	0x3d284dbc	0.04108976
17	0x3c9b479f	0.01895505
18	0x3ceb9128	0.02875574
19	0x3d978b11	0.07399572
20	0x3dade759	0.08491392
21	0x3cac333a	0.02102052
22	0x3e899937	0.26874706
23	0x3ecf5a0d	0.4049839
24	0x39a1646a	0.00030783127
25	0x3dc91d70	0.09820068
26	0x3dcbbacc	0.09947738
27	0x3e57f264	0.21088558
28	0xbd716246	-0.05893161
29	0x3dec5e68	0.11541444
30	0x3e6f4a35	0.23368151
31	0x3cb3c57f	0.02194476
32	0x3e0c9c11	0.1373141
33	0x3d2ea4aa	0.042637505
34	0x3e08cb57	0.13358818
35	0xbd0579db	-0.032586914
36	0xbda82d90	-0.08211815
37	0x3e2ab168	0.16669238
38	0x3cf5f20f	0.03002265
39	0xbdfd0e2a	-0.12356217
40	0x3e4f8517	0.20265613
41	0x3e5de16a	0.2166802
42	0x3d856155	0.06512705
43	0x3dd7e62e	0.1054195
44	0x3dbf5aba	0.093434766
45	0x3d8592bd	0.06522129
46	0x3d3fa40a	0.0467873
47	0x3e28217a	0.1641902
48	0x3e2f3591	0.17110278
49	0x3a90d99a	0.0011051178
50	0x3c733129	0.014843264
51	0xbd67e26f	-0.05661243
52	0x3dabd64c	0.08390483
53	0x3df40b71	0.11916245
54	0x3e1c3996	0.15256342
55	0x3da45cea	0.080255345
56	0xbbea6415	-0.007153044
57	0x3db7ffc8	0.08984333
58	0xbde9a2fe	-0.114080414
59	0x3e91461d	0.28373805
60	0x3c5e22c8	0.013558097
61	0x3e735a62	0.23764947
62	0x3c166c50	0.009181097
63	0x3d5098f3	0.050927114
64	0x3e01e0e9	0.12683453
65	0x3e3c29cb	0.18375318
66	0xbda73bd9	-0.08165712
67	0x3dd196e9	0.10233862
68	0x3d892700	0.06696892
69	0x3e19c8f6	0.15018067
70	0xbdbc5b66	-0.0919712
71	0x3e0bdae5	0.1365772
72	0xbd24c03d	-0.040222395
73	0x3e1a455d	0.15065522
74	0x3c2aa5fd	0.010415551
75	0x3e4a94f0	0.19783378
76	0x3b1141c0	0.0022164434
77	0x3e640f12	0.22271374
78	0x3e43656b	0.19081657
79	0x3e2525c6	0.1612769
80	0x3e6fb5d4	0.23409206
81	0x3e715996	0.2356933
82	0x3db8667b	0.090039216
83	0x3e6659b0	0.2249515
84	0xbdb47145	-0.08810667
85	0x3bdb68d8	0.006695848
86	0x3e0ef653	0.13961153
87	0xbc5d33e6	-0.013501143
88	0x3e1899c1	0.14902402
89	0xbd97890b	-0.07399186
90	0xbcc2bc2b	-0.023771366
91	0x3d8c0eeb	0.06838783
92	0x3dd1a3bc	0.10236308
93	0x3de31d47	0.110895686
94	0x3e4ae0b0	0.19812274
95	0xbd8064a0	-0.06269193
96	0x3d57614f	0.052583035
97	0x3cb0f9be	0.021603461
98	0xbaa9934a	-0.0012937572
99	0x3ddb10bf	0.106965534
100	0x3deb1a84	0.11479667
101	0x3b285d98	0.0025690552
102	0x3d4f3ceb	0.050595205
103	0xbd385144	-0.044999376
104	0x3d03e93b	0.032204848
105	0xbd8f1863	-0.06987073
106	0x3e935662	0.28776842
107	0x3dc0445c	0.093880385
108	0x3bde6a56	0.0067875786
109	0x3dfda814	0.12385574
110	0x3d8c50e0	0.06851363
111	0x3bd1f62a	0.006407519
112	0x3d26c7b4	0.040717795
113	0x3c865f24	0.016402788
114	0x3e846929	0.2586148
115	0x3d91f67a	0.0712709
116	0x3e4e75fd	0.20162196
117	0x3e34b3ae	0.17646667
118	0xbc296289	-0.010338434
119	0x3e5605e5	0.20900686
120	0x3dcf8a05	0.10133747
121	0x3d8ec228	0.06970626
122	0x3e06b3d0	0.1315453
123	0xbcc85ec7	-0.024459256
124	0x3df7073b	0.12061926
125	0x3e46d278	0.19416225
126	0x3ca4d9b5	0.020123342
127	0xbe069a56	-0.13144812
128	0xbe10c7af	-0.14138673
129	0xbe105c53	-0.14097719
130	0xbdb7441a	-0.08948536
131	0xbe3b7492	-0.18306187
132	0xbd5a760f	-0.053335246
133	0xbe09a537	-0.1344193
134	0x3e9001cd	0.28126374
135	0xbe3bb02d	-0.18328924
136	0xbea2abf9	-0.3177183
137	0xbe9e018e	-0.3086056
138	0x3cef3d17	0.029203935
139	0x3e21c4c7	0.15797721
140	0x3ca6079c	0.0202673
141	0xbb84edce	-0.004056669
142	0x3cbe49f3	0.023228621
143	0x3dccc47e	0.099984154
144	0xbe115d91	-0.14195849
145	0x3e280a74	0.16410238
146	0xbe3a1e27	-0.18175565
147	0x3e78876e	0.24270412
148	0x3df027d5	0.11726347
149	0xbc03b4cb	-0.00803871
150	0x3e7b5d06	0.24547204
151	0xbcf0ecbe	-0.029409762
152	0x3c0ba28e	0.008522643
153	0xbd1cdb75	-0.038295228
154	0xbd8e427d	-0.069462754
155	0x3e414274	0.18873006
156	0xbd55b372	-0.052173086
157	0x3e5ee1f7	0.21765886
158	0xbe029c3f	-0.12754916
159	0x3e35b568	0.17744982
160	0xbd18cf7e	-0.037307255
161	0xbd7fbfad	-0.062438656
162	0x3df3c10e	0.11902057
163	0xbdfe1890	-0.12407029
164	0x3e119f91	0.14221026
165	0x3d2baaa1	0.04191077
166	0xbda424e6	-0.0801485
167	0xbd187eed	-0.03723042
168	0xbd2227f6	-0.03958889
169	0x3e59fdc2	0.21288207
170	0x3e4508e4	0.19241673
171	0xbdca644a	-0.0988241
172	0x3e7564d4	0.23964244
173	0x3d32296b	0.04349653
174	0x3d4fe680	0.05075693
175	0x3dc3f317	0.0956785
176	0x3de847fc	0.11341855
177	0xbcd8b9fe	-0.026455875
178	0x3e09422d	0.1340415
179	0x3e0b40e3	0.13598971
180	0x3e26390e	0.16232702
181	0x3e0546f1	0.13015343
182	0x3de1d726	0.110273644
183	0x3c11bbe7	0.008894897
184	0x3ccb7b6d	0.024839127
185	0xbcf56177	-0.029953701
186	0x3e2ce229	0.16883148
187	0x3e213eda	0.15746632
188	0x3e108f6c	0.14117211
189	0x3d38147b	0.044941407
190	0xbc35eead	-0.011104268
191	0xbcf66d7d	-0.030081505
192	0x3c696894	0.014246125
193	0x3e1aee50	0.15129972
194	0xbd088ea9	-0.033339176
195	0xbcea8dd1	-0.028632076
196	0x3de6e221	0.112735994
197	0xbe5cff8e	-0.21581861
198	0xbe4407f2	-0.19143656
199	0x3c98a84d	0.01863494
200	0x3d90992c	0.07060465
201	0x3da52ed1	0.0806557
202	0x3dfc2a52	0.123127595
203	0xbda0073d	-0.078138806
204	0xbd317f9a	-0.04333458
205	0x3e2c2c40	0.16813755
206	0xbd907001	-0.07052613
207	0x3e12e25a	0.14344159
208	0x3e2bcf3b	0.16778271
209	0xbe98367b	-0.29729065
210	0x3e1b8da1	0.15190746
211	0xbe0cd03b	-0.13751309
212	0xbc235826	-0.009969747
213	0xbd08f561	-0.033437137
214	0xbd6ef112	-0.05833537
215	0xbd718250	-0.058962166
216	0x3d5a86d8	0.053351253
217	0xbe03080c	-0.12796038
218	0xbd9da45b	-0.07697364
219	0xbd652813	-0.05594642
220	0x3cfb5b18	0.030683085
221	0xbdce57f4	-0.100753695
222	0x3c59a318	0.0132835135
223	0xbce4551a	-0.02787261
224	0xbd80ab2e	-0.0628265
225	0x3dfaa700	0.12238884
226	0x3df4a47d	0.11945436
227	0x3e0f4299	0.13990249
228	0x3de7813b	0.11303946
229	0x3e2fbd31	0.17162015
230	0x3d37c1cf	0.044862565
231	0xbd438848	-0.04773739
232	0xbd448365	-0.04797687
233	0x3d581803	0.052757274
234	0xbd16c403	-0.036808025
235	0x3e3bc9d3	0.18338709
236	0xbae96d0c	-0.0017808988
237	0xbdacfa77	-0.0844621
238	0x3dd0712d	0.101778366
239	0xbdca6a8c	-0.098836035
240	0x3db1084e	0.08644162
241	0x3c715957	0.014730773
242	0x3e1cd675	0.15316184
243	0xbe998ec1	-0.29991725
244	0xbdb547d6	-0.08851592
245	0xbe7b54fa	-0.24544135
246	0xbd535900	-0.05159855
247	0x3e50b11b	0.2038006
248	0xbdd1206d	-0.10211263
249	0x3e0540e4	0.13013035
250	0xbd9df0de	-0.077119574
251	0x3dbcc28a	0.09216793
252	0x3e36ef95	0.17864831
253	0x3e63d4d0	0.2224915
254	0x3d60980c	0.054832503
255	0x3e72306a	0.23651281

RNN.bias_hh_l0 f4 [512]
0	0x3e36c74e	0.17849466
1	0xbcaf8b2c	-0.021428667
2	0xbb8cc34f	-0.0042957435
3	0x3e2c60f8	0.16833866
4	0x3e4d6b25	0.20060404
5	0xbd159929	-0.036523018
6	0x3e1a7671	0.15084244
7	0x3de5f367	0.11228066
8	0x3e8e122e	0.27748245
9	0x3d38f9bb	0.045160037
10	0x3d3a6b95	0.045512754
11	0xbe014d15	-0.1262706
12	0x3cea768e	0.028620984
13	0x3dc39485	0.09549812
14	0xbc82f2ed	-0.015984977
15	0x3e4237b2	0.18966559
16	0x3d240533	0.04004402
17	0x3d829654	0.06376329
18	0x3dfd219b	0.12359925
19	0x3e6ecd48	0.23320496
20	0x3e683426	0.22676143
21	0x3bc57062	0.00602536
22	0x3e895543	0.26822862
23	0x3e9ada51	0.30244687
24	0x3d6c7fed	0.057739187
25	0x3e751950	0.23935437
26	0x3e43595d	0.19077058
27	0x3d73359e	0.059377305
28	0xbb999590	-0.0046870187
29	0x3d93688f	0.07197677
30	0x3e523604	0.20528418
31	0xbc6a16ce	-0.014287664
32	0x3dc5b669	0.096539326
33	0x3de4c770	0.11170852
34	0x3db5ebed	0.0888289
35	0x3c8cf90f	0.017208604
36	0xbd0b2fb3	-0.033981036
37	0x3e059882	0.13046458
38	0x3e2a85b7	0.1665257
39	0xbe09fd3d	-0.13475509
40	0x3e3bd1b3	0.18341713
41	0x3e06ade0	0.13152266
42	0x3deb4e18	0.114895046
43	0x3e4544c7	0.19264518
44	0x3e385b95	0.18003686
45	0x3e60b018	0.21942174
46	0x3d823f0c	0.063596815
47	0x3e631351	0.22175337
48	0x3e06afc9	0.13152994
49	0xbd7b1d54	-0.061307266
50	0xbd6d9750	-0.05800563
51	0x3da83aa2	0.08214308
52	0x3db28964	0.087176114
53	0x3d903652	0.07041611
54	0x3e4bc7b1	0.19900395
55	0x3e55c2b1	0.2087505
56	0xbc742aca	-0.01490278
57	0x3e1acf3c	0.15118116
58	0xbdfb8b06	-0.12282376
59	0x3e237ef8	0.15966403
60	0x3db5ad72	0.08870973
61	0x3e9dccd0	0.30820322
62	0x3e0ffae5	0.14060552
63	0x3df32601	0.11872483
64	0xbd28143f	-0.041034933
65	0x3e316fd2	0.17327812
66	0xbd9c1b86	-0.07622437
67	0x3d1fcc4d	0.039013196
68	0x3def37cb	0.116805635
69	0x3de0b452	0.10971893
70	0xbe2e9fc8	-0.17053139
71	0x3dbfa6da	0.09357996
72	0xbdb196ab	-0.08671316
73	0x3e6a0163	0.22852091
74	0x3e1eeee1	0.15520813
75	0x3e457417	0.19282566
76	0xbda46971	-0.08027924
77	0x3e5d934b	0.21638219
78	0x3e01227d	0.12610812
79	0x3db1ce73	0.08681955
80	0x3e882de8	0.26597524
81	0x3e7f1ed1	0.249141
82	0x3e6330d4	0.22186595
83	0x3de6f8a2	0.11277892
84	0xbc644079	-0.013931387
85	0xbd77a508	-0.06046012
86	0x3e15939c	0.1460709
87	0xbc7b3997	-0.015333555
88	0x3d8115b1	0.063029654
89	0xbcfd4ca5	-0.030920336
90	0x3ca775a6	0.020441841
91	0xbcdcaaa0	-0.02693683
92	0xbd2e3c8e	-0.04253822
93	0x3e1ece1f	0.15508316
94	0x3e389988	0.18027318
95	0xbd21dbfa	-0.039516427
96	0x3cec8232	0.028870676
97	0x3d9e1f44	0.07720807
98	0x3da49768	0.08036691
99	0x3e69de6f	0.22838758
100	0x3c05ec11	0.008173958
101	0xbd8ef565	-0.06980399
102	0x3d8c2935	0.06843797
103	0x3c1aba1e	0.009443788
104	0x3ddefee1	0.10888458
105	0x3c4a48d8	0.012346469
106	0x3e470a8d	0.19437619
107	0x3d31efda	0.04344163
108	0x3decea1d	0.11568091
109	0x3e23a6f4	0.15981656
110	0x3d7ac4d0	0.06122285
111	0x3be60f66	0.0070208786
112	0xbc743c48	-0.01490695
113	0xbd5e7183	-0.054307472
114	0x3e4b23e9	0.19837917
115	0x3e36d506	0.178547
116	0x3e38fda2	0.18065503
117	0x3e5f5cdb	0.21812765
118	0xbbefe156	-0.0073205633
119	0x3e89ea5f	0.26936623
120	0x3e0e4aab	0.13895671
121	0x3d08a2c0	0.033358335
122	0x3e2e245f	0.17006062
123	0x3cec11ed	0.028817141
124	0x3dbd1cbd	0.09233997
125	0x3e2cb5d9	0.16866244
126	0xbd31c956	-0.0434049
127	0xbdd9596b	-0.10612758
128	0xbdace006	-0.084411666
129	0xbe3e337b	-0.18574326
130	0xbd36e820	-0.044654965
131	0xbdc8b238	-0.097996175
132	0x3d17f391	0.037097517
133	0xbd13eac3	-0.036112558
134	0x3e8914ea	0.2677377
135	0xbd5f1dd5	-0.05447181
136	0xbe31d2f3	-0.17365627
137	0xbe83e886	-0.2576334
138	0x3d3c9969	0.04604474
139	0x3d9a226a	0.07526095
140	0x3c9ac083	0.018890625
141	0xbd51f702	-0.051260956
142	0x3d1f141a	0.03883753
143	0x3d57e47b	0.05270813
144	0xbcdd99d7	-0.027050896
145	0x3c5e2db7	0.013560704
146	0xbe2ba6ba	-0.1676282
147	0x3e46e420	0.1942296
148	0x3d86c8b9	0.065812536
149	0xbc821df9	-0.015883433
150	0x3e46f4eb	0.19429366
151	0xbc614edd	-0.013751713
152	0xbd198a4d	-0.03748541
153	0xbdd64009	-0.104614325
154	0xbc9a6b5a	-0.018850017
155	0x3e20eb7a	0.15714827
156	0xbd07fa25	-0.03319754
157	0x3e54c3a9	0.20777763
158	0xbc49d844	-0.012319628
159	0x3e128d11	0.14311625
160	0x3ddb61f0	0.107120395
161	0x3c844007	0.016143812
162	0x3e180e78	0.1484927
163	0xbdf2c7c4	-0.118545085
164	0x3e0179bb	0.12644093
165	0x3d8df580	0.06931591
166	0xbdc420a7	-0.095765404
167	0xbdba17be	-0.0908656
168	0xbcaa75d6	-0.020808142
169	0x3e077c5f	0.13231038
170	0x3de24189	0.11047656
171	0xbdb63fcd	-0.08898888
172	0x3e5d968c	0.2163946
173	0xbc81ce93	-0.015845573
174	0x3e3679c2	0.17819884
175	0xbcc20785	-0.023685226
176	0x3e21ddfd	0.15807338
177	0xbdbf0469	-0.09327013
178	0xbc8c799a	-0.017147828
179	0x3e4156b9	0.18880738
180	0x3e3560c9	0.17712702
181	0x3e05eb96	0.1307815
182	0x3ca2a0d4	0.01985208
183	0x3ddaeaf9	0.10689349
184	0x3d5b619b	0.05355988
185	0xbdaf18cf	-0.08549654
186	0x3e499dfb	0.19689171
187	0x3d089f06	0.03335478
188	0x3db06b58	0.08614224
189	0x3d82644f	0.063667886
190	0x3c63096b	0.013857226
191	0xbd2ede20	-0.042692304
192	0x3e06a630	0.13149333
193	0x3b3ff4b2	0.0029290137
194	0x3d61eba7	0.055156376
195	0xbcd7cde1	-0.026343288
196	0x3db0f98b	0.086413465
197	0xbe634b1f	-0.22196625
198	0xbdb0b462	-0.08628155
199	0x3e054b36	0.13016972
200	0x3ddd7ca8	0.10814792
201	0x3e135e58	0.14391458
202	0x3db9de48	0.090756
203	0x3d2aebaa	0.041728653
204	0xbd1a016a	-0.037599005
205	0x3df60b70	0.120139
206	0x3d677b3b	0.056514006
207	0x3e2221a8	0.15833151
208	0x3e5f978f	0.21835159
209	0xbed3a221	-0.41334632
210	0x3e5cc9b5	0.2156132
211	0xbd5beb42	-0.053691156
212	0x3d495b93	0.049159598
213	0x3d230802	0.03980256
214	0xbd67059d	-0.056401838
215	0x3d55256a	0.052037634
216	0xbd45cdf6	-0.048292123
217	0x3882215a	6.205095e-05
218	0xbd70a401	-0.058750156
219	0x3dc476ed	0.09592996
220	0x3d07fe5f	0.03320157
221	0xbd003a90	-0.03130585
222	0xbcd6d238	-0.026223287
223	0xbd1ab927	-0.03777423
224	0xbe0aa14f	-0.13538097
225	0x3df6cf03	0.12051203
226	0x3db1b01d	0.08676169
227	0x3dd9ec6b	0.10640796
228	0x3e1c9c10	0.15293908
229	0x3d443653	0.04790337
230	0x3dbacbef	0.091209285
231	0xbd3bc86d	-0.045845438
232	0xbd9048ac	-0.07045111
233	0x3e0f7f5e	0.1401343
234	0x3a89132c	0.0010457984
235	0x3d891365	0.06693152
236	0x3d97ebf1	0.07418049
237	0xbe10ec19	-0.14152564
238	0x3deeb253	0.116551064
239	0xbdc70b2b	-0.09718927
240	0x3e0b4892	0.13601902
241	0xbd2c9f15	-0.0421439
242	0x3e1852b1	0.14875294
243	0xbe2c7cac	-0.16844434
244	0xbe129daf	-0.14317964
245	0xbe7b25e6	-0.24526176
246	0x3c39b08f	0.011333599
247	0x3e2db863	0.16964869
248	0xbd633fe0	-0.055480838
249	0x3d866751	0.06562675
250	0xbdc487ae	-0.09596191
251	0x3d203e26	0.03912177
252	0x3e474a71	0.19461991
253	0x3e931d52	0.28733307
254	0x3c4151d0	0.011799291
255	0x3ea327c6	0.31866282

actor.weight f4 [5, 128]
0	0x3dc0797a	0.0939817
1	0xbbd3f759	-0.006468695
2	0x3df9b1b1	0.12192095
3	0xbe626994	-0.22110587
4	0xbe8f57d2	-0.2799669
5	0x3d1d8917	0.038460817
6	0xba5d1dbf	-0.00084349135
7	0xbe5d1e23	-0.21593527
8	0xbe398806	-0.18118295
9	0x3e5756f0	0.21029258
10	0x3d5cda2f	0.053919014
11	0x3e817e23	0.25291547
12	0xbce72f71	-0.028220864
13	0xbf16a10d	-0.58839494
14	0xbc727314	-0.014797945
15	0xbe0cc4f8	-0.13747013
16	0xbe24b23b	-0.16083615
17	0xbe15b15e	-0.14618441
18	0xbdd46b1b	-0.10371991
19	0xbe180ee0	-0.14849424
20	0xbdcbf3d7	-0.09958618
21	0xbecf62c0	-0.40505028
22	0xbda12ccb	-0.07869872
23	0xbee955c3	-0.45573243
24	0xbeabc042	-0.3354512
25	0x3de0029f	0.10938
26	0x3e0ea404	0.13929754
27	0xbe07da32	-0.13266829
28	0x3e80aef7	0.25133488
29	0x3cff09c3	0.031132584
30	0xbdbd3912	-0.09239401
31	0xbd0074c8	-0.03136137
32	0xbdc5b159	-0.09652967
33	0xbece0269	-0.40236214
34	0x3caa35a5	0.020777533
35	0x3e817e11	0.25291494
36	0xbf42817d	-0.75978833
37	0x3d833f25	0.06408528
38	0x3d3cd76d	0.046103884
39	0x3ca50473	0.020143723
40	0x3c8edcd9	0.017439293
41	0x3e829628	0.25505185
42	0xbe27c0f5	-0.16382201
43	0x3e42f37a	0.19038191
44	0x3e0a877c	0.13528246
45	0x3e557532	0.20845488
46	0x3e07e763	0.13271861
47	0x3ead6a1f	0.33870026
48	0xbe1c0628	-0.15236723
49	0xbd6e464b	-0.058172505
50	0xbc3ae7a8	-0.01140777
51	0xbe026729	-0.12734665
52	0xbdd03610	-0.101665616
53	0xbe66029e	-0.22461936
54	0x3d9701ca	0.07373388
55	0x3e3e5e92	0.18590763
56	0xbe078626	-0.13234767
57	0x3e478fab	0.19488399
58	0xbe62fe59	-0.22167338
59	0x3e033259	0.12812175
60	0x3e77853a	0.24171916
61	0xbe598f9f	-0.21246193
62	0xbe521236	-0.2051476
63	0xbe16a14d	-0.14709969
64	0x3bcc62d1	0.006237366
65	0xbdefee39	-0.11715359
66	0xbf28226a	-0.6567751
67	0xbdbee94d	-0.09321842
68	0xbd47730f	-0.048693713
69	0x3e18ed25	0.14934213
70	0xbc03444f	-0.0080118915
71	0xbe7c4a81	-0.24637796
72	0xbd9bb84b	-0.076035105
73	0x3e350005	0.17675789
74	0xbd060235	-0.03271695
75	0x3e45a8e0	0.19302702
76	0x3d57f560	0.052724242
77	0x3cf07201	0.029351236
78	0x3e9c50a7	0.30530283
79	0x3db8b43d	0.09018753
80	0xbe44ad80	-0.1920681
81	0x3e08b8b5	0.1335171
82	0xbaf1ea10	-0.0018456597
83	0xbc635566	-0.013875341
84	0x3ec0ecbf	0.37680623
85	0x3e3b1ec2	0.18273452
86	0x3e152035	0.14563067
87	0xbe5e2383	-0.21693234
88	0xbee30f5d	-0.4434766
89	0x3d7419b1	0.059594814
90	0xbf67d7ce	-0.90563667
91	0xbc8ede7b	-0.017440071
92	0xbe57e852	-0.21084717
93	0xbb131a57	-0.002244612
94	0x3dddce0c	0.10830316
95	0x3dedaac5	0.11604837
96	0xbd276db9	-0.040876124
97	0x3e85a806	0.26104754
98	0x3dc5b210	0.09653103
99	0x3dc6f6d5	0.09715048
100	0xbd87b61e	-0.06626533
101	0x3caa72eb	0.02080675
102	0x3d421815	0.047386248
103	0x3dc245cc	0.09485969
104	0x3f3472b6	0.70487535
105	0xbde365d2	-0.11103405
106	0x3e606130	0.21912074
107	0x3e27b7ff	0.16378783
108	0x3e00d442	0.1258097
109	0x3e8637bb	0.26214394
110	0x3dc3fde2	0.09569909
111	0x3e908465	0.2822601
112	0x3e2e28aa	0.170077
113	0xbca4708d	-0.0200732
114	0xbd9da09f	-0.07696652
115	0xbce1e1ea	-0.027573545
116	0x3cf33fa9	0.029693441
117	0xbe2b2c73	-0.16716175
118	0x3e639a99	0.22226943
119	0x3de42ac5	0.1114097
120	0xbf10f55d	-0.56624395
121	0xbd2da5b4	-0.042394355
122	0xbe820a61	-0.25398543
123	0x3e29b6e3	0.16573672
124	0xbdc6e3d3	-0.09711423
125	0x3e33cec6	0.17559347
126	0x3e8c92a0	0.27455616
127	0x3e1be000	0.15222168
128	0x3da82699	0.08210487
129	0xbe03c8f5	-0.12869628
130	0xbe3c9c8f	-0.18419097
131	0xbd0540d4	-0.032532528
132	0x3e500a0a	0.2031633
133	0xbeabad5d	-0.33530703
134	0xbce97560	-0.028498352
135	0xbe608ea4	-0.21929413
136	0xbe065aac	-0.13120526
137	0xbd8b83fc	-0.068122834
138	0x3cc25b7d	0.023725266
139	0x3e0630ab	0.13104503
140	0x3dab72f4	0.08371535
141	0x3f08b37b	0.53398865
142	0xbe128c97	-0.14311443
143	0x3d57c07e	0.05267381
144	0xbca5730b	-0.020196458
145	0xbce80376	-0.028321963
146	0xbe1c0f33	-0.15240173
147	0xbd2d7afc	-0.042353615
148	0xbe0c76ab	-0.13717143
149	0x3ef5243e	0.47879213
150	0xbe12d8a2	-0.14340451
151	0x3ef1d54d	0.47233048
152	0x3e86f98b	0.2636226
153	0xbe8ab196	-0.27088612
154	0xbaca6e37	-0.0015444224
155	0xbe0e61f4	-0.13904554
156	0x3dd9aa6d	0.10628209
157	0x3dd98a79	0.10622115
158	0x3e9582b3	0.29201278
159	0xbbd4574b	-0.0064801327
160	0xbe1e5b1d	-0.15464444
161	0x3eac5ff7	0.33666965
162	0x3d911f7d	0.07086084
163	0xbdcc8209	-0.0998574
164	0x3f594187	0.8486561
165	0xbd5e71e4	-0.054307833
166	0xbd2d6edf	-0.042342063
167	0xbda500a7	-0.08056765
168	0x3ec0a83e	0.3762836
169	0x3e691d60	0.22765112
170	0x3dedcca0	0.11611295
171	0xbdc564cc	-0.09638366
172	0x3e12f2c8	0.14350426
173	0x3db91267	0.09036713
174	0x3e1acafe	0.15116498
175	0xbee6aa0d	-0.45051613
176	0xbdc282ec	-0.094976276
177	0x3de00d99	0.109400935
178	0xbd3d905c	-0.04628025
179	0xbd9432d9	-0.07236261
180	0xbd90baec	-0.070669025
181	0xbe90e071	-0.28296235
182	0x3e67c21a	0.22632638
183	0x3ce14fd1	0.02750388
184	0xbe66d3b8	-0.22541702
185	0x3e910aa0	0.2832842
186	0xbda396ad	-0.079877235
187	0xbc1db1d2	-0.009624915
188	0xbecbfd0e	-0.39841503
189	0xbd6e713e	-0.058213465
190	0xbdc48a33	-0.09596672
191	0xbdfbe21c	-0.12298986
192	0x3da046ec	0.07826027
193	0x3e31160d	0.17293568
194	0x3f34aef7	0.70579475
195	0x3e619ad5	0.2203172
196	0xbdeae00e	-0.11468516
197	0x3e338db5	0.17534526
198	0xbd750f12	-0.059828825
199	0xbd83e286	-0.0643969
200	0x3dc3c070	0.09558189
201	0x3e1bb24b	0.15204732
202	0xbe18e728	-0.14931929
203	0xbf19be54	-0.6005604
204	0xb941cf5c	-0.00018483162
205	0x3d21bebc	0.03948854
206	0xbec4f110	-0.38465166
207	0xb974d64e	-0.00023349488
208	0xbe06d60e	-0.13167593
209	0x3d818b0c	0.06325349
210	0x3d52f5c7	0.051503923
211	0xbe00a14a	-0.12561527
212	0xbea7433a	-0.32668477
213	0x3c2e02a7	0.01062075
214	0x3ea956cf	0.33074042
215	0xbdc2d1e7	-0.09512692
216	0x3e8a86b6	0.270559
217	0x3d9820d2	0.07428135
218	0x3f42590c	0.75917125
219	0x3cc4007e	0.023926016
220	0x3dfb373e	0.12266396
221	0xbdc85d1c	-0.09783384
222	0xbde1b96b	-0.11021694
223	0x3d135f78	0.035979718
224	0xbe34cb35	-0.17655642
225	0x3db83e6d	0.08996282
226	0x3e3b8eab	0.18316142
227	0xbc50b242	-0.0127378125
228	0x3da63897	0.081162624
229	0x3d0546a3	0.032538068
230	0x3d6bc00f	0.05755621
231	0x3def1881	0.116745956
232	0xbf296c4a	-0.6618086
233	0x3d48e137	0.049042907
234	0x3d08b52d	0.033375908
235	0x3e1f0de9	0.1553265
236	0x3d8d20d0	0.06891024
237	0x3e8fcafc	0.28084552
238	0x3d273e7e	0.04083108
239	0xbead8ec4	-0.33897984
240	0xbdb29b47	-0.08721023
241	0x3e93e5d1	0.28886274
242	0x3deb1c7b	0.114800416
243	0x3ed6820f	0.41896102
244	0xbec7f520	-0.39054203
245	0xbe71eea3	-0.23626189
246	0xbe85d73f	-0.26140782
247	0x3c9b6f45	0.018973956
248	0x3ee30ebf	0.44347188
249	0x3e6ec638	0.23317802
250	0xbdd3ed22	-0.10347964
251	0x3cf8b41c	0.03035932
252	0x3c2106f2	0.009828316
253	0x3d8a0588	0.06739336
254	0xbe511536	-0.20418248
255	0xbdefd93c	-0.11711356

actor.bias f4 [5]
0	0x3d6014a0	0.05470717
1	0x3bba577b	0.005686698
2	0xbd950f55	-0.07278315
3	0xbe003a31	-0.12522198
4	0x3ddc139f	0.1074593

critic.weight f4 [1, 128]
0	0xbe38f47c	-0.18062013
1	0x3e3c493a	0.18387309
2	0xbd1aadb6	-0.03776332
3	0x3cdf96de	0.027293619
4	0x3c9dca20	0.01926142
5	0x3dd9774c	0.10618457
6	0xbe0a847d	-0.13527103
7	0x3d20f4e1	0.039296035
8	0x3d4b0502	0.049565323
9	0xbe8487da	-0.25884897
10	0xbda8dcff	-0.08245277
11	0xbd44a348	-0.04800728
12	0xbd77ff72	-0.060546346
13	0xbe09f456	-0.13472113
14	0xbd69858f	-0.057012137
15	0x3e6560a6	0.2240015
16	0x3dbf3696	0.09336583
17	0xbda66850	-0.08125365
18	0x3de84fd4	0.11343351
19	0xbcc03bcb	-0.023466012
20	0x3d951f5b	0.07281371
21	0x3e10b114	0.1413005
22	0xbdcfde76	-0.10149853
23	0x3d1854c6	0.03719022
24	0xbda9823e	-0.08276795
25	0x3dd77805	0.10520939
26	0x3d4f4320	0.050601125
27	0x3dd4ff2b	0.10400232
28	0x3c758d60	0.01498732
29	0x3c5a6263	0.013329121
30	0x3cf06c9a	0.02934866
31	0x3d943f26	0.07238607
32	0x3ccd2e2c	0.02504643
33	0x3e714373	0.23560886
34	0x3d2f4891	0.042793814
35	0xbc46a718	-0.012124799
36	0xbba75da4	-0.0051075984
37	0x3dabd892	0.08390917
38	0x3d40c3a1	0.047061566
39	0x3e019e29	0.1265799
40	0xbdeb7202	-0.11496355
41	0x3e56d3c8	0.20979226
42	0x3e472231	0.19446637
43	0x3e111f56	0.1417211
44	0x3dfc61a0	0.12323308
45	0x3b953751	0.0045537134
46	0x3de46baf	0.111533515
47	0x3db73a7f	0.08946704
48	0x3d87ff40	0.06640482
49	0x3e016b78	0.12638652
50	0x3dc85540	0.09781885
51	0xbe2437c9	-0.16036905
52	0xbc826445	-0.015916953
53	0x3d605b7d	0.05477475
54	0x3d8fc909	0.07020766
55	0x3e38c71b	0.18044703
56	0x3debd98a	0.11516102
57	0xbd9b8dab	-0.075953804
58	0xbec1dc68	-0.3786347
59	0xbc8f8942	-0.017521504
60	0x3dd49b60	0.10381198
61	0x3e0c4235	0.13697131
62	0xbdb37a88	-0.08763605
63	0x3cd64c4d	0.02615943
64	0x3db15fee	0.08660875
65	0xbe0b046a	-0.13575903
66	0x3da90897	0.082535915
67	0x3ba90edf	0.0051592435
68	0xbde026fe	-0.10944937
69	0x3de465cf	0.11152231
70	0x3e16322f	0.14667581
71	0xbd1dc77e	-0.03852033
72	0x3e490228	0.19629729
73	0x3dda2a9b	0.106526576
74	0xbdd5d727	-0.10441428
75	0x3de6fcae	0.112786636
76	0xbd6b0f9c	-0.057387933
77	0x3e92932b	0.28627905
78	0xbe1af404	-0.15132147
79	0xbdacc2cf	-0.08435594
80	0xbe49bb00	-0.19700241
81	0x3d3fd989	0.046838317
82	0x3e700b74	0.23441869
83	0xbdac1aff	-0.084035866
84	0xbc829ac8	-0.015942946
85	0xbe4e7512	-0.20161846
86	0xbe3062a5	-0.1722513
87	0x3e33a168	0.1754204
88	0x3e055068	0.13018954
89	0x3dfb38f3	0.122667216
90	0xbcf0de8e	-0.029402997
91	0x3d749142	0.05970884
92	0x3d5c36aa	0.05376307
93	0xbe42df82	-0.19030574
94	0x3e369bcd	0.17832871
95	0x3dfcb08c	0.12338361
96	0xbbab201a	-0.0052223327
97	0xbcb29206	-0.021798145
98	0x3ddd0869	0.1079262
99	0x3e5117a8	0.2041918
100	0xbe3124aa	-0.17299142
101	0xbe78d4e8	-0.24299967
102	0xbd13d795	-0.036094267
103	0xbcb5e86b	-0.022205552
104	0xbd368cf7	-0.04456803
105	0xbe2144f7	-0.15748964
106	0x3d1417fc	0.036155686
107	0x3cabe742	0.020984296
108	0xbb23d95e	-0.0025001387
109	0x3e04bb3e	0.12962052
110	0xbb9de5b0	-0.0048186406
111	0x3c6e0c62	0.0145293195
112	0xbe1345c6	-0.14382085
113	0xbddea393	-0.10871043
114	0xbe3bf993	-0.18356924
115	0x3d6ed864	0.058311835
116	0xbbfd2e7c	-0.0077264886
117	0x3e7a0aa2	0.24418119
118	0x3dba7866	0.091049954
119	0x3e1424b5	0.14467128
120	0x3db3d608	0.087810576
121	0x3d62d112	0.055375166
122	0x3b162005	0.0022907269
123	0xbcf0d57a	-0.029398669
124	0xbd73f24c	-0.059557244
125	0xbdbe163b	-0.09281584
126	0x3d268520	0.0406543
127	0x3e3a7405	0.1820832
