Liu/test_var/v_3/train_iter_5400.pt (torch, 560071 bytes, 9 tensors)

h0 f4 [128]
0	0xbf9c82e8	-1.222745
1	0x3ee40e2a	0.44542056
2	0x3f5574e8	0.8338151
3	0xbf9addb3	-1.2098907
4	0xc02ab079	-2.667021
5	0x3c551202	0.013004782
6	0x3fae11d8	1.3599195
7	0xbfc85e51	-1.5653783
8	0x400db8cf	2.2144048
9	0xbda245b6	-0.079234526
10	0x3e8f82f9	0.28029612
11	0xbf499525	-0.787432
12	0x3f99b7ee	1.2009256
13	0x3e46ba0a	0.19406906
14	0xbf444437	-0.7666659
15	0x3f7bf803	0.9842531
16	0x3f4df1fc	0.80447364
17	0x3f709944	0.93983865
18	0x3f012adb	0.5045602
19	0xbd8f2b75	-0.06990711
20	0x3f4807a5	0.78136665
21	0x3fc1ad7f	1.5131072
22	0x3eca1541	0.3946934
23	0xbeb272a3	-0.34853086
24	0xbedae000	-0.42749023
25	0xbe58dd50	-0.21178174
26	0x3f2598d5	0.6468633
27	0xbf1422d7	-0.5786566
28	0x3f03cc87	0.5148396
29	0x3da90eee	0.08254801
30	0x3ee11b80	0.43966293
31	0x3f477769	0.7791658
32	0x3fe23c85	1.7674719
33	0x3fc5a7ca	1.544183
34	0x3f81c674	1.0138688
35	0xbecd99ef	-0.40156505
36	0x3f25cd74	0.6476662
37	0x3f9a2a21	1.2044107
38	0xbe02c06b	-0.12768714
39	0xbf9871ec	-1.1909766
40	0xbf69ea5e	-0.9137324
41	0xbfc02f37	-1.5014409
42	0xbf2f65de	-0.6851481
43	0x40178298	2.3673458
44	0xbca6e916	-0.020374816
45	0x3f198fe0	0.5998516
46	0x3f411ab2	0.7543136
47	0xbf0e6cf3	-0.55634993
48	0xbf0b2a95	-0.5436185
49	0x400863e9	2.131098
50	0xc004d25d	-2.0753396
51	0xbf46fee8	-0.77732706
52	0xbf921192	-1.1411612
53	0xbfe21ed3	-1.7665657
54	0xbea11539	-0.31461504
55	0xbeaee1e9	-0.3415673
56	0x3f135b79	0.5756145
57	0xbfada9f5	-1.3567492
58	0x3eb59336	0.35463876
59	0xbff939e6	-1.9470794
60	0x3f1a6b96	0.60320413
61	0xbefdabbc	-0.49545085
62	0x401b0f83	2.4228218
63	0xbe1f5cf7	-0.15562807
64	0x3e1e55ef	0.15462469
65	0xbfd8d9ee	-1.6941507
66	0xbf2b0998	-0.66811514
67	0xbe0b838f	-0.13624404
68	0xbe772897	-0.24136578
69	0xbf9e816e	-1.2383249
70	0xc00872b3	-2.1320007
71	0xbe6aa85f	-0.22915791
72	0x3f6f01e4	0.9336226
73	0xbf376937	-0.7164492
74	0xbfc58ba1	-1.5433236
75	0x3f346f00	0.7048187
76	0xbf2b26f7	-0.6685633
77	0xbf599d55	-0.85005695
78	0x3f5708f4	0.83998036
79	0xbf67d33b	-0.9055669
80	0x3fc44d7c	1.5336146
81	0x3ef0f05c	0.4705838
82	0x3f8ca1b9	1.0986854
83	0x3fa62e48	1.2982874
84	0x3e75fccf	0.2402222
85	0x3eb03468	0.34414983
86	0xbdb4201f	-0.08795189
87	0xbeec8d36	-0.46201485
88	0x3fa11eb3	1.2587494
89	0xbeb0e9ff	-0.34553525
90	0xbfb9789d	-1.4489933
91	0xbee9f84c	-0.45697248
92	0x3ec7bc63	0.39010915
93	0xbf081251	-0.5315295
94	0x3f8cdf80	1.1005707
95	0xbfd90e66	-1.6957519
96	0xbfc531a6	-1.5405777
97	0x3f71aaac	0.9440105
98	0x3f3106b5	0.6915086
99	0x3ebdb623	0.37053022
100	0xc018525f	-2.3800275
101	0xbf4ce9e1	-0.8004437
102	0x3d97b0db	0.074067794
103	0x3eb1e935	0.34748235
104	0xbf45b416	-0.77227914
105	0x3f1712c5	0.59013015
106	0xbe7d578d	-0.24740429
107	0x3f456e1a	0.77121127
108	0x3ec85738	0.39129043
109	0x3e947e88	0.29002786
110	0x3f1be91b	0.60902566
111	0x3fedd670	1.8581066
112	0xbf808b78	-1.0042562
113	0xbf57b1ea	-0.8425585
114	0x3e9fa804	0.31182873
115	0xbf3d9ca1	-0.7406712
116	0x3f90d524	1.1315045
117	0x3e2057fe	0.15658566
118	0x3f8975f0	1.0739117
119	0x3f5ad35d	0.85478765
120	0x3f636df5	0.88839656
121	0x3f8dd6cf	1.1081179
122	0xbfe43b5f	-1.7830619
123	0xbd5c02c1	-0.053713564
124	0xbe99b858	-0.30023456
125	0x3f61251d	0.87947255
126	0xbfb29ea5	-1.3954664
127	0x3f0477fa	0.5174557

c0 f4 [128]
0	0x3dfb64aa	0.122750595
1	0xbeeeb2f4	-0.46620905
2	0xbe9cf584	-0.30656064
3	0x3fb20404	1.3907475
4	0x3e423636	0.18965992
5	0x3d99208d	0.07476912
6	0xbf1190a1	-0.5686131
7	0xbe36ff17	-0.17870747
8	0xbf1a75d8	-0.60336065
9	0xbde0da13	-0.10979094
10	0xbfa9cda5	-1.3265883
11	0x3f293210	0.66092014
12	0x3fa6ebd9	1.3040725
13	0x3f81b279	1.013259
14	0xbf46ea3f	-0.7770118
15	0xbf7ffb95	-0.9999326
16	0x3ef7f3d2	0.48428208
17	0x3fb40f4f	1.4067172
18	0x3f528441	0.82233053
19	0x3d199828	0.037498623
20	0x3f434c9a	0.7628876
21	0x3e708884	0.23489577
22	0xbef791e2	-0.48353487
23	0x3f95395a	1.1658127
24	0x400c372c	2.1908674
25	0xbf1574b4	-0.583812
26	0xbe60608f	-0.21911834
27	0x3f53aa5a	0.8268181
28	0x400d2a0a	2.2056909
29	0xbed95425	-0.4244701
30	0x3f1e4155	0.6181844
31	0x3fc963de	1.5733602
32	0xbe86f9ea	-0.26362544
33	0x3e238d65	0.15971906
34	0xc0099e4d	-2.150287
35	0xbf83dc30	-1.0301571
36	0x3e88799c	0.2665528
37	0xbf30e06a	-0.6909243
38	0xbf0aada3	-0.541712
39	0x3e43565e	0.19075915
40	0xbfade6b3	-1.3586029
41	0x3f469852	0.7757617
42	0x4023b376	2.5578284
43	0xbf95ae95	-1.1693903
44	0x3fa0350e	1.2516191
45	0x3fd3cbd6	1.6546581
46	0x3fccb258	1.5991926
47	0x3ddb6fab	0.10714658
48	0x3f9295c3	1.1451954
49	0x3ef019c4	0.46894658
50	0xbf98c51c	-1.1935153
51	0xbf5379c1	-0.82607657
52	0x3f783769	0.9695955
53	0xbf350b1b	-0.7072007
54	0xbeeafb01	-0.45894626
55	0xbf84a65c	-1.0363269
56	0x3ff8382e	1.9392145
57	0xbd51babd	-0.051203478
58	0x3fd1ae6e	1.6381357
59	0x3f500517	0.81257766
60	0xbf355788	-0.7083669
61	0x3ea9260b	0.33036837
62	0x3ee184ab	0.4404653
63	0x3ec54b06	0.385338
64	0x40083a24	2.1285486
65	0x3f484978	0.78237104
66	0x400118d7	2.017141
67	0x3e380d11	0.17973734
68	0xbf4f11f2	-0.8088676
69	0xbf3edc96	-0.7455534
70	0xbe59cab4	-0.21268731
71	0xbf5e049c	-0.86725783
72	0x3f042ac5	0.5162776
73	0xbf7b5176	-0.98171175
74	0xc008d09a	-2.137732
75	0xbf473d02	-0.77827466
76	0xbe2c3970	-0.16818786
77	0x3f85a0ef	1.0439738
78	0x3ead59dd	0.33857623
79	0xbf8d7866	-1.1052368
80	0xbf01b67e	-0.50669086
81	0xbfd8ddec	-1.6942725
82	0xbf0aa6b5	-0.54160625
83	0x3f8f9f10	1.1220417
84	0x3fdcae7b	1.7240747
85	0xbefd5963	-0.4948226
86	0x3fc7a4e7	1.5597199
87	0x3e10a61d	0.14125867
88	0xbf824507	-1.0177315
89	0x3ec0f347	0.37685606
90	0xbdcd0257	-0.10010212
91	0x3e367d9c	0.17821354
92	0xbfae7004	-1.3627934
93	0xbf807223	-1.0034832
94	0xbcad6c00	-0.021169662
95	0x3fddc0b0	1.7324429
96	0x3ed25bef	0.41085765
97	0x3f5b1dab	0.85592145
98	0x3f1eec9c	0.6207979
99	0x3e9c0100	0.30469513
100	0xbf715cad	-0.94282037
101	0x3f3dc67e	0.74131
102	0x3f38f9e0	0.7225628
103	0x3f84333b	1.0328134
104	0x3f543440	0.8289223
105	0xbe726d45	-0.23674496
106	0x400b8ca0	2.180458
107	0xbe4d1217	-0.20026432
108	0x3eab708b	0.334843
109	0xbfad45de	-1.3536947
110	0x3ed63a26	0.4184124
111	0xc01efc60	-2.4841537
112	0xbf0807f8	-0.5313716
113	0xbed7bb26	-0.4213497
114	0x400584d6	2.0862327
115	0xbfb5bb80	-1.4197845
116	0xbdf40c4c	-0.11916408
117	0x3f21c331	0.63188463
118	0xbf060d7c	-0.52364326
119	0xbea53656	-0.32268018
120	0xbfb07820	-1.3786659
121	0x3f6506e7	0.8946366
122	0xbf16fb33	-0.5897705
123	0x3fd2d7d4	1.6472116
124	0x3f139197	0.5764403
125	0xbef39589	-0.47575024
126	0xbf0afed8	-0.5429511
127	0xbc8cb0ed	-0.017174209

RNN.weight_ih_l0 f4 [512, 15]
0	0x3d035a87	0.032068755
1	0x3d49817f	0.049195763
2	0x3dfa3aa5	0.12218217
3	0x3d55aeba	0.052168585
4	0x3cf9a098	0.030472085
5	0x3e33ccca	0.1755859
6	0x3dd48d99	0.1037857
7	0x3d886f1f	0.0666182
8	0x3dad2f03	0.084562324
9	0x3e478a90	0.19486451
10	0x3e17ea17	0.14835392
11	0x3e36238e	0.17787
12	0xbe22ec0a	-0.15910354
13	0xbdc160c4	-0.09442285
14	0x3db5d385	0.08878235
15	0x3cce40c7	0.025177373
16	0xbdb5103d	-0.08840988
17	0xbe087786	-0.13326845
18	0x3d8a5b43	0.06755688
19	0x3d0a65ea	0.0337886
20	0x3c877a74	0.016537882
21	0x3e0e4f44	0.13897425
22	0x3db23a41	0.08702517
23	0xbdc799e4	-0.09746149
24	0xbd4a271d	-0.049353708
25	0xbd9d9995	-0.07695309
26	0xbd9d34aa	-0.076760605
27	0x3dd12a88	0.1021319
28	0x3d5b5777	0.05355021
29	0x3ddd559f	0.108073466
30	0xbdc0ba43	-0.094105266
31	0xbcb6abce	-0.02229872
32	0xbdaf3f13	-0.08556952
33	0xbd9a7492	-0.07541765
34	0x3da31dd1	0.079646714
35	0x3d34c305	0.044131298
36	0xbc8e7776	-0.017390948
37	0x3da29ef5	0.07940475
38	0x3d2121c7	0.039338853
39	0x3d258708	0.04041198
40	0xbda1f451	-0.07907928
41	0x3cdaef4e	0.026725437
42	0x3d547664	0.05187072
43	0xbc8b2039	-0.016983138
44	0x3c90a37d	0.017656082
45	0x3d80f9a2	0.06297614
46	0xbc155e02	-0.0091166515
47	0x3c93f826	0.018062662
48	0x3d51d3c2	0.05122734
49	0x3d8dd4d5	0.0692536
50	0xbd90befd	-0.07067678
51	0x3e14f39e	0.14546058
52	0x3cc5b610	0.024134666
53	0xbcbc1b2b	-0.022962173
54	0x3d3ce82e	0.04611986
55	0x3d9ddd54	0.077082306
56	0x3da683d7	0.08130615
57	0xbe153aed	-0.1457326
58	0x3b0ee347	0.0021802948
59	0x3cf81b25	0.030286381
60	0x3e01337a	0.12617293
61	0x3dde3cdd	0.108514525
62	0x3db40bc6	0.08791308
63	0x3bb88e80	0.0056322217
64	0xbc9b4310	-0.018952876
65	0xbe73dde8	-0.2381512
66	0x3dd9e32e	0.10639034
67	0xbd9fd798	-0.07804793
68	0x3d8ad74e	0.06779347
69	0xbe5f5f0b	-0.218136
70	0x3d895136	0.06704943
71	0x3e35c1ae	0.17749664
72	0x3d9c7f20	0.07641435
73	0x3d4d4dc7	0.050123002
74	0x3d22953e	0.03969311
75	0xbcfd1e2e	-0.03089818
76	0x3e0c6dd8	0.13713777
77	0x3d747cee	0.059689455
78	0xbbfba6a0	-0.0076797754
79	0xbda071c0	-0.07834196
80	0xbebdd063	-0.3707305
81	0x3c263f8d	0.010146988
82	0xbd22ac1a	-0.03971491
83	0x3db1e0bb	0.08685442
84	0xbe64d745	-0.22347744
85	0x3d8fac5c	0.07015297
86	0x3dc1c752	0.094618455
87	0x3e0767b2	0.1322315
88	0x3c9a5d85	0.018843422
89	0xbd672a47	-0.056436803
90	0x3de02e24	0.109463006
91	0x3db2d38f	0.08731758
92	0x3e0d5e20	0.13805437
93	0x3d860dc9	0.06545598
94	0x3d598e6e	0.053114347
95	0x3cfc8425	0.03082473
96	0x3aba89b2	0.001423171
97	0x3ccd2e80	0.025046587
98	0x3ca8556a	0.020548541
99	0x3d5195a2	0.05116809
100	0xbc6899f6	-0.014196863
101	0x3e06183e	0.13095185
102	0xbd7be4d2	-0.061497517
103	0xbd818867	-0.06324845
104	0xbc195214	-0.009357948
105	0xbcb0ce21	-0.021582665
106	0xbc5fb7b5	-0.013654639
107	0x3e1c2170	0.1524713
108	0xbd19f120	-0.03758347
109	0x3cdfe038	0.027328596
110	0x3d95b248	0.07309395
111	0x3ced05fc	0.028933518
112	0xbd962778	-0.07331747
113	0x3dc954c1	0.09830619
114	0x3c79e22b	0.015251677
115	0x3cad2dfa	0.021140087
116	0x3e033f1d	0.12817045
117	0xbd7db840	-0.061943293
118	0x3c97bd83	0.018522983
119	0x3c8623ff	0.016374586
120	0x3d7bf250	0.061510384
121	0x3dc41b2f	0.09575497
122	0x3db4eff1	0.08834828
123	0x3d47f8ae	0.048821144
124	0x3c84c7e8	0.016208604
125	0x3e6e62ed	0.23279925
126	0x3e46e254	0.19422275
127	0xbdaa0be2	-0.08303048
128	0x3e156d69	0.14592518
129	0x3dacfe40	0.08446932
130	0x3dac1a8d	0.08403502
131	0x3e3e5d4f	0.18590282
132	0x3db3b98d	0.087756254
133	0x3d95d5c8	0.07316166
134	0x3e70ae8a	0.23504081
135	0x3d1ae3e5	0.037814993
136	0xbccad868	-0.024761394
137	0xbe4b592c	-0.19858235
138	0xbd7393e1	-0.0594672
139	0xbc82b50c	-0.01595547
140	0x3c5dac7e	0.013529895
141	0xbd0606cf	-0.032721337
142	0x3d233be2	0.03985203
143	0xbde904bb	-0.113778554
144	0x3d80c25f	0.06287073
145	0xbe0f722e	-0.140084
146	0xbdef0753	-0.11671319
147	0x3d8097ac	0.06278929
148	0x3dd064ee	0.10175501
149	0xbd4fec9b	-0.050762754
150	0x3dbfe6fe	0.0937023
151	0x3d8a7167	0.06759911
152	0x3dde5b70	0.10857284
153	0x3c04b040	0.008098662
154	0x3d32761e	0.043569677
155	0x3d83aa02	0.06428911
156	0x3d6321b7	0.055452075
157	0xbd44bbfd	-0.048030842
158	0x3cbef02f	0.023307888
159	0x3d3b5a5c	0.04574047
160	0x3d79e09b	0.061005216
161	0x3e17ae32	0.14812544
162	0xbd323f7e	-0.043517582
163	0x3d92db7e	0.07170771
164	0x3dca1761	0.098677404
165	0x3aaf67cb	0.0013382373
166	0x3daf8921	0.08571077
167	0x3d2d8a12	0.042368002
168	0x3c94c09c	0.01815825
169	0xbc332288	-0.010933526
170	0xbc8be695	-0.017077724
171	0x3dbb80d0	0.091554284
172	0xbdb22503	-0.08698466
173	0x3cb6f202	0.022332195
174	0xbd37bd8b	-0.044858497
175	0xbcd3111e	-0.025764998
176	0x3d9afa6b	0.07567295
177	0x3d214884	0.039375797
178	0x3d1240d3	0.035706352
179	0x3d65bd3d	0.056088675
180	0xbcac0541	-0.020998599
181	0x3dbc794f	0.09202825
182	0x3cf0bbb4	0.029386379
183	0x3d4d0286	0.050051235
184	0xbd7ec6e9	-0.062201414
185	0xbccfe971	-0.025379868
186	0x3d14b9d3	0.03631003
187	0x3c850348	0.016236916
188	0x3e1f398f	0.155493
189	0x3d3064cc	0.043064877
190	0x3dc3361d	0.09531806
191	0xbd88adab	-0.066737495
192	0xbdb4a7ba	-0.08821054
193	0xbd6a7fec	-0.057250902
194	0xbd7b11c7	-0.06129625
195	0xbd082277	-0.033235993
196	0x3d54e972	0.051980443
197	0x3c21ed03	0.009883168
198	0xbc5359b0	-0.012899801
199	0x3cf6aadc	0.030110769
200	0x3e9c4c3b	0.3052691
201	0xbe039cfe	-0.12852857
202	0xbcf116e2	-0.029429857
203	0x3c07bc81	0.008284689
204	0x3e83d750	0.25750208
205	0x3d819c9a	0.063286975
206	0x3d5a851e	0.053349607
207	0xbe3538ac	-0.176974
208	0xbda0c972	-0.07850923
209	0xbe000b23	-0.12504248
210	0x3d91c3f1	0.07117451
211	0x3def35f5	0.11680213
212	0xbda0f1a3	-0.078585885
213	0xbce175e0	-0.027522027
214	0xbbfbb130	-0.0076810345
215	0x3de0febd	0.109860875
216	0x3dbbdc73	0.09172907
217	0x3b857050	0.0040722266
218	0x3db849bd	0.089984395
219	0x3cc4c456	0.024019402
220	0x3dcbac04	0.09944919
221	0xbd9e1d4d	-0.077204324
222	0xbc2d57ac	-0.010579985
223	0xbd5083f3	-0.050907087
224	0x3e252687	0.16127978
225	0x3daf8ebb	0.085721456
226	0x3b2cea83	0.0026384897
227	0xbd329871	-0.04360241
228	0xbcd86ddc	-0.026419573
229	0xbcc64e44	-0.024207242
230	0x3e3d7486	0.18501481
231	0xbb117ceb	-0.00221997
232	0xbc7d5698	-0.01546254
233	0x3e0840a4	0.13305908
234	0x3e25c2e9	0.16187634
235	0x3e1a38fd	0.15060802
236	0xbb9f4f79	-0.004861769
237	0x3b2df83a	0.002654566
238	0x3d8358cb	0.0641342
239	0x3e012c81	0.12614633
240	0xbd55d207	-0.05220225
241	0x3de4bf07	0.11169248
242	0x3db1cf15	0.08682076
243	0xbc82f790	-0.015987188
244	0x3d433b9e	0.047664277
245	0x3e21a9d5	0.15787442
246	0xbd0419e5	-0.032251257
247	0xbdb402a9	-0.0878957
248	0x3bf89bf3	0.00758695
249	0x3dba3b2b	0.09093317
250	0x3df659d0	0.12028849
251	0x3d1ebacd	0.038752366
252	0xbdb534c3	-0.08847954
253	0x3dadcb1a	0.08486004
254	0xbd1706af	-0.03687161
255	0x3d9bc25e	0.07605432

RNN.weight_hh_l0 f4 [512, 128]
0	0xbdf0873d	-0.11744545
1	0xbbcafd6a	-0.00619476
2	0xbd12f470	-0.035877645
3	0xbd8fae77	-0.070156984
4	0x3d8f087b	0.069840394
5	0xbdaa6de9	-0.08321745
6	0xbde98958	-0.11403149
7	0x3d24302b	0.040085
8	0xbd53774f	-0.051627453
9	0x3e01f364	0.12690502
10	0xbdba3909	-0.0909291
11	0x3cefb8a4	0.029262848
12	0xbe12fa7b	-0.14353363
13	0xbe181d64	-0.14854962
14	0xbd04193b	-0.032250624
15	0x3c625b3a	0.013815695
16	0x3d289f19	0.041167352
17	0xbdd6e2b9	-0.10492463
18	0x3c945887	0.01810862
19	0xbd5774dd	-0.052601684
20	0x3daba4e3	0.08381059
21	0x3c49fd45	0.012328451
22	0xbe00c1ea	-0.12573972
23	0x3df0aaf0	0.11751354
24	0xbda462f6	-0.08026688
25	0xbcbaf4f6	-0.022821885
26	0x3d96d26b	0.07364353
27	0x3cc399f6	0.023877125
28	0x3a07d5fb	0.0005181727
29	0xbe02f1aa	-0.127875
30	0x3dc3a4b9	0.09552903
31	0x3d561ab0	0.052271545
32	0xbc8754d6	-0.016519945
33	0x3d5b19e8	0.053491503
34	0xbd37c3dc	-0.04486452
35	0x3da430ad	0.08017097
36	0x3d9f4056	0.07775943
37	0x3e1729d9	0.14762057
38	0x3d94b2ed	0.0726069
39	0xbd9dbd90	-0.07702172
40	0x3d83dc7b	0.06438538
41	0x3e18d790	0.1492598
42	0x3d78bd7c	0.06072758
43	0x3cdbfe4f	0.026854662
44	0x3e2a558c	0.16634196
45	0x3cd13711	0.025538953
46	0x3d250673	0.040289354
47	0xbe1ac8c8	-0.15115654
48	0x3d98162a	0.074261025
49	0x3e2d5dee	0.16930363
50	0xbe2d52db	-0.16926138
51	0xbda14328	-0.07874137
52	0xbd4a23df	-0.049350616
53	0xbdf079e5	-0.117419995
54	0x3de47848	0.11155754
55	0x3e300281	0.17188455
56	0x3dfadb59	0.122488685
57	0xbc82117e	-0.015877482
58	0x3b5c9dfe	0.0033663507
59	0xbe299b05	-0.16563042
60	0xbd6404a0	-0.055668473
61	0x3c38f4a4	0.011288796
62	0xbe177d11	-0.14793803
63	0xbe226ba1	-0.1586137
64	0x3e3c3ed1	0.18383338
65	0xbe3d64dc	-0.18495506
66	0xbd1447c9	-0.036201272
67	0x3c546b65	0.012965058
68	0xbe6594ec	-0.2242009
69	0xbc96094a	-0.018314976
70	0x3c21f4c5	0.009885018
71	0xbe3879db	-0.18015234
72	0x3df5c525	0.12000493
73	0x3e1b2ab8	0.15153015
74	0xbd951cdd	-0.07280896
75	0x3d91843a	0.07105298
76	0xbdf72caa	-0.12069066
77	0xbd56106c	-0.052261755
78	0xbe0f7160	-0.14008093
79	0xbd773033	-0.0603487
80	0xbddaf85f	-0.10691904
81	0x3e08aba2	0.13346723
82	0x3c92c1d9	0.0179147
83	0x3d870376	0.06592457
84	0xbdc36b86	-0.09541993
85	0x3e3281e7	0.17432366
86	0x3e206163	0.1566215
87	0x3e08287d	0.13296695
88	0x3c584d54	0.01320203
89	0x3db7d95f	0.08977007
90	0xbe1a22d3	-0.15052347
91	0x3c1dae15	0.009624024
92	0x3ddf94ba	0.10917039
93	0x3d70c6f7	0.058783498
94	0x3e35b193	0.1774352
95	0xbbcdd232	-0.0062811607
96	0xbdcd43c7	-0.10022693
97	0x3d2bb8f3	0.04192443
98	0x3d80239f	0.06256794
99	0x3e04aff1	0.12957741
100	0xbdb641d2	-0.08899273
101	0x3d3f372b	0.04668347
102	0x3e4e9640	0.20174503
103	0x3daa4db8	0.08315605
104	0xbdac9561	-0.08426929
105	0xbd01a11c	-0.031647786
106	0xbc933853	-0.017971193
107	0xbe03de49	-0.12877764
108	0xbe18fdf0	-0.1494062
109	0xbcb66290	-0.022263795
110	0xbb90cd50	-0.0044190064
111	0xbdf9ffe9	-0.12207014
112	0xbba0f003	-0.004911424
113	0xbe0364b1	-0.1283138
114	0xbd8a954d	-0.06766758
115	0x3da5e910	0.08101094
116	0x3cbe2ac6	0.023213755
117	0xbcc91757	-0.024547262
118	0xbc218560	-0.009858459
119	0x3dd630f4	0.10458556
120	0x3caf1fdb	0.021377495
121	0xbbc86728	-0.006115813
122	0x3d153746	0.036429666
123	0x3de19da3	0.11016395
124	0xbda56613	-0.0807611
125	0xbe1aa9d2	-0.15103844
126	0xbc963af7	-0.018338664
127	0x3d91b1bf	0.071139805
128	0xbe4c215d	-0.19934602
129	0x3c129360	0.00894627
130	0x3cfeab1c	0.03108745
131	0x3d7db714	0.061942175
132	0x3d81c75d	0.06336854
133	0x3d0394ee	0.032124452
134	0x3d8f8b7e	0.07009028
135	0x3d9901b1	0.07471026
136	0x3dc1c72c	0.09461817
137	0xbdea201c	-0.114319056
138	0x3ca9fb2f	0.020749656
139	0xbe16bf5d	-0.14721437
140	0xbcfff57e	-0.03124499
141	0xbce0ad31	-0.027426334
142	0x3d41df5d	0.047332156
143	0xbc389d3d	-0.011267957
144	0x3d67d1d8	0.056596607
145	0x3d5de0f9	0.05416963
146	0x3d67e57d	0.05661534
147	0x3dc629ff	0.09675979
148	0xbd1fb753	-0.03899319
149	0x3d8c0cfc	0.06838414
150	0x3c27facb	0.010252665
151	0xbd246c41	-0.0401423
152	0x3c99f3b1	0.018792959
153	0x3cbbe832	0.022937868
154	0xbd50bb6a	-0.050959982
155	0x3d4487b3	0.047980975
156	0x3d6138a5	0.05498566
157	0x3c529e3d	0.01285511
158	0x3c7668db	0.015039648
159	0x3db47276	0.08810894
160	0x3caf7332	0.021417234
161	0xbd474368	-0.048648268
162	0xbdf74b99	-0.12074966
163	0x3d41d24d	0.0473197
164	0xbd59f84f	-0.05321532
165	0xbc13aa0c	-0.00901271
166	0xbd95b839	-0.07310528
167	0xbdd86af7	-0.10567277
168	0xbe5cbf34	-0.21557313
169	0xbe1c81cd	-0.1528389
170	0x3db90b70	0.09035385
171	0x3dc4152f	0.09574353
172	0xbdeac0ab	-0.1146253
173	0xbdd19c9d	-0.1023495
174	0xbcab7ea7	-0.020934416
175	0xbb7e8242	-0.0038834964
176	0xbc4e9d14	-0.0126106925
177	0x3a957ceb	0.0011405026
178	0x3bb7bb7a	0.0056070657
179	0x3cb9031c	0.02258449
180	0x3ba4c21b	0.005028022
181	0xbcb5088f	-0.022098808
182	0xbdd8a521	-0.10578371
183	0xbe1d37ad	-0.1535327
184	0xbcbcbcd5	-0.02303926
185	0xbe00dbfd	-0.12583919
186	0x3d3f68b8	0.046730727
187	0x3cb42c03	0.021993643
188	0x3e2163b0	0.15760684
189	0x3d56b52e	0.05241888
190	0x3b8db79e	0.0043248674
191	0x3e2c21f3	0.16809826
192	0xbe156fc0	-0.1459341
193	0xbca70914	-0.020390071
194	0x3ce386b5	0.027774194
195	0xbda650ae	-0.08120857
196	0x3d8e3cca	0.06945188
197	0xbe62519a	-0.22101441
198	0xbd5d29bb	-0.053994875
199	0x3dd0abfd	0.10189054
200	0x3b977826	0.004622477
201	0xbe1793b6	-0.14802441
202	0xbdbed48f	-0.09317886
203	0x3d5b293e	0.05350613
204	0xbe1085b0	-0.14113498
205	0x3d83f644	0.06443456
206	0xbd3f8e6f	-0.046766695
207	0xbdb7fe56	-0.089840576
208	0x3db65328	0.089025795
209	0xbcd23268	-0.025658801
210	0x3dd1df4f	0.10247671
211	0x3d7a0db4	0.061048225
212	0x3d8e9574	0.069621
213	0xbdcfd05e	-0.10147165
214	0xbdf535aa	-0.11973126
215	0x3d81a639	0.063305326
216	0x3df60dba	0.12014337
217	0xbdd3eb0e	-0.103475675
218	0x3d3f96b9	0.0467746
219	0x3d83edd1	0.06441844
220	0x3dc9dddb	0.09856769
221	0x3dffc591	0.12488855
222	0x3d918577	0.071055345
223	0xbdddd681	-0.10831929
224	0x3ceba8fe	0.028767105
225	0xbd030430	-0.031986415
226	0xbdb4047e	-0.08789919
227	0x3cc5bf50	0.024139076
228	0x3ce3865e	0.027774032
229	0xbda72021	-0.08160425
230	0xbc3e6a75	-0.011622061
231	0x3c165a31	0.009176777
232	0xbd75fdf3	-0.060056638
233	0xbde9de90	-0.114194036
234	0xbe50f828	-0.20407164
235	0xbdc4f1d0	-0.096164346
236	0xbd3ffc52	-0.04687149
237	0xbe513b0d	-0.20432682
238	0x3b6f4cd4	0.00365143
239	0x3d9200cb	0.071290575
240	0xbdf20f9b	-0.11819383
241	0xbdc7c2f4	-0.09753981
242	0xbaac95c6	-0.0013167195
243	0xbe51f543	-0.20503716
244	0x3e25af69	0.16180195
245	0x3e060d3f	0.1309099
246	0xbcb95ea7	-0.022628142
247	0xbcf13a69	-0.029446797
248	0x3d5ca8c5	0.05387189
249	0x3d85c52c	0.06531748
250	0x3e1bb31d	0.15205045
251	0xbd81b5d7	-0.06333511
252	0x3c855b67	0.016278936
253	0xbd076da8	-0.03306356
254	0xbdab2092	-0.08355822
255	0x3d04c233	0.032411765

RNN.bias_ih_l0 f4 [512]
0	0x3e4cde07	0.20006572
1	0x3d84d4e8	0.06485921
2	0xbdaaf897	-0.08348196
3	0x3c930e51	0.017951163
4	0x3d3b53db	0.045734268
5	0x3d60931d	0.0548278
6	0x3e1109c8	0.14163888
7	0x3e37dd1c	0.1795544
8	0x3e4beeb9	0.19915284
9	0x3c45d86e	0.012075527
10	0x3dd8bf31	0.10583342
11	0x3a8167d4	0.0009872862
12	0x3de4af68	0.111662686
13	0xbd3ef401	-0.04661942
14	0x3e1ca1c4	0.15296084
15	0x3dd9acb7	0.10628646
16	0x3dde14f1	0.10843838
17	0x3d303750	0.0430215
18	0x3d2bfa4a	0.04198674
19	0xbc612862	-0.013742538
20	0x3d0f966c	0.035055563
21	0x3c4962ba	0.012291605
22	0x3e2975b5	0.16548808
23	0x3e18edce	0.14934465
24	0x3cf49c60	0.029859722
25	0xbd53f867	-0.051750567
26	0x3db09e77	0.08623975
27	0x3e1e658c	0.15468425
28	0xbcc9512e	-0.024574842
29	0x3d453f54	0.048156098
30	0x3d2dc317	0.04242238
31	0x3cc7e411	0.024400743
32	0x3df0ebac	0.11763701
33	0xbd811355	-0.063025154
34	0x3d999a85	0.075001754
35	0xbd1de0a3	-0.03854431
36	0xbd81990a	-0.06328018
37	0x3d48fe70	0.049070776
38	0x3ce89187	0.028389705
39	0xbc707162	-0.01467547
40	0x3dc8d12a	0.0980552
41	0x3e37a1a2	0.17932752
42	0xbd329901	-0.043602947
43	0xbda86d33	-0.08223953
44	0xbc73b851	-0.014875487
45	0x3b868c19	0.0041060564
46	0xbc835944	-0.016033776
47	0x3e4098db	0.1880831
48	0x3da0bda5	0.07848672
49	0x3dfaaa68	0.12239534
50	0x3da0f983	0.078600906
51	0x3c66a352	0.014077025
52	0x3d4a4d3f	0.049390074
53	0x3db8afb0	0.09017885
54	0x3db4d5a7	0.088298135
55	0x3d0b9ad9	0.03408322
56	0xbc4e99b1	-0.012609885
57	0x3d9bf549	0.07615144
58	0x3dbfa20e	0.09357081
59	0x3e0acf74	0.135557
60	0x3d690eca	0.05689887
61	0x3dd28408	0.10279089
62	0x3d42c138	0.04754755
63	0x3cfebd72	0.031096194
64	0x3e1d5d21	0.15367557
65	0x3e1b4cd5	0.15166028
66	0xbd23e9fe	-0.040018074
67	0x3dc80531	0.09766615
68	0x3dcc5282	0.099766746
69	0x3e35247c	0.17689699
70	0xbd8ab3f9	-0.06772608
71	0x3dc91296	0.09817998
72	0x3cbc3dc3	0.022978669
73	0x3dfbb069	0.12289507
74	0x3a94a996	0.0011342044
75	0x3e3c2c60	0.18376303
76	0x3e1be4fb	0.15224068
77	0x3e031245	0.12799938
78	0x3e079c1f	0.13243149
79	0x3dc90850	0.098160386
80	0x3e121424	0.14265496
81	0x3e063c25	0.13108881
82	0xbb89935f	-0.004198476
83	0x3e00d6c8	0.12581933
84	0xbdbf8d4b	-0.09353121
85	0xbd5e0e5f	-0.054212924
86	0x3e1a46f1	0.15066124
87	0x3d17f990	0.037103236
88	0x3dab8ef0	0.083768725
89	0xbd69dbeb	-0.057094496
90	0xbd686358	-0.056735367
91	0x3df32165	0.11871604
92	0x3e0950e3	0.13409762
93	0x3e0614fa	0.1309394
94	0x3da3f5cb	0.08005866
95	0x3cf2c652	0.029635582
96	0x3da9d565	0.08292655
97	0x3d19a0f0	0.037506998
98	0xbb2fa77d	-0.0026802712
99	0x3d3de28f	0.04635864
100	0x3e1dc056	0.15405402
101	0x3d593cea	0.053036608
102	0xbb907d44	-0.004409464
103	0x3cd57d50	0.02606073
104	0xbd19c548	-0.037541658
105	0xbc4f4826	-0.012651479
106	0x3e6b9f73	0.23010044
107	0x3c9efc6e	0.019407477
108	0x3d14b5ac	0.03630607
109	0x3e2d3efc	0.16918558
110	0xbd6e5e2c	-0.058195278
111	0x3d645329	0.05574337
112	0x3c773c7b	0.015090103
113	0x3d889bec	0.06670365
114	0x3e339235	0.17536242
115	0x3d8823e1	0.06647468
116	0x3c958f11	0.018256696
117	0x3e0d45ba	0.1379613
118	0xbc165e47	-0.009177751
119	0x3db487f4	0.088149935
120	0xbdd7fe03	-0.10546496
121	0x3e145833	0.1448677
122	0x3e11eeda	0.14251271
123	0x3cda6e22	0.026663844
124	0x3dae01c3	0.0849643
125	0x3d8ad902	0.06779672
126	0x3d03c7fb	0.032173138
127	0x3d4f707d	0.050644387
128	0xbe018b6d	-0.12650843
129	0xbd588437	-0.052860465
130	0xbce61725	-0.028087208
131	0xbdba4aa2	-0.09096266
132	0xbd1b53c8	-0.037921697
133	0xbd37a0ad	-0.044830967
134	0x3e2f3d2e	0.17113182
135	0xbe3aeb00	-0.18253708
136	0xbe29644f	-0.16542171
137	0xbdc6f9f4	-0.097156435
138	0x3d3ed0ca	0.046585836
139	0x3df89983	0.12138655
140	0x3db58a08	0.08864218
141	0xbc1df6db	-0.009641374
142	0x3d40bb83	0.047053825
143	0x3d9f373b	0.07774206
144	0xbc4ec260	-0.012619585
145	0x3de36ac7	0.111043505
146	0xbe337432	-0.17524794
147	0x3e038a4d	0.12845726
148	0x3d98d4ad	0.0746244
149	0xbd560b22	-0.05225671
150	0x3e0a9205	0.13532265
151	0xbc1df23f	-0.0096402755
152	0xbb2a1318	-0.0025951322
153	0x3d65df9f	0.056121465
154	0xbc2dbe82	-0.010604503
155	0x3dedc935	0.11610643
156	0x3c61e411	0.013787285
157	0x3e17d21b	0.14826243
158	0xbe19f05d	-0.15033098
159	0x3e2298fc	0.15878671
160	0xbd4203dd	-0.047366966
161	0xbd769aa0	-0.060206056
162	0x3ce8cba3	0.028417414
163	0xbd87362e	-0.06602131
164	0x3dc91820	0.098190546
165	0xbd01bcfe	-0.031674378
166	0xbd476c96	-0.04868754
167	0xbc4f68a2	-0.012659224
168	0xbddc2155	-0.10748545
169	0x3e31ab73	0.17350559
170	0x3dc181d8	0.09448594
171	0xbd9d601b	-0.07684346
172	0x3e1071e4	0.14105946
173	0x3e1342d9	0.14380969
174	0x3be05b3e	0.0068468144
175	0x3de548de	0.11195539
176	0x3bb1cde6	0.0054261563
177	0x3cd164e8	0.025560811
178	0x3e22f266	0.1591278
179	0x3dde671d	0.10859511
180	0x3ddf2741	0.10896159
181	0x3dd42c50	0.103600144
182	0x3daf7338	0.08566898
183	0xbd433d32	-0.047665782
184	0x3c873264	0.01650352
185	0xbd2a6e1c	-0.041608915
186	0x3d01df30	0.03170699
187	0x3ddeadea	0.10873015
188	0x3c3e56f4	0.011617411
189	0x3c14535c	0.009053078
190	0xbd2d6a96	-0.042337976
191	0xbd30c76c	-0.043158934
192	0x3cb18877	0.021671517
193	0x3d9dd8d3	0.077073716
194	0xbd0c7228	-0.034288555
195	0x3cc58dbb	0.024115434
196	0x3defd34d	0.11710224
197	0xbe69fa46	-0.22849378
198	0xbdd7abc1	-0.10530806
199	0x3d630fe2	0.05543507
200	0x3d7f50aa	0.062332787
201	0x3d8bd388	0.06827456
202	0x3dfb6822	0.12275721
203	0xbd082c49	-0.03324536
204	0x3ddefa0e	0.10887538
205	0x3d5f71ce	0.054551892
206	0xbc8d6ea7	-0.017264677
207	0x3db31033	0.08743324
208	0x3d917a37	0.07103389
209	0xbe68fec7	-0.2275344
210	0x3dbbd6e6	0.09171848
211	0xbe0cbce3	-0.1374393
212	0xbd6874ee	-0.056752138
213	0xbd5b2231	-0.053499404
214	0xbdfb6c5f	-0.122765295
215	0xbd68581e	-0.05672466
216	0xbd0d1f95	-0.034453947
217	0x3c76407f	0.0150300255
218	0xbd561190	-0.052262843
219	0xbc91c061	-0.017791929
220	0x3dd9cead	0.106351234
221	0xbe099d97	-0.13439022
222	0x3d654917	0.055977907
223	0x3d990349	0.0747133
224	0x3cea47f1	0.028598757
225	0x3de1a37d	0.11017511
226	0x3db9c86c	0.090714306
227	0x3d995fec	0.07488999
228	0x3da84daf	0.08217942
229	0x3dd92b0b	0.10603913
230	0x3b1398fd	0.0022521608
231	0xba9925bc	-0.0011684219
232	0xbce991b9	-0.028511869
233	0x3d2f9cf7	0.042874303
234	0xbd39ab7a	-0.04532955
235	0x3db03e71	0.0860566
236	0xbc9167b8	-0.017749652
237	0xbdd508a0	-0.10402036
238	0xbbe1a28a	-0.0068858312
239	0x3b90155e	0.0043970784
240	0x3d158059	0.036499355
241	0x3d46b634	0.048513606
242	0x3dbc8ba4	0.09206322
243	0xbe3408ec	-0.17581528
244	0xbdbb126d	-0.09134374
245	0xbe49d751	-0.19711043
246	0xbd5e7a21	-0.05431569
247	0x3db749f1	0.0894965
248	0x3c189c6d	0.009314639
249	0x3dcaddca	0.09905584
250	0xbc66403b	-0.0140534
251	0x3df8931f	0.12137436
252	0x3e0b20f3	0.13586788
253	0x3d154028	0.036438137
254	0x3c60f841	0.013731063
255	0x3c582a2d	0.013193649

RNN.bias_hh_l0 f4 [512]
0	0x3e162122	0.14661077
1	0x3d85e54d	0.06537876
2	0xbd9fa3bf	-0.07794904
3	0x3e16186e	0.14657757
4	0x3b07ab55	0.0020701487
5	0x3d922074	0.07135096
6	0x3d15072e	0.0363838
7	0x3db1fab5	0.08690397
8	0x3df04848	0.117325366
9	0x3d29c664	0.041448966
10	0x3d9544fb	0.072885476
11	0xbc6a629f	-0.01430574
12	0x3d797bb8	0.060909003
13	0x3d90e150	0.07074225
14	0x3b60b62f	0.0034288277
15	0x3df98e8d	0.121853925
16	0x3ddbf0a5	0.10739259
17	0x3db3e01b	0.08782979
18	0x3e0c1d44	0.13683039
19	0x3e14f54e	0.14546701
20	0x3e35265c	0.17690414
21	0xbb312dcc	-0.0027035354
22	0x3e28edc6	0.16496953
23	0x3d3fb8b8	0.04680702
24	0x3db2c586	0.08729081
25	0x3db71933	0.08940353
26	0x3e35cafb	0.17753212
27	0x3b502a92	0.0031763655
28	0x3cf30df3	0.029669737
29	0x3b9a9e75	0.0047185966
30	0x3c65c888	0.014024861
31	0xbc41d95c	-0.011831608
32	0x3d9d6a20	0.07686257
33	0x3bc6197c	0.0060455184
34	0x3cf7c1b2	0.030243728
35	0x3c3856fc	0.011251207
36	0xbc7819ad	-0.01514284
37	0x3c526b93	0.0128430305
38	0x3e28d980	0.1648922
39	0xbcd3ea3d	-0.02586853
40	0x3da16a39	0.078815885
41	0x3dc0dc63	0.094170354
42	0x3bca04c6	0.00616512
43	0x3ba35f13	0.004985699
44	0x3d92e531	0.07172621
45	0x3e221b11	0.15830638
46	0x3a4b577b	0.0007756871
47	0x3e7b8adf	0.24564694
48	0x3d1f6422	0.038913853
49	0x3d75b0bc	0.059983
50	0x3bbc7a56	0.0057518883
51	0x3e1c8027	0.15283261
52	0x3d57b371	0.052661363
53	0x3d29b4ab	0.041432064
54	0x3e09f901	0.13473894
55	0x3e267adf	0.16257809
56	0xbca6c912	-0.02035955
57	0x3e0cc9ef	0.13748907
58	0x3dadba3a	0.084827855
59	0x3c3c2388	0.011483081
60	0x3e073841	0.13205053
61	0x3e318125	0.17334421
62	0x3e37449d	0.17897268
63	0x3dca8907	0.09889417
64	0xbc688ac9	-0.014193245
65	0x3e1092f3	0.14118557
66	0xbd0da94a	-0.034585275
67	0x3d0ca869	0.034340296
68	0x3e19316a	0.14960256
69	0x3e0bb5ca	0.13643566
70	0xbe15cbdc	-0.14628547
71	0x3d6206f4	0.055182412
72	0xbcc09cdd	-0.023512298
73	0x3e4d942d	0.20076056
74	0x3e156dd6	0.1459268
75	0x3e370b89	0.17875494
76	0x3d8ed655	0.06974474
77	0x3df92cf9	0.12166781
78	0x3d8ab22a	0.06772263
79	0x3cc22ed3	0.023703968
80	0x3e32b9c8	0.17453682
81	0x3e140138	0.1445359
82	0x3e02b0ce	0.12762758
83	0x3c5f98e1	0.013647289
84	0xbc9e8fc6	-0.019355666
85	0xbdf89056	-0.12136905
86	0x3e20e405	0.15711983
87	0x3d107834	0.035270885
88	0xbb11e0ee	-0.0022259313
89	0xbc65be49	-0.014022418
90	0xbc4d29b3	-0.012522149
91	0x3cbf9ff0	0.023391694
92	0xbc30ff0c	-0.010802995
93	0x3e3354b3	0.17512779
94	0x3d7ecf3f	0.062209364
95	0x3d585061	0.05281103
96	0x3d728b0b	0.059214633
97	0x3dbeb18f	0.0931121
98	0x3da1c07b	0.07898041
99	0x3e2bcebf	0.16778086
100	0x3d4247be	0.0474317
101	0xbc9e6777	-0.019336445
102	0x3c5c1709	0.013433226
103	0x3da4df4a	0.080504015
104	0x3d204ec9	0.039137635
105	0x3d8e788d	0.06956587
106	0x3e0bfcf3	0.13670711
107	0xbcfe3553	-0.031031286
108	0x3e14af3f	0.14519976
109	0x3e5211be	0.2051458
110	0xbd861dab	-0.065486275
111	0x3d66d65c	0.056356773
112	0xbd260752	-0.040534325
113	0xbb834934	-0.004006529
114	0x3debc7c8	0.115127146
115	0x3e31eb91	0.17375018
116	0xbb319df0	-0.0027102195
117	0x3e37eedc	0.17962211
118	0xbbc9d999	-0.006159973
119	0x3e1812ee	0.14850971
120	0xbd8af274	-0.067845255
121	0x3dde3fbd	0.10852001
122	0x3e395f72	0.18102816
123	0x3da3b79f	0.07994007
124	0x3d682e8d	0.05668502
125	0x3d2d3fed	0.042297293
126	0xbd006e84	-0.031355396
127	0x3d9b9388	0.07596499
128	0xbd8e67ea	-0.06953414
129	0xbdc7f04f	-0.09762632
130	0x3c8928b9	0.01674305
131	0xbbc13c65	-0.005897092
132	0x3d5715e5	0.052511115
133	0x3d5b090a	0.053475417
134	0x3e21632a	0.15760484
135	0xbd5c08ce	-0.053719334
136	0xbcaef86e	-0.021358695
137	0xbd3d2a26	-0.046182774
138	0x3d81e5cd	0.06342659
139	0x3d1e64fa	0.038670518
140	0x3db2b83e	0.08726548
141	0xbd68d746	-0.056845926
142	0x3d805556	0.062662765
143	0x3cf9936b	0.030465802
144	0x3dd17c0e	0.1022874
145	0xbd21c920	-0.03949845
146	0xbe24fcc2	-0.16112044
147	0x3da3cd94	0.07998195
148	0x3cbdd54d	0.023172999
149	0xbd762cff	-0.060101505
150	0x3dac53ff	0.084144585
151	0x3bc5308d	0.0060177506
152	0xbd47141b	-0.04860316
153	0xbc2714a1	-0.010197789
154	0x3d23dfce	0.04000836
155	0x3dad1b8f	0.08452522
156	0x3d063217	0.032762613
157	0x3e0db3cb	0.13838117
158	0xbd0fc5b2	-0.035100646
159	0x3dfee15b	0.12445327
160	0x3dc6c82d	0.09706149
161	0x3c968a41	0.018376471
162	0x3d6d1e3f	0.057890173
163	0xbd77cae6	-0.060496233
164	0x3da8ccc0	0.08242178
165	0xbb8be439	-0.0042691496
166	0xbd83b1e1	-0.06430412
167	0xbd87c546	-0.06629424
168	0xbdb5aaf7	-0.088704996
169	0x3dbe543a	0.09293409
170	0x3c4d8bb7	0.012545518
171	0xbd893ba2	-0.06700827
172	0x3df14730	0.11781156
173	0x3dacfd6b	0.08446773
174	0x3e0982e7	0.13428842
175	0xbbf2bf7c	-0.0074080806
176	0x3d4d2079	0.050079796
177	0xbd28f948	-0.041253358
178	0x3c02137f	0.007939219
179	0x3e25497a	0.1614131
180	0x3dfd769b	0.12376138
181	0x3dd575ac	0.10422835
182	0xbb9bba9b	-0.0047524697
183	0x3d4e2a39	0.050333235
184	0x3d393d22	0.045224316
185	0xbdc6f784	-0.097151786
186	0x3d74cdd5	0.05976661
187	0xbc7c01a7	-0.015381253
188	0xbd31d161	-0.04341257
189	0x3ce391e9	0.027779536
190	0xbc8e5946	-0.017376553
191	0xbd646ebc	-0.055769667
192	0x3e0e40a0	0.1389184
193	0xbd9203e0	-0.07129645
194	0x3d5e083d	0.054207075
195	0x3cd84d7a	0.026404131
196	0x3db9ea68	0.090779126
197	0xbe7045e0	-0.23464155
198	0xb91fddea	-0.00015246091
199	0x3e2afa1d	0.16696973
200	0x3dcc8b96	0.099875614
201	0x3e06b091	0.13153292
202	0x3db91bf0	0.09038532
203	0x3db166e5	0.08662204
204	0x3deab922	0.114610925
205	0x3bd6bb3a	0.006553081
206	0x3de0d206	0.10977559
207	0x3dd18ed2	0.10232319
208	0x3df90b20	0.12160325
209	0xbeafeb1a	-0.34359056
210	0x3e1f2759	0.15542354
211	0xbd5b9de5	-0.053617377
212	0x3b1bcb6f	0.002377238
213	0x3ca1b5f0	0.019740075
214	0xbdf776be	-0.12083195
215	0x3d5e4f9c	0.05427514
216	0xbe0b5d32	-0.1360977
217	0x3e127c6c	0.14305276
218	0xbd0b6cbc	-0.034039244
219	0x3e094d6a	0.13408437
220	0x3ddef70c	0.10886964
221	0xbd850089	-0.06494243
222	0x3c86edd1	0.016470822
223	0x3d84bc1f	0.06481194
224	0xbd340ac7	-0.04395559
225	0x3dddcb75	0.10829822
226	0x3d6da855	0.058021862
227	0x3d298e66	0.041395567
228	0x3dfa04d1	0.1220795
229	0xbc90d052	-0.01767746
230	0x3d470fa7	0.04859891
231	0x3a3daafc	0.00072352565
232	0xbd50d692	-0.05098588
233	0x3e0560aa	0.13025156
234	0xbbf4f6a9	-0.0074756932
235	0xbcf9090d	-0.030399824
236	0x3d6e6fd2	0.05821211
237	0xbe24f34d	-0.16108437
238	0x3c0137f3	0.0078868745
239	0x3bc60c7a	0.006043968
240	0x3db048c9	0.08607633
241	0xbc08fcbd	-0.008361039
242	0x3db38420	0.08765435
243	0xbd35a0fc	-0.04434298
244	0xbe1582f5	-0.14600737
245	0xbe49a832	-0.19693068
246	0x3c0d2b44	0.008616272
247	0x3d62b08d	0.055344153
248	0x3d6527db	0.055946212
249	0x3d0d862f	0.034551796
250	0xbd06bdd0	-0.032895863
251	0x3d8bef50	0.068327546
252	0x3e1b7bd0	0.1518395
253	0x3dcf6bf0	0.10128009
254	0xbcf00af4	-0.029302098
255	0x3dc343ff	0.095344536

actor.weight f4 [5, 128]
0	0x3d22b19f	0.039720174
1	0xbc4b7feb	-0.012420635
2	0xbd7a9266	-0.061174773
3	0xbe11b71b	-0.14230005
4	0xbe2348b4	-0.15945703
5	0xbc5f01ba	-0.0136112515
6	0xbc908f96	-0.017646592
7	0xbe182468	-0.14857638
8	0xbded85d3	-0.115977906
9	0x3c7d4166	0.015457487
10	0x3d17671e	0.036963575
11	0x3e27044b	0.16310231
12	0xbd50995a	-0.050927497
13	0xbe3b0ff0	-0.18267798
14	0x3c6ddb65	0.01451764
15	0xbde2d99a	-0.110766605
16	0xbd7e052d	-0.062016655
17	0xbdc67824	-0.09690884
18	0xbd3f3513	-0.046681475
19	0xbd80665c	-0.062695235
20	0xbdabd708	-0.08390623
21	0xbaa73908	-0.0012758086
22	0xbd1aef30	-0.037825763
23	0x3ccda96f	0.025105206
24	0xbdfe1ed5	-0.124082245
25	0x3c2f8394	0.010712523
26	0x3db29243	0.087193035
27	0xbd4e1040	-0.050308466
28	0x3e4ad414	0.19807464
29	0x3c0d4373	0.008622038
30	0x3d3ccf9d	0.046096433
31	0x3cd30be9	0.025762515
32	0xbd1c974f	-0.038230237
33	0xbd4299b7	-0.047509875
34	0x3d94c8d3	0.07264867
35	0x3d4e9673	0.05043645
36	0xbbdaec11	-0.0066809733
37	0x3cabe71d	0.020984227
38	0x3d18572c	0.03719251
39	0xbcafb22e	-0.021447267
40	0x3d80b169	0.06283838
41	0x3e50e85f	0.20401143
42	0xbe3afe82	-0.1826115
43	0x3d5a2a47	0.053262975
44	0x3daec496	0.085335895
45	0x3e258cd0	0.16166997
46	0x3dbe799b	0.09300538
47	0x3dec1747	0.11527877
48	0xbdaa367a	-0.08311172
49	0xbcd61072	-0.026130889
50	0xbc8e8811	-0.017398866
51	0xbd9ff5f6	-0.07810585
52	0xbdc8d940	-0.09807062
53	0xbe317b42	-0.17332175
54	0x3d433fbe	0.04766821
55	0x3e0800cb	0.13281552
56	0xbd7f2f1e	-0.062300794
57	0x3e3b2aca	0.18278041
58	0xbe517799	-0.20455779
59	0x3cc6c717	0.024264855
60	0xbdc74494	-0.09729877
61	0xbdfc516f	-0.1232022
62	0xbe1c5081	-0.15265085
63	0xbdad2ba1	-0.08455587
64	0xbd44d021	-0.04805005
65	0xbd9c8177	-0.07641881
66	0xbd30c707	-0.043158557
67	0x3d0dc57b	0.03461216
68	0xbcd8d58f	-0.02646902
69	0x3dc1c1af	0.0946077
70	0xbd2f12fd	-0.042742718
71	0xbe476609	-0.19472517
72	0xbdc7683c	-0.09736678
73	0x3dffb82d	0.124863006
74	0xbcbe9879	-0.023266064
75	0xbdf64687	-0.12025171
76	0xbc65c189	-0.014023193
77	0xbbc497ec	-0.005999556
78	0x3cfe1eaf	0.03102049
79	0x3d72bf3a	0.0592644
80	0xbe107a1a	-0.14109078
81	0x3d8950b6	0.067048475
82	0xbd0e06b7	-0.034674373
83	0x3c72f279	0.014828318
84	0x3b95abaa	0.004567583
85	0x3d81a899	0.063309856
86	0x3df4aa46	0.119465396
87	0xbe01f5a3	-0.12691359
88	0xbdc32a9f	-0.09529614
89	0x3c98c9fc	0.018651001
90	0xbe51ef8b	-0.20501535
91	0xbda05092	-0.078278676
92	0xbd9605b9	-0.0732531
93	0x3c14406d	0.009048563
94	0x3d96baf5	0.07359878
95	0x3d434e62	0.047682174
96	0xbca7efe0	-0.020500124
97	0x3e57bb1f	0.21067475
98	0x3d517592	0.051137514
99	0x3d7ae332	0.061251827
100	0xbd455484	-0.048176304
101	0xbc4e9b89	-0.012610325
102	0xbcac7c21	-0.021055283
103	0x3d4a283f	0.049354788
104	0x3ab064bc	0.0013457756
105	0xbe3776ea	-0.17916456
106	0x3e2a0aca	0.16605678
107	0x3d645636	0.05574628
108	0xbc6acce7	-0.014331079
109	0x3e56e5e9	0.20986141
110	0x3d197295	0.03746279
111	0xbc14b78d	-0.009076965
112	0x3e17c227	0.14820157
113	0x3d012ae8	0.03153506
114	0xbd6b0896	-0.057381235
115	0x3d552ea6	0.05204644
116	0xbd5b7801	-0.05358124
117	0xbde3a228	-0.11114913
118	0xbcdb7759	-0.026790308
119	0x3d74ecc4	0.05979611
120	0xbd1de90c	-0.03855233
121	0xbcdcaa56	-0.026936691
122	0xbe469d0c	-0.19395846
123	0x3dc933a4	0.09824303
124	0xbd9f867b	-0.07789322
125	0x3d5861a7	0.052827504
126	0x3e2a0399	0.16602935
127	0x3e0ff3d1	0.14057852
128	0x3d547165	0.051865954
129	0xbdc0c372	-0.09412278
130	0xbc0cade6	-0.0085863825
131	0xbd52974d	-0.051413823
132	0x3d72e258	0.05929789
133	0xbcb5b0cb	-0.022179028
134	0xbd846007	-0.06463628
135	0xbe414ee4	-0.1887775
136	0xbddd9343	-0.108191036
137	0xbbe3081b	-0.0069284565
138	0x3d09eacd	0.03367119
139	0x3e268037	0.16259848
140	0x3d22bc46	0.039730333
141	0x3de7f45b	0.11325904
142	0xbdea2525	-0.11432866
143	0x3d45daf2	0.048304506
144	0xbd94a1dc	-0.07257435
145	0xbc92a6b1	-0.01790175
146	0xbde3cdf0	-0.11123264
147	0xbd82621c	-0.06366369
148	0xbde047b3	-0.109511755
149	0x3d3792b4	0.04481764
150	0xbdfc6f27	-0.12325888
151	0xbcb9a6de	-0.022662576
152	0x3d4f200e	0.05056768
153	0xbd816463	-0.06317975
154	0xbc5fcc2a	-0.013659516
155	0xbddd3507	-0.1080113
156	0x3debea64	0.11519316
157	0x3d8312d3	0.06400075
158	0x3da2ca40	0.079487324
159	0xbbc25f6e	-0.0059317863
160	0xbe1c1d84	-0.15245634
161	0x3b546fa5	0.0032415178
162	0x3dcbcdea	0.09951384
163	0xbc4e47a6	-0.0125903245
164	0x3da64f39	0.08120579
165	0xbd89296e	-0.06697355
166	0xbc9d1c60	-0.01917857
167	0xbdab390d	-0.08360491
168	0x3e8a0f6b	0.26964888
169	0x3e5b14f0	0.21394706
170	0x3dee68ad	0.11641059
171	0x3d1c8d44	0.03822066
172	0x3e04145c	0.12898391
173	0x3d9313be	0.071815
174	0x3dff2679	0.1245851
175	0xbe575305	-0.21027763
176	0xbcad078e	-0.021121766
177	0x3d9224ec	0.071359485
178	0xbc3a7878	-0.011381261
179	0xbd698faf	-0.057021793
180	0xbca6d5fe	-0.020365711
181	0xbe8a668f	-0.2703137
182	0x3e451fdf	0.19250439
183	0x3c9a5064	0.018837161
184	0xbe2b0eba	-0.16704836
185	0x3e676813	0.22598295
186	0xbe2ae937	-0.16690527
187	0x3c9ea5f8	0.01936625
188	0xbdc6a282	-0.09698965
189	0xbd9891ce	-0.07449685
190	0xbdacbe70	-0.084347606
191	0xbdce6b1f	-0.100790255
192	0x3d8c4dd7	0.06850784
193	0x3e3c8818	0.1841129
194	0x3dabba41	0.083851345
195	0x3d98ca10	0.07460415
196	0xbdb305a2	-0.08741309
197	0x3e182198	0.14856565
198	0xbd426fa5	-0.047469754
199	0xbd524d3f	-0.0513432
200	0x3dba1c1a	0.09087391
201	0x3e0edc41	0.13951208
202	0xbded9226	-0.11600141
203	0xbe22cd7e	-0.15898702
204	0x3bc6375c	0.00604908
205	0x3d030783	0.031989586
206	0xbd9ec55e	-0.077524886
207	0xbcd1a441	-0.025591018
208	0xbdf1a885	-0.11799721
209	0x3d2a3604	0.04155542
210	0x3d34417e	0.04400777
211	0xbdb8705d	-0.090058066
212	0xbbbedfcc	-0.0058250185
213	0x3cd95e94	0.026534356
214	0x3e8899a9	0.26679733
215	0xbd80c5ea	-0.06287749
216	0xbda88273	-0.08228006
217	0xbd11dfe0	-0.035613894
218	0x3c777f64	0.015106056
219	0x3d35c6be	0.04437899
220	0x3b0693d8	0.00205349
221	0xbd65d4a4	-0.056110993
222	0xbded3bb7	-0.11583655
223	0x3c9abace	0.018887904
224	0xbe102139	-0.14075173
225	0x3d9f3883	0.07774451
226	0x3e2ad619	0.16683234
227	0xbc9fd8fc	-0.019512646
228	0x3dab1ba9	0.08354885
229	0x3cc758b3	0.024334287
230	0x3d9400b9	0.072267
231	0x3e0e08ba	0.13870516
232	0xbc1d9cde	-0.00961992
233	0x3cbdd571	0.023173066
234	0x3ce2bba9	0.027677374
235	0x3e0a448f	0.13502716
236	0x3d7e0e95	0.062025625
237	0x3e844ca9	0.25839737
238	0xbd57e2a3	-0.052706372
239	0xbd3765bf	-0.044774767
240	0x3ce50af3	0.027959323
241	0x3e2bc1c1	0.1677313
242	0x3d5d4409	0.05401996
243	0x3e8c390b	0.2738727
244	0xbe89c7c4	-0.26910222
245	0xbe51f4a9	-0.20503487
246	0xbd4bf96e	-0.04979842
247	0x3bd27046	0.0064220754
248	0xbcf19375	-0.029489258
249	0x3e80b286	0.25136203
250	0xbda582b4	-0.0808157
251	0x3d07781b	0.033073526
252	0xbd2f74a4	-0.042835847
253	0x3d4b5319	0.049639795
254	0xbdd7dfeb	-0.10540756
255	0xbde4537c	-0.11148736

actor.bias f4 [5]
0	0x3ca168ac	0.019703232
1	0xba49f3b8	-0.00077038584
2	0xbd348fcc	-0.044082448
3	0xbd174ec8	-0.036940366
4	0xbc256d0d	-0.0100968005

critic.weight f4 [1, 128]
0	0xbdf70fb7	-0.12063544
1	0x3b066cae	0.0020511555
2	0x3d887405	0.06662754
3	0x3b29648a	0.002584728
4	0xbd22c6c0	-0.039740324
5	0x3e00a207	0.12561809
6	0xbdb00ed1	-0.08596576
7	0x3cbefabd	0.02331292
8	0xbc67cfc2	-0.014148654
9	0xbdb98717	-0.090589695
10	0xbd119c69	-0.035549555
11	0xbd963c17	-0.0733568
12	0xbd30ab1f	-0.043131944
13	0xbde4676e	-0.1115254
14	0xbbe89e39	-0.0070989397
15	0x3e343e01	0.17601778
16	0x3d396b03	0.04526807
17	0xbcb5c6da	-0.022189546
18	0x3d321132	0.04347343
19	0x3d57eb91	0.052714888
20	0xbc0f4cad	-0.008746308
21	0x3bea3d35	0.0071484097
22	0xbd81e46e	-0.06342398
23	0x3d56fb89	0.052485976
24	0xbdc287f7	-0.094985895
25	0x3cd93e40	0.02651894
26	0x3baa3740	0.0051945746
27	0x3da5bdf0	0.08092868
28	0x3d8c7dc8	0.06859928
29	0x3d032585	0.032018203
30	0xbab56294	-0.0013838583
31	0x3c9f04e3	0.01941151
32	0x3d95af72	0.07308854
33	0xbcf0f6e9	-0.029414611
34	0x3dd32e3d	0.103115536
35	0xbd661f07	-0.056181934
36	0xbc9430e7	-0.018089725
37	0x3d4b3aae	0.04961651
38	0x3d907e48	0.07055336
39	0x3d773e18	0.06036195
40	0xbc4da29e	-0.012550978
41	0x3e26f65c	0.16304916
42	0x3e20b7c7	0.15695105
43	0x3d78391f	0.06060135
44	0x3d9d791e	0.07689117
45	0xbd201f5f	-0.039092418
46	0x3d5d7d2d	0.054074455
47	0x3e1e3d0f	0.1545298
48	0x3ca980bf	0.020691274
49	0x3d8659e2	0.065601125
50	0x3d107d5f	0.035275813
51	0xbdea778d	-0.11448584
52	0x3d82c9d6	0.063861534
53	0x3dcd637b	0.1002874
54	0x3d2249a1	0.039621
55	0x3e0d2d91	0.13786913
56	0x3da4159a	0.08011933
57	0xbd1c36af	-0.038138088
58	0xbd235e2c	-0.03988473
59	0x3d05a152	0.03262455
60	0x3c7ff6ca	0.015622804
61	0x3db78e7d	0.08962724
62	0xbd32a332	-0.043612666
63	0xbd137da6	-0.0360085
64	0x3d31cf7d	0.043410767
65	0xbdc8b389	-0.097998686
66	0xbbfc531f	-0.0077003385
67	0xbc34f6b0	-0.011045143
68	0xbd38b544	-0.045094743
69	0x3dcf49f4	0.10121527
70	0x3dea1609	0.11429984
71	0x3b8589c1	0.0040752594
72	0x3e1beb97	0.15226589
73	0x3d7d74d1	0.061878983
74	0xbd236abc	-0.03989671
75	0x3dee5f15	0.11639229
76	0xbd8cb9a8	-0.068713486
77	0x3e770870	0.24124312
78	0xbe2fea1c	-0.1717915
79	0xbbc35543	-0.0059610917
80	0xbe199288	-0.14997303
81	0x3de5dc47	0.11223655
82	0x3e41c0f7	0.18921266
83	0xbd4a2b2a	-0.04935757
84	0xbaa91816	-0.0012900855
85	0xbc91c40e	-0.017793681
86	0xbe070a18	-0.13187444
87	0x3dfbbe33	0.12292137
88	0x3d14652b	0.036229294
89	0xbc00755b	-0.00784048
90	0x3babb8fd	0.005240558
91	0x3cfeb3b6	0.031091552
92	0x3c069a69	0.008215525
93	0xbd30ccba	-0.043163992
94	0x3e064750	0.13113141
95	0x3e0d5554	0.13802081
96	0x3d3cb811	0.046073977
97	0xbd7d6af7	-0.061869588
98	0x3d073008	0.03300479
99	0x3e232c93	0.15934972
100	0xbdf86003	-0.12127688
101	0xbdc23715	-0.09483162
102	0xbdac8aad	-0.08424888
103	0xbda969f0	-0.08272159
104	0xbdb92647	-0.09040504
105	0xbddcf18a	-0.107882574
106	0xbca4d92f	-0.020123092
107	0x3d468165	0.048463244
108	0x3d992640	0.07477999
109	0x3dc5698d	0.09639273
110	0x3ad52812	0.0016262552
111	0xbd8209d6	-0.06349532
112	0xbdbe1e88	-0.09283167
113	0x3c9f42be	0.019441005
114	0xbe1413c8	-0.14460671
115	0x3d670d43	0.05640913
116	0x3c5c2093	0.013435501
117	0x3e3b7369	0.18305744
118	0x3d3d1c95	0.046169836
119	0x3dcb123d	0.09915588
120	0xbbca7520	-0.006178513
121	0x3ddf4778	0.109023035
122	0xbd16e973	-0.03684373
123	0xbda87f5b	-0.08227416
124	0xbcdc10d8	-0.0268635
125	0xbd2c4e37	-0.04206678
126	0x3b611146	0.003434257
127	0x3e01422b	0.12622897
