Liu/test/v_4/train_iter_20400.pt (torch, 760647 bytes, 9 tensors)

h0 f4 [128]
00000000: df91 b2be 05b3 3cbf b949 0a3f cb51 483f
00000010: 8dfc 18be cbef 03bf 7fdc 8bbf abdb 2dc0
00000020: 3b5d a8be 30ff a5bf 3fb4 593f 7099 8f3f
00000030: 5ddb 183e 819e 713e b10e e7be 8a47 b4be
00000040: d712 16be e315 64bf cf02 a4bf 9cbc 3cbf
00000050: b81c 0c3c 8378 aabe 3ef7 aebf 2e34 b53e
00000060: 40be 9a3f 03b1 0b3f 1433 793f ad31 1b40
00000070: 1225 99be c912 eabf 5689 4bbf a7af 29c0
00000080: 2680 62bf 221d 2cbe 96ee cb3f 3b9f 853f
00000090: 5769 0abf 7074 f63f 8ea2 06bf ee8f 2a3d
000000a0: b1d1 2540 454e bb3f 9cf7 9e3f d650 06bf
000000b0: 3198 833d d354 1c40 65ad 52be b038 063e
000000c0: bdea a83e 756d 6cbf de92 7a3e a9c3 24c0
000000d0: 6ae8 f43f 4987 643f 003a ac3e 06dc f9bf
000000e0: 6ef6 e53f 28e5 ec3e f64c c4bd 69ac a3be
000000f0: 91e5 9bbf 7021 d03f b865 be3f f65b d2be
00000100: af5d 193f c743 3b3f fc4c 843f ea48 473e
00000110: 1212 15c0 1ff0 85bf 4e52 c4be 6e95 bc3f
00000120: fa09 bc3e f2c8 5cbf 401e f6be e468 5abf
00000130: 91db 043d 572c 8e3e 1d74 833f 5a47 2f3f
00000140: bf5a fc3d c9d8 e6bd 95ea 9f3e 87e7 10c0
00000150: 2a8b 9f3f 345d 73bf 7012 0940 c9f0 ca3f
00000160: eddb 333f 5db7 083f 2b2e 7abe 8451 303e
00000170: 158f 633f 7088 5abf fdfe 32bf f813 833e
00000180: 2c85 0c3f 7686 bdbf 64c3 863f 28e3 9abf
00000190: d9ee c43e 9730 233f 6a39 b9bd c707 ed3b
000001a0: c3db 63bf 2c4f 18be 531c 943b 08cd bbbf
000001b0: 837a 55bf 3747 033f 1fee 6f3e c6d4 ac3f
000001c0: d8a4 bfbe c881 1a40 abc9 d23e 7a88 9ebf
000001d0: 3c9a 91be 64ef 8e3f 872d b3be 15ad 23be
000001e0: ca23 993e ace3 af3e 61b3 b43f 0b5c c0be
000001f0: 82c3 a13f 5ac7 b33e 6105 2ebe cae4 453e
-0.34876916 -0.7371066 0.5401874 0.78249806 -0.1494009 -0.5153777 -1.0926665 -2.7165325
-0.3288363 -1.2968502 0.8504066 1.12187 0.1492743 0.2359562 -0.45128396 -0.3521083
-0.14655624 -0.89095896 -1.2813357 -0.73725295 0.008551769 -0.33295068 -1.3669202 0.35391372
1.208931 0.54566973 0.97343564 2.424907 -0.29911095 -1.8286983 -0.79506433 -2.651346
-0.8847679 -0.16807988 1.5932186 1.0439218 -0.54066986 1.9254284 -0.5259179 0.04164117
2.5909235 1.4633261 1.2419314 -0.52467096 0.064255126 2.4426773 -0.20573957 0.13107562
0.3299159 -0.9235452 0.24470088 -2.5744421 1.9133427 0.8926893 0.33638 -1.9520271
1.7965829 0.46268582 -0.09584992 -0.31967476 -1.2179433 1.6260204 1.4874792 -0.41085786
0.59908575 0.73150295 1.0335994 0.19461408 -2.329228 -1.0463904 -0.38344043 1.4733102
0.36726362 -0.8624412 -0.48069954 -0.853163 0.032435957 0.27768204 1.026981 0.6846825
0.12321996 -0.11271817 0.3123366 -2.2641313 1.2464345 -0.9506409 2.1417503 1.5854732
0.70257455 0.5340479 -0.24431674 0.17218596 0.888902 -0.8536444 -0.6992033 0.25601172
0.54890704 -1.4806659 1.0528378 -1.2100573 0.38463476 0.6374602 -0.09044154 0.007233593
-0.89007205 -0.14873952 0.004519978 -1.4671946 -0.83390063 0.5128054 0.2343068 1.3502433
-0.37430453 2.4141712 0.41169485 -1.2385399 -0.28437984 1.1166806 -0.34995672 -0.15983994
0.29910117 0.34353387 1.4117242 -0.37570223 1.2637789 0.3511303 -0.1699424 0.19325557

c0 f4 [128]
00000000: df8b 8d3e f952 18bf 8021 16bf 7399 9a3f
00000010: 7e88 843f c0b9 b73f 23e3 8c3e b870 fdbe
00000020: f1da 91be 28e7 213f 399c 9bbd 662b d0be
00000030: a5e1 8ebf 8496 8f3f c7d0 24be 9899 25bf
00000040: 4d82 a1bd 75be 8c3f 19c9 ba3f c879 c13d
00000050: 653e 3c3f 57bb 8f3f b01d 973f ec65 e0bf
00000060: fb80 a8bc b52e 0740 3794 cb3e 1f33 89bd
00000070: f1d0 a8bf 56f5 023f c923 9a3f 6b2d 14bf
00000080: b58e e83f 1a6a d23f ed2c 0bbe 427b 64bf
00000090: 7f75 c23e 22f3 e6bf dda0 9fbe 01c2 a93e
000000a0: 9cf0 a33e b01b 963f dd2f 8a3f abed 0e3f
000000b0: 3594 82be a105 ab3f 62c1 ef3d 2f42 afbf
000000c0: 876d 113f 9e2b 9ebe a613 013f 19cf e93f
000000d0: e41c fd3e 109e 1c40 5047 d2bf 8911 933f
000000e0: 6473 9f3f 350a 8abf 520c bc3f cf36 6abf
000000f0: baae ffbe bb6c 823e 13d6 b5bf 14dc 823d
00000100: 5c04 633f 6d5f a53f a53a 1ebf 4c58 a53e
00000110: 5122 febd 2f3c 303f 5e41 5d3f b427 953f
00000120: d7c2 8f3e e3cb 6e3b f81c 9e3f 7650 0fc0
00000130: aef4 c93e b180 9a3f 4ace 3bbf a1ba 263e
00000140: 9486 b7bf 0985 8f3f c7cc 853e 5ff7 aa3f
00000150: 1a3c 9fbf d8e5 f93e 5b4d 3e3e 5dd5 52bf
00000160: 2550 fd3f 58cc b4bf 3501 36bd 2f11 2ebf
00000170: 3af7 3a40 fc8c f13e e46c 753f a14e 403f
00000180: e210 dcbf d116 2d3f dc95 9b3e 4f40 c33f
00000190: 08ca 043f c290 0f3f b10a 9b3f e5bc 293f
000001a0: 974c 473e baa0 013f 656c 93bf 16f0 90bd
000001b0: 3121 b7bd 7c57 07c0 a1b9 2dbd 732a ab3f
000001c0: e1fc c33f 25d8 b0be 2028 f7bf cacf 95bf
000001d0: f1d2 b2bf 202e 8d3e 235f 8dbf 1723 94bf
000001e0: 0417 39bf d2ef c3be 92f4 2bbf b4b8 9abf
000001f0: 077b 8a3f 6409 c33f 9202 3abf 5c09 143f
0.27645776 -0.59501606 -0.58644867 1.2078079 1.0354154 1.4353561 0.27517042 -0.4950006
-0.28487352 0.6324334 -0.075981565 -0.4065811 -1.1162611 1.1217809 -0.16095267 -0.6468749
-0.07886181 1.0995623 1.459262 0.09447056 0.73532706 1.1229047 1.1805935 -1.7531104
-0.020569315 2.1122258 0.39761516 -0.06699204 -1.3188764 0.511556 1.2042171 -0.578818
1.8168551 1.643863 -0.13591357 -0.89250576 0.37980267 -1.8042948 -0.31177416 0.33155826
0.32019508 1.17272 1.0795857 0.558314 -0.25503698 1.3361093 0.11706807 -1.3692073
0.5680775 -0.30892652 0.50420606 1.8266326 0.49436104 2.4471474 -1.6428013 1.1489726
1.245709 -1.0784365 1.469126 -0.9148988 -0.49937993 0.2547358 -1.4205955 0.06389633
0.88678527 1.2919747 -0.61808234 0.32293928 -0.12408889 0.6884183 0.8642787 1.1652741
0.28078339 0.0036437444 1.235259 -2.239286 0.39444488 1.2070524 -0.7336165 0.16282131
-1.4337945 1.1212474 0.26132795 1.3356742 -1.2440217 0.4880817 0.18584196 -0.82356817
1.9790083 -1.4124861 -0.044434745 -0.6799497 2.9213395 0.47177875 0.9586928 0.7511998
-1.7192652 0.6761294 0.3038777 1.5254 0.51870775 0.5608026 1.2112638 0.66303855
0.1946281 0.50635874 -1.1517454 -0.07077043 -0.08941878 -2.1147146 -0.042413358 1.337233
1.5311548 -0.34539905 -1.930912 -1.1704037 -1.3970624 0.27574253 -1.1044658 -1.1573209
-0.72300744 -0.38268906 -0.6717006 -1.2087617 1.0818795 1.5237241 -0.7266017 0.5782678

RNN.weight_ih_l0 f4 [512, 15]
00000000: d53d c53e 7cb6 7a3e b966 4dbd 3516 2f3d
00000010: 1ea8 f83d 5dba d73d a947 7b3e 55f2 2a3e
00000020: 3e4a ab3c 7ab5 bb3d 1f2a d7bb f7a0 273e
00000030: c517 ddbd 3936 8cbc bcb5 933e a498 183d
00000040: 1dae 793d cd54 033e 0ce8 efbb d86d 3b3c
00000050: 38c4 933d 7fce 063e c5bd 003d 2c50 403e
00000060: 8398 7dbb 3a26 183d 5d7c d1bc 344b 83bd
00000070: 5cec 733e 9deb d13d e18e e13e dae9 7d3e
00000080: e96f 3ebc 95af ae3d f9f1 653e 423a 9c3d
00000090: 853a 6c3e 2800 293e fdb4 ba3d bcf0 6d3d
000000a0: 1a94 a53d 2cd1 4e3e 4da4 0e3d e13b 9a3d
000000b0: cd5e 493e d2c1 103e 9cd5 ffbc 2357 133e
000000c0: 1834 8ebd 2250 373e 39c0 b73c df63 153e
000000d0: dd35 a03d 7d5c aa3d 0154 32bd 4c4c 0bbd
000000e0: 2738 cd3d 3c44 143d cdbd 883d 6d7f 113d
000000f0: 3175 843d 48f4 f0bf 28de 4d3f 7a9b bc3a
00000100: 9036 553e 80c0 a23e 30cd 2bbd fc08 853e
00000110: 62e7 513e bad8 4c3f 1ec9 203c 9a29 643e
00000120: a983 8b3d b7d4 273e d2a4 873d dd50 323e
00000130: c525 323d 322e 993d 6c10 85bd a75b 933d
00000140: c449 04bc 5ecc d73d 3188 d23d 1b34 183e
00000150: c660 bb3d 6426 4fbc 0204 8c3b 0268 5abd
00000160: 0326 9a3c a93b f83d 1e17 ec3e 2445 40be
00000170: d9f9 0c3e 0fdb 8e3d 627c 163e a051 40bc
00000180: 05f1 9c3e 3f7c 8b3d 5d11 393d b499 f83d
00000190: 04d5 1cbd 0df3 e73d 6b2a 883d 1513 1c3e
000001a0: b280 673e 34b4 563e 3b3c 0f3c a8b2 153d
000001b0: bb5c 03bc 2b77 14bd 5d50 fe3e 5318 af3e
000001c0: 9f26 64bc 8acd 223d 85c5 b13d 65a7 443e
000001d0: c220 cbbb eb7b a93d b78d 633b e448 543e
000001e0: 095b 6b3d e8d5 2abf 5151 eb3d acc6 883d
000001f0: 9f79 79be ad73 b73c e5dc 1c3e b701 89be
00000200: 20b4 d13d 398c 0f3e 8c40 18be 3f1d 53be
00000210: 83cc 6a3d cc49 2a3c 6b70 703e 43a9 c5ba
00000220: 6a87 3e3f bb1d 74be d609 88bd bf5a 23bd
00000230: c5db b9be 5555 803d 4a6f 12bd dc96 003d
00000240: df89 a9be 91a7 10bc 6a88 61bd 9bca cc3d
00000250: 0f3e 183d ef6c 833c 6ecd 893d 2ff3 49bd
00000260: 84ab 533e 1bfd 45bd 4047 5d3e 8fd0 993e
00000270: 6134 723d 608d 573e 2168 373e 13a6 e83d
00000280: 78bb 2abd 6b2d 703e 27d1 1b3d 7112 b53d
00000290: 35b1 dfbd e022 87bc c64d 9b3d 9c51 0d3e
000002a0: 4877 7c3d 5489 0d3e aa51 5b3f 4552 95bd
000002b0: 28a4 3e3e f70d 883d 08b8 793f b3ba f93c
000002c0: ec0a 473e 2573 703e a8d4 b73d ede6 a2bb
000002d0: 7c53 e33c ab37 bb3d 29fc 3a3e b89b 7cbd
000002e0: be87 173e 4930 a53b d9a3 bcbc 209a 243e
000002f0: 59be 4a3e ca13 d1be 6ae9 cc3c 54fd 1f3e
00000300: 561a fa39 8b23 783e 9c28 323b b2b5 1d3e
00000310: 9b7c 63be c49a 813e 356d 70bd 0f4d 863e
00000320: b077 8c3e 2f9d b23d 394e fb3d cdb3 763e
00000330: be1a c13e 5e3d 4ebd 461a 743e 16bb 4cbd
00000340: 44a9 1c3e d2b4 533d a17a 80bc 154d ed3d
00000350: 3ace 443e 771c 2abd 5b22 333e 476e c0bc
00000360: dd48 c7bd ec46 813d f1aa 363d b16e e1bc
00000370: a602 79bb 3d3c e23d de76 a3bc da1b 153e
00000380: a3bc aabd 2f79 1d3e 8a9d 883d d2aa 193e
00000390: 8d67 21bd 800e 7b3d eb55 b13e 51ac 223e
000003a0: dc5b e03d 7b86 ae3d 600c 783d 7394 8ebd
000003b0: 4c72 063e a3c5 d33d b6a8 443e 233b 243e
000003c0: a6cb 573d 5b60 533f 4ae6 20be 9ae2 ae3d
000003d0: dbb0 0b3d e523 973e 3615 41bc 6bf3 ed3c
000003e0: 5b3c 7b3e 085b c93c 99bf e1bc 4277 afbd
000003f0: 9f94 dd3d 8f85 5f3e 2035 3bb9 34af 483e
0.38523737 0.24483675 -0.050146792 0.042745788 0.12141441 0.10533593 0.24539055 0.16694005
0.020909425 0.09165473 -0.0065663005 0.16369997 -0.10795549 -0.0171157 0.2884959 0.037254944
0.060957063 0.12825318 -0.0073213633 0.011439763 0.0721516 0.1316471 0.03143098 0.18780583
-0.003869564 0.03714583 -0.025571996 -0.06410828 0.23820633 0.10250018 0.4405432 0.24796239
-0.011623361 0.08529583 0.22455586 0.07628299 0.23069198 0.16503966 0.09116552 0.05809091
0.08084889 0.2019698 0.03482466 0.07530952 0.1966507 0.14136437 -0.031229787 0.14388709
-0.0694353 0.17901662 0.022430526 0.14588879 0.078227736 0.08318422 -0.043537144 -0.03400831
0.10020476 0.036197886 0.066768266 0.035521913 0.06467665 -1.8824549 0.8041711 0.0014389597
0.20821595 0.3178749 -0.04194373 0.25983417 0.20498422 0.800182 0.009813575 0.22281495
0.068122216 0.16389738 0.06623234 0.1741366 0.04349305 0.07479514 -0.06497273 0.07195216
-0.008074228 0.10537027 0.10279883 0.14863627 0.091493174 -0.01264343 0.0042729387 -0.053321846
0.018816954 0.12120754 0.46111387 -0.18776375 0.13767184 0.06975376 0.14695886 -0.011738211
0.30652633 0.068108074 0.045182575 0.121386915 -0.038289085 0.11325655 0.066487156 0.15241654
0.22607687 0.2096718 0.008742387 0.036547333 -0.008017714 -0.03624646 0.49670687 0.34198245
-0.013925224 0.0397468 0.08680252 0.19204481 -0.0061989734 0.082755886 0.003472192 0.2073093
0.057459865 -0.66732645 0.11490119 0.06678519 -0.24362801 0.022394026 0.1531864 -0.2675912
0.10239434 0.14018334 -0.14868373 -0.20616625 0.057323944 0.010393571 0.23480384 -0.0015080351
0.74425375 -0.23839466 -0.06642501 -0.039881464 -0.36300483 0.06266276 -0.035750665 0.03139387
-0.33113 -0.008829013 -0.055061735 0.099995814 0.03716856 0.016043155 0.06728636 -0.049304184
0.20670897 -0.048337083 0.21609211 0.3004193 0.059131984 0.21050024 0.17910816 0.11359801
-0.04168269 0.23454826 0.03804126 0.08841408 -0.109224714 -0.016496122 0.075831935 0.13800663
0.061637193 0.13821918 0.85671484 -0.07291082 0.18617308 0.066432886 0.97546434 0.030484533
0.1943776 0.23481424 0.08976108 -0.004971376 0.02774977 0.09141477 0.18260254 -0.061671942
0.14797875 0.0050411564 -0.023027347 0.16074419 0.19799174 -0.4083541 0.025013644 0.15623981
0.00047703338 0.24232309 0.002718485 0.15401343 -0.22215502 0.2531339 -0.058697898 0.26230666
0.27435064 0.08721387 0.12270779 0.24092026 0.37715715 -0.050351493 0.23838148 -0.049983107
0.15298945 0.051686116 -0.015683474 0.11586968 0.19219294 -0.041531052 0.17493574 -0.023490084
-0.097306944 0.063123554 0.044596616 -0.027518602 -0.0037995963 0.11046646 -0.019954141 0.14561406
-0.08336761 0.15378259 0.06670673 0.15006569 -0.039405394 0.061293125 0.34635863 0.15886046
0.10955021 0.08521744 0.060558677 -0.06961908 0.13129538 0.103404306 0.19204983 0.16038184
0.05268445 0.825689 -0.15712848 0.085393146 0.03410421 0.29519573 -0.011784842 0.029046735
0.24534743 0.02457954 -0.027557181 -0.085676685 0.10819363 0.21828292 -0.000178535 0.19598085

RNN.weight_hh_l0 f4 [512, 128]
00000000: 99aa d83d e8c8 ba3e dee9 8f3e b811 823e
00000010: 3e84 c33d dd59 893e 9dc7 423d 0cad a4bd
00000020: 3cc3 2ebe c8bb c53d bcf3 7a3c adc9 323e
00000030: 009e b9be 0c84 5b3d 16df 4dbe 3610 1bbe
00000040: 724d fbbd 0944 4ebe 376a 203e c521 233d
00000050: fa2e 963e f3fc de3d 886a a13c 8e9c 21be
00000060: f9c5 8cbe 7b61 2a3e dda6 6c3e a52e b93c
00000070: 2ea3 23be ebb6 9fbe 8507 ac3e 2f42 f43c
00000080: e66b 62be 2b3e 803d 77ea a9bc 11d0 60bd
00000090: 450d 8cbe c215 e2bc fa8f 3a3e a346 9c3e
000000a0: 081e 783e fbac 9bbd 6743 523e 2e99 58be
000000b0: 3902 6d3c dfb2 1c3e 5642 a8be c9dd 87be
000000c0: a91c 1dbd 899b fe3d 65bf 383e e98e b6bd
000000d0: 26e1 673e c353 9d3e 8849 ac3d e639 c1bd
000000e0: 77a9 a9bd df83 27be 54b2 1dbd 41d0 8abe
000000f0: 96d4 84be b355 6d3e 6b48 fcbb b8e2 6cbe
00000100: 723b 47be 33a9 98be 2111 eebd 6f56 123e
00000110: c913 11bd 8739 82be 1711 7fbe 7a30 6d3e
00000120: 3805 883e 1e98 e3bd 7261 043e 5406 21be
00000130: 675f 263e 6091 213d 1126 8d3e 6c83 e9bd
00000140: fcd5 1abe 64e0 19be 6a9a 823e 51e0 883d
00000150: 480c f6bd 09b9 5abe d458 a73e d277 8f3e
00000160: 99b0 2bbe 473d 08be d15a 37bd dabd 9abe
00000170: d486 ca3c 1110 043e 661c 51be cb1b 21bd
00000180: f509 8cbe ca73 61bd 1369 25be c36b 0ebe
00000190: ca1c 39be ac6e 423e 9fa0 2dbd a6ca 41be
000001a0: 1f00 de3d 86d6 24be 9f39 393d eb89 abbe
000001b0: 4513 50be 57e6 8fbd fb87 36be a433 c9bb
000001c0: 59cc bf3c b6d8 0f3e 2d39 dabd dd69 17be
000001d0: 1ed0 4d3e 2bcb 0f3e e644 663d 5392 be3d
000001e0: 3ed0 c5bd 522c da3d ba54 803e b023 573e
000001f0: 2d1c 813d 6a42 583e 312b 1e3e de01 8abd
00000200: 2cfa 8a3c 141f 81bd fb4c 3c3b c0d7 9a3d
00000210: c14f dfbd 5d8a df3d 8908 ebbd fb0d 33be
00000220: 63d3 01bd e773 52bd 13f6 893d 7134 3c3c
00000230: ac94 18be 209e 1a3e 1c1c 46bd dc6f 6ebe
00000240: 0bb9 e3bd e2fa 34be 5241 27bc 1209 30be
00000250: 0f5c 123e 8be7 0a3e 3a6f b3bd 2747 3ebe
00000260: 6bb6 763d 259b a63d ac79 973d 8e6c 87bc
00000270: 0178 49be 63e9 bbbd 2070 973d 96c5 abbd
00000280: 2485 c5bd d6c6 fa3d 719a 963d 47ab 133d
00000290: c809 04be ef43 f7bc 06da 713d 067b 1b3c
000002a0: 43ce c93d c9d5 5b3d 3f82 713e 80d6 d8bd
000002b0: fb0c e33d 6daf 913e 6f13 aabd 2e74 26be
000002c0: 7bad 0e3e fa8f 183d 721d 423e b5d7 84be
000002d0: ed70 013e 6f0e 2e3e 8327 673d 14bb b7bd
000002e0: f4a6 133d 7f71 26be bcf0 8b3b d2d7 f8bd
000002f0: ab32 e8bd 107a 063e 7a06 c2bd 3ca1 62be
00000300: a8be 1d3c cb02 0b3d 0e11 47be 2da5 f03d
00000310: f11a edbd a6ef 40be c4f1 ebbd 8300 633e
00000320: f76e d63d 53a1 20be 5bcc 8c3d 3f4f 6bbe
00000330: 6e67 fa3d ba3a 263e 8d40 0a3e 202f 1dbb
00000340: 4d38 d0bd 7f3d eebd 98d3 e93c dc5a 3abc
00000350: 3b25 d1bc f5ca 42be f936 943e 7974 133e
00000360: 1daa 733d 6f14 0c3d b87a 523d 37f5 40be
00000370: b9d4 e0bc 31b3 ea3d 17dc 83be 19cd 89bd
00000380: 916a 3abe bdc2 043d da28 90bd 4afc 3dbe
00000390: 0263 4cbe 3c1d 363e 5fb4 893c e8e0 05bd
000003a0: 0885 edbc 47b4 02be 0f55 6e3d 89ec 2abe
000003b0: 6598 46be d738 003e a32f babd 8f1a 1a3e
000003c0: b7c9 e53b 9230 3c3e 2a8d a1bd a9f9 2cbe
000003d0: 62bf b5bd 4b89 273e 4c90 163e 0430 103e
000003e0: 1141 9dbd bf88 8f3c 6eed 3e3e 2196 663d
000003f0: 4749 103e 445f bf3d 414e 0e3e 62b5 16bd
0.10579414 0.36481404 0.28108114 0.25404143 0.095467076 0.26826373 0.047553647 -0.080408186
-0.17066664 0.09654957 0.0153169 0.17459746 -0.36253357 0.053592727 -0.20104632 -0.15142903
-0.12270631 -0.20143141 0.15665518 0.039827127 0.29332715 0.1088809 0.019704118 -0.15782377
-0.2749479 0.16638748 0.23110528 0.02260525 -0.15980217 -0.31194243 0.33599487 0.029816715
-0.22111472 0.062618576 -0.020741684 -0.054885928 -0.27353874 -0.027598266 0.18218985 0.30522642
0.24230206 -0.07601353 0.20533524 -0.21152183 0.014465862 0.15302609 -0.3286311 -0.26536396
-0.03835741 0.1243201 0.18041761 -0.08913977 0.22644481 0.30727968 0.084124625 -0.094348714
-0.08284276 -0.16358899 -0.038500145 -0.2711201 -0.2594344 0.23177223 -0.0076990626 -0.23133361
-0.1945627 -0.2981659 -0.11624361 0.14290784 -0.03541926 -0.25434515 -0.24908863 0.23163024
0.26566482 -0.111129984 0.12927797 -0.1572507 0.1624733 0.03944528 0.27568105 -0.1140202
-0.15120691 -0.15027004 0.25508434 0.0668341 -0.12014061 -0.21359648 0.32684958 0.28021103
-0.16766585 -0.13304625 -0.044764344 -0.3022297 0.024722494 0.12896754 -0.2042099 -0.039333146
-0.27351347 -0.055042066 -0.16153364 -0.13908295 -0.18077388 0.1898753 -0.04238951 -0.1892496
0.10839867 -0.16097459 0.045220967 -0.3350366 -0.2031985 -0.07026356 -0.1782531 -0.0061401892
0.02341287 0.14047512 -0.10655437 -0.14786477 0.20098922 0.14042346 0.05621805 0.09305253
-0.0965886 0.10652985 0.2506464 0.21009707 0.06304202 0.21119085 0.15446164 -0.067386374
0.016964994 -0.06304756 0.0028732407 0.07560682 -0.10903884 0.109150626 -0.11476237 -0.17485802
-0.031695735 -0.051380064 0.06736388 0.011487112 -0.14900464 0.15099382 -0.04836665 -0.23284858
-0.111192785 -0.17673829 -0.010208445 -0.1719096 0.1429293 0.13564889 -0.08761449 -0.1858183
0.06023256 0.0813506 0.07396254 -0.016531255 -0.19674684 -0.09175374 0.07394433 -0.08387296
-0.09644535 0.12244956 0.07353676 0.036052015 -0.12894356 -0.03018376 0.059045814 0.00948978
0.098537944 0.05367068 0.23584841 -0.10587788 0.1108646 0.28454152 -0.08304488 -0.16255257
0.13933365 0.03724668 0.18956545 -0.2594582 0.12640734 0.16997693 0.056434166 -0.08971229
0.03604789 -0.16254233 0.004270641 -0.121505395 -0.11337789 0.131325 -0.094738916 -0.22131819
0.0096279755 0.03393821 -0.194401 0.11750255 -0.11577404 -0.18841419 -0.115207225 0.22168164
0.104703836 -0.1568654 0.06874915 -0.22979449 0.12226759 0.1623334 0.13501187 -0.0023984388
-0.101669885 -0.11632823 0.028543279 -0.011374202 -0.025530448 -0.19022734 0.2894819 0.143999
0.059488405 0.034199174 0.051386565 -0.18843542 -0.027445184 0.11459959 -0.25753853 -0.067285724
-0.18204714 0.03241228 -0.07039042 -0.18553272 -0.19959643 0.1778459 0.01680964 -0.03268519
-0.028994098 -0.12764083 0.058186587 -0.16691794 -0.19394071 0.12521683 -0.09091117 0.15049194
0.0070125717 0.18377903 -0.07888253 -0.16892113 -0.08874394 0.16360967 0.14703482 0.14080817
-0.07678426 0.01752126 0.1864526 0.056295518 0.14090453 0.09344342 0.13897039 -0.036794074

RNN.bias_ih_l0 f4 [512]
00000000: 1b9f a83e 64cd 463e e9b6 993e cf88 1f3e
00000010: 666a 833c 7beb fe3d 7f59 8f3e aee7 353e
00000020: a40c 043e b8c2 b53c 319e 493d d7e7 0e3e
00000030: cd18 ca3d aabf 623e ce29 1b3e 8ca0 e93d
00000040: d235 ca3d 3df1 f13d 4816 2f3e 281a 903c
00000050: 7b4c 583e ec0d f13d 92d7 2ebd 19a8 613d
00000060: b74d 713e 187a 04be 3e0f 423e 421b 963e
00000070: 91d5 583d dada 353e 3d51 bc3d 0d6f 843e
00000080: 9389 5c3e eea4 8d3e fe0f 8c3e 28f3 373e
00000090: b851 e23c 064e 223e a50a c93d 5310 e7bd
000000a0: d962 9c3e 8c59 273e 4986 b13d 16a1 e03d
000000b0: 17ce 5ebd e61d 5a3d 30ff 043e f227 983d
000000c0: d08f 333e 975d 353e 7f21 013e a923 a63e
000000d0: bf41 ebbc a6c9 2a3e 895b 733e 5979 363e
000000e0: 113e b03d 9309 093e 3d9d b0bd 3cca 173e
000000f0: 21b6 75bc 5638 7b3e c83b 953e f060 0f3e
00000100: 4ed5 2e3e 6f08 e33d 666e ce3d 6928 a1bd
00000110: 8e41 ba3d 9174 623e 0181 a3bd 462b 473e
00000120: b508 093e 51bb 6f3e 08b3 af3d 84ec 373e
00000130: e174 453e 64a9 17be 14ff c33d b5e6 a63d
00000140: 4859 4b3e e7d9 ed3d dbc7 163e eb7b 3c3e
00000150: af7d 9f3e 0249 883d 3bf6 a03e d73c 6c3e
00000160: 1573 143e adf0 b73e 7cc9 9f3e 7316 5c3e
00000170: 63d1 9b3e 6f12 6b3d b3ba ef3d ee64 c93d
00000180: 235e 3c3e a4b1 b63e 8b1d 823e b89c 81bd
00000190: d469 223e 8cc9 9b3e c1d4 d33e 6b2c 323d
000001a0: 4e2d 623e 1254 403e a5c5 a3bd f3c4 073e
000001b0: e2d2 4b3e 18d8 543e f60b 4b3e 4904 13bd
000001c0: 5435 423d f29b 1d3e 2636 343d 3a6d a03e
000001d0: a2ec 013e d3c2 20be 1708 693d 43d9 cc3d
000001e0: c921 593e abeb 243e 63df c73d 371d 2f3e
000001f0: 739f eb3d d262 573e e0e4 c53c ff4a 323e
00000200: 2ceb 3e3d f6ce a33c 7577 18be b5d3 d33d
00000210: b07c febb c1fe f73d 8789 b9bd a8bc d2bd
00000220: 20b4 5bbe 09eb 553d 57aa 123e f087 11bc
00000230: 4ef1 0f3e 35f4 b4bc cbe5 2dbd 442b 533e
00000240: 8aa2 8dbd 056d d53d 4bfb 063e 3709 a6bd
00000250: 2476 0b3e 91d8 0b3e cff4 f33c 7331 223e
00000260: 951b 4b3e 6770 9c3d 4e41 c23d bb20 0cbd
00000270: 34b6 a93c 6033 763c b5f6 483e 4d62 dc3d
00000280: 79b8 b73d e16d e33c fa73 9abd af79 07bd
00000290: c869 003e 17d3 113e 221c eb3d a313 e83e
000002a0: 4081 bebd aac5 103e 01f0 013e 0d55 a7bd
000002b0: 58dd b33d 754e 023e fd84 343e 6817 4f3e
000002c0: 4d95 0bbc cb18 3a3e 2fef bd3d 8534 72be
000002d0: 3f5b bd3d e9f3 ab3d a8c7 123e 611d 1e3d
000002e0: e096 a33d 198f 4f3e c895 3abd c550 ef3d
000002f0: 849d fb3d 2277 9cbe e761 983c fd94 05be
00000300: 8d09 fb3d 215f 1b3e e062 b73d 3f35 063c
00000310: 12c1 803d 54d2 c93c bc91 193e fc3e f93d
00000320: 7d9e 1b3e e9d3 6abe 27b0 9e3d 7dd8 9f3d
00000330: 2f85 e2bd e1ed ab3d 4724 d2bd e123 7a3d
00000340: 2408 813e 9883 803d 8036 083e c2d4 30be
00000350: d055 56be c46c 3abe 5b78 b5bd 4ece 083e
00000360: ea81 d73c aff8 893d 05e8 68bd ff58 0e3e
00000370: a1bb 5abe fd24 e43d 74a3 8b3d cc33 3b3e
00000380: 79c0 213e 7516 84bd 5fd2 c03c 5222 263e
00000390: 9d0d 983d d070 233d 0d60 983c 4ff1 fabd
000003a0: 4b54 543e c8c1 a5bd 6398 403c 95da 2a3e
000003b0: fc03 813e 033a 98bd 2b8b 993d 5c16 1ebe
000003c0: 3154 a93b 390f 903d 2551 ec3d 3399 0bbe
000003d0: e62f 813d 84ff 7dbd 7ae1 13be 88a3 40be
000003e0: f06b 2b3e aea4 b73a b621 da3c ac5c ef3d
000003f0: 3558 92bd 5674 e33d bcda a83d 6a86 a3bd
0.32933888 0.19414288 0.30022362 0.15579532 0.016041946 0.12447258 0.27997968 0.1776416
0.12895447 0.022187576 0.04922313 0.13955627 0.098680116 0.22143427 0.15152666 0.11407575
0.09873547 0.11813591 0.17098343 0.017590597 0.21122925 0.117702335 -0.042686053 0.05509195
0.23564802 -0.129372 0.18951127 0.2931767 0.052938048 0.17759266 0.091951825 0.25865975
0.21536855 0.27664894 0.2735595 0.1796385 0.027626857 0.15850076 0.098164834 -0.112824105
0.30544165 0.16342753 0.08668191 0.10968225 -0.05439576 0.05325117 0.12987971 0.07429494
0.17535329 0.17711483 0.12610434 0.32449082 -0.028717874 0.16678485 0.23765387 0.17819728
0.08605588 0.13382559 -0.08623741 0.1482324 -0.014997036 0.24533209 0.29147172 0.14001822
0.17073557 0.11085593 0.100796506 -0.07869036 0.09094535 0.22114779 -0.0798359 0.19450101
0.13382228 0.234113 0.085790694 0.17961317 0.19282867 -0.14810711 0.09570137 0.081494726
0.19858277 0.11613827 0.14724676 0.18406646 0.31150576 0.0665455 0.3143786 0.23070084
0.14497025 0.3592581 0.31208408 0.21492939 0.30433187 0.057390627 0.11705532 0.09833704
0.18395285 0.35682404 0.25413164 -0.0632872 0.15860683 0.30427206 0.41373256 0.04349939
0.22087595 0.1878207 -0.07996682 0.13258724 0.19904664 0.20785558 0.19828781 -0.03589276
0.04741414 0.1539152 0.043996952 0.31333333 0.12687925 -0.1569932 0.05689248 0.10002377
0.21204294 0.16105525 0.097594045 0.17100988 0.11505022 0.2103379 0.024156988 0.17411421
0.046610996 0.019996148 -0.14889319 0.10343114 -0.0077663288 0.12109137 -0.090594344 -0.102898896
-0.21455431 0.0522261 0.14322792 -0.008882508 0.14056894 -0.022089103 -0.042455476 0.20621973
-0.069157675 0.104211845 0.13181798 -0.08107226 0.13619286 0.13656832 0.02977982 0.15839176
0.1983474 0.076386265 0.09485112 -0.0342109 0.020716764 0.015026897 0.19625361 0.10760937
0.08970732 0.027762355 -0.07541652 -0.03307503 0.12540352 0.1424068 0.11479975 0.45327482
-0.09301996 0.14137903 0.1268921 -0.08170519 0.08782452 0.12725241 0.17628856 0.20223773
-0.008519483 0.1817352 0.09274136 -0.23652847 0.092459194 0.083961315 0.14333975 0.038602237
0.079877615 0.20269431 -0.045553 0.116853274 0.12285903 -0.3055964 0.018601371 -0.13045116
0.12257681 0.15173008 0.08954406 0.008191406 0.06286825 0.024636425 0.14997 0.121702164
0.15197177 -0.229324 0.07748442 0.07804964 -0.11060559 0.08394981 -0.102608256 0.061069373
0.25201523 0.062750995 0.1330204 -0.1726866 -0.20931172 -0.18205553 -0.088608466 0.13359949
0.026307065 0.06736886 -0.056861896 0.13901137 -0.21360637 0.111398675 0.068182856 0.18281478
0.15796079 -0.06449596 0.023537813 0.1622403 0.074244715 0.03990251 0.018600488 -0.12253057
0.2073528 -0.080936015 0.011755082 0.16684945 0.25198352 -0.0743294 0.07497247 -0.15438217
0.005167507 0.070341535 0.115389146 -0.1363266 0.06307964 -0.062011257 -0.14441481 -0.18812382
0.16740394 0.001401087 0.026627403 0.11687598 -0.071457304 0.11106174 0.08244845 -0.07984622

RNN.bias_hh_l0 f4 [512]
00000000: 1a32 763e eb9e 3c3e 6a94 7a3e b624 203e
00000010: ea73 063e 05cc 3b3e 95ca b83e ed34 933e
00000020: 25ee a63d 473e d0bd a8e2 4d3d f274 75bc
00000030: f5bd b23d 9f4c 1b3e e541 283e aac0 403e
00000040: 7794 3d3d 433b be3d f30d 353e 5ca5 9b3d
00000050: 621b a83d d613 313e 2427 4bbe 927d 663d
00000060: 75e8 353e fb40 4cbe 54e0 293e 2b69 433e
00000070: 00d9 dd3d e86b 5e3e ac10 3d3e e77d 013e
00000080: 0b4a 0b3e 97d4 903e 248e 443e ad6d 363e
00000090: 42c4 8a3d ebe9 393e 2ee5 423e 507d cfbb
000000a0: ca8a 6c3e 047e 0a3e 3898 743e 8379 433b
000000b0: 9880 8c3d 6097 383e 4692 773e 564d e03d
000000c0: 6cb7 843e 5acd 433e ace2 e63d f287 d53e
000000d0: f48e 08bd 9e0b 683d 8ce1 2d3e 9a9c ee3d
000000e0: 2d11 673e d406 da3d ab1f 8dbd 5f7e 233e
000000f0: 67fa 063e 641a 953e cdc5 923e 2207 4f3d
00000100: 0a1e 8d3e ca4c 6c3e c852 343e b8c2 03be
00000110: d302 393e 0e58 763e 8c22 6abe f270 c63d
00000120: c3e5 803e ea8e 813e 8602 cd3d 9ac3 303e
00000130: 5c1a 663e be6f 36be 98d4 093e 659b a93d
00000140: 3b45 2b3d dba0 113e 1ba0 183e 39fa a33e
00000150: 5034 ed3e 3404 103d 5855 c93e 8a27 423e
00000160: 5c7b af3d cca5 ce3e c748 c43e d1f1 803e
00000170: 2935 903e ac4b 243e f9d2 633e 8e05 173e
00000180: 06f4 1c3e 25ef 9f3e fb30 183e 79f9 98bc
00000190: 0c32 353e 620d e83e 2189 d53e 553b e63d
000001a0: 0481 5e3e 3f4d a23e 9057 9cbc 3295 143e
000001b0: bc61 053e f523 8b3e c26a 633e dfad d03c
000001c0: 0bca 043e d402 463e 982d 473e 10ec 3a3e
000001d0: 35bf 813e aa38 89bd 6d49 563d 5854 733e
000001e0: 1422 603e b8c5 063e ca6f ffbc 762e 083e
000001f0: 2539 5f3e 74ad 453e 8e87 973d b53e 933d
00000200: 2dc0 ad3d 00b9 f03d b102 0dbe f4b2 783e
00000210: 7e1f 5c3d 7d1e 1d3e 15b9 67bd 8a6a 88bd
00000220: 093d 5bbe 9b0c 533d 5538 1b3e 100a 30be
00000230: aa85 583e e9be 8f3c bb6c a93a 99a9 3d3e
00000240: 21d8 e53c 9cb5 2a3e 39a2 5c3e a33b adbd
00000250: e159 f23d ad3a 243e fe24 a5bd cd71 f93d
00000260: 6c9e a33d d61e 863d fc14 733e b076 05bd
00000270: 0cb0 f6bb a307 5dbb ed87 3e3e c876 b33c
00000280: dfcb 063e 8f82 5ebd 0f4e cf3a 8566 3f3b
00000290: af05 223d bbbb 573e e928 063e 4d7c a13e
000002a0: 7050 f4bd 292e b53d 1c9a 1d3e bd8a 19bd
000002b0: cd53 bf3d 6f5f 3b3e c9a8 453d 3640 4e3e
000002c0: 3ddc cf3c a26b 283d 8016 593e 44a0 a9be
000002d0: c847 e73d c54a 433e 1cdd ed3d ac3f 183e
000002e0: ee32 343e 19e9 793e 9e6f 3abc 3c28 893e
000002f0: 0f8d 92bb 61f5 78be fcbf fcbd 2f39 aabd
00000300: ec59 283e fca6 0a3e aeb0 813e 2eb8 6a3c
00000310: f38b 713d b6d0 a13d bf25 5e3e a77a 243e
00000320: 12fe f53d bb06 b4be bdef e43c 0e35 483e
00000330: f7d2 55be 9177 b63d d117 a7bd f232 dd3c
00000340: b42e c73d 111d 1f3e 99e8 a83d 8a70 40be
00000350: c848 37be 93c8 03be bcca 3fbe 00c2 013e
00000360: 1aa1 1c3d 5b26 743c 9f0c e93c fb46 c53d
00000370: 3ab8 19be 9f86 723d 29a6 293e 896c 743d
00000380: f60a 6a3e 28e7 e83c ce86 003e 3013 0c3e
00000390: a46b 533d 1768 f1bc d520 f43c 8e3c f5bd
000003a0: dc8f 823e 52bb a9bd f8c4 ae3d 69e5 893d
000003b0: 3a8c 2e3e 78ea 2bbd a652 b23d 5777 b1bd
000003c0: 8164 783d b527 e0bb 65d6 323e ba1c 3cbb
000003d0: 2ee7 a0bd 4cea 5abd c14e efbd d55c 57be
000003e0: d5da 473e eb20 f4bc bd39 2f3e 94f2 fd3c
000003f0: a521 89bc 64f3 803e 82b0 303e cf40 02bd
0.2404255 0.18419997 0.24470678 0.15639004 0.13130155 0.18339546 0.36092058 0.28751317
0.08150891 -0.101681285 0.050264984 -0.014981495 0.08727638 0.15165947 0.16431387 0.18823496
0.046284165 0.09288647 0.17681102 0.07599899 0.08208348 0.17292723 -0.1983915 0.056272097
0.17764457 -0.19946663 0.1658948 0.19083087 0.10832405 0.2172085 0.18463391 0.12645684
0.13602464 0.28287193 0.19194847 0.17815275 0.067757145 0.18155639 0.19032738 -0.006332077
0.23099819 0.13524634 0.23886192 0.0029827065 0.06860465 0.18026495 0.24176893 0.10952251
0.2592119 0.19121304 0.11273703 0.4170528 -0.033339456 0.056651704 0.1698057 0.11650963
0.22565146 0.106458336 -0.06890806 0.15966175 0.13181458 0.29121697 0.28666535 0.05054391
0.2756198 0.23076168 0.17609704 -0.12867248 0.18067484 0.24057028 -0.22864741 0.09689511
0.25175294 0.25304347 0.10010247 0.17262116 0.22470993 -0.17816064 0.13460004 0.08281592
0.04181407 0.14221518 0.14904825 0.32026842 0.46328974 0.03516026 0.39322925 0.18960395
0.08568451 0.40360868 0.38336775 0.2518449 0.28165558 0.16044492 0.22248448 0.14748213
0.15327463 0.3123714 0.14862435 -0.018673645 0.17694873 0.4532271 0.41706184 0.112417854
0.21728903 0.3169956 -0.019084722 0.14510038 0.13025564 0.2717587 0.22208694 0.025473533
0.12967698 0.19337016 0.19450986 0.18254113 0.25341192 -0.06700261 0.052316118 0.23762643
0.21888 0.13161361 -0.031181235 0.13298973 0.21799143 0.19304448 0.07398902 0.07189695
0.0848392 0.11754036 -0.13770558 0.24287015 0.05374097 0.15343662 -0.056572992 -0.06660946
-0.21410002 0.051525693 0.15158208 -0.17191339 0.21144739 0.017547088 0.0012926081 0.18521728
0.02805716 0.16670841 0.21546258 -0.084586404 0.11833549 0.16038008 -0.08063696 0.12179909
0.07989201 0.0654885 0.23738474 -0.032583892 -0.0075283106 -0.0033726476 0.18606539 0.021907225
0.13163708 -0.05432373 0.001581611 0.0029205394 0.0395562 0.21067707 0.13101543 0.31540146
-0.11929405 0.08846695 0.1539082 -0.037485827 0.093421556 0.18298124 0.04825667 0.20141682
0.025373572 0.04111827 0.2119999 -0.33130085 0.11292988 0.19071491 0.11614439 0.14868039
0.17597553 0.24405326 -0.011379151 0.2678851 -0.004472382 -0.24312355 -0.123413056 -0.08311688
0.16440552 0.13540262 0.25330108 0.014326138 0.058971357 0.079011366 0.21694086 0.16062413
0.12011351 -0.35161385 0.027946347 0.19551489 -0.20881258 0.08909524 -0.081588395 0.027001832
0.09725705 0.15538432 0.082474895 -0.1879293 -0.17898858 -0.12869482 -0.18729681 0.12671661
0.038239576 0.014901723 0.028448401 0.09632679 -0.15011683 0.059210416 0.16567291 0.05967382
0.22855744 0.028430536 0.12551424 0.13679194 0.051616326 -0.02946858 0.029800812 -0.119744405
0.2550038 -0.08287682 0.085336626 0.0673321 0.1704568 -0.041971654 0.0870717 -0.086653404
0.060642723 -0.006840671 0.17464598 -0.0028703646 -0.07856594 -0.0534461 -0.11684943 -0.21031506
0.19517072 -0.029800853 0.17111869 0.03099946 -0.016739676 0.25185692 0.17254832 -0.031800088

actor.weight f4 [5, 128]
00000000: 2ae8 0bbd fff1 973e a9d0 bf3d b133 a03d
00000010: f0fb 083e bd35 1e3e 797c ff3d 89ac f23d
00000020: dee2 923e 96ce a63e 3263 523e f102 dbbc
00000030: 7a09 36be 8710 31be 3cda a33a 1d89 ee3d
00000040: 67fa c13e f3e6 58be 5fed 523d b35f 5a3e
00000050: e38e 1a3e 6796 a2bd 38d3 d53a 7310 c03b
00000060: da28 dbbe 5591 ff3d b25d dd3d b907 3bbe
00000070: 4e03 58bc bcc5 11be 5648 453e 60f4 46bd
00000080: dbdd 6bbe 0b85 003e 74b5 a639 2f1a 69bd
00000090: aa53 85be f8ef 163e 3b52 243e f764 bbbe
000000a0: 8de0 f93d 77b4 61be c9bc 8f3c bd6d 123d
000000b0: 7c37 433e f91b 5dbd f525 01be e6f5 b639
000000c0: d629 953c 395b 653d 8c4f e3bc adc9 c7bd
000000d0: 0697 2b3e 1b8a 5c3e cb66 a03d 550c 0a3d
000000e0: 336b 193d ddb2 a03d 355b 50be f388 0abd
000000f0: ccbd 303d 803d 2b3e 5841 3e3e 41e7 ce3c
00000100: ee72 b03c da83 7dbe 3409 2f3e 3a0c 2b3e
00000110: 8b5f 71be 1c92 86be cd76 27bd 4156 ddbd
00000120: 0e22 af3d 5cc9 3e3e 6973 c3bd 8e08 8a3d
00000130: 8e35 e03d 50b2 c4bc a6bf 7c3e 1785 7dbd
00000140: 6baa 12bd 64ed 10bd 395d c4bd cc0d 85be
00000150: 39de c0bd a785 b0bd c479 ea3d 4af0 8f3e
00000160: a6b9 82be ee01 b63d ecf8 aebe 6c8d 76be
00000170: f9bb 163b 45f3 2abc 4c4f 2d3c 2f61 9dbe
00000180: 94ff b4bd 3b02 31be 1ce7 eabc 51a2 e0bc
00000190: a102 89bd f18d 103d dad4 8ebe 1956 7bbe
000001a0: 77a2 523d 23ec f53d f63d 17bb bf55 e83d
000001b0: c30d 11be f4b7 6bbe 17a8 dbbd 8ec7 41be
000001c0: f43a 863d dded 9f3d 2fd8 1fbe a3cd 303e
000001d0: 081d 8c3e ce9a 12be 4123 32be 9014 e23d
000001e0: 67ae b8bd 6ca4 7d3e 2c15 903e 9fb5 61bd
000001f0: 1e46 c4bd b2fc e03d a8e2 07be 1b96 d0bd
00000200: b379 babe 45bd ad3e f36b d9be bae3 303d
00000210: 0994 343e 8e3c 4c3e 2b52 b43e b4f3 ccbe
00000220: 131b a7be a3fc 893d da5d 3f3e dfde 103e
00000230: 2eac 55bc 0a90 8f3d 25f7 853b 1c9a 50bd
00000240: d9f4 52be b819 91bd 645e fe3d 9db9 80bd
00000250: d2ad 7a3e 4e71 353d d84a 34be ffff e9bc
00000260: a683 94be 20fe cbbd c084 5f3e b826 60bd
00000270: 2e91 b3bd 98d4 82be 2e90 813e d937 593e
00000280: 951e efbd b54d 2fbe 0fb7 25be bbf5 cfbd
00000290: 8b57 173c 1ee2 eabd cc03 8d3e bc71 1bbd
000002a0: 1d75 3f3d b6e7 f8bd 3987 8e3d 3715 bd3e
000002b0: bc1b 6dbc cfed 973d 7abb a9bd 1bad 23be
000002c0: cc2e bcbd 2cb3 2b3e 44b3 0a3e 188f ca3e
000002d0: 3fa4 f03d df79 ca3d ce5c be3d 9ee3 823c
000002e0: 702a 23be 5189 19be fb14 20be 24e2 1fbe
000002f0: 0a6b 4fbd 08ae 883e f520 f5bc 4062 4abe
00000300: 255d fbbd b15e 2ebe 9c76 37bd 50ae f9bd
00000310: 77e0 e3bd 1ae4 d9bd 6650 0e3e 3c49 063e
00000320: 29e2 4f3e 2534 76be 2fac f2bd 1f62 69bd
00000330: f8f7 f9be 2639 8ebe 85d7 afbe c6d0 20be
00000340: e879 05be 4512 37be cef7 d63d 89b8 a53e
00000350: 79f5 803e 5bf7 30be 999d 33be c719 9f3e
00000360: c12a 72be 71d4 80be 20cc e83d ed8c 6bbe
00000370: 6a14 cc3e 430c 663e 21a0 033c 1a3d 60be
00000380: 2e0b 3ebe 7dc0 4d3e 836b bc39 ea04 bfbe
00000390: b079 f8bd 3a51 5e3e 66a1 c0be 8135 a7be
000003a0: 9584 833e 4026 873e f0ad 1f3e dd61 efbd
000003b0: 45d5 86be 651a 453e c082 3cbe 028b 723d
000003c0: efe8 563e ab64 8c3e 8040 bfbc 72b1 83be
000003d0: d858 933e 2700 223e 91a6 dc3d 7b8e 3d3e
000003e0: 05f1 44be 7962 8c3e 132c fd3e 8005 ba3c
000003f0: 60fd 0dbe cb0e 0c3e cf05 393e 43d9 99be
-0.034156956 0.29676816 0.09365971 0.07822359 0.13377357 0.15450187 0.12474913 0.11849315
0.2868871 0.32579488 0.20545653 -0.026734801 -0.17777053 -0.17291461 0.0012500952 0.11647246
0.37886354 -0.2118185 0.051495906 0.21325569 0.1509357 -0.07938843 0.0016313558 0.005861336
-0.42804605 0.12478892 0.108088866 -0.18264665 -0.013184382 -0.14235586 0.19265875 -0.048572898
-0.2303385 0.12550752 0.0003179718 -0.056909736 -0.26040393 0.14739978 0.16046993 -0.36600468
0.12201033 -0.22041498 0.017546074 0.035749186 0.19064134 -0.053981755 -0.12612136 0.00034896954
0.018208425 0.0559952 -0.027747892 -0.097552635 0.1675683 0.21537058 0.07832106 0.033703167
0.03745575 0.078466155 -0.20347293 -0.03382201 0.043149754 0.16722679 0.18579614 0.025256755
0.021539178 -0.24757329 0.17093354 0.16703883 -0.23571603 -0.26283348 -0.04088478 -0.10807467
0.08551417 0.186315 -0.09543497 0.06739913 0.10947715 -0.024010807 0.24682483 -0.061894502
-0.035807054 -0.035382643 -0.09588093 -0.2598709 -0.094173856 -0.08619242 0.11449006 0.28113014
-0.25532264 0.08887087 -0.34174287 -0.24077386 0.0023000224 -0.010433977 0.010577988 -0.30738208
-0.0883781 -0.17286007 -0.028674655 -0.027421148 -0.066899545 0.035291616 -0.27896768 -0.24544562
0.05142447 0.1200793 -0.0023077703 0.1134448 -0.14165406 -0.23019391 -0.1072542 -0.1892378
0.06554213 0.07809041 -0.15609811 0.17265944 0.273659 -0.14316866 -0.17396261 0.11039078
-0.090176396 0.24769753 0.28141153 -0.055104848 -0.09583686 0.10985698 -0.13270056 -0.1018488
-0.36420974 0.33933464 -0.4246517 0.043185927 0.17634596 0.19944975 0.3521894 -0.4002968
-0.32637843 0.0673764 0.18688145 0.14147519 -0.013041539 0.07009895 0.0040883 -0.05092822
-0.20601214 -0.070849836 0.12420347 -0.06285403 0.2448037 0.04429751 -0.17606676 -0.028564451
-0.2900669 -0.0996058 0.21827984 -0.054724425 -0.08767925 -0.2555282 0.25305313 0.2121271
-0.11675755 -0.17119487 -0.16183113 -0.10154291 0.00923718 -0.1146891 0.2754196 -0.037950262
0.046742547 -0.1215357 0.069593854 0.36930248 -0.014471944 0.07418405 -0.082877114 -0.15984003
-0.09188613 0.16767567 0.13544947 0.39562297 0.117500775 0.09886526 0.09295045 0.015977677
-0.15934157 -0.14993788 -0.15633003 -0.1561361 -0.05063919 0.26695275 -0.029922942 -0.19764042
-0.12273625 -0.1702831 -0.04479085 -0.121914506 -0.11126798 -0.1063921 0.13897857 0.13113874
0.20301117 -0.24043329 -0.11849248 -0.05697834 -0.48821998 -0.27777976 -0.34344116 -0.15704641
-0.13034785 -0.17878063 0.10496484 0.32367352 0.2518728 -0.17281859 -0.17540587 0.31074354
-0.23649122 -0.2516208 0.11367059 -0.23002978 0.39859325 0.22465615 0.008033783 -0.21898308
-0.18558952 0.2009296 0.00035938257 -0.37308437 -0.12132585 0.21710673 -0.37623137 -0.32658008
0.2568709 0.2639637 0.15593696 -0.11688588 -0.26334587 0.1924835 -0.18409252 0.0592146
0.20987295 0.27420554 -0.023346186 -0.25721318 0.2877872 0.1582037 0.107739575 0.18511383
-0.19232567 0.2741888 0.49447688 0.0227077 -0.13866186 0.13677518 0.18068622 -0.3004857

actor.bias f4 [5]
00000000: 5da1 383d 1c12 b23d 7dea 8c3d b7c2 023d
00000010: dcba 163e
0.045075763 0.0869486 0.068806626 0.031923976 0.14719719

critic.weight f4 [1, 128]
00000000: 9ccd 783c 204f 10b9 32b1 b73d 0e0b df3d
00000010: 2537 7bbe fcd8 4f3d 7ad4 d53d d077 b6bd
00000020: e1f3 a83c 3885 fd3d c427 093e 39f8 733e
00000030: f087 fcbb 443a 993c 1429 663d 8324 60be
00000040: e74a 803c ba40 febd e652 ed3d e06b a5bd
00000050: 2641 903d 3886 023e 3d25 65be 2f29 6abe
00000060: 1961 75bd 0ff4 063e 0c89 aebc a9d5 1fbe
00000070: 4efd 263d c0c2 34b9 357d 633c 169b 4f3d
00000080: 6f25 54be edef 373d e617 693d e257 933c
00000090: e6bf 14bd a96f 99bd 229d 123e 75af d43e
000000a0: b739 1abe 829f 2bbd ed5d 113e 6b7c 23bd
000000b0: 7f89 b63e 6f73 233e ff81 18bc 0eac f3bd
000000c0: f0b7 04bc d6cd 393d 5c10 413c 9a53 e6bd
000000d0: 040b f6bd 0064 fa3d 22dc 293e 1c7c 02be
000000e0: 7434 2bbd 666b 97bd 0f9f 88bd 33b0 0ebe
000000f0: 6339 b33b 129f debc b3cf 483d 1a05 bbbc
00000100: 9a5a c0bd dda6 50be 7d56 a9bd 8941 a3be
00000110: 8fab 6b3e d64f f9bd 63aa 7ebd 1d2d 243d
00000120: fc1c 833d ee95 1ebc b3ee 2fbd 3ff0 74be
00000130: ec03 7a3d e0c5 3c3e 6f55 6c3d 44dd b63c
00000140: b9ef 75bd ffc4 f7bd b012 e7bc 827b a23d
00000150: 066a 92bd dc33 72b9 eb12 f93d a6dc b43d
00000160: 6a14 37be 78a8 94bd 4219 19be 9204 4fbd
00000170: 4439 283c 07ec 5f3d 98f4 e2bd e93b 28bc
00000180: 4a79 87be 07fd d63d b8c5 2ebe c65e 9ebd
00000190: a879 ffbd b3df d53c 9f8e 103e c077 213d
000001a0: 0e42 403d 7adf 1f3e 6cb2 67bd 05cf 5abd
000001b0: ca9e 3fbe b951 233e 6ab6 21bd b378 d9bd
000001c0: 25e8 5bbc c00e 113d 217d a2bd b926 0b3e
000001d0: 82ea cc3c 3fa1 573d a289 67bc 0ae5 11bd
000001e0: 8be9 44bd 773b 203c a212 bd3b 6530 1b3e
000001f0: 977a 11bd b342 6f3e 7e66 60bc 660b 22be
0.01518574 -0.00013762387 0.08969344 0.108907804 -0.24532755 0.05074404 0.10440917 -0.08909571
0.020624103 0.12378925 0.13394076 0.23825158 -0.0077066347 0.018704541 0.05619152 -0.21888928
0.015660716 -0.12414689 0.11588077 -0.08077216 0.07043676 0.12746513 -0.22377487 -0.22867273
-0.059907053 0.13179038 -0.021305583 -0.15608849 0.040768914 -0.00017238688 0.013884832 0.05068501
-0.20717405 0.044906545 0.056907557 0.017986242 -0.03631582 -0.074920006 0.14317754 0.41540113
-0.15061079 -0.041900165 0.14195986 -0.039913576 0.35651776 0.15962003 -0.009308337 -0.11898051
-0.008100495 0.045362316 0.011783686 -0.112464145 -0.1201382 0.12226105 0.1658788 -0.12742656
-0.04179807 -0.073935315 -0.06670963 -0.13934402 0.0054694875 -0.02717546 0.049026202 -0.022829581
-0.09392281 -0.20376153 -0.082684495 -0.31885937 0.23014663 -0.121734306 -0.062174212 0.040082086
0.06402013 -0.009679301 -0.04295225 -0.23919772 0.061038896 0.18434858 0.057698663 0.022322305
-0.06004307 -0.12098121 -0.028207153 0.079337135 -0.071491286 -0.00023098238 0.121618114 0.08831148
-0.17878881 -0.07258695 -0.14951041 -0.050541468 0.010267559 0.054668453 -0.11081809 -0.01026819
-0.26459724 0.1049748 -0.17067611 -0.0773292 -0.12474376 0.026107645 0.14116906 0.039420843
0.046937995 0.15612593 -0.05656664 -0.053420085 -0.18712917 0.15949143 -0.039480604 -0.10618725
-0.013422047 0.035414457 -0.07934023 0.1358899 0.025014166 0.05264401 -0.014131935 -0.03561882
-0.048074286 0.0097798025 0.0057700435 0.1515518 -0.0355173 0.23365287 -0.013696311 -0.1582466
