OLD/Liu/test_mini/v_3/train_iter_18800.pt (torch, 756103 bytes, 9 tensors)

h0 f4 [128]
0	0xbf128122	-0.5722829
1	0x3f07f5db	0.5310952
2	0xbee38e38	-0.44444442
3	0x3e0c4726	0.13699016
4	0xbfc7664e	-1.5578096
5	0x3efef615	0.4979712
6	0xbf19d093	-0.60083884
7	0xbe8935a4	-0.26798737
8	0x3f911f71	1.133772
9	0xbed8713c	-0.4227389
10	0x3e9e5ef1	0.3093181
11	0x3e4ff10d	0.20306797
12	0xbd595983	-0.05306388
13	0xc021f9d0	-2.5308723
14	0x40011b6b	2.0172985
15	0x3fd0533e	1.6275403
16	0xbf364c48	-0.71210146
17	0xbea978a3	-0.3309985
18	0xbf02e36d	-0.51128274
19	0xbfd36615	-1.6515528
20	0x3e3924d5	0.18080457
21	0x3eb91aeb	0.3615335
22	0x3ea1b4a5	0.31583133
23	0x3e96dca6	0.29465216
24	0xbf02c635	-0.5108369
25	0xbee4d90c	-0.44696844
26	0x3f80c202	1.0059206
27	0xbe3fb7a5	-0.18722399
28	0xbf703c3f	-0.9384193
29	0xbeb8406e	-0.35986656
30	0xbe43405e	-0.19067523
31	0x3f55a510	0.8345499
32	0x40072766	2.1117797
33	0x3fcdff83	1.6093601
34	0xbf4a9a34	-0.79141545
35	0x3fd2afc3	1.6459888
36	0x3e7a12aa	0.24421182
37	0x403cf351	2.9523509
38	0x3f735df2	0.95065224
39	0x3f80bb3f	1.0057143
40	0xbf17c8b6	-0.59290636
41	0x3f621ba6	0.8832344
42	0x3e71eebb	0.23626225
43	0xbdcb4104	-0.0992451
44	0xbfef26b8	-1.8683691
45	0xbf9f6b98	-1.245471
46	0x3fb382ba	1.402427
47	0xbcd5c478	-0.02609466
48	0x3fe16e48	1.761178
49	0x3e80e170	0.25171995
50	0x3fa14fe4	1.2602506
51	0x3f9ba3f9	1.2159415
52	0xbef1888b	-0.47174487
53	0xbea7ca6a	-0.32771617
54	0xc043201c	-3.0488348
55	0x3fb7ea17	1.4368314
56	0xbee103ca	-0.43948203
57	0xbf6ea1c3	-0.9321558
58	0x3fef7626	1.8707931
59	0x3ed4c86c	0.4155916
60	0xbf7b1b5f	-0.9808864
61	0x3ece0bb6	0.4024331
62	0xbf742a45	-0.95377
63	0xbf9baf3a	-1.216285
64	0xbfcf5075	-1.6196429
65	0x3d50a6a1	0.05094016
66	0xbf0528c1	-0.5201531
67	0xbe394db4	-0.18096048
68	0x3fb0e9ad	1.3821312
69	0x3ee50183	0.44727716
70	0xbfe7eb1e	-1.8118627
71	0xbf1e4875	-0.6182931
72	0x3f28e54c	0.6597488
73	0xbfa1d20e	-1.2642229
74	0xbe6279aa	-0.22116724
75	0x3ec84909	0.3911822
76	0x3ef38d37	0.47568676
77	0x3ddef9bc	0.10887477
78	0x3f05612d	0.52101403
79	0x3e916611	0.28398183
80	0xbf713aea	-0.9423052
81	0xbec7e44b	-0.3904136
82	0x3fb374dc	1.4020038
83	0xbf6a4094	-0.9150479
84	0x3e9bf889	0.30463055
85	0x3fb4e516	1.4132411
86	0xbf89d82d	-1.0769097
87	0x3fb9e9ee	1.4524515
88	0xbee8a2aa	-0.45436603
89	0xbf310fd9	-0.69164807
90	0x3fe4b9e5	1.786923
91	0xc024e11b	-2.5762393
92	0x3de8e6d5	0.11372153
93	0x3e860d0c	0.2618183
94	0x3fd21705	1.6413275
95	0xbfe90b13	-1.8206505
96	0x3f5f1f86	0.87157476
97	0x3ed3604a	0.412844
98	0xbe517bb2	-0.20457342
99	0x3e47e39a	0.19520417
100	0xbf689e02	-0.908661
101	0x3f0d2b77	0.5514445
102	0xbde26fb2	-0.110564604
103	0x3f186460	0.5952816
104	0x3ffff38c	1.99962
105	0x3ec0f338	0.3768556
106	0x3f81b167	1.0132264
107	0xbdf1fddb	-0.11815997
108	0xbfd987a9	-1.6994525
109	0xbfe854c8	-1.8150873
110	0x3f5bbb49	0.8583265
111	0x3fe26485	1.7686926
112	0xbf1c3085	-0.61011535
113	0xbfae6dba	-1.3627236
114	0xc0219acf	-2.5250738
115	0x40174e51	2.364155
116	0xbf58b9ba	-0.84658396
117	0xbd6575ee	-0.05602067
118	0x3bac909e	0.005266263
119	0x3f87749b	1.058246
120	0xbfe66a74	-1.8001237
121	0x3ee6e8d8	0.4509952
122	0x3f69d601	0.9134217
123	0x3e8e4ecb	0.2779449
124	0x3fd0d162	1.6313899
125	0xbc917889	-0.017757671
126	0x3e0034b0	0.12520099
127	0xbecb2f44	-0.39684498

c0 f4 [128]
0	0x3d32b077	0.04362532
1	0xbf219a21	-0.6312581
2	0xbd9dfc55	-0.07714144
3	0x3f9d50d2	1.2290289
4	0xbeb060fa	-0.34448987
5	0x3f2c3f3a	0.67283976
6	0x3f1ebff6	0.6201166
7	0x3c29b206	0.0103573855
8	0x3fbc0afd	1.4690853
9	0xbf6cc26a	-0.9248415
10	0xbf514925	-0.81752235
11	0xbf8813ec	-1.063108
12	0xbf6aa5ec	-0.91659427
13	0xbe2db851	-0.16964842
14	0x3d6ae151	0.057343785
15	0xbf2b59be	-0.6693381
16	0xbfc877c7	-1.5661553
17	0x3f15324f	0.5827989
18	0x3fbb950d	1.4654862
19	0x3fe5c9c8	1.7952204
20	0xbf508577	-0.8145365
21	0xbf246b8e	-0.64226615
22	0xbef8f36e	-0.48623222
23	0xbf49d037	-0.78833336
24	0xbfaef5d6	-1.3668773
25	0xbf310e4f	-0.6916246
26	0xbeb30cce	-0.34970707
27	0x3f9e201e	1.2353551
28	0x3eee7403	0.46572885
29	0x3eca765e	0.39543432
30	0xbf61f4f6	-0.88264406
31	0x3fd22992	1.6418936
32	0x3e8afdca	0.2714675
33	0x3fddf066	1.7338989
34	0x3e822eb4	0.25426257
35	0x3e1566de	0.14590022
36	0x3f0cceb0	0.5500288
37	0x3f4073f5	0.75176936
38	0x3f147e6b	0.580054
39	0xbe80cf90	-0.25158358
40	0x3dfcf0ed	0.123506404
41	0x400a0ab2	2.1569028
42	0x3e2ac84a	0.16677967
43	0x3fa1e188	1.2646952
44	0xbe7ff5f3	-0.24996166
45	0x3e78100b	0.2422487
46	0x3f1fce3a	0.6242405
47	0xbf23d8af	-0.6400251
48	0x3e7cd65c	0.24691147
49	0xbf965e16	-1.1747463
50	0x3f71d868	0.94470835
51	0xbdb26329	-0.087103195
52	0x3f61bdc4	0.88180184
53	0x3f0ed6c6	0.5579647
54	0x3d194549	0.03741959
55	0xbfa65c69	-1.2996951
56	0xbee17202	-0.44032294
57	0x402e071f	2.7191846
58	0xbfb9e88a	-1.452409
59	0xbf8631cc	-1.0483947
60	0x3fcd152c	1.6022086
61	0x3f82e1eb	1.0225195
62	0x3f8acdcc	1.0844054
63	0xbf0914b7	-0.53547233
64	0x3efc59a2	0.49287134
65	0xbf969b21	-1.1766092
66	0x3e9ceeac	0.30650842
67	0x3e8a6c16	0.27035588
68	0x3f88aba5	1.0677382
69	0xbf265008	-0.6496587
70	0x3d2ccaae	0.042185478
71	0x3ec987b6	0.39361352
72	0x3f0f08c8	0.55872774
73	0xbdd7397f	-0.105090134
74	0x3d893e11	0.06701291
75	0xbf2b7ad4	-0.66984296
76	0xbf85a361	-1.0440484
77	0xbf9d8c0f	-1.2308367
78	0x3e7ac732	0.2449005
79	0x3e0757b8	0.13217056
80	0xbf2bfb7c	-0.6718061
81	0x3ebf3df7	0.37351963
82	0xbf85ebee	-1.0462625
83	0xbec207b8	-0.37896514
84	0x3fb7699c	1.4329104
85	0xbebb9801	-0.36639407
86	0xbeef5fbc	-0.46752727
87	0x3fb32df6	1.3998401
88	0xbf12fd81	-0.57418066
89	0x3da6b0ce	0.081391916
90	0xb99e931f	-0.00030245722
91	0x3e9ab48d	0.30215874
92	0x3f52fa73	0.82413405
93	0xbf78616f	-0.9702367
94	0x3f994824	1.197514
95	0xbbc4f0eb	-0.006010165
96	0x3f9e87d6	1.2385204
97	0xbef46ab6	-0.47737664
98	0x3f6a51c9	0.91531044
99	0x3e1eb19e	0.15497443
100	0x3f4cdfe5	0.80029136
101	0xbf20040a	-0.62506163
102	0x3fa4cfa4	1.2875867
103	0x3f6bae1b	0.9206254
104	0x3f02c45b	0.51080865
105	0x3e7ead2d	0.24870749
106	0xbf5979a6	-0.84951246
107	0xbfc7f0ca	-1.5620358
108	0x4017072b	2.3598125
109	0x3fbe2f36	1.4858158
110	0x3e78a3fd	0.24281307
111	0x3f0cb78c	0.5496757
112	0xbf609d58	-0.8774009
113	0xc029f4bd	-2.6555626
114	0x3e6ccd36	0.23125157
115	0x3f0e5647	0.556004
116	0xbe65b715	-0.22433122
117	0x3fe036dd	1.7516743
118	0xbfa8f50a	-1.319978
119	0xbf2596cf	-0.6468324
120	0x3ea64ad5	0.32478967
121	0x3d5cd838	0.05391714
122	0xbeed31fd	-0.463272
123	0x3ec57390	0.3856473
124	0x3f52e5ef	0.823821
125	0xbe8533c2	-0.2601605
126	0x3f2394b2	0.63898766
127	0x3fb96154	1.4482827

RNN.weight_ih_l0 f4 [512, 15]
0	0x3eeda40a	0.46414214
1	0x3c31ce7b	0.010852451
2	0x3f12f285	0.57401305
3	0x3dd7de6d	0.10540471
4	0xbce583df	-0.028016983
5	0x3d1b514f	0.03791934
6	0x3ea7145e	0.32632726
7	0x3e11f2cf	0.1425278
8	0x3de6b8b0	0.11265695
9	0x3bd5fd15	0.006530414
10	0x3dfdadda	0.12386675
11	0xbdcdc337	-0.10047
12	0x3e74c6d2	0.23903969
13	0xbd788ba9	-0.060680065
14	0x3e62c100	0.22143936
15	0xbd718e9e	-0.0589739
16	0xbdc62cc1	-0.09676505
17	0x3d5d0f42	0.05396963
18	0xbe0cf51d	-0.13765378
19	0xbd1e9686	-0.03871777
20	0x3f0fa19b	0.56105965
21	0x3d2e4e82	0.04255534
22	0xbdc83212	-0.09775175
23	0x3dd45934	0.10368577
24	0x3e07ae2f	0.1325004
25	0xbdffbf4d	-0.124876596
26	0xbd98470a	-0.074354246
27	0x3dc55e53	0.096371315
28	0x3d3ff08e	0.04686027
29	0xbdbbba4c	-0.09166393
30	0x3ec1725d	0.37782565
31	0xbccec6ec	-0.025241338
32	0x3e20d9f8	0.15708148
33	0x3e81336b	0.2523454
34	0x3e04cbcd	0.12968369
35	0x3e41636c	0.18885583
36	0x3ef424a0	0.47684193
37	0x3dbf59ea	0.093433216
38	0x3db9f6f1	0.090803035
39	0xbcdcf45f	-0.026971994
40	0x3e6585fd	0.22414394
41	0x3e144e8a	0.14483085
42	0x3e071971	0.13193299
43	0xbcdc8523	-0.026918953
44	0x3ead7690	0.33879519
45	0x3e78cc30	0.24296641
46	0xbdce33c1	-0.10068465
47	0x3f0b4d18	0.5441451
48	0xbc2c5c68	-0.010520078
49	0x3da2358b	0.07920369
50	0x3e746758	0.23867548
51	0x3ee8af0d	0.45446053
52	0x3dc4e95d	0.09614823
53	0x3ccc6323	0.024949616
54	0xbdb810ef	-0.08987605
55	0x3d6cdc82	0.05782748
56	0x3e38f6ec	0.18062943
57	0x3dc33bd2	0.09532894
58	0x3e026129	0.12732376
59	0x3ed485d3	0.4150835
60	0x3e0f6d82	0.14006618
61	0x3e05dc3e	0.13072297
62	0x3e1c730c	0.15278262
63	0x3d9a9b76	0.07549183
64	0xbd0334d4	-0.032032803
65	0xbe5937e5	-0.21212728
66	0x3d2d3592	0.042287417
67	0x3ba8f710	0.0051564053
68	0x3e655982	0.22397426
69	0xbca38ba8	-0.019964054
70	0x3df59e26	0.11993055
71	0x3d2c8534	0.04211922
72	0x3e157f29	0.14599289
73	0x3e8584e0	0.26077938
74	0x3d290ca7	0.04127183
75	0x3dac18f2	0.084031954
76	0xbdd5c75e	-0.10438417
77	0xbed6a972	-0.41926152
78	0xbdc3dfd9	-0.0956418
79	0x3b871396	0.004122208
80	0x3d9da90d	0.076982595
81	0x3e1b73f0	0.15180945
82	0xbe911628	-0.28337216
83	0xbe16a6ef	-0.14712118
84	0x3d7475ef	0.059682783
85	0xbe2fedc9	-0.17180552
86	0xbd2aa78b	-0.041663688
87	0xbe7d7cd9	-0.24754657
88	0xbb049e2d	-0.0020235882
89	0x3dc69ae8	0.09697515
90	0x3e07e610	0.13271356
91	0x3e1bb23b	0.15204708
92	0xbe88bfcf	-0.26708838
93	0x3c430daf	0.011905118
94	0x3deb3e6a	0.11486514
95	0x3b9d5368	0.0048012026
96	0x3db9f10a	0.09079178
97	0x3e0f7c9e	0.14012381
98	0xbc04db82	-0.008108975
99	0xbc13f4f7	-0.009030572
100	0x3cb2e700	0.021838665
101	0x3da985b4	0.08277455
102	0xbceb46ed	-0.028720343
103	0x3e14d48b	0.14534204
104	0x3d087a8e	0.033320002
105	0xbe32323f	-0.1740198
106	0x3d028c25	0.031871933
107	0x3df26dc2	0.11837341
108	0xbc980f53	-0.018561995
109	0xbde6a1ff	-0.11261367
110	0xbe66478c	-0.2248823
111	0xbe6ef491	-0.23335482
112	0xbd0e6a04	-0.034769073
113	0x3d21ae33	0.03947277
114	0x3e02bb84	0.12766844
115	0x3da4cacd	0.08046494
116	0xbebe3f00	-0.3715744
117	0x3d38c432	0.04510898
118	0xbe831bd5	-0.25607172
119	0xbe0a82d3	-0.13526468
120	0xbe0222fb	-0.12708656
121	0xbeb3b56b	-0.35099348
122	0x3f159ffc	0.5844724
123	0xbdfdc6f2	-0.123914614
124	0xbdc57ef0	-0.09643352
125	0x3f0814c7	0.53156704
126	0xbd374d47	-0.04475143
127	0xbe30fd96	-0.17284235
128	0x3e11be17	0.1423267
129	0x3dd4b0b8	0.10385269
130	0xbd8dedad	-0.06930099
131	0x3dcf4f32	0.10122527
132	0x3cf4fff5	0.029907206
133	0x3e08472f	0.13308404
134	0xbda3c4b6	-0.07996504
135	0xbd9d6e39	-0.07687039
136	0xbe89b984	-0.2689935
137	0x3eb9aaf7	0.36263248
138	0xbd1caba5	-0.03824963
139	0x3d37c16c	0.044862196
140	0xbecb6edb	-0.39733014
141	0xbdf603f3	-0.12012472
142	0xbdcf0ab4	-0.10109463
143	0xbde89132	-0.11355819
144	0xbee8b2b5	-0.45448843
145	0xbde9cdb0	-0.11416185
146	0x3cb120a3	0.021622008
147	0xbe283ad4	-0.16428691
148	0x3c4ef707	0.012632138
149	0xbdd65e41	-0.10467196
150	0x3d8434fe	0.0645542
151	0xbdd17a00	-0.10228348
152	0x3ef8d9b9	0.4860361
153	0xbe439298	-0.1909889
154	0x3e13d1fe	0.14435574
155	0xbe8cfff2	-0.2753902
156	0x3d39e120	0.04538071
157	0xbdc25bf1	-0.09490193
158	0xbd3a121a	-0.04542742
159	0xbe44cc3f	-0.19218539
160	0xbddafbb1	-0.106925376
161	0x3e44bdcb	0.19213025
162	0x3cb61eab	0.02223142
163	0x3e0947db	0.13406317
164	0x3d8cc2fc	0.06873128
165	0x3ecd2afc	0.40071857
166	0x3ddd225f	0.107975714
167	0x3f33e3da	0.7026955
168	0x3e958fb0	0.29211187
169	0x3dddc3b9	0.10828347
170	0x3a5b1e8e	0.000835874
171	0x3df21723	0.11820819
172	0x3e0e8567	0.13918076
173	0x3f2a75cd	0.66586
174	0x3e75911d	0.23981138
175	0x3e4232e6	0.18964729
176	0x3d67b6e9	0.05657092
177	0x3f1624f5	0.5865014
178	0x3d0ae02f	0.033905204
179	0x3e1fc772	0.15603426
180	0x3dedc97b	0.11610695
181	0xbeab3a27	-0.33442804
182	0x3ea7e66e	0.3279299
183	0x3e1ffc41	0.15623571
184	0x3daf4013	0.08557143
185	0xbdca29ca	-0.09871252
186	0x3cf14deb	0.0294561
187	0x3c0b6a03	0.008509162
188	0xbdf3e05e	-0.11908029
189	0xbe3ae451	-0.18251158
190	0x3d9ef54d	0.07761631
191	0x3e071e84	0.13195235
192	0xbd5e8d4c	-0.05433397
193	0x3e289ee1	0.16466857
194	0xbcc2e106	-0.02378894
195	0xbd3b521a	-0.045732595
196	0x3d68f64f	0.056875523
197	0x3dd1921b	0.102329455
198	0xbe79a38c	-0.24378794
199	0x3d0d2da2	0.034467347
200	0x3e22ad89	0.15886511
201	0x3cf1a07d	0.029495472
202	0xbdf70f3a	-0.12063451
203	0x3dd360fc	0.10321233
204	0xbca564cc	-0.020189665
205	0xbe5e4998	-0.21707761
206	0xbd9c56c2	-0.07633735
207	0x3e21d80b	0.1580507
208	0x3ca923d7	0.020646973
209	0x3d8cd21a	0.06876011
210	0x3e5beca8	0.21476996
211	0x3e2d1764	0.16903454
212	0x3f32d029	0.6984888
213	0x3e29d53b	0.16585247
214	0x3cc40d1d	0.023932034
215	0x3e83dc5e	0.25754064
216	0x3e2a8ee6	0.16656074
217	0x3e1a46a9	0.15066017
218	0x3e93e74b	0.288874
219	0x3ebf9892	0.3742109
220	0x3e164ba1	0.14677288
221	0x3d5d08b6	0.053963386
222	0x3e9fa66c	0.31181657
223	0xbd166d64	-0.036725417
224	0x3e0d30d8	0.13788164
225	0x3ed4a13a	0.41529256
226	0x3e593f2f	0.21215509
227	0x3e89c77d	0.2691001
228	0x3e0e0680	0.13869667
229	0xbcf657c6	-0.03007115
230	0x3e528a9c	0.20560688
231	0x3e82ac7b	0.25522217
232	0x3e78794b	0.2426502
233	0x3e5b789d	0.21432729
234	0x3dc017e0	0.09379554
235	0x3e406d41	0.18791677
236	0xbd6ae47b	-0.057346802
237	0x3e50f25e	0.20404956
238	0x3d45f765	0.048331637
239	0x3e8caf60	0.2747755
240	0x3d809eb8	0.06280273
241	0xbdee34b1	-0.11631144
242	0x3f2949bf	0.6612815
243	0x3e0c2c7b	0.13688843
244	0xbd82b175	-0.063815035
245	0x3e9fb965	0.31196132
246	0x3dc28e68	0.09499818
247	0x3d9521b5	0.0728182
248	0x3dc7d81c	0.097580165
249	0x3d810386	0.062995
250	0x3e39e76e	0.1815469
251	0xbd2e92a0	-0.0426203
252	0x3e397f85	0.18115051
253	0xbead9362	-0.33901507
254	0x3d2214b6	0.039570533
255	0x3e3a0d2d	0.18169089

RNN.weight_hh_l0 f4 [512, 128]
0	0xbdcc766e	-0.09983526
1	0x3de7f012	0.11325087
2	0x3d1d6726	0.03842845
3	0x3d57073d	0.052497137
4	0xbe841148	-0.25794435
5	0x3e5b9744	0.21444422
6	0xbe9bf5e0	-0.30461025
7	0x3e948495	0.29007402
8	0x3e10a755	0.14126332
9	0xbe78494a	-0.24246708
10	0x3e86e402	0.2634583
11	0xbde0ef08	-0.109830916
12	0xbe164df0	-0.14678168
13	0x3eb0b12f	0.3451018
14	0xbc8af67c	-0.016963236
15	0x3df11a34	0.11772576
16	0x3b9aa457	0.004719298
17	0x3ddbf8b5	0.107407965
18	0xbe1c40cc	-0.15259093
19	0x3dc912d1	0.09818042
20	0xbe663250	-0.2248013
21	0xbe75d923	-0.24008612
22	0x3e29c03d	0.1657724
23	0x3de8d306	0.113683745
24	0x3e803914	0.25043547
25	0xbddfc45b	-0.10926124
26	0x3dd2a874	0.10286036
27	0xbe41fde3	-0.18944506
28	0x3d055739	0.032553885
29	0x3e5d5bd3	0.2161706
30	0xbde59296	-0.112096
31	0xbd30b7d7	-0.043144073
32	0xbe8053fc	-0.25064075
33	0x3e5e0f69	0.21685566
34	0x3d2beb6b	0.04197256
35	0x3e796835	0.24356158
36	0x3ee70ffd	0.45129386
37	0xbea115ae	-0.31461853
38	0x3d686634	0.056738093
39	0x3e8e143d	0.27749816
40	0xbeb71278	-0.35756278
41	0xbd42750c	-0.047474906
42	0x3e39c5c5	0.1814185
43	0x3ed837a2	0.42229944
44	0xbecd30e6	-0.4007637
45	0x3dbf8302	0.0935116
46	0xbeb7cca7	-0.35898325
47	0x3de15f4f	0.11004507
48	0x3e015edf	0.12633847
49	0x3e7f6ea0	0.24944544
50	0xbea5a8a2	-0.3235522
51	0x3ded902b	0.115997635
52	0x3e206d1a	0.15666619
53	0xbe53b617	-0.2067493
54	0xbe466449	-0.19374193
55	0x3ebc71f2	0.36805683
56	0xbdf1f97d	-0.11815164
57	0x3d15d7e5	0.036582846
58	0x3e60a24c	0.21936911
59	0x3ec782c3	0.3896695
60	0x3e0fd1f0	0.14044929
61	0x3e8371f4	0.25672877
62	0x3b3d5ff0	0.0028896295
63	0xbe4e4907	-0.20145045
64	0x3cb03a2f	0.02151212
65	0xbe2c2817	-0.16812168
66	0xbed9ac3b	-0.42514214
67	0x3dff21ed	0.12457643
68	0x3ebee6e4	0.3728553
69	0xbe2d0897	-0.16897808
70	0xbe0e1ebe	-0.13878915
71	0xbd4fcb16	-0.050730787
72	0xbd82f44c	-0.06394252
73	0x3d4a1afa	0.049342133
74	0xbe7f3bc6	-0.24925146
75	0xbe1aa22d	-0.15100928
76	0xbda1bfa6	-0.07897882
77	0x3c4eae57	0.012614808
78	0xbcce06c4	-0.02514971
79	0x3d21163f	0.039327856
80	0x3e30e5af	0.17275117
81	0x3e5a19ba	0.21298876
82	0x3de1c718	0.11024302
83	0xbdacd4a0	-0.084389925
84	0xbe2f6b16	-0.17130694
85	0x3df135c8	0.11777836
86	0x3db8500a	0.08999641
87	0x3eae7e30	0.34080648
88	0x3e8bd22e	0.27308792
89	0xbe37d3ae	-0.17951843
90	0xbd37eec9	-0.044905458
91	0x3d85f2d3	0.06540456
92	0x3e8e0883	0.2774087
93	0x3e00faf3	0.1259573
94	0x3e050f49	0.12994112
95	0xbe2c7633	-0.16841964
96	0x3d4ae870	0.049538076
97	0x3e3ae9a0	0.18253183
98	0x3dec40be	0.11535786
99	0xbe1f1854	-0.15536624
100	0x3d54e35c	0.05197464
101	0x3ea93d13	0.33054408
102	0xbea0f5d5	-0.31437555
103	0xbd2ac9d6	-0.041696392
104	0x3ed3b809	0.41351345
105	0xbce03cea	-0.027372796
106	0x3d58a4b9	0.052891467
107	0x3ec5e268	0.38649297
108	0xbdcb5f76	-0.09930317
109	0x3d3a4909	0.045479808
110	0x3ea2281e	0.31671232
111	0x3e1e7e4c	0.15477866
112	0xbeb7b29a	-0.3587845
113	0xbdfec07a	-0.12439056
114	0xbe5040ec	-0.20337266
115	0x3eea0650	0.4570794
116	0xbe9bada6	-0.3040592
117	0xbdcb8151	-0.099367745
118	0xbe6a3811	-0.2287295
119	0x3ead992e	0.3390593
120	0xbeca389b	-0.39496312
121	0x3e889e84	0.26683438
122	0x3e3d6699	0.18496169
123	0x3e9fde3d	0.31224242
124	0x3e8b1de8	0.27171254
125	0x3d7fa262	0.06241072
126	0x3de0f937	0.10985034
127	0x3e8a9df4	0.27073634
128	0xbe203bef	-0.15647863
129	0xbd79fdb2	-0.06103296
130	0x3daf2d9e	0.08553623
131	0x3d726855	0.05918153
132	0x3e39b331	0.18134762
133	0x3d8f76e4	0.070050985
134	0xbdb1ef5a	-0.08688231
135	0x3c91d0b9	0.017799722
136	0x3e454018	0.19262731
137	0x3e2414d3	0.16023569
138	0xbdcccea3	-0.1000035
139	0xbebe60d9	-0.37183264
140	0x3a49410a	0.0007677233
141	0xbdc4a23e	-0.09601258
142	0x3c9604f8	0.018312916
143	0x3e012a7d	0.12613864
144	0xbe24a5fb	-0.16078942
145	0xbad1f3d9	-0.0016018107
146	0x3e4186b9	0.18899049
147	0xbd6ded1b	-0.05808745
148	0xbdd539e6	-0.10411434
149	0x3e215cca	0.15758052
150	0x3cc041c4	0.02346886
151	0x3eb0e398	0.3454864
152	0xbd507ded	-0.050901342
153	0xbe064e9f	-0.13115929
154	0xbd7aa942	-0.061196573
155	0xbdbcb8e7	-0.09214955
156	0x3d154c6f	0.036449846
157	0xbde52197	-0.111880474
158	0xbe7d4f3d	-0.24737258
159	0x3e0a5bb2	0.13511541
160	0x3c2da702	0.0105989
161	0x3dab33c9	0.083594866
162	0x3cdf5829	0.027263718
163	0xbd765b70	-0.060145795
164	0xbe208bd7	-0.15678345
165	0x3d169f75	0.036773164
166	0x3cc90fda	0.024543691
167	0x3d2a4e86	0.041578792
168	0xbcad2cd8	-0.021139547
169	0x3de37679	0.11106581
170	0xbdf940e1	-0.12170578
171	0xbdd3d2ee	-0.10342966
172	0x3cb36df1	0.02190301
173	0x3ce43e89	0.02786185
174	0xbd4ff9e5	-0.050775427
175	0xbe0440cc	-0.12915343
176	0x3e14f7c4	0.1454764
177	0xbe3361b9	-0.17517747
178	0x3d39ac96	0.045330606
179	0xbe1b1777	-0.1514567
180	0xbc3b04b7	-0.011414698
181	0x3daa8aec	0.083272785
182	0xbdb5b23f	-0.08871888
183	0x3d6a9888	0.05727437
184	0xbc7fbd65	-0.01560912
185	0x3e46854c	0.19386786
186	0xbd1d3e1b	-0.038389307
187	0xbe0493d2	-0.12947014
188	0x3dcb8853	0.09938111
189	0xbd54c72e	-0.051947765
190	0xbd484be2	-0.048900492
191	0x3d58b090	0.052902758
192	0x3d349533	0.0440876
193	0xbb8229ba	-0.0039722594
194	0xbe026e65	-0.12737425
195	0xbc9b377b	-0.018947354
196	0xbd7428e8	-0.059609324
197	0xbcb4f98f	-0.022091655
198	0xbdd37c94	-0.10326496
199	0xbe005b13	-0.12534742
200	0x3b342f46	0.0027493997
201	0x3ca3530b	0.019937059
202	0x3e233811	0.15939356
203	0x3d234c10	0.03986746
204	0xbdd7330f	-0.105077855
205	0xbe00b96a	-0.1257073
206	0xbe7e87ca	-0.24856487
207	0xbbcf5047	-0.0063267085
208	0x3dd76498	0.105172336
209	0xbd936f75	-0.07198993
210	0x3dcecae1	0.1009729
211	0x3cc14087	0.02359034
212	0xbe2ed254	-0.17072421
213	0x3deccbdc	0.115623206
214	0xbc36a0d5	-0.011146744
215	0x3d121f39	0.035674307
216	0xbd7aecf7	-0.061261144
217	0x3d17f062	0.03709448
218	0xbd0bad6e	-0.034100942
219	0x3cac7678	0.021052584
220	0xbe3a048e	-0.181658
221	0xbc28acca	-0.010295102
222	0x3dd3174e	0.103071794
223	0xbda3d0e2	-0.079988256
224	0xbe0f0130	-0.13965297
225	0xbd4ce06a	-0.050018705
226	0x3c522c62	0.0128279645
227	0x3d5ffd65	0.054685015
228	0xbd8a208c	-0.06744489
229	0x3c431951	0.011907891
230	0xbce57c1e	-0.028013285
231	0xbd8a4ace	-0.06752549
232	0xbd8871ab	-0.066623054
233	0x3ecb7dc4	0.3974439
234	0x3d911ce3	0.07085588
235	0x3d0c57d4	0.034263447
236	0x3bec7919	0.0072165844
237	0x3e23b9a8	0.15988791
238	0x3af6be12	0.0018824956
239	0xbbbc094c	-0.005738413
240	0x3d13b51f	0.036061402
241	0x3ddbea80	0.10738087
242	0xbd963771	-0.07334793
243	0xbe179887	-0.14804278
244	0x3c912f17	0.01772265
245	0x3dc23de4	0.09484461
246	0xbdeae7ec	-0.11470017
247	0xbda1bfc8	-0.078979075
248	0x3dbda401	0.09259797
249	0xbcd3dcd7	-0.02586214
250	0xbdbd4635	-0.092419066
251	0xbcc5ba8d	-0.024136806
252	0xbd1ba750	-0.03800136
253	0xbdc49a10	-0.095996976
254	0x3e44a49a	0.19203416
255	0xbe25721e	-0.16156814

RNN.bias_ih_l0 f4 [512]
0	0x3e9bf9d4	0.3046404
1	0x3c78ec9e	0.015193133
2	0x3e146f83	0.14495663
3	0x3e331beb	0.17491119
4	0x3dea2186	0.11432175
5	0xbdeeae8b	-0.11654385
6	0x3e495fcf	0.19665454
7	0xbd8e79df	-0.06956839
8	0x3bd7a390	0.0065807775
9	0xbdb2e223	-0.087345384
10	0x3d61a9b1	0.05509347
11	0x3ebb6b3c	0.3660525
12	0xbc8f3c21	-0.017484726
13	0xbb67d872	-0.0035376814
14	0x3ef2bcc6	0.47409648
15	0x3edd7f48	0.4326117
16	0x3e823909	0.2543414
17	0x3e892dc9	0.26792744
18	0x3ee3c409	0.444855
19	0x3d3df310	0.04637438
20	0xbc22c72b	-0.009935181
21	0x3d883ffb	0.06652828
22	0x3efb7840	0.4911518
23	0xbc7f7621	-0.015592129
24	0x3da09350	0.07840598
25	0x3e11495a	0.14188138
26	0x3ead6a43	0.33870134
27	0xbd95059f	-0.07276463
28	0xbc505bdb	-0.012717213
29	0x3ea99af7	0.3312604
30	0x3d3e0fc1	0.046401743
31	0x3e33b47e	0.17549321
32	0x3d5d7a18	0.054071516
33	0x3eb85f38	0.36010146
34	0x3e02c064	0.12768704
35	0x3d48c0ac	0.04901187
36	0x3cfea030	0.031082243
37	0xbd8d956a	-0.06913264
38	0x3ea61c62	0.3244353
39	0xbce611ca	-0.028084654
40	0xbd3c56b8	-0.04598114
41	0x3ddce972	0.10786714
42	0x3d4d2618	0.050085157
43	0x3cc71fcb	0.024307152
44	0x3e2730e5	0.16327246
45	0x3d9aff33	0.07568207
46	0x3d30f287	0.043200042
47	0x3eab1af5	0.33419004
48	0x3e40a46d	0.18812723
49	0x3d036ece	0.032088093
50	0x3cceeee9	0.025260406
51	0x3dba0b68	0.09084207
52	0x3d83754a	0.064188555
53	0x3e8ffd50	0.2812295
54	0x3eb88742	0.36040694
55	0x3e823c55	0.25436655
56	0x3ebe4033	0.37158355
57	0x3e1c6c7d	0.1527576
58	0x3e281884	0.16415602
59	0x3e5e8591	0.21730639
60	0x3e878b03	0.26473245
61	0xbd0c0905	-0.03418829
62	0x3e7744bf	0.24147318
63	0x3e23331b	0.15937464
64	0x3ee60e8b	0.4493297
65	0x3df3d608	0.119060576
66	0x3e3e3faa	0.18578973
67	0x3ea413c0	0.32046318
68	0x3cc75554	0.02433268
69	0x3e27f4ae	0.16401932
70	0x3e425785	0.18978699
71	0x3e6fae7c	0.23406404
72	0x3dae2545	0.08503202
73	0x3da008e5	0.078141965
74	0xbd1403e6	-0.03613653
75	0x3de82160	0.11334491
76	0x3e7c6a84	0.24650007
77	0x3e9549cf	0.29157874
78	0x3d4a6b1d	0.049418557
79	0x3c8bef72	0.01708195
80	0x3eecc79e	0.46246046
81	0x3d07a98c	0.033120677
82	0x3e963f43	0.2934514
83	0x3d97939d	0.07401202
84	0x3d72d990	0.059289515
85	0xbba8d5c2	-0.005152435
86	0x3eb8b247	0.36073515
87	0xbe005600	-0.12532806
88	0x3d34a933	0.044106673
89	0x3e0c2ac2	0.13688186
90	0x3e81684c	0.25274885
91	0x3f08a431	0.53375536
92	0x3e9f0e1e	0.31065458
93	0xbddb8ef7	-0.10720628
94	0x3ec9c450	0.39407587
95	0x3e461bf8	0.19346607
96	0xbdc22b62	-0.09480931
97	0x3e106cae	0.14103958
98	0x3dcbbf19	0.09948558
99	0x3d7ff438	0.062488765
100	0x3e94af4f	0.2904
101	0xba4f6900	-0.00079120696
102	0xbdcd58b9	-0.10026688
103	0x3ed05390	0.40688753
104	0x3dfa6427	0.12226134
105	0x3e574106	0.21020898
106	0x3f0fab53	0.56120795
107	0x3e6bdf1a	0.23034325
108	0x3b9413ac	0.0045189466
109	0x3f1c3e80	0.6103287
110	0x3e20fbe0	0.15721083
111	0x3ca935bb	0.020655503
112	0x3d6bdaba	0.05758164
113	0x3e95f7f9	0.2929075
114	0x3ea2166e	0.31657737
115	0x3c822bf6	0.015890103
116	0x3b9121ca	0.004429077
117	0x3c676b09	0.01412464
118	0xbc9e7d6a	-0.019346911
119	0xbcf968c7	-0.03044547
120	0x3ca4c238	0.020112142
121	0xbcfc3e0a	-0.030791301
122	0x3e7438b7	0.2384976
123	0x3e30da34	0.17270738
124	0x3e9c3af6	0.30513734
125	0x3dd02cae	0.10164772
126	0xbd4e4a84	-0.050364032
127	0x3e12f8fc	0.14352793
128	0xbe47b8e5	-0.19504125
129	0x3d860638	0.06544155
130	0xbe8244b0	-0.2544303
131	0xbea53cca	-0.3227294
132	0x3d7b859d	0.06140672
133	0x3ddc2e8d	0.10751066
134	0x3e20ae93	0.15691595
135	0xbe2be5e1	-0.1678691
136	0xbdf14a31	-0.11781729
137	0xbde7ef35	-0.11324922
138	0x3d0010b3	0.031265926
139	0xbe0562ef	-0.13026021
140	0xbe168080	-0.14697456
141	0x3e08cbd3	0.13359003
142	0xbe82c1d9	-0.2553852
143	0xbd71535e	-0.058917396
144	0x3c6989f4	0.014254082
145	0xbe8de97a	-0.2771719
146	0x3bdbe9a8	0.0067112036
147	0x3cbf6353	0.023362791
148	0x3dfdc8ae	0.12391792
149	0x3bd26fd1	0.006422021
150	0xbeb1e0de	-0.34741873
151	0xbcbf1b39	-0.02332841
152	0x3dfaa96d	0.12239347
153	0xbd6bb38e	-0.057544284
154	0xbda33386	-0.07968812
155	0x3e9869bb	0.29768166
156	0xb9cd1344	-0.00039115
157	0xbe924a78	-0.2857244
158	0x3e21b1e4	0.15790516
159	0xbe3bc3fa	-0.18336478
160	0x3da84854	0.082169205
161	0xbe08bbda	-0.1335291
162	0xbe5f58c7	-0.2181121
163	0x3e0ce2d5	0.13758405
164	0x3e2a9af9	0.1666068
165	0x3e218104	0.15771872
166	0xbd8a7b01	-0.067617424
167	0xbdd81533	-0.105509184
168	0x3dfee070	0.12445152
169	0x3d2b4111	0.0418101
170	0x3e1cb709	0.15304197
171	0x3dfc7fe0	0.12329078
172	0x3e13eb40	0.1444521
173	0xbd92d466	-0.07169418
174	0x3d7b168f	0.06130081
175	0xbe80554a	-0.2506507
176	0xbe309673	-0.17244892
177	0x3bfe0f25	0.00775327
178	0x3d28a75a	0.041175224
179	0x3d2c092b	0.04200093
180	0x3d394d1b	0.04523955
181	0xbdaf4b3a	-0.0855927
182	0xbe752bd8	-0.23942506
183	0x3da67495	0.08127705
184	0xbd62f07d	-0.05540513
185	0xbc5c3f9d	-0.013442901
186	0xbcaffcf0	-0.021482915
187	0x3d1a75c1	0.037709955
188	0xbe0a6ff6	-0.13519272
189	0x3df434f4	0.119241625
190	0x3c81104f	0.015754847
191	0x3dcb46ea	0.09925635
192	0xbe51b368	-0.20478594
193	0xbc9a8476	-0.01886199
194	0x3d2fce9a	0.04292164
195	0xbec53fc1	-0.38525203
196	0x3cbc920c	0.02301886
197	0xbda6b9c1	-0.081408985
198	0x3db894fc	0.090127915
199	0xbe4916c9	-0.19637598
200	0xbe66fbd0	-0.22556996
201	0xbc84bd1a	-0.016203452
202	0xbd99caf1	-0.07509411
203	0x3d52f57d	0.051503647
204	0xbdab3e34	-0.08361474
205	0x3cd80b10	0.026372463
206	0xbe25f7f1	-0.16207863
207	0x3ddcac75	0.10775081
208	0xbe92502b	-0.28576788
209	0x3e3067be	0.17227075
210	0xbd8a3cfd	-0.06749914
211	0xbc70689b	-0.014673377
212	0x3dba7f33	0.091062926
213	0xbd19191f	-0.037377473
214	0xbe820864	-0.25397027
215	0x3e665bab	0.22495906
216	0x3d9b7afb	0.07591816
217	0x3dc96dbf	0.098353855
218	0xbe224c8d	-0.15849514
219	0xbd30ba17	-0.04314622
220	0xbe6170fb	-0.22015755
221	0x3cb8a7d3	0.022540962
222	0xbe6a0529	-0.22853531
223	0xbd2754a9	-0.040852223
224	0x3da0c057	0.07849186
225	0x3df1b45a	0.118019775
226	0xbcd40f58	-0.025886223
227	0x3d21e317	0.03952321
228	0xbe9ac571	-0.3022876
229	0x3aa9b6bd	0.0012948137
230	0x3e3e42ef	0.1858022
231	0xbecac313	-0.39601955
232	0x3df982c9	0.121831484
233	0x3d09dcd7	0.033657875
234	0xbe9a0b85	-0.30086914
235	0x3d5ef8ae	0.05443638
236	0x3d9d7f91	0.07690347
237	0xbd579968	-0.052636534
238	0x3db1c94f	0.08680975
239	0x3ca55c0d	0.020185495
240	0x3dad8479	0.08472533
241	0xbda0f6e1	-0.078595884
242	0xbe2e5513	-0.1702464
243	0xbc70166c	-0.014653783
244	0x3db59f56	0.088682815
245	0xbc93c42c	-0.018037878
246	0x3d37d246	0.044878267
247	0x3d8aca17	0.06776827
248	0x3ba3af87	0.0049952897
249	0xbc13ec75	-0.009028544
250	0xbcbd8312	-0.023133788
251	0x3e141c72	0.14463976
252	0xbe5dce2b	-0.21660678
253	0xbd1a7263	-0.037706744
254	0xbda5ed3b	-0.08101889
255	0x3df01e71	0.11724556

RNN.bias_hh_l0 f4 [512]
0	0x3eb8aaa1	0.3606768
1	0x3d4ab8df	0.049492713
2	0x3e126a8a	0.14298454
3	0x3e9f584b	0.3112205
4	0x3e406a58	0.18790567
5	0x3ceadb2d	0.028668964
6	0x3d4f0c75	0.05054899
7	0xbdd77ea0	-0.10522199
8	0xbc59669b	-0.013269092
9	0xbc7b8dbc	-0.015353616
10	0x3cc4eba8	0.02403815
11	0x3ef4984a	0.47772437
12	0xbdd7ecb9	-0.10543198
13	0x3c8ca95f	0.017170606
14	0x3eba9e91	0.36449102
15	0x3f034993	0.5128414
16	0x3e5f603d	0.21814056
17	0x3e6af662	0.2294555
18	0x3ee8992f	0.4542937
19	0x3d115645	0.035482664
20	0xbd86de9c	-0.06585428
21	0x3e006ab0	0.12540698
22	0x3ea748c9	0.32672718
23	0x3c3f689e	0.0116826575
24	0x3d61e0d6	0.05514606
25	0x3db9582c	0.090500206
26	0x3ebc5311	0.36782125
27	0xbcbe74cf	-0.023249058
28	0x3dfa6e46	0.12228064
29	0x3ec5ade3	0.38609228
30	0x3dae316f	0.085055225
31	0x3e212c64	0.1573959
32	0x3e53df59	0.20690669
33	0x3ec4270b	0.38311037
34	0x3e40b323	0.18818335
35	0x3e0378b9	0.12839021
36	0x3dbaff20	0.091306925
37	0xbb34f41a	-0.0027611316
38	0x3e9cb3ce	0.3060593
39	0x3da0457a	0.078257516
40	0xbb91eacc	-0.004453039
41	0x3e45409b	0.19262926
42	0x3e4d7978	0.20065868
43	0x3e12cbd2	0.14335564
44	0x3e059eae	0.13048813
45	0x3da16846	0.07881217
46	0x3e12b8ac	0.14328259
47	0x3ec92a78	0.39290214
48	0x3e2def78	0.16985881
49	0xbc7a92f3	-0.0152938245
50	0x3c9e2be3	0.019308036
51	0xbd399d08	-0.045315772
52	0x3dffe488	0.12494761
53	0x3ead1f5e	0.33812994
54	0x3e8e3dd5	0.2778155
55	0x3ebf8705	0.374077
56	0x3e90a711	0.28252462
57	0x3e86a6b9	0.26299074
58	0x3d87947b	0.06620117
59	0x3dbf56fb	0.09342762
60	0x3e62947d	0.22126956
61	0xbd8b9538	-0.068155706
62	0x3e98e114	0.2985922
63	0x3df9b545	0.121927775
64	0x3ee8b27f	0.45448682
65	0x3e57d5bf	0.21077631
66	0x3e5c2f38	0.21502388
67	0x3eb67664	0.356372
68	0x3d1b51ec	0.037919924
69	0x3e6020bb	0.21887486
70	0x3e67b6e8	0.22628367
71	0x3e121c7c	0.14268678
72	0x3e29bc3e	0.16575715
73	0x3da2ee34	0.0795559
74	0xbd1642f0	-0.03668493
75	0x3cf0ceaa	0.02939542
76	0x3e916ba4	0.28402436
77	0x3e8176e6	0.25286025
78	0x3dbc7df4	0.09203711
79	0x3e32aa94	0.17447883
80	0x3f02adf1	0.51046664
81	0x3d97772f	0.07395779
82	0x3e95eeea	0.2928384
83	0x3d8f35d1	0.069926865
84	0x3cb1325a	0.021630455
85	0x3dbe77a8	0.09300166
86	0x3efa574c	0.48894727
87	0xbdc473ad	-0.09592376
88	0x3db2273b	0.08698889
89	0x3e53626f	0.20643018
90	0x3e1a1cbb	0.15050022
91	0x3effabaa	0.49935657
92	0x3eadd76d	0.3395342
93	0xbd9f87fd	-0.077896096
94	0x3e99057d	0.29887
95	0x3d404b36	0.046946727
96	0xbddfa9e4	-0.10921076
97	0x3e04cf30	0.12969661
98	0x3d9c0045	0.07617239
99	0x3dd14559	0.10218305
100	0x3ea6988e	0.32538265
101	0x3bf18c36	0.007371451
102	0xbe21c7d4	-0.15798885
103	0x3eb0c63a	0.34526235
104	0x3d43c599	0.047795866
105	0x3e6df1d4	0.23236781
106	0x3f04364c	0.5164535
107	0x3e8404dc	0.25784957
108	0xbcb29d29	-0.021803455
109	0x3f288c56	0.65839136
110	0x3e2edec0	0.1707716
111	0xbcec2654	-0.02882687
112	0x3e6b0970	0.22952819
113	0x3e772a81	0.24137308
114	0x3e7f0d45	0.24907406
115	0x3c7ab83a	0.015302712
116	0xbcb83de3	-0.022490447
117	0x3d873dd4	0.0660359
118	0x3db678fd	0.089097954
119	0xbce58d1b	-0.028021386
120	0xbdbd79ba	-0.09251733
121	0x3ddd5885	0.108078994
122	0x3e94ab1e	0.29036802
123	0x3dc46b58	0.09590787
124	0x3eb9e94b	0.363108
125	0xbd1461da	-0.03622613
126	0xbde493df	-0.11161017
127	0x3d8dfb84	0.069327384
128	0xbe4d45e1	-0.20046188
129	0x3cbfc262	0.023408119
130	0xbe78330b	-0.24238221
131	0xbe9cbea5	-0.306142
132	0x3caf063d	0.02136528
133	0x3e3c0fa1	0.18365337
134	0x3e21a7f6	0.15786728
135	0xbdc51f91	-0.096251614
136	0xbd153973	-0.03643174
137	0xbd0790d0	-0.03309709
138	0xbd877abe	-0.06615208
139	0xbdc1b1e5	-0.09457759
140	0xbdb645ef	-0.089000575
141	0x3d9b3e9c	0.07580301
142	0xbe8445db	-0.25834545
143	0xbda0fc02	-0.07860567
144	0xbe13c6c3	-0.1443129
145	0xbe0b892f	-0.1362655
146	0xbe12c05b	-0.1433119
147	0x3cef707d	0.029228443
148	0x3e0dce10	0.13848138
149	0x3dfc1c01	0.12310029
150	0xbea799e9	-0.32734612
151	0xbdec4297	-0.115361385
152	0x3bc9ed6e	0.006162337
153	0xbd4c4e64	-0.049879447
154	0xbd57ad67	-0.052655604
155	0x3e7e27eb	0.24819915
156	0xbdfb26fb	-0.12263294
157	0xbdf8a54b	-0.12140902
158	0x3e609fbf	0.21935938
159	0xbe402804	-0.18765265
160	0x3d307496	0.043079935
161	0xbe066e80	-0.1312809
162	0xbe84431a	-0.25832444
163	0x3d80e860	0.06294322
164	0x3d2397ef	0.039939817
165	0x3bfa02da	0.0076297345
166	0x3cf3cb4a	0.029760022
167	0xbe03416e	-0.12817928
168	0x3d943493	0.0723659
169	0x3d11b3c1	0.035571817
170	0x3e3bbb20	0.18333101
171	0x3dffa0a0	0.12481809
172	0x3e138a7a	0.14408293
173	0xbd5f0f19	-0.054457758
174	0x3c618d86	0.013766652
175	0xbe83b774	-0.257259
176	0xbe9397ff	-0.288269
177	0xbc56b65c	-0.013105001
178	0x3e225b76	0.15855202
179	0x3dd8277b	0.10554405
180	0x3dfeed39	0.124475904
181	0xbe5f6292	-0.21814945
182	0xbe10fe08	-0.14159405
183	0xbc4b4e2e	-0.012408776
184	0xbdfb2cd6	-0.12264411
185	0xbda60a01	-0.08107377
186	0x3e142383	0.14466672
187	0x3d866812	0.065628186
188	0xbe601921	-0.21884586
189	0x3e222a3c	0.15836424
190	0xbdc9af42	-0.09847881
191	0x3dc8f703	0.09812739
192	0xbe96f03a	-0.29480153
193	0x3c67fe7e	0.014159797
194	0x3ceaf211	0.02867988
195	0xbe9b02ab	-0.30275473
196	0x3cafbfe5	0.021453807
197	0xbd8d74c8	-0.0690704
198	0xbc5cab54	-0.013468582
199	0xbe160019	-0.14648475
200	0xbe4b3aba	-0.19846621
201	0xbd2a3cbd	-0.04156183
202	0x3b5b34de	0.003344826
203	0x3e0082af	0.12549852
204	0xbdcfabee	-0.10140215
205	0xbc901ce1	-0.017591896
206	0xbdf96e72	-0.12179269
207	0xbbe5385b	-0.0069952435
208	0xbe80459a	-0.25053102
209	0x3e2aba22	0.16672567
210	0xbe67469d	-0.2258553
211	0x3db28a7b	0.08717819
212	0x3dfea8e7	0.12434559
213	0x3de5ec87	0.11226755
214	0xbdeb65d8	-0.114940345
215	0x3e1891fc	0.14899439
216	0x3d062cb9	0.032757495
217	0x3e157a7d	0.14597507
218	0xbde25b6d	-0.11052594
219	0xbe16ce79	-0.147272
220	0xbea0cc2a	-0.31405765
221	0x3e0283c6	0.1274558
222	0xbe7c8670	-0.24660659
223	0xbdcece2e	-0.100979194
224	0x3e52b10b	0.20575349
225	0x3e19d49c	0.1502251
226	0xbd01f544	-0.031728044
227	0x3e08ffdd	0.13378854
228	0xbed35d45	-0.41282097
229	0x3cf07879	0.02935432
230	0x3e3b3e0f	0.18285392
231	0xbed092ce	-0.40737003
232	0x3e0a7560	0.13521338
233	0x39ffdcbe	0.00048801856
234	0xbe952687	-0.29130957
235	0x3dd79484	0.10526374
236	0x3dd77427	0.10520201
237	0xbdaa8c06	-0.083274886
238	0x3db6b147	0.08920532
239	0x3d82e49c	0.0639126
240	0x3d76b1f6	0.06022831
241	0xbd5a55b0	-0.053304374
242	0xbdb92b52	-0.09041466
243	0x3caaa1df	0.02082914
244	0xbc5c58aa	-0.013448874
245	0xbc36247a	-0.011117095
246	0x3d40f24b	0.04710607
247	0x3e016985	0.12637909
248	0xbca2dd72	-0.019880984
249	0x3deeeca2	0.11666228
250	0xbdaee860	-0.08540416
251	0x3cbd3155	0.023094812
252	0xbe495a01	-0.1966324
253	0xbda408fe	-0.080095276
254	0xbde6da40	-0.11272097
255	0x3d7fa887	0.06241658

actor.weight f4 [5, 128]
0	0x3e94968b	0.29021105
1	0x3d8b753b	0.06809469
2	0xbecf1a81	-0.40449908
3	0xbee73f25	-0.45165363
4	0xbe19a0a9	-0.15002693
5	0x3eb80b85	0.3594629
6	0xbd28ccc9	-0.041210923
7	0xbe4dae71	-0.20086075
8	0xbdf22de5	-0.1182516
9	0xbde91ca0	-0.11382413
10	0x3e2a3636	0.16622242
11	0x3eb6d0d6	0.35706204
12	0xbede1a73	-0.43379554
13	0x3e7e13a6	0.24812183
14	0xbe380b05	-0.17972954
15	0xbec4baf3	-0.3842388
16	0xbe3e4a95	-0.18583138
17	0x3e23e35c	0.160047
18	0xbeb0b366	-0.3451187
19	0x3e53eff0	0.20696998
20	0xbe6cab92	-0.23112324
21	0xbe0ad1f6	-0.13556656
22	0x3e8e6090	0.27808046
23	0x3dd8bf99	0.10583419
24	0x3db28bcb	0.0871807
25	0xbdf531a2	-0.11972357
26	0x3e383170	0.17987609
27	0xbe004a21	-0.12528278
28	0xbb9ee5eb	-0.0048491857
29	0x3eafbd4f	0.34324118
30	0xbdeda96b	-0.116045795
31	0x3d7cae86	0.061689876
32	0xbe802dc0	-0.25034904
33	0xbe346b1d	-0.17618985
34	0x3e8af934	0.27143252
35	0x3d2053d5	0.03914245
36	0x3e4f8ea8	0.20269263
37	0xbde782fb	-0.113042794
38	0x3e833db2	0.25633007
39	0x3e80e5f4	0.2517544
40	0xbe955fee	-0.2917475
41	0x3da18350	0.07886374
42	0x3df8da98	0.121510684
43	0x3e01e0d7	0.12683426
44	0xbe36d560	-0.17854834
45	0x3e31dd2c	0.17369527
46	0xbe1b0f66	-0.15142593
47	0x3e5ba1da	0.2144846
48	0xbe718ec4	-0.23589617
49	0x3e0f37ea	0.13986173
50	0x3db8e008	0.090271056
51	0x3dd77f82	0.10522367
52	0x3de5d919	0.11223049
53	0xbe921b8f	-0.2853665
54	0x3e977a26	0.2958538
55	0xbcc0aca1	-0.023519816
56	0xbea97625	-0.3309795
57	0x3e0c2282	0.13685039
58	0x3e1223d8	0.14271486
59	0x3e0a15c8	0.13484871
60	0xbec95ae0	-0.39327145
61	0x3e4f9f1a	0.20275536
62	0xbe2ec4a5	-0.17067201
63	0xbe3ad579	-0.18245496
64	0x3e40dcf3	0.18834285
65	0x3dae1faf	0.08502137
66	0xbe59acc8	-0.21257317
67	0x3e342864	0.17593533
68	0x3e069c8c	0.13145655
69	0x3e2b44a8	0.16725409
70	0x3e650a93	0.22367315
71	0xbde0d5a8	-0.10978252
72	0xbef47f0d	-0.47753182
73	0x3bd2404f	0.0064163576
74	0xbdaf4e37	-0.0855984
75	0xbdd78a06	-0.10524373
76	0x3e93df50	0.2888131
77	0xbd9a00bb	-0.075196706
78	0x3e5f9822	0.21835378
79	0x3e632ce1	0.22185089
80	0x3e98533e	0.2975101
81	0x3e84268c	0.2581066
82	0x3e6402ce	0.22266695
83	0xbe528be3	-0.20561175
84	0x3b9f2da4	0.0048577357
85	0xbe1d424a	-0.15357319
86	0x3ea56711	0.32305196
87	0x3dec50b7	0.11538833
88	0x3e7f7bac	0.24949521
89	0xbe330520	-0.17482424
90	0xbed66935	-0.41877142
91	0x3ec18c9b	0.37802586
92	0x3e8c6d1a	0.27426988
93	0x3eac1dee	0.33616585
94	0xbebc047b	-0.36722168
95	0x3aba54da	0.0014215962
96	0xbea4fe02	-0.32225043
97	0x3e87c497	0.26517174
98	0x3cec17cd	0.028819943
99	0xbd83ab1e	-0.064291224
100	0x3df2ed6e	0.11861692
101	0x3dd1734c	0.10227069
102	0xbdf6235f	-0.12018465
103	0xbe936ae4	-0.2879249
104	0x3e333086	0.17498979
105	0x3e434d1a	0.1907238
106	0x3ea6cb38	0.3257692
107	0x3e2e8a47	0.17044936
108	0x3aba2771	0.0014202428
109	0x3dcbcb53	0.099508904
110	0x3e92a9bd	0.28645125
111	0xbea00699	-0.31255034
112	0xbdcd9c5b	-0.10039588
113	0xbe80c807	-0.2515261
114	0x3eb326ba	0.34990484
115	0x3e1f028f	0.1552832
116	0xbe414402	-0.18873599
117	0xbdb9931d	-0.09061263
118	0xbdf86f36	-0.12130587
119	0x3e885566	0.26627654
120	0xbda5d5af	-0.080973975
121	0x3e4bd154	0.19904071
122	0x3e8c97e0	0.2745962
123	0x3e2e0923	0.16995673
124	0x3eb42438	0.35183883
125	0xbeb195b5	-0.3468453
126	0x3d3ba54d	0.04581194
127	0x3eabf0e8	0.33582234
128	0x3de02083	0.10943701
129	0xbe0ff70c	-0.14059085
130	0xbd83d112	-0.06436361
131	0xbc551ad7	-0.013006887
132	0xbe3e65ca	-0.18593517
133	0x3d2aef18	0.041731924
134	0xbdab019b	-0.083499156
135	0x3e030c6d	0.12797709
136	0x3e40ee96	0.18841013
137	0x3ced1871	0.028942319
138	0x3e8d2e18	0.2757423
139	0x3e1ef713	0.15523939
140	0xbea4c2fa	-0.32180005
141	0x3e97530b	0.29555544
142	0xbc65640c	-0.014000904
143	0xbdc480d9	-0.09594888
144	0x3d1dc3d3	0.03851683
145	0x3d02fdd6	0.031980358
146	0xbda216c8	-0.079145014
147	0x3ea1d442	0.31607252
148	0xbda090f6	-0.07840149
149	0xbe2eb951	-0.1706288
150	0x3d463f43	0.048400175
151	0xbdf48e6e	-0.11941229
152	0x3ecca57e	0.3997001
153	0xbd3f95d3	-0.046773743
154	0xbda2a92b	-0.079424225
155	0xbe4eb07a	-0.20184508
156	0x3e146b46	0.14494047
157	0x3d72a662	0.059240706
158	0x3e344237	0.17603384
159	0xbe239663	-0.15975337
160	0xbe50300d	-0.2033083
161	0xbe0bf8f4	-0.13669187
162	0x3e04b794	0.12960654
163	0x3e802dd0	0.25034952
164	0x3e5b646b	0.21425025
165	0xbdd8aa7e	-0.10579394
166	0x3e1ff55f	0.15620945
167	0xbda9972f	-0.08280789
168	0xbdfc74bd	-0.123269536
169	0x3cdf4bdb	0.02725785
170	0x3db97bc2	0.09056808
171	0x3dc70ec7	0.097196154
172	0x3e36f7cb	0.17867963
173	0x3dc97001	0.09835816
174	0xbe8b4a91	-0.27205327
175	0x3ddc451b	0.10755368
176	0xbd67d3aa	-0.056598343
177	0x3d17436d	0.036929537
178	0xbb75ea66	-0.0037523746
179	0xbea1b7e8	-0.31585622
180	0x3e0b9298	0.1363014
181	0xbc8a5898	-0.016887948
182	0x3d900942	0.07033016
183	0xbe5b896d	-0.21439143
184	0x3d83c23d	0.064335324
185	0xbe924ae2	-0.28572756
186	0x3e3b6ed4	0.18303996
187	0x3e3c7cc6	0.18406972
188	0xbdf9cb8d	-0.12197027
189	0x3e5edba6	0.21763477
190	0x3e478f8d	0.19488354
191	0xbe92db91	-0.2868314
192	0xbe572654	-0.21010715
193	0x3e37eb29	0.179608
194	0xbcc88797	-0.024478717
195	0x3e2d0309	0.16895689
196	0xbd10022b	-0.035158318
197	0x3e2fd372	0.17170504
198	0x3e9bb60f	0.30412337
199	0xbc9335ce	-0.017969992
200	0xbea03f27	-0.3129818
201	0xbe52a6cd	-0.20571442
202	0x3d9ef833	0.07762184
203	0xbd9f0abd	-0.0776572
204	0x3e80b404	0.2513734
205	0xbe7923c9	-0.24330057
206	0x3ddcd966	0.10783653
207	0xbe713274	-0.23554403
208	0x3de98659	0.11402578
209	0x3e843ec6	0.25829142
210	0x3dfeab81	0.124350555
211	0xbe292d6b	-0.16521232
212	0xbea68b8f	-0.3252835
213	0x3ec9683a	0.3933733
214	0xbc9a7cf1	-0.018858405
215	0x3e9239e6	0.28559798
216	0xbc248cbb	-0.010043318
217	0xbe9da534	-0.30790102
218	0xbe395114	-0.18097335
219	0x3e0b1c9e	0.13585135
220	0xbb1e71d1	-0.0024176727
221	0x3e80b67a	0.2513922
222	0x3d901cf5	0.07036773
223	0xbe8a3faa	-0.27001697
224	0x3f292712	0.6607524
225	0x3c394d12	0.011309879
226	0xbd55f522	-0.05223573
227	0xbf10bf7d	-0.5654219
228	0x3d8c2800	0.06843567
229	0x3e582899	0.21109237
230	0x3d90fa07	0.07078939
231	0xbdcef358	-0.10105008
232	0x3cbc6182	0.022995714
233	0xbe8c6822	-0.27423197
234	0xbddbe8ad	-0.10737739
235	0xbe1ffe39	-0.15624322
236	0xbe8dd53c	-0.27701747
237	0x3db44a58	0.088032424
238	0x3e924242	0.28566176
239	0x3f16ac0b	0.58856267
240	0xbc4ff659	-0.012693011
241	0x3d045d5c	0.032315597
242	0xbd871ae5	-0.065969266
243	0x3d60baab	0.05486552
244	0xbe61b79e	-0.220427
245	0xbe856795	-0.2605559
246	0xbe59ab2f	-0.21256708
247	0x3e401584	0.18758208
248	0x3d4a3a15	0.049371798
249	0x3e7f214c	0.24915045
250	0x3e2a7dca	0.16649547
251	0xbd66f34e	-0.056384377
252	0x3b910ffb	0.004426954
253	0xbdae0253	-0.08496537
254	0x3e4d1d31	0.20030667
255	0x3e1c8543	0.1528521

actor.bias f4 [5]
0	0x3dfb63ab	0.122748695
1	0x3c9bca24	0.019017287
2	0xbb344b67	-0.0027510764
3	0xbd73e459	-0.05954394
4	0x3c087753	0.00832923

critic.weight f4 [1, 128]
0	0xbdbddd98	-0.09270781
1	0xbb2a93a5	-0.0026027944
2	0xbb56d9ea	-0.0032783695
3	0xbcd9ebe2	-0.026601736
4	0x3dc731ed	0.097263195
5	0x3e60023b	0.21875851
6	0xbdb35055	-0.087555565
7	0x3d619e13	0.055082392
8	0x3db0781c	0.08616659
9	0x3d19d2b3	0.037554454
10	0xbcbf0bfc	-0.023321144
11	0x3d12c6b5	0.035834033
12	0x3ce1bcc5	0.027555833
13	0x3e0ab21f	0.1354451
14	0x3bce6f90	0.0062999204
15	0x3e10c5bd	0.14137931
16	0x3d108aaa	0.03528849
17	0x3d8f7212	0.07004179
18	0xbdecb2f8	-0.11557573
19	0xbb9644e1	-0.0045858477
20	0xbdc82939	-0.097734876
21	0x3d8f8b4b	0.0700899
22	0x3d6d8fd1	0.057998482
23	0x3e522ebd	0.20525642
24	0x3d3234e6	0.04350748
25	0x3c42fa6c	0.011900526
26	0x3db09d30	0.08623731
27	0x3d8d8e80	0.06911945
28	0xbcdd0977	-0.026982052
29	0x3df7ff93	0.12109294
30	0xbe172e0f	-0.14763664
31	0x3cab606c	0.020920001
32	0x3cd54477	0.026033623
33	0x3d7e4432	0.062076755
34	0xbe68bfd2	-0.22729424
35	0x3c53e698	0.012933396
36	0x3da22e17	0.07918947
37	0xbd8309aa	-0.06398328
38	0xbd6633a9	-0.05620161
39	0x3c93e3d1	0.018052967
40	0xbe0697ee	-0.13143894
41	0x3df786a6	0.12086229
42	0x3d043cdd	0.032284606
43	0x3d72b903	0.059258472
44	0xbdd4b962	-0.103869215
45	0xbddb3743	-0.107039
46	0x3de05ff8	0.109558046
47	0x3d731e8f	0.059355315
48	0x3d07b5c5	0.033132333
49	0x3b24d0fa	0.0025148974
50	0xbd9aed82	-0.07564832
51	0x3e001d7b	0.12511246
52	0x3e13d7c4	0.14437777
53	0x3c0a7a62	0.00845203
54	0xbdaffd43	-0.08593228
55	0x3e5d5fa2	0.21618512
56	0xbb84ef64	-0.004056858
57	0xbd1911e2	-0.03737057
58	0x3da36796	0.07978742
59	0xbdb7c134	-0.089723974
60	0x3dfcae82	0.12337972
61	0xbd7aebd6	-0.061260067
62	0x3d0d0c88	0.03443578
63	0x3d352c80	0.04423189
64	0x3e2547ad	0.16140623
65	0xbcff5300	-0.031167507
66	0xbdfca710	-0.12336552
67	0x3cbcc900	0.023045063
68	0x3d4b3bbb	0.04961751
69	0xbcc04271	-0.023469182
70	0xbc324266	-0.010880088
71	0x3d2ce836	0.04221364
72	0xbc9291ba	-0.017891753
73	0x3d1092bc	0.035296187
74	0xbc5c1f2b	-0.013435165
75	0x3c8d65b4	0.01726041
76	0xbddc29e2	-0.10750176
77	0xbc093670	-0.008374795
78	0x3bff1bae	0.007785282
79	0x3c2d3146	0.01057083
80	0x3d2e70cd	0.042588044
81	0xbd7a44a3	-0.061100613
82	0x3bf2c4f8	0.0074087344
83	0x3d9bae2e	0.076015815
84	0x3d92e8ad	0.07173286
85	0x3c8966d0	0.016772658
86	0xbcb0e474	-0.02159331
87	0xbd8f80fa	-0.07007022
88	0x3e505671	0.20345475
89	0xbe431918	-0.19052541
90	0xbc924c7a	-0.017858732
91	0xbd98ee5a	-0.07467337
92	0x3e5dabd4	0.21647578
93	0xbc153516	-0.009106895
94	0x3d8f74a3	0.070046686
95	0x3b9ce6de	0.0047882637
96	0x3d37669c	0.04477559
97	0x3c547470	0.012967214
98	0xbd253edd	-0.040343154
99	0xbc1fae34	-0.009746123
100	0xbe0b4d04	-0.13603598
101	0x3d7482f5	0.059695203
102	0x3b96c5f2	0.0046012336
103	0xbc976547	-0.01848091
104	0x3e100e3e	0.14067933
105	0xbd8df499	-0.06931419
106	0x3e35a83e	0.1773996
107	0x3e768b85	0.2407666
108	0x3d80faf5	0.06297866
109	0x3bb1bb61	0.0054239486
110	0x3c51878a	0.012788663
111	0xbc12e968	-0.008966781
112	0xbd814cad	-0.06313453
113	0xbc858938	-0.016300783
114	0xbc33c3cb	-0.010971974
115	0x3ca44220	0.020051062
116	0xbd89906c	-0.067169994
117	0xbd035cda	-0.032070972
118	0x3cb5f654	0.022212185
119	0x3e013ea8	0.12621558
120	0x3b5bddff	0.0033549068
121	0xbca67b5e	-0.020322498
122	0x3d0dbeee	0.034605913
123	0x3dbc832b	0.09204706
124	0x3e1286c9	0.14309229
125	0x3d0b9308	0.034075767
126	0x3d9b7b6c	0.075919
127	0x3d93c2b7	0.07214873
