OLD/Liu/test_flipboth/v_3/train_iter_7000.pt (torch, 484807 bytes, 9 tensors)

h0 f4 [128]
00000000: 5661 58bf 83ff 1d40 9281 25bf bbd5 04c0
00000010: bbd3 d43e 24de f03e 3dfd 0dbf 0e4c 72be
00000020: 8b54 0ebf 5344 a83f 7542 0a40 1285 fb3f
00000030: 5782 b63f 8df7 fd3f 4ad8 03be 7ba5 9a3d
00000040: a091 e93f 992c 33be 106c a7be 7e8d 193e
00000050: f84a 04bf 5cc1 20bd c239 b4bf 0b51 d8bf
00000060: 49ac b7bf 3974 bb3f 20bc cdbe 44c1 9f3f
00000070: 7e94 d2be 5335 7a3e a47e 6bbe 6afd 573f
00000080: 40cd 6fbf 707b a53f 635c c03e 0a84 a2bf
00000090: 6106 ae3e ce2d 70bf 744d 5b3e 0b37 523f
000000a0: 9110 c8be 757e 1abf fcda c5be e4b7 efbf
000000b0: 9d29 9ebd cd05 203d a1f2 3e3d 3743 773e
000000c0: a468 673f d63f b83f ef38 49be 052c b73f
000000d0: a988 213e 9835 933e 0dbd 77bf 9b9a c83d
000000e0: 563f 623f 4db2 a0bd e4ba 8ebe d70b b13e
000000f0: 604c 813e f69d bdbf bd66 393e e26e ca3f
00000100: bf04 0c40 aacd 923f 84cd 843e 7fa7 b1bf
00000110: ef3e b9bf 00fa 2f3f e9ae 0a3f 6b09 01be
00000120: e11a b83e 4ba0 9dbf 8882 ba3f b206 e8bf
00000130: 777b 41bf 8c31 a5bf 5964 f0be 5a0f e73e
00000140: a5b5 94be 7610 f93f 8653 16bf 2c38 a23e
00000150: b367 6dbe b8df 4ebf 5f58 9abf a341 ba3d
00000160: 2db6 be3d 8426 873f f4e4 043f 264a 763e
00000170: 89bf b1bb 3fc9 043f 43e8 27bf 3f31 1e3d
00000180: 200c 41bf ea28 2b3f a5a4 bf3e 4a9e 763e
00000190: c2f6 89be 5ef5 0c3f 83c3 853f 09f6 923f
000001a0: 5a65 a03f b5f6 0e3f 2cf1 303f c1db 3fbf
000001b0: 998e 1ebf 8dd1 6b3f 5b42 e6bf 3293 953f
000001c0: e8d7 0d40 15b2 c4be 1441 563c a317 fc3e
000001d0: 608e b73f e991 53bf 26cd e5be 63cc 953f
000001e0: 17b3 9c3c 8185 183f 49d5 a1bf ac10 8fbf
000001f0: 4536 943f aba4 ca3e 363e 783f 54cb 45bf
-0.8452352 2.4687202 -0.64650834 -2.075545 0.41567788 0.4704448 -0.55464536 -0.23661825
-0.5559775 1.3145851 2.1603062 1.9649985 1.4258527 1.9841172 -0.12875476 0.07551094
1.8247566 -0.17497481 -0.32699633 0.14995381 -0.51676893 -0.039246902 -1.4080126 -1.6899732
-1.4349452 1.4644843 -0.4018259 1.2480855 -0.41128916 0.24434404 -0.22997528 0.84371054
-0.9367256 1.2928295 0.37570485 -1.2696545 0.33989242 -0.9381989 0.21416265 0.8211524
-0.3907514 -0.6034921 -0.38643634 -1.8727994 -0.07722781 0.039068032 0.046618108 0.24146734
0.90394044 1.4394481 -0.19650625 1.4310309 0.15774788 0.28751826 -0.96772844 0.09795114
0.8837789 -0.07846508 -0.2787696 0.34579346 0.25253582 -1.4813831 0.18105598 1.5815089
2.1877897 1.1469014 0.25938046 -1.3879241 -1.4472331 0.68740845 0.5417314 -0.12601249
0.35958007 -1.2314543 1.4571085 -1.8127043 -0.7557902 -1.2905746 -0.4695156 0.451289
-0.29044834 1.9458148 -0.58721197 0.3168348 -0.2318409 -0.8081012 -1.2058219 0.090945505
0.09312091 1.0558629 0.51911855 0.24051723 -0.005424444 0.5186958 -0.6558878 0.038621183
-0.75409126 0.66859305 0.374303 0.2408382 -0.26946074 0.550619 1.045029 1.1481334
1.253093 0.55845195 0.69118 -0.7494469 -0.61936337 0.92116624 -1.7989 1.1685545
2.2163029 -0.38417116 0.013077039 0.49236783 1.4340324 -0.82644516 -0.44883078 1.1702999
0.019128365 0.5957871 -1.2643214 -1.1176963 1.1579062 0.39578757 0.96969926 -0.7726338

c0 f4 [128]
00000000: e7cf d0bd dd42 b5bc fa47 3f3f d443 513f
00000010: 178c 99bf aef0 873e f590 dd3f 0140 45bf
00000020: 79b5 6cbf 5fc3 e93e 158c c13d 1475 63bf
00000030: 4b29 503f ceed 293f 95d5 36bf 355b 61bd
00000040: d723 86bf a6d9 30bf 237e 91bf 9d78 bb3f
00000050: 27b0 f83f 53a1 90bf d172 04bf 3e64 bbbe
00000060: 6ff4 85be 18f1 873e a4e0 b53f 2342 5c3c
00000070: 6dde 92be b4d4 2fbf 9846 37bf 983a 0b3e
00000080: aa16 a1bf b787 dfbe 1aa7 0a3f b3d0 9f3f
00000090: 5c35 ddbf 62b6 1e3e dab3 e23e 046e fd3e
000000a0: 9b38 df3e 52a3 f1bf f1d8 003f 054d 90bf
000000b0: 047a 60be 09bd fdbd 4a33 873f 5bcb 303f
000000c0: 1255 03bf 87fe 0940 be8c 1dbf 1e82 22c0
000000d0: cdb8 45be dbf1 d93f 7cc3 713f 230b 303f
000000e0: 4de3 653f 14bf abbd 210f 00bf 38af b83d
000000f0: b900 edbe 228a e13e 6f5b 373f 5f35 3f3f
00000100: 7f36 1b3f 1329 8dbd b700 8f3e 61ab cc3f
00000110: 826c 1340 ed52 aa3b 6533 423f fa08 72bf
00000120: 5e31 a1be 63f5 c8bf 5f0f 8c3f 2b48 e03f
00000130: 5aaa 853d 92d6 1cbf dc47 05c0 1202 6e3f
00000140: 9072 d83f e051 343f 7040 20bf 6916 4dbe
00000150: 2b6b 4b3f ef57 8bbe 602e bf3f e5d4 663f
00000160: 202c f43e 243c 87bf 0b65 5a3f 325b 8b3f
00000170: 9ac2 febd e86d d2be 783b 7bbf b305 26bf
00000180: 4024 053f 364a 83bd 9296 b3bc a967 96bf
00000190: 7b3e 8a3f 51a6 8c3f 6e08 cf3f 2ad3 9d3f
000001a0: d25d 3d3e 185d 0f3d 9cae 0f3f 74d6 afbf
000001b0: bc36 4f3d 5d38 6bbe f8bb dd3e 242b 5abf
000001c0: b3e1 f13e 4ac6 883e ff52 a5bf 5d5e a13d
000001d0: 2ae1 09bf 396f 52be 4ef3 4bbf 1472 4e3f
000001e0: 7d43 fe3f 269c 5f3d ea1c 2cbf 5e28 1440
000001f0: f7b1 94be b8e9 5ebf 465c c5be 53bf 283f
-0.10195904 -0.02212661 0.747192 0.8174412 -1.1995877 0.26550812 1.7309862 -0.7705079
-0.92464405 0.4565687 0.09450547 -0.8885052 0.8131301 0.66378486 -0.7141965 -0.055018622
-1.0479687 -0.69082105 -1.1366619 1.4646183 1.9428757 -1.1299232 -0.51737696 -0.36599916
-0.2616305 0.26551127 1.420918 0.013443503 -0.28685322 -0.68683934 -0.7159209 0.1359657
-1.2585042 -0.4365823 0.54161227 1.2485565 -1.7281909 0.15499261 0.4427784 0.49497998
0.43597874 -1.8877966 0.50331026 -1.1273504 -0.21921545 -0.12389571 1.0562527 0.69060296
-0.5130168 2.15616 -0.6154288 -2.5391917 -0.19308777 1.7026933 0.9443891 0.68766993
0.8979996 -0.08386055 -0.50023085 0.09017795 -0.46289614 0.440507 0.7162389 0.7469081
0.6063003 -0.068926 0.27930233 1.5989801 2.3034978 0.005197874 0.7585967 -0.9454495
-0.31482977 -1.5699886 1.0942191 1.7522024 0.065266326 -0.6126491 -2.082511 0.9297191
1.6909962 0.7043743 -0.62598324 -0.2002808 0.794604 -0.27215526 1.4936028 0.901686
0.47689915 -1.0565228 0.8531043 1.0887206 -0.12439461 -0.41099477 -0.9813762 -0.64852446
0.5200844 -0.06410639 -0.021922383 -1.1750385 1.0800318 1.0988256 1.6174448 1.2330067
0.18492821 0.03500089 0.5612581 -1.3737321 0.05058931 -0.2297072 0.4330747 -0.8522208
0.47242507 0.26713783 -1.2915953 0.078793265 -0.538592 -0.2055024 -0.7966813 0.8064282
1.9864346 0.054592274 -0.6723162 2.3149638 -0.29042026 -0.87075377 -0.38546962 0.6591694

RNN.weight_ih_l0 f4 [512, 15]
00000000: a781 b73c a982 ca3c 3903 f33c 1bb2 97bd
00000010: 804b 77bc e495 053e 1190 a93b fa2b 15bd
00000020: ff28 50bd b217 743d cb52 ebbc 4d63 773d
00000030: f232 19bc 81ba 75bc 9bb3 473d 9547 6a3c
00000040: db08 c1bc 70ee 393d ed51 863d 1889 103d
00000050: 0693 273e 23ea 863d e875 a6bc fdb0 8f3c
00000060: 194a 453d f064 f8bc a075 ef3d 2d27 96bd
00000070: f25b 9bbd e998 213e 2aaf 3b3e aea0 f53c
00000080: 29b3 c7bd 8a80 383d 3763 893d e71c 703e
00000090: d432 313e ff16 32bd 9c0f 41bd aae9 113e
000000a0: 651e 9f3d 6961 89bd b86c a33d cd3b 493d
000000b0: 0f65 0a3e 0d61 1c3e 5549 0d3d 7f33 fcbc
000000c0: 6ffd a13d 74a4 29bd 8660 9fbe e89b 5a3d
000000d0: f0df a0bc 4082 513d c02d 87be 7d38 5d3e
000000e0: 74c3 febd 8033 56ba c959 13bd 2a71 143b
000000f0: 059d 123e 3a3c 343d b03a d83c 3d97 80bd
00000100: 00f0 1a3c 3ce6 293d 3eda 5d3d ac5e ee3c
00000110: 26c7 ef3d 414c 5cbd 799b 263e 073f 99bd
00000120: c2d6 8dbc 47eb cd3d 9e51 e23d 9907 853e
00000130: 9d0b 7a3d f818 8d3d 00b0 40bc e20c 6cbd
00000140: 95a4 163e 3ac9 103e 79d9 963d 6557 693d
00000150: 00af 2ebd 1909 06be 636e 583c ad8e 063e
00000160: 198f ac3d e31d 593e 874e 353e 5a99 4fbe
00000170: bece 90bb c01e d93a e4f5 94bc e333 2f3d
00000180: f9fe 1c3e 3f1f 813d 5dd9 e0bd 1348 c63d
00000190: 8ea4 80be 2a99 e1bd 5ae2 aebc 3dad 06bd
000001a0: 8ddd e23d 0646 223d b69e 9ebd 82a8 24bd
000001b0: 886b c43c 80ed cdbc 0c96 c23d 632b d83d
000001c0: 20a8 46bc 5cf3 46bd cee1 52bd f5c2 a13b
000001d0: 257b 1c3d 3968 b03d 9ac2 fe3c 86fe f33d
000001e0: 19d9 643a 8d96 de3d 4f9d d33c 8932 8abd
000001f0: 6c88 a0bd 6ca5 3bbe 6b83 12bd 4add 31bd
00000200: 5243 c13d c2ce ddbd af2f ec3d 520a 00be
00000210: 9af5 95bd 6749 4d3c 97d6 803d 41ca f63d
00000220: 03e6 2abe b7ba a8bc a251 553d d0e7 99bd
00000230: d7b3 b5be 73c5 693e 2dfe 71bd bbdf 87bb
00000240: 8e90 2abe 9ac4 73be 2e3d 4c3d 8aab df3c
00000250: e696 6dbd 94f6 963d f226 a03c 0d6b b63d
00000260: 78a0 323d e080 273b 198a 8a3d 3230 d43c
00000270: 18bb 8bbc 6c09 f33c 12b4 a23d f09a 3e3e
00000280: 479c 13be b706 da3d 6ee4 62bc 285e 55bc
00000290: f21b 58bc 7062 b2bb fdb1 383d 5bb7 c13d
000002a0: 9542 983d a2b7 8cbd 504e 68be df18 c63d
000002b0: 8da3 24bd ab14 643d 0d04 13be 8534 193e
000002c0: 713d 0fbc 5c83 1d3e e340 ca3d 6c40 d83d
000002d0: 2d1a 8a3d c840 d53d ff76 b03d 7d68 a9bd
000002e0: 8a0a d7bc 1dfd 8e3e f76e cc3d 7013 98bb
000002f0: dd45 27bd 4dfe 8f3e 452f 913d 260f de3d
00000300: dd40 b8bd 86aa a93d ed6f 9d3c ce6d 3e3e
00000310: 2daa 023e 8333 3bbd 8076 5a3c 6679 a5bd
00000320: 2464 0a3e f54c 8d3e 3b2f 33bd cd0f 1dbd
00000330: 1c2d 843d 96e7 28be 2165 583e 7afc 8b3d
00000340: b943 0c3e 9d84 753e 0cca 1bbd 1635 733c
00000350: 140e eb3c 08e0 a63c 403e d23c d31f b63e
00000360: 6616 44bd 6e07 6c3d 7593 453d 96ac 8f3e
00000370: 964f 69be d5f2 f13d 9fe3 cabb 52ea 203c
00000380: 72d1 e3bc 7ae9 c23d 038a 94bc 3df8 cd3b
00000390: 6e27 d5bc ac93 8b3c 33ca e4bd 8edc 913d
000003a0: 62c3 8abd fba4 22be 0176 9bbd a2d9 9c3d
000003b0: 78e6 a6bd f8ac e03d 1448 c63d 81d4 02bd
000003c0: c446 8d3d 07fc 9a3d e525 73bc 8239 233d
000003d0: 4971 8e3d d878 fd3d 16bd 3fbd 1cf4 94bd
000003e0: 9600 723d 8376 263d 47c2 243d 2bea c8bc
000003f0: 2601 ac3d 402a 49bd 6737 0fbd 62b0 db3d
0.02240069 0.024720507 0.029664623 -0.07407018 -0.015093684 0.1304546 0.0051746448 -0.036418892
-0.050820347 0.05959291 -0.028726002 0.060397435 -0.009350525 -0.014998079 0.04875527 0.014299293
-0.023563793 0.045393407 0.06558595 0.035286993 0.16364679 0.06587627 -0.020319894 0.01754045
0.04816637 -0.030321568 0.11692357 -0.07331691 -0.075858966 0.15780987 0.18328539 0.029983845
-0.09750969 0.04504446 0.06708377 0.23448525 0.17304546 -0.043478962 -0.047134027 0.14249292
0.07769469 -0.06708033 0.07979721 0.049129296 0.13515113 0.15271397 0.034493763 -0.030786274
0.07909667 -0.0414166 -0.3112833 0.05337134 -0.019638032 0.051149607 -0.26402092 0.2160358
-0.124396235 -0.0008171126 -0.035974298 0.002265046 0.1431771 0.04400275 0.026395172 -0.062788464
0.0094566345 0.041479334 0.05416321 0.029097877 0.117079064 -0.05378366 0.16270246 -0.07482725
-0.017314319 0.10054641 0.110507235 0.2598236 0.06104623 0.06889528 -0.011760712 -0.057629474
0.1471122 0.14139262 0.07365698 0.05696811 -0.04264736 -0.13089408 0.013209912 0.13140364
0.08425731 0.21202807 0.17705737 -0.20273343 -0.004419177 0.001656495 -0.018183656 0.042774092
0.1533164 0.06304788 -0.10978959 0.09681716 -0.25125545 -0.11015542 -0.021348167 -0.032880057
0.11077414 0.03961756 -0.077451155 -0.040199764 0.023977056 -0.025137663 0.095012754 0.1055515
-0.012125045 -0.04857193 -0.051484875 0.004936571 0.038203377 0.08613629 0.031098653 0.11913781
0.000872986 0.10868559 0.025831847 -0.0674792 -0.078385204 -0.18324822 -0.03576986 -0.04342393
0.094366685 -0.108304515 0.115325324 -0.12503937 -0.073222354 0.0125297075 0.0629093 0.120502956
-0.16689305 -0.020596845 0.052079804 -0.07514918 -0.3548877 0.22829227 -0.05908029 -0.004146544
-0.16656706 -0.23805466 0.049863033 0.027303476 -0.058005236 0.0737125 0.01954982 0.08907137
0.043610066 0.0025558993 0.06764621 0.025901888 -0.017056987 0.029667579 0.07944502 0.18613791
-0.14415084 0.10645812 -0.013848407 -0.013022937 -0.013190256 -0.0054438636 0.045091618 0.094588004
0.074345745 -0.06870963 -0.22686124 0.096727125 -0.040195037 0.055683773 -0.14357014 0.14961441
-0.008742676 0.15382141 0.098756574 0.105591625 0.06743274 0.10412747 0.08616447 -0.08271883
-0.026250143 0.27927485 0.09982102 -0.004640989 -0.04083811 0.28123704 0.07089094 0.10842733
-0.08996747 0.08284478 0.01921841 0.18596575 0.1276023 -0.045703422 0.013333917 -0.080797955
0.13514763 0.27597776 -0.043746214 -0.038345147 0.064539164 -0.16494593 0.21132328 0.068352655
0.13697709 0.23976369 -0.038034484 0.0148442 0.028693236 0.020370498 0.025664449 0.35571155
-0.047872923 0.057624273 0.04823633 0.2806136 -0.22784266 0.11813895 -0.0061916853 0.009821491
-0.027809832 0.09517188 -0.018132215 0.006285696 -0.026019778 0.017038189 -0.11171379 0.071221456
-0.067755476 -0.15883248 -0.07590867 0.07658698 -0.08149427 0.10970491 0.096817166 -0.03194094
0.06898263 0.07567602 -0.014840578 0.039849766 0.06955201 0.12376565 -0.046811186 -0.07273123
0.05908259 0.040640365 0.04022434 -0.024525722 0.083986565 -0.04911256 -0.034964945 0.10727002

RNN.weight_hh_l0 f4 [512, 128]
00000000: 5c6c 983c 0a1f d83d 58b1 05be 3628 a43c
00000010: e30c 88bd ce6d ebbd 96a4 3f3d 7b25 9dbd
00000020: a139 54be 854d b43d e400 1f3e 427f 233d
00000030: 22ff 3cbd c4b7 473e bf69 15bd e8e0 81bc
00000040: 49c4 343c 656f 2a3d 06e7 92bd 7483 d13d
00000050: c811 2c3d eeaf 33bd 2af6 5d3c b45e acbd
00000060: f574 5cbd 43d3 bebc 8a92 88bd 1524 1fbd
00000070: d359 c73d 7b35 d23d 7d5c 6a3e f47a 2cbd
00000080: 38a0 773b 27a4 833c e8d2 4abd 45ea 96bc
00000090: 59eb 673d af85 20ba 38d0 bbbc ed67 713d
000000a0: 1c05 8b3d bc07 1e3d 713c 773d c1f6 47bd
000000b0: 188d 2dbd ee46 11bd fc93 dcbd 4a4b f53c
000000c0: 8326 edbd b3dd a73c 0713 94bd a292 51bd
000000d0: 96d9 29bd 0121 17bd b17a 0fbb 8e9e 49bd
000000e0: 00ca c5bd 20f2 d9bd add2 e13d fe9c a9bd
000000f0: baa9 cd3d 2d27 6a3c be0b 83bb 582d 523e
00000100: 8665 2a3d ab7b bc3d 838f bc3d 6d57 3f3d
00000110: 0111 0ebd 1cc2 793c 8f84 013e 9568 0abd
00000120: 8d99 aebd 14fc 7cbd e802 27bd f008 04bd
00000130: ca7c 793d 9599 16bd ee42 573d 20f8 99bd
00000140: 4e64 123e ba52 47bc 12fd 223e 9ef5 fcbb
00000150: 323c e1bc f182 863d 0ba5 23bd b0b9 37bc
00000160: 49dd bd3d 5966 573d 6224 31bd 7200 ae3c
00000170: f4eb 20be 02ab bfbd 92e2 b6bd da76 c6bd
00000180: eeae c2bd 8ad0 073e e012 32be b293 723d
00000190: 515b 093c 0ead ea3d 62e6 5f3d 3c3a 023d
000001a0: 6b92 72bd 784e e0bd 05be cd3d cf8c 59bd
000001b0: 8b5e afbd e31a 373d e8a1 663d cec3 3fbd
000001c0: b8d1 423d 27c8 7ebd 1181 443d 6b0b ac3d
000001d0: c94f 8bbd f964 0e3e c5c1 45bc 9a69 073e
000001e0: f803 663d ba23 97bd 2dbe 1f3c 8835 583d
000001f0: 5a5a 903d b640 59bd 0c0a be3d f226 573d
00000200: a368 2ebc 4650 b63d 1705 b73c 2aae fcbd
00000210: 7e4c 5abd 28db 46bc 1be3 d63d 514d a4bb
00000220: 0d1d 43bc 28d6 343e a894 de3d 8c38 9a3d
00000230: 1101 093e 4bd3 823d 5305 823e 066c b8bd
00000240: 0f28 9f3d 5eb5 fcbb 76dd 6fbd c17a 8b3d
00000250: 5dbc 05be 698d 933c f817 c83d 0a7a 7cbd
00000260: 7afe 39bb 8a5f 4d3e 2e47 63bd f610 603c
00000270: 8f5c 3abe 00ab 0f3e 844a 7ebd ce5e 86bd
00000280: 7aab 31bd 6b27 35bd cfef 473e d72b c23c
00000290: acf7 b8bd 78c5 b2bd 58ce 093e 2180 e2bc
000002a0: 327c 44bd 5793 963d 61a1 003e a373 6fbd
000002b0: fcd6 123d a585 723c 9c27 0f3e 99e1 76bd
000002c0: a3ff 0abe fb28 223e a48a 823d adaa ccbb
000002d0: 3108 803d 3a0a 61be 9043 f4bd 8f51 24bd
000002e0: 957f b1bd fe7f d5bc a183 193d 671e 94bd
000002f0: bb39 a23d d5ce 00be 1e21 b23c e892 7abd
00000300: b419 eebd ddea 413d 79a3 c23d d3ed 5b3c
00000310: 1c07 2e3e f434 443d c356 573e 43ee 92bd
00000320: 9251 15be 753c c53c e3a2 333e fd4f 2bbd
00000330: 57f3 713c c384 423e 3a83 833b 23c8 c9bd
00000340: 1d54 5c3d a4fe a1bd 3b35 90bd ba75 56bd
00000350: 01fb c0bb fc10 453d 17bd 12bd 30db 52bd
00000360: c9b0 203d fd1a 8e3d bca3 4ebe aa09 5dbc
00000370: 2372 053d bd60 063c 3733 673d 2bc6 b23d
00000380: 1296 a4bd 5069 b13c da7b 763d acac f23d
00000390: a33f 3a3d 2205 073c ecd6 bb3d a0b6 9c3d
000003a0: 0631 123e 8698 893d 4a51 c93d 90a8 12be
000003b0: 7904 063d c057 debc 6072 cdbd 277b d4bd
000003c0: 7b8f 85bc 064f 04bd 8c89 09bd 96f0 8ebd
000003d0: 02bf d4bd 4073 c7bb 3285 acbc b3c2 9f3b
000003e0: 9826 433d 2142 243e e2a3 d2bc 2ecc baba
000003f0: 5df3 433e 5a81 113e 78e7 fd3d 46ba b7bd
0.018606357 0.10552795 -0.13055933 0.020038705 -0.06643083 -0.11495553 0.04678782 -0.076731645
-0.20725109 0.08803848 0.15527683 0.039916284 -0.04614175 0.19503695 -0.0364778 -0.015854314
0.011033126 0.04161014 -0.071729705 0.10230151 0.042009145 -0.04386895 0.01354746 -0.08416501
-0.053822476 -0.023294097 -0.06668575 -0.03885277 0.097339295 0.10264107 0.22886844 -0.042109445
0.0037784707 0.016069485 -0.049517542 -0.018422255 0.05662093 -0.0006123436 -0.022926435 0.058937002
0.06788084 0.038581595 0.060360376 -0.048819307 -0.042370886 -0.035468034 -0.10770413 0.029943127
-0.11579611 0.020491457 -0.07230192 -0.05116523 -0.04146727 -0.03689671 -0.0021893198 -0.049223475
-0.09657669 -0.10641885 0.11026511 -0.08281897 0.100421384 0.014291567 -0.0039992025 0.2052511
0.041600727 0.09203275 0.0920706 0.046714235 -0.034684185 0.015244033 0.12648223 -0.033791143
-0.08525381 -0.061763838 -0.040774256 -0.032235086 0.060910024 -0.03676756 0.052554063 -0.07518029
0.14296076 -0.01216572 0.15916851 -0.0077197095 -0.027494524 0.06567944 -0.03995232 -0.011213705
0.092707224 0.05258784 -0.043247588 0.021240447 -0.15715009 -0.09358789 -0.089299336 -0.09690638
-0.095060214 0.13263145 -0.17390013 0.059222884 0.008383588 0.11458789 0.05466307 0.031793818
-0.059221666 -0.10952467 0.10046009 -0.0531128 -0.085629545 0.044703376 0.05630675 -0.046817593
0.047563285 -0.0622026 0.04797465 0.08400615 -0.06802327 0.13905706 -0.012070124 0.13223878
0.05615613 -0.07379861 0.009749931 0.052785426 0.07048483 -0.05304023 0.0927926 0.052527376
-0.0106450645 0.0890203 0.022341294 -0.12337907 -0.053295605 -0.012137212 0.10492536 -0.0050140996
-0.011908782 0.17659819 0.10868198 0.07530317 0.13379313 0.06387957 0.25394687 -0.09004979
0.077713124 -0.0077120503 -0.05856081 0.06810523 -0.13060136 0.018011766 0.09770197 -0.061639823
-0.002838044 0.20055977 -0.055487804 0.013675919 -0.18199371 0.14030075 -0.062082782 -0.06561051
-0.043376423 -0.044227045 0.19525073 0.023702545 -0.09031615 -0.087290704 0.1345762 -0.027648987
-0.047970004 0.073523216 0.12561561 -0.05845989 0.035849556 0.014802371 0.13979954 -0.06027374
-0.1357408 0.15835945 0.063741 -0.006245932 0.062515624 -0.21976557 -0.11926949 -0.040116843
-0.086669125 -0.026062008 0.037479047 -0.07232361 0.079211675 -0.125789 0.021744307 -0.061175257
-0.11625996 0.047343124 0.09503836 0.013423401 0.169949 0.047902063 0.2102919 -0.07174351
-0.14581898 0.02407668 0.17542605 -0.04182433 0.014767489 0.18995957 0.004013446 -0.09852626
0.053791154 -0.07909897 -0.07041403 -0.052358367 -0.005889297 0.0481119 -0.03582486 -0.051478565
0.039231095 0.06938741 -0.20179647 -0.013491074 0.032579552 0.008201775 0.056445327 0.08729204
-0.08036436 0.021656662 0.060176708 0.11849341 0.045470845 0.00824097 0.091718525 0.076520205
0.14276513 0.06718545 0.09829958 -0.14322114 0.03271911 -0.027141452 -0.10031581 -0.10375052
-0.016303768 -0.032301925 -0.03357844 -0.06979482 -0.10387994 -0.006086737 -0.021059606 0.004875505
0.047644228 0.16040851 -0.025712911 -0.0014251524 0.19135804 0.142095 0.12397665 -0.08971076

RNN.bias_ih_l0 f4 [512]
00000000: 7f3d 81bd a2ff bf3d b040 323e 1c78 093e
00000010: 2668 763d 608c be3d 1b11 4a3c 9d4b 213e
00000020: db7c 9d3d 29b8 0cbd d352 fdbc 2bd3 1a3c
00000030: 8a37 833c 67df 143e 5431 43bc d890 093c
00000040: aea4 c13d c7fb 1e3d 8828 193d 343e 8f3d
00000050: c9a2 ef3b 530b 1d3e c8ba b83d e874 f43d
00000060: 6d04 d7bd 1fae 223d 2034 dbbd 668f c4bc
00000070: 7c18 eabb 74fc 0cbd 3fe0 243e 93ac fd3c
00000080: 2cad 023c 8bd7 983d 7f91 f03d 3987 adbd
00000090: e46c 113d f55b 853d 6e55 57bb 6d36 e43c
000000a0: d0e8 323e 799e 82bd 13b7 753c fdec a23d
000000b0: b261 3b3d 5869 783d 9879 fb3d 37a4 5e3d
000000c0: cabd 49bd 8dec 523d c50e c5bc cb8e 9c3d
000000d0: 6731 b73c 89c4 fe3c 58c3 933d eaa7 ec3d
000000e0: dab6 dd3d 06cc 0fbd ce69 80bb f596 ee3c
000000f0: c642 cf3c f5bf 02be ec33 a0ba 30f5 903d
00000100: ed33 553c 60b6 003e 55cc ce3c 57f7 e43d
00000110: 2aa3 07bd 8be2 b03d 4774 7c3d 5997 fbbb
00000120: 4a22 6e3c 2c0d 113e 7705 1b3e 17a8 88bd
00000130: 0bf0 453e fe26 b53d 2efd 8d3d 7d8d 89bd
00000140: 9004 17bd 7733 ecbd caaf 7b3d f4a8 e03d
00000150: e9af cb3d 8a45 2c3e 97aa 173e 9ff2 80bd
00000160: 8f28 f33d b724 753c 8914 1fbd 245c d5bc
00000170: 1356 00bd 8aeb b7bc 6c25 06ba 25bc 343d
00000180: c988 93bd 3baf fd3b 16e2 ad3d 3962 ff3d
00000190: 6809 593d 4298 c83d 9873 be3d 8b95 9a3d
000001a0: 975d 5d3d 99c4 eebc d1c3 9bbc 1216 2cbd
000001b0: eb82 073e fe07 adbd f8f1 ee3d ae87 083e
000001c0: 8e80 7f3d 949a 833e 0238 823d 5b81 383e
000001d0: bd26 863d 4695 27bd 41c0 113c 37b0 9e3d
000001e0: 058b 623d d152 da3d 2043 373c 48f3 8e3d
000001f0: 12c8 c13c de9c 073c 7744 c33d 4fdd aebd
00000200: f7b8 14bd f599 09bd d9b3 1ebd 750a 03be
00000210: 5d8f 393c c711 7d3d 4f3c 963d b342 213d
00000220: 5ab0 85bd ff3d 58bd 733c 29bd 941f 103d
00000230: d352 593d 5d06 a1bd a5a1 c7bc bd0d 44bd
00000240: 5825 0b3d aa0c 943c e164 82bd 2aad 853d
00000250: 05e1 6c3d 5b2f 743d 63b7 993c f0d4 7ebd
00000260: 3220 d33b 9213 bebd b187 92bc 4322 653d
00000270: a22e 47bd 48b5 f6bc 262b 403d 5412 ba3c
00000280: d64c 8a3c 9c66 06be fc12 1dbd 8779 d33d
00000290: 6125 d23d c5de d2bd 90ee 4bbd 1f2d 543d
000002a0: 505c bc3c 5c10 91bd 6727 8b3d 3ad6 03bd
000002b0: 0a5c 5e3c 0cb2 afbd 4d8b 72bd 6748 62b9
000002c0: 26c0 db3d c8b8 533d 59a3 a2bd ed53 a1bd
000002d0: d48d 93bd c611 2d3d 7a5e c9bd be0b eebd
000002e0: 7b93 03bd 8f28 a23c f711 4dbd 0d07 10bd
000002f0: 6da3 14be 06a3 113d f750 ab3d eafc 803d
00000300: 22b4 6cbd e8d2 ffbd b315 903c 5807 8c3d
00000310: 1be0 ce3b 9c49 bcbd 68e4 c0bd 4cd6 293c
00000320: 32a0 8bbc a753 8fbc cd0d adbd fa9a d7bc
00000330: 29bb d73d 0af7 803d a7f4 8e3c 8e98 3c3d
00000340: 0ada a53d 87f1 143d a45b 023b 1387 f33d
00000350: e66c 783d 6d4b 0e3d 4a04 1c3c 5798 853c
00000360: 3dc6 093e 58cc c8bd 4599 1ebc 494e c53d
00000370: bef9 da3d 3b81 12bd 5d2d 373d 7e89 073e
00000380: 3c9a a4bc 4a71 1bbd 6594 423c 9db5 7a3d
00000390: a037 41bc d24a 0a3d b842 85bb 27bf 113d
000003a0: ad3d 043d b038 4e3d 7493 cdbb 0b9e 8c3d
000003b0: bd65 9ebd 42bf 353c 3745 233e bc87 a43d
000003c0: ef09 4fbd 8c44 7bbd 5822 b7bc 708e 24bd
000003d0: 2fbd 4b3d 635a 483d f33a 3abd 6021 cb3d
000003e0: 6659 ae3d ea55 f43d 8251 83bc 2077 8f3d
000003f0: de1f 03bd 9b01 59bd 530b 043e 5ad6 94bd
-0.063105576 0.0937493 0.17407489 0.13424724 0.060157917 0.09304118 0.01233318 0.157515
0.0768983 -0.034355316 -0.030923283 0.00944976 0.016017694 0.14538346 -0.011913616 0.00839635
0.09455238 0.038814332 0.03739217 0.06994286 0.0073131067 0.15336351 0.09020001 0.119363606
-0.10498891 0.039716836 -0.107033014 -0.023994159 -0.007144032 -0.034420446 0.16101168 0.030966079
0.007975858 0.074629866 0.11746501 -0.08473057 0.035504237 0.0651168 -0.0032857317 0.027857983
0.17471623 -0.063778825 0.014997262 0.07955358 0.045747466 0.06064734 0.122790515 0.054355826
-0.049253263 0.051495124 -0.024054894 0.07644423 0.022362424 0.031099575 0.07214993 0.115554646
0.10825892 -0.03510668 -0.003918863 0.029124716 0.025300395 -0.12768538 -0.0012222505 0.07078016
0.013012868 0.1256957 0.025243917 0.11179989 -0.03311459 0.0863696 0.06163433 -0.007677954
0.014534542 0.14165181 0.15138803 -0.066726856 0.1932985 0.08845328 0.06933056 -0.0671644
-0.036869586 -0.11533254 0.061446942 0.10969725 0.099456616 0.16823402 0.14811169 -0.06296276
0.1187297 0.014962367 -0.038837943 -0.026044913 -0.031332087 -0.022451181 -0.00051172706 0.04412474
-0.07203824 0.0077418364 0.08490388 0.12469906 0.052987486 0.09794666 0.092993915 0.07548054
0.054044332 -0.02914648 -0.019014271 -0.042013235 0.13233535 -0.0844879 0.116672456 0.13333008
0.06237846 0.2570387 0.06358339 0.18018095 0.065503575 -0.040913843 0.008895935 0.07748454
0.05530836 0.10660327 0.011185437 0.06979996 0.023654971 0.008277146 0.09534543 -0.08538305
-0.03630921 -0.03359409 -0.038745735 -0.12796958 0.011325684 0.061784532 0.07335722 0.03937025
-0.06527777 -0.0527935 -0.041317414 0.035186365 0.053057503 -0.07862542 -0.02436907 -0.047864664
0.03397116 0.018072445 -0.063668974 0.06527169 0.057831783 0.059615474 0.018764203 -0.06221479
0.006443047 -0.092810765 -0.017886968 0.055940878 -0.048628457 -0.030115739 0.04691615 0.022713818
0.016882341 -0.1312508 -0.038348183 0.10325914 0.10261036 -0.10296396 -0.049788058 0.051800843
0.022993237 -0.070831984 0.06794625 -0.032186724 0.0135717485 -0.085788816 -0.05921488 -0.00021580012
0.10730009 0.051689893 -0.07941312 -0.07877336 -0.07204786 0.04225328 -0.09832473 -0.116233334
-0.03212307 0.01979473 -0.05006596 -0.035162974 -0.14515467 0.035555862 0.08365052 0.062982395
-0.057788976 -0.12491399 0.017588472 0.06837338 0.0063133365 -0.091937274 -0.09418565 0.010366034
-0.01704416 -0.017495943 -0.08449898 -0.026319016 0.10533745 0.06297119 0.017450644 0.046043925
0.08098228 0.03636315 0.0019891048 0.11890998 0.06065073 0.0347399 0.009522507 0.016307993
0.13454528 -0.098046005 -0.009680097 0.09634072 0.10692166 -0.035767775 0.044720996 0.13236043
-0.020093076 -0.037949838 0.0118762 0.061208356 -0.011793047 0.03376276 -0.0040667914 0.035582688
0.03228538 0.05034703 -0.0062736813 0.06866082 -0.07734249 0.011092963 0.15944372 0.08033702
-0.050546583 -0.06134467 -0.022355244 -0.0401749 0.049740966 0.048914324 -0.045466375 0.09918475
0.08513145 0.11930449 -0.016030077 0.07005143 -0.032012813 -0.052980047 0.12894945 -0.07267447

RNN.bias_hh_l0 f4 [512]
00000000: b71f 78bd 47e6 5c3d 2a4c 3b3d 9c86 4e3e
00000010: 83b3 d43d 00d2 c8bc 1c3d 45bd f7c1 cc3d
00000020: 8513 9f3c 232b 2e3d c7f2 2a3c 0929 08bd
00000030: ab83 af3d f880 e93d e947 b5bd 38fb 933d
00000040: b808 80bb 85d6 353d efb7 e93d 5985 01bd
00000050: 876f bb3c 3ef6 e23d 2545 0f3c 97c0 e03d
00000060: d962 0c3c 1ebf b2bd 943e 0cbd fa31 f83d
00000070: 3f91 f63c 4a07 453d b65c cb3d bf6c 093e
00000080: 0a37 8b3c 1569 d73d ecdd b23c 2baf 713d
00000090: 6a8f 0b3e 3b09 a4bc b2eb 64bd 2e48 483e
000000a0: 53b2 463e 633d 7abd b46d ba3d 7e57 69bb
000000b0: 4356 e73d e69a 32bd ef53 193e b12c 963d
000000c0: a1da 5d3d 9c5f c8bc e397 b83c 5470 dd3d
000000d0: 785e d33d a3fe 08bd 959c a2bc cba6 673e
000000e0: 2933 0b3e e3ca 86bd 11a2 da3c 66b7 d5bd
000000f0: d880 f83d 3a90 9f3c debc a03c 7521 c83c
00000100: a763 663c f9fd 043e 0ecc 8e3d 0756 f93c
00000110: abe1 fd3d 0f71 f83d 1b36 4e3d 72f5 c8bc
00000120: 65d4 e83d a861 133e 8c54 613d b543 3abd
00000130: b364 1d3d c6e4 043e 6c38 003b 5ba7 2fbd
00000140: d988 a6ba cd12 493c 12bb 7ebc 4542 093e
00000150: 9279 c13d e478 4d3e d735 883d 3ada 91bb
00000160: 6316 9f3d a4f8 97bd f6db aa3c fcf9 b43d
00000170: 1970 f5bd e534 d7bb cdaa 853d 2bd3 a73d
00000180: 759c 03be 0fe3 b3bc 0c90 1fbd 96a3 043d
00000190: 11a8 493e 9fdf bc3d 418b 9a3a 5ff4 9dbd
000001a0: 2450 d83c 9bc8 f7bc b71c 823c 9437 70bd
000001b0: b7bd 293e 5ab4 febd 696c a83d cdba 5a3b
000001c0: 5d4b fb3d 779b e13d 9b1c 39bb 9d6c 663c
000001d0: 44b6 6a3d 4545 d43c afb7 84bc 348c 1c3e
000001e0: e76a 983d 0789 e63d 526c 96bb a3b4 c9bc
000001f0: e132 67bc 6b16 763d 0f5b ad3d c5d2 433d
00000200: c879 a73c 83be b4bb 0e22 b1bd 897d debd
00000210: c3f8 0fbd f329 8cbd d378 aebc a285 193c
00000220: 78b6 123d 1f8f 5fbd 7a02 0c3d 09fe 86bd
00000230: 28bb ba3b 6dd0 e0bd 2197 f5bc b7d0 a13d
00000240: 40f7 813d 8e7e 833c 867f 4d3b 1c8c 36ba
00000250: dc0b 553c 9b90 273e a268 e03c b939 ecbd
00000260: e287 573d cf7f aabd 8d12 213d 11a2 a53d
00000270: 21e1 07be 0950 dcbd 8a48 c0bd 3736 1f3d
00000280: 3b7d 633d 1420 11be a9af e9bc a4d4 74bd
00000290: 5a27 8a3d 169c 4c3d 2433 71bd 495a 253d
000002a0: 2231 a73d 9295 4c3d 3a76 8abb 430d 913d
000002b0: 6acb f03d b728 1abd 5d77 dbbc dbba 84bc
000002c0: 37bb f43d be00 853b a849 09bc 9fbb 9abd
000002d0: 4165 90bd 0985 b8bd b249 d5ba 4a87 d0bd
000002e0: c3cc ae3c 3fed 8e3d 7a5b d3bb e504 a63d
000002f0: d8ca 30be 315e 43bc fab3 553d b5b6 dfbc
00000300: 17c0 483d 0afa 31be 1b68 ca3d bf18 84bd
00000310: 4691 063e 76e3 20be ba2e 2fbc 4cd7 433c
00000320: 2fd8 77bc 20f8 37bd 30ae cabd 46d1 ec3b
00000330: 03b3 b33d 2602 8abb 735a af3c 87cd cc3b
00000340: 4432 543d 285d b9bd 90bd 39bd 53c3 4f3d
00000350: a6ca 833a c89a f43d 0375 16be 28f9 c83d
00000360: eacf 173d 3425 8cbd b6ba a03a 4099 b63d
00000370: 6f22 7d3c 6e00 80bc e987 1b3d 1a79 b63c
00000380: cff9 aebd dac2 eb3c 6000 9fbd 3e50 633d
00000390: 8cb0 08be 559c e7bc 190a 9f3d 359f a2bd
000003a0: 77fc 2e3e e976 6e3d 9cf6 693d 9de3 dcbc
000003b0: adac 9cbd 66af 3a3d e660 cd3d 7dbf febc
000003c0: 9f76 903d 95c3 13be 11ac 313d 6700 03be
000003d0: f341 433d 1189 7c3c 32ef a13b 7f7b c83d
000003e0: bc95 b9bc c3f0 a3bc 8811 003d 6043 f73c
000003f0: 1ecd 2ebd e741 5bbc 7dae 213e 994d 59bd
-0.06057712 0.053930547 0.045726933 0.20168537 0.10385802 -0.024514198 -0.04815398 0.09997933
0.019418487 0.042521607 0.010433859 -0.03324226 0.085700355 0.11401552 -0.088516064 0.072256505
-0.0039072894 0.044394035 0.11412036 -0.03162131 0.022880329 0.11082123 0.008744513 0.109742336
0.008568489 -0.08727859 -0.034239367 0.12118907 0.030098556 0.048102655 0.099297926 0.1342039
0.016994018 0.1051809 0.021834336 0.059004944 0.13628927 -0.020023933 -0.05588884 0.19558784
0.19403963 -0.0610937 0.091029555 -0.0035605128 0.1129575 -0.043604754 0.14973424 0.07332743
0.05416358 -0.024459653 0.022533363 0.108124405 0.10320753 -0.033445965 -0.019850055 0.2262222
0.13593735 -0.06581666 0.026688607 -0.10435371 0.1213395 0.019477952 0.019621309 0.024430016
0.014061845 0.12987508 0.06972514 0.030436529 0.123965584 0.12130939 0.050344568 -0.0245311
0.11368636 0.14392722 0.05501227 -0.045474727 0.038426112 0.12977895 0.001956488 -0.042884212
-0.0012705579 0.012272549 -0.015547531 0.13404186 0.09447016 0.20065647 0.06650894 -0.0044510635
0.07767942 -0.07420471 0.020856839 0.08836743 -0.119842716 -0.006567585 0.06526718 0.08194574
-0.12852652 -0.021958856 -0.038955733 0.03238257 0.19693018 0.0922234 0.0011790768 -0.07712626
0.026405402 -0.030247023 0.015882833 -0.058646753 0.16576277 -0.12436743 0.082238026 0.0033375502
0.12270234 0.11015981 -0.002824581 0.014063981 0.05730273 0.025911937 -0.016200868 0.15287858
0.07442265 0.11256605 -0.0045905495 -0.024622267 -0.014111252 0.060079973 0.08464634 0.047808427
0.020443812 -0.005515875 -0.086490735 -0.10863788 -0.035149347 -0.06843939 -0.021297848 0.009370239
0.035818547 -0.05457985 0.03418205 -0.06591422 0.0056985803 -0.10977254 -0.02997929 0.07901137
0.06345987 0.016051557 0.0031356527 -0.0006963627 0.013003316 0.16363756 0.027393643 -0.11534447
0.052619822 -0.08325159 0.039324332 0.08087552 -0.13269474 -0.10757453 -0.09388836 0.038870063
0.05553935 -0.14172393 -0.028526144 -0.059773102 0.06745787 0.049953543 -0.058886662 0.040369306
0.08163668 0.04994733 -0.0042255195 0.070826076 0.11757548 -0.037636485 -0.026790315 -0.01620238
0.11949771 0.0040589264 -0.008379377 -0.07555317 -0.07050563 -0.090097494 -0.0016272573 -0.10182054
0.021337872 0.06978845 -0.006450114 0.08106402 -0.17264879 -0.011924312 0.052173592 -0.027308801
0.049011316 -0.17380539 0.09883138 -0.064500324 0.13141355 -0.1571177 -0.010692293 0.011953186
-0.015127226 -0.044914365 -0.09896505 0.007227096 0.08774378 -0.004211682 0.021405434 0.0062500867
0.05180575 -0.09050971 -0.045346797 0.050723385 0.0010054901 0.11943585 -0.14693074 0.09813148
0.037063517 -0.068430334 0.0012262675 0.08915949 0.015450104 -0.015625205 0.03797141 0.022274543
-0.08543741 0.028779436 -0.077637434 0.055496447 -0.13348597 -0.028272787 0.07765598 -0.079405226
0.17088495 0.05821887 0.05711995 -0.026964003 -0.07650123 0.04557743 0.100282475 -0.031097168
0.07053875 -0.14430077 0.043376986 -0.12793122 0.047670316 0.015413539 0.0049418444 0.0978918
-0.022654407 -0.020012265 0.03126672 0.030183494 -0.042676084 -0.013382412 0.15789218 -0.05305252

actor.weight f4 [5, 128]
00000000: 6dea 99bd 9a19 883d a306 0a3e da70 3e3e
00000010: ecb9 0cbd aff7 76be 315e 92be a1db dbbd
00000020: 1adc 293e de0a efbd b541 3bbe 13fb 38be
00000030: a881 8d3d b4e3 8cbe c9bf 67be 3418 e8bd
00000040: f02f 173d b948 81be a053 c83d 81ad 303e
00000050: e114 0a3c 2cdd 833e fb5c 133d 4129 cc3d
00000060: 14b3 34be dd99 9c3d 2ea2 9cbe 7620 a4bd
00000070: b937 a63e 9961 bc3e 93f8 89be 6009 123e
00000080: d4e1 3dbe 31e7 583e 2ee0 603d d2ed c6be
00000090: aac3 243c 4c27 b73c 21ab 4c3d 5ad6 53be
000000a0: a1e5 f33d 91f3 403d eef3 cbbe f446 f6bd
000000b0: 6825 14be bb2b 0f3e bbf7 5abe 9ab1 023f
000000c0: d922 3e3e 07fe 47be 0d02 81be 64a8 28be
000000d0: a31f 9c3d e09d 413e 8963 bebd 6d3b 863e
000000e0: 85d3 ee3d 0bb7 6e3e 3180 3ebe 55ff 4cbd
000000f0: 4d3b 96bd 39b2 403e d07c 6b3e 760e 47bd
00000100: 3f54 bf3d 2f96 d53e cfc4 b5bd 34fd d9ba
00000110: f9cb 10bd 1bf2 60be ccbb 943e 8332 9f3c
00000120: 710d 1c3e d2f6 183e 1bce e13d a0c7 d93e
00000130: 4ecd 01be 2551 0ebf 01c8 463d 8738 f03d
00000140: bcd2 b4be a4fd 94bd 7904 193e 8e56 4d3d
00000150: 416b cb3d 4b59 25be fe98 153e 5aa1 a4be
00000160: a02f 013d d2c1 cfbd 3bd9 713e ba67 c63e
00000170: eec9 673e 506c 213e c69e 6a3d e2c7 4b3e
00000180: a81d 34be 645a e43c 3af9 92be ac2f f5bc
00000190: da5f a6be 211a d53e 0809 b2be dc50 1dbe
000001a0: 052d 3bbd 77a8 323e 564f 6dbe c639 3d3e
000001b0: 57b1 553e 30ba 92bd 9f6a 053e 349e 043e
000001c0: 47e1 4ebe 88d7 8fbe 0149 fabd e539 23bd
000001d0: 8c7b 33be ba3e 84ba 44c1 5fbd db2d 30be
000001e0: ad51 5b3e a8e0 d0bd 979a e03e c232 923e
000001f0: 0688 a1bc 6d88 58be 0094 1a3e 1e27 39be
00000200: 8add 333e 40be 32bd 443f 9c3d a8de 0b3b
00000210: ac7e 4d3c 042f 5e3e 5acf 433e fb76 04bd
00000220: 9cb6 00be 0b7b dc3d c1bf d6bd 71a9 7dbd
00000230: 46f2 2b3e 80ee f1bd 4066 383d 1d00 73bd
00000240: c0ca d03c a577 b5bd 2c2b 94be 62f3 a7be
00000250: ac6b 953e 64cd 663d c34b 803c 7ae1 293e
00000260: b636 5dbb e3b0 b2bd b969 eebd 091d d83d
00000270: 8301 15bd d46a 34be b2dc 6a3e 1039 723e
00000280: 45a9 263e b1b1 1a3e a8f3 d4bd d5e0 2f3f
00000290: 5edf e43d 9ddb 40be 574b 663c 40f2 85be
000002a0: 484b 033e 5011 6b3d abaa 353e 2454 09be
000002b0: ce76 853e f760 6fbd 4b4c af3e 42a4 b6be
000002c0: fe76 5cbe 3bf2 78be ac44 7cbd aacd 2ebe
000002d0: b935 9bbe 1d4c 8dbe ee4a 583e 7339 a53e
000002e0: 4c30 9dbe 6de5 b5be 8d33 523e 364b 8fbe
000002f0: d844 dabd 8fd9 2abe 5d05 39be 6637 f3bd
00000300: 43aa 07be 7471 e23d 7b1a a0bd 1b62 03be
00000310: af20 603d dd7f 16be 121f 45be 7bea c03d
00000320: 32e1 1cbe 7138 333e 3a41 64be b73f a2be
00000330: 55c7 343e 6882 903e fad3 033e 7db0 b73d
00000340: 12d0 cc3e f714 d63d aa4f 58be 42ce 25be
00000350: 831f 92be 40c4 bbbd 3df5 183e 2671 f53e
00000360: c5b4 453d 66df 1cbd a5ec b83d eb92 b1be
00000370: f766 f7be 466f c9bc 0afa d53d 224a 81bd
00000380: 8cd9 0fbe e8f7 aa3d ad78 a63e 6aed 983e
00000390: 38d1 ac3d 79fa b3be 6c08 763d af2a 10bd
000003a0: a25a abbd e7b8 98bd 2e33 603e d3b9 88be
000003b0: 1ecf f03d 290a 1dbe 990f ea3c b80b 86be
000003c0: cf63 7a3e dfd4 f3bd adc4 25bd 3d9c 89be
000003d0: 4ee9 823e 0537 be3c 89e3 bf3a 3ec9 c23d
000003e0: d6ee 6fbb 0253 4cbe 182d 90be 6ebc 57be
000003f0: 2ab1 883d 2be1 873e e106 7bbe af65 833e
-0.07515416 0.06645508 0.13479094 0.18597737 -0.034356996 -0.24117921 -0.28587487 -0.1073525
0.16587868 -0.116719946 -0.18286784 -0.18064527 0.069094956 -0.27517474 -0.22631754 -0.113327414
0.03691095 -0.25250795 0.09781575 0.17253686 0.0084278295 0.25754678 0.035977345 0.09968806
-0.17646438 0.076465346 -0.30592483 -0.08014004 0.32464388 0.3679321 -0.2694746 0.14261389
-0.18543178 0.21181943 0.054901294 -0.38853317 0.010056416 0.022357605 0.04996789 -0.20687237
0.119090326 0.047107283 -0.3983454 -0.12025252 -0.14467394 0.13981526 -0.21383564 0.5105225
0.18567981 -0.19530497 -0.25196877 -0.16470486 0.07623222 0.18907881 -0.092963286 0.26217213
0.11661438 0.23312013 -0.18603589 -0.05004819 -0.073355295 0.18817987 0.22996831 -0.048597775
0.093422405 0.41716143 -0.08875429 -0.0016631247 -0.035350773 -0.21967356 0.29049528 0.019433266
0.15239502 0.14937904 0.110256396 0.42535114 -0.12675974 -0.55592567 0.048530582 0.11729532
-0.35317028 -0.072749406 0.14943112 0.050131373 0.099325664 -0.16147344 0.14609143 -0.3215435
0.03153956 -0.1014439 0.23618023 0.38751012 0.22635624 0.15763974 0.057280324 0.19900468
-0.17589438 0.027875133 -0.2870577 -0.029929958 -0.32495004 0.41621497 -0.34772515 -0.15362877
-0.04569723 0.17447077 -0.23174796 0.1847907 0.20868431 -0.07164419 0.13028954 0.12950975
-0.20203124 -0.28094125 -0.12220956 -0.039850134 -0.17527598 -0.0010089495 -0.05462767 -0.17204992
0.21417876 -0.101991 0.43867943 0.2855435 -0.019718181 -0.21145792 0.1509552 -0.18081328
0.17564979 -0.043638468 0.076292545 0.002134243 0.012542408 0.21697623 0.19122067 -0.03234003
-0.1256966 0.10765656 -0.10485793 -0.06192917 0.16791639 -0.118130684 0.04501939 -0.05932628
0.025487304 -0.08860711 -0.28939188 -0.32802874 0.2918371 0.05634822 0.015661126 0.16589919
-0.0033754534 -0.08725145 -0.11641259 0.10552413 -0.036378395 -0.17618877 0.22935751 0.2365458
0.16275509 0.15106846 -0.10398036 0.6870244 0.111754164 -0.18833776 0.014056048 -0.26161385
0.12821686 0.057389557 0.17740886 -0.13411003 0.26067203 -0.058442082 0.34237894 -0.35672194
-0.21529767 -0.24311154 -0.061588928 -0.17070642 -0.30314425 -0.27597132 0.21122333 0.32270393
-0.3070091 -0.355266 0.20527478 -0.2798707 -0.10657662 -0.16684555 -0.18068452 -0.11875801
-0.13248543 0.11056796 -0.07817551 -0.12830393 0.05471867 -0.14697213 -0.19250134 0.094197236
-0.1532028 0.17502 -0.22290507 -0.31689236 0.17654164 0.28224492 0.12873831 0.08969209
0.40002495 0.104532175 -0.2112414 -0.16191962 -0.28539667 -0.09168291 0.14937301 0.47937888
0.0482681 -0.038298987 0.09029511 -0.34682402 -0.48320743 -0.024589192 0.10448082 -0.06312968
-0.14047831 0.083480656 0.32513943 0.29868633 0.08438343 -0.35152033 0.060066625 -0.035196956
-0.08366896 -0.07457142 0.21894524 -0.26704273 0.117582545 -0.15335907 0.02857189 -0.26180816
0.24452136 -0.11905836 -0.040470768 -0.26877013 0.25568622 0.023219595 0.0014639954 0.0951104
-0.0036610863 -0.1995354 -0.28159404 -0.21067974 0.06674416 0.26538977 -0.24514343 0.25663516

actor.bias f4 [5]
00000000: 106c a83d 0ee5 0cbd 316a 4cbe 09a6 48be
00000010: 0d34 143e
0.08223736 -0.03439813 -0.19962384 -0.19594587 0.14472981

critic.weight f4 [1, 128]
00000000: a90c 6d3c 85bc 053e e175 4abc 1b5a ecbb
00000010: 9648 b8bc cdb3 16be 5af0 bc3d f585 31be
00000020: 2a51 053d 9cb4 4ebe e77e 6fbe 0c85 f9bc
00000030: f026 9f3e 941a 90be 9e83 283e 6050 18bd
00000040: 1349 d6bc 634c 88bc 303c bb3d ec8e 40bd
00000050: b938 4a3d 5914 3f3e 859c 833e 6593 3bbe
00000060: e23d ce3c 0366 043e 1bc3 ecbd 5b0a 1a3e
00000070: 7b62 20be 4a98 39bd 92a0 aabc eaba d7bd
00000080: ed81 a53d 1ee6 a1bc a422 e73a 24df 11be
00000090: 20d6 95bd 1366 8abd 614f d6bb 1ef5 23be
000000a0: cef2 c83d e968 4a3e b44b 2f3e 5f12 673b
000000b0: 6d53 99bd be7c 79bd a724 13be 4490 e63c
000000c0: 5dd6 3b3e 78c3 273c 76a0 59bd a2c7 963e
000000d0: c8e1 6a3e 4f16 e0bd 018a d43b 8331 84bd
000000e0: 0972 1abe 9814 e7bc 6195 fabd 3c8c 90bd
000000f0: bcf2 57bd b29d 02be 4ba2 6d3d aac0 44be
00000100: fa84 fbbd 9b3a 1dbe f7a3 4a3e 8bd5 163e
00000110: 97fb 133e 198b 6b3e ce97 2ebe dd2f 5f3e
00000120: afa2 e8bd 1b6b 353e 6963 f43d 63c2 353b
00000130: 95d6 a03d 2745 0c3e f94a c53d 26f8 0bbd
00000140: c5c8 99bc 7a0c c93d 4cd5 5abe 31cb 42bd
00000150: d448 1abd 2b8d e33d 822a e4bd 82d1 9239
00000160: dafe 863e e729 ef3d 3d9b 94bd 81c8 4a3c
00000170: 3e5a 3fbe c5bc 113e d3a5 fcbd 9075 843d
00000180: 7ee1 10be f865 92bd 9af7 3d3d 7d49 563e
00000190: 8e2b 863e 1a2f 4e3d 41ac 1b3d 38c9 92bd
000001a0: 2b9c 8d3d 1bca 2a3d 9528 38be 2d8a 86bd
000001b0: 1862 6cbe 0fdb 4dbe 82ac 5c3e eb07 cabd
000001c0: 7c70 293d e5c6 093e fa07 e2bd 65c1 d43d
000001d0: 4767 953d 101e 933d 4710 04be 1fdd 2dbd
000001e0: 200e 713e 58de 983d c349 063e 2cb1 193e
000001f0: 79be 29bc 6e95 70bd dd5f 9e3d f1a2 c0bc
0.01446835 0.13060196 -0.012357206 -0.00721289 -0.02249555 -0.14717026 0.09225531 -0.17336257
0.032548107 -0.20186085 -0.23388253 -0.03045895 0.31084394 -0.28145278 0.16456458 -0.037186027
-0.026157891 -0.016637987 0.09142339 -0.0470113 0.0493705 0.18660106 0.25705352 -0.18317945
0.025175992 0.1292954 -0.11560651 0.15043013 -0.15662567 -0.04531125 -0.020828519 -0.10533698
0.08081422 -0.019763049 0.0017634225 -0.14245278 -0.07316232 -0.0675775 -0.0065402244 -0.16011474
0.09811936 0.19766583 0.17118722 0.0035258753 -0.07486615 -0.06090998 -0.1436945 0.028144963
0.18343492 0.0102394745 -0.053131543 0.29449183 0.22937691 -0.10941755 0.006486178 -0.06454756
-0.15082563 -0.028208062 -0.12235523 -0.070579976 -0.052721724 -0.12755468 0.058016103 -0.1921412
-0.12281223 -0.15354387 0.1978911 0.14729898 0.14451443 0.2300228 -0.17050096 0.21795602
-0.113591544 0.17716639 0.119330235 0.0027734272 0.07853428 0.13698255 0.096334405 -0.0341722
-0.018772492 0.09816833 -0.21370429 -0.04755706 -0.03766711 0.1111091 -0.1114092 0.00028003386
0.2636631 0.11677914 -0.07256172 0.012376905 -0.18686768 0.14232166 -0.12336316 0.06467736
-0.14148518 -0.07148355 0.04637871 0.20926471 0.26205105 0.05033789 0.03800607 -0.07167286
0.06914552 0.04169665 -0.17984231 -0.06569324 -0.23084295 -0.20103095 0.21550182 -0.098647915
0.04136704 0.13454778 -0.11036678 0.103884496 0.07295089 0.07183468 -0.12896834 -0.042447206
0.23540545 0.07464284 0.13114075 0.15008992 -0.010360354 -0.058736257 0.07733128 -0.023515197
