OLD/Liu/cont/v_8/train_iter_56000.pt (torch, 961735 bytes, 9 tensors)

h0 f4 [128]
2.3987784 -1.6397349 -0.86141014 1.5289785 -1.1629275 -1.524357 0.07519478 -0.44367313
0.8212016 1.186716 -0.31379285 0.44406238 0.3083791 0.098228104 -0.6697306 0.6379672
0.08174023 1.5116498 0.39619917 -0.46519694 0.7818513 0.10741774 2.172421 0.3169713
0.29628602 -1.7554185 0.7403213 -1.6462209 1.8488765 1.9149861 0.64152884 -0.3981474
1.3879848 -0.23051198 1.434928 -0.79583925 1.2089503 -0.77301764 -0.41579518 0.70390385
0.72478116 2.3095603 -0.797301 0.19098997 -0.2540912 -0.3567923 -0.8290908 -0.67795545
-0.15746222 0.71011037 0.5646036 -0.9014469 -0.63216907 1.7226977 -0.88874155 -0.39723438
-0.67381746 1.062921 -0.5058228 -0.7851784 0.0570825 -1.2903544 0.18436432 -0.5599799
-0.05808753 -0.38616443 -1.0783515 -1.5231838 2.1772249 1.7272162 0.22924645 -1.0594292
-1.8549867 1.6922152 -0.9131789 -1.0617851 -0.21479064 0.2846734 -0.0672511 0.39900082
-1.6917999 1.2747446 0.6991706 0.7793605 -0.99521554 -0.39834663 1.1386553 -0.31641918
0.5564017 0.043220364 -1.7765363 -1.8804615 1.3286536 -0.17026143 -1.2463156 0.8028801
0.49306285 -1.7484401 0.33164248 -0.6683701 0.64941555 -0.34780723 0.24036646 -1.7854873
-1.1696376 0.944564 -0.09870993 -0.4347255 -0.71657425 0.7871055 -0.7694171 0.13644503
-1.364897 0.5198169 0.16191325 -0.532763 1.8654118 0.465416 0.7778375 -0.67935705
-0.4841272 -0.2869975 -0.026338104 1.5078561 -0.16966385 -0.2077674 0.1709378 0.20665196
00000000: 9685 1940 d5e2 d1bf 6085 5cbf 91b5 c33f
00000010: cfda 94bf 211e c3bf b9ff 993d 2029 e3be
00000020: 453a 523f 4fe6 973f 75a9 a0be 255c e33e
00000030: dee3 9d3e d12b c93d 7773 2bbf d251 233f
00000040: 6c67 a73d be7d c13f 9eda ca3e 4b2e eebe
00000050: 6827 483f d5fd db3d f208 0b40 104a a23e
00000060: cdb2 973e 8eb1 e0bf b285 3d3f 5eb7 d2bf
00000070: fca7 ec3f 441e f53f 3c3b 243f fad9 cbbe
00000080: 7ca9 b13f 550b 6cbe b9ab b73f 1fbc 4bbf
00000090: e2be 9a3f 7ce4 45bf 1be3 d4be 0b33 343f
000000a0: 428b 393f d6cf 1340 eb1b 4cbf e092 433e
000000b0: 3e18 82be 7bad b6be 4b3f 54bf 7d8e 2dbf
000000c0: c73d 21be cbc9 353f dd89 103f 39c5 66bf
000000d0: d5d5 21bf 5c81 dc3f 9184 63bf 4e62 cbbe
000000e0: 4d7f 2cbf cc0d 883f 9a7d 01bf 7401 49bf
000000f0: 57cf 693d 552a a5bf 00ca 3c3e d85a 0fbf
00000100: 31ed 6dbd 58b7 c5be 6c07 8abf b0f7 c2bf
00000110: a757 0b40 6c15 dd3f 95bf 6a3e 609b 87bf
00000120: 3470 edbf 829a d83f 18c6 69bf 93e8 87bf
00000130: 14f2 5bbe b6c0 913e f2ba 89bd d649 cc3e
00000140: e68c d8bf d52a a33f d8fc 323f 2b84 473f
00000150: 72c6 7ebf 17f4 cbbe 75bf 913f b201 a2be
00000160: 5870 0e3f d607 313d 8b65 e3bf f6b2 f0bf
00000170: 5211 aa3f 0359 2ebe 4587 9fbf 8d89 4d3f
00000180: bc72 fc3e e3cc dfbf 0bcd a93e 4e1a 2bbf
00000190: 1940 263f ca13 b2be a022 763e d98a e4bf
000001a0: afb6 95bf f2ce 713f 6f28 cabd 5794 debe
000001b0: 6971 37bf bf7f 493f 85f8 44bf 3fb8 0b3e
000001c0: f2b4 aebf b812 053f 96cc 253e 2863 08bf
000001d0: d0c5 ee3f 024b ee3e 5c20 473f 58ea 2dbf
000001e0: 85df f7be 56f1 92be 02c3 d7bc 6e01 c13f
000001f0: 5cbc 2dbe fac0 54be 520a 2f3e 929c 533e

c0 f4 [128]
1.0216866 0.519915 2.2684364 0.8410402 0.057439476 -0.8678832 -0.3714075 0.40006444
0.962489 -0.013908425 0.20344977 -0.95287824 0.44475734 0.44522762 -0.2667111 0.5928388
1.7501928 -0.41130772 -0.78817254 0.29249993 1.3712999 1.3582374 1.7235723 1.9247675
-1.032961 -0.16039176 1.2996472 -0.587213 -1.1846113 1.1386063 -1.4690744 -1.0989133
0.40267637 -0.6407118 -2.0880995 -0.05982366 1.0404415 -0.37660858 -0.15188678 -0.6236381
-0.029404407 0.98773724 0.029838946 0.26418656 0.9132831 -0.5649951 -0.73421335 0.93502057
-0.43716896 -0.2557903 1.4216295 0.7135966 -0.6509584 -0.14978816 -1.0488181 -0.56625897
1.0035591 0.44594353 0.101159275 -0.9960385 0.8298718 -0.2424704 0.98429006 0.19605055
-1.5789192 -0.014725169 0.7505639 -1.7736742 -1.1331317 -1.4002423 -1.541349 -0.939049
-1.3199769 -0.036215156 0.65931284 -0.48097387 1.2622838 0.5376546 -1.3204052 -1.2695521
-1.0784007 0.8242745 1.2747273 -0.21521105 0.7551298 0.35306913 1.0796355 1.0556126
0.5894375 1.626018 2.3323128 -0.24212007 0.9716796 0.63999 0.4597366 1.0120281
-1.2080926 -0.44400913 0.5643934 -1.3051187 -0.6132031 -1.3856034 0.8495805 -0.4460762
1.501633 -0.37211937 -0.45042706 0.27852896 0.12223649 0.81985587 -1.4413593 0.3552789
0.60536945 0.50045896 -0.02911005 0.5211076 2.730746 -0.3259109 -0.55876 0.27446687
0.727878 -2.2290015 0.9134131 -0.9632297 1.385922 -0.94791186 1.226297 0.32187283
00000000: a0c6 823f 2619 053f 102e 1140 694e 573f
00000010: a845 6b3d 982d 5ebf 2029 bebe 3fd5 cc3e
00000020: ae65 763f 2ae0 63bc 2355 503e d4ef 73bf
00000030: 3cb7 e33e e0f4 e33e 5b8e 88be 49c4 173f
00000040: 5106 e03f ed96 d2be adc5 49bf 8dc2 953e
00000050: c186 af3f b9da ad3f 049e dc3f c85e f63f
00000060: 1138 84bf bd3d 24be d75a a63f 9753 16bf
00000070: 58a1 97bf dabd 913f a10a bcbf 31a9 8cbf
00000080: 992b ce3e b005 24bf 6ca3 05c0 a709 75bd
00000090: 302d 853f d7d2 c0be 3588 1bbe bfa6 1fbf
000000a0: 83e1 f0bc 59dc 7c3f ce70 f43c 7643 873e
000000b0: eccc 693f 85a3 10bf 68f5 3bbf 825d 6f3f
000000c0: 9cd4 dfbe f2f6 82be f5f7 b53f 44ae 363f
000000d0: 36a5 26bf 1162 19be ac3f 86bf 59f6 10bf
000000e0: a074 803f b652 e43e 982c cf3d 61fc 7ebf
000000f0: 7a72 543f 294a 78be 6ffa 7b3f 7ac1 483e
00000100: 061a cabf d641 71bc f524 403f c207 e3bf
00000110: 760a 91bf 243b b3bf ed4a c5bf 8465 70bf
00000120: 01f5 a8bf 5856 14bd bac8 283f 3542 f6be
00000130: 8492 a13f bba3 093f 0a03 a9bf af80 a2bf
00000140: 0909 8abf a703 533f 442a a33f 4960 5cbe
00000150: 3050 413f 7ac5 b43e 7f31 8a3f 501e 873f
00000160: 60e5 163f 5c21 d03f 9d44 1540 53ee 77be
00000170: ffbf 783f 62d6 233f 9862 eb3e 238a 813f
00000180: c7a2 9abf 2a55 e3be 167c 103f 210e a7bf
00000190: e1fa 1cbf 745b b1bf 1c7e 593f 1a64 e4be
000001a0: 8335 c03f 6e86 bebe 609e e6be 599b 8e3e
000001b0: 2057 fa3d 13e2 513f 767e b8bf 1ee7 b53e
000001c0: 7ef9 1a3f 141e 003f 3378 eebc 4f67 053f
000001d0: 8bc4 2e40 cbdd a6be e50a 0fbf ec86 8c3e
000001e0: 3656 3a3f f6a7 0ec0 71d5 693f 3996 76bf
000001f0: e465 b13f 5aaa 72bf 4df7 9c3f 84cc a43e

RNN.weight_ih_l0 f4 [512, 15]
0.023599926 0.36933956 0.17521426 -0.03807049 0.03574092 -0.28913933 0.09402887 0.009039775
0.11030741 -0.33599296 0.971416 -0.060481038 0.28039888 0.21091476 -0.040502504 0.1487675
0.8348497 -0.67543185 0.06315925 -0.06131713 0.28907117 0.04908005 0.08775125 0.1665935
0.15393558 -0.14606132 0.4246982 -0.17767064 -0.107431315 0.047214076 0.1436788 -0.1923042
0.25010142 -0.07417904 0.06459523 0.59759635 0.05506845 0.06540006 0.1558687 0.5818855
-0.09484234 -0.021361979 0.07457577 0.03083098 0.21999136 -0.051873434 -0.3039974 0.0023658941
0.08772514 -0.060135912 -0.41060436 -0.011875107 0.019559108 -0.21451862 -0.37117404 -0.41377133
0.009055739 0.16967517 0.089956366 0.044733636 -0.003658399 -0.083652176 -0.03600378 -0.07043523
0.024984755 0.10189472 0.072875775 -0.029599078 -0.18168207 -0.006335376 -0.48018414 0.3829285
0.04361939 0.019133924 0.0954285 -0.34965992 -0.17508048 -0.041620526 -0.029310308 -0.0038637891
0.18628411 -0.1842693 -0.05274398 -0.29792786 0.13605805 -0.013273055 -0.20565407 0.002581293
0.012755883 -0.32891384 0.09490951 -0.25255796 0.048869688 0.036367387 0.04750433 -0.13007222
0.17619196 0.051218443 -0.14577138 -0.10515209 -0.04739194 0.03533859 0.12931664 0.18220562
0.098532505 0.17979428 0.22042084 0.07206232 0.06679072 -0.044516303 0.05430735 0.0361156
-0.0008028969 0.17353837 0.28558207 0.3581052 0.17914304 -0.07992714 -0.028443146 0.063647136
-0.1504054 0.13447559 -0.40620458 0.016928323 0.08081458 0.3335074 -0.21412283 -0.062353153
-0.11668956 0.2706032 0.55876124 -0.45103368 -0.11299222 -0.029499156 -0.10120469 -0.2637725
0.08903235 0.16664252 -0.08228278 0.03763736 -0.41604474 -0.2595197 0.013765223 0.14642419
-0.98114645 0.42397508 -0.04245593 -0.28574687 -0.25502685 -0.15189156 0.25559226 -0.14250405
0.22426069 0.018010981 0.08798354 -0.13896064 0.2375742 0.023261182 -0.020819183 -0.25669286
0.14576772 -0.08552776 0.027704488 -0.033649683 0.2522471 -0.05386322 0.19086194 0.30138677
-0.07535276 0.037142493 -0.25308147 -0.010396217 -0.07063327 0.2414318 -0.32171375 -0.26491886
0.5222473 0.012488515 -0.119273186 -0.06630508 0.26377875 0.005305965 -0.20308524 0.030464135
-0.01567991 0.249284 0.14481461 -0.0087097585 -0.09267686 0.18478228 -0.1164193 0.05548669
0.20061246 0.21680598 0.19884256 -0.004140916 -0.61182135 0.40985486 0.007988207 0.076721154
-0.009783389 -0.066990346 0.065719165 -0.0895486 -0.14787976 -0.1688375 0.059634678 0.14246935
-0.06980009 -0.06148682 0.40971592 0.07085257 0.012097099 -0.028743181 0.07501853 0.70416504
0.43396637 0.058225863 -0.097053625 0.8719415 -0.14664675 -0.023671186 -0.06589268 -0.123820156
0.44018924 0.016921936 -0.311181 0.13475458 -0.073751375 0.070724584 -0.59089893 0.020709999
-0.049766406 0.024790816 -0.60047615 0.39987028 -0.46903333 -0.24749485 -0.08978814 0.0008191774
-0.19527395 -0.018437626 0.09677397 -0.07914114 -0.08786897 0.76359713 -0.1493615 0.061841927
0.23381165 0.6980562 -0.1725767 0.4274082 0.0997788 -0.06307424 -0.17460929 -0.030131076
00000000: a254 c13c 131a bd3e 5e6b 333e cdef 1bbd
00000010: 1265 123d 120a 94be 3592 c03d 901b 143c
00000020: dae8 e13d 4507 acbe b8ae 783f f7ba 77bd
00000030: 7190 8f3e 0afa 573e f4e5 25bd 8256 183e
00000040: b6b8 553f 1ae9 2cbf a359 813d ac27 7bbd
00000050: 2301 943e 2a08 493d edb6 b33d 7d97 2a3e
00000060: 4aa1 1d3e 1991 15be 0b72 d93e 4bef 35be
00000070: f304 dcbd 8c63 413d 8920 133e 64eb 44be
00000080: 4b0d 803e 2eeb 97bd 814a 843d 13fc 183f
00000090: 748f 613d 77f0 853d 0b9c 1f3e 73f6 143f
000000a0: b33c c2bd 51ff aebc 2ebb 983d 4091 fc3c
000000b0: 6a45 613e 3d79 54bd 8ca5 9bbe 1e0d 1b3b
000000c0: 3da9 b33d 1351 76bd bc3a d2be cf8f 42bc
000000d0: 6c3a a03c c5aa 5bbe 860a bebe d6d9 d3be
000000e0: 865e 143c 54bf 2d3e 0b3b b83d 9e3a 373d
000000f0: c0c1 6fbb d551 abbd b378 13bd 5940 90bd
00000100: d4ac cc3c 2eae d03d e53f 953d c479 f2bc
00000110: dd0a 3abe fc98 cfbb b2da f5be 340f c43e
00000120: 3faa 323d bfbe 9c3c 0470 c33d a006 b3be
00000130: 4c48 33be 497a 2abd 2c1c f0bc a037 7dbb
00000140: 43c1 3e3e 17b1 3cbe 120a 58bd 008a 98be
00000150: cd52 0b3e 3a77 59bc fb96 52be e92a 293b
00000160: 0dfe 503c 6567 a8be eb5f c23d 474f 81be
00000170: 952b 483d f8f5 143d e693 423d a731 05be
00000180: aa6b 343e 6eca 513d 1845 15be fb59 d7bd
00000190: 0d1e 42bd 33bf 103d 956b 043e 1c94 3a3e
000001a0: 69cb c93d fe1b 383e 00b6 613e 6995 933d
000001b0: 93c9 883d ba56 36bd 6271 5e3d f4ed 133d
000001c0: 8079 52ba 0bb4 313e d037 923e 9159 b73e
000001d0: 4671 373e d7b0 a3bd 9a01 e9bc 6e59 823d
000001e0: e003 1abe f8b3 093e 0cfa cfbe 44ad 8a3c
000001f0: 1d82 a53d 7bc1 aa3e 0443 5bbe 0566 7fbd
00000200: f0fa eebd 818c 8a3e fa0a 0f3f e3ed e6be
00000210: 7768 e7bd 37a8 f1bc 6844 cfbd 300d 87be
00000220: 9856 b63d 56a4 2a3e e083 a8bd a229 1a3d
00000230: d103 d5be c4df 84be 8887 613c 39f0 153e
00000240: 6a2c 7bbf 4313 d93e 45e6 2dbd 6a4d 92be
00000250: e192 82be 7689 1bbe fddc 823e 95ec 11be
00000260: 98a4 653e c48b 933c b730 b43d b34b 0ebe
00000270: a746 733e 3c8e be3c fe8c aabc 3f6d 83be
00000280: 2244 153e 2e29 afbd 86f4 e23c 40d4 09bd
00000290: 8826 813e ae9f 5cbd 5071 433e 5e4f 9a3e
000002a0: 8c52 9abd ba22 183d e593 81be e554 2abc
000002b0: 2da8 90bd e639 773e aab7 a4be 72a3 87be
000002c0: 00b2 053f a19c 4c3c 8045 f4bd f5ca 87bd
000002d0: 020e 873e a9dd ad3b 94f5 4fbe ec8f f93c
000002e0: 2873 80bc 4e44 7f3e 484a 143e 60b3 0ebc
000002f0: 5ecd bdbd 9137 3d3e 3e6d eebd 0346 633d
00000300: 5a6d 4d3e 6302 5e3e 629d 4b3e 85b0 87bb
00000310: 53a0 1cbf 7fd8 d13e f8e0 023c fb1f 9d3d
00000320: 824a 20bc 3c32 89bd c597 863d 4265 b7bd
00000330: cb6d 17be bde3 2cbe 7e43 743d 7ce3 113e
00000340: 59f3 8ebd 9bd9 7bbd 49c6 d13e 271b 913d
00000350: e932 463c d276 ebbc 51a3 993d 2944 343f
00000360: d730 de3e 3e7e 6e3d 0dc4 c6bd 8f37 5f3f
00000370: 912a 16be 13ea c1bc bef2 86bd 6c95 fdbd
00000380: 7c60 e13e df9f 8a3c 1e53 9fbe 1bfd 093e
00000390: f60a 97bd 0dd8 903d 2745 17bf 04a8 a93c
000003a0: dcd7 4bbd 1c16 cb3c ceb8 19bf ccbb cc3e
000003b0: 2325 f0be 4a6f 7dbe d8e2 b7bd 11be 563a
000003c0: e5f5 47be 810a 97bc 6e31 c63d c014 a2bd
000003d0: a6f4 b3bd 1a7b 433f 39f2 18be f64d 7d3d
000003e0: 526c 6f3e d0b3 323f f2b7 30be 3fd5 da3e
000003f0: d458 cc3d 112d 81bd c7cc 32be 72d5 f6bc

RNN.weight_hh_l0 f4 [512, 128]
0.54548305 0.19073884 -0.77501094 -0.046344284 0.088764705 0.092834175 0.035012987 0.09024508
-0.017625568 0.057149496 0.047488127 -0.48631504 -0.026557278 -0.11149848 0.0837769 0.31833768
0.0424949 -0.37893072 0.28989384 0.015452473 0.4367343 -0.07800237 0.2787773 0.52128017
0.10295241 -0.0022547112 -0.0998591 0.09471626 -0.03140883 0.630176 -0.12941371 0.20186661
0.13762705 0.22573175 0.10024859 0.04326742 0.03363066 0.0224536 -0.13071367 -0.045789532
0.21558887 0.066078804 -0.15515605 0.09994747 -0.0142241465 -0.12877233 -0.11809147 0.4228563
-0.19812065 -0.010177507 -0.05730396 -0.004322045 -0.08695952 0.26759067 0.38974488 0.100724116
0.36522704 -0.062060036 0.1141268 -0.18490487 -0.018280413 -0.2866197 0.06870036 -0.4384488
-0.14692554 -0.3482334 -0.13388999 -0.32641163 0.19964331 0.21741764 -0.06965614 -0.19216552
-0.43983644 0.44857 -0.15786876 0.11392191 0.22026016 0.09792189 0.4843271 0.23755507
-0.041439053 0.47744474 0.09982706 0.37958038 -0.40904802 -0.07170488 -0.069695234 0.17315605
-0.22871925 -0.043687966 -0.2601328 0.051456854 -0.1497927 -0.14610976 -0.104082935 0.35924408
0.021586994 -0.3595389 -0.35024953 -0.33196825 0.13089816 0.100126326 0.07893571 0.04569564
-0.18467931 -0.12243383 -0.00313131 -0.09050854 -0.078380264 -0.24119848 -0.112157114 -0.093728125
-0.29561797 0.100086294 -0.025025036 0.17249629 0.053927742 0.06724386 -0.084939495 -0.15105969
-0.05675722 0.15090233 -0.35707214 0.12264233 0.019614676 0.002509044 0.22083943 0.16689482
0.2709848 -0.3267609 -0.12403788 0.17638017 -0.2022336 -0.12502058 -0.06524774 0.025833456
0.22525048 -0.1610848 0.14811641 0.15270972 -0.14742991 -0.17039879 0.015799932 0.07459382
0.08096027 0.21693507 0.15480803 -0.05456849 0.1444661 0.007815657 0.26836905 -0.053057615
0.13015392 -0.15373679 -0.23456557 0.13269952 -0.088870525 -0.16639669 -0.13399406 -0.0053636846
0.29194266 -0.03936669 -0.23514634 0.11109353 -0.16856691 -0.16663192 -0.009830003 -0.009012206
-0.096984036 0.06890363 0.1897865 0.081565514 -0.035243496 0.03962956 -0.15102796 0.13274656
0.06682737 0.27291042 0.014709948 0.07817328 0.18533447 0.22554629 -0.29380378 -0.10830837
-0.050518893 0.11016328 -0.17462344 -0.1457545 -0.22117457 -0.07142705 0.23432799 -0.18363585
0.11832336 -0.04093508 -0.10759502 -0.26517016 -0.0971113 -0.11823466 -0.105268255 -0.15092966
-0.100993745 0.092763156 -0.06082141 0.123697326 -0.1906204 0.12653436 -0.09739587 0.13281463
0.07232001 -0.26298022 0.29971266 -0.0012292754 -0.1662319 -0.02745141 0.24970073 0.1080016
0.3315469 -0.103354335 0.02422186 -0.1895861 0.11866802 -0.057391845 0.15102477 0.140362
-0.139635 0.086101614 -0.08252057 -0.11865334 0.21964867 -0.21836382 -0.05179001 -0.07090594
0.14834963 -0.08647266 0.026919838 0.124484286 0.096470445 -0.17054385 -0.11020649 -0.04074616
-0.218841 0.20924811 0.031194232 -0.13254175 -0.10535947 0.10332947 0.295504 0.16937105
0.17673403 0.050077032 -0.13241348 0.042066183 0.14519991 -0.17951152 0.013446948 0.06081533
00000000: c7a4 0b3f 0b51 433e 1e67 46bf 81d3 3dbd
00000010: 45ca b53d d81f be3d c769 0f3d 6ad2 b83d
00000020: 7f63 90bc 9715 6a3d e982 423d 49fe f8be
00000030: a68e d9bc 5159 e4bd 3993 ab3d 28fd a23e
00000040: 220f 2e3d 3503 c2be f76c 943e 5f2c 7d3c
00000050: a39b df3e b5bf 9fbd e6bb 8e3e 9e72 053f
00000060: b7d8 d23d c7c3 13bb ee82 ccbd 99fa c13d
00000070: 8ca6 00bd 3753 213f 0785 04be 1fb6 4e3e
00000080: 1bee 0c3e 3926 673e 224f cd3d 2e39 313d
00000090: 4ec0 093d 9df0 b73c ced9 05be ce8d 3bbd
000000a0: 54c3 5c3e 5354 873d 3ae1 1ebe 42b1 cc3d
000000b0: 650c 69bc e5dc 03be f1d9 f1bd 9f80 d83e
000000c0: 24e0 4abe 8fbf 26bc 8fb7 6abd f19f 8dbb
000000d0: d517 b2bd a501 893e a48c c73e 7248 ce3d
000000e0: 0aff ba3e aa32 7ebd 50bb e93d b457 3dbe
000000f0: cec0 95bc d1bf 92be c6b2 8c3d 5c7c e0be
00000100: a673 16be a64b b2be 751a 09be 6d1f a7be
00000110: 4c6f 4c3e bba2 5e3e e1a7 8ebd 0ac7 44be
00000120: 3e32 e1be f8aa e53e 59a8 21be e44f e93d
00000130: e18b 613e 468b c83d b9f9 f73e a341 733e
00000140: ffbb 29bd a373 f43e 2172 cc3d 5c58 c23e
00000150: be6e d1be 02da 92bd 60bc 8ebd d24f 313e
00000160: 6135 6abe 27f2 32bd 2030 85be 6cc4 523d
00000170: 4263 19be cc9d 15be 6f29 d5bd d7ee b73e
00000180: 35d7 b03c 7c15 b8be e853 b3be bef7 a9be
00000190: 2b0a 063e 080f cd3d 0ca9 a13d 5a2b 3b3d
000001a0: 931c 3dbe 96be fabd aa36 4dbb 8b5c b9bd
000001b0: d585 a0bd bcfc 76be a1b2 e5bd 88f4 bfbd
000001c0: 3d5b 97be 0bfa cc3d 4e01 cdbc dea2 303e
000001d0: 56e3 5c3d 26b7 893d c2f4 adbd 64af 1abe
000001e0: 427a 68bd 2486 1a3e 29d2 b6be e72b fb3d
000001f0: f5ae a03c c66e 243b bb23 623e 7ae6 2a3e
00000200: 85be 8a3e 344d a7be 9207 febd 019d 343e
00000210: 5316 4fbe 6505 00be 9ba0 85bd afa0 d33c
00000220: 10a8 663e 6af3 24be d4ab 173e f05f 1c3e
00000230: def7 16be 057d 2ebe dc6e 813c a5c4 983d
00000240: 7fce a53d 3a24 5e3e ff85 1e3e 3583 5fbd
00000250: ecee 133e 3e0d 003c ab67 893e f152 59bd
00000260: 1247 053e 2d6d 1dbe f531 70be 62e2 073e
00000270: c001 b6bd e563 2abe bd35 09be d9c1 afbb
00000280: 8279 953e f73e 21bd 34ca 70be 0185 e33d
00000290: ce9c 2cbe 8fa1 2abe 050e 21bc efa7 13bc
000002a0: 919f c6bd 591d 8d3d 6457 423e d20b a73d
000002b0: 7c5b 10bd 9b52 223d 13a7 1abe b7ee 073e
000002c0: cadc 883d eaba 8b3e fe01 713c 5019 a03d
000002d0: 52c8 3d3e 9bf5 663e 736d 96be c7d0 ddbd
000002e0: e6ec 4ebd 499d e13d 7dd0 32be ab40 15be
000002f0: 967b 62be 5848 92bd adf3 6f3e 090b 3cbe
00000300: 8553 f23d 8bab 27bd c75a dcbd 62c4 87be
00000310: 4ae2 c6bd 0325 f2bd e296 d7bd 4e8d 1abe
00000320: cfd5 cebd 9cfa bd3d df1f 79bd 0655 fd3d
00000330: fe31 43be 3992 013e 7c77 c7bd 8f00 083e
00000340: 831c 943d 58a5 86be f073 993e a31f a1ba
00000350: b238 2abe c8e1 e0bc 8cb1 7f3e f12f dd3d
00000360: 84c0 a93e 70ab d3bd ec6c c63c dc22 42be
00000370: 3808 f33d b613 6bbd 3da6 1a3e 0ebb 0f3e
00000380: 7afc 0ebe 0b56 b03d 8b00 a9bd 8600 f3bd
00000390: 95eb 603e c49a 5fbe c321 54bd 2237 91bd
000003a0: f7e8 173e 9418 b1bd fe86 dc3c 9ef1 fe3d
000003b0: 4c92 c53d 0ca3 2ebe f1b3 e1bd 72e5 26bd
000003c0: db17 60be 2345 563e 0c8b ff3c 06b9 07be
000003d0: b5c6 d7bd 679e d33d 4d4c 973e 9b6f 2d3e
000003e0: c4f9 343e 931d 4d3d 6697 07be 974d 2c3d
000003f0: 49af 143e ded1 37be 9650 5c3c 7f19 793d

RNN.bias_ih_l0 f4 [512]
0.009705068 0.05940715 -0.035330236 -0.17198269 -0.060952872 -0.14397956 0.081667736 0.16450605
-0.28589946 0.13414462 0.15400553 0.18118599 0.19631335 -0.23601498 0.012708419 0.05348465
-0.030525608 0.07368771 -0.040513624 0.23051426 -0.19204906 -0.17794071 0.12217157 0.018306576
0.22163783 0.09948181 -0.33330345 0.2993028 0.24047713 0.088275544 -0.090939626 0.1399655
-0.25489527 -0.18972152 -0.091921374 0.0051878276 0.21949966 -0.041808758 0.21467793 0.017139824
-0.14692335 0.16753955 -0.032297555 0.24675773 -0.12331766 0.17911465 -0.029987458 -0.13139336
0.032015707 0.48929045 -0.043199476 0.29843706 -0.01317212 -0.3442955 0.15110241 0.2610547
-0.0630434 -0.07369713 0.03864885 0.19226761 -0.11878477 -0.2291111 0.5006063 -0.009318778
-0.060000323 -0.12524757 -0.17643695 -0.20688325 0.049935237 0.029250288 0.30979857 -0.20855318
-0.015409498 -0.0131236715 0.16246533 0.17710282 -0.18795429 0.30500296 0.36131376 -0.09494464
0.07613415 0.07050662 -0.2208913 -0.0018426577 -0.2760079 0.4002655 0.073704265 -0.005270974
-0.07034417 0.47713664 0.10727486 0.05121716 -0.16134574 0.07042639 -0.2644676 0.2701684
-0.4766847 0.024035366 -0.0042986195 -0.20567332 0.42746258 -0.084953815 -0.07476152 -0.024530755
-0.23410003 0.043492083 -0.06969529 0.038990505 -0.088411584 0.25517535 0.31818798 -0.24580063
-0.118877724 -0.26708108 -0.07049281 -0.45393762 -0.18057998 0.5550782 -0.42370182 0.10278317
0.49225074 0.011418493 -0.27151152 0.06291745 -0.13692483 0.28258532 -0.08179915 0.10733784
-0.27387106 -0.23222533 -0.027592847 -0.16853575 0.039680533 0.11822225 -0.21629386 0.27047196
-0.20216203 -0.27597684 -0.015321845 -0.023636846 -0.39260298 -0.02135605 0.02263877 -0.1603364
-0.11739141 0.07409014 -0.24143778 0.39228165 -0.022980902 0.14477587 -0.08275827 -0.07322171
-0.05322412 -0.01488855 0.057401944 -0.11553468 0.020621339 0.12240902 0.15332127 0.034497492
-0.31213692 -0.15010574 -0.10425711 -0.24210986 -0.29740554 -0.22280736 -0.19434483 0.13930587
-0.01335902 0.24604927 -0.15284376 0.14927839 0.04275047 -0.23483402 -0.21905684 -0.2692588
-0.17281678 -0.46595702 -0.21479791 -0.19264573 -0.16969946 -0.24612132 0.07925311 -0.28481656
-0.054555383 -0.46659234 0.21675353 -0.12575647 -0.1703803 0.030769 -0.2830968 -0.13049363
-0.13554831 0.04131617 -0.06670351 -0.070487596 -0.13615564 -0.21584035 0.35051882 0.115499735
-0.11450959 -0.27887017 0.25659254 0.15302481 -0.17046748 0.19859515 0.08581841 -0.20025203
-0.17657737 -0.0029673139 0.11617963 -0.04623061 -0.021687966 -0.20958199 0.014708567 -0.17997856
0.03659858 -0.36004323 -0.105645694 -0.17512317 0.2609792 0.13477844 -0.19217023 -0.22419773
0.19059744 -0.18136677 -0.11404802 -0.16251814 -0.2459901 0.067441 0.09275775 -0.10438729
0.48255774 -0.2892507 -0.006264434 0.16971649 -0.25206885 -0.20929779 -0.17230424 -0.078207254
-0.39329287 -0.29534322 -0.082233794 0.30815807 -0.024965093 -0.060338806 0.25617546 -0.10886963
-0.47254205 -0.08098546 -0.00046115404 -0.11314271 0.1906569 -0.2797398 -0.20261645 -0.5418125
00000000: 0102 1f3c e954 733d 70b6 10bd 3b1c 30be
00000010: b8a9 79bd 616f 13be 6a41 a73d 4674 283e
00000020: 6a61 92be 355d 093e a0b3 1d3e d288 393e
00000030: 5e06 493e e9ad 71be f936 503c b812 5b3d
00000040: d710 fabc 95e9 963d 9df1 25bd ee0b 6c3e
00000050: 82a8 44be 1736 36be 1735 fa3d acf7 953c
00000060: 07f5 623e 1fbd cb3d c0a6 aabe 373e 993e
00000070: a33f 763e cfc9 b43d 8e3e babd 1e53 0f3e
00000080: a281 82be 5c46 42be 4641 bcbd a7fe a93b
00000090: 85c4 603e a93f 2bbd 88d4 5b3e d168 8c3c
000000a0: 1373 16be 7d8f 2b3e 714a 04bd 0fae 7c3e
000000b0: f88d fcbd d569 373e 42a8 f5bc fb8b 06be
000000c0: e722 033d 4784 fa3e eff1 30bd becc 983e
000000d0: e0cf 57bc 8047 b0be 97ba 1a3e f6a8 853e
000000e0: e61c 81bd 85ee 96bd 424e 1e3d cde1 443e
000000f0: 6e45 f3bd 1a9c 6abe bc27 003f caad 18bc
00000100: e6c2 75bd e640 00be e3ab 34be 34d9 53be
00000110: e488 4c3d 4d9e ef3c eb9d 9e3e f78e 55be
00000120: 1e78 7cbc ab04 57bc 505d 263e 715a 353e
00000130: 1777 40be 5929 9c3e 1efe b83e 5672 c2bd
00000140: 39ec 9b3d c665 903d 5431 62be 5585 f1ba
00000150: e850 8dbe 9aef cc3e 43f2 963d 22b8 acbb
00000160: 9b10 90bd 414b f43e ecb2 db3d 16c9 513d
00000170: d137 25be b63b 903d 4c68 87be 8353 8a3e
00000180: 0410 f4be d1e5 c43c 6fdb 8cbb 079c 52be
00000190: 60dc da3e 44fc adbd 911c 99bd b9f4 c8bc
000001a0: ebb7 6fbe c124 323d 67bc 8ebd 82b4 1f3d
000001b0: 2211 b5bd 58a6 823e 89e9 a23e 29b3 7bbe
000001c0: 2a76 f3bd dabe 88be 895e 90bd 836a e8be
000001d0: f5e9 38be 9b19 0e3f 72ef d8be fc7f d23d
000001e0: 4a08 fc3e a214 3b3c 8f03 8bbe ddda 803d
000001f0: 0636 0cbe 06af 903e 5086 a7bd f1d3 db3d
00000200: d438 8cbe 7acc 6dbe 650a e2bc a394 2cbe
00000210: 0e88 223d 821e f23d 237c 5dbe 4d7b 8a3e
00000220: 9003 4fbe d64c 8dbe 7a08 7bbc 0fa2 c1bc
00000230: 4203 c9be e2f2 aebc f174 b93c 3a2f 24be
00000240: e86a f0bd 92bc 973d 773b 77be 24d9 c83e
00000250: 7242 bcbc 2040 143e 2b7d a9bd 44f5 95bd
00000260: 8901 5abd 1bef 73bc 4d1e 6b3d 729d ecbd
00000270: 15ee a83c 95b1 fa3d 4000 1d3e 3e4d 0d3d
00000280: 69d0 9fbe 52b5 19be c084 d5bd a6eb 77be
00000290: 8a45 98be 9d27 64be 5502 47be 33a6 0e3e
000002a0: cbdf 5abc 57f4 7b3e 1383 1cbe 6fdc 183e
000002b0: 1e1b 2f3d 5478 70be 7050 60be 4adc 89be
000002c0: e2f6 30be eb91 eebe fcf3 5bbe ec44 45be
000002d0: b2c5 2dbe 3a07 7cbe 744f a23d 7ad3 91be
000002e0: 7775 5fbd 31e5 eebe a3f4 5d3e 4ec6 00be
000002f0: 2c78 2ebe 450f fc3c 10f2 90be 1fa0 05be
00000300: 2dcd 0abe 253b 293d da9b 88bd cd5b 90bd
00000310: 626c 0bbe 4105 5dbe 3477 b33e 208b ec3d
00000320: 0184 eabd 12c8 8ebe 1960 833e 89b2 1c3e
00000330: 078f 2ebe 875c 4b3e 90c1 af3d de0e 4dbe
00000340: b3d0 34be 4477 42bb 96ef ed3d 4f5c 3dbd
00000350: f6aa b1bc a99c 56be 34fc 703c 4d4c 38be
00000360: 65e8 153d 9657 b8be c55c d8bd 7d53 33be
00000370: 119f 853e 5c03 0a3e 46c8 44be 1794 65be
00000380: fa2b 433e 36b8 39be 0292 e9bd 286b 26be
00000390: d4e4 7bbe 821e 8a3d c6f7 bd3d 01c9 d5bd
000003a0: cf11 f73e ab18 94be e245 cdbb 29ca 2d3e
000003b0: 2b0f 81be 2952 56be 8670 30be 202b a0bd
000003c0: af5d c9be 3a37 97be 316a a8bd e5c6 9d3e
000003d0: 9883 ccbc d325 77bd 6e29 833e 0af7 debd
000003e0: 08f1 f1be b4db a5bd 0cc7 f1b9 5db7 e7bd
000003f0: 903b 433e 0e3a 8fbe b07a 4fbe 39b4 0abf

RNN.bias_hh_l0 f4 [512]
0.10125817 0.07171279 0.02528812 -0.12550078 -0.06339965 -0.21284972 0.06760769 0.3227507
-0.24463432 0.2009747 0.17678738 0.14350978 0.27475128 -0.21841402 0.017053785 0.035885107
-0.09337501 -0.040309377 -0.073182486 0.20505327 -0.20228572 -0.1331105 0.105304874 -0.10488294
0.104966775 0.19658549 -0.20492 0.1692699 0.12086616 0.053936385 -0.18241394 0.21313024
-0.26953292 -0.12155244 -0.021756338 -0.1599602 0.20167367 -0.05958701 0.20262712 0.10065324
-0.22167455 0.2181504 -0.07520941 0.22420219 -0.063983545 0.1464172 0.0006559362 -0.11833939
-0.05919054 0.5194407 -0.08894524 0.3140905 0.039819743 -0.30544147 0.09724404 0.31648427
-0.11566004 -0.05986581 -0.057919133 0.2746653 -0.083443165 -0.26833096 0.5096516 -0.047956917
-0.21096973 -0.2366319 -0.072195575 -0.18029852 0.16656436 -0.043697763 0.3233588 -0.09729472
-0.11344662 -0.023397876 0.27691424 0.34438962 -0.16726232 0.32425508 0.27730647 -0.19921452
0.056194305 0.11945889 -0.15382782 0.016284466 -0.2058077 0.28029197 0.20084423 -0.1086134
-0.08021001 0.4951253 0.056030516 -0.051379994 -0.13035612 0.045502834 -0.12144411 0.31386665
-0.40925443 0.08107188 -0.042247582 -0.23309018 0.471814 -0.0961787 -0.1438916 -0.13067754
-0.23558924 0.18192235 -0.06297514 -0.022974472 -0.096123576 0.228082 0.31184444 -0.29966775
-0.15490301 -0.20144409 -0.12081439 -0.4402401 -0.2065594 0.48054883 -0.41229376 0.15894611
0.3887367 -0.0052189645 -0.28470394 0.018062606 -0.13525087 0.26241636 -0.010861516 0.10915316
-0.26574457 -0.18587092 0.025021499 -0.22044653 0.09802145 0.16454361 -0.2460032 0.30312988
-0.07041951 -0.30464497 0.0534464 -0.009610033 -0.30619907 -0.050995413 0.06651295 -0.26492912
-0.19708017 0.014082992 -0.20360665 0.39944687 -0.019056335 0.11345702 -0.12777904 -0.21941246
-0.1833848 0.027403275 -0.012115547 -0.0891269 0.0041369237 -0.017466538 0.1286684 0.06594454
-0.36722645 -0.12694336 -0.09759459 -0.2781582 -0.25814563 -0.20128056 -0.17786534 0.10165937
-0.077480316 0.31413582 -0.18165421 0.12107775 0.05165095 -0.25239545 -0.22010368 -0.1590237
-0.07036763 -0.55579114 -0.11451858 -0.1373521 -0.12640043 -0.24012248 0.101029366 -0.33525378
-0.08668366 -0.5083409 0.21740049 -0.19803916 -0.17134807 -0.024613595 -0.22130284 -0.18591364
-0.13624713 0.04202017 -0.037052467 -0.08764146 -0.17715113 -0.14503738 0.33964962 0.08653882
-0.18069823 -0.38888475 0.32461318 0.044769004 -0.08091815 0.11160267 0.08510959 -0.14903292
-0.146907 0.14533614 0.11576858 -0.12610435 0.06911547 -0.372974 0.0068322113 -0.21720125
-0.061192635 -0.45397872 -0.034066282 -0.16288726 0.2037006 0.050230894 -0.22517699 -0.120225556
0.20720726 -0.115301624 -0.16572523 -0.11994983 -0.2864388 0.0021293599 0.15482435 -0.09093092
0.43344095 -0.32349345 -0.08659598 0.25682184 -0.23143171 -0.22832316 -0.33478427 -0.016072668
-0.45357034 -0.29593083 -0.075208634 0.16642652 0.07903683 0.03486824 0.090451814 -0.0013491515
-0.5631892 -0.034273077 -0.10133639 0.027430259 0.13905738 -0.2692978 -0.19147454 -0.45341516
00000000: 7260 cf3d 28de 923d 0829 cf3c 4783 00be
00000010: add7 81bd 47f5 59be e775 8a3d 943f a53e
00000020: 6b81 7abe 50cc 4d3e c007 353e 3af4 123e
00000030: 33ac 8c3e eda7 5fbe 61b4 8b3c 43fc 123d
00000040: 663b bfbd 721b 25bd b3e0 95bd 7cf9 513e
00000050: fd23 4fbe 1e4e 08be 15aa d73d decc d6bd
00000060: d2f8 d63d b54d 493e 8cd6 51be 1755 2d3e
00000070: ad88 f73d 66ec 5c3d b8ca 3abe d03e 5a3e
00000080: 3800 8abe 7cf0 f8bd 593a b2bc 9bcc 23be
00000090: 8b83 4e3e 8211 74bd 7c7d 4f3e 4923 ce3d
000000a0: a7fe 62be d262 5f3e 6407 9abd 4295 653e
000000b0: ce09 83bd 64ee 153e 22f3 2b3a ec5b f2bd
000000c0: c871 72bd 11fa 043f ec28 b6bd 78d0 a03e
000000d0: 071a 233d d362 9cbe e227 c73d 3a0a a23e
000000e0: 2cdf ecbd da35 75bd 9d3c 6dbd eea0 8c3e
000000f0: 40e4 aabd ad62 89be 8778 023f 796e 44bd
00000100: 7308 58be a24f 72be 46db 93bd 2da0 38be
00000110: d98f 2a3e 6dfc 32bd 498f a53e 7442 c7bd
00000120: b456 e8bd e7ac bfbc b4c7 8d3e d653 b03e
00000130: d046 2bbe c304 a63e 1dfb 8d3e e4fe 4bbe
00000140: 002c 663d dda6 f43d 0a85 1dbe 0067 853c
00000150: 41bf 52be 6e82 8f3e 1caa 4d3e b470 debd
00000160: 2545 a4bd 1081 fd3e 4180 653d d473 52bd
00000170: 137c 05be 2e61 3a3d b1b7 f8bd 21b3 a03e
00000180: cc89 d1be 0409 a63d cd0b 2dbd 31af 6ebe
00000190: 9b91 f13e 57f9 c4bd 5258 13be 55d0 05be
000001a0: 4e3e 71be da49 3a3e 1cf9 80bd f634 bcbc
000001b0: 70dc c4bd 548e 693e 13aa 9f3e 0d6e 99be
000001c0: e59e 1ebe 5c47 4ebe 896d f7bd 2667 e1be
000001d0: 4f84 53be 7f0a f63e 2b18 d3be c5c2 223e
000001e0: 7f08 c73e d903 abbb b7c4 91be 08f8 933c
000001f0: 347f 0abe 705b 863e 80f4 31bc b18b df3d
00000200: ac0f 88be f254 3ebe e3f9 cc3c bcbc 61be
00000210: 78bf c83d 1f7e 283e 43e8 7bbe d733 9b3e
00000220: 1b38 90bd 6dfa 9bbe 9dea 5a3d 6673 1dbc
00000230: 20c6 9cbe 91e0 50bd f137 883d caa4 87be
00000240: 62cf 49be 5abc 663c 437e 50be 4d84 cc3e
00000250: 081c 9cbc 275c e83d 82d8 02be a9ad 60be
00000260: 3ac9 3bbe d57c e03c 4a80 46bc 2a88 b6bd
00000270: 088f 873b fc15 8fbc a6c1 033e ee0d 873d
00000280: 1b05 bcbe 71fd 01be acdf c7bd c06a 8ebe
00000290: aa2b 84be 7e1c 4ebe 5522 36be ca32 d03d
000002a0: 00ae 9ebd 69d6 a03e 9003 3abe 9df7 f73d
000002b0: f28f 533d fa39 81be dc62 61be 1cd7 22be
000002c0: e71c 90bd 5448 0ebf b888 eabd 07a6 0cbe
000002d0: 1d6f 01be abe2 75be 7ce8 ce3d 62a6 abbe
000002e0: 3487 b1bd a122 02bf 3c9e 5e3e c7ca 4abe
000002f0: de75 2fbe 73a2 c9bc 369d 62be 2560 3ebe
00000300: 5e84 0bbe 571d 2c3d 54c4 17bd 5e7d b3bd
00000310: 1b67 35be ae84 14be 8ee6 ad3e 443b b13d
00000320: f508 39be e71b c7be b333 a63e b45f 373d
00000330: 6ab8 a5bd f18f e43d f04d ae3d 169c 18be
00000340: ca6e 16be ffd2 143e 1418 ed3d 8021 01be
00000350: 698c 8d3d 73f6 bebe bee0 df3b 016a 5ebe
00000360: 21a5 7abd e66f e8be 1689 0bbd ebcb 26be
00000370: e496 503e e9be 4d3d cc94 66be d138 f6bd
00000380: 242e 543e 4223 ecbd e0b3 29be 42a8 f5bd
00000390: 1ba8 92be bb8c 0b3b 468a 1e3e fd39 babd
000003a0: f9eb dd3e efa0 a5be 3c59 b1bd 277e 833e
000003b0: 6ffc 6cbe 8ccd 69be d868 abbe d4aa 83bc
000003c0: 5f3a e8be 3f84 97be fc06 9abd b76b 2a3e
000003d0: 10de a13d 00d2 0e3d cd3e b93d 03d6 b0ba
000003e0: 2b2d 10bf ed61 0cbd 7489 cfbd 6cb5 e03c
000003f0: 0f65 0e3e 67e1 89be e711 44be 0826 e8be

actor.weight f4 [5, 128]
0.3542855 -0.18581288 -0.8371095 -0.4032111 0.6550329 -0.19470681 0.43031877 0.17159356
-0.52860755 -0.33911934 -0.3084635 -0.57207227 -0.4252357 -0.27449426 0.6923521 0.4428013
-0.5406483 -1.4564638 0.37098938 -0.22426501 0.50212467 -0.41210344 0.18732616 0.29316664
0.44078448 -0.122467846 -0.45390487 0.42832094 -0.4943056 1.0898644 0.23502181 0.62630045
-0.30152044 0.39601827 0.07988563 0.475172 0.30985224 0.47822422 -0.6828523 -0.2951615
-0.12975027 0.096509546 -0.55814904 0.5167958 -0.5309715 -0.5429675 0.40316495 0.50317985
-0.7174785 -0.6052783 0.29406705 0.43004528 -0.59041506 0.07128621 1.034258 0.62515706
0.3370867 -0.0027417273 -0.26871294 -0.19564669 0.30366963 -0.35578442 -0.9275026 -0.2307137
-0.5207301 -0.0010664981 -0.13996089 -0.33718768 -0.5741568 0.21779303 -0.006414898 -0.41775152
0.0002970066 0.15303943 -0.014423481 0.5323813 0.15857089 0.56407386 0.122701705 0.38978115
0.5896795 1.2122867 0.41350427 0.41173887 -0.20126918 -0.5662122 -0.7304763 0.4228879
-1.18787 0.6006271 -0.89017516 0.06842436 0.21421438 -0.15082134 -0.18595892 -0.2634795
-0.20158616 -0.45453933 -0.841815 -0.14090721 -0.5295023 0.37618655 -0.44941223 0.2381397
0.18111534 -0.4678142 -0.017014097 -0.018501824 -0.67606974 -0.43347675 0.46588248 0.1351263
-0.3463113 0.37547556 0.012972936 0.08567677 -0.13325405 0.5376125 0.06798573 -0.6736034
-0.63682485 -0.13268225 0.032715555 0.7622923 0.07039995 0.57114863 -0.023183137 0.56530935
0.33700576 -0.32208192 0.6790014 0.504768 -0.7408697 -0.3162583 0.22915027 -0.036060594
-0.290358 0.38587135 -0.002789539 0.6348704 -0.3525912 -0.2755338 -0.55631346 -0.24992488
0.10485696 1.4332238 0.24028061 -0.060826696 0.28823036 -0.42398056 0.1659006 -0.14223002
0.339054 -0.72489464 0.053221986 -0.8110663 -0.31714824 -0.89000684 0.5166147 -0.22314978
-0.08519164 -0.23131487 -0.06443853 0.31468552 0.47216123 0.0837701 -0.5178469 -0.1551415
-0.12765636 0.17367294 0.22054033 0.50282747 -0.2616925 -0.6619101 0.36357486 -0.21883929
0.6321525 -0.6401394 0.598452 0.4652576 0.34298354 0.09821586 -0.96565807 0.3824172
-0.014229187 -0.003447804 -0.24196096 -0.34464303 -0.11810813 0.095876135 0.07686329 -0.19496146
0.11688372 -0.16780022 0.16367503 0.20343426 0.051722474 -0.22775987 -0.056291893 0.45508873
-0.2640884 -0.17020324 0.045673333 -0.048114024 -0.535186 0.2886199 -0.083732896 0.30086297
0.14187838 -1.2997723 -0.42129785 -0.35455135 -0.33614463 -0.54838365 -0.4663658 0.33850953
1.0702646 0.59862685 1.0006295 -0.5858462 0.45462942 -0.33464903 0.29618752 -0.50968117
0.15704505 0.13281073 0.5450789 -0.061101586 -0.49906796 -0.12079798 -0.48309612 -0.4666801
0.28005645 -0.4239496 -0.2910103 0.11735511 0.5028447 0.975271 0.5048624 0.14010379
-0.23328067 -0.1759515 0.21193163 -0.03457534 0.12873363 0.30398807 0.13586788 0.35415518
-0.63682306 0.22269034 -0.11573217 -0.4486963 0.10098543 0.5273626 0.0984039 0.3393416
00000000: e964 b53e bb45 3ebe cf4c 56bf af71 cebe
00000010: 3cb0 273f 3961 47be be52 dc3e 39b6 2f3e
00000020: d352 07bf 0da1 adbe eeee 9dbe 5473 12bf
00000030: 7eb8 d9be 838a 8cbe fd3d 313f dab6 e23e
00000040: ed67 0abf 686d babf 52f2 bd3e baa5 65be
00000050: 3e8b 003f 39ff d2be 6ed2 3f3e f019 963e
00000060: 81ae e13e 6cd0 fabd 3866 e8be e24c db3e
00000070: a015 fdbe ad80 8b3f 8fa9 703e 3a55 203f
00000080: e360 9abe e8c2 ca3e 149b a33d bf49 f33e
00000090: f4a4 9e3e ced9 f43e 69cf 2ebf 681f 97be
000000a0: 41dd 04be cca6 c53d dbe2 0ebf bb4c 043f
000000b0: c0ed 07bf ebff 0abf a36b ce3e 65d0 003f
000000c0: acac 37bf 85f3 1abf f58f 963e e52e dc3e
000000d0: 7125 17bf 81fe 913d 9162 843f 4b0a 203f
000000e0: a196 ac3e 8dae 33bb be94 89be 9b57 48be
000000f0: 967a 9b3e 6029 b6be cf70 6dbf 3640 6cbe
00000100: 914e 05bf bdc9 8bba e851 0fbe dda3 acbe
00000110: f1fb 12bf 2305 5f3e 1134 d2bb 87e3 d5be
00000120: 8db7 9b39 5eb6 1c3e 7750 6cbc 244a 083f
00000130: 6860 223e 2567 103f 084b fb3d 6591 c73e
00000140: 3cf5 163f 362c 9b3f d5b6 d33e 70cf d23e
00000150: 8219 4ebe 48f3 10bf 7f00 3bbf c384 d83e
00000160: 200c 98bf b3c2 193f 85e2 63bf 1222 8c3d
00000170: 045b 5b3e e970 1abe 046c 3ebe c9e6 86be
00000180: 9a6c 4ebe 61b9 e8be 3081 57bf fb49 10be
00000190: 768d 07bf 869b c03e 5c19 e6be e5da 733e
000001a0: 4d76 393e 5885 efbe 2661 8bbc 2391 97bc
000001b0: e812 2dbf aaf0 ddbe 2688 ee3e 8c5e 0a3e
000001c0: b74f b1be 553e c03e 708c 543c 4d77 af3d
000001d0: c073 08be f9a0 093f 1a3c 8b3d 4671 2cbf
000001e0: f406 23bf dbdd 07be bf00 063d 9725 433f
000001f0: d92d 903d cc36 123f 90ea bdbc 1db8 103f
00000200: 058c ac3e ece7 a4be 09d3 2d3f 7a38 013f
00000210: a3a9 3dbf 9cec a1be 5ea6 6a3e 46b4 13bd
00000220: cea9 94be ee90 c53e b3d0 36bb de86 223f
00000230: d586 b4be c412 8dbe 8f6a 0ebf 4fec 7fbe
00000240: 3fbf d63d e173 b73f 1f0c 763e 6a25 79bd
00000250: ee92 933e fb13 d9be d9e1 293e bfa4 11be
00000260: 7c98 ad3e b292 39bf 4cff 593d 0ba2 4fbf
00000270: 4161 a2be 7dd7 63bf dc40 043f 6081 64be
00000280: f478 aebd cedd 6cbe 59f8 83bd 761e a13e
00000290: 1ebf f13e a88f ab3d 9d91 04bf 6add 1ebe
000002a0: 59b8 02be 52d7 313e 53d5 613e 4db9 003f
000002b0: 8ffc 85be f172 29bf 7c26 ba3e 6817 60be
000002c0: bfd4 213f 2de0 23bf 2634 193f 3f36 ee3e
000002d0: 8a9b af3e 6625 c93d 5e35 77bf 30cc c33e
000002e0: 8921 69bc 8df4 61bb 9dc4 77be 0d75 b0be
000002f0: ade2 f1bd b55a c43d 806a 9d3d faa3 47be
00000300: bb60 ef3d d2d3 2bbe 6d9a 273e 1251 503e
00000310: f2da 533d e239 69be 5492 66bd 6401 e93e
00000320: 9836 87be c249 2ebe f613 3b3d 3613 45bd
00000330: f301 09bf fdc5 933e 277c abbd b60a 9a3e
00000340: 9148 113e f05e a6bf 5ab4 d7be c187 b5be
00000350: 261b acbe df62 0cbf 80c7 eebe 1f51 ad3e
00000360: 6efe 883f 9c3f 193f a114 803f 04fa 15bf
00000370: 30c5 e83e 1e57 abbe e4a5 973e 777a 02bf
00000380: 6bd0 203e 89ff 073e 4a8a 0b3f a845 7abd
00000390: d685 ffbe ee64 f7bd 6058 f7be b2f0 eebe
000003a0: 8f63 8f3e ec0f d9be 4dff 94be e057 f03d
000003b0: 6eba 003f 5cab 793f aa3e 013f 5e77 0f3e
000003c0: 21e1 6ebe a12c 34be 9b04 593e df9e 0dbd
000003d0: c0d2 033e 53a4 9b3e f320 0b3e d453 b53e
000003e0: d606 23bf f008 643e fd04 edbd 85bb e5be
000003f0: 73d1 ce3d 3c01 073f fc87 c93d 2fbe ad3e

actor.bias f4 [5]
0.3604592 0.23940924 0.05261723 0.0026204565 0.54906505
00000000: 1c8e b83e b227 753e 2a85 573d f7bb 2b3b
00000010: 878f 0c3f

critic.weight f4 [1, 128]
0.32556406 0.17786871 0.03392087 0.027321836 0.003910735 -0.26892272 0.09243569 0.3261979
0.052097373 -0.27927983 -0.0940992 0.07173544 -0.20893049 0.20459473 0.055795133 0.3209403
-0.009929801 -0.008255428 0.13830404 -0.269866 0.20753758 -0.2214081 0.042189088 0.089645244
0.32072115 -0.19548003 -0.40991396 0.23709673 -0.22739336 -0.0229639 0.20750813 0.19442111
0.05715661 0.038524274 0.023975687 0.012077464 -0.13930921 0.23438577 0.0051802066 0.020043286
0.30548456 0.25450063 -0.049174335 0.24161226 -0.24278931 0.14396438 -0.4403593 0.0338634
0.058880188 -0.055262987 -0.280164 0.14838764 0.0845875 0.39810535 0.08267551 -0.10376448
0.13242662 0.030386817 -0.23847772 -0.4403244 -0.1958851 -0.389626 0.09516297 0.024287296
-0.28687093 0.13710155 0.2198588 0.03586984 -0.15821405 -0.19225752 -0.25226632 0.029424638
-0.5236709 -0.21898106 -0.18838131 0.083952166 -0.07934636 0.09036563 -0.1936743 0.19754776
0.19701412 -0.07497917 -0.11746452 0.11501062 0.08548215 -0.03719031 0.33039728 0.019115994
-0.13830212 0.08915368 0.103585914 -0.012388474 0.3005113 -0.14751366 0.075122125 0.30040345
-0.07008096 0.16296086 0.07153246 0.13738309 0.043596175 -0.08866599 -0.2165552 -0.058471132
0.024038443 -0.12528439 -0.035278525 0.2702965 -0.056338545 -0.07815758 -0.11637994 0.22014858
-0.29982382 0.0037474488 -0.14181802 -0.23438916 -0.014140064 0.20596257 0.73541963 0.07683481
-0.046433147 0.13055998 -0.2899386 0.36514533 0.18166648 -0.017935224 0.028090797 0.1928487
00000000: 55b0 a63e 3723 363e 9cf0 0a3d 0bd2 df3c
00000010: 9f25 803b 3db0 89be ec4e bd3d 6903 a73e
00000020: 0e64 553d c4fd 8ebe 15b7 c0bd 08ea 923d
00000030: e0f1 55be 4881 513e 7089 643d 4952 a43e
00000040: 9bb0 22bc c641 07bc 939f 0d3e e02b 8abe
00000050: bb84 543e ceb8 62be 77ce 2c3d ed97 b73d
00000060: 9035 a43e eb2b 48be 3ee0 d1be 7cc9 723e
00000070: ced9 68be ca1e bcbc 037d 543e 5416 473e
00000080: 0d1d 6a3d a1cb 1d3d a968 c43c 8ee0 453c
00000090: 13a7 0ebe d302 703e b9be a93b d131 a43c
000000a0: 7968 9c3e e84d 823e 076b 49bd 3469 773e
000000b0: c39d 78be 666b 133e c676 e1be 59b4 0a3d
000000c0: 5a2c 713d 715b 62bd a871 8fbe eef2 173e
000000d0: 363c ad3d 77d4 cb3e c751 a93d 7982 d4bd
000000e0: d89a 073e c6ed f83c 8133 74be 3372 e1be
000000f0: 1b96 48be 0f7d c7be cee4 c23d 27f6 c63c
00000100: bfe0 92be 5964 0c3e aa22 613e 41ec 123d
00000110: dd02 22be 28df 44be 0d29 81be f00b f13c
00000120: 4c0f 06bf 923c 60be 08e7 40be 1def ab3d
00000130: 5880 a2bd 9e11 b93d 8e52 46be f649 4a3e
00000140: 12be 493e ae8e 99bd 3d91 f0bd b08a eb3d
00000150: 4411 af3d de54 18bd d529 a93e 2599 9c3c
00000160: 129f 0dbe 3496 b63d da24 d43d 07f9 4abc
00000170: 9edc 993e d20d 17be a1d9 993d 7bce 993e
00000180: 9b86 8fbd 36df 263e 9c7f 923d 27ae 0c3e
00000190: e791 323d 8496 b5bd a5c0 5dbe 6d7f 6fbd
000001a0: 45ec c43c 8d4a 00be 3780 10bd 4e64 8a3e
000001b0: 3fc3 66bd 1511 a0bd 9b58 eebd a16e 613e
000001c0: 8282 99be c297 753b be38 11be b603 70be
000001d0: baab 67bc dae7 523e 7644 3c3f 925b 9d3d
000001e0: af30 3ebd 84b1 053e d572 94be 54f4 ba3e
000001f0: c706 3a3e e4ec 92bc ac1e e63c 217a 453e
