Liu/test/v_2/train_iter_21800.pt (torch, 764615 bytes, 9 tensors)

h0 f4 [128]
0	0x3e821114	0.25403655
1	0x3ceabedb	0.02865546
2	0xc0147490	-2.3196144
3	0x3ef24755	0.47320047
4	0xc020f937	-2.5152109
5	0x3e9efd58	0.3105266
6	0xbf6b2256	-0.9184927
7	0xbe47666a	-0.19472662
8	0xbd062099	-0.03274593
9	0xbd65a58d	-0.056066085
10	0x3f1ee203	0.62063617
11	0xbed6ad7a	-0.41929227
12	0xbe26a5d6	-0.16274199
13	0xbf4fb1f8	-0.81130934
14	0x3c107797	0.008817575
15	0x3f0ff646	0.5623516
16	0x3fed377e	1.853256
17	0x3fe6f0e6	1.8042266
18	0x3e4e5f44	0.20153528
19	0xbf6766f6	-0.9039148
20	0xbed3293c	-0.41242397
21	0xbf1de81d	-0.616823
22	0x3f350d36	0.70723283
23	0x3bed2909	0.007237558
24	0xbef8e8a8	-0.48615003
25	0xbfa2c87c	-1.2717433
26	0x3d02f5e7	0.031972792
27	0x3fad238a	1.3526471
28	0xbf6587e8	-0.896605
29	0xc021bf17	-2.5272882
30	0x3f30133e	0.6877936
31	0xbfa7027a	-1.3047631
32	0xbf90e85e	-1.1320913
33	0xbe09b9d8	-0.134498
34	0xbf271732	-0.6526977
35	0x3f061397	0.5237364
36	0x3f2f73c3	0.68536013
37	0x3f5f4037	0.8720736
38	0xbf7de57c	-0.9917829
39	0xbe8884a7	-0.26663706
40	0x3dca30c3	0.09872582
41	0x3f6cd8a2	0.92518055
42	0x3fe492c2	1.7857287
43	0xbe1c511f	-0.1526532
44	0x3faf5e7d	1.370071
45	0x3ea0b413	0.31387386
46	0xbfc1fadf	-1.5154685
47	0xbd136db9	-0.03599331
48	0x3ecaa697	0.39580223
49	0x3f810021	1.0078164
50	0xbf1f90be	-0.62330234
51	0xbf473ed6	-0.77830255
52	0xbf5652a6	-0.8371986
53	0x3eef3b75	0.4672505
54	0x3f12ea16	0.57388437
55	0xbf677eb2	-0.90427697
56	0xbededb95	-0.43526903
57	0x400fe4c7	2.2483385
58	0x3f9a6d83	1.206467
59	0xbe802f69	-0.2503617
60	0xc02c2e1b	-2.690314
61	0x3f0cca0b	0.54995793
62	0x3e94244f	0.2893395
63	0x3eef4fa0	0.46740437
64	0x3f23d2b3	0.63993376
65	0x3e062d00	0.13103104
66	0x3cd704d5	0.026247421
67	0x3d0e41a8	0.034730583
68	0xbd7bb4d7	-0.06145176
69	0x3f2fc3e5	0.68658286
70	0xbfc0845b	-1.5040392
71	0xbfb959e0	-1.4480553
72	0x3ff071b7	1.8784703
73	0xbf9ac600	-1.2091675
74	0x3f9fd8de	1.2488058
75	0x40185f93	2.3808334
76	0xbeeb81ee	-0.45997566
77	0xbf73b690	-0.95200443
78	0x3f1d30c0	0.6140251
79	0x3f69cd74	0.9132912
80	0xbf12dfbd	-0.5737265
81	0xbf0730bb	-0.5280873
82	0xbe7bf947	-0.2460681
83	0xbebe39b8	-0.3715341
84	0x3f8598b3	1.0437225
85	0x3ef9585f	0.48700234
86	0xbe342b2d	-0.17594595
87	0x3f70d93b	0.9408147
88	0x3c37f7ce	0.011228515
89	0x3fdf49c8	1.7444391
90	0x3d80dd49	0.06292207
91	0xbf00571b	-0.5013291
92	0xbf6e37b1	-0.9305373
93	0x3d5055df	0.050863143
94	0xbebe5946	-0.37177485
95	0xc008b806	-2.136232
96	0x3fbff698	1.499713
97	0xbe3483cb	-0.176284
98	0xbfa587f3	-1.2932113
99	0x3ea0ac6f	0.31381556
100	0xbaabb9ea	-0.0013101671
101	0xbf82bd86	-1.0214088
102	0x3e4bc192	0.1989806
103	0x3eac1d9c	0.3361634
104	0xbf593ce9	-0.84858567
105	0xbe52eaac	-0.20597333
106	0xbfcdde20	-1.6083412
107	0x3f7902ab	0.97269696
108	0xbf782d88	-0.96944475
109	0xbf6d333d	-0.9265631
110	0x3f4a43ca	0.7900969
111	0x400b1cc6	2.1736312
112	0xbdbc93c4	-0.092078716
113	0xbe49e065	-0.19714506
114	0xbf198267	-0.59964603
115	0xbec13009	-0.3773196
116	0x3dccec70	0.100060344
117	0xbf2d9d49	-0.67818123
118	0x3ee578a6	0.4481861
119	0x3f4d921d	0.80301076
120	0x3f4b87ad	0.795039
121	0x3f05128f	0.51981443
122	0xbfaa7819	-1.3317901
123	0x3f73b369	0.95195633
124	0xbf964797	-1.1740597
125	0xbdc9f3f7	-0.09860986
126	0x3c534d1e	0.012896804
127	0x3f8561cf	1.0420474

c0 f4 [128]
0	0xbfc17b9a	-1.5115845
1	0xbde8651a	-0.113474086
2	0xbff23f16	-1.8925502
3	0x3f35e125	0.7104667
4	0x3fd1c3ab	1.6387838
5	0x3fafd742	1.3737566
6	0xbff19db8	-1.8876257
7	0xbef9bb5a	-0.4877575
8	0xbe5e909d	-0.21734853
9	0x3ed904fa	0.4238661
10	0x40066027	2.0996187
11	0xc002c537	-2.043287
12	0xbdaa673b	-0.08320471
13	0x3f868f9c	1.0512576
14	0x3fd46e3c	1.6596141
15	0xbfbd3029	-1.4780322
16	0x3da6bd35	0.08141557
17	0x3f881318	1.0630827
18	0x3faf6d48	1.3705225
19	0xbf6aa96a	-0.91664755
20	0x3d68bb95	0.056819517
21	0xbf11d91d	-0.56971914
22	0xbeb0ee9e	-0.3455705
23	0x3f8c2abe	1.0950544
24	0xbfdd235e	-1.7276418
25	0x3e5dac8f	0.21647857
26	0x3f062341	0.52397543
27	0xbe8c0317	-0.27346107
28	0x3f86b09d	1.0522648
29	0xbe69a5f8	-0.22817218
30	0x3db3ad84	0.0877333
31	0x3f102232	0.5630218
32	0xbfab8f38	-1.3403082
33	0xbfec7dc2	-1.8475878
34	0x3e4a9f72	0.19787386
35	0xbe908d53	-0.28232822
36	0x3f5169d2	0.81802094
37	0xbf3dabf3	-0.740905
38	0xbe3f8298	-0.18702161
39	0x3f349a52	0.70547974
40	0x3f925903	1.1433414
41	0x3f6db88c	0.9285972
42	0xbf7eb8ab	-0.9950053
43	0x3de16caa	0.11007054
44	0xbf303607	-0.6883244
45	0xbf66c711	-0.901475
46	0x3e96c4f3	0.29447135
47	0xbcc71076	-0.024299841
48	0x3fca4fd3	1.580561
49	0xbef10423	-0.4707347
50	0xbeb895d8	-0.36051822
51	0xbf952bc1	-1.1653978
52	0xbff2ac22	-1.8958781
53	0xbf744648	-0.9541974
54	0xbf922b90	-1.1419544
55	0x3e2f252f	0.17104028
56	0xbf0449dc	-0.516752
57	0x3e933f94	0.28759444
58	0xbf9f8293	-1.2461723
59	0x3fce655f	1.6124686
60	0xbf74096c	-0.95326877
61	0x3f52bbc0	0.82317734
62	0x40542a01	3.3150637
63	0xbfe100b6	-1.7578342
64	0x3edc35c8	0.43009782
65	0x3f66b5c4	0.901211
66	0x3f1adfa6	0.6049751
67	0xbdd15918	-0.102220714
68	0xbf4194f9	-0.7561794
69	0xbe8557e3	-0.26043615
70	0x3f8d5e89	1.1044475
71	0xbf53ec7f	-0.8278274
72	0x3deb9398	0.11502761
73	0x3f72f698	0.9490752
74	0xbe0232dc	-0.12714714
75	0xbfb1c530	-1.3888302
76	0xc0029a3d	-2.040664
77	0xbda94d62	-0.08266713
78	0xbf56c4dc	-0.83894134
79	0x3e7f1f4f	0.24914287
80	0x3f27e688	0.6558614
81	0x3f9dcd46	1.232827
82	0xbf4fabb5	-0.8112138
83	0xbf3f1676	-0.7464365
84	0x3f1f1a89	0.62149864
85	0xbf58449a	-0.8447968
86	0xbe8eea79	-0.27913263
87	0x3f12c884	0.5733721
88	0x3efa54ef	0.48892924
89	0x4041e4e4	3.0295954
90	0x3f559390	0.8342829
91	0xbf5fab90	-0.8737116
92	0xbf01d574	-0.5071633
93	0x3f7041ec	0.9385059
94	0xbaf2b998	-0.0018518446
95	0xbf682b17	-0.9069075
96	0x3fb35c8e	1.401262
97	0xbf1f1c8b	-0.6215293
98	0xbc877ab9	-0.01653801
99	0xbfa4fe0d	-1.289003
100	0x3f8251c3	1.0181202
101	0xbef46bd5	-0.4773852
102	0xbe3450ef	-0.17608999
103	0xc00bd737	-2.1850107
104	0xbd8686bb	-0.065686665
105	0xbf2e23d1	-0.680234
106	0xbf918fc8	-1.1372004
107	0x3ce2fa8a	0.027707357
108	0x3e462e95	0.19353707
109	0x3f23de39	0.6401096
110	0xbe71d382	-0.2361584
111	0xbf1deab8	-0.6168628
112	0x3e9084aa	0.28226215
113	0x3d42aa5e	0.047525756
114	0x3ff026f1	1.8761884
115	0x3fbf717f	1.4956511
116	0xbf92c971	-1.1467725
117	0x3f5f19ed	0.87148935
118	0xbe4cf7a0	-0.20016336
119	0xbf5dea9c	-0.8668611
120	0x3f99a5a5	1.2003676
121	0x3f019a8f	0.5062646
122	0xbf5dd3bf	-0.86651224
123	0x3f303f8e	0.68846977
124	0x3fbc7933	1.4724487
125	0xbe85515f	-0.26038644
126	0xbe53977c	-0.20663255
127	0xbf560c91	-0.83612925

RNN.weight_ih_l0 f4 [512, 15]
0	0x3db3f4d7	0.08786934
1	0x3ee2b401	0.44277957
2	0xbdad7e0a	-0.08471306
3	0xbdb2518d	-0.08706961
4	0xbe78f0a2	-0.24310544
5	0xbf389560	-0.7210293
6	0x3d72f412	0.059314795
7	0xbebe7d99	-0.37205198
8	0x3d167e62	0.03674162
9	0xbeef82fd	-0.46779624
10	0x3de8f5f3	0.11375036
11	0xbe942b79	-0.28939417
12	0x3d698aa9	0.057017002
13	0xbc4f3f59	-0.012649381
14	0xbd3ae807	-0.045631435
15	0x3e0d1afb	0.13779823
16	0x3e4aeccb	0.19816892
17	0x3e055597	0.13020931
18	0x3d9ca798	0.076491535
19	0xbc8ef001	-0.017448427
20	0x3ebd0374	0.36916697
21	0x3d53fdec	0.05175583
22	0x3d96074a	0.07325609
23	0x3ec9c63a	0.39409047
24	0x3f2de4d4	0.6792729
25	0xbd1636be	-0.0366733
26	0xbc697e5d	-0.014251319
27	0x3d1c45de	0.038152568
28	0x3e43a50a	0.19105926
29	0x3e27c4ff	0.16383742
30	0x3e6ab6a6	0.22921237
31	0xbe121b2b	-0.14268176
32	0x3e6adb4f	0.22935222
33	0xbd03230a	-0.032015838
34	0x3e5c52da	0.2151598
35	0x3eb1355e	0.34611028
36	0x3e079c1a	0.13243142
37	0x3e6c3c77	0.2306994
38	0x3e770b4a	0.241254
39	0x3f9fee48	1.2494593
40	0x3c628ce4	0.013827536
41	0x3e48e350	0.19617963
42	0xbda97285	-0.08273796
43	0x3dd6de04	0.10491565
44	0x3e1a3528	0.1505934
45	0x3db85dbd	0.09002254
46	0xbd0f587b	-0.03499649
47	0xbd8606fb	-0.065443
48	0xbdb8da1e	-0.090259776
49	0x3d837759	0.06419248
50	0x3e323197	0.1740173
51	0x3c932af4	0.017964818
52	0x3e302a1a	0.1720356
53	0xbda62765	-0.08112983
54	0x3f897b9e	1.074085
55	0x3cfa3ea6	0.030547451
56	0x3e1877a0	0.14889383
57	0xbd5d2490	-0.053989947
58	0x3c81f33e	0.015863057
59	0x3da7c7e6	0.081924245
60	0x3d393161	0.045213107
61	0x3f650db9	0.89474064
62	0x3ed1ea59	0.40999106
63	0x3d9151c3	0.07095673
64	0x3e773fed	0.2414548
65	0x3dda6930	0.10664594
66	0xbe7c59f5	-0.24643691
67	0x3ea7c65d	0.32768527
68	0x3f379177	0.71706337
69	0x3e1befd1	0.15228201
70	0x3bfc9f93	0.0077094524
71	0x3e84f8fc	0.2597121
72	0x3c2438fd	0.010023353
73	0x3f43358f	0.762536
74	0xbe49e06e	-0.1971452
75	0x3e18de15	0.14928468
76	0x3ec3732f	0.38173816
77	0xbb923f86	-0.004463139
78	0x3c394232	0.011307286
79	0x3eb1d2f1	0.34731248
80	0x3ddc605d	0.10760567
81	0xbdaf75c1	-0.08567382
82	0x3e964a0f	0.29353377
83	0x3df2c198	0.11853331
84	0x3c515df6	0.01277875
85	0xbd0843c5	-0.033267755
86	0x3e6c6fe3	0.23089556
87	0xbd9b1eed	-0.07574258
88	0x3d8244a8	0.063607514
89	0xbd02facc	-0.03197746
90	0x3df2d3c0	0.11856794
91	0x3d25570b	0.040366214
92	0x3e10489e	0.14090201
93	0xbd284435	-0.041080672
94	0x3e5523a0	0.20814371
95	0x3e87a311	0.26491597
96	0x3e19cdd9	0.15019931
97	0x3e63eeb3	0.22259025
98	0x3e181f48	0.14855683
99	0xbe0721ef	-0.13196538
100	0x3dafb216	0.08578889
101	0x3e0de2ed	0.13856097
102	0x3d70eb43	0.058818113
103	0x3e4e1cbb	0.20128147
104	0x3e6f9df9	0.23400106
105	0x3bbb094f	0.005707897
106	0x3e0ecc55	0.13945134
107	0xbde2c7c4	-0.110732585
108	0x3e38a169	0.18030323
109	0xbdf5363e	-0.119732365
110	0xbece69b1	-0.4031501
111	0x3d7c788c	0.0616384
112	0xbdefeae4	-0.11714724
113	0xbd8c331a	-0.06845684
114	0xbeefc1b8	-0.46827483
115	0x3cb4580c	0.02201464
116	0x3cb163c3	0.021654015
117	0xbd9e7f6d	-0.07739148
118	0x3c29edb1	0.010371611
119	0xbd0fd44c	-0.03511457
120	0x3bf6acb6	0.007527913
121	0x3ed74973	0.42048225
122	0xbc0ea096	-0.008705279
123	0x3e2a8f54	0.16656238
124	0xbd147c92	-0.036251612
125	0x3ee1e6c4	0.44121373
126	0x3d100341	0.035159353
127	0x3cb7b566	0.022425365
128	0x3ea6256f	0.32450435
129	0x3ecb8077	0.39746448
130	0x3da3dad8	0.080007255
131	0xbdea13f3	-0.11429586
132	0x3e31aa3b	0.17350094
133	0x3e839cf5	0.25705686
134	0x3e45521e	0.19269606
135	0xbcbec944	-0.02328933
136	0x3eab91a6	0.33509558
137	0x3e7aef0e	0.24505255
138	0x3c27a305	0.010231738
139	0x3e15f917	0.14645801
140	0x3bee2f4a	0.007268821
141	0x3ce58c5d	0.028021032
142	0x3dd1bfba	0.10241647
143	0x3ecdd0e1	0.40198424
144	0xbd911d84	-0.07085708
145	0x3d14ddd6	0.03634437
146	0xbba1e838	-0.0049410127
147	0x3cf098b3	0.029369688
148	0x3ec712a2	0.38881403
149	0x3d2e107a	0.042496182
150	0x3e43a214	0.19104797
151	0x3d8edd8b	0.0697585
152	0x3c95041b	0.018190434
153	0xbd0a907d	-0.0338292
154	0x3d8c1f29	0.06841881
155	0x3d466e1b	0.04844485
156	0x3d8ecb8b	0.069724165
157	0xbd3b3fc1	-0.045715097
158	0x3cac0053	0.020996248
159	0xbdf640cb	-0.12024077
160	0x3da69400	0.081336975
161	0xbced88d7	-0.028995914
162	0x3dbd7c10	0.09252179
163	0x3de0e941	0.1098199
164	0x3d2f326e	0.042772703
165	0x3d6bfbe6	0.057613276
166	0xbd387c96	-0.04504069
167	0x3d49a1f0	0.0492267
168	0x3d12f5de	0.03587901
169	0xbc5d557f	-0.013509153
170	0xbca8e351	-0.020616205
171	0x3ddcd2a3	0.10782363
172	0x3c877d6c	0.016539298
173	0x3d49f18c	0.049302623
174	0x3cd274ee	0.025690522
175	0x3cd8e506	0.026476394
176	0x3df4c0f6	0.11950867
177	0xbbedd7da	-0.0072583975
178	0x3d20f1c7	0.039293077
179	0x3e19bd78	0.15013683
180	0x3db902c4	0.090337306
181	0x3d921124	0.071321756
182	0x3d71e2ab	0.059054058
183	0x3d1e1ffa	0.038604714
184	0x3e8426cc	0.2581085
185	0x3edd5be8	0.4323418
186	0x3de3a59f	0.11115574
187	0x3e1f18a6	0.15536746
188	0xbd3827e5	-0.04495992
189	0xbc9fa554	-0.019488014
190	0xbd300897	-0.042976942
191	0x3e03d46f	0.12874006
192	0xbd02090d	-0.031746913
193	0x3cfac463	0.030611223
194	0x3dabc267	0.08386689
195	0x3e5d17cb	0.21591108
196	0x3e5979b5	0.21237834
197	0x3dc31c20	0.09526849
198	0xbd81da42	-0.063404575
199	0x3d6cd894	0.057823732
200	0x3e40a4eb	0.18812911
201	0x3e71cf87	0.23614322
202	0x3dc8ca43	0.09804203
203	0x3e4f9643	0.20272164
204	0xbe97c5cc	-0.29643095
205	0xbc14e256	-0.009087166
206	0x3df86919	0.12129421
207	0xbc6d10b5	-0.014469315
208	0x3e2812f2	0.16413477
209	0x3e03ec21	0.12883045
210	0x3cc50110	0.024048358
211	0xbdaab4d1	-0.08335269
212	0xbde4dd26	-0.11174993
213	0x3e4b1641	0.19832708
214	0x3e4050de	0.18780848
215	0x3fc68ec0	1.5512314
216	0x3c315a9a	0.010824824
217	0x3d90e994	0.070758015
218	0xbdb0f4e1	-0.08640457
219	0x3f58c5ce	0.84676826
220	0x3e022961	0.12711097
221	0x3e212239	0.15735711
222	0x3dca2936	0.098711416
223	0xbda4bf81	-0.08044339
224	0x3df70363	0.12061193
225	0x3e84299d	0.25812998
226	0x3c9df292	0.019280706
227	0x3db8d204	0.09024432
228	0x3daf847b	0.085701905
229	0x3e80c2a4	0.251485
230	0xbe14a21e	-0.14514968
231	0x3e591dd2	0.21202782
232	0x3e8a2fff	0.26989743
233	0x3d973ce3	0.0738466
234	0xbebd99a7	-0.3703129
235	0x3d555881	0.052086357
236	0x3e986f90	0.29772615
237	0x3c3da939	0.01157599
238	0x3d549d1d	0.051907647
239	0x3e82c8ce	0.25543827
240	0x3e6c933b	0.23103039
241	0xbe4badb8	-0.19890487
242	0x3d37e289	0.044893775
243	0x3d062e94	0.032759264
244	0x3e1dfe6d	0.15429087
245	0x3ec10e7e	0.3770637
246	0x3e12839e	0.1430802
247	0x3dbba704	0.09162715
248	0x3e2488d4	0.16067821
249	0x3fbbafca	1.4663022
250	0x3b92a8a0	0.004475668
251	0x3e09e766	0.13467178
252	0xbacc8a6b	-0.0015605217
253	0x3e0010a2	0.12506345
254	0x3dd9fd4d	0.106440164
255	0xbe321c0d	-0.17393513

RNN.weight_hh_l0 f4 [512, 128]
0	0x3e89255e	0.2678632
1	0x3e03f63c	0.128869
2	0xbe038a7d	-0.12845798
3	0x3e5478b2	0.20749167
4	0xbeaddac9	-0.33955982
5	0x3dcd3574	0.10019961
6	0xbe2dad40	-0.16960621
7	0x3d4dc9d5	0.05024131
8	0xbd3d55f1	-0.04622454
9	0x3d40839e	0.04700052
10	0xbb9ff4ba	-0.0048814686
11	0xbc93a1ef	-0.018021552
12	0x3aff5e1c	0.0019483003
13	0x3ce0c911	0.027439626
14	0x3d7954bb	0.06087182
15	0x3cd32595	0.025774756
16	0x3e018006	0.12646493
17	0x3ea8b404	0.3294984
18	0xbd22db6d	-0.039760042
19	0xbe342374	-0.1759165
20	0xbd27ac05	-0.040935535
21	0xbe7ac3ee	-0.24488804
22	0xbe661140	-0.22467518
23	0xbd49db87	-0.049281623
24	0xbdf437df	-0.11924719
25	0xbd3bdb56	-0.045863472
26	0xbd50a699	-0.05094013
27	0xbdc8a31c	-0.09796736
28	0xbeadcb3f	-0.33944127
29	0xbe5dabde	-0.21647593
30	0xbe054b51	-0.13017012
31	0xbe3c8ac4	-0.1841231
32	0xbe2ae6b5	-0.1668957
33	0x3c81bfda	0.015838552
34	0x3d2d366a	0.04228822
35	0x3b359d0a	0.002771201
36	0x3e01fdcf	0.12694477
37	0x3e3a711b	0.18207209
38	0xbe729c6a	-0.2369248
39	0x3e23bbbe	0.15989587
40	0x3d36210f	0.04446512
41	0x3b9f09fa	0.004853484
42	0x3e4e55bf	0.20149897
43	0x3dbaf764	0.09129217
44	0x3e174fa2	0.14776471
45	0x3db20696	0.086926624
46	0xbde99e45	-0.11407141
47	0xbb6b9a96	-0.0035950295
48	0x3dcc6abb	0.09981295
49	0x3baa24ac	0.00519236
50	0xbe3799f7	-0.17929827
51	0x3d3edd09	0.046597514
52	0xbc8deec4	-0.017325766
53	0x3e3bd308	0.18342221
54	0x3e2c54f4	0.16829282
55	0xbdd11c69	-0.10210497
56	0xbe1f12d2	-0.15534523
57	0x3ebbccd2	0.36679703
58	0x3e3cffb6	0.18456921
59	0xbe14d3fd	-0.14533992
60	0xbe8b0597	-0.27152702
61	0xbc9cf395	-0.019159118
62	0x3db70a98	0.089375675
63	0x3db2498d	0.08705435
64	0x3e154560	0.14577246
65	0xbe1150dd	-0.14191003
66	0xbdd4dfc8	-0.103942454
67	0xbe1ab93d	-0.15109725
68	0xbdc5c82f	-0.096573226
69	0xbe114dc1	-0.14189817
70	0xbd1c4749	-0.03815392
71	0x3dc51bf0	0.09624469
72	0xbda672b0	-0.08127344
73	0x3c87d6fb	0.016582003
74	0x3cfc35e9	0.030787425
75	0x3dbc6710	0.09199345
76	0xbd3df881	-0.04637957
77	0xbda2fd0e	-0.079584226
78	0x3d0471d4	0.032335117
79	0x3e1c0d39	0.15239419
80	0x3aafd09c	0.0013413611
81	0xbda8b5ad	-0.08237777
82	0xbd67956e	-0.05653899
83	0xbe39de18	-0.18151128
84	0x3e21f41a	0.15815774
85	0x3e8e7d45	0.27829948
86	0x3d2315d1	0.039815728
87	0x3d542cf8	0.051800698
88	0xbe14903b	-0.14508145
89	0xbd2ecba3	-0.04267467
90	0xbdd2d940	-0.102953434
91	0x3cab43d6	0.02090637
92	0xbe62cd45	-0.22148617
93	0x3e6349e1	0.22196151
94	0x3ccc5cd5	0.02494661
95	0x3c19a813	0.009378451
96	0x3dd526d4	0.104077965
97	0xbe436607	-0.19081889
98	0x3d8d61a5	0.0690339
99	0x3d9c43c0	0.0763011
100	0xbd0041b3	-0.031312656
101	0xbe18f5aa	-0.14937463
102	0x3e0c0f92	0.13677815
103	0x3e5c1a4e	0.2149441
104	0xbd700639	-0.058599684
105	0xbdbdc486	-0.092659995
106	0xbdffcb7d	-0.12489984
107	0xbd95c8f3	-0.07313719
108	0xbe396219	-0.18103828
109	0xbe46b744	-0.19405848
110	0x3e7207a5	0.23635729
111	0x3dd5ca2a	0.1043895
112	0xbe1399b0	-0.14414096
113	0x3dceeab2	0.10103358
114	0xbe4bedc0	-0.19914913
115	0xbddd1040	-0.10794115
116	0x3db21db5	0.086970724
117	0xbd4c87cf	-0.049934205
118	0xbd8898d6	-0.06669776
119	0x3dcaa56e	0.098948345
120	0x3e23445d	0.15944047
121	0x3da8b86a	0.08238299
122	0xbe5b7270	-0.21430373
123	0xbcfcbef3	-0.03085277
124	0xbd811c95	-0.0630428
125	0xbe6b5b23	-0.22983985
126	0xbcd3f50e	-0.025873687
127	0x3e0f6ee2	0.14007142
128	0xbdb8cdac	-0.09023604
129	0x3e399bb0	0.18125796
130	0x3c5fa22c	0.013649505
131	0xbebbf64b	-0.36711344
132	0x3e229e5c	0.15880722
133	0xbbad6706	-0.0052918224
134	0x3d7c68aa	0.061623253
135	0x3df8173c	0.121138066
136	0x3db87d42	0.09008266
137	0xbe221372	-0.1582773
138	0x3dd3c9f6	0.10341255
139	0xbd641cea	-0.055691637
140	0x3e2a94c6	0.16658315
141	0xbca8440b	-0.020540258
142	0xbeb7400d	-0.35791054
143	0xbd28d3ad	-0.041217495
144	0x3e41581e	0.1888127
145	0xbbc3da29	-0.0059769345
146	0x3d1ffe36	0.039060794
147	0x3bd2b03c	0.0064297
148	0xbe1c39c7	-0.15256415
149	0x3d4993fb	0.04921339
150	0x3daf7538	0.085672796
151	0x3da36045	0.07977346
152	0xbdf37786	-0.11888032
153	0xbdfb4321	-0.12268663
154	0xbe8d7151	-0.27625516
155	0x3e69b837	0.22824179
156	0x3e024457	0.12721382
157	0xbe2b2b36	-0.16715702
158	0x3d9eac55	0.077477135
159	0xbc5cf320	-0.0134857
160	0xbeb8f87c	-0.3612708
161	0xbec1b31d	-0.37831965
162	0xbe536c71	-0.20646836
163	0x3dcc7c99	0.099847026
164	0xbd8090ec	-0.06277642
165	0xbdf70814	-0.12062088
166	0xbdec56f1	-0.1154002
167	0x3dfe562c	0.1241878
168	0x3d3bcb41	0.045848135
169	0x3e201d8b	0.1563627
170	0xbdbea0a4	-0.093079835
171	0xbe182087	-0.14856158
172	0xbc2dcdbe	-0.010608135
173	0x3e7100cf	0.23535465
174	0x3e268cff	0.16264723
175	0x3db71683	0.08939841
176	0x3e79e3a4	0.24403244
177	0x3e10b34f	0.14130901
178	0x3da3056c	0.079600185
179	0xbe6ebcc5	-0.23314197
180	0x3dd3ade2	0.103359
181	0x3dd6192b	0.10454019
182	0xbddcff77	-0.107909136
183	0x3de56799	0.112014
184	0xbd2e226b	-0.042513292
185	0xbd1e68ad	-0.038674045
186	0xbdedda21	-0.116138704
187	0xbd290903	-0.04126836
188	0xbe237d9b	-0.15965883
189	0x3e9e222d	0.3088545
190	0xbe3b2566	-0.18275985
191	0xbce67447	-0.028131617
192	0xbd9f267b	-0.077710114
193	0x3e0bdd3c	0.13658613
194	0x3e3235b6	0.17403302
195	0xbccc63d4	-0.024949946
196	0x3de76956	0.11299388
197	0x3da2be98	0.07946509
198	0xbe22da9c	-0.15903705
199	0xbe377e2e	-0.17919227
200	0xbd37c49d	-0.04486524
201	0xbe40c309	-0.188244
202	0x3e253098	0.16131818
203	0x3dca21a7	0.098697
204	0xbe27ab42	-0.16373923
205	0xbe83efeb	-0.2576898
206	0xbde39505	-0.111124076
207	0x3c0a6077	0.008445851
208	0xbd65c135	-0.05609246
209	0xba9af4b7	-0.0011822198
210	0x3d89d7f0	0.0673064
211	0x3e494cae	0.19658157
212	0xbe273fe8	-0.16332972
213	0x3cd1bb77	0.025602086
214	0xbd2297d1	-0.039695565
215	0xbca84fbb	-0.020545831
216	0xbe2556fa	-0.1614646
217	0x3e5e8614	0.21730834
218	0xbd2ef0af	-0.042710003
219	0xbdc98336	-0.098394796
220	0xbd8e90c4	-0.069612056
221	0x3e1bd6de	0.15218684
222	0x3e0abdc5	0.13548954
223	0xbd9d0128	-0.07666236
224	0xbc72deec	-0.0148236565
225	0xbe5bb4b9	-0.21455659
226	0x3d928ae2	0.07155396
227	0xbe97b284	-0.29628384
228	0x3ea03890	0.31293154
229	0x3da485fe	0.080333695
230	0xbd71e992	-0.05906064
231	0x3da247b4	0.079238325
232	0x3e00a987	0.1256467
233	0x3e44130c	0.19147891
234	0xbe15f093	-0.14642553
235	0x3d9b5568	0.07584649
236	0xbce8a666	-0.028399657
237	0x3e71d10f	0.23614906
238	0xbe5a9fb3	-0.21349983
239	0xbd1a35fa	-0.037649132
240	0xbe2b2bdc	-0.1671595
241	0xbc8fc68b	-0.017550727
242	0xbe451c7e	-0.1924915
243	0x3e826cd2	0.25473648
244	0x3edae490	0.42752504
245	0x3e18d9f1	0.14926888
246	0x3db6de2d	0.089290954
247	0xbe522282	-0.20520976
248	0xbbc5aaf6	-0.006032343
249	0xbc8ee9da	-0.017445493
250	0xbe347fe5	-0.17626913
251	0x3e8d2262	0.27565295
252	0xbe730e7e	-0.23735997
253	0xbc7b9ff2	-0.015357958
254	0xbedcbe79	-0.4311407
255	0xbcdcbdec	-0.02694603

RNN.bias_ih_l0 f4 [512]
0	0x3cb3ad42	0.021933202
1	0x3e1e5428	0.1546179
2	0x3e2b941a	0.16755715
3	0xbd152eaa	-0.036421455
4	0x3d29c23c	0.041445002
5	0xbbc9307d	-0.0061398135
6	0x3e97f928	0.2968228
7	0x3d661252	0.056169815
8	0x3e00aeb8	0.1256665
9	0x3e41ef17	0.18938862
10	0x3da9937c	0.082800835
11	0x3e3d6a13	0.18497495
12	0x3e6f6a92	0.23380497
13	0x3dbbfd90	0.091792226
14	0x3e73510e	0.23761389
15	0x3ee80d48	0.45322633
16	0x3e873ccc	0.26413572
17	0xbd13466c	-0.03595583
18	0x3e85626b	0.2605165
19	0x3e1aee96	0.15130076
20	0x3da0c707	0.078504615
21	0x3e49e715	0.19717057
22	0x3dd44825	0.10365323
23	0x3e878d46	0.2647497
24	0x3e295ba6	0.16538867
25	0x3eb8a83a	0.36065847
26	0x3dd72ea5	0.105069436
27	0x3e96e616	0.29472417
28	0x3e27fba8	0.16404593
29	0xbc04672f	-0.0080812415
30	0x3df7e948	0.12105042
31	0x3e1bd1fa	0.15216818
32	0x3d2c178d	0.042014647
33	0x3dc7622e	0.09735523
34	0x3dadb9a7	0.08482676
35	0x3e531ac2	0.20615676
36	0x3e2080a6	0.15674075
37	0x3dee0d43	0.11623623
38	0x3d2db6ef	0.042410787
39	0x3e33a7c7	0.1754447
40	0x3d049db2	0.032376952
41	0x3e2a38a8	0.16623175
42	0x3e082689	0.1329595
43	0x3edf490f	0.43610427
44	0x3e498e1f	0.19683121
45	0x3e87c03c	0.2651385
46	0x3e5a489c	0.21316761
47	0x3e541b64	0.20713574
48	0x3dc3d69b	0.09562417
49	0x3e5eb9f9	0.2175063
50	0x3e362c04	0.17790228
51	0x3dcd5642	0.10026218
52	0x3e57d9aa	0.21079126
53	0x3dc69792	0.096968785
54	0xbd19f378	-0.037585706
55	0xbdc768dc	-0.09736797
56	0x3c9991f4	0.018746354
57	0x3dec6915	0.1154348
58	0x3e523d3f	0.20531176
59	0xbd136400	-0.03598404
60	0x3ccc408c	0.024933122
61	0xbdd95757	-0.10612362
62	0xbba73185	-0.0051023387
63	0x3c2ba833	0.010477114
64	0x3d3184c8	0.04333952
65	0x3dc3d423	0.09561946
66	0x3dc68489	0.09693248
67	0x3bcc5592	0.0062357867
68	0x3df74c3b	0.12075087
69	0xbb2f20a4	-0.0026722336
70	0xbdb99157	-0.090609245
71	0x3de4b956	0.111681625
72	0x3d3ddffb	0.046356183
73	0x3ea35f71	0.31908754
74	0x3ebc1a6a	0.36738902
75	0x3e9726f1	0.29521897
76	0x3ce28772	0.027652476
77	0x3ea169b9	0.31525972
78	0x3da627e4	0.08113077
79	0xbdcd2d87	-0.10018449
80	0x3e9061c3	0.28199586
81	0x3ecd1ed9	0.40062597
82	0xbe0dbb75	-0.1384104
83	0x3e4a1734	0.19735414
84	0x3e68f5fb	0.22750084
85	0x3d88beb2	0.06676997
86	0xbc23562e	-0.009969277
87	0x3df72c40	0.12068987
88	0xbca6ee05	-0.020377168
89	0x3eb0406a	0.34424144
90	0x3d407f33	0.046996307
91	0x3eb49367	0.3526871
92	0x3d8de7e2	0.06928994
93	0xbcda0b58	-0.026616737
94	0x3df4e5fd	0.11957929
95	0x3cea6e4b	0.028617045
96	0xbc3d3d7e	-0.011550305
97	0x3e028c40	0.12748814
98	0x3eb4374d	0.3519844
99	0x3d1f4e2b	0.038892906
100	0x3e264178	0.16235912
101	0x3e4d2839	0.20034875
102	0x3e5067c8	0.2035209
103	0xbd48a09e	-0.0489813
104	0x3c9d7f84	0.019225843
105	0x3dcdd96a	0.10051234
106	0x3e253d7c	0.16136736
107	0x3e0d0aab	0.13773601
108	0x3e887043	0.2664815
109	0x3e09e354	0.13465625
110	0x3d2f735a	0.042834617
111	0x3abb27d6	0.001427884
112	0x3e48ae7f	0.19597815
113	0x3c36d8d3	0.011160093
114	0x3d91273d	0.07087562
115	0x3d5ba52d	0.05362432
116	0x3e57bd22	0.21068242
117	0x3e9767af	0.29571292
118	0xbe0d33e5	-0.13789327
119	0x3e0e3223	0.13886313
120	0x3e8beaaf	0.27327487
121	0xbca39a8f	-0.01997116
122	0x3e1b56c3	0.15169816
123	0x3d1a0bfa	0.037609078
124	0x3daa343d	0.08310745
125	0x3e393e76	0.18090233
126	0x3e08a008	0.13342297
127	0x3e2b7a82	0.16745952
128	0xbe135307	-0.14387141
129	0xbe17d773	-0.14828281
130	0xbdadbb9f	-0.084830515
131	0xbc39a9ea	-0.011332015
132	0x3d46ff62	0.048583396
133	0xbdfd32f4	-0.12363234
134	0x3e1e9b4e	0.15488932
135	0x3b77da18	0.0037819203
136	0xbd8b911c	-0.06814787
137	0xbd8e89eb	-0.069598995
138	0x3e3afc0f	0.18260215
139	0x3e043906	0.12912378
140	0x3dee38b6	0.116319105
141	0x3e1acf63	0.15118174
142	0xbc9b96b5	-0.018992761
143	0xbe0dc9ee	-0.13846561
144	0xbde90b50	-0.11379111
145	0xbda14a87	-0.07875543
146	0x3dadf648	0.0849424
147	0xbd6c242d	-0.057651687
148	0xbde2d802	-0.110763565
149	0x3d06e65f	0.032934543
150	0xbd366df7	-0.044538464
151	0xbdd2d793	-0.10295024
152	0xbe539983	-0.20664029
153	0xbe085d3b	-0.13316815
154	0x3c3a0d4a	0.011355707
155	0xbdf0e380	-0.11762142
156	0x3d0a3c24	0.03374876
157	0x3de494b6	0.11161177
158	0x3e899711	0.26873067
159	0xbdcdceb6	-0.100491926
160	0xbdcdc383	-0.100470565
161	0x3dfea9f0	0.12434757
162	0xbdc24b44	-0.09487012
163	0x3e19c7fc	0.15017694
164	0xbe3e0c9e	-0.185595
165	0x3e7ee503	0.24892049
166	0x3dec23af	0.115302436
167	0xbe971957	-0.2951152
168	0xbd85d5c7	-0.065349154
169	0x3e0a40d5	0.13501294
170	0x3e453f0b	0.1926233
171	0xbdf02dce	-0.117274866
172	0xbdd42b40	-0.10359812
173	0xbe65e194	-0.22449332
174	0xbd80605b	-0.06268378
175	0x3e324589	0.17409338
176	0x3db255bd	0.087077595
177	0x3e49c610	0.19704461
178	0x3e1fa0ca	0.1558868
179	0x3e813869	0.2523835
180	0xbb557183	-0.003256888
181	0xbe64912c	-0.22321004
182	0x3e5f68ad	0.21817274
183	0x3da77014	0.08175674
184	0x3c57c755	0.013170083
185	0xbe36689e	-0.17813346
186	0x3e15657a	0.14589491
187	0x3cd1f353	0.025628721
188	0xbce885e2	-0.028384153
189	0xbdb33d01	-0.0875187
190	0x3e1760c7	0.14783011
191	0x3e9b3ff7	0.3032224
192	0xbd97daa7	-0.074147515
193	0x3e366ebf	0.17815684
194	0x3e218799	0.15774383
195	0x3cda2d4a	0.026632924
196	0x3df7f5da	0.12107439
197	0x3dae4745	0.08509687
198	0x3c3383e6	0.01095674
199	0x3e17cf61	0.14825203
200	0xbbbbe298	-0.005733799
201	0xbe4939d1	-0.19650961
202	0x3e02f7c0	0.12789822
203	0xbe827ca3	-0.25485715
204	0xbd92dc44	-0.071709186
205	0xbbe2de56	-0.006923477
206	0x3e5f271f	0.21792267
207	0xbd9fedce	-0.078090295
208	0xbdece174	-0.11566439
209	0xbe2881c3	-0.1645575
210	0x3e20ecce	0.15715334
211	0x3e5eb5da	0.21749058
212	0x3e52ac15	0.20573457
213	0xbcf7dd27	-0.03025682
214	0x3dbb2901	0.0913868
215	0xbd8e5cb7	-0.06951278
216	0x3dd063d9	0.101752944
217	0xbeed472e	-0.46343368
218	0xbd9af38f	-0.07565986
219	0xbcbd6ace	-0.023122218
220	0x3c20d683	0.009816769
221	0xbd8f4fb8	-0.06997627
222	0x3e4112a8	0.18854773
223	0x3dcbda94	0.099538
224	0x3d2e7148	0.042588502
225	0xbc5bc81b	-0.013414408
226	0xbe84b793	-0.25921306
227	0x3e48c693	0.19607
228	0x3e87f2c7	0.26552412
229	0x3d358f1e	0.04432594
230	0x3e71d869	0.2361771
231	0x3dfe5f01	0.12420464
232	0x3d544cad	0.051830936
233	0x3d68f3fc	0.056873307
234	0xbda2b3dd	-0.079444624
235	0x3e39b6f6	0.181362
236	0xbe03b6da	-0.12862721
237	0x3e8db3e6	0.27676314
238	0x3e8596c1	0.2609158
239	0x3c7cb8f2	0.015424954
240	0x3d3b5d61	0.04574335
241	0xbbbb2d27	-0.0057121697
242	0x3ced927f	0.029000519
243	0x3d893d9c	0.06701204
244	0x3e11703f	0.14202975
245	0xbe265254	-0.16242343
246	0xbe90c58d	-0.2827572
247	0x3dd951da	0.10611315
248	0xbe2f9fde	-0.17150828
249	0xbbe9fe0e	-0.0071408814
250	0xbcb70120	-0.022339404
251	0x3bd83da6	0.006599146
252	0x3e5920af	0.21203874
253	0x3cef802c	0.029235922
254	0x3d74ef41	0.059798483
255	0x3c7c1f51	0.015388326

RNN.bias_hh_l0 f4 [512]
0	0x3ceff8d4	0.029293455
1	0x3e37026c	0.17872018
2	0x3e41058f	0.18849777
3	0x3d1a1806	0.037620567
4	0x3dbb71be	0.09152554
5	0x3de1da1e	0.11027931
6	0x3e6846b9	0.22683229
7	0x3c800ee9	0.01563211
8	0x3d4c7b10	0.04992205
9	0x3e49e42d	0.19715948
10	0x3d49da95	0.04928072
11	0x3de279ae	0.11058365
12	0x3e4ddb40	0.20103168
13	0x3e54e4b5	0.2079037
14	0x3dcdc5ed	0.10047517
15	0x3eee7574	0.46573985
16	0x3e775b87	0.24156009
17	0xbd370106	-0.04467871
18	0x3e8c37ed	0.27386418
19	0x3e64164e	0.22274134
20	0x3d7fd728	0.06246105
21	0x3e110192	0.14160755
22	0x3c8765c7	0.016528023
23	0x3e7e4571	0.24831177
24	0x3e0a6605	0.1351548
25	0x3e9a905d	0.30188265
26	0x3e3f1236	0.1865929
27	0x3e758c1f	0.23979233
28	0x3d3391f0	0.04384035
29	0x3da84a47	0.08217292
30	0x3e074025	0.13208063
31	0x3d97100b	0.07376107
32	0x3e2b4646	0.16726026
33	0x3e0711c0	0.13190365
34	0x3de31161	0.11087299
35	0x3e876012	0.26440483
36	0x3e56cb5d	0.20976014
37	0x3e5a8487	0.21339618
38	0xbd274e4a	-0.040846147
39	0x3d4a21b7	0.04934856
40	0x3e336fac	0.17523068
41	0x3df8b913	0.12144675
42	0x3deffe0e	0.11718379
43	0x3efbaa0b	0.4915317
44	0x3e4a9b18	0.19785726
45	0x3e71dd27	0.23619519
46	0x3e0e0baf	0.13871644
47	0x3e0b2e72	0.13591936
48	0x3dc63cd1	0.096795686
49	0x3dd949f0	0.106098056
50	0x3e88fab5	0.26753774
51	0x3e370e05	0.17876442
52	0x3ea9109c	0.33020484
53	0x3e37bda3	0.17943434
54	0x3cdcaca9	0.0269378
55	0x3d021701	0.03176022
56	0xbcd908a1	-0.026493372
57	0x3de6d3b7	0.1127085
58	0x3e3d766f	0.1850221
59	0x3dd7afa4	0.10531548
60	0x3b9da4fa	0.0048109265
61	0x3c525156	0.012836775
62	0xbc690e48	-0.014224596
63	0xbc2084c0	-0.009797275
64	0xbc75225e	-0.014961807
65	0x3dee73f1	0.11643208
66	0x3e4e1bf6	0.20127854
67	0x3d6f9ad1	0.058497254
68	0x3e35ef79	0.17767133
69	0x3e0c0256	0.13672766
70	0xbe02e70c	-0.1278345
71	0xbc086ce3	-0.008326742
72	0x3dd397a8	0.103316605
73	0x3e75ce57	0.24004494
74	0x3ec86825	0.39141956
75	0x3e89dfb1	0.26928475
76	0x3d036633	0.032079887
77	0x3eb07e96	0.34471577
78	0x3df14aac	0.11781821
79	0xbdee3b64	-0.116324216
80	0x3e2e0b4b	0.16996495
81	0x3ed98c67	0.4248993
82	0xbc11c054	-0.008895952
83	0x3deda07c	0.116028756
84	0x3e3ccc8e	0.18437406
85	0x3e3abc72	0.18235949
86	0xbd80a550	-0.06281531
87	0x3e4d41b3	0.20044594
88	0xbdaee7ce	-0.08540307
89	0x3ed85144	0.422495
90	0xbce7b0a1	-0.028282465
91	0x3e82264f	0.25419852
92	0x3cc72820	0.024311125
93	0x3d1a8a1b	0.037729364
94	0x3dc158ec	0.094407886
95	0x3e0f125d	0.13971849
96	0xbd9acc5f	-0.07558512
97	0x3ddd570b	0.10807618
98	0x3ec77df0	0.3896327
99	0x3e2f70cf	0.17132877
100	0x3e094515	0.13405259
101	0x3e741471	0.23835923
102	0x3e014af9	0.12626256
103	0x3d11c772	0.035590596
104	0x3bf7fccb	0.007567977
105	0x3e86436f	0.26223323
106	0x3df251a5	0.11831979
107	0x3e0ae553	0.13564043
108	0x3eb087fc	0.34478748
109	0x3e0b3556	0.13594565
110	0x3bafd866	0.005366373
111	0x3d2ca10b	0.04214577
112	0x3e2636ac	0.16231793
113	0xbcad098f	-0.021122722
114	0xbdb3c732	-0.08778228
115	0x3e1bf3f6	0.15229782
116	0x3e2c0e6c	0.16802377
117	0x3e8b7f43	0.2724553
118	0xbd29363e	-0.041311495
119	0x3e1f784a	0.1557323
120	0x3e0876ce	0.1332657
121	0xbd6441a6	-0.05572667
122	0x3e3aa8cb	0.18228452
123	0x3d4fbb27	0.05071559
124	0x3e80e0d1	0.2517152
125	0x3e06143c	0.13093656
126	0x3d40232f	0.046908554
127	0x3e4b2e1b	0.19841807
128	0xbe4e5f6a	-0.20153585
129	0xbe1f91b6	-0.15582928
130	0xbe02eb1f	-0.12785004
131	0x3d8286f2	0.06373395
132	0x3def7aa5	0.116933145
133	0xbdc72073	-0.09722986
134	0x3e335213	0.17511778
135	0x3e19a232	0.15003279
136	0xbd65ca29	-0.056100998
137	0xbe103285	-0.14081772
138	0x3dc18304	0.09448817
139	0x3d37af3a	0.044844843
140	0x3dfc1638	0.123089254
141	0x3cf7dbc5	0.030256161
142	0xbd0bef27	-0.03416362
143	0xbe9721bc	-0.29517925
144	0xbe5798b2	-0.21054342
145	0xbd9d26bf	-0.07673406
146	0x3e454cbc	0.19267553
147	0xbe4ffc3d	-0.20311065
148	0xbe408708	-0.1880151
149	0x3dedfb0f	0.11620151
150	0xbde6ad49	-0.1126352
151	0x3c92beee	0.017913308
152	0xbe8c183c	-0.2736224
153	0xbe096a07	-0.13419352
154	0xbce715a2	-0.028208558
155	0xbd234911	-0.039864603
156	0x3d00ca39	0.031442855
157	0xbcdd223f	-0.026993869
158	0x3e55823b	0.2085046
159	0xbe617150	-0.22015882
160	0xbe026975	-0.12735541
161	0x3e23cf75	0.15997107
162	0xbda725bd	-0.08161495
163	0x3e52ef60	0.20599127
164	0xbdd33d0b	-0.103143774
165	0x3e183d10	0.14867043
166	0x3d4ad85c	0.049522743
167	0xbeb01e5d	-0.34398165
168	0xbbbe891c	-0.0058146846
169	0x3e054ca7	0.13017522
170	0x3e5b90e7	0.21441995
171	0x3cfcb15d	0.030846292
172	0xbe4052b7	-0.18781553
173	0xbe5d6715	-0.21621354
174	0xbd8f0ba2	-0.06984641
175	0x3e27f0a3	0.1640039
176	0x3d8167b3	0.06318607
177	0x3e8123a8	0.25222516
178	0x3d57001e	0.052490346
179	0x3dcce179	0.10003943
180	0xbcd39355	-0.02582709
181	0xbe446891	-0.19180514
182	0x3e70a989	0.23502173
183	0x3c92a061	0.01789874
184	0x3c673e39	0.014113956
185	0xbe1417f8	-0.14462268
186	0x3e57ea9a	0.21085587
187	0x3e26e466	0.16298065
188	0xbdc8633f	-0.09784555
189	0xbc8e2180	-0.017349958
190	0x3e2ca80d	0.16860981
191	0x3e6e0f7f	0.23248099
192	0xbcfd7287	-0.0309384
193	0x3e504bff	0.2034149
194	0x3e57b6f7	0.2106589
195	0x3d6ccfcd	0.05781536
196	0x3db1ecdb	0.08687755
197	0x3c167b0c	0.00918461
198	0x3bc5334a	0.006018077
199	0x3db997ae	0.09062134
200	0x3bffe544	0.007809313
201	0xbe35ebb2	-0.17765692
202	0x3ca63f6e	0.020293918
203	0xbe778e46	-0.24175367
204	0xbdb18dd4	-0.0866963
205	0x3dfa6358	0.122259796
206	0x3e167609	0.14693464
207	0xbdd8099f	-0.1054871
208	0xbb394ff3	-0.0028276413
209	0xbd50dfb4	-0.05099459
210	0xbc3befc5	-0.01147074
211	0x3e884baf	0.26620242
212	0x3e6d84ab	0.2319514
213	0x3cb009fa	0.021489132
214	0x3dc7cc0f	0.09755718
215	0xbe1c21da	-0.15247288
216	0xbc49259d	-0.012277034
217	0xbeeaa27a	-0.45827085
218	0xbd278e71	-0.040907327
219	0xbc2903bf	-0.010315835
220	0x3cf69a7d	0.030102963
221	0xbe104ffc	-0.14093012
222	0x3d93d5f2	0.07218541
223	0x3d6f4f40	0.058425188
224	0x3e1d994b	0.15390508
225	0xbc6822c1	-0.014168442
226	0xbe517e55	-0.20458348
227	0x3d6fd86c	0.058556005
228	0x3e816d25	0.25278583
229	0x3da1caa4	0.07899979
230	0x3dbd37c3	0.09239151
231	0x3d4f0a11	0.05054671
232	0x3cb3715c	0.02190464
233	0x3da86ddd	0.0822408
234	0xbd657990	-0.056024134
235	0x3dcc187f	0.0996561
236	0xbe215130	-0.15753627
237	0x3e5dcffe	0.21661374
238	0x3e1a9042	0.15094092
239	0x3aaf7314	0.0013385736
240	0xbc9e13d4	-0.019296564
241	0xbc5792cc	-0.013157558
242	0xbb866cff	-0.004102349
243	0x3e503786	0.2033368
244	0x3e1ea28d	0.15491696
245	0xbdeb3bb2	-0.11485995
246	0xbe05a427	-0.130509
247	0x3dec12d5	0.115270294
248	0xbe594221	-0.21216632
249	0xbdf1f378	-0.11814016
250	0xbe2a8c16	-0.16655001
251	0xbdb7e151	-0.089785226
252	0x3d5d9718	0.054099172
253	0xbd34e2d4	-0.044161633
254	0x3dc3c3cf	0.09558832
255	0x3cd3d03f	0.025856135

actor.weight f4 [5, 128]
0	0xbe0df850	-0.13864255
1	0xbe242f1d	-0.16033597
2	0xbd114253	-0.035463642
3	0xbe9dec82	-0.30844504
4	0x3e6086bd	0.21926399
5	0xbd173319	-0.036913965
6	0x3c0aedb6	0.008479526
7	0xbd832a5e	-0.06404565
8	0xbdd4b94f	-0.10386907
9	0xbd365269	-0.044512186
10	0x3e191fc0	0.14953518
11	0xbdc63546	-0.0967813
12	0x3ea5dc4f	0.32394645
13	0xbde4648e	-0.11151992
14	0xbd11e1fa	-0.0356159
15	0x3da24045	0.07922415
16	0x3d8e225c	0.06940147
17	0x3de2e1d1	0.11078227
18	0x3e791d68	0.24327624
19	0x3e09abe5	0.13444479
20	0x3e6d3888	0.23166096
21	0x3dc06701	0.093946464
22	0xbe1df1f3	-0.15424328
23	0x3e2f1157	0.17096458
24	0x3e14650c	0.14491671
25	0xbe009692	-0.12557438
26	0x3dfde064	0.12396315
27	0xbc03831b	-0.008026863
28	0x3bf2d1c5	0.0074102604
29	0x3d0201a6	0.031739853
30	0x3d5bba85	0.053644676
31	0xbd8dc653	-0.06922593
32	0x3d597db9	0.053098414
33	0xbebefa98	-0.37300563
34	0x3e5bc99e	0.2146363
35	0x3e25a125	0.16174753
36	0xbbf7e16d	-0.0075647146
37	0xbe267d10	-0.16258645
38	0xb9855bae	-0.00025436044
39	0xbe1a38da	-0.1506075
40	0x3e2126bc	0.15737432
41	0xbc863ead	-0.016387308
42	0xbdbbd78d	-0.091719724
43	0x3e18a807	0.14907847
44	0xbd99ad43	-0.0750375
45	0x3dcbaa52	0.099445954
46	0xbdc2b04f	-0.095062844
47	0x3eb3794e	0.35053486
48	0x3d4ed188	0.050492793
49	0xbded50d5	-0.11587683
50	0x3e82f243	0.25575456
51	0xbcc5a07e	-0.02412438
52	0x3d51afbb	0.05119298
53	0xbd5178b7	-0.051140513
54	0xbe84a2b8	-0.25905395
55	0x3e5ce76a	0.21572652
56	0x3e4a2cb6	0.19743618
57	0xbec0d383	-0.3766137
58	0x3d3e7d23	0.04650606
59	0x3ddfe8bc	0.109330624
60	0xbc6752b6	-0.014118841
61	0x3e9f5e80	0.31126785
62	0xbe809567	-0.25113985
63	0x3e6581a7	0.2241274
64	0xbba810d0	-0.0051289573
65	0x3dd1089a	0.10206719
66	0xbe010c60	-0.12602377
67	0x3d0e761b	0.034780603
68	0xbcdb914e	-0.026802685
69	0xbe0745eb	-0.13210265
70	0xbe4eec67	-0.20207368
71	0x3e9179e2	0.28413302
72	0xbe0614ec	-0.13093919
73	0x3d184344	0.037173524
74	0xbe487bc5	-0.19578464
75	0xbe800212	-0.2500158
76	0x3e5d7f18	0.21630514
77	0x3dcc6f06	0.099821135
78	0xbdbdc949	-0.09266908
79	0x3e237491	0.15962435
80	0xbe83eddc	-0.2576741
81	0xbd9e2f55	-0.077238716
82	0x3d612291	0.054964606
83	0x3cd8ffa6	0.02648909
84	0xbee4e35a	-0.44704705
85	0xbd94b2d0	-0.07260668
86	0x3d8a4656	0.06751697
87	0x3d3d33c8	0.04619196
88	0x3e61954b	0.22029607
89	0xbe398f2b	-0.1812102
90	0xbe1b591c	-0.15170711
91	0xbc5eba81	-0.013594271
92	0xba9fdeac	-0.0012197099
93	0xbe2fc72c	-0.17165822
94	0xbecb2aaf	-0.39681002
95	0x3afc3ffa	0.0019245141
96	0x3eaefdfe	0.34178156
97	0x3e50703a	0.20355311
98	0xbdae1fb6	-0.08502142
99	0xbd6a97fd	-0.057273854
100	0x3e69f016	0.22845492
101	0x3c113314	0.008862276
102	0xbd101553	-0.035176586
103	0xbdcd7c41	-0.10033465
104	0xbe269b41	-0.16270162
105	0x3d541745	0.051780004
106	0xbe172da5	-0.14763506
107	0x3d533cb2	0.051571555
108	0x3e441d3c	0.19151777
109	0x3eff7e17	0.49900886
110	0xbedfdc88	-0.4372294
111	0x3ddd22cc	0.107976526
112	0x3eb6caa7	0.35701486
113	0xbe46bd31	-0.19408108
114	0x3d5fa405	0.05459978
115	0x3ea8b711	0.3295217
116	0x3d44b4b4	0.048023894
117	0xbdaddb33	-0.084890746
118	0xbe08d27c	-0.13361543
119	0xbdb84c0f	-0.08998882
120	0x3dfbb99c	0.122912616
121	0x3bf15f83	0.007366122
122	0xbe02e4c5	-0.12782581
123	0xbe3eba14	-0.1862567
124	0xbdbc8aed	-0.092061855
125	0x3e2d863b	0.16945736
126	0xbdb704ac	-0.08936438
127	0xbd80623d	-0.062687375
128	0x3d5097e2	0.050926097
129	0xbee344aa	-0.44388324
130	0xbee6d970	-0.45087767
131	0xbdfae6cc	-0.12251052
132	0x3ed13bcf	0.40865943
133	0xbe0a2bbe	-0.13493249
134	0x3e0aa74b	0.1354038
135	0x3e441783	0.19149594
136	0xbf1097bf	-0.56481546
137	0x3e170346	0.14747342
138	0x3e80c897	0.25153038
139	0xbe6dbb1e	-0.23215911
140	0x3defeb7a	0.117148355
141	0xbe8f4915	-0.27985445
142	0xbb4d18b2	-0.0031295237
143	0x3e8988e5	0.26862255
144	0xbefe95ed	-0.4972376
145	0xbdc4d990	-0.09611809
146	0x3dbbb3f0	0.0916518
147	0x3e55f871	0.20895554
148	0x3ee4b584	0.44669735
149	0x3e4ed2cf	0.20197605
150	0x3d1b911e	0.03798019
151	0x3eae83b8	0.34084868
152	0x3e3ea68f	0.18618225
153	0x3e871fbb	0.26391396
154	0xbc65217f	-0.013985037
155	0xbeb97ea2	-0.36229426
156	0x3d7fdba7	0.062465336
157	0x3d7612f2	0.06007666
158	0x3eb51306	0.35366076
159	0xbe69e47e	-0.22841069
160	0xbe047bf0	-0.12937903
161	0xbec86e71	-0.3914676
162	0x3efc1f49	0.4924262
163	0x3e633595	0.22188409
164	0x3eca01d9	0.39454535
165	0xbe064f19	-0.13116111
166	0x3dcba794	0.09944072
167	0xbeaddefa	-0.3395918
168	0x3e825aed	0.25459996
169	0x3d93223e	0.071842656
170	0xbdf0da66	-0.11760406
171	0x3d8fe370	0.07025802
172	0xbe9c1885	-0.30487457
173	0xbeda1d14	-0.4260031
174	0xbe8bf886	-0.27338046
175	0x3d13a4b6	0.036045752
176	0x3e16b4be	0.14717385
177	0xbbfa4dc2	-0.007638664
178	0x3df1e643	0.11811497
179	0xbdea5dfa	-0.11443706
180	0xbe7c8166	-0.24658737
181	0xbe2900c1	-0.16504194
182	0xbe86b18b	-0.2630733
183	0x3e9bcee6	0.30431288
184	0xbe8568e8	-0.260566
185	0xbea1c315	-0.31594148
186	0xbe8ff2fd	-0.28115073
187	0x3e1399c1	0.14414121
188	0x3e777721	0.24166538
189	0x3c9040d6	0.017609041
190	0xbb1bf893	-0.0023799285
191	0xbd96ce24	-0.07363537
192	0x3e0b17fa	0.13583365
193	0x3ea82281	0.32838824
194	0x3e430101	0.19043352
195	0x3e435ba1	0.19077922
196	0x3dae3984	0.08507064
197	0x3e012a0a	0.12613693
198	0xbe9842e5	-0.29738536
199	0xbd741fec	-0.059600756
200	0x3e59a653	0.21254854
201	0x3e90e142	0.28296858
202	0x3de1f279	0.11032576
203	0xbe23d41e	-0.15998885
204	0x3eeb18e7	0.45917436
205	0x3ee141e6	0.4399559
206	0xbe197b75	-0.14988501
207	0x3da0c7df	0.078506224
208	0x3eb35490	0.35025454
209	0x3e99cbad	0.30038205
210	0xbd443e49	-0.047910962
211	0x3d0fb86f	0.035088
212	0xbe96c819	-0.29449537
213	0xbe84399f	-0.2582521
214	0x3eaa99d6	0.33320493
215	0x3d5131fe	0.051073067
216	0x3e35fc13	0.1777194
217	0xbe9f7370	-0.3114276
218	0xbdd03c36	-0.10167734
219	0xbe832317	-0.2561271
220	0x3d1a890e	0.03772836
221	0xbe47197f	-0.1944332
222	0xbe0f4d6b	-0.13994376
223	0xbe84ea9a	-0.25960237
224	0x3e483565	0.19551618
225	0x3d3ec4fe	0.046574585
226	0xbe32c1ed	-0.1745679
227	0x3d587883	0.052849304
228	0x3eaca535	0.33719793
229	0x3c647fb4	0.013946462
230	0xbe330f8e	-0.17486402
231	0xbdc40d13	-0.09572806
232	0x3e3a5b1d	0.1819882
233	0x3e008a40	0.12552738
234	0x3e6bce47	0.23027907
235	0x3e8fb806	0.28070086
236	0x3e9bf5e6	0.30461043
237	0x3e3c5062	0.18390039
238	0xbe5a7930	-0.21335292
239	0x3e4ed248	0.20197403
240	0x3e9c19b0	0.30488348
241	0xbe1776c3	-0.14791398
242	0xbe3d6b16	-0.18497881
243	0x3e572951	0.21011855
244	0x3ddc7637	0.10764735
245	0xbed79d92	-0.42112404
246	0x3e98d010	0.2984624
247	0xbe3310a3	-0.17486815
248	0x3eecba37	0.4623582
249	0x3d423764	0.047416106
250	0x3e5eda1f	0.21762894
251	0xbee31841	-0.44354442
252	0xbd7a6175	-0.0611281
253	0xbd7e26b3	-0.062048625
254	0xbd2f1934	-0.042748645
255	0xbec772a6	-0.38954657

actor.bias f4 [5]
0	0x3cca13a3	0.024667567
1	0x3dcb853d	0.099375226
2	0xbbaf4514	-0.005348811
3	0x3d607b98	0.05480537
4	0x3d91f8f2	0.07127561

critic.weight f4 [1, 128]
0	0x3e916fa6	0.28405493
1	0x3c6426f9	0.013925307
2	0x3c36a466	0.011147594
3	0xbd243ac5	-0.04009511
4	0x3e7f7c13	0.24949674
5	0xbe32b88f	-0.17453216
6	0x3e535e72	0.20641497
7	0xbe8daac6	-0.27669352
8	0xbc20ad60	-0.009806961
9	0x3de3bef4	0.11120406
10	0xbcd80524	-0.026369639
11	0xba1dfd55	-0.0006026824
12	0x3e23d9f3	0.1600111
13	0xbdbcaf1e	-0.092130885
14	0x3d96191d	0.07329009
15	0xbd8307e8	-0.06397992
16	0x3c7c3f75	0.015395989
17	0x3d9fa6b4	0.07795468
18	0x3e097ee1	0.13427307
19	0xbc30819d	-0.01077309
20	0xbc3c72f0	-0.011502013
21	0x3be1b7de	0.0068883738
22	0xbe5f29a2	-0.21793225
23	0xbbdf7add	-0.0068200664
24	0x3d83ba8d	0.06432066
25	0x3d42185b	0.04738651
26	0x3df235e1	0.11826683
27	0x3c1008b0	0.008791134
28	0x3debe224	0.11517742
29	0x3e32e5f5	0.17470534
30	0x3e3882e2	0.18018678
31	0x3d027dfd	0.031858433
32	0x3ba2dbcd	0.00497005
33	0xbca61289	-0.02027251
34	0x38d34050	0.00010073243
35	0x3dfec0cd	0.124391176
36	0x3e3d5be2	0.18492082
37	0xbdbbe73e	-0.09174965
38	0x3e75daf7	0.2400931
39	0xbe7b0973	-0.24515323
40	0x3cb4ed82	0.022085909
41	0x3e2c3d0f	0.16820167
42	0xbdff0c6a	-0.1245354
43	0x3d063dc0	0.032773733
44	0x3b386ece	0.0028142217
45	0xbcfab313	-0.030602967
46	0x3e475ea2	0.19469693
47	0x3e000465	0.12501676
48	0x3dc9105c	0.098175734
49	0x3e1e16ed	0.15438433
50	0x3e2aca21	0.16678669
51	0xbe39ca64	-0.18143612
52	0xbb82fb66	-0.003997254
53	0x3d0d1b53	0.034449887
54	0xbcb88890	-0.022526056
55	0x3d6ce745	0.057837743
56	0xbeb36e83	-0.3504525
57	0x3dafe6bb	0.0858893
58	0xbdd38975	-0.10328952
59	0x3e2365cd	0.15956803
60	0x3c9cd111	0.01914266
61	0xbcae1e0d	-0.021254564
62	0xbdbeb0ea	-0.093110874
63	0xbc9ea5f7	-0.019366248
64	0x3d0809ac	0.03321235
65	0x3c7d77c6	0.015470451
66	0x3e08a4fd	0.13344188
67	0x3d8f736e	0.07004438
68	0x3e345fc7	0.17614661
69	0x3df031b4	0.1172823
70	0xbd4b7c8e	-0.04967933
71	0xbe25783f	-0.16159151
72	0x3dbb9068	0.09158403
73	0xbe0e447d	-0.13893314
74	0x3e8fa764	0.28057396
75	0x3d911364	0.070837766
76	0xbd9b21b0	-0.07574785
77	0xbb848e25	-0.0040452653
78	0xbe39a447	-0.18129073
79	0x3d157fa0	0.036498666
80	0x3e130066	0.1435562
81	0x3d9aacda	0.075525
82	0xbdd1d68d	-0.102460004
83	0x3df51d27	0.11968451
84	0xbe2e7724	-0.17037636
85	0x3d377fd5	0.044799645
86	0xbd9fe27b	-0.078068696
87	0x3da66784	0.08125213
88	0x3d90f895	0.07078663
89	0x3cfad64e	0.030619767
90	0xbbdb1bff	-0.006686687
91	0xbbfe474f	-0.0077599655
92	0xbe7d0382	-0.2470837
93	0xbd30b614	-0.043142393
94	0x3c53f6c1	0.012937249
95	0xbdbdd179	-0.09268469
96	0x3dac6372	0.08417405
97	0x3c6e72aa	0.014553705
98	0x3d01c183	0.031678688
99	0x3d78af0d	0.060713816
100	0x3d5473b7	0.051868167
101	0x3e5c2029	0.21496643
102	0xbdc47ead	-0.09594474
103	0xbdb3003e	-0.087402806
104	0x3d587178	0.052842587
105	0x3e640d23	0.22270636
106	0x3e545a4b	0.20737569
107	0x3dd75973	0.10515108
108	0x3cdeb84f	0.027187495
109	0x3dc53522	0.09629275
110	0xbe3e17d8	-0.18563783
111	0xbc8faf23	-0.017539566
112	0x3d08bcce	0.033383183
113	0xbd80df68	-0.06292611
114	0xbdcaa0c9	-0.098939486
115	0x3d00be07	0.031431224
116	0x3d5bc086	0.0536504
117	0x3db7acce	0.08968507
118	0x3dda326f	0.10654151
119	0xbd4bbfec	-0.049743578
120	0xbcdb2711	-0.026752027
121	0x3e636350	0.22205853
122	0x3be5b2a6	0.007009822
123	0x3e1980f2	0.14990595
124	0xbdb445fb	-0.0880241
125	0x3d647e54	0.05578454
126	0xbc1d86ed	-0.009614688
127	0x3c48f8c5	0.0122663425
