OLD/Liu/test_flip/v_5/train_iter_1400.pt (torch, 468231 bytes, 9 tensors)

h0 f4 [128]
0	0xbf2bdd75	-0.6713479
1	0xbfe9d989	-1.8269511
2	0x3f6538cc	0.8953979
3	0xbe8e3588	-0.27775216
4	0x3f6deeef	0.9294271
5	0xbed3a887	-0.41339514
6	0xbe327d4a	-0.17430606
7	0x3f39ace4	0.72529435
8	0xbf26f02c	-0.65210223
9	0xbf4c0047	-0.79687923
10	0xbfc363ce	-1.5264833
11	0xbe608bdf	-0.21928357
12	0xbe11eda7	-0.14250813
13	0xbfb29372	-1.3951247
14	0x3fbdbec8	1.4823847
15	0x3df3d4e2	0.119058385
16	0x3fa9aebc	1.325645
17	0xbed7e87b	-0.42169556
18	0xbf4384b1	-0.76374346
19	0xbeca4f8f	-0.39513823
20	0xbf001cda	-0.50044024
21	0xbf58cf23	-0.84691066
22	0x3f99db20	1.2019997
23	0xbeb57313	-0.35439357
24	0x3f86ad0b	1.0521559
25	0x3fa16cbb	1.2611307
26	0x3e85cd0a	0.26132995
27	0x3fad3b7d	1.3533779
28	0xc026016a	-2.5938363
29	0xbfc6cf64	-1.553204
30	0xbf8aa523	-1.0831646
31	0x3f86e00c	1.0537124
32	0xbf1c740a	-0.6111456
33	0x3f889217	1.0669583
34	0x3f9d02b2	1.2266448
35	0xbf3d8201	-0.74026495
36	0x3e80c7e6	0.2515251
37	0x3ef47387	0.4774439
38	0xbf673aa7	-0.9032387
39	0xbf85bf2d	-1.0448967
40	0xbe83c63b	-0.25737175
41	0x3ff1cfd6	1.8891551
42	0xbe83eb21	-0.25765327
43	0xbe99cfc4	-0.30041325
44	0x3f1c193c	0.60976005
45	0x3fd81ad9	1.6883193
46	0x3f9e475f	1.2365531
47	0xbd1a0ea7	-0.03761163
48	0xbf3cc89e	-0.7374362
49	0x400a3e4c	2.1600523
50	0xbf369d04	-0.71333337
51	0xbf23e821	-0.64026076
52	0xbe38abd0	-0.18034291
53	0xbf564514	-0.83699155
54	0x3f27fd00	0.6562042
55	0x3de2cb99	0.110739894
56	0x3ed62e88	0.41832376
57	0xbfe128b9	-1.7590553
58	0xbf4547b3	-0.7706253
59	0xbf0e4261	-0.55570036
60	0x4007747a	2.1164842
61	0xbe5a34a2	-0.2130914
62	0xbf41264b	-0.75449055
63	0x3f21bf1e	0.63182247
64	0x3f3715fb	0.71517915
65	0x3e6086ca	0.21926418
66	0x3f8e2e16	1.1107814
67	0x3fed2cdb	1.8529314
68	0x3e8be587	0.27323553
69	0xbe99de21	-0.30052283
70	0xbed90061	-0.42383102
71	0xbde355f8	-0.111003816
72	0xbe7a22bd	-0.24427314
73	0x3f392b9e	0.7233218
74	0x401326b4	2.2992373
75	0xbfe18d52	-1.7621253
76	0xbf0e9bad	-0.5570629
77	0x3f93f71c	1.1559787
78	0x40185d93	2.3807113
79	0x3eada1ea	0.33912593
80	0xbec787b2	-0.38970715
81	0xbfb03ae9	-1.3767978
82	0xbfe2dfe1	-1.7724572
83	0x3fc8084e	1.5627534
84	0xbfa80b9d	-1.3128544
85	0x3f3c5d04	0.7357943
86	0xbdb1e31f	-0.08685898
87	0x3fb75a76	1.4324481
88	0xbf84f0b7	-1.038596
89	0xbef4e2a7	-0.47829172
90	0xc00dbb93	-2.2145736
91	0xbe9a951f	-0.30191895
92	0xbf879a61	-1.0593988
93	0xbfdd1742	-1.7272723
94	0x3f104f14	0.56370664
95	0xbe141d9e	-0.14464423
96	0x3fb1e18f	1.389696
97	0xbf2bc95a	-0.67104113
98	0xbfb1353e	-1.3844373
99	0xbf0aafa3	-0.5417425
100	0xbf54dcdc	-0.83149505
101	0x3f8f1d4e	1.1180818
102	0x3f20fb24	0.6288321
103	0xbf346b2c	-0.7047603
104	0x3fb51e3c	1.4149852
105	0xbe9ceea6	-0.30650824
106	0x3fb16c67	1.3861207
107	0xbfa74e33	-1.307074
108	0xbe80ef09	-0.2518237
109	0x3f8074e1	1.0035669
110	0xbf11131a	-0.5666977
111	0x3ed16a0a	0.40901214
112	0x3fa03fcd	1.251947
113	0x3f63e9b3	0.8902847
114	0x400b6af4	2.178403
115	0x3e4d9290	0.2007544
116	0x3e081088	0.13287556
117	0xc00559c1	-2.0836031
118	0xbf89eb7c	-1.0774989
119	0xbfc08213	-1.5039696
120	0x3fa9a384	1.3253026
121	0xbf7fcb10	-0.99919224
122	0xbf27dd37	-0.6557192
123	0xbe02bdd1	-0.12767722
124	0x3eb50d9a	0.3536194
125	0xbf6cba49	-0.9247175
126	0x3f4a4935	0.79017955
127	0x3df3b7e7	0.11900311

c0 f4 [128]
0	0xbfb08482	-1.3790438
1	0xbf5d04c7	-0.86335415
2	0x3f00a619	0.50253445
3	0x3cce757f	0.02520251
4	0x3f1030dc	0.56324553
5	0x3f82e0ba	1.0224831
6	0xbf3e860a	-0.7442328
7	0xbf415e14	-0.75534177
8	0x3f92ba2c	1.1463065
9	0x3e16c56c	0.14723748
10	0xbf9dc67b	-1.2326196
11	0xbe38f6d7	-0.18062912
12	0xbe9ba390	-0.30398226
13	0xbf6603f3	-0.89849776
14	0x3fb2f596	1.3981197
15	0x3f2bcc02	0.67108166
16	0x3f791385	0.9729541
17	0x3e320a50	0.17386746
18	0x4002b1f2	2.042111
19	0x3f9261dc	1.1436114
20	0xbf70516d	-0.93874246
21	0x3fa75cca	1.3075192
22	0xbfe75ebc	-1.8075786
23	0x3fd92d2a	1.6966908
24	0x3fd24093	1.6425956
25	0x3eb8f339	0.36123064
26	0x3f769ebe	0.9633597
27	0x3ea2fb4e	0.31832355
28	0xbf084031	-0.5322295
29	0xbefa5520	-0.4889307
30	0x3f4fc634	0.8116181
31	0xbf050ce2	-0.5197278
32	0xbf3f4a36	-0.7472261
33	0xbe289f46	-0.16467008
34	0x3e7aa3aa	0.24476495
35	0xbf1b6f6d	-0.607169
36	0x3f8d9e19	1.1063873
37	0xbfc34f0b	-1.5258497
38	0x3ec5c614	0.38627684
39	0x3e35fc26	0.17771968
40	0xbe78ee8d	-0.2430975
41	0xbf8f8da7	-1.1215104
42	0xbf3e0bc5	-0.7423671
43	0xc00a6ada	-2.1627717
44	0x3ed04f19	0.40685347
45	0x3f3468b8	0.7047229
46	0xbffd9864	-1.9812131
47	0x3fa20801	1.2658693
48	0x3fabd69b	1.3424867
49	0x3f1ee31f	0.6206531
50	0x401b50f2	2.4268155
51	0x3ff63e45	1.9237753
52	0xbe05c597	-0.13063656
53	0x3f5e0bdc	0.86736846
54	0xbf867feb	-1.0507787
55	0x3eb2351f	0.34806153
56	0x3d9bb954	0.07603708
57	0x3f68976c	0.9085605
58	0x3f2146b0	0.62998486
59	0x3eb3a06d	0.35083333
60	0x40287628	2.6322117
61	0xbfd1c925	-1.638951
62	0xbf325d90	-0.69674015
63	0x3f4e22e3	0.8052198
64	0x3d8bc8ee	0.06825434
65	0x3f7b94ec	0.9827411
66	0xbf901a19	-1.1257964
67	0xbf3eb898	-0.7450042
68	0x3f1eb3b6	0.6199297
69	0xbf85ce62	-1.0453608
70	0xbf3930f7	-0.7234034
71	0xc011a4dd	-2.2756875
72	0xbf16e8e5	-0.5894912
73	0xbef0d9cd	-0.4704117
74	0xbed3c43b	-0.4136065
75	0x3ddee735	0.10883943
76	0xbe991e71	-0.29906037
77	0xbfd87daa	-1.691335
78	0x3fbd5043	1.4790119
79	0xc001e0f5	-2.0293553
80	0xbf7d80c3	-0.990246
81	0xbf49ab10	-0.78776646
82	0xc0355a77	-2.8336465
83	0x3ef4ebe1	0.4783621
84	0xbf845262	-1.0337641
85	0xbfcf3924	-1.6189313
86	0xbe788079	-0.24267758
87	0x3e840ec2	0.2579251
88	0x3f012166	0.50441587
89	0x3fac7ff6	1.347655
90	0xbf871e9c	-1.0556216
91	0xbf56b4d5	-0.8386968
92	0xc006a2c1	-2.1036837
93	0x3f3aecf4	0.7301781
94	0xbed53c66	-0.41647643
95	0xbf748995	-0.95522434
96	0xbf6ce619	-0.925386
97	0xbf1ceb5b	-0.61296624
98	0xbf8cd9f9	-1.100402
99	0x3fa72e81	1.3061067
100	0xbff2a562	-1.8956721
101	0xbfc27b54	-1.5193887
102	0x400986e0	2.148857
103	0x3f9e8e8a	1.238725
104	0x3f79d268	0.9758668
105	0x3fb9ebb4	1.4525056
106	0xbf549e24	-0.83053803
107	0xbfc09710	-1.5046101
108	0x3f66bb15	0.90129215
109	0x3f80ad27	1.0052842
110	0x3ee0c643	0.43901262
111	0xbeadbad2	-0.33931595
112	0x3ff8c7c6	1.9435966
113	0x3fdeb0ae	1.7397668
114	0x3fc8525f	1.5650138
115	0x3eabd7b9	0.3356302
116	0xbf354c65	-0.70819694
117	0xbf04b744	-0.5184214
118	0xbe7c081e	-0.24612471
119	0x3eb0eac3	0.3455411
120	0x40115a46	2.2711349
121	0xbee828a4	-0.45343506
122	0xbfb5fb03	-1.4217228
123	0x3f803014	1.0014672
124	0xbf15da28	-0.58536005
125	0xbf277112	-0.65406907
126	0xbf202c7a	-0.62567866
127	0xbf6529c1	-0.89516836

RNN.weight_ih_l0 f4 [512, 15]
0	0x3dc2d9d9	0.095142074
1	0xbd0e7586	-0.034780048
2	0xbc1a504b	-0.009418557
3	0xbcc66960	-0.024220169
4	0x3d61f93e	0.055169336
5	0x3d85f480	0.06540775
6	0xbcfebc09	-0.031095522
7	0x3d9b13b7	0.0757212
8	0xbd36eb11	-0.04465777
9	0xbc17f1e6	-0.009273982
10	0xbd20bef3	-0.039244603
11	0xbce5b304	-0.028039463
12	0x3d538145	0.051636953
13	0xbceeae14	-0.029135741
14	0xbc71a588	-0.014748938
15	0x3d98179f	0.0742638
16	0x3d363bce	0.044490628
17	0x3d8ce12e	0.06878887
18	0xbd216e3d	-0.039411772
19	0xbc830814	-0.015995063
20	0xbb8d32ca	-0.004309033
21	0x3c835f57	0.016036673
22	0xbc65a1b0	-0.0140156
23	0x3cacf9c9	0.0211152
24	0x39ff4cc2	0.0004869458
25	0xbc142c8c	-0.009043824
26	0x3d90d5bd	0.07072017
27	0xbcc1588e	-0.023601796
28	0xbd99850d	-0.074960805
29	0x3d8166c3	0.06318428
30	0xbd709396	-0.0587345
31	0x3d3bb0ce	0.04582291
32	0x3db24ed4	0.087064415
33	0x3c4343a0	0.0119179785
34	0x3d5c633a	0.053805567
35	0x3d5baa42	0.053629167
36	0x3d5a2947	0.05326202
37	0x3d2cdbaa	0.042201675
38	0x3d4cbceb	0.049984854
39	0x3e14ac77	0.14518915
40	0x3c2ad80b	0.010427485
41	0x3d5480ee	0.05188077
42	0x3d69c143	0.057069074
43	0x3c788684	0.01516879
44	0x3d449497	0.04799327
45	0xbdbbc16f	-0.09167754
46	0x3dbfbb1c	0.0936186
47	0xbcae434b	-0.021272322
48	0x3d85ed8b	0.06539448
49	0x3d8b83d5	0.06812254
50	0x3d04a478	0.032383412
51	0xbcb6eb8a	-0.02232911
52	0x3a1b9a00	0.00059357285
53	0xbcd373dc	-0.025812082
54	0xbda18d16	-0.07888238
55	0x3dbc2e7b	0.09188553
56	0xbcf710ce	-0.03015938
57	0xbd811375	-0.06302539
58	0xbd58087f	-0.052742478
59	0xbdcd13f2	-0.1001357
60	0xbda397dc	-0.07987949
61	0xbd77d635	-0.060507018
62	0x3d129887	0.035789993
63	0x3db04901	0.086076744
64	0x3d3a660e	0.045507483
65	0x3c957f03	0.01824904
66	0x3d8d43c8	0.06897694
67	0x3d84aa91	0.064778455
68	0x3b451f6a	0.0030078539
69	0x3d914b0e	0.07094394
70	0x3db8462c	0.08997759
71	0x3d0aacc3	0.033856165
72	0xbcd4f027	-0.02599342
73	0xbc3b11f3	-0.011417854
74	0x3df9b460	0.12192607
75	0x3d2438c7	0.04009321
76	0x3d20c934	0.039254382
77	0x3c99d6ca	0.018779177
78	0xbc08ef88	-0.00835789
79	0x3bef25f0	0.0072982237
80	0x3d1f85f1	0.038946096
81	0x3daf8b06	0.085714385
82	0xbd8209e4	-0.06349543
83	0x3d3d89f9	0.04627416
84	0xbd75280b	-0.05985264
85	0x3e23f5fc	0.16011804
86	0xbc4c82c6	-0.012482351
87	0x3d3c58c5	0.045983095
88	0x3ce75869	0.0282404
89	0x3d192346	0.037387155
90	0xbcd1ce43	-0.025611049
91	0x3df5b3b4	0.11997166
92	0x3e14663f	0.14492129
93	0x3d767abe	0.06017565
94	0xbcdc72b8	-0.02691017
95	0x3dbb01b7	0.091311865
96	0xbd13579d	-0.035972226
97	0x3d8295c1	0.063762195
98	0x3d561b55	0.05227216
99	0x3d92213b	0.071352445
100	0x3d7eea06	0.0622349
101	0xbd8f38c8	-0.06993252
102	0x3d68e71e	0.056861036
103	0xbd9535bb	-0.07285639
104	0xbd07c6d7	-0.033148613
105	0xbdfb66dd	-0.12275479
106	0x3d0198e3	0.031639945
107	0x3dc47a17	0.09593599
108	0x3caebef4	0.021331288
109	0x3d863b8f	0.06554329
110	0x3ae68abb	0.0017588952
111	0xbdc2dd2b	-0.09514841
112	0xbda8b0b9	-0.08236832
113	0x3d44150e	0.04787164
114	0x3d237ab3	0.039911937
115	0x3e1f0fbf	0.1553335
116	0xbd5a3454	-0.05327256
117	0x3d30060d	0.04297452
118	0xbda40098	-0.08007926
119	0x3aa600fc	0.0012665088
120	0xbda7054b	-0.081553064
121	0x3e112f36	0.14178166
122	0x3dc7f25c	0.09763023
123	0x3cadb300	0.021203518
124	0xbdb4f8ab	-0.08836492
125	0x3d95b8fd	0.07310674
126	0xbdb8dc55	-0.090264
127	0x3d48ba16	0.04900559
128	0x3d1e70a4	0.03868164
129	0x3ba8a833	0.005147004
130	0x3dc6621a	0.0968668
131	0x3dcfce14	0.10146728
132	0x3d680dda	0.056653835
133	0x3d088fea	0.033340372
134	0xbd34637b	-0.044040184
135	0x3e2a3596	0.16622004
136	0xbd681803	-0.056663524
137	0xbc967eda	-0.018371034
138	0x3a3b6380	0.00071483105
139	0xbd8a0990	-0.06740105
140	0x3e28f0d3	0.16498117
141	0x3d875c85	0.066094436
142	0x3bb963e0	0.005657658
143	0xbd82a59e	-0.06379245
144	0xbd87492c	-0.06605753
145	0x3bd6d9ad	0.0065567107
146	0xbd834c03	-0.064109825
147	0xbd57cbab	-0.052684467
148	0x3d9aa738	0.07551426
149	0x3ddef586	0.10886674
150	0x3d6a08ac	0.057137176
151	0x3d679a2a	0.056543507
152	0xbd95d2d2	-0.073156014
153	0x3c87aa80	0.016560793
154	0xbbc9b310	-0.006155379
155	0xbdaa8263	-0.083256505
156	0x3e44c648	0.19216263
157	0x3d451ebe	0.04812502
158	0xbe05db04	-0.13071829
159	0x3ba3cdb2	0.004998886
160	0xbdc52a08	-0.096271574
161	0xbe07aa71	-0.13248612
162	0xbc224472	-0.009904014
163	0xbc23ea98	-0.010004662
164	0x3dee4204	0.11633685
165	0x3b5cf566	0.0033715605
166	0x3d599630	0.053121746
167	0x3d083a04	0.033258453
168	0x3d915617	0.070964985
169	0x3be2b8a0	0.0069189817
170	0x3bb35cd2	0.0054737115
171	0x3d9c3b23	0.07628467
172	0xbcd2febc	-0.025756232
173	0x3dc1190e	0.09428607
174	0x3d571121	0.05250657
175	0x3cd0c0ee	0.025482621
176	0x3db81e85	0.08990196
177	0xbd40c683	-0.047064316
178	0x3d5595b3	0.052144717
179	0xbda467e7	-0.0802763
180	0xbc616add	-0.013758388
181	0x3c8b61ce	0.01701441
182	0x3cf2428f	0.029572753
183	0x3d7c8fce	0.06166058
184	0x3d85ebb3	0.06539097
185	0xbd8d2656	-0.068920776
186	0x3d52e13a	0.051484324
187	0x3c79a5b8	0.015237264
188	0x3d7bdecd	0.061491776
189	0x3d3c2521	0.045933846
190	0x3db75624	0.08951977
191	0x3c99f328	0.018792704
192	0xbd7e8b6e	-0.06214469
193	0xbc67dbe2	-0.014151545
194	0xbd50ab9e	-0.050944917
195	0x3dad14c1	0.08451224
196	0x3a018272	0.00049403973
197	0xbd98892d	-0.07448039
198	0xbd4280cd	-0.047486115
199	0xbda50436	-0.08057444
200	0x3d6944b4	0.056950286
201	0x3e024285	0.12720688
202	0x3cd0ed98	0.025503919
203	0xbd433744	-0.047660127
204	0xbd1a1c75	-0.037624795
205	0x3db860a3	0.09002807
206	0xbbcec05c	-0.006309552
207	0x3dc044f1	0.093881495
208	0xbda77ea5	-0.081784524
209	0x3d63c431	0.055607025
210	0x3e1083d9	0.14112796
211	0xbce840e8	-0.028351262
212	0x3d20f29d	0.039293874
213	0x3da3396b	0.07969936
214	0x3d63b00e	0.05558782
215	0x3e7e83d9	0.24854983
216	0x3daac998	0.08339232
217	0x3c4d7588	0.012540229
218	0xbd1606dd	-0.03662764
219	0x3d95c617	0.07313173
220	0x3d390860	0.045174003
221	0xbd050cad	-0.03248279
222	0xbcc5a4a5	-0.02412636
223	0xbd76eb16	-0.06028279
224	0x3e1db328	0.15400374
225	0x3dcdf9bf	0.10057401
226	0x3cc93937	0.024563415
227	0xbd12c240	-0.035829782
228	0x3d6e6516	0.05820187
229	0xbce30f40	-0.027717233
230	0xbe3a490e	-0.1819193
231	0x3bc586d8	0.0060280375
232	0xbd836b52	-0.06416954
233	0x3a4a4e24	0.00077173323
234	0xbe3b93b0	-0.18318057
235	0x3d192a7b	0.03739403
236	0x3cc59957	0.02412097
237	0x3bc37aec	0.005965581
238	0xbd752085	-0.059845466
239	0x3dbb4b75	0.09145252
240	0x3d66e1c9	0.05636767
241	0x3c9dfb08	0.01928474
242	0xbd453a46	-0.048151277
243	0xbd450c66	-0.048107527
244	0x3beedf90	0.0072898343
245	0xbe26c557	-0.16286217
246	0x3d90aa05	0.07063679
247	0x3d5a148a	0.053242244
248	0x3d4f5933	0.050622176
249	0xbe2a01ec	-0.16602296
250	0x3bf791e8	0.007555235
251	0xbd8826d4	-0.06648031
252	0xbc872c72	-0.016500685
253	0x3d9e4f30	0.077299476
254	0x3dcd1458	0.10013646
255	0x3dc0e99e	0.09419559

RNN.weight_hh_l0 f4 [512, 128]
0	0x3c3d5011	0.011554734
1	0xbb0209e1	-0.0019842314
2	0x3cd20777	0.025638325
3	0xbc724b36	-0.0147884395
4	0x3d57400f	0.052551325
5	0x3d80aab7	0.06282561
6	0xbd0e01ce	-0.03466969
7	0x3d2cdecb	0.04220466
8	0x3dbdf5ba	0.09275384
9	0x3d98b54e	0.07456456
10	0xbdacc6ca	-0.084363535
11	0x3d56a10f	0.05239969
12	0x3de5f55a	0.11228438
13	0xbdab12a3	-0.08353164
14	0xbc8b5cba	-0.017011989
15	0x3d72a0f9	0.059235547
16	0x3bfc9c34	0.0077090506
17	0xbd8a5214	-0.067539364
18	0xbc5855c6	-0.013204044
19	0xbdf16540	-0.1178689
20	0xbd6d9ffd	-0.058013905
21	0x3c651776	0.013982644
22	0xbca3f02e	-0.020011988
23	0xbc6047e8	-0.013689019
24	0x3cf815f4	0.030283906
25	0x3c6680eb	0.014068822
26	0x3c31e83e	0.0108585935
27	0xbdde0586	-0.10840897
28	0xbdc90f0c	-0.09817323
29	0xbdf01f63	-0.117247365
30	0x3d4483d6	0.04797729
31	0xba37e347	-0.0007014763
32	0x3d247e27	0.04015937
33	0xbd9a37fb	-0.07530209
34	0xbd8e8e36	-0.06960718
35	0xbdf4f471	-0.11960686
36	0x3caeca67	0.021336747
37	0x3d578ade	0.05262267
38	0xbd6e64bf	-0.058201548
39	0xbd5a79d2	-0.053338833
40	0x3d7731a5	0.06035008
41	0x3d7dd1be	0.061967604
42	0x3dbf2aaa	0.093343094
43	0x3c0565a3	0.008141908
44	0xbd58b0e9	-0.05290309
45	0x3d66a541	0.056309942
46	0xbdb0435f	-0.086066
47	0x3da9a4b3	0.08283367
48	0xbdd7d7a0	-0.10539174
49	0x3d9fee72	0.07809152
50	0xbdc98650	-0.09840071
51	0x3d2656a3	0.040609967
52	0xbdf860b1	-0.121278174
53	0xbd7b0b72	-0.061290212
54	0x3d6e7cc6	0.058224462
55	0xbd17e292	-0.03708131
56	0xbc00cbc4	-0.0078610815
57	0xbdec8f63	-0.11550786
58	0xbd88fdec	-0.06689057
59	0x3d749837	0.059715476
60	0x3cff282a	0.031147081
61	0x3cf314dc	0.029673032
62	0xbd58f026	-0.0529634
63	0x3d4b8ee0	0.049696803
64	0x3c33842f	0.010956808
65	0xbd085fba	-0.033294417
66	0x3e0046e6	0.12527046
67	0xbb83475e	-0.0040063104
68	0xbcd08b8a	-0.025457162
69	0x3cefdfa8	0.029281452
70	0xbcee418d	-0.029083991
71	0x3e0570a5	0.13031252
72	0x3d3b379b	0.045707326
73	0xbc02270e	-0.007943882
74	0x3c97251b	0.01845031
75	0x3d64dd8e	0.055875354
76	0xbc9d1c65	-0.019178579
77	0x3dc1f5fc	0.09470746
78	0x3cec4559	0.028841661
79	0x3ccfc7ab	0.025363764
80	0xbca66914	-0.020313777
81	0xbd8f404d	-0.06994686
82	0xbc12d3ee	-0.008961661
83	0x3dae5b76	0.085135385
84	0x3d074f17	0.03303441
85	0x3d62b312	0.055346556
86	0x3b7af251	0.0038291404
87	0x3c9a97f8	0.018871292
88	0x3cea8069	0.028625684
89	0x3dc29005	0.09500126
90	0xbdaa4f6e	-0.08315931
91	0xbdb87b67	-0.09007912
92	0xbcae735c	-0.021295242
93	0xbdf75f7f	-0.12078761
94	0x3e255bd8	0.16148317
95	0x3d89c364	0.06726721
96	0x3d1b2baf	0.037883457
97	0xbd8f63e8	-0.070014775
98	0xbd3bd31d	-0.04585563
99	0x3daf378a	0.08555515
100	0xbbc8eaaa	-0.0061314898
101	0xbd7c05fb	-0.06152914
102	0x3d96616f	0.07342803
103	0x3d535eb9	0.051604006
104	0x3ce2728a	0.027642507
105	0xbd1d6b1b	-0.03843222
106	0xbcf68bd2	-0.030095968
107	0x3bd084ee	0.0063635027
108	0xbda7d215	-0.08194367
109	0xbd291c27	-0.041286614
110	0xbd103c9e	-0.03521406
111	0xbced031b	-0.028932145
112	0x3d94d679	0.0726747
113	0x3d90e0f2	0.07074155
114	0xbd90da86	-0.0707293
115	0x3c464599	0.012101554
116	0x3d367ceb	0.044552725
117	0xbd4973f6	-0.049182855
118	0xbe04da90	-0.12974
119	0xbdf1f84a	-0.118149355
120	0xbcfe58a9	-0.031048136
121	0x3b457a87	0.0030132846
122	0x3cff7810	0.03118518
123	0xbd346bb8	-0.04404804
124	0x3dbc7167	0.09201317
125	0xbc8bf50f	-0.017084626
126	0xbdcefa9c	-0.10106394
127	0xbd2c4d0c	-0.042065665
128	0xbcdde0d0	-0.027084738
129	0x3d86dd5a	0.06585188
130	0xbc034fd2	-0.008014636
131	0x3d41c237	0.04730436
132	0x3dc7d7b6	0.097579405
133	0x3d9a22fa	0.075262025
134	0xbd11c285	-0.0355859
135	0x3d8b01d5	0.06787459
136	0x3b434d4c	0.0029800711
137	0xbcbc998a	-0.023022432
138	0xbd1c865c	-0.038214073
139	0xbc87e7e4	-0.016590066
140	0xbcf74535	-0.030184368
141	0x3d03fe0f	0.03222471
142	0xbc02e06b	-0.007988076
143	0xbcdefef8	-0.027221188
144	0x3d6b8071	0.05749554
145	0x3dbd0793	0.0922996
146	0xbcb82f3a	-0.022483457
147	0xbdebb516	-0.11509149
148	0x3d34a383	0.04410125
149	0xbbe62d6b	-0.007024457
150	0xbce4cc66	-0.027929496
151	0x3de8edcb	0.113734804
152	0xbd0515aa	-0.032491364
153	0x3dbadf7d	0.09124658
154	0x3ccac355	0.024751345
155	0xbd9b0f19	-0.07571239
156	0xbdd4ee57	-0.10397022
157	0x3d173fe3	0.03692616
158	0xbc8bb527	-0.017054154
159	0xbd9608d4	-0.073259026
160	0xbd9923a0	-0.07477498
161	0xbd14dceb	-0.036343496
162	0xbd91305f	-0.07089304
163	0xbddfc5e7	-0.10926419
164	0x3cb8d4a2	0.022562329
165	0xbd10ac23	-0.035320412
166	0xbda60a29	-0.08107407
167	0xbdf5c544	-0.12000516
168	0x3dd5ad3b	0.10433432
169	0x3d92ee72	0.07174386
170	0xbc72ad94	-0.014811892
171	0x3c7ca759	0.015420758
172	0x3d9aaada	0.075521186
173	0xbbb6c652	-0.005577841
174	0x3d91c6b7	0.0711798
175	0x3c0e5c2a	0.008688966
176	0xbdcae78f	-0.099074475
177	0x3e021b4f	0.1270573
178	0x3d943711	0.072370656
179	0x3d8927b3	0.06697025
180	0xbccdc610	-0.025118858
181	0x3c8f6e8c	0.017508768
182	0xbd4ff68d	-0.05077224
183	0x3c8d5f45	0.017257342
184	0x3bfb0d1b	0.0076614744
185	0xbba81438	-0.0051293634
186	0x3d761ded	0.060087133
187	0xbdf6b413	-0.12046065
188	0x3d620f95	0.05519064
189	0xbcf05d8c	-0.029341482
190	0x3caa741b	0.020807317
191	0xbb8fa2b0	-0.0043834075
192	0x3cc4f086	0.024040472
193	0x3cbd696b	0.023121556
194	0x3d45ab78	0.04825923
195	0xbdc6a31f	-0.09699082
196	0xbc9a5760	-0.018840492
197	0x3d45d10d	0.04829507
198	0x3bf1c185	0.0073778057
199	0x3df89afa	0.121389344
200	0x3dbbdf33	0.09173431
201	0x3c5365d8	0.012902699
202	0x3d3058ab	0.04305331
203	0x3cc1e81d	0.02367025
204	0x3db31d25	0.08745793
205	0x3ca6aac6	0.020345103
206	0x3d2e3deb	0.04253952
207	0xbd0e9315	-0.034808237
208	0xbd2bb05c	-0.041916236
209	0x3d06a29a	0.032869913
210	0xbd575ba2	-0.052577622
211	0x3b4f45d9	0.0031627326
212	0xbcf909d8	-0.030400202
213	0xbd6bc1d9	-0.057557914
214	0xbd7289e4	-0.059213534
215	0xbd2584c8	-0.040409833
216	0x3ca3c212	0.01999
217	0x3de63ef9	0.1124248
218	0xbda9e746	-0.08296065
219	0xbcb7237f	-0.022355793
220	0x3ce58339	0.028016673
221	0x3cef00fe	0.029175278
222	0xbcb343c6	-0.021882903
223	0xbd1a486c	-0.037666723
224	0xbbac5ef0	-0.005260341
225	0xbdd8f152	-0.10592903
226	0x3cc11904	0.023571499
227	0x3d21e2f3	0.039523076
228	0xbd5fd6f2	-0.054648347
229	0xbda0729c	-0.0783436
230	0xbc70db4c	-0.014700722
231	0xbd5e627f	-0.054293152
232	0x3d81b914	0.06334129
233	0x3e01b296	0.12665781
234	0xbda703d9	-0.08155031
235	0xbdd91989	-0.106005736
236	0x3cc0c0b2	0.023529384
237	0x3cbc625b	0.022996118
238	0x3dcfc3fe	0.101448044
239	0xbda98d3f	-0.08278894
240	0xbd875d03	-0.066095375
241	0x3dd21c62	0.1025932
242	0x3b64dc39	0.0034921302
243	0x3d147c5e	0.03625142
244	0xbd8ba7cd	-0.06819115
245	0xbdfcac28	-0.12337524
246	0xbde38d0b	-0.11110886
247	0x3b53549f	0.0032246483
248	0x3d89964f	0.06718122
249	0xbd51f312	-0.0512572
250	0x3afec000	0.0019435883
251	0x3cecb2c1	0.02889383
252	0x3df12f65	0.11776618
253	0x3d4275b2	0.047475524
254	0xbd71a907	-0.058999088
255	0x3d76ebb0	0.060283363

RNN.bias_ih_l0 f4 [512]
0	0x3dbaea12	0.091266766
1	0x3d723be8	0.059139162
2	0x3cc67520	0.024225771
3	0x3c894087	0.016754402
4	0x3caa1831	0.020763488
5	0xbbc96957	-0.0061465907
6	0x3d6d6cd8	0.05796513
7	0x3d7ba7cb	0.061439317
8	0x3ca629ba	0.020283569
9	0x3e0919af	0.13388704
10	0xbd2eb324	-0.04265131
11	0xbc0d7298	-0.008633278
12	0xbd626ae8	-0.055277735
13	0xbce9517d	-0.02848124
14	0x3ca49eee	0.020095315
15	0x3d817372	0.063208476
16	0xbc725d5f	-0.014792769
17	0x3c3c22a6	0.01148287
18	0xbd445b1d	-0.047938455
19	0x3d7ad1e7	0.061235335
20	0xbc943053	-0.018089449
21	0x3aa4124b	0.0012517659
22	0xbc5e82cd	-0.01358099
23	0x3dea4a3d	0.11439941
24	0x3d6c6249	0.05771092
25	0x3dd43383	0.103613876
26	0x3da64441	0.08118487
27	0x3d92e5f5	0.07172767
28	0x3d61c8f4	0.055123284
29	0x3d90d1d6	0.07071273
30	0xbca8747f	-0.020563362
31	0x3d2bee48	0.04197529
32	0x3da3c379	0.07996268
33	0x3ddb5f08	0.10711485
34	0x3b089edf	0.0020846648
35	0x3d090286	0.033449672
36	0x3d4944d5	0.04913791
37	0x3d4c1845	0.049827833
38	0x3d82b1df	0.063815825
39	0xbd222e1e	-0.039594762
40	0x3dac46eb	0.08411964
41	0x3d389607	0.045064952
42	0x3d0390ca	0.032120503
43	0xbd190aac	-0.037363693
44	0xbc960e07	-0.018317236
45	0x3e3224d2	0.17396858
46	0x3d7d8927	0.061898377
47	0x3d228328	0.03967586
48	0x3d127c4b	0.035763066
49	0x3d3e7549	0.04649857
50	0x3d51ddc2	0.051236875
51	0x3d62d8c7	0.055382516
52	0x3dc14db6	0.0943865
53	0xbd351ac0	-0.044214964
54	0x3d35c033	0.04437275
55	0xbd3849b9	-0.044992182
56	0x3d0a172b	0.0337135
57	0xbae6f3b7	-0.001762024
58	0x3e2488b7	0.16067778
59	0xbd8b704f	-0.068085305
60	0x3de1d435	0.110268034
61	0x3d70c5c3	0.05878235
62	0xbdc93958	-0.098253906
63	0xbcdba2f0	-0.026811093
64	0x3dcb87f2	0.09938039
65	0x3dd2bf78	0.10290426
66	0x3d8f738b	0.0700446
67	0x3e01b4d4	0.12666637
68	0x3de9f41b	0.114235125
69	0x3df1bf7c	0.11804101
70	0x3e0528a6	0.13003787
71	0xbd70a890	-0.058754504
72	0x3d067182	0.032823093
73	0x3d37361c	0.044729337
74	0x3d051dbb	0.032499056
75	0x3dcb39ac	0.099231094
76	0x3b5809a2	0.0032964726
77	0xbcbeccfe	-0.023291107
78	0xbc62e787	-0.013849146
79	0x3d8b7b89	0.06810672
80	0x3d03e651	0.03220207
81	0x3bf0e9f9	0.0073521105
82	0x3c988bf4	0.018621422
83	0xbd2e6898	-0.042580217
84	0x3dd7f99b	0.10545655
85	0xbc5c8c07	-0.0134611195
86	0x3d2675fb	0.04063986
87	0x3d37ea0e	0.044900946
88	0x3cdc2d64	0.026877113
89	0xbd7129ac	-0.058877632
90	0x3df5bb7d	0.11998651
91	0x3d82fb5f	0.063956015
92	0x3db64cb8	0.08901352
93	0xbd35783a	-0.04430411
94	0x3e06950d	0.13142796
95	0xbcfbf44f	-0.030756144
96	0x3ddec9b9	0.10878319
97	0x3dd6a933	0.10481491
98	0xbd1b4cb8	-0.03791496
99	0xbd4f7825	-0.050651688
100	0x3d5f57da	0.05452714
101	0x3d1bd12c	0.03804128
102	0xbb64fa07	-0.0034939067
103	0xbab2dba7	-0.0013645784
104	0x3d65d4f6	0.0561113
105	0x3df9867d	0.12183855
106	0x3c960742	0.018314008
107	0x3d321dfc	0.043485627
108	0x3d91a279	0.07111067
109	0xbd0d323a	-0.034471728
110	0xbd6425bb	-0.055700045
111	0xbc03bd34	-0.008040715
112	0x3da91cca	0.08257444
113	0x3d858433	0.065193556
114	0x3de4368e	0.11143218
115	0x3d511eb8	0.051054686
116	0x3d9d55e3	0.07682397
117	0x3dd26885	0.10273842
118	0x3c2376d0	0.009977058
119	0x3dd33a93	0.103139065
120	0xbd859281	-0.06522084
121	0x3bc769d6	0.0060856147
122	0xbcfff33d	-0.031243915
123	0xbdc64a0e	-0.096820936
124	0x3d970071	0.07373131
125	0x3db36aa9	0.08760578
126	0x3dd2e9f9	0.10298533
127	0x3d6c87a0	0.05774653
128	0xbced298c	-0.028950475
129	0xbcd28ae1	-0.025700988
130	0xbbe941a3	-0.00711842
131	0xbce30404	-0.027711876
132	0x3dccfd92	0.10009302
133	0xbd6a776a	-0.05724279
134	0xbd6c63c6	-0.05771234
135	0x3dc23e6b	0.094845615
136	0x3dc4168d	0.09574614
137	0x3cb50e0f	0.02210143
138	0x3ddd1613	0.10795226
139	0x3d900241	0.0703168
140	0xbc178897	-0.009248874
141	0xbd46ade8	-0.048505694
142	0xbd57dce2	-0.052700885
143	0x3d1636a6	0.03667321
144	0x3ca9b39d	0.02071553
145	0x3d5721cd	0.05252247
146	0x3cae8742	0.02130473
147	0xbd0f7903	-0.035027515
148	0x39bedaf8	0.00036402768
149	0x3de9e409	0.114204474
150	0x3db52169	0.08844263
151	0xbc6b5416	-0.014363309
152	0x3d05edaf	0.032697376
153	0x3cab0f85	0.020881424
154	0x3db02c26	0.08602171
155	0x3d31836e	0.04333823
156	0xbcfb554d	-0.030680323
157	0xbd8071bf	-0.06271695
158	0x3dd5f38e	0.10446845
159	0xbd01cb3b	-0.031687956
160	0x3dd1739b	0.10227128
161	0x3dc179d6	0.094470665
162	0x3db794ca	0.08963926
163	0x3d04a590	0.032384455
164	0xbbbabf49	-0.0056990725
165	0x3d94df57	0.07269161
166	0x3dd6f246	0.10495429
167	0xbd8c009b	-0.06836053
168	0x3d8b1f91	0.0679313
169	0x3c2803b0	0.010254785
170	0x3d656f79	0.05601451
171	0x3d87af2a	0.06625207
172	0xbd53e5a5	-0.051732678
173	0x3df0b653	0.117535256
174	0x3d3501a0	0.044191003
175	0xbe1880c4	-0.1489287
176	0x3d991b0a	0.074758604
177	0x3d3c6bd0	0.046001256
178	0xbd13e20d	-0.03610425
179	0x3de21159	0.11038465
180	0xbc45c046	-0.012069767
181	0xbd1d6ff3	-0.03843684
182	0x3d662941	0.056191687
183	0x3c97028d	0.018433833
184	0x3c2fb693	0.010724681
185	0x3c7bbafa	0.015364403
186	0xbe174838	-0.14773643
187	0x3d9d1f66	0.076720044
188	0xbc0c7bef	-0.00857447
189	0x3cc60972	0.024174426
190	0x3d847f86	0.06469636
191	0xbd2e3f33	-0.04254074
192	0x3d737340	0.059436083
193	0x3dcc514c	0.09976444
194	0x3c8d0b36	0.01721726
195	0xbd4c6901	-0.049904827
196	0x3d24ac69	0.040203486
197	0xbd5ba9c1	-0.053628687
198	0xbdab4de4	-0.08364466
199	0xbd021877	-0.031761613
200	0x3dacd9ad	0.08439956
201	0xbc63584f	-0.013876035
202	0x3c96368a	0.018336553
203	0x3df49c87	0.11943918
204	0xbc8db671	-0.017298909
205	0xbc282858	-0.010263525
206	0xbe0120d7	-0.12610184
207	0x3db87610	0.09006894
208	0x3c1313ee	0.00897692
209	0xbb234fa6	-0.00249193
210	0xbac01b20	-0.0014656521
211	0xbd9f4458	-0.077767074
212	0x3de1f570	0.110331416
213	0x3d8312f0	0.064000964
214	0x3db37cd3	0.08764043
215	0xbcbdcbbd	-0.023168439
216	0xbce859b3	-0.028363084
217	0xbb09e3e4	-0.0021040374
218	0x3d6fe074	0.058563665
219	0xbc792476	-0.015206447
220	0x3cf27781	0.029598
221	0x3db0794d	0.08616886
222	0xbe316a1d	-0.17325635
223	0x3cd2b9cc	0.02572336
224	0x3d819b60	0.063284636
225	0x3df6ade6	0.12044887
226	0xbc8cc8e5	-0.017185638
227	0xbccf87ed	-0.02533337
228	0xbcf6038e	-0.030030992
229	0x3dc5986e	0.09648214
230	0xbc4cb8bb	-0.012495215
231	0x3d39cdea	0.04536239
232	0x3d813451	0.06308807
233	0x3d855c84	0.065117866
234	0x3d1c9dd8	0.03823647
235	0xbd865808	-0.065597594
236	0xbb94658f	-0.0045287083
237	0xbd08f713	-0.033438753
238	0x3de9da43	0.11418583
239	0x3cb03ca4	0.02151329
240	0x3be6697c	0.0070316177
241	0xbd9277bd	-0.071517445
242	0xbca8367c	-0.020533793
243	0x3db6aa77	0.08919232
244	0x3dfe6628	0.124218285
245	0x3d6ff688	0.05858472
246	0x3d1d31b7	0.03837749
247	0xbd6db09d	-0.05802976
248	0x3cf973ce	0.030450728
249	0xbd3a128b	-0.04542784
250	0x3d825358	0.06363553
251	0x3d71f9f8	0.05907628
252	0x3dd6480f	0.10462963
253	0xbce9b675	-0.028529385
254	0x3d9503eb	0.07276138
255	0xbd266b67	-0.04062977

RNN.bias_hh_l0 f4 [512]
0	0x3d46ad77	0.048505273
1	0xbd45cf40	-0.048293352
2	0x3e1a5b9a	0.15074006
3	0x3d957584	0.07297805
4	0x3d95450a	0.07288559
5	0xbce716f0	-0.02820918
6	0x3d6a0ea6	0.057142876
7	0xbbe2e167	-0.0069238427
8	0xbc592c8f	-0.0132552525
9	0x3cc19f8b	0.023635646
10	0xbca4dfbc	-0.020126216
11	0x3d4d3868	0.05010262
12	0x3dbf80e4	0.09350756
13	0xbd5bb0dd	-0.053635467
14	0x3b92783c	0.0044698995
15	0xbd4482c5	-0.047976274
16	0x3cdb6b8c	0.02678468
17	0x3d830a18	0.063984096
18	0x3cf15e95	0.029464046
19	0x3ded5a60	0.11589503
20	0xbd0b14c3	-0.033955347
21	0xbcaaceb4	-0.020850517
22	0xbd739d8a	-0.059476413
23	0xbcdbb323	-0.026818817
24	0xbcc87ae2	-0.024472658
25	0x3b82b611	0.003988989
26	0x3cc4ba91	0.024014743
27	0x3d85812f	0.065187804
28	0xbd611391	-0.0549503
29	0x3d6a1396	0.057147585
30	0x3dc27b0b	0.09496125
31	0x3b896758	0.0041932277
32	0x3be42121	0.006961957
33	0x3db6ffda	0.089355186
34	0xbc959337	-0.018258674
35	0x3d32c7e9	0.04364768
36	0x3d805e73	0.06268015
37	0xbc7f282c	-0.015573543
38	0x3de1cfd7	0.110259704
39	0xbcc4b711	-0.024013074
40	0x3dc43599	0.095805354
41	0x3d78a43f	0.060703512
42	0x3da6edab	0.081508
43	0x3d642a0a	0.055704154
44	0x3d06aae6	0.032877825
45	0x3dbf0245	0.09326605
46	0x3d8f4376	0.06995289
47	0x3dd7d55a	0.105387405
48	0x3c8a0dcb	0.01685228
49	0xbd85dab8	-0.06535858
50	0x3e179e7a	0.14806548
51	0x3d4e5a1b	0.0503789
52	0xba57130a	-0.0008204436
53	0xbd63ecab	-0.055645626
54	0xbd31f8d4	-0.04345019
55	0x3ddb0679	0.10694594
56	0xbd6f163d	-0.058370817
57	0x3ca58904	0.020206936
58	0x3e16df6c	0.14733666
59	0x3d863280	0.06552601
60	0xbc9330de	-0.017967638
61	0x3cd2c99d	0.025730902
62	0xbd0ad5e0	-0.033895373
63	0xbd930f5f	-0.07180666
64	0x3c679b22	0.014136108
65	0xbc922fa3	-0.01784498
66	0x3cd07600	0.025446892
67	0x3d86c80a	0.06581123
68	0x3a44b443	0.0007503668
69	0xbc9983dd	-0.018739635
70	0x3e00c98e	0.12576887
71	0x3dd848c4	0.10560754
72	0x3d01baa1	0.031672124
73	0x3db4a9d3	0.08821454
74	0x3cc561a3	0.024094408
75	0x3dc2def5	0.09515182
76	0x3d801b7b	0.062552415
77	0x3d080563	0.033208262
78	0xbc36bb51	-0.011153058
79	0x3dba2a9b	0.090901576
80	0x3d126e35	0.035749633
81	0xbd02e4de	-0.031956546
82	0x3ceeb1dc	0.029137544
83	0x3d5c65e3	0.053808104
84	0xb92a75b7	-0.00016256316
85	0x3c8c86e7	0.01715417
86	0xbbdf7bc9	-0.0068201763
87	0x3c9ec58a	0.019381303
88	0x3d046f6d	0.032332826
89	0x3d0d6bd6	0.03452667
90	0xbb9c1b24	-0.0047639776
91	0x3d35d8e4	0.044396296
92	0x3ce67a2a	0.028134424
93	0x3dbb8eb5	0.091580786
94	0x3dfe4b1d	0.124166705
95	0x3d1b4044	0.037903085
96	0xbd01727d	-0.031603325
97	0x3e1128b2	0.1417568
98	0x3c98d967	0.018658353
99	0x3d94cc63	0.07265546
100	0x3de6e6a5	0.11274461
101	0xbd0dc242	-0.034609087
102	0x3c285fc0	0.010276735
103	0xbdc7a030	-0.0974735
104	0xbb40faad	-0.002944629
105	0x3dc64960	0.09681964
106	0xbcf344b8	-0.029695854
107	0xbc626fb2	-0.013820576
108	0x3e09fd76	0.13475594
109	0x3daeef3b	0.08541723
110	0x3c592092	0.013252394
111	0xbd52159a	-0.051290132
112	0x3d1f0d1c	0.03883086
113	0x3e007dc8	0.12547982
114	0x3d77fe19	0.06054506
115	0x3de7db80	0.11321163
116	0x3c9070a1	0.01763183
117	0xbc9d6976	-0.019215327
118	0xbd320044	-0.043457285
119	0x3df11bd8	0.11772889
120	0xbdb247bb	-0.08705088
121	0xbbeaf462	-0.007170246
122	0xbd931864	-0.071823865
123	0xbd7bbca1	-0.061459187
124	0x3c33bf7c	0.010970946
125	0xbce2e129	-0.027695255
126	0xbd0198db	-0.031639915
127	0xbcfdd7dc	-0.030986719
128	0x3cf47d35	0.02984486
129	0xbc912a93	-0.017720496
130	0x3d0be8c2	0.034157522
131	0x3dc09587	0.0940352
132	0xbcc76352	-0.024339352
133	0x3db7af53	0.08968987
134	0xbc1c4439	-0.00953775
135	0x3d06ca07	0.032907512
136	0x3d89b791	0.06724466
137	0x3dea116d	0.11429105
138	0x3d979aac	0.07402548
139	0x3da419c9	0.08012731
140	0xbc583ca0	-0.013198048
141	0xbd284f6c	-0.041091368
142	0x3dcbdfe9	0.09954817
143	0x3d82bc3f	0.06383561
144	0x3d913426	0.07090025
145	0xbd72bcb4	-0.059261993
146	0x3de905a4	0.11378029
147	0x3c2588c6	0.01010341
148	0x3a86be2e	0.0010280067
149	0x3d404e26	0.04694953
150	0xbd158ddd	-0.036512244
151	0x3c20becc	0.0098111145
152	0xbd3ff0ce	-0.04686051
153	0x3cebaa3a	0.028767694
154	0xbc74f431	-0.014950798
155	0x3a272457	0.00063759595
156	0x3d4000fb	0.046875935
157	0xbd48bd25	-0.049008507
158	0x3db521a8	0.0884431
159	0x3baa1cf6	0.0051914407
160	0x3dccaa0d	0.09993372
161	0x3d1cd5cf	0.03828984
162	0x3da5feab	0.08105215
163	0x3d9a258d	0.075266935
164	0xbc0f795a	-0.00875696
165	0xbd334c82	-0.043774135
166	0x3d192763	0.037391078
167	0xbccd45ad	-0.025057638
168	0x3dafe3ff	0.08588409
169	0x3c368630	0.011140391
170	0x3ccfb07b	0.025352707
171	0x3d8f1a36	0.06987421
172	0xbdd9eafe	-0.10640524
173	0x3cfcaf34	0.030845262
174	0x3ca237ab	0.019801935
175	0xbdb96c45	-0.09053854
176	0xbd3ae5c9	-0.045629296
177	0xbd1abb71	-0.037776414
178	0xbd37829e	-0.0448023
179	0xbd81b99e	-0.06334232
180	0xbdd430e8	-0.103608906
181	0x3d8dd4c7	0.0692535
182	0x3d7ebd74	0.062192395
183	0x3d26c05a	0.040710784
184	0x3d0bac8c	0.0341001
185	0x3d8b61e5	0.06805781
186	0xbdd50901	-0.10402108
187	0x3c0a806a	0.008453468
188	0x3d3943a5	0.045230526
189	0xbd53a5a8	-0.051671654
190	0xbd790c33	-0.06080265
191	0xbd732531	-0.05936164
192	0x3da6e77b	0.0814962
193	0xbc819da4	-0.01582224
194	0x3ce605c5	0.028078923
195	0xbd13a9f0	-0.036050737
196	0x3d923a68	0.07140046
197	0x3c915626	0.017741274
198	0x3b9ef84b	0.004851376
199	0xbc38fc6b	-0.01129065
200	0x3d5f8fbd	0.05458044
201	0x3d3bc423	0.045841347
202	0x3db4d163	0.08829
203	0x3dcfc4c2	0.101449504
204	0x3cf8d168	0.03037329
205	0x3cc8d1ce	0.024514105
206	0xbde3a143	-0.111147426
207	0xbd8106ea	-0.06300147
208	0x3dab468f	0.08363067
209	0x3de3c15f	0.11120867
210	0x3ca8432f	0.020539848
211	0xbd0ab019	-0.033859346
212	0x3cd9e6d2	0.026599322
213	0xbd80335a	-0.062597945
214	0xbd1455cd	-0.03621464
215	0xbd1922a2	-0.037386544
216	0x3dc8a52b	0.09797128
217	0x3d6557c7	0.055991914
218	0x3dc18995	0.0945007
219	0x3c1b4372	0.009476529
220	0xbd17eda7	-0.037091877
221	0xbd012417	-0.03152856
222	0xbcd2cdcc	-0.025732897
223	0xbaa55425	-0.0012613578
224	0xbd032e4c	-0.032026574
225	0x3de7ca58	0.11317891
226	0x3de699c6	0.11259799
227	0xbd1f54aa	-0.0388991
228	0x3bb60638	0.0055549406
229	0xbd2315e5	-0.039815802
230	0xbd0d1e2f	-0.034452613
231	0x3d33e40f	0.043918665
232	0x3cb58250	0.022156864
233	0x3d6012c1	0.054705385
234	0x3def84b9	0.11695237
235	0x3cac2584	0.021013983
236	0xbd56d57b	-0.052449685
237	0x3d11f1d5	0.03563102
238	0x3d9ec08c	0.07751569
239	0x3c6b8062	0.014373871
240	0xbd834a2b	-0.06410631
241	0x3d30ccd2	0.043164082
242	0x3d2b0a8b	0.0417581
243	0x3cd6b531	0.026209446
244	0x3de06180	0.10956097
245	0x3dd4e40f	0.10395061
246	0xbd4c858f	-0.04993206
247	0x3c8fcbea	0.017553288
248	0x3cb0b008	0.021568313
249	0x3dc5f448	0.096657336
250	0x3c8b61cc	0.017014407
251	0x3b3c487c	0.0028729727
252	0xbd149a87	-0.03628018
253	0x3d7cfb5a	0.061763145
254	0x3a273116	0.0006377859
255	0xbcd94b56	-0.02652518

actor.weight f4 [5, 128]
0	0xbe3c2979	-0.18375196
1	0xbab712ba	-0.0013967373
2	0x3e10ba3c	0.14133543
3	0xbc510147	-0.012756652
4	0xbb43efef	-0.002989765
5	0x3df5d518	0.12003535
6	0xbcc88d38	-0.0244814
7	0xbda2879c	-0.07936022
8	0x3c29db83	0.010367277
9	0x3e1dd244	0.15412241
10	0x3d00535c	0.031329498
11	0x3bccb4f4	0.006247157
12	0xbd6afeca	-0.057371892
13	0xbe861d44	-0.26194203
14	0xbdc874df	-0.097879164
15	0x3cbcae26	0.02303226
16	0xbe3c45cc	-0.18386
17	0xbd7e0a68	-0.062021643
18	0x3e1909cf	0.14945148
19	0x3d15e143	0.03659178
20	0x3e063c9f	0.13109063
21	0xbbd09496	-0.006365369
22	0x3df85cf2	0.12127103
23	0x3e6b62dd	0.22986932
24	0xbe39f66a	-0.18160406
25	0x3d98f97b	0.074694596
26	0xbd6dc1cc	-0.058046147
27	0x3d27c052	0.040954895
28	0x3d0df0dd	0.034653533
29	0x3e1ef84c	0.15524405
30	0x3cc64e3a	0.024207223
31	0xbe9a43db	-0.30129895
32	0xbe3dab14	-0.18522292
33	0xbe02ffec	-0.12792939
34	0xbca0c9fa	-0.01962756
35	0xbe3bb066	-0.1832901
36	0x3cd09a05	0.025464067
37	0xbe27205f	-0.16320942
38	0x3e053d3f	0.13011645
39	0xbe1d5b5d	-0.15366884
40	0xbd215f5d	-0.039397586
41	0x3cc7193f	0.02430403
42	0x3e6481d3	0.22315149
43	0x3c068b62	0.008211942
44	0x3cc183de	0.02362245
45	0xbdede947	-0.1161676
46	0xbb8764b0	-0.004131876
47	0xbe48e83c	-0.1961984
48	0x3cdc80e2	0.026916925
49	0x3e668fdd	0.22515817
50	0x3e022b3c	0.12711805
51	0x3c85eb00	0.016347408
52	0x3e12b9bf	0.14328669
53	0xbe1c8ac8	-0.15287316
54	0xbe1e04b0	-0.15431476
55	0xbd08a99e	-0.033364885
56	0xbc2f5a99	-0.0107027525
57	0x3d938d43	0.07204678
58	0x3e393011	0.18084742
59	0xbd3925de	-0.04520213
60	0x3d195a8b	0.037439864
61	0x3e03d4ec	0.12874192
62	0xbacbb6fa	-0.0015542202
63	0xbdcb7e72	-0.09936227
64	0x3e3867ac	0.18008298
65	0xbe5c06dd	-0.21486993
66	0x3d18ecfe	0.03733539
67	0xbdc092a5	-0.0940297
68	0x3dc8e4e9	0.09809286
69	0x3e03d517	0.12874256
70	0x3dde7688	0.10862452
71	0x3d6a64c6	0.05722501
72	0x3df34e5a	0.11880179
73	0xbe72e81d	-0.23721357
74	0xbe2534ea	-0.16133466
75	0x3e32d2d4	0.17463237
76	0x3e1b64b9	0.15175141
77	0xbe19b815	-0.15011628
78	0xbe20d612	-0.15706661
79	0xbda29599	-0.0793869
80	0xbdb5d073	-0.08877649
81	0x3d9f7421	0.07785822
82	0xbe3898cc	-0.18027037
83	0x3d75f58d	0.06004863
84	0x3d0ca584	0.034337536
85	0xbd1e13e4	-0.038593188
86	0x3d3ea180	0.046540737
87	0x3d342dfe	0.043989174
88	0x3da07a36	0.0783581
89	0xbe0873b2	-0.13325384
90	0xbc14e73a	-0.009088332
91	0x3e269089	0.16266073
92	0x3d1b1059	0.037857387
93	0xbd81b341	-0.06333018
94	0xbd36f7b3	-0.044669818
95	0x3dd4729a	0.10373421
96	0xbd80c478	-0.062874734
97	0xbe1e6cb7	-0.15471159
98	0x3cefd5bb	0.02927672
99	0x3d1d4374	0.038394406
100	0xbdf5b47d	-0.11997316
101	0xbd98299a	-0.0742981
102	0x3b812573	0.003941232
103	0x3e202c67	0.15641938
104	0x3d004d99	0.031324003
105	0x3e25cacc	0.16190642
106	0x3da73508	0.08164412
107	0x3dda5ce3	0.10662248
108	0xbdc31781	-0.095259674
109	0xbcce2303	-0.02516318
110	0xbdb08987	-0.08619981
111	0xbe2a814b	-0.16650884
112	0xbe150f21	-0.14556552
113	0xbcd960dc	-0.026535444
114	0x3cace690	0.021106035
115	0x3db0a93c	0.08626029
116	0xbe5eef8b	-0.21771066
117	0xbbbd0cc0	-0.005769342
118	0xbd59d096	-0.05317744
119	0x3e26b368	0.16279376
120	0xbd72a4fd	-0.059239376
121	0x3d51c01e	0.051208608
122	0xbd7276d6	-0.059195362
123	0xbe05fac8	-0.13083947
124	0x3d76a234	0.060213283
125	0x3df19fef	0.11798083
126	0xbcd1fc9e	-0.025633153
127	0x3dce529c	0.1007435
128	0xbcca1953	-0.024670279
129	0x3c7f5397	0.015583894
130	0x3d2d59ff	0.042322155
131	0xbdf9dabe	-0.12199925
132	0x3d2170be	0.03941416
133	0xbde539fb	-0.111926995
134	0xbdc4c17a	-0.09607215
135	0xbdc48a65	-0.09596709
136	0x3ba9c339	0.005180743
137	0x3cdbfbde	0.026853498
138	0xbda7b7c0	-0.081893444
139	0x3d8df8e5	0.069322385
140	0x3d7661f4	0.06015201
141	0xbe227020	-0.15863085
142	0x3e5080bd	0.2036161
143	0x3db5a2b1	0.088689215
144	0xbd0d69d9	-0.034524772
145	0x3d1359af	0.0359742
146	0x3dab768c	0.083722204
147	0x3d6a1a6b	0.0571541
148	0xbe058d1d	-0.13042112
149	0xbe454a39	-0.19266595
150	0xbb98edda	-0.004667026
151	0x3de81443	0.113319896
152	0xbcd4f322	-0.025994841
153	0x3c809c5d	0.01569956
154	0xbd8d0c6b	-0.06887134
155	0x3e183a5f	0.14866017
156	0xbe0a66fb	-0.13515846
157	0xbde3ca36	-0.11122553
158	0xbc8119a0	-0.01575929
159	0xbd9be421	-0.076118715
160	0x3b64228f	0.0034810638
161	0xbe17f807	-0.14840709
162	0xbd0dac82	-0.034588344
163	0x3d9ef20e	0.07761012
164	0xbe026647	-0.12734328
165	0xbe108551	-0.14113356
166	0xbd089d94	-0.033353403
167	0x3d7ce80f	0.061744746
168	0x3cf090cc	0.02936592
169	0xbbc6f66c	-0.0060718562
170	0x3c392dd9	0.011302435
171	0x3db6f81b	0.08934041
172	0x3e4ca41e	0.1998448
173	0x3e790b6d	0.24320765
174	0x3c5f665e	0.013635246
175	0xbe761afc	-0.24033731
176	0x3d7cc303	0.061709415
177	0x3e1d2338	0.15345466
178	0x3d334eb5	0.043776233
179	0xbdf978d6	-0.12181251
180	0x3e38ba30	0.18039775
181	0xbca2aa84	-0.019856699
182	0xbce038a5	-0.02737076
183	0x3d999b47	0.0750032
184	0xbd343edc	-0.04400526
185	0x3da95c1e	0.08269523
186	0x3e37c9b4	0.17948037
187	0xbdb2603a	-0.0870976
188	0xbde9e7ef	-0.11421191
189	0x3e5b7e3a	0.2143487
190	0x3d277b91	0.040889326
191	0xbd8edf3c	-0.06976172
192	0xbdab4563	-0.08362844
193	0x3e1b4bc3	0.1516562
194	0x3d75c070	0.059997976
195	0xbe03d8b3	-0.12875633
196	0xbb055046	-0.0020342036
197	0x3dd422cb	0.10358199
198	0x3df6cca2	0.12050749
199	0xbb89f989	-0.004210655
200	0x3d93d07b	0.07217499
201	0xbc891815	-0.016735116
202	0x3d277f7c	0.040893063
203	0xbdad9875	-0.084763445
204	0x3dda6c56	0.10665195
205	0xbe88a76d	-0.26690236
206	0x3d98ca05	0.07460407
207	0xbb95b6d7	-0.0045689153
208	0xbdb99cf6	-0.09063141
209	0xbd547fc4	-0.05187966
210	0xbd6fe384	-0.058566585
211	0xbd888c88	-0.06667429
212	0xbc8c9260	-0.01715964
213	0x3e589153	0.21149187
214	0x3df4b042	0.11947681
215	0x3d9af833	0.075668715
216	0x3d93ba3a	0.07213254
217	0xbe3258d4	-0.17416698
218	0xbd339069	-0.043838892
219	0xbd9ae155	-0.0756251
220	0xbe82db74	-0.25558054
221	0x3cb770a0	0.022392571
222	0xbdbbbd02	-0.0916691
223	0xbd130f53	-0.035903286
224	0xbd9de75f	-0.07710146
225	0x3de9f3f1	0.11423481
226	0xbbac1cba	-0.005252448
227	0x3ceedacf	0.02915707
228	0x3d0c0878	0.034187764
229	0x3d32481f	0.04352581
230	0xbe083b46	-0.13303861
231	0xbc03f5eb	-0.008054237
232	0xbddd27eb	-0.107986294
233	0x3d26c9e3	0.040719878
234	0xbd73f322	-0.05955804
235	0x3d9c3b8e	0.07628547
236	0xbb2072aa	-0.0024482408
237	0x3cb238b0	0.021755546
238	0x3e0ef0f3	0.13959102
239	0x3d43c087	0.04779103
240	0xbcd58c93	-0.026068008
241	0xbd761507	-0.060078647
242	0x3dc8ad7a	0.09798713
243	0xbd8564fa	-0.065134004
244	0xbdf5d069	-0.12002642
245	0x3cd7d276	0.026345473
246	0xbe9408db	-0.28913006
247	0x3dd7761e	0.10520576
248	0x3ca9c8e7	0.02072568
249	0xbc5802b8	-0.013184242
250	0x3d8dc0de	0.06921552
251	0x3e4469c7	0.19180976
252	0x3c265d04	0.010154013
253	0xbde1985e	-0.1101539
254	0xbd0ebb97	-0.03484687
255	0x3cff08aa	0.031132061

actor.bias f4 [5]
0	0x3c1cd1a7	0.009571469
1	0x3ca3f0e9	0.020012336
2	0xbd5635f9	-0.052297566
3	0xbd3c0cd0	-0.045910656
4	0x3c399124	0.011326108

critic.weight f4 [1, 128]
0	0xbdc82838	-0.09773296
1	0x3ce1e1a3	0.027573412
2	0x3a62ea61	0.0008656141
3	0xbc692dc1	-0.0142321
4	0x3e5aa7a3	0.21353011
5	0x3cbe6385	0.023240814
6	0x3dbb5a76	0.091481134
7	0x3c6274da	0.013821805
8	0x3dc68b37	0.09694522
9	0x3d04458f	0.0322929
10	0x3e179dfc	0.1480636
11	0x3dff0b00	0.1245327
12	0x3d7a3a04	0.061090484
13	0xbd62f594	-0.055409983
14	0x3e2d84d1	0.16945197
15	0xbddee7b0	-0.10884035
16	0x3def949b	0.11698266
17	0xbc9a798b	-0.018856784
18	0x3dc65956	0.09685008
19	0xbd823b16	-0.06358926
20	0xbdc15d8c	-0.09441671
21	0xbdd4c85b	-0.10389777
22	0xbd7fccc6	-0.062451147
23	0x3bf57985	0.007491293
24	0xbdce5bc2	-0.10076095
25	0x3dff6d82	0.12472059
26	0x3d267c30	0.04064578
27	0xbe00a365	-0.1256233
28	0x3e0b71a8	0.13617575
29	0xbe0125d7	-0.12612091
30	0x3bbc4810	0.005745895
31	0xbc897337	-0.016778572
32	0x3d2176b7	0.039419856
33	0xbdc023cc	-0.09381828
34	0x3d13e433	0.0361063
35	0x3d27f69b	0.041006666
36	0xbe0e0ec7	-0.13872825
37	0xbc85843d	-0.016298408
38	0x3e3b0429	0.18263306
39	0x3c59d143	0.013294521
40	0x3daa1997	0.08305662
41	0x3d225224	0.039629117
42	0x3dbde5ba	0.092723325
43	0x3e1aeced	0.15129443
44	0xbe09548c	-0.13411158
45	0xbe493b8b	-0.1965162
46	0x3d793b18	0.06084737
47	0x3e12b793	0.1432784
48	0x3d43d892	0.04781396
49	0x3c8d885f	0.01727694
50	0xbce22496	-0.027605336
51	0xbde334db	-0.11094066
52	0x3e2ef9f1	0.17087533
53	0xbe5c63b3	-0.21522407
54	0xbda79be4	-0.08184031
55	0xbdb8c2bb	-0.09021517
56	0x3d687230	0.056749523
57	0x3dee9790	0.11650002
58	0x3d9ce096	0.07660024
59	0x3ca9c290	0.020722657
60	0xbd9afe5e	-0.07568048
61	0xbd78a20c	-0.060701415
62	0xbdbffc9c	-0.09374353
63	0x3e6751b5	0.22589763
64	0x3d32af15	0.043624002
65	0xbd96d920	-0.07365632
66	0x3ca92348	0.020646706
67	0x3da97b97	0.08275526
68	0xbcf6d7f5	-0.030132273
69	0x3d9b9a96	0.07597844
70	0xbdf2668d	-0.11835966
71	0x3dca217b	0.09869667
72	0x3e4302f6	0.19044098
73	0xbd0049b8	-0.031320304
74	0xbdb0b8f5	-0.08629028
75	0xbe04cefc	-0.12969583
76	0x3df011dc	0.117221564
77	0x3c84cba5	0.016210387
78	0xbc15f8dc	-0.009153571
79	0x3e305c6d	0.17222758
80	0x3c4b618d	0.012413395
81	0x3d33da93	0.04390962
82	0xbcc61dc8	-0.024184123
83	0x3e15f206	0.14643106
84	0xbcd63abc	-0.026151054
85	0xbdfbb5bd	-0.12290523
86	0xbcf57158	-0.029961273
87	0xbda0f831	-0.07859839
88	0x3d74223e	0.05960297
89	0x3e1f45f5	0.1555403
90	0xbe409e9f	-0.18810509
91	0x3d655371	0.05598778
92	0x3c838dbe	0.016058799
93	0xbe2092b3	-0.15680961
94	0xbce7ce1b	-0.028296521
95	0xbe045ee0	-0.12926817
96	0x3c506047	0.012718267
97	0x3d2ecb0e	0.042674117
98	0x3bc3af79	0.0059718457
99	0x3d63c758	0.05561003
100	0x3e109a82	0.1412144
101	0xbd6f7c0c	-0.05846791
102	0xbb885bd3	-0.004161337
103	0xbd8366ba	-0.06416078
104	0x3cebd0a5	0.028786013
105	0x3d932e41	0.071865566
106	0x3d007ac3	0.031367075
107	0xbda20efb	-0.079130135
108	0xbdb8b1d2	-0.090182915
109	0xbda65580	-0.081217766
110	0xbe20da4d	-0.15708275
111	0x3e04fdf3	0.12987499
112	0x3e11a39f	0.14222573
113	0x3e13c5cf	0.14430927
114	0xbde15136	-0.11001818
115	0x3d087a91	0.033320013
116	0xbd13d677	-0.0360932
117	0xbe2139f3	-0.15744762
118	0xbde72316	-0.11285989
119	0x3ce3aab8	0.027791366
120	0x3dba8084	0.09106544
121	0xbd8119b7	-0.06303733
122	0x3d90505d	0.07046578
123	0xbdfea67b	-0.124340974
124	0x3cca59c1	0.024701001
125	0x3d4b3c6d	0.049618173
126	0xbdddc44c	-0.10828456
127	0x3d8dc404	0.06922153
