Liu/test_var/v_8/train_iter_9600.pt (torch, 572871 bytes, 9 tensors)

h0 f4 [128]
000000 79 38 e2 3f d1 f1 dc 3c bb c4 18 bf cf 11 b2 3f
       1.7673484 0.026970776 -0.59675187 1.3911685
000010 40 af 74 be 55 17 1d c0 4d f6 b4 3f 33 a6 f6 3d
       -0.23894978 -2.454549 1.4137665 0.12043419
000020 4b c7 33 3f a2 ae 22 3f d2 d4 8f 3f 1d bb ef bb
       0.7022597 0.6354772 1.1236823 -0.007316007
000030 87 86 10 40 8b 18 99 be 81 e7 ab 3e a5 f5 b8 bf
       2.258211 -0.29901537 0.3357506 -1.4449965
000040 6d 95 e6 3e f8 a7 a6 be e8 2f de 3f 67 b3 59 bf
       0.45035878 -0.32550025 1.735837 -0.8503937
000050 32 25 2e bf 10 a9 25 3f 87 7b ca 3c a1 b2 66 3e
       -0.68025506 0.64711094 0.024717106 0.22529079
000060 32 7f 11 bf e0 74 f4 3e fb 72 77 bf d2 dc 31 bf
       -0.5683471 0.4774542 -0.9665982 -0.6947757
000070 50 0c 3e 39 5b 20 6e 3e 4d bb 0e 3f 1c d9 7f 3f
       0.00018124399 0.2325453 0.5575455 0.9994066
000080 df 05 3c bf 18 07 ab be 2b 54 29 3f b4 e5 c6 be
       -0.7344646 -0.3340385 0.66144055 -0.38847125
000090 b8 00 82 bf 74 06 0d bf 93 f3 54 bf 21 11 57 bf
       -1.0156469 -0.5508797 -0.83184165 -0.8401051
0000a0 2d da 9c bf ed 75 52 bf 8d c0 90 bd 46 49 b2 3e
       -1.2254082 -0.8221119 -0.07067976 0.34821528
0000b0 6f 3a 07 c0 11 0c c5 3e 9f 22 54 3e cb d6 64 bf
       -2.1129415 0.38485768 0.20716332 -0.8939025
0000c0 9e bc 82 be 27 43 d7 3f 22 21 da 3f d7 63 ac bf
       -0.25534528 1.6817368 1.7041361 -1.3467969
0000d0 41 33 5b 3f a3 e3 95 3e 06 17 dd 3d 90 7e 49 bf
       0.8562508 0.29275236 0.10795407 -0.78708744
0000e0 24 d9 47 3f 63 f0 33 bf c7 b3 20 bf e5 ba 52 be
       0.78065705 -0.70288676 -0.6277432 -0.20579107
0000f0 29 2d b2 bf 3d 07 ac 3d a9 63 f8 bd 51 ff 41 3e
       -1.3920032 0.08399818 -0.12128384 0.18945052
000100 8c 29 65 3e 0a 2c 47 be e8 53 78 3f 00 c8 1e bf
       0.2237913 -0.19450393 0.9700303 -0.62023926
000110 db e8 82 bf fd 6c e2 3f 2c 07 3d be 5c 91 47 3f
       -1.0227312 1.768951 -0.18459767 0.77956176
000120 cd bd e3 be 58 52 56 be 80 9c 0d c0 a3 bd 73 bf
       -0.44480744 -0.20929849 -2.212677 -0.9521124
000130 a6 f4 fa 3e 25 33 ab bf 38 70 8d bf 61 a0 a2 3f
       0.49014777 -1.3374983 -1.1049871 1.2705194
000140 04 37 99 3e 2d 98 80 3f e1 82 b2 3f a1 4b 25 40
       0.29924786 1.004644 1.3946191 2.582741
000150 bc a5 6c bf fb 65 b2 3e ba c0 74 bf 02 03 3a 3f
       -0.9244039 0.3484343 -0.9560658 0.7266084
000160 b3 f4 65 3e 9b 40 fc be 23 91 7d bf 6e 24 fb 3e
       0.22456627 -0.4926804 -0.99049586 0.4905123
000170 52 c8 99 bf 79 d6 e8 3f ad d1 4b 3f 9c 68 e4 bd
       -1.2014258 1.8190452 0.79616815 -0.11152765
000180 5c 68 a7 bf 58 48 12 c0 f7 c2 cb be e6 c9 aa 3f
       -1.3078723 -2.2856655 -0.39797184 1.3342865
000190 e8 5c 24 3e c8 03 38 3f 7a 21 14 bd fb 09 1e bf
       0.16051066 0.7188077 -0.03616474 -0.6173398
0001a0 c5 39 07 40 dc 82 4e bf 81 c5 7f bf bb 0a 64 3f
       2.112901 -0.80668426 -0.9991074 0.89078873
0001b0 41 44 5f 3f b9 e2 51 3e 30 4d 06 be 97 ba ec bf
       0.8721352 0.20496644 -0.13115382 -1.8494443
0001c0 64 16 9d 3f 5d 63 1a 3f 88 c8 b0 be 38 41 cf bd
       1.2272458 0.60307866 -0.34527993 -0.10119861
0001d0 d8 66 09 3f 88 a4 3d 3f 3e 3b 3c 3f 3f 9c a2 3c
       0.5367255 0.7407918 0.73527896 0.019849895
0001e0 54 e9 33 3e 2b a9 cf 3e 7d 0d c3 be 87 03 92 bf
       0.17569476 0.40558752 -0.38096228 -1.1407326
0001f0 c3 19 d2 3f 29 36 44 3f 7f cb 1c c0 59 e0 da 3e
       1.6414112 0.7664514 -2.4499204 0.4274929

c0 f4 [128]
000000 a8 dc c1 bf ba f1 c0 bf 76 b2 88 bf 36 04 b6 bd
       -1.5145464 -1.5073769 -1.0679462 -0.08887522
000010 07 ff be bf 69 86 45 3f 58 4e a4 bf 94 20 d5 3d
       -1.4921578 0.7715822 -1.2836409 0.104066044
000020 47 47 67 3d 3d 7b 39 3f b4 00 ad bd 53 7f c8 bf
       0.05646446 0.7245367 -0.084474 -1.5663856
000030 ba 09 58 bf a6 28 96 bf bd 70 0d 3f 56 30 9c be
       -0.8438984 -1.1731155 0.5525015 -0.30505627
000040 34 e8 0e 3f 9e ad 13 3f c1 7b 13 c0 11 5a c9 3f
       0.55823064 0.57686794 -2.3044283 1.5730611
000050 53 e8 84 3d c2 f0 96 bf a4 a9 bf 3d 79 1f af 3e
       0.06489625 -1.1792223 0.09358528 0.342037
000060 5c 56 a9 3d bf f5 c8 be 51 f4 a4 3e d7 c0 e1 be
       0.08268425 -0.3924999 0.3221765 -0.44092438
000070 23 44 08 3f 47 ff 3b 3f f4 75 4b bf 69 d0 0c 3f
       0.5322897 0.734364 -0.7947686 0.5500551
000080 68 fe 84 bd 79 1d e3 bf 75 b0 13 3f b3 e7 e3 3e
       -0.06493837 -1.7743369 0.5769113 0.4451271
000090 82 5b 8d 3d f5 f0 c3 3f 76 fc 22 3f 26 ba 7c 3e
       0.06902219 1.5307909 0.63666475 0.24680385
0000a0 1e f3 f3 3d 70 76 20 be 09 c6 93 bd 74 bb 71 bf
       0.11911605 -0.1567018 -0.072155066 -0.94426656
0000b0 e1 96 94 3e b8 9b c5 3f 67 69 1a bf 45 88 f8 3d
       0.2902136 1.5438147 -0.6031708 0.12135366
0000c0 e8 be f3 3f b3 d1 20 3e 85 0c 70 bf d9 36 bd 3e
       1.9042635 0.15704994 -0.93769103 0.36955908
0000d0 d5 39 eb 3e 29 a0 42 be e5 4b dc bf f8 c1 51 be
       0.4594256 -0.19006409 -1.7210661 -0.2048415
0000e0 e6 fa 64 3f 96 bb a3 3d 7e ed d0 be 45 8a c3 3c
       0.8944534 0.079947636 -0.40806192 0.023869643
0000f0 c8 6b 5c 3f 0d 63 64 3e 01 93 2a 40 02 3b d1 be
       0.8610196 0.2230341 2.6652224 -0.40865332
000100 fa 18 05 3f 82 54 57 3f 5c 0d 9f 3e e0 a2 50 bf
       0.51991236 0.84113324 0.3106488 -0.8149853
000110 be 1d 84 3f 88 13 ab bf 3d 28 87 bf 1b 3f 48 40
       1.0321577 -1.3365335 -1.0559155 3.1288517
000120 98 f6 93 bd 03 ed 08 3f 20 6b 16 bc d2 11 87 3f
       -0.072247684 0.5348665 -0.009180814 1.0552313
000130 48 88 aa 3e 73 cc b9 be 02 be d0 bd 0b 30 d5 bf
       0.333071 -0.36288795 -0.10192491 -1.6655287
000140 64 43 0b 3f e0 01 17 3f 7f 41 c3 bf 4a 28 6e bf
       0.54399705 0.58987236 -1.5254363 -0.93030226
000150 6f ba 60 3d 26 94 8b 3f 01 b3 18 40 75 59 fa be
       0.054865297 1.0904586 2.3859255 -0.48896375
000160 1f 8c 95 3e f5 fb 04 3f 2a 7c 24 be 82 84 9f 3c
       0.29208466 0.51946956 -0.1606299 0.019472364
000170 2c a9 0a be 41 29 eb bf 63 a3 b7 bf 59 9d 50 bf
       -0.13541096 -1.8371965 -1.4346737 -0.81490093
000180 76 0b 3c be 99 66 8b 3f 63 70 04 bf 02 0a 50 bf
       -0.18363747 1.0890685 -0.5173399 -0.8126527
000190 85 1d c2 3f 9e 94 ed be ab 7d 69 bd 33 62 95 3f
       1.5165259 -0.46402448 -0.057004612 1.1670593
0001a0 92 c1 36 3f 13 28 ba bd 0f ae b0 bf 58 b5 2b bf
       0.71389115 -0.09089675 -1.3803118 -0.67073584
0001b0 4a bd 2d bf 58 64 5b be de a8 26 3e 5a a4 d8 3f
       -0.6786696 -0.21424997 0.16275355 1.6925156
0001c0 ce 42 82 bf bb f5 96 3e f6 62 c6 3f 21 92 54 bf
       -1.0176637 0.29484352 1.549895 -0.83035475
0001d0 52 f9 c1 bf e3 7e bd 3e 4b 4a 64 bf 8e f6 07 c0
       -1.5154212 0.3701087 -0.8917586 -2.1244235
0001e0 32 8b 51 3e 90 e8 1e 3e e5 17 0e 40 25 4f 4a 3f
       0.20463255 0.15518403 2.2202084 0.79027015
0001f0 75 6b ed bf 64 6a 14 3e db ce 70 bf ca 41 96 bf
       -1.8548418 0.1449371 -0.94065636 -1.1738827

RNN.weight_ih_l0 f4 [512, 15]
000000 fb 32 ac 3c b1 69 67 3d b7 bd 0f 3e e0 f4 2e bb
       0.021020403 0.05649728 0.14037214 -0.002669625
000010 ea 0d 70 3d 49 59 0d 3f ba 2d 15 bc 4d 51 b2 3d
       0.05860702 0.55214363 -0.00910514 0.08706913
000020 0c 8d 4e 3d a2 46 ec 3e 7a 68 6b 3d 86 80 f6 3d
       0.05042748 0.4614764 0.057472683 0.12036233
000030 41 7a 58 3e 67 6f 5f 3e 2b 6a c6 bd fe b4 58 3d
       0.21140386 0.2181984 -0.09688219 0.052906983
000040 de fe 6d bd 4d 8e f8 3c 7e 19 51 3d b8 e9 bd bc
       -0.05810439 0.030341292 0.051049702 -0.023182735
000050 e2 dd 7f 3e a1 37 8f 3d f1 72 a7 3d 8c fe 11 3d
       0.24986985 0.06993032 0.0817622 0.035643145
000060 f4 96 82 3d 7d aa 3c bc d6 10 63 3d 17 6a 37 3d
       0.06376448 -0.011515257 0.055435978 0.04477891
000070 69 09 24 bd 4e 01 3f 3d 38 04 46 3a fd f0 bb 3e
       -0.040048037 0.046632104 0.0007553729 0.36707297
000080 11 f5 71 be 74 7c 3f bd 32 48 6a 3d 9d 77 0f 3f
       -0.23628642 -0.046749547 0.057197757 0.5604189
000090 0a 06 7c 3d ad c1 1d bd ec 6a 84 3e 05 92 ff 3e
       0.061529197 -0.03851478 0.25862825 0.49916092
0000a0 7b a8 69 3e ff 7b f6 bd 48 0a 2f 3d eb 53 73 3d
       0.22818176 -0.12035369 0.042734414 0.059406202
0000b0 e8 4d af bd b2 a4 13 3e 68 da 42 bd 05 93 b2 bd
       -0.08559781 0.14418295 -0.04757157 -0.08719448
0000c0 f6 84 5d 3d d4 6e 9c bd f7 aa ad 3d 58 80 0c 3e
       0.05408188 -0.07638326 0.084798746 0.13720834
0000d0 66 c1 6b 3d b6 59 f0 bd c7 b6 c7 3c 87 4d c7 bc
       0.057557486 -0.11735861 0.024379147 -0.02432896
0000e0 8a c8 e0 bd 0f 3f 4c bd 9a f2 79 bc 21 69 a9 3d
       -0.1097575 -0.049864825 -0.015255595 0.08272005
0000f0 6a f0 bc bc d7 55 27 3e ef de 0c be 00 e8 83 bd
       -0.023063857 0.16341339 -0.13756917 -0.06440735
000100 8c 4a b1 3c e4 e5 4c be 40 be 37 bc 01 50 ad 3d
       0.021641992 -0.20009571 -0.011214793 0.08462525
000110 7b d3 83 bd df 4d f3 bd 70 90 80 bd fb 9a af bd
       -0.06436821 -0.11880087 -0.06277549 -0.08574482
000120 e6 17 73 3d 18 8e 1d 3e cc 51 ac 3b c6 0a d7 3b
       0.059348963 0.15386236 0.0052587744 0.0065625636
000130 0a 79 93 3d 04 89 99 3d ca e7 61 3d 3c bf c0 3c
       0.07200821 0.07496837 0.055152692 0.023528688
000140 e8 31 86 3e 9a 31 ac 3a 12 3d ae bd 69 91 20 3d
       0.2620995 0.0013137341 -0.08507742 0.039201174
000150 21 ae 5d 3e ad 76 4e 3d 5b df 7b 3d f2 87 0e be
       0.21648456 0.050406147 0.061492305 -0.13919047
000160 18 1a 57 3c e0 75 18 bd d2 f0 6c 3d 4b bb 56 3e
       0.01312878 -0.03722179 0.05784685 0.20969884
000170 31 32 a2 3d 1c 4f f0 3c 45 20 90 3d 3b c9 70 bd
       0.079197295 0.029334597 0.07037405 -0.05878566
000180 0d a1 bc 3c 5c 7e af bd 83 ce 57 3e 33 45 c8 3d
       0.023026014 -0.08569023 0.21074872 0.09778824
000190 95 e2 2f 3e 0e 47 56 3d 5f 9a 28 bd 8c eb 65 3d
       0.17176278 0.052313857 -0.041162845 0.056132838
0001a0 0f be 99 3d a5 56 03 bb 7e 09 ed 3c 5b 51 82 bd
       0.07506954 -0.0020040658 0.02893519 -0.063631736
0001b0 62 aa d8 bc d3 d4 53 bd 37 d5 7c 3e c0 45 29 3d
       -0.026448432 -0.051716637 0.2469071 0.041326284
0001c0 12 97 80 bd 04 38 43 3d 8f e0 a5 3d 7b 34 45 bd
       -0.062788144 0.047660843 0.08099472 -0.048145752
0001d0 c1 63 27 3d 62 b9 5b bc ef 77 36 3d 18 25 34 3c
       0.040866617 -0.013410898 0.04454797 0.010995172
0001e0 bc 0a 0c bc 0a de 1a 3d f5 67 f6 3b 6f b7 29 bd
       -0.008547481 0.03780941 0.007519717 -0.0414347
0001f0 f0 a4 29 3c a9 0f 53 be e7 84 fe bd e3 5a 8a 3d
       0.010354266 -0.20611443 -0.12427693 0.067556165
000200 4a 0a 1a 3e 6d fb f6 bc 0e 44 ce 3d b4 6b 2e 3e
       0.15042987 -0.030149186 0.10071574 0.17033273
000210 8b 4a a7 bd d4 d5 a3 bd bb 5c d4 bd 33 c6 f2 3d
       -0.08168515 -0.07999769 -0.103692494 0.1185421
000220 19 5e 07 3e 9f 52 9c 3d 48 fb 0d 3c d0 23 e1 bc
       0.13219489 0.07632946 0.008665867 -0.027482897
000230 82 82 ca 3d 1b fc fd 3d a8 3e 1a 3c 9c eb 2c 3e
       0.09888174 0.12401601 0.0094143525 0.16886753
000240 a9 da 84 bd ea 99 bb 3d da 2f da 3d b5 73 b1 3d
       -0.064870186 0.09160216 0.10653658 0.086646475
000250 c9 f9 5a 3d d3 ca c9 3d fa 46 91 ba 82 d9 0d 3e
       0.05346087 0.09853139 -0.0011083775 0.13852504
000260 1d 90 2a 3d a8 87 61 bc 11 7b 8b 3d f6 11 9d bc
       0.041641343 -0.013765253 0.068105824 -0.019173604
000270 46 c7 53 3d 00 fa 5b b9 01 98 05 3e 06 fc a3 ba
       0.051703714 -0.000209786 0.13046266 -0.0012511022
000280 4e 91 75 3d e8 08 4b bc 79 a8 64 3c 3c be 74 3c
       0.059953026 -0.01239226 0.013956183 0.014937934
000290 f5 2c 9c 3d 2b 5d 81 3c cf 2e 49 bc c8 24 64 3e
       0.076257624 0.015791496 -0.012279226 0.22279656
0002a0 20 2a 26 3b 62 e6 a5 bd e6 ee 2d 3e 47 3e 07 3e
       0.0025354698 -0.08100583 0.16985664 0.1320735
0002b0 20 17 52 3c 84 a0 26 3d c7 94 99 3e 75 67 76 bc
       0.012822896 0.040680423 0.2999632 -0.0150393145
0002c0 64 18 df 3d 3a 9c 39 3d c7 4d 73 3d 17 e2 01 3e
       0.10893324 0.045315005 0.059400346 0.12683903
0002d0 96 75 41 3b 61 4a 06 3e 27 56 06 be 80 e1 9c bd
       0.002951955 0.13114311 -0.13118802 -0.07660198
0002e0 1d 34 16 bd a0 ad 0a bc 8c de 22 3d eb 69 82 bd
       -0.036670793 -0.008464247 0.03976302 -0.063678585
0002f0 c9 44 48 3d 39 5b d5 bd 94 ff 94 3c e5 19 f8 3a
       0.048893724 -0.1041779 0.018188275 0.0018928616
000300 e1 0a be 3d 78 0d a6 3d a4 b3 8e bd 89 cf cf bd
       0.09279419 0.08108038 -0.069678575 -0.10147006
000310 76 ad 8a 3e 63 6b f4 3d af ba 96 bd 09 b2 8a 3d
       0.27085465 0.11934545 -0.07359826 0.06772239
000320 e3 04 90 3d a5 8a ff bd 54 bc 0c 3d c1 3a 8d 3e
       0.07032182 -0.12477616 0.03435929 0.27583888
000330 35 a6 82 bc 55 8a f7 3e 2e 4a 99 3d 5f 4d ff bc
       -0.015948394 0.48347726 0.07484852 -0.031164823
000340 a8 2e 4c 3c f6 39 c9 bd 28 8d 9f bd 4f 96 a9 3b
       0.012462296 -0.09825508 -0.07790595 0.005175389
000350 98 73 b0 bc 4e 78 78 3d 5e a5 5b 3d df a6 21 be
       -0.021539494 0.060661606 0.053624503 -0.15786313
000360 f1 04 11 be f8 8d f1 3c 68 c6 26 3d 44 5c 30 bd
       -0.14162041 0.029486641 0.04071656 -0.04305674
000370 41 50 36 bd d6 83 3c 3e e4 72 c0 3d 81 9d 1a 3d
       -0.04451013 0.18409666 0.09396914 0.037747864
000380 a0 15 d9 bd 9c f3 95 3d 68 2c cb 3e 70 b4 f0 3c
       -0.10599828 0.073218554 0.39682317 0.029382914
000390 16 db 3a 3d 38 b5 44 3c a7 09 29 bd 8d 9e 02 3c
       0.045619093 0.012006097 -0.04126897 0.007972372
0003a0 7d e4 93 3d 10 37 5b 3e b6 89 3b 3d 8b 19 44 3e
       0.07221315 0.21407723 0.04578563 0.19150369
0003b0 d3 1e 50 3e af b7 06 be ba 8d 07 be a7 c6 9c 3d
       0.20324259 -0.13156007 -0.13237658 0.076550774
0003c0 0e 0c 96 bd 28 b6 ca 3e 3b 45 bb bd c9 e4 ac 3d
       -0.07326518 0.395921 -0.09144064 0.08442075
0003d0 58 5a 78 3c d3 5b d7 3e e0 41 98 bd 06 1b 12 3d
       0.015158258 0.42062244 -0.0743444 0.035670303
0003e0 6c 26 42 3e 37 9a fa 3e b0 1b e1 3c 41 6f 1b 3e
       0.1895997 0.48945782 0.027479023 0.15179159
0003f0 b4 42 0d 3d f4 d6 0b be 46 36 9c 3d da 59 0c 3e
       0.03448744 -0.13656217 0.07627539 0.1370615

RNN.weight_hh_l0 f4 [512, 128]
000000 a4 bc f4 3c e2 7d e2 bd 06 87 bc 3d 19 60 85 bd
       0.029875107 -0.110591665 0.09205441 -0.0651247
000010 c3 46 b4 bd ee 52 8c 3d a9 93 eb 3d 95 ce 05 3e
       -0.08802559 0.06851755 0.11502773 0.13067086
000020 d3 1b 06 bd 72 99 67 bd 40 41 ba 3c f9 a6 8e 3d
       -0.03274138 -0.05654282 0.022736192 0.06965441
000030 ec b9 0e be a1 94 70 3e 19 10 1a 3d 0d 60 43 3c
       -0.13938111 0.23494197 0.03761301 0.011924756
000040 ea 5d 26 3c 0a cc 58 3c b4 b5 14 3e 34 5f 17 be
       0.010154227 0.01323224 0.14522439 -0.14782411
000050 f7 9a 04 be d0 66 a1 3c fc b2 a8 b9 de d8 2d 3d
       -0.1294974 0.019702345 -0.0003217681 0.04244315
000060 f3 45 33 3c 53 12 2e 3e 19 00 9e be b4 38 a2 3d
       0.01094197 0.16999178 -0.3085945 0.079209715
000070 cb 4c 86 bd f4 10 11 bd d8 c8 e8 3c 5c 81 75 3c
       -0.06557616 -0.03541656 0.028416082 0.014984455
000080 7b 44 b9 3d 1c 5a 05 3e 13 c1 b5 3c e0 17 37 be
       0.09046265 0.13022655 0.022186792 -0.17880201
000090 2c 8b 4d bd 25 26 ac bd e3 9e fd bc c1 25 ed 3c
       -0.050181553 -0.08405713 -0.030959552 0.028948667
0000a0 65 4f e5 bd e5 53 a9 bd 85 4a ba 3d 92 d0 c8 bd
       -0.11196784 -0.08267955 0.09096245 -0.09805407
0000b0 60 77 ae bd 42 a4 1a 3b f7 fc 1b 3e 85 4f 8b 3d
       -0.08518863 0.002359644 0.15233217 0.068022765
0000c0 3a fd b7 3d b8 53 e9 3a 3b 5d d6 3c 0e 2b 96 3d
       0.08983846 0.0017801439 0.026167503 0.07332431
0000d0 99 a6 d8 bd 94 e5 15 3d 87 05 a1 3d c4 f0 18 bd
       -0.10578651 0.036595896 0.078623824 -0.037338987
0000e0 a2 0c ac bd 95 44 a1 be 91 05 4a 3d 14 80 f4 bc
       -0.08400847 -0.31497636 0.049321715 -0.029846229
0000f0 0d 87 e7 bc 54 45 b4 bd 11 e2 a6 bd 0d 5a 16 be
       -0.02826264 -0.08802286 -0.081485875 -0.14682789
000100 25 80 71 3c 8c 4f 5a be ed cf 88 3d b3 e1 bf 3c
       0.014740025 -0.21319407 0.06680284 0.023423051
000110 69 cb 8b 3d bf 6d 94 bd 3f 47 f2 bd fd cb cb 3c
       0.06825907 -0.07247495 -0.11829995 0.024877543
000120 aa b3 e2 bd 2d 76 2c 3e f9 dc a8 3d 93 cc 2a be
       -0.110694245 0.16841955 0.08245272 -0.16679601
000130 06 60 d8 bd 8c 4d c4 3d 68 79 00 be a0 3f 0e bd
       -0.1056519 0.095851034 -0.12546313 -0.034728646
000140 f5 7c 10 bc e7 30 ad 3d 51 d6 3b 3d b2 b9 16 3e
       -0.008818855 0.08456593 0.045858685 0.14719275
000150 19 40 c9 bc 93 4d 40 3d 52 a2 3f 3d ca b9 70 3d
       -0.024566697 0.04694898 0.04678566 0.058770932
000160 64 31 4f 3d bd 1b 47 bd 76 2c 25 bd e7 75 15 3d
       0.050584212 -0.048610438 -0.040325604 0.036489394
000170 bc 18 a7 bd d9 dd 4d 3c 7e 21 a7 3d fd aa 7e be
       -0.081590146 0.0125651 0.08160685 -0.24869914
000180 17 03 79 bd 83 2a ea bc a7 07 c6 3d 9a 3d dc 3c
       -0.060793962 -0.028584724 0.09669428 0.026884843
000190 d6 69 fe 3d ac a4 31 3e 36 b4 a1 bd a3 6d 4a 3c
       0.1242253 0.17347974 -0.07895701 0.012355241
0001a0 af 6b cb bd 47 fc be bd c9 6b 0e 3d 96 35 57 be
       -0.099326484 -0.09325462 0.03477076 -0.21016535
0001b0 2c 60 63 3d 00 17 fc 3c a7 27 a3 bd 47 86 37 be
       0.05551164 0.030772686 -0.079665475 -0.17922316
0001c0 0e cb 92 3e 35 19 8b bc 7a 69 bf 3d c7 4d 66 bd
       0.28670543 -0.016979793 0.0934629 -0.056226518
0001d0 60 c8 9a bd 90 bc e8 3c d9 d6 34 bc 24 4c f2 3d
       -0.0755775 0.028410226 -0.011037552 0.11830929
0001e0 6d 9c 97 bc 04 5b eb 3c 32 be 89 3d 0f b6 16 bd
       -0.018507207 0.028729923 0.0672573 -0.03679472
0001f0 93 6b 92 3e fe 1d 19 bd 49 46 49 be 25 50 3e 3e
       0.28597698 -0.03738212 -0.19655718 0.1858526
000200 fb 53 35 3c 74 a7 1d bd a6 6a a6 bd 44 e4 e3 bd
       0.011067386 -0.038489774 -0.0812581 -0.111275226
000210 9a 89 c5 3c b3 f9 d7 3b 78 82 40 3d 7e c6 b9 bc
       0.024113465 0.0065910458 0.046999425 -0.022677656
000220 75 c6 4d 3c cb 88 d6 bd f3 6d 6d 3d e2 a8 33 3d
       0.012559523 -0.1047531 0.057966184 0.04386223
000230 d2 ba 63 3d 5f ad e9 3b cc 7e 19 3d e2 f7 0d be
       0.055598088 0.007131263 0.03747444 -0.13864091
000240 44 82 74 bd 95 81 b8 3d f0 cf 14 3e 69 c2 3b bd
       -0.059694543 0.09009091 0.14532447 -0.0458397
000250 b6 15 25 3d 4c ed ea bc 0a 82 bd 3d bd 33 8d 3d
       0.04030391 -0.028677605 0.092533186 0.06894634
000260 d7 ad da 3d 27 31 95 3d a4 f1 76 bd be 03 0d 3d
       0.106776886 0.07284766 -0.06028904 0.034427397
000270 f6 e1 fe bd b7 0e 46 bd 65 19 27 3e fb c3 9e 3c
       -0.124454424 -0.048353877 0.16318281 0.01938056
000280 12 20 10 3d 2c c7 d3 3d 5f 00 a2 3c f9 56 a1 bd
       0.035186835 0.103407234 0.019775568 -0.07877917
000290 40 98 b7 bd b2 ea fa bd 33 f5 52 3c 72 8e 03 3c
       -0.08964586 -0.12251796 0.012875843 0.008029567
0002a0 21 c8 41 bc ef 37 04 be 62 31 74 3d 36 d0 d5 bd
       -0.0118275 -0.12911962 0.059617408 -0.10440104
0002b0 35 60 12 be 4a c2 29 3c 7e 6a 32 3d ee 5a 43 3d
       -0.14294513 0.0103612635 0.04355859 0.04769414
0002c0 e4 26 41 3d 80 0f 97 3d 97 8a 28 bd d8 60 c1 bd
       0.04715623 0.07376003 -0.041147795 -0.094422996
0002d0 7d cc c2 bd 7b d5 e2 3d 24 43 e5 3d 00 44 09 3d
       -0.09511659 0.110758744 0.11194447 0.033512115
0002e0 b3 a4 9f bd 12 96 7a bd 35 7b 1d bd ff 0a 27 bd
       -0.07795086 -0.061178274 -0.038447578 -0.04078197
0002f0 89 0e ba bc b9 d0 dd 3d de e8 9b bd 39 db 03 be
       -0.022712009 0.10830826 -0.07612775 -0.12876596
000300 e3 88 38 3d 82 04 a6 bd 9d fc e1 3d 84 21 f2 bb
       0.04505242 -0.081063285 0.1103451 -0.0073892493
000310 d4 16 36 bc 60 b0 8d bc ce d4 68 bd 0a d7 21 bd
       -0.011113841 -0.017296016 -0.05684357 -0.039511718
000320 02 3f 06 be 9d 1d 18 3e d2 dc 53 bd 2e 99 3b bd
       -0.13109973 0.14855047 -0.051724263 -0.04580038
000330 98 01 40 3d 6f 20 70 3d f1 33 2c bd 3e 29 14 be
       0.04687652 0.05862468 -0.042041723 -0.14468858
000340 c8 37 bf 3b 9d 5e 1b 3c 5f 81 06 be 19 58 b8 3d
       0.005835507 0.009483007 -0.13135289 0.09001178
000350 f9 82 1d be de f7 43 3d 51 7d 70 bd 65 0d 80 3d
       -0.15381993 0.047843806 -0.05871326 0.06252555
000360 ac 30 a2 3c cc b2 09 bd 51 69 00 3e 11 d4 b0 3d
       0.0197986 -0.03361778 0.12540175 0.086341985
000370 19 93 3d be 3f 0d 0e bd 5d 54 95 3d 33 13 0d 3d
       -0.18513145 -0.0346806 0.07291482 0.034442138
000380 32 81 86 bd 18 5c 02 be 73 e9 bc 3c 63 70 0c 3e
       -0.06567611 -0.12730443 0.023060536 0.13714747
000390 0a 70 3b 3d 9b 5c 3f bd a2 0f cd bd 51 35 2a 3d
       0.045761146 -0.046719175 -0.10012747 0.041554753
0003a0 e0 da 04 3d 10 aa d6 3d 06 76 07 be 48 74 99 bd
       0.032435298 0.104816556 -0.13228616 -0.07492882
0003b0 1c 7d b6 3d 37 a4 21 bd 58 e7 74 bd a3 f4 cb bc
       0.089105815 -0.039463248 -0.05979094 -0.024896925
0003c0 21 bf 2f 3d 82 4b 75 3d 7b 0c 77 3d 44 d6 9b 3d
       0.042906884 0.059886463 0.060314637 0.07609227
0003d0 6d 60 03 3d 57 bc 4e bd f2 22 f3 3b b7 9c 19 3d
       0.03207438 -0.050472584 0.0074199373 0.03750297
0003e0 cb 92 bc 3d c4 cc b2 3c 40 35 ce bd 41 0e 86 3d
       0.09207686 0.021826155 -0.100687504 0.065456875
0003f0 e5 72 bd 3d 08 44 b0 3d ad 52 0d bd 32 f5 5c bc
       0.0925043 0.08606726 -0.034502674 -0.0134861935

RNN.bias_ih_l0 f4 [512]
000000 3c a6 1f 3e e0 f5 8a 3d 92 25 d2 3d 4a 82 1d bd
       0.15590757 0.06785178 0.10261072 -0.03845433
000010 a8 03 2d bc 8e 25 1a bd 76 8c 62 3e 16 43 12 3e
       -0.010559954 -0.03763347 0.22123894 0.14283404
000020 87 48 14 3d 92 98 2e 3e bd 44 a0 3d ef 69 9f 3d
       0.03620198 0.17050388 0.07825611 0.07783877
000030 9e 85 5a bd 44 f6 d8 bc 37 58 37 be 9b 1a 5d 3e
       -0.053350084 -0.026484616 -0.17904745 0.2159218
000040 c5 06 54 3c 7e c2 ef 3d d2 e4 d7 3d 3a 28 4b 3e
       0.012941067 0.11707018 0.10541691 0.19839564
000050 d8 a5 97 bc bc 00 19 3d 84 f9 70 3d 28 96 be bc
       -0.018511698 0.037354216 0.058831707 -0.02326496
000060 46 83 a4 3c d4 91 b9 3c d7 37 99 3c b0 9a b1 bc
       0.020082127 0.022652544 0.018703384 -0.021680206
000070 10 f2 b9 3c 92 1b 27 3d a0 2a 2f 3e 32 08 23 3e
       0.022698432 0.040797777 0.17106104 0.15921095
000080 f1 51 c2 bc ca f4 62 bd 66 e5 6a 3e 5a bd fc 3d
       -0.023720713 -0.05540923 0.22939071 0.123408034
000090 4b 3a 32 3d 32 88 dd 3d c4 04 9c bd b2 6f ed 3d
       0.043512624 0.10816993 -0.076180965 0.1159357
0000a0 7d 03 40 bd 03 f4 b0 3d 63 bc bc bb e8 b6 2c bd
       -0.046878327 0.086402915 -0.005759762 -0.04216662
0000b0 11 da 31 bc 48 14 09 be 26 ca 93 bb 03 64 02 3e
       -0.010855214 -0.13386643 -0.004510182 0.12733464
0000c0 74 0f ed 3c 9a 0d 04 3e 8f b7 fe bd 20 49 a8 3a
       0.028938033 0.12895814 -0.12437355 0.0012839176
0000d0 49 de aa bd 52 0b 69 3e bf 28 9e 3d 95 11 dc 3d
       -0.08343179 0.22758225 0.077226155 0.10745541
0000e0 92 0d 25 3e 85 c1 a6 bc 50 0b 1e bd 06 e0 4e 3d
       0.16118458 -0.02035595 -0.038585007 0.050506614
0000f0 98 8a f6 3d 90 ab 06 3e 14 cf 81 3e 54 cb a7 bb
       0.120381534 0.13151383 0.253533 -0.005120674
000100 cc 29 8e 3c de 50 07 3e 51 e9 8b 3d 00 9a 30 3e
       0.017353915 0.13214442 0.06831611 0.17246246
000110 b2 00 7a bd 65 87 32 3d 24 ce f2 3d d7 a8 56 bd
       -0.06103582 0.043586154 0.118557245 -0.052407112
000120 39 70 42 3e 99 af be 3d 94 18 08 3b e6 11 c0 bd
       0.18988122 0.09310836 0.0020766603 -0.09378414
000130 a2 c5 44 3d 8a 4c 12 3e 9f 91 28 3e a6 31 f4 3d
       0.04804004 0.1428701 0.164618 0.11923532
000140 ae 00 4f 3d 35 78 4b 3e 4e a1 2e bd d6 29 4f 3e
       0.050537758 0.19870074 -0.0426343 0.20230803
000150 63 e0 bc bd 21 75 fe 3d c4 30 43 3d 23 5c d5 3d
       -0.09222486 0.12424684 0.04765393 0.10417964
000160 72 1b fe 3d e8 8b cf 3d f0 20 ac 3d 06 5b b4 3d
       0.124075785 0.10134107 0.0840472 0.08806424
000170 21 27 3e 3e 0a fb f3 3b b4 6c 57 bc 3a c2 11 bb
       0.18569614 0.0074456977 -0.013148475 -0.0022241012
000180 9a 25 7b 3b a6 d4 0c 3d 1b da a5 3c 5a c9 18 bd
       0.0038321973 0.034382485 0.020245602 -0.0373014
000190 78 f3 24 3c 30 4a e9 bd e9 9c d5 3d eb 0e ab bd
       0.010067813 -0.11391103 0.10430319 -0.08352455
0001a0 89 b5 07 3e c2 41 0f 3e 65 32 6e 3c 62 6d 69 3c
       0.13252844 0.13989928 0.014538382 0.01424727
0001b0 98 b2 32 be 03 bf 7c bc fb d8 0f 3d 45 9e 26 bd
       -0.1745094 -0.0154264 0.035119038 -0.04067828
0001c0 cd 8e bc bc 33 f7 12 3e 56 d6 d8 bd d8 44 35 3e
       -0.023017311 0.14352112 -0.10587756 0.17702043
0001d0 fe c4 5a 3d 56 e3 f1 3d 97 bb 8d 3d b2 8d 9c be
       0.053410523 0.11810939 0.069205455 -0.30576855
0001e0 40 65 7e 3d cf d4 f9 3d 48 a5 b6 3d 44 f9 45 3d
       0.06210828 0.12198793 0.08918244 0.04833342
0001f0 a4 cd df 3d 20 33 a3 3d 12 9b e9 bd de 43 85 3d
       0.10927895 0.07968736 -0.114065304 0.06507085
000200 53 64 9a bc b1 c3 08 3e b0 44 15 bc 58 95 94 3c
       -0.018846666 0.133559 -0.009110615 0.018137619
000210 d3 22 63 bc ea 5c 03 bd 95 5d 37 3e 10 bd 01 3e
       -0.013863283 -0.03207103 0.17906792 0.12669778
000220 55 94 e9 3d 10 84 aa 3b b3 38 8b bd f1 02 3c bd
       0.11405245 0.0052037314 -0.06797924 -0.045901243
000230 b8 2d aa 3d 05 59 03 bd b7 6a d0 3c d8 4f 6e be
       0.083095014 -0.032067318 0.02544151 -0.23272645
000240 90 f0 44 be 0e 3a f0 3d 11 4b 2c 3c bc b0 32 3d
       -0.19232392 0.11729823 0.010515944 0.04362558
000250 24 4d 8d bc 5e 27 33 bb 13 b4 52 3d c6 3c 89 bd
       -0.017248698 -0.0027336697 0.051441263 -0.06701045
000260 94 f6 18 3e 8a e1 93 bd 90 bd 1a bd 2f 3c d9 bc
       0.14937812 -0.072207525 -0.037778437 -0.026517956
000270 d6 bf a7 3d 90 db 05 3e 0b 84 43 bd 5b 78 19 3c
       0.08190887 0.13072038 -0.047733348 0.009367074
000280 ed e7 30 bd 9f 92 05 bd 07 fd 0b be aa 74 35 3c
       -0.04318993 -0.032610532 -0.13670741 0.011075178
000290 43 3c 31 be db cd 0e 3e cc 91 b2 3d 2b 5a 52 3e
       -0.17308144 0.13945715 0.08719215 0.20542209
0002a0 53 ee ee bc 7a a8 1e 3e e5 45 ff bd 52 ba 95 3d
       -0.029166376 0.15493956 -0.12464503 0.073109284
0002b0 51 d8 ca 3b 14 18 91 bd b0 06 32 3d cb b8 2a 3e
       0.0061903377 -0.07084671 0.04346341 0.16672055
0002c0 3b cf b5 3d b6 bd 12 3e 98 88 89 bd 1a 6b 32 be
       0.08877417 0.14330181 -0.06715506 -0.17423669
0002d0 91 b9 bd 3d 44 2d 13 3e 9e 69 fc bd cc 0a 35 3c
       0.092639096 0.14372736 -0.123248324 0.011049937
0002e0 5e 8d 76 3d 2b 55 84 bd cc 22 ce 3c 08 c5 49 3c
       0.060193412 -0.06461557 0.025163077 0.012315042
0002f0 f4 33 b6 ba 2e af a1 3d 0d 75 ef bd 7b f2 75 bd
       -0.0013900981 0.07894741 -0.116922475 -0.0600457
000300 ca e8 94 bd 1e 34 60 3d c1 85 c4 3d ff 02 e3 bd
       -0.072709635 0.054737203 0.09595824 -0.11084556
000310 2a ce 40 bc 85 2f c0 3d 61 cc 1e bd 23 a5 5a 3d
       -0.011767903 0.09384064 -0.03876913 0.053380143
000320 e3 7c 0e 3e a7 38 6d 3d 1a 84 86 bd 0f 69 8e 3d
       0.13914828 0.057915356 -0.06568165 0.06953632
000330 4c a6 e6 bd 4b bc 10 3e e3 2a 40 3e 66 48 2a 3c
       -0.11262187 0.14134328 0.1876636 0.010393238
000340 20 eb 08 3e 3d 1f 2c bd 11 9e e8 bd 8f ee 92 3d
       0.13370943 -0.04202198 -0.11358274 0.07174408
000350 b3 74 73 be 4f 48 d8 bc 76 ce 69 bd b6 11 89 3d
       -0.23774986 -0.026401667 -0.057081662 0.06692831
000360 1f 2f 05 3e 17 08 06 3d 7f d4 93 3b 92 69 d8 ba
       0.13006257 0.03272256 0.0045114155 -0.0016510955
000370 4b 07 f7 bd bb 9e 9c bd 54 dc cf 3d fe 16 88 bd
       -0.12061938 -0.07647463 0.10149446 -0.066450104
000380 c3 91 96 bd 5c 1f 03 3d 44 6b 99 3c af 17 0e bd
       -0.073520206 0.03201233 0.018727906 -0.034690555
000390 98 44 d9 3d 89 cc 79 3e 75 53 4e 3c 03 4b 93 bb
       0.10608786 0.2439443 0.01259314 -0.004495026
0003a0 37 26 97 bc 4f 06 f7 bb ff 77 bd 3d c1 82 8a bd
       -0.01845084 -0.007538594 0.09251403 -0.067632206
0003b0 c6 52 83 bd 72 ca 91 bd 07 0a 4a bd 50 29 f2 bb
       -0.06412272 -0.071186915 -0.04932597 -0.0073901787
0003c0 1e 78 61 bd e3 67 fd bc 23 67 9a bd ab 86 c6 bc
       -0.055046193 -0.030933326 -0.07539203 -0.024234137
0003d0 ca 64 a3 3c d1 66 92 3c a9 aa e9 bb 24 f7 ff 3c
       0.01994552 0.017871292 -0.00713094 0.031245776
0003e0 d7 c1 e9 3d f7 7f 5e bd 47 0d 02 bc fa cc 5a 3e
       0.11413925 -0.054321256 -0.007937736 0.21367255
0003f0 9c e2 1c bd e9 cc a1 bd e2 42 ba 3d 33 2e 18 3c
       -0.03830205 -0.07900412 0.09094788 0.0092883585

RNN.bias_hh_l0 f4 [512]
000000 e9 aa 19 3e 85 35 0b 3e 37 00 c7 3d 55 ed 82 bc
       0.15006603 0.13594635 0.09716838 -0.01598231
000010 b8 18 0f 3d 61 c3 4f 3c 67 77 79 3e 7a db a9 3d
       0.034935683 0.012680859 0.24361955 0.08293815
000020 92 6b 5b bd ef cf 13 3e 95 9a 37 3e 3e e0 74 3c
       -0.053569384 0.14434789 0.17930062 0.014946042
000030 f5 e4 01 3d 8a 35 6e 3d 82 7d c4 bd 24 d7 17 3e
       0.03171249 0.058156528 -0.09594251 0.14828163
000040 c9 0a fe 3c 12 cf 00 3c ca e9 5b 3d 4c 8e 4f 3e
       0.031011002 0.007861869 0.053689755 0.20269126
000050 c3 04 77 3d 47 9d 12 3e c4 1b 99 bc 06 64 9c 3c
       0.060307276 0.14317809 -0.018689997 0.019090664
000060 4f 23 b4 3d 73 5c 6f 3c 96 3f dc bc eb e8 18 3a
       0.08795797 0.014609444 -0.026885789 0.00058330473
000070 d0 97 09 3d 9b fd 14 3d 85 cc e4 3c 8c 53 40 3e
       0.033592045 0.03637467 0.027929554 0.1878187
000080 fd 06 a7 3d 37 86 c0 bc 96 75 00 3e db 66 e8 3d
       0.0815563 -0.023501499 0.12544855 0.11347743
000090 fd 59 2a 3e 96 1f 3e 3d bd 8e fe bc 9b dc 25 3e
       0.1663589 0.04641684 -0.031073922 0.16197436
0000a0 69 3b 48 bc 97 71 02 3e 16 9c 76 3d ca 17 24 bd
       -0.012221196 0.12738644 0.06020745 -0.04006175
0000b0 f3 77 97 bb 24 f5 d2 bd 9d 27 8e 3c 69 f5 2a 3e
       -0.0046224534 -0.10300663 0.017352873 0.16695179
0000c0 45 21 0a 3d ce 2f 49 3e ea 2c f2 bd 7c 65 3a bd
       0.033723135 0.19647142 -0.11824973 -0.04550694
0000d0 60 46 01 bc a0 92 61 3e e6 9c 0e 3e 7e 80 d0 3d
       -0.007890314 0.22028589 0.1392704 0.10180758
0000e0 fa 89 02 3d 4d 99 5a bd 49 39 02 bc 4f a8 28 bd
       0.031869866 -0.053368855 -0.007948228 -0.041176137
0000f0 20 fc e4 3d 86 62 6c 3e 6e bb 86 3e ad e3 c1 3c
       0.111809015 0.23084459 0.26314873 0.023668135
000100 4f ce eb 3d 50 f7 1e 3c 47 32 9d bd 30 2b 16 3e
       0.115139596 0.009702519 -0.07675605 0.14664912
000110 f3 a6 88 bc 83 87 4b 3e ef 87 1f 3e 4b e0 fd 3c
       -0.01668117 0.19875912 0.15579198 0.03099074
000120 2f b0 24 3e be b1 76 bc 62 87 34 3c db 12 b6 3c
       0.16082834 -0.0150570255 0.011018606 0.022225788
000130 1c cc a3 3d aa dc b9 3d 54 83 60 3d 4c e2 06 3d
       0.07997915 0.090752915 0.054812744 0.032930657
000140 9d 59 9c 3d d2 90 63 3e 1d ac bc 3d 55 0c 4f 3e
       0.0763428 0.22223213 0.092125155 0.20219548
000150 f4 42 09 be 0e a6 63 3a 7d e4 14 3e f6 bf f2 3d
       -0.13404447 0.0008684107 0.14540286 0.1185302
000160 aa dd 7a 3e 68 1b 24 3e 3b d3 7e 3d 5a b6 f5 3d
       0.2449862 0.1602608 0.062213164 0.119976714
000170 bd ed e1 3d 69 a9 51 3d b6 28 6a bd a1 de c2 3c
       0.11031673 0.051186953 -0.05716773 0.023787798
000180 b5 b8 fc 3d f7 4d da 3d 16 dc ca bd 55 1e cf bc
       0.123399176 0.10659402 -0.09905259 -0.025283018
000190 d9 4e f1 3d 99 89 25 be 1d 45 0b 3c 1b c0 b3 bc
       0.11782617 -0.1616577 0.008500365 -0.021942189
0001a0 07 95 3c 3d 89 65 38 3e 2c ea 32 3e 24 bb 53 bd
       0.04604056 0.18007483 0.17472142 -0.051692143
0001b0 46 af 18 be 44 7b a3 bd c4 b5 9f 3c 31 50 a1 3d
       -0.14910612 -0.079824954 0.019495852 0.078766234
0001c0 45 c7 86 3d 5d e1 2f 3d fd ae d9 bd 79 6d 52 3d
       0.065809764 0.042939533 -0.106290795 0.051373933
0001d0 c7 d3 0e 3e e5 25 00 3e 50 dd 93 3d e0 25 71 be
       0.13947974 0.12514456 0.072199464 -0.23549604
0001e0 b5 8a c4 3d 4c 3e c0 3d e9 df 21 3d 68 c2 cc 3d
       0.09596769 0.09386882 0.039520178 0.099980175
0001f0 b4 0b c3 bb 7e f2 55 bb 67 b5 c3 bc df 54 c0 bc
       -0.005952323 -0.0032645757 -0.02389021 -0.02347797
000200 da 91 26 bd 69 e9 1a 3e 33 b1 92 3d 45 aa 06 3c
       -0.04066644 0.15128101 0.07162704 0.008219306
000210 8a 4e 0d be a4 69 56 bd 42 0b 9a 3d d1 f9 b0 3d
       -0.13799492 -0.05234684 0.075216785 0.08641399
000220 a4 95 cd 3d de 91 b8 3d 6f 10 27 bd 3e 6c c8 3c
       0.10038307 0.09012197 -0.040787157 0.024465676
000230 3c e8 38 3e 5e ef 3f 3d 6e e0 9e 3d 8a 2f 68 be
       0.1805734 0.046859138 0.0775765 -0.22674385
000240 cb 5b aa bd 6f eb 34 3e c7 8b 96 3d 2e 14 b8 3d
       -0.08318289 0.17667936 0.07350879 0.08988224
000250 0c 14 84 bd 69 c1 32 bc 1c bb 59 bd 59 d2 17 3d
       -0.06449136 -0.01091037 -0.053156957 0.037065838
000260 a2 ca b0 3d 4e 9f 45 3d d9 57 2b 3d db e4 a7 bd
       0.08632399 0.048247628 0.041831825 -0.081979476
000270 5b d9 d5 bc bf d7 c3 3c fc 5b 87 3c d0 97 e5 bc
       -0.02610462 0.023906587 0.016523354 -0.028026491
000280 1d 2b d5 bd 0f 39 bd bd 2b d6 42 bd cf 12 3e 3d
       -0.10408614 -0.09239399 -0.047567528 0.046404656
000290 45 c1 99 bd 34 4a 57 3d a7 72 f4 bc 6e 1e 35 3e
       -0.07507566 0.052561 -0.029839827 0.17687389
0002a0 4a 23 84 3d 2a 56 9f 3d 0a fe 1d be 21 84 06 3e
       0.06452043 0.07780106 -0.1542894 0.1313634
0002b0 2a 3c e4 bd 70 ba a6 bd 6d 42 dd 3c 62 36 14 3e
       -0.11144288 -0.08141029 0.027009213 0.1447387
0002c0 2c 82 b7 3d df 50 cb 3d c6 cb 9c 3d 55 66 84 bd
       0.08960375 0.09927534 0.07656054 -0.06464831
0002d0 55 cd 19 3d e7 34 bb 3d bd 52 05 bd 90 65 32 3d
       0.037549336 0.0914095 -0.03254961 0.04355389
0002e0 67 6b 45 bc 36 ab a1 3d 8c 41 a9 bd 83 d8 08 3d
       -0.0120495325 0.07893984 -0.08264455 0.033409607
0002f0 2a b6 f4 3b 0d eb 2c 3e aa 17 26 be af db 1f 3c
       0.0074680047 0.1688654 -0.16219965 0.0097569665
000300 d1 df 38 be 8d 04 1e 3d 36 ef 24 bd d2 c4 f5 bd
       -0.18054129 0.03857856 -0.04026719 -0.12000431
000310 82 b1 cf bc cc 88 e9 3d cf 98 3e bd 8b d0 fa 3d
       -0.025353197 0.11403045 -0.04653245 0.12246808
000320 ae ea 8b 3d 78 e6 e4 3d af f9 17 be 5d b3 d0 3d
       0.06831871 0.11176771 -0.1484134 0.10190461
000330 89 8e 97 bd e4 4c b0 3c 96 4d 49 3e 05 5a 1e 3d
       -0.07400233 0.02152104 0.19658503 0.038660068
000340 5e 16 a8 3d ee 6a 33 be d1 31 88 bc 18 1c 92 bc
       0.08207391 -0.17521259 -0.016625317 -0.017835662
000350 b3 a0 39 be 0a 44 c8 3b 11 4f a9 bd fc 4c ad 3d
       -0.18127708 0.0061116265 -0.08267034 0.08461949
000360 9a 3c c8 3d 8e e9 e6 3d 89 82 1f 3d b1 7d 65 bd
       0.09777184 0.11275016 0.038942847 -0.05602807
000370 ef 02 6e be 6e d5 77 bd f3 a9 a7 bc f5 f6 5c 3b
       -0.23243307 -0.060506277 -0.02046678 0.0033716534
000380 70 d5 92 3c 6b 14 37 3e d5 50 68 bd 18 ff a1 3c
       0.01792404 0.17878883 -0.056717712 0.019774958
000390 97 34 4c 3d 18 4e 97 3e 43 e2 88 3d 8d b1 42 bd
       0.04985484 0.29551768 0.06683781 -0.047532607
0003a0 34 24 2f 3d e2 3a 2a be d3 5d 00 3c 26 98 2b bd
       0.042759135 -0.16624025 0.007834869 -0.041893147
0003b0 71 d2 0a be 75 00 2d bc af 41 e3 3c 18 3b e4 3c
       -0.1355684 -0.010559191 0.027741281 0.02786021
0003c0 b8 d6 c8 bc df ff 2d bd 68 52 96 bd b1 5d 84 3d
       -0.024516448 -0.042480346 -0.073399365 0.06463183
0003d0 a4 0d 10 3e d2 e8 7b 3d 91 76 09 be fd df ac 3d
       0.14067703 0.06150133 -0.13424136 0.0844116
0003e0 bf ac d2 3d 7b 48 ca 3c 81 1e 12 bc 15 d5 1f 3e
       0.10286855 0.024692765 -0.0089184055 0.15608628
0003f0 7c 70 ba bd f7 85 99 bd 1b d6 af 3d bc 21 28 bd
       -0.09103486 -0.07496255 0.08585759 -0.041047797

actor.weight f4 [5, 128]
000000 67 0e 92 be a9 9f bf bd ee 2b bc 3e 48 45 24 be
       -0.28526613 -0.09356625 0.36752266 -0.16042054
000010 d8 90 aa bd 5e 94 2f be df 50 97 bd 4a f5 57 3e
       -0.08328408 -0.17146441 -0.07388472 0.21089664
000020 9a 6d 75 bd 7e 87 ae bb 9b 2d 94 3e 66 39 00 3e
       -0.059918977 -0.0053262105 0.28941044 0.12521896
000030 db de 38 bd 1d fd ce 3e 5b a9 6b 3d 91 57 1f 3e
       -0.045134407 0.40427485 0.057534557 0.15560748
000040 77 f4 52 3e f0 fa 08 3e 94 b9 4d 3d 48 85 18 bc
       0.20601068 0.13376975 0.05022581 -0.0093091205
000050 27 3d f3 be 49 3e 4e be a5 58 09 3e 24 a4 9c bc
       -0.47507593 -0.20140947 0.13412721 -0.019121237
000060 39 85 0a bc 79 c1 a7 3d c9 19 04 bf ef a4 f4 3d
       -0.008454614 0.08191199 -0.51601845 0.11945521
000070 94 5c 9d 3b 54 e1 e1 3d ee 0b 0c 3e 46 22 9c bd
       0.004802296 0.11029306 0.13676426 -0.07623725
000080 ed 16 c8 3d 58 63 01 bd 64 75 e1 3d 66 2f 30 be
       0.09769998 -0.031588882 0.110087186 -0.17205581
000090 d5 a6 47 3e 8e b4 8d 3d 0e e5 0e 3e 2a b6 d7 bc
       0.19497235 0.06919204 0.13954565 -0.02633198
0000a0 0c fa 81 3d 84 95 ce bd fc 4f af 3d 83 49 5d 3d
       0.06346521 -0.100871116 0.08560178 0.054025184
0000b0 12 91 07 be 12 2f f1 3d f7 fe fe be 9a f8 53 ba
       -0.13238934 0.11776556 -0.49803898 -0.0008086056
0000c0 5f 05 a1 bd e3 02 17 3e 41 a2 8c bb 10 a1 8d 3d
       -0.078623526 0.14747195 -0.004291803 0.06915486
0000d0 c2 57 89 3e 42 fb 05 bd 77 e7 e1 3d bf f6 c1 be
       0.26824766 -0.03271032 0.110304765 -0.37883565
0000e0 35 62 57 be 34 25 1b bf 67 e0 cd bd 6c 95 78 3d
       -0.21033557 -0.6060364 -0.10052567 0.060689375
0000f0 2f 53 83 3b 6a e6 dd 3c bc a1 24 be 70 46 82 bd
       0.004007719 0.027087409 -0.16077322 -0.06361091
000100 8b 40 0a 3e 97 9c 03 3d 3c da 95 3e e6 7e 4c be
       0.13501184 0.032131758 0.29268062 -0.19970283
000110 71 83 e9 bc b0 c3 c3 bd 96 f6 3d bc 5d 4c 3c 3d
       -0.028505059 -0.09558809 -0.011594435 0.045971263
000120 7a 8c 9a 3c 3c f4 cb 3d 24 e8 ae bd bf e1 b3 be
       0.018865813 0.099586934 -0.08540371 -0.35133168
000130 17 33 1e be 7e 06 53 3c 42 90 b9 bb 8c 96 f6 3c
       -0.15449177 0.012879966 -0.005662949 0.030101083
000140 d7 a2 b0 bd 92 70 20 3a 14 92 af bd 6c bc 80 be
       -0.08624809 0.000612029 -0.08572784 -0.25143754
000150 e2 63 3f bd b4 82 a9 3d c2 f4 5e 3e 82 8d 28 3e
       -0.046726115 0.08276883 0.21773055 0.16460231
000160 b8 d5 19 bd c2 72 c0 3d 88 e6 48 3d c6 ab cd 3d
       -0.037557334 0.09396888 0.049047977 0.10042529
000170 08 82 e9 bd 24 29 d3 3d c2 1a c5 be b7 4e 36 bf
       -0.114017546 0.10310581 -0.38496977 -0.7121386
000180 52 c6 72 3e 15 f7 28 3b 25 ea b5 be 48 d6 9f 3d
       0.23708466 0.0025782038 -0.355302 0.07804543
000190 9c 53 dc 3d 7a 20 67 bd 62 95 9e 3c fd 92 e2 3b
       0.10758135 -0.056427456 0.01935834 0.006914495
0001a0 13 a6 19 be 69 3f a2 be 61 0f 12 bc 44 ab 14 3e
       -0.15004759 -0.31689003 -0.008914799 0.14518458
0001b0 56 79 e7 bb ae 86 c5 bc 6a 2a f7 bc d9 1a 37 3c
       -0.007064025 -0.024112072 -0.030171592 0.011175835
0001c0 d6 4e df 3e f3 3a 56 3e 79 ea 9c 3d 4f e5 9c bd
       0.43614835 0.20920925 0.076619096 -0.07660925
0001d0 a4 14 02 3d 6e 39 36 3f 70 b2 7d 3e 13 a5 78 bd
       0.031757966 0.7118138 0.247751 -0.060704302
0001e0 e3 fb 6b be c7 ea 92 bd f5 b5 37 3e ff 9e 5f 3d
       -0.23045306 -0.071736865 0.17940505 0.05459499
0001f0 82 c1 43 bd 76 77 2d be 4e 65 20 3d 21 b6 8f 3e
       -0.047791965 -0.16940102 0.03915911 0.2806864
000200 77 74 36 bd 52 fb 94 bd dc 0e b2 be 81 70 9d bd
       -0.044544663 -0.07274498 -0.34776962 -0.07687474
000210 8c 33 fc bd f6 9a 8b 3e 86 02 02 be 95 9a df 3d
       -0.12314519 0.27266663 -0.12696275 0.10918156
000220 79 ba d2 3d 0a bd 63 3e c2 b3 d2 3d 39 c4 28 3d
       0.10289473 0.22240081 0.10288192 0.041202758
000230 8b 9b 60 bd ab 92 28 be 23 2f fd 3d ff 3d 0a 3e
       -0.054835837 -0.164622 0.12362506 0.13500212
000240 36 ac c0 bc 5b 7f e6 3d 91 04 1f 3c 16 bc 5c bd
       -0.023519617 0.1125476 0.009705679 -0.05389031
000250 24 5f be 3e 9e 8c b2 3d 94 02 46 be 6a af dc 3d
       0.37181962 0.08718227 -0.19336921 0.10775645
000260 ab 72 ab 3c 81 d5 77 3e a4 ba 4e 3e 48 61 62 3d
       0.020928701 0.24202539 0.20188385 0.055268556
000270 0f 99 11 3e de b2 18 be 56 d6 29 3e b5 bd 59 bc
       0.14218543 -0.14911982 0.16585669 -0.013289859
000280 47 79 05 3e 34 f0 9c 3d 97 d8 68 3e 2a 2e 9d be
       0.13034545 0.076630026 0.22738872 -0.30699283
000290 1f c3 23 3e 92 0e 74 3e 97 d8 5b 3c 38 5e 24 be
       0.15992402 0.23833683 0.013418338 -0.16051567
0002a0 da 8e b6 bd b6 56 2a bd cc 2d 5b 3e f0 18 16 be
       -0.089139655 -0.0415866 0.21404189 -0.1465795
0002b0 7d 80 e4 3c f8 e5 3d bd e2 b2 aa 3e 79 cb 9a bc
       0.0278933 -0.046361893 0.33339602 -0.018895851
0002c0 5b cc 86 be ca 8f bd bc 86 bb b2 bd b9 92 71 3d
       -0.26327786 -0.023139853 -0.087271735 0.058977816
0002d0 a1 e5 d1 be 4f 5c 83 be b8 14 9c 3c c0 2a 4c 3e
       -0.40995505 -0.25656363 0.019052848 0.19938183
0002e0 b2 9d d0 bd 37 f6 0c 3f ae 94 1c be 54 e6 68 bd
       -0.10186328 0.55063194 -0.15291092 -0.056860283
0002f0 b9 01 53 3e f2 06 14 bc 6c ea 9b be c6 4d b4 be
       0.20606126 -0.009034859 -0.30452287 -0.35215586
000300 90 3b 09 3e 6f 0d 25 be a9 dd 78 be 5c 3c b6 3d
       0.13401628 -0.16118406 -0.24303307 0.088982314
000310 57 46 c9 3e 38 fc 1d 3e 71 ac da bd 3a d6 01 3d
       0.39311478 0.15428245 -0.10677422 0.031698443
000320 91 70 03 3e 8d b7 89 3d 27 82 7c 3d 8e 3f 4e 3e
       0.1283591 0.06724463 0.06164756 0.20141432
000330 25 7d 31 be 5f b0 24 3b 3c 6a 76 bd a1 1e 58 be
       -0.17332895 0.002512954 -0.060159907 -0.21105434
000340 f5 54 94 be aa 03 19 be 63 d7 01 be f8 98 46 3e
       -0.28971067 -0.14942804 -0.1267982 0.1939429
000350 46 b8 31 3b 0b e8 5f 3e 76 42 08 be 3d f8 6c 3d
       0.0027117892 0.21865861 -0.13306603 0.057853926
000360 11 d1 82 bb e6 fd b7 3d bf 36 8f bd 37 c7 0b bd
       -0.003992208 0.08983974 -0.06992864 -0.034125533
000370 96 48 b5 3e 00 4b 4c 3e 82 40 d3 3e f3 cc d7 3e
       0.3540694 0.19950485 0.41260153 0.4214855
000380 f5 1d 35 be 36 19 bd 3d 68 fb ab 3e 35 73 02 3d
       -0.17687209 0.09233324 0.33590245 0.03184815
000390 b8 ea 30 3d 80 93 42 3d 0d ce 1c be ea f2 65 3e
       0.043192595 0.04750395 -0.15312977 0.22455946
0003a0 82 11 c8 bd 14 86 58 3d ed 92 8f 3d c0 7c 65 be
       -0.09768964 0.052862242 0.07010446 -0.2241087
0003b0 14 ba 14 3e b8 d4 77 3d 55 c1 55 be 76 d2 8d bd
       0.14524108 0.0605056 -0.20874532 -0.06924908
0003c0 ec 3c 64 be 11 40 ea 3d 6a 90 ba 3d 7a a4 88 ba
       -0.22288865 0.11438001 0.09109576 -0.0010424994
0003d0 88 08 ec 3d c0 70 c9 be e6 37 c0 bd 16 52 c5 bd
       0.11525065 -0.39343834 -0.09385662 -0.09634797
0003e0 a8 16 f8 3b 76 07 07 bd 84 d1 a3 3d 3d 31 50 bd
       0.00757106 -0.0329661 0.07998946 -0.050828207
0003f0 1c 5b 88 3e ac 40 12 be 60 ba 47 bd d7 fd 11 be
       0.2663201 -0.14282483 -0.048761725 -0.14256988

actor.bias f4 [5]
000000 80 10 ba 3b c7 06 1a 3d 47 34 cd bd 1f 69 f8 bd
       0.0056782365 0.03760412 -0.10019737 -0.12129425
000010 a0 60 39 3d
       0.045258164

critic.weight f4 [1, 128]
000000 88 9e 11 be 89 25 32 bd fd 5c 15 bd 2d f4 2b bc
       -0.14220631 -0.043492828 -0.036465634 -0.010495228
000010 5c 25 29 bd 49 8b ca 3d c2 64 17 3e 9d 32 52 3e
       -0.041295394 0.09889848 0.1478453 0.2052712
000020 84 a2 ea 3d 0e b4 d4 bd 43 ea 97 3d 14 0e ac 39
       0.11456779 -0.10385905 0.07417729 0.00032816886
000030 30 4f a8 bd 0f 80 01 bd 70 a1 46 bc a0 ec 28 be
       -0.08218229 -0.031616267 -0.012123451 -0.16496515
000040 56 b1 1e be d7 af 01 3d b6 e9 59 3e ab 79 2e be
       -0.15497336 0.031661835 0.2128056 -0.170386
000050 77 2c fa 3c a0 68 9e 3d 32 53 95 39 1d 2a f8 bd
       0.03053878 0.077347994 0.0002848148 -0.121174075
000060 d6 a9 ac bd a9 d2 ba bc 9f 01 d6 3d 87 2a 0b 3e
       -0.08430831 -0.022805529 0.10449528 0.13590442
000070 3b b9 d4 bd 28 26 4a be e1 1d a1 3d 34 97 03 bd
       -0.103868924 -0.19741118 0.07867027 -0.03212662
000080 58 c5 9e b9 c7 2e 09 3e ae 9d 00 be 3e e2 4c bd
       -0.0003028314 0.1339675 -0.1256015 -0.05002045
000090 5f bc 53 3e 77 a8 8d bd 06 dd ed 3c e3 65 e4 bc
       0.20677327 -0.06916898 0.029036056 -0.027880615
0000a0 aa 73 b9 bd 61 fa a9 bd f2 a2 72 3d 39 c1 4b 3e
       -0.09055264 -0.08299709 0.059237428 0.19897927
0000b0 07 3c 10 be 3a 80 c4 bd 6b 32 ae bd 3b 2f f9 bc
       -0.14085399 -0.0959477 -0.0850571 -0.030418029
0000c0 a6 0c 29 3e 38 7a 4e be d6 80 18 3d 44 98 6d 3d
       0.16508731 -0.2016381 0.037232243 0.05800654
0000d0 b8 d1 b7 3d 58 25 10 bd 5e f7 ac bd 9f 5a 83 3d
       0.089755476 -0.035191864 -0.08445619 0.06413769
0000e0 bf dd 3c bd f6 4b 0b bd 9f 64 8f bd ab 5e 0a be
       -0.04610991 -0.03400799 -0.07001614 -0.13512675
0000f0 a1 af 1d be e9 64 9c 3d 00 50 fa 3c 2c 67 09 bd
       -0.15399028 0.076364346 0.030555725 -0.033545658
000100 8b 6e 82 3e 6f a1 54 3d c4 4d b5 3d 83 2d 30 3c
       0.25474963 0.051911768 0.08852723 0.010753038
000110 79 aa 55 3a ec bd 0f 3e 9d fc 0c 3c 60 1a 88 3d
       0.00081507076 0.14037293 0.00860515 0.06645656
000120 1f ce 83 3c c8 12 4c 3e 56 de 41 3d c7 e1 54 bd
       0.016089497 0.1992904 0.047331177 -0.05197313
000130 63 8a 71 3d aa 4e 3a 3e d4 56 07 be da 32 85 bb
       0.058969866 0.1819407 -0.13216716 -0.0040649
000140 e4 2c 9d bd 44 e3 a5 bc c2 f0 c9 bc b2 fc c9 bc
       -0.07674578 -0.02024997 -0.024650935 -0.024656627
000150 21 1e 86 bd c1 09 db bd 53 db 98 3d cf cb 19 3e
       -0.065487154 -0.1069522 0.07463708 0.15019153
000160 10 73 fc bc 36 8b da bd 06 53 34 3d 29 e6 1e 3e
       -0.030816585 -0.10671084 0.04402449 0.15517487
000170 cd 21 86 bd 42 38 59 3e 6a c2 b8 3d 3f b8 9e 3d
       -0.06549416 0.21212867 0.090214565 0.07749986
000180 00 62 7a bd 7a 7d 56 bd ac 0b ab bd 18 3e 99 bb
       -0.061128616 -0.052365758 -0.083518356 -0.0046765916
000190 d7 5b 30 3e 5d 25 0c bf 5e 59 e3 3b 81 bd 98 bb
       0.17222534 -0.5474451 0.0069381436 -0.0046612625
0001a0 20 3d ab bd e0 3d 8d bd 23 f9 c4 bd bd b5 e2 bc
       -0.08361268 -0.06896567 -0.096178316 -0.02767455
0001b0 4e 9e ca bd 36 31 74 3d 51 ce da bc 86 14 09 be
       -0.098934755 0.059617244 -0.026709707 -0.13386735
0001c0 8c f0 ad bc 5a eb 85 bd 14 36 00 be 9b 9d b2 bd
       -0.021232866 -0.065390304 -0.12520629 -0.08721467
0001d0 0b 89 a6 bd 5f 54 55 bd 0d 25 97 3d 03 18 7d 3e
       -0.081316076 -0.052082416 0.07380114 0.24716191
0001e0 d0 d1 77 3a e8 77 5b 3b 8f 25 32 3e 56 cb 0f 3d
       0.0009453567 0.0033488218 0.1739714 0.035106026
0001f0 e1 c8 0b bd d4 5f 8b 3c d4 50 16 be 14 4d 1d 3e
       -0.03412712 0.017013468 -0.14679271 0.15361434
