Liu/test_var/v_8/train_iter_24400.pt (torch, 616967 bytes, 9 tensors)

h0 f4 [128]
000000 c4 62 e6 3f 20 a4 74 3d f0 70 0e bf b6 8a b7 3f
       1.7998891 0.059726834 -0.5564108 1.4339206
000010 75 27 63 be a8 a7 21 c0 05 f6 af 3f 69 f5 22 3d
       -0.2218302 -2.525858 1.3746954 0.039784823
000020 e4 48 2d 3f 30 5e 2b 3f 18 57 80 3f 2c 05 46 bd
       0.6768935 0.66940594 1.0026579 -0.048344776
000030 f4 6f 14 40 8e fd ad be 49 e9 a3 3e 36 22 b1 bf
       2.319333 -0.3398251 0.3201392 -1.3838565
000040 4c c9 c3 3e 2c 9d b6 be 19 d0 d3 3f fa 4f 4c bf
       0.38239515 -0.35666788 1.6547881 -0.79809535
000050 91 a0 2c bf fc 49 19 3f 75 70 a3 3c 4f 96 85 3e
       -0.67432505 0.59878516 0.019951085 0.2609124
000060 34 e0 10 bf 29 9e b7 3e fd 1f 7b bf 39 bb 26 bf
       -0.56592107 0.35862854 -0.98095685 -0.6512943
000070 3a 84 ca bc e2 7d af 3e c9 44 e4 3e ff 75 86 3f
       -0.024721254 0.34275728 0.4458373 1.050476
000080 1c c4 30 bf 64 d3 c6 be 8e 84 16 3f be 5b 91 be
       -0.6904924 -0.38833153 0.5879601 -0.28390306
000090 52 45 66 bf 28 2e ff be 2b 01 49 bf 8e b0 57 bf
       -0.89949524 -0.49839902 -0.7851741 -0.84253776
0000a0 3b fb a1 bf 1e af 48 bf 09 b9 ed bd cc 81 c3 3e
       -1.2654794 -0.7839221 -0.11607558 0.38184965
0000b0 67 f9 ff bf db 54 46 3e 7e e6 78 3e 4a 90 72 bf
       -1.9997987 0.19368307 0.24306676 -0.9475142
0000c0 2b 2b 96 be 73 3e dc 3f 0d 8f d4 3f d9 c5 ae bf
       -0.2932981 1.7206558 1.6606156 -1.3654128
0000d0 93 a5 6d 3f 8f 84 94 3e 87 cb 21 3e 73 98 52 bf
       0.9283077 0.29007384 0.15800296 -0.8226387
0000e0 23 e5 5a 3f ff 76 27 bf 19 28 1e bf 2f 5b 30 be
       0.85505885 -0.6541595 -0.61779934 -0.17222284
0000f0 d2 70 ac bf 08 a4 53 3d ea 37 08 be b9 dc 60 3e
       -1.347193 0.051670104 -0.1330258 0.21959199
000100 c9 b3 62 3e 5e ed 93 be 75 e2 69 3f 5f a4 17 bf
       0.22138895 -0.28892034 0.9136117 -0.59235185
000110 be 9c 8a bf 1d ab e0 3f 10 d7 54 be 94 38 38 3f
       -1.0829084 1.755222 -0.20785165 0.7196133
000120 10 ef b3 be fb e9 94 be 95 57 0c c0 e8 74 67 bf
       -0.35143328 -0.29084763 -2.1928456 -0.9041276
000130 4f f0 f1 3e cd e2 b4 bf 07 54 83 bf 4c c8 a8 3f
       0.47253653 -1.4131714 -1.0260018 1.3186126
000140 5b 95 aa 3e 19 1b 8a 3f 91 46 ac 3f d1 d5 23 40
       0.33317074 1.078952 1.3459035 2.5599253
000150 f4 42 60 bf fb b1 b2 3e aa ad 67 bf 64 fb 2b 3f
       -0.8760216 0.34901413 -0.90499365 0.67180467
000160 ad 54 83 3e 99 d4 d5 be 91 ad 85 bf e1 3c e5 3e
       0.2565054 -0.41763762 -1.0443593 0.4477301
000170 8f c9 9c bf cf d2 e6 3f 35 9f 50 3f 47 c8 16 bb
       -1.2249011 1.8033084 0.8149293 -0.0023007558
000180 52 d5 9f bf 0d 18 0f c0 24 aa bf be f6 33 b3 3f
       -1.2486975 -2.235843 -0.37434494 1.4000232
000190 b4 31 bf 3d 75 1a 24 3f 61 f2 61 3c ae 3a 32 bf
       0.09335652 0.6410287 0.013790698 -0.6962079
0001a0 06 5e 05 40 26 4e 69 bf 28 cf 6d bf f0 17 6a 3f
       2.0838637 -0.9113487 -0.9289422 0.91442776
0001b0 64 d4 4c 3f 92 23 69 3e 19 58 80 bd 5f d8 d8 bf
       0.8001158 0.22767475 -0.06266803 -1.6941031
0001c0 4b 07 95 3f dc 9f f4 3e 74 44 a4 be 52 a8 0b be
       1.1642851 0.47778213 -0.32083476 -0.13638428
0001d0 1b 68 15 3f bb ce 35 3f f6 45 49 3f 94 61 a7 3d
       0.5836198 0.7101857 0.78622377 0.081729084
0001e0 d2 19 09 3e 92 85 e4 3e 2e 8c a9 be e8 18 94 bf
       0.13388756 0.44633156 -0.3311476 -1.1570101
0001f0 05 fe d2 3f 5a 91 2a 3f 73 07 11 c0 01 a5 c3 3e
       1.6483771 0.6662804 -2.2660797 0.38211825

c0 f4 [128]
000000 87 bc ce bf ec f9 bd bf e1 10 98 bf b1 5a 00 bd
       -1.6151284 -1.4841895 -1.1880151 -0.03133649
000010 d9 90 c4 bf ff 89 5c 3f 7a 49 a3 bf d2 21 3b 3d
       -1.5356704 0.86148065 -1.2756798 0.04568655
000020 8d 0f 95 3d ac 47 40 3f 85 32 9a bd d9 f3 c2 bf
       0.07278357 0.7510936 -0.07529167 -1.5230666
000030 31 7b 5d bf 3d 5a 9a bf 86 e5 fb 3e 16 e5 b4 be
       -0.865161 -1.2058789 0.4919855 -0.3533103
000040 28 ec 1b 3f 8e a9 0c 3f 42 54 12 c0 43 aa c9 3f
       0.6090722 0.5494622 -2.2863927 1.5755085
000050 8d 46 ae 3d 4b 81 96 bf 18 28 b3 3d 5a 3f 87 3e
       0.0850955 -1.1758207 0.08747882 0.2641552
000060 79 11 07 bd a6 0f 97 be 82 17 c4 3e 6d f1 dc be
       -0.032975648 -0.29504126 0.38299185 -0.43152943
000070 ed a2 04 3f b1 d2 27 3f bf 24 55 bf 61 f4 04 3f
       0.51811105 0.65555865 -0.83259195 0.5193539
000080 c1 19 0c be cf ec e5 bf 36 4a 19 3f a4 f4 cd 3e
       -0.136817 -1.7962893 0.5987886 0.40225708
000090 d9 7d f6 3c 1a 76 c5 3f 17 74 09 3f af 1c 0d 3e
       0.030089306 1.5426667 0.53692764 0.13780473
0000a0 35 11 42 3e c3 e5 27 be 22 63 ec bd 2e 2d 84 bf
       0.18951876 -0.16396241 -0.115423456 -1.0326288
0000b0 54 bf a0 3e 10 6c c3 3f 07 a0 07 bf a2 6e df 3d
       0.31395972 1.5267353 -0.5297856 0.109097734
0000c0 5f 96 f2 3f 06 ef 11 3e ab 41 6f bf aa ad 92 3e
       1.895214 0.14251336 -0.93459576 0.2864812
0000d0 92 0d c0 3e c6 fe 0b be fd d2 db bf 71 8d 32 be
       0.37510353 -0.13671407 -1.7173764 -0.17436768
0000e0 11 da 75 3f ab 0c 16 3e 44 a8 e4 be 3a 73 42 3b
       0.9603587 0.1465327 -0.44659626 0.0029670731
0000f0 7c b1 57 3f e1 3b 45 3e 56 6d 24 40 d6 44 cc be
       0.84255195 0.19261123 2.5691733 -0.39896268
000100 63 e0 02 3f 3f 2a 53 3f 4c 73 36 3e 01 44 64 bf
       0.51123637 0.8248634 0.1781742 -0.89166266
000110 7d e2 86 3f 93 2b aa bf 2e 17 85 bf ad af 42 40
       1.0537869 -1.3294548 -1.0397699 3.0419724
000120 3c 78 05 3c cf de ea 3e 70 da 30 3d 21 01 8e 3f
       0.008146342 0.45873114 0.04317707 1.1094095
000130 a2 c3 a8 3e e8 26 ae be 89 13 d6 bd d6 aa ca bf
       0.32961756 -0.34014058 -0.10452945 -1.5833385
000140 04 dc 08 3f 07 d7 00 3f 97 c4 c0 bf d2 70 5f bf
       0.5346072 0.50328106 -1.5059994 -0.87281525
000150 47 a5 da 3d 73 02 87 3f 5e 0f 1a 40 9b e9 dc be
       0.106760554 1.0547622 2.407188 -0.43146977
000160 3a 1f a2 3e 84 7a 05 3f 78 36 74 be 21 dd 8b 3d
       0.3166445 0.5214007 -0.23848903 0.06829286
000170 b6 c8 fa bd 0f 25 e7 bf c9 c8 b4 bf b1 40 3d bf
       -0.12245314 -1.8058184 -1.4123775 -0.73926836
000180 33 0f 4f be f4 0e 87 3f 11 2a f6 be 86 e9 38 bf
       -0.20220642 1.0551438 -0.4807897 -0.7223133
000190 d8 ed c6 3f dd 20 11 bf a2 64 18 bd 85 a9 98 3f
       1.5541334 -0.5669077 -0.037205346 1.1926733
0001a0 1c bd 35 3f e9 bd 74 bd 51 c0 aa bf c0 91 21 bf
       0.70991683 -0.059751425 -1.333994 -0.6311302
0001b0 ec 87 28 bf 1a d5 5e be 0f 97 5c 3e 3b fe dd 3f
       -0.658324 -0.2176098 0.21542 1.734321
0001c0 53 3e 76 bf c6 b2 87 3e 12 a5 c9 3f 88 ea 49 bf
       -0.9618885 0.2650358 1.57535 -0.7887349
0001d0 29 78 c1 bf e4 a2 9b 3e 47 96 5d bf 25 25 0e c0
       -1.5114795 0.30397713 -0.8655743 -2.2210171
0001e0 e4 a4 19 3e 36 2d 80 3e d7 5f 11 40 5f 33 3f 3f
       0.15004307 0.25034493 2.2714746 0.7468776
0001f0 be 8e e8 bf a5 5d 4b 3e 25 32 70 bf e4 9f 9a bf
       -1.8168561 0.19859941 -0.93826514 -1.2080045

RNN.weight_ih_l0 f4 [512, 15]
000000 60 be 5b 3d be 3d 28 bd 2d cb 32 3e e0 f4 2e bb
       0.053648353 -0.041074507 0.17460318 -0.002669625
000010 ea 0d 70 3d 12 07 24 3f 16 b3 c0 3c 4d 51 b2 3d
       0.05860702 0.6407329 0.023522895 0.08706913
000020 bb e9 fc 3a 84 ac 0c 3f 15 99 6b bb 46 4e d3 3d
       0.0019295731 0.5495074 -0.0035949398 0.10317664
000030 63 ea 90 3e bf b8 72 3e 18 8d 83 bd 10 df 08 3e
       0.28303823 0.23703288 -0.06423396 0.13366342
000040 c1 f0 b7 3b 25 6d a0 3c 7e 19 51 3d b8 e9 bd bc
       0.005613417 0.019583294 0.051049702 -0.023182735
000050 46 cb 8e 3e bc 4d 1a 3e f1 72 a7 3d 7c c7 b7 3d
       0.2788946 0.15068716 0.0817622 0.089735955
000060 62 12 7d 3e 3b 54 14 3d ee c9 87 3d 22 26 34 3d
       0.24714044 0.03621314 0.06630312 0.04398168
000070 a2 05 21 bd 49 6f 03 3e 67 a3 18 bd 94 59 0d 3f
       -0.039312012 0.1283542 -0.037265208 0.5521481
000080 c2 22 04 bd 74 7c 3f bd 32 48 6a 3d 8e 4e 2c 3f
       -0.03225971 -0.046749547 0.057197757 0.67307365
000090 04 95 c0 3c ad c1 1d bd 43 34 0b 3f 1f d0 1d 3f
       0.023508556 -0.03851478 0.5437662 0.6164569
0000a0 90 94 c6 3e b5 a8 01 3e ba b5 80 3d 14 c4 8f 3c
       0.3878522 0.12662013 0.062846616 0.017549552
0000b0 41 55 fe bd 65 66 b5 3d d6 47 51 be 58 24 2c be
       -0.12418605 0.08857421 -0.2043756 -0.16810739
0000c0 f6 84 5d 3d d4 6e 9c bd e9 47 f3 bd 9b 1d a7 3d
       0.05408188 -0.07638326 -0.1187895 0.08159944
0000d0 66 c1 6b 3d 52 5e 88 be b5 cc 37 be 62 e4 01 be
       0.057557486 -0.2663446 -0.17949183 -0.12684777
0000e0 97 22 7d be 42 17 1b bb 55 b5 ba 3c 0c 80 dd 3c
       -0.24720226 -0.0023664986 0.022791544 0.027038597
0000f0 7e 86 da 3b 28 2f 65 3e 43 14 c9 be 00 e8 83 bd
       0.0066688647 0.2238127 -0.3927327 -0.06440735
000100 8c 4a b1 3c 18 9d f1 bd 09 b3 97 3c 01 50 ad 3d
       0.021641992 -0.117975414 0.018517988 0.08462525
000110 45 01 02 be 0f 07 22 bd 99 4d e1 bd 53 bd 0d be
       -0.12695797 -0.039557513 -0.11001129 -0.13841753
000120 78 66 21 3e 5b 8f 2b 3e 26 77 05 3d 09 74 9f bd
       0.15761745 0.16753905 0.032584332 -0.07785804
000130 ee 69 8c 3d de 4f f2 3d ca e7 61 3d 3c bf c0 3c
       0.06856142 0.1183164 0.055152692 0.023528688
000140 ee 15 f3 3e ff 33 aa bd 12 3d ae bd e9 72 82 3d
       0.4747767 -0.08310699 -0.08507742 0.063695736
000150 44 a7 dd 3e 4e 8f b7 3d e6 af 43 3d de 50 23 be
       0.43291676 0.0896288 0.04777517 -0.15948817
000160 91 41 55 bd 7d f4 f6 bd 65 31 e0 3d 1c 53 6b 3e
       -0.052064482 -0.12058351 0.10946921 0.22980922
000170 82 7f 04 3e 1c 4f f0 3c 45 20 90 3d 49 49 7f bd
       0.12939265 0.029334597 0.07037405 -0.06232575
000180 8d e1 98 3d 5c 7e af bd bd 19 88 3e 52 73 d8 3d
       0.074648954 -0.08569023 0.26582137 0.105688706
000190 b7 a4 58 3e 26 a2 a8 3d 73 cd 27 bd 0f 6e 64 3d
       0.21156584 0.08234052 -0.040967416 0.055769023
0001a0 f2 d0 01 3e 21 22 db bd 97 ae 19 bd f4 b1 23 bd
       0.12677363 -0.10699869 -0.037520017 -0.03996463
0001b0 62 aa d8 bc d3 d4 53 bd 39 8c e8 3d a9 64 82 bd
       -0.026448432 -0.051716637 0.1135487 -0.06366856
0001c0 12 97 80 bd ab b3 c3 3b 37 2c 55 bd 68 f2 99 bd
       -0.062788144 0.005972346 -0.05204412 -0.075169384
0001d0 4c c4 b7 3c d6 8a 8a bc 55 df 7c 3d d5 a5 c0 bd
       0.022432469 -0.016911905 0.061736424 -0.0940663
0001e0 a2 9e 99 bd ec 39 db 3d 17 d8 41 3d 6f b7 29 bd
       -0.0750096 0.10704407 0.04732522 -0.0414347
0001f0 f0 a4 29 3c 4c c4 da be 39 51 43 be e3 5a 8a 3d
       0.010354266 -0.42727888 -0.19073953 0.067556165
000200 19 99 5d 3e eb b8 79 be 95 17 17 3e 04 af 54 3e
       0.21640433 -0.24386947 0.1475509 0.20769888
000210 c3 ad cd bd 25 b4 ba bd ee 86 2e be b7 d5 b9 3c
       -0.10042908 -0.09116391 -0.17043659 0.022684915
000220 16 3d 34 3e 11 3a 08 3e 48 fb 0d 3c d0 23 e1 bc
       0.17601427 0.133034 0.008665867 -0.027482897
000230 db 48 21 bd fb ac e6 3c a8 3e 1a 3c a8 d8 67 3e
       -0.03937612 0.028158655 0.0094143525 0.22641242
000240 6c 8e 4b be 09 68 81 3d 75 f2 43 3e 72 2a 95 3d
       -0.19878548 0.06318671 0.19135459 0.072834864
000250 92 13 84 ba 6c f7 21 3b 9a 65 ed 3c 59 11 df 3d
       -0.0010076633 0.0024714125 0.028979111 0.10891981
000260 7a 1e be 3d a8 87 61 bc 11 7b 8b 3d 19 38 81 3b
       0.09283157 -0.013765253 0.068105824 0.003943455
000270 39 82 a7 3d 00 fa 5b b9 9c d2 2a 3e 33 23 c9 3c
       0.08179135 -0.000209786 0.16681904 0.024552917
000280 60 44 ce 3d 2b a9 99 3c 67 18 b1 3d d8 bd e4 3c
       0.10071635 0.018757423 0.086472325 0.027922556
000290 12 81 da 3d b6 cb 7a 3d 76 f0 8a bd 50 be c2 3e
       0.106691495 0.06122943 -0.067841455 0.38035822
0002a0 20 2a 26 3b 62 e6 a5 bd 2a 09 f7 3d a2 c5 35 3e
       0.0025354698 -0.08100583 0.12062295 0.17751172
0002b0 20 17 52 3c 7b 01 00 3d 35 29 82 3e 41 04 26 bd
       0.012822896 0.031251412 0.25422063 -0.0405314
0002c0 0c 71 a2 3e 2c b8 7a 3d 58 7e a9 3d 41 96 2f 3e
       0.31726873 0.061210796 0.08276051 0.17147161
0002d0 01 b9 43 bd 33 8b 58 3e 93 e3 98 be 80 e1 9c bd
       -0.047783855 0.2114685 -0.29861125 -0.07660198
0002e0 1d 34 16 bd 25 88 21 be b4 c7 33 bc eb 69 82 bd
       -0.036670793 -0.15774591 -0.010972906 -0.063678585
0002f0 29 5a e5 b9 c6 dc 7e be 06 f0 17 bd a8 b7 9c 3d
       -0.00043745458 -0.24888906 -0.03709414 0.07652217
000300 6b ed a7 3d 91 21 a5 3d a5 e8 f5 bd 6c b7 03 be
       0.08199581 0.08063043 -0.12007264 -0.12862939
000310 c4 dd ef 3e 8c 4a 51 3e af ba 96 bd 09 b2 8a 3d
       0.4684888 0.20438594 -0.07359826 0.06772239
000320 93 4f fd 3d c6 94 1b be 54 bc 0c 3d 36 8d f4 3e
       0.12368693 -0.15193471 0.03435929 0.47763985
000330 c5 20 11 3d c2 59 20 3f 33 1f 4a 3e 2d 7a a0 bc
       0.035431642 0.6263696 0.19738464 -0.019589508
000340 cd 08 39 3d 5a e4 ff bd a9 6b 6d be 62 35 af 3b
       0.04517441 -0.124947265 -0.231856 0.00534694
000350 21 c5 07 be 4e 78 78 3d 5e a5 5b 3d 62 2e c1 be
       -0.13258792 0.060661606 0.053624503 -0.377307
000360 f0 54 97 be f8 8d f1 3c b7 6a 84 bd 9e 7a 73 be
       -0.2955699 0.029486641 -0.06465667 -0.23777243
000370 62 b3 77 3b 67 08 ae 3d 29 d7 eb 3d 87 c7 33 3d
       0.003779613 0.08497696 0.11515648 0.043891456
000380 91 f7 84 be 51 a7 d8 3d d4 e8 c7 3e 7a fd 0d 3e
       -0.25970128 0.10578788 0.3904482 0.13866225
000390 16 db 3a 3d 38 b5 44 3c f3 ea e3 bd 40 0f 26 3d
       0.045619093 0.012006097 -0.111287974 0.040541887
0003a0 7d e4 93 3d 79 d4 96 3e 63 ab ce bc a1 ac 4a 3e
       0.07221315 0.2945898 -0.025228208 0.19792415
0003b0 91 ae 97 3e f2 05 4c be 67 bd 46 be 7c d9 e0 3d
       0.2962537 -0.19924143 -0.19408189 0.10978982
0003c0 bc 5e 3d bd ad 5d d6 3e 7a f8 b4 bb c9 e4 ac 3d
       -0.046232924 0.41868344 -0.005522785 0.08442075
0003d0 58 5a 78 3c cc f0 2e 3f 84 ca 41 bd 06 1b 12 3d
       0.015158258 0.68336177 -0.047312275 0.035670303
0003e0 ba 41 88 3e c3 35 41 3f 59 c8 fe bc 20 50 8a 3e
       0.26612645 0.7547266 -0.031101393 0.27014256
0003f0 b2 af 23 3d 52 b8 7a be 34 11 d4 3d 52 58 82 3e
       0.039962478 -0.24484375 0.10354844 0.25458008

RNN.weight_hh_l0 f4 [512, 128]
000000 d9 d2 bd 3d 12 49 82 bd b4 69 44 3e fe db d5 3b
       0.092687316 -0.06361593 0.19180948 0.0065264693
000010 33 34 aa bd cd c3 e6 3c f1 4a 13 3e c4 57 a9 3d
       -0.083107375 0.028169537 0.14384057 0.08268693
000020 f1 a6 1a bc c8 79 c1 bd 60 20 03 bd 42 81 ae 3c
       -0.009439216 -0.09447056 -0.032013297 0.02130187
000030 8f cc f8 bd dd 4b af 3e 6e 4b 9c 3c b4 38 97 bd
       -0.121483915 0.34237567 0.019078936 -0.07383862
000040 f8 d0 5a bd c1 0c 14 bd 77 8c 2a 3e c7 4d 1e be
       -0.053421944 -0.036144976 0.16655146 -0.15459357
000050 1d 55 03 be c5 d8 20 3d ed 79 1b bd d5 2e 00 bd
       -0.12825437 0.039269228 -0.037958074 -0.031294663
000060 e3 bb 21 bd de 54 5f 3e 4d b7 0c bf cc 35 12 3d
       -0.039485823 0.21809718 -0.54967195 0.035695836
000070 d3 77 d0 bd b2 bc 0c bc 6d ed ab bc 19 1e 91 3d
       -0.10179105 -0.00858991 -0.020987237 0.07085819
000080 54 3f c3 3d 8a 44 66 3e f0 02 19 bd 11 53 06 be
       0.09533563 0.22487083 -0.037356317 -0.13117625
000090 cf 30 bb bd 21 c5 c8 bd 9d 57 d6 bd b2 82 32 3d
       -0.09140169 -0.09803224 -0.1046593 0.043581672
0000a0 df e6 38 3c 80 83 13 bd e0 c1 02 3d d7 70 86 be
       0.011285513 -0.03601408 0.031923175 -0.26257965
0000b0 de 65 65 bd b4 cf d5 bc 7f bc 4e 3e 94 3d 5a 3b
       -0.05600535 -0.026100017 0.20189093 0.0033300864
0000c0 18 c4 e6 3d 12 14 f8 bc c3 2e ab 3d 72 b0 c7 3d
       0.11267871 -0.030283008 0.083585285 0.09750451
0000d0 b8 9b a7 bd d0 78 81 3d 4e 49 57 3c 9d e2 c6 bd
       -0.08183998 0.06321871 0.013140036 -0.09711192
0000e0 ed f1 fb bd b9 46 d2 be da 57 72 3d 51 f1 6c bd
       -0.12302003 -0.41069582 0.059165813 -0.057847325
0000f0 65 61 5f bd 19 94 63 bd 51 a9 bd bd e5 a1 a9 bd
       -0.054536242 -0.05556116 -0.0926081 -0.08282832
000100 d2 16 08 bd e8 2b 91 be bf 9f d9 3d 0c fb 8f 3a
       -0.03322489 -0.2835381 0.10626172 0.0010984852
000110 29 9a ca bd 8e af 99 bd de f7 4a bd 4f cc bf 3c
       -0.09892685 -0.075041875 -0.04955279 0.023412852
000120 41 a8 e8 bd 6d 7a 2e 3e a4 f2 18 3e b5 ec 78 be
       -0.11360217 0.17038889 0.1493631 -0.24309047
000130 5c 06 59 be 6d 5e d1 3d d5 da a6 bd a8 5e cd bd
       -0.21193832 0.102230884 -0.08147208 -0.1002782
000140 1a fe 9c 3d 87 84 12 3e 7c ec 95 3d 2f 04 09 3e
       0.076656535 0.14308368 0.073204964 0.13380502
000150 7c 04 38 bd 5b e1 a4 3c 18 07 a9 3d 2b 46 49 3d
       -0.04492615 0.02012699 0.08253306 0.049139183
000160 f1 27 51 3c a0 07 62 bd 8c be d7 bd 60 39 1b 3d
       0.01276587 -0.055183053 -0.10534391 0.037896514
000170 c4 84 1c be 3a ed c1 bd 55 84 6d 3d f8 79 a9 be
       -0.15285021 -0.094690755 0.05798753 -0.33100867
000180 7a ab 09 be 77 b5 7d bd 10 5a 80 3d ad 4a ab 3d
       -0.1344432 -0.061940636 0.06267178 0.08363853
000190 7a 0b 0e 3e ca 2d 4b 3e f8 90 6a 3c c3 cd 3c bd
       0.13871565 0.19841686 0.01431679 -0.046094667
0001a0 95 7f 81 bd 8a 26 69 be 99 c4 07 3d 80 54 71 be
       -0.063231625 -0.22768608 0.033146475 -0.2356739
0001b0 f5 73 7c bd 23 a8 87 3c 44 c3 20 be 9f dc 8f be
       -0.061634023 0.016559666 -0.15699488 -0.28098008
0001c0 2e a7 52 3e 82 e6 8f bd 22 41 10 3e 1b d5 dd bd
       0.20571586 -0.07026388 0.14087346 -0.10831662
0001d0 6b 77 d3 bd 28 43 5a 3d 45 33 55 bd 54 e0 fc 3d
       -0.103255115 0.0532867 -0.052050848 0.12347475
0001e0 7a a7 1f 3d c0 9b 2f 3e 9b 29 43 3d a8 31 d9 bd
       0.038978077 0.17149258 0.0476471 -0.10605174
0001f0 74 90 bc 3e 3d da 26 3d 8c 10 13 be 7b 1f 90 3e
       0.3682896 0.040735472 -0.14361781 0.28149018
000200 8e 2b 27 3c dc e3 b8 bd 0f 89 f4 bd 72 3d d8 bd
       0.010203255 -0.09027836 -0.11940204 -0.10558595
000210 9f 2e 40 bc bc 3c e6 bc eb 74 f9 3d 9a fc 22 3d
       -0.011729865 -0.028105132 0.121805035 0.03979168
000220 b0 6c b6 3d 86 5e ea bd 76 21 0f 3e 21 d1 86 3d
       0.08907449 -0.1144381 0.13977608 0.06582857
000230 91 ba 83 3d 91 cc 8b bd 69 fc bf 3d 6a 27 2a be
       0.06432069 -0.06826127 0.09374315 -0.16616598
000240 6b c1 15 3b 79 45 e2 3d a9 a2 5c 3e 2a 7d f9 bd
       0.0022850882 0.11048407 0.21546425 -0.12182076
000250 fb 17 1f 3d a0 6a d0 bc 0f 24 ef 3d 51 81 c3 3d
       0.03884123 -0.025441468 0.116767995 0.095461495
000260 33 23 91 3d 85 83 b3 3d bf e1 0a be b3 63 21 3d
       0.07086792 0.0876532 -0.13562678 0.03940172
000270 1a da 34 be 7c ed 80 bc 0a 73 77 3e a7 f6 c8 3c
       -0.17661324 -0.015738241 0.24164978 0.024531676
000280 6e 70 6e 3c ea 08 65 3d 51 b4 a0 3d 06 28 00 be
       0.0145531725 0.055916704 0.078468926 -0.12515268
000290 59 c6 cd bd 80 6a 14 be 23 04 78 3c 6e c2 c5 bc
       -0.100475974 -0.14493752 0.015137705 -0.024140563
0002a0 a7 35 56 bd 9f f3 5b be bd c1 ac 3d d5 6b b2 bc
       -0.05229726 -0.21479653 0.0843539 -0.021779934
0002b0 c3 bf 54 be 7f a1 a5 3d b1 d7 10 3d 86 bd 3a 3d
       -0.20776276 0.080874436 0.03536195 0.0455909
0002c0 77 0f 93 3d 00 46 a9 3d d1 2b 1c bd 16 41 0c be
       0.07180684 0.082653046 -0.038127724 -0.13696703
0002d0 7d 27 f1 bc e6 05 42 3e 55 55 32 3e 0a 04 d8 bc
       -0.029437775 0.18947563 0.17415364 -0.026369113
0002e0 48 64 45 bd ed b6 68 bd ba 2b e0 bd 26 6f e7 bd
       -0.04819134 -0.056815077 -0.1094584 -0.11300497
0002f0 3f de be bd 28 8b 28 3e 80 be f2 bd aa c5 0e be
       -0.09319734 0.16459334 -0.11852741 -0.1394259
000300 48 c4 eb 3d a7 9d 49 bd ec 6a 3f 3e 38 1b ab bd
       0.11512047 -0.049222615 0.18693131 -0.08354801
000310 d6 60 37 bc 96 fc af bc 91 ac ea bc 5a 2e 18 3d
       -0.011192521 -0.021482747 -0.02864674 0.03715358
000320 64 80 32 be f5 c5 30 3e d3 26 a2 bd 63 bf 5d bd
       -0.1743179 0.17263015 -0.079175614 -0.0541376
000330 ba a1 6e 3d f0 da 88 3d ed 3b ff bd 29 36 ce bd
       0.058259703 0.06682384 -0.12462602 -0.10068924
000340 c3 ea 35 3d 7f 9d bc 3c 8a d6 d6 bd f8 db c9 3d
       0.04441334 0.023024319 -0.10490139 0.09856409
000350 d7 2b 5b be 9d ff 5f 3d 3b 4e 71 bd 33 e2 18 3e
       -0.21403442 0.05468713 -0.058912497 0.14930038
000360 f5 a7 a5 3c 63 f2 de bd 72 5d c6 3d cd c0 24 3e
       0.02022169 -0.10886075 0.09685792 0.16089173
000370 a9 49 83 be 12 3a 10 bb 99 00 a0 3d 55 a7 1a 3d
       -0.25642136 -0.002200727 0.07812614 0.037757237
000380 d2 d9 f7 bd 6f bb 45 be e0 f7 44 bd 48 6c 3d 3e
       -0.12102093 -0.19309781 -0.048087955 0.18498337
000390 27 d7 e8 3d 20 8b 54 bd e1 76 fa bd 60 8f 3e 3d
       0.11369162 -0.051890492 -0.122297056 0.04652345
0003a0 1c 1b 32 3d 95 8a 05 3d 96 aa 46 be ec d0 01 bc
       0.043482885 0.032602865 -0.19401011 -0.007923346
0003b0 df 11 2d 3e 5c 56 6b bc 0e 46 f0 bd 9b 74 e8 bc
       0.16901349 -0.014363851 -0.11732112 -0.028375914
0003c0 c7 bc d2 3d 87 e5 10 3e a1 bb 8b 3d eb 04 2c 3c
       0.10289913 0.14150058 0.06822897 0.010499219
0003d0 41 97 ec 3c 04 65 16 bd 5b 83 cc 3c bf 01 67 bb
       0.028880717 -0.03671743 0.024964979 -0.0035248843
0003e0 12 a3 8a 3d 2b ba 6c 3c 06 62 ba bd 70 88 8e 3d
       0.067693844 0.014448683 -0.09100728 0.06959617
0003f0 bd 09 a0 3d 11 3b af 3d 4d 2d da bd 8a a5 7b 3d
       0.078143574 0.08556188 -0.10653172 0.061437167

RNN.bias_ih_l0 f4 [512]
000000 70 3a 24 3e 3e bb 24 3e 79 be a3 3d 1d 0a d5 bd
       0.16037917 0.16087052 0.07995314 -0.104023196
000010 16 64 77 bd 0a a8 e0 bc 35 5e 95 3e c6 94 50 3d
       -0.060398184 -0.027423877 0.29173437 0.05092313
000020 9e 9b ca 3d ad d9 e2 3d 28 db 0d 3e a7 ea d7 3d
       0.09892963 0.110766746 0.13853133 0.10542803
000030 b7 9a db bd 28 58 23 bd 87 92 b1 be 19 db 88 3e
       -0.10722869 -0.039878994 -0.34682104 0.26729658
000040 0c 2d 47 3d 85 c3 58 3e c7 2c 8b 3d 84 f4 5a 3e
       0.048626944 0.21168335 0.0679565 0.21382338
000050 03 40 a6 3c 72 b3 92 3c 07 c5 84 3d 5d 3b 07 bd
       0.020294195 0.017907832 0.064828925 -0.033015598
000060 d6 21 0a bd ba 66 ee bb 46 32 e7 bc 5e 2e 61 3d
       -0.033723675 -0.0072754296 -0.028222214 0.05497586
000070 18 c2 b4 3c 79 ca 09 3e 47 39 ed 3d f1 1c 7f 3e
       0.022065207 0.13456143 0.115831904 0.24913384
000080 73 45 40 bd dd 55 26 be ca c8 93 3e 26 ff 3f 3e
       -0.046941232 -0.16243692 0.28864127 0.18749675
000090 9d bf 85 3d 60 68 17 3c 13 f6 14 be 69 86 96 3d
       0.06530688 0.0092411935 -0.14546995 0.073498555
0000a0 7b 2b 59 be d2 c5 2b 3e 49 58 f4 3c 84 86 2a be
       -0.21207993 0.16774681 0.029827254 -0.16652876
0000b0 26 b3 89 bc 81 76 c8 bd 12 33 91 bd e7 ec 72 3e
       -0.016809057 -0.09788228 -0.07089819 0.23723184
0000c0 ea 94 95 3d 37 c9 16 3e 09 d4 19 be 2e b2 16 bd
       0.07303794 0.14725195 -0.15022291 -0.03679102
0000d0 43 27 f8 bd 57 94 6f 3d d8 79 52 3d 0a 98 bc 3d
       -0.121168636 0.058491077 0.05138573 0.09208687
0000e0 ad 02 6b 3e 77 80 82 bd 8d 57 3d be 37 ce a2 3c
       0.2295024 -0.06372159 -0.18490429 0.019873722
0000f0 99 04 0a 3e 87 b1 11 3e a3 64 be 3e 0e 39 29 bc
       0.13478316 0.14227878 0.37186155 -0.010328544
000100 63 2e ab 3c d0 47 3f 3e a8 a7 1e 3c fa 84 21 3e
       0.020896142 0.18679738 0.009683527 0.15773383
000110 be c8 60 bd 13 a2 e3 3d e5 fe 85 3d 6c cb 5c be
       -0.054878943 0.111148976 0.06542758 -0.21561974
000120 22 fb 2d 3e e3 c4 ad 3d 49 bf c1 3c f7 08 a3 bd
       0.16990331 0.08484819 0.023650782 -0.07960694
000130 f8 e4 8c 3d 29 90 5c 3e 33 28 34 3e e0 ef 20 3e
       0.0687961 0.21539368 0.1759346 0.15716505
000140 59 f9 b4 bd e7 c8 92 3e 9e 47 a7 bd 4d b2 e4 3d
       -0.08836622 0.286689 -0.08167957 0.11166821
000150 f2 87 b3 bd aa 8d 0d 3e c5 5c 8a 3d 89 19 18 3e
       -0.08766164 0.13823572 0.06755976 0.14853491
000160 1e e4 fd 3d 2e 11 44 3d 62 27 16 3d 32 1c 8b 3b
       0.123970255 0.047867946 0.036658652 0.0042453045
000170 74 f4 98 3e f4 ab 1c bd b6 46 1a bd d8 14 42 bd
       0.29874003 -0.038249925 -0.03766509 -0.04738316
000180 94 11 74 bd bc f6 ad 3d b2 9a 7e 3d cf 8f bb bd
       -0.059587076 0.084943265 0.062159248 -0.09158289
000190 23 ec b1 3d 54 c6 1f be 9f a4 c7 3d ce d4 29 be
       0.08687618 -0.15603 0.09748196 -0.16585085
0001a0 17 33 8f 3e 72 cb a5 3d 9d 70 e1 bd 66 8d 96 3a
       0.27968666 0.08095445 -0.110078074 0.0011486232
0001b0 27 c6 8f be 80 29 16 be 07 1d d4 3d 2e 3d 09 be
       -0.28080866 -0.14664268 0.10357099 -0.13402244
0001c0 c6 f9 9d bd 9c b7 07 3e 81 92 eb bd 5e 5a 1a 3e
       -0.07713656 0.13253635 -0.11502553 0.15073535
0001d0 0a d3 b4 3d f3 08 1e 3e d0 b4 4c 3d 4a 6d 9b be
       0.08829315 0.15433101 0.049977124 -0.30356818
0001e0 15 e3 37 3d 9b bd 1f 3d 48 8d 03 3e 9c 7f 8b 3d
       0.044894297 0.03899918 0.12846863 0.06811449
0001f0 4a 22 0c 3e 58 03 92 3d e1 77 03 be 31 1c 43 3d
       0.13684955 0.07129544 -0.12838699 0.047634307
000200 ec 61 a3 bc 68 73 6e 3e b3 86 1a bc ba 9a d2 bd
       -0.019944154 0.23286211 -0.009431529 -0.10283418
000210 73 a5 6f 3c 91 35 ac bc 19 88 55 3e f9 7d 40 3e
       0.0146268485 -0.021021636 0.20852698 0.18798055
000220 82 17 fa 3d f7 c2 e5 bd 4d 71 41 bd 4a 53 56 bc
       0.12211515 -0.11218827 -0.047227193 -0.013081381
000230 46 18 bc 3d 80 e5 03 bd bd 48 49 bd 02 9e 97 be
       0.09184317 -0.03220129 -0.049141634 -0.29612738
000240 3a c4 6c be 99 fc 61 3e 4c 71 75 3c 19 dc f2 3c
       -0.2312173 0.22069015 0.014980625 0.029645966
000250 9a 1b e8 bc f1 36 a1 3a 76 d4 31 3d e1 64 90 bd
       -0.028333474 0.0012299699 0.04341551 -0.07050491
000260 f5 dc 1b 3e b7 2a 90 bd bc 62 f3 bc 1a af dc bd
       0.15221007 -0.07039397 -0.029710166 -0.107755855
000270 77 06 29 bc 0e a1 55 3e f8 a3 4c bd b0 c7 9a 3d
       -0.010316483 0.20862219 -0.04996106 0.075576186
000280 34 21 e4 bd b8 8d 95 bd a8 e9 36 be 5c 92 96 3d
       -0.111391455 -0.07302421 -0.1786257 0.073521346
000290 4a 84 48 be 04 13 4a 3e 70 97 9b 3d 7e 38 58 3e
       -0.19581714 0.19733816 0.07597244 0.211153
0002a0 57 fa 94 3d b6 27 83 3e 7d 2d 3f be 93 1d 4d 3e
       0.07274311 0.25616235 -0.18669696 0.20030813
0002b0 8b 4f ca bc 5c db fc bd a9 69 a5 3d 91 a6 2f 3e
       -0.024696132 -0.12346527 0.08076794 0.17153384
0002c0 74 87 11 3e f8 6e 20 3e 9d 83 7f 3c 09 0c 72 be
       0.14211828 0.15667331 0.015595344 -0.23637404
0002d0 1a 44 90 3d 26 e1 b0 3c 81 e2 fe bd 76 94 e4 3c
       0.07044239 0.021591734 -0.12445546 0.027902823
0002e0 34 2f f2 3c 7e 69 59 bd b4 89 cd bd f9 48 85 bd
       0.029563524 -0.05307912 -0.100360304 -0.06508059
0002f0 18 e6 1f bc c3 16 cb 3d f7 82 db bd 1a a5 84 bd
       -0.0097594485 0.09916451 -0.10718339 -0.06476803
000300 7b 6e 08 be d8 f1 02 3d 17 85 24 3e 98 46 83 bd
       -0.13323395 0.03196892 0.16066395 -0.06409949
000310 3a 76 dd 3b 79 b1 cb 3d 4c 1d d9 bd a8 ef 63 3c
       0.0067584785 0.099459596 -0.10601291 0.013912119
000320 d4 04 0f 3e 83 16 25 3d a0 a5 b0 bd 6b dd 89 3d
       0.13966686 0.040304672 -0.086253405 0.06731685
000330 b6 2d 02 be e8 dc 66 3e 41 29 8d 3e 29 91 99 bc
       -0.1271275 0.22545207 0.27570537 -0.018745976
000340 40 bc 8c 3d f4 1d 5b bc 4b b5 f9 bd 6b df e9 3c
       0.06871843 -0.013373841 -0.12192782 0.028548917
000350 78 fb 8e be 9e d1 39 bd cb 18 1c be 06 e9 eb 3d
       -0.2792623 -0.045365922 -0.15243833 0.11519055
000360 b8 4e 1c 3e 22 4a ce 3c 67 da 9c bd cc 32 c1 bd
       0.15264404 0.025181834 -0.076588444 -0.09433517
000370 70 fd 18 be ed bd c5 bd 25 41 0b 3e fc dd b6 bd
       -0.14940429 -0.09655366 0.1359907 -0.08929059
000380 f8 ef 74 bd 6a ba 57 3d f2 22 8c 3d c3 99 0e be
       -0.059799165 0.052668013 0.06842603 -0.13925843
000390 42 a3 4f 3e a2 3f ad 3e a4 a3 d0 3c d6 b3 a9 bb
       0.20277122 0.3383761 0.025468655 -0.005178909
0003a0 de bc 95 3d c6 5c 1d bd f6 03 b5 3d c2 02 9f bd
       0.07311414 -0.038418554 0.08838646 -0.07764198
0003b0 71 fd e3 bd 51 69 d5 bd 67 a9 2b bd 78 6b 8d 3c
       -0.111323245 -0.10420478 -0.0419096 0.01726316
0003c0 c1 b4 ee bd 7e f0 e4 bc bb b4 aa bd 10 df d9 bd
       -0.1165557 -0.027946707 -0.08335253 -0.10638249
0003d0 93 85 5d 3d 03 3b f4 3b fe 1a be bd 3c c9 27 3e
       0.054082464 0.007453324 -0.09282492 0.16385359
0003e0 03 32 6a 3d 7f 4f d4 bd 84 be 6e bb ef 4e 87 3e
       0.0571766 -0.10366725 -0.0036429474 0.2642741
0003f0 a4 d6 c9 bd 58 6c 05 be 3b 3e 85 3d 14 c4 8e bb
       -0.098553926 -0.13029611 0.0650601 -0.0043568704

RNN.bias_hh_l0 f4 [512]
000000 30 3f 1e 3e a4 75 6a 3e 1a 99 98 3d 36 04 a7 bd
       0.15453792 0.22896439 0.07451077 -0.081551
000010 3e 29 74 bc a0 84 bb 3c b8 d3 a0 3e 31 02 13 bc
       -0.014902411 0.022890389 0.3141153 -0.00897269
000020 16 0b 16 3c 70 48 ad 3d 7c 53 75 3e af 39 2e 3d
       0.0091579165 0.08461082 0.23957628 0.04253548
000030 b6 95 b5 bc a6 58 37 3d dd 05 87 be 98 72 4c 3e
       -0.022166114 0.044762276 -0.2637166 0.19965589
000040 55 98 88 3d 84 de d1 3d 70 f2 84 3c 98 5a 5f 3e
       0.0666968 0.102475196 0.016228884 0.21811903
000050 af fb ca 3d a7 66 fd 3d d7 f4 4f bc 05 07 19 3c
       0.09911286 0.12373095 -0.012692652 0.0093400525
000060 3c e3 0b 3d be fa 7a bc 6f 2a 97 bd c4 2f 9e 3d
       0.034152254 -0.015318571 -0.073811404 0.07723954
000070 ce ff 06 3d f8 42 05 3e 3e a3 df bc 43 34 8e 3e
       0.032958798 0.13013828 -0.02729952 0.27774248
000080 ac f1 6e 3d 60 a9 05 be 03 22 3d 3e e5 d3 35 3e
       0.058335945 -0.13052893 0.18470006 0.17756613
000090 7f ab 40 3e f0 16 57 bd 3a 8b cd bd db cf f4 3d
       0.1881542 -0.05251211 -0.10036321 0.11953708
0000a0 1c ae 35 be 32 bd 55 3e 34 30 c4 3d b7 5e 28 be
       -0.17742199 0.20872954 0.095795065 -0.16442381
0000b0 4c 48 2d bc ea 42 89 bd ef d8 48 bd 19 bf 8d 3e
       -0.010576319 -0.06702216 -0.04903501 0.27684858
0000c0 9f 61 9f 3d 37 eb 5b 3e b2 8e 13 be 15 2d ab bd
       0.077822916 0.21476446 -0.14409903 -0.08358208
0000d0 ac e3 3a bd 86 b1 51 3d 1a 4e e8 3d fa 06 b1 3d
       -0.04562728 0.05119469 0.11343022 0.08643909
0000e0 66 2f cd 3d a1 1c c6 bd 68 f8 1d be 90 10 93 bd
       0.10018806 -0.09673429 -0.1542679 -0.071808934
0000f0 42 3d 01 3e 5d 68 77 3e 00 51 c3 3e e9 39 97 3c
       0.12621024 0.24160905 0.38147736 0.01846023
000100 8e 0f f3 3d 71 cc 83 3d 54 a3 0a be 1f 16 07 3e
       0.11868201 0.064354785 -0.13538867 0.13192032
000110 3d 6f 2c bc 5b 5b 88 3e bb 40 d2 3d 31 65 07 be
       -0.010524568 0.266322 0.102662526 -0.13222195
000120 f8 3a 10 3e 3b 04 bf bc 24 80 05 3d 8a 1b 15 3d
       0.14084995 -0.023317447 0.032592908 0.036403216
000130 f3 4d ce 3d 2e 32 27 3e 80 6e 87 3d 5e 1f 91 3d
       0.100734614 0.16327736 0.06612873 0.07086061
000140 0e 20 80 bd 36 d5 9e 3e be 69 59 3d 58 77 e4 3d
       -0.06256114 0.31022042 0.05307936 0.111555755
000150 a1 96 04 be b6 6a 73 3c 98 46 29 3e 5f cb 26 3e
       -0.12948085 0.014856985 0.16530836 0.16288517
000160 ee c1 7a 3e 94 b3 da 3d af e1 72 3c 4c 1a 14 3d
       0.24488041 0.10678783 0.014824315 0.03615789
000170 89 b8 64 3e b2 ed b3 3b 5b 4a a7 bd ae 12 af bc
       0.2233602 0.005490982 -0.08168479 -0.021371212
000180 ce ad 75 3d 1f ed 20 3e 22 0a 6a bd bb f2 a2 bd
       0.059980206 0.15715455 -0.05713857 -0.079564534
000190 4e 4e 47 3e f2 aa 50 be 71 20 dc 3a fc 8a d5 bd
       0.19463465 -0.2037771 0.0016794336 -0.104269
0001a0 e5 d5 45 3e f8 12 f8 3d 42 3a 4d 3d 21 b1 84 bd
       0.19319876 0.12112993 0.050104387 -0.06479097
0001b0 88 c4 82 be 12 1b 58 be 4b 1e b4 3d 83 da 6e bc
       -0.25540566 -0.21104077 0.087948404 -0.014578464
0001c0 1d 89 3f 3c bd e2 02 3d 20 6b ec bd cc 86 cd 3c
       0.011690405 0.031954516 -0.1154387 0.02508869
0001d0 07 8c 32 3e 23 3d 25 3e 4d f8 58 3d 82 e4 6e be
       0.17436229 0.16136603 0.052971173 -0.23329356
0001e0 85 49 a1 3d a6 40 32 3c 36 65 a1 3d 47 45 f5 3d
       0.07875351 0.010879671 0.078806326 0.11976104
0001f0 64 18 b1 3c 11 fb 3e bc ee 83 1c bd 56 96 27 bd
       0.021618076 -0.011656539 -0.038211755 -0.040914856
000200 05 11 2b bd 7f 4c 80 3e eb 08 92 3d df ea e6 bd
       -0.041764278 0.25058362 0.07130607 -0.11275267
000210 1a 44 e0 bd 73 27 29 bd 3f 60 d6 3d 9b 3d 17 3e
       -0.10950489 -0.041297387 0.10467576 0.14769594
000220 bf 18 de 3d c8 64 df bc 8e 21 a4 bc 61 a4 6a 3d
       0.10844564 -0.027269736 -0.020035531 0.05728567
000230 43 dd 41 3e f5 62 3f 3d 79 2b 44 3b e0 8d 94 be
       0.18932061 0.046725232 0.0029933138 -0.29014492
000240 46 03 fa bd 78 65 8f 3e a6 b0 9f 3d c8 72 9b 3d
       -0.122076556 0.28007102 0.07797365 0.07590252
000250 92 c7 9a bd a6 a1 e3 bb 93 9a 7a bd fe 81 09 3d
       -0.07557596 -0.00694676 -0.06118257 0.033571236
000260 14 97 b6 3d 16 0d 4d 3d 40 64 4c 3d 81 22 27 be
       0.089155346 0.050061308 0.049900293 -0.16321756
000270 dc 56 f2 bd 9e 80 d0 3d a6 38 6a 3c 48 65 1c 3d
       -0.11832973 0.10180782 0.014295733 0.038182527
000280 3c 6c 30 be a5 fe 07 be 6e 44 b7 bd 37 ed de 3d
       -0.17228788 -0.13280733 -0.08948599 0.10885089
000290 d6 51 c8 bd 07 2f e2 3d 6b 2e 28 bd c7 fc 3a 3e
       -0.09781234 0.11044126 -0.041059893 0.1826049
0002a0 83 6c 2a 3e 3c 52 37 3e 96 88 5d be 48 62 84 3e
       0.16642956 0.17902464 -0.21634135 0.25856233
0002b0 f3 be 11 be d1 3e 09 be c7 b6 83 3d 3a 24 19 3e
       -0.14232998 -0.13402869 0.064313464 0.14955226
0002c0 e8 60 12 3e e7 b2 e6 3d 2e 22 23 3e ea d3 01 be
       0.1429478 0.11264592 0.15931007 -0.12678495
0002d0 bf 89 7b 3c 22 b5 fb bc df 43 0a bd 14 6d 77 3d
       0.015352665 -0.03072602 -0.033756133 0.06040676
0002e0 c2 d0 2e bd c7 4b b9 3d f0 29 55 be a7 2a 34 bd
       -0.042679556 0.090476565 -0.20816779 -0.04398599
0002f0 cc 4a 6c ba 9c 9e 41 3e 77 1e 1c be a5 f7 a4 3b
       -0.0009013831 0.18908161 -0.15245996 0.0050344043
000300 07 da 76 be e3 84 81 3c 70 33 c8 3c 5b 08 96 bd
       -0.24106608 0.015810436 0.02443859 -0.073258124
000310 0a b3 df bb d8 0a f5 3d 6e 03 e9 bd 42 fc a9 3d
       -0.006826763 0.11964959 -0.11377607 0.083000675
000320 e2 fa 8c 3d 26 d5 c0 3d a0 0a 2d be d8 27 cc 3d
       0.068837896 0.09415655 -0.16898584 0.09968537
000330 80 43 b5 bd ff 53 d8 3d 9c ba 91 3e 88 fd 1b 3c
       -0.08850765 0.10562896 0.28462684 0.009520896
000340 4c f1 8b 3c e2 14 16 be 32 8f cc bc b9 fb 79 bd
       0.017082833 -0.14656404 -0.024970625 -0.061031077
000350 34 23 64 be 5e 92 52 bc c9 4c 36 be 28 12 08 3e
       -0.22279054 -0.0128522795 -0.17802729 0.13288176
000360 af 7b f6 3d 16 78 d7 3d db ac 2c bd 1c 48 18 be
       0.120353095 0.105209514 -0.042157035 -0.14871258
000370 b3 be 85 be ec 09 a5 bd 85 db 65 3c ce 7c 9f bc
       -0.26122054 -0.08058533 0.014029388 -0.019468691
000380 60 9e 01 3d 01 3b 4c 3e d9 05 e6 bb 2e a8 ad bd
       0.03164518 0.19944383 -0.00701974 -0.08479343
000390 13 0e 16 3e 7f a7 c7 3e 98 40 a3 3d f0 7e 45 bd
       0.14653806 0.38994977 0.07971305 -0.04821676
0003a0 62 8c 09 3e c0 d9 49 be 31 fc 72 3b 9a 97 54 bd
       0.13432458 -0.19711971 0.0037076587 -0.05190239
0003b0 d5 27 3b be 14 7e 32 bd 6d 01 10 3d 76 18 57 3d
       -0.18276913 -0.04357727 0.03515761 0.052513562
0003c0 54 2e b0 bd 2b c4 21 bd 0c a0 a6 bd 40 7e 8f bc
       -0.086025864 -0.03949372 -0.08135995 -0.017516255
0003d0 77 02 33 3e d4 3c 51 3d 27 37 61 be 5a 3a 5e 3e
       0.17481409 0.0510834 -0.21993695 0.21701947
0003e0 0d 08 3c 3d 27 f6 c9 bc 7b 81 97 bb 9b a5 53 3e
       0.045906115 -0.024653507 -0.0046235896 0.20668642
0003f0 d6 ea 1a be e1 48 01 be e5 a2 75 3d d6 05 60 bd
       -0.15128645 -0.12625457 0.0599698 -0.054693066

actor.weight f4 [5, 128]
000000 a4 57 b6 be b4 fa 13 be aa 41 33 3f 41 c9 4e be
       -0.3561374 -0.14451104 0.7002207 -0.2019396
000010 6b 7e 2d be f6 26 92 be e5 e3 57 bb e1 7e 87 3e
       -0.16942756 -0.2854535 -0.0032942232 0.26463988
000020 ec 8c 31 be 26 b3 24 bc 34 4b b9 3e 35 61 1e 3e
       -0.17338914 -0.010052478 0.36190188 0.15466769
000030 2d d7 c7 bd aa 4c 09 3f 6b 8f 99 3d f3 9c 6f 3e
       -0.097578384 0.53632605 0.07498058 0.23399715
000040 95 67 a6 3e 10 7c 3b 3e 8c 8a 69 3d d7 d4 13 bd
       0.32500902 0.18309045 0.057016894 -0.03609165
000050 c5 24 27 bf 29 17 91 be 0f 61 78 3e 09 be cd bc
       -0.6529048 -0.28337982 0.24255775 -0.02511503
000060 51 0d 31 3d 85 53 10 bd 6e b9 27 bf 33 f9 2f 3e
       0.04322559 -0.0352359 -0.6551732 0.17184906
000070 aa 12 b6 be b6 f6 76 3d 44 69 39 3e ce 7b d8 bd
       -0.35561115 0.060293876 0.18106562 -0.10570489
000080 e0 89 20 3e 8b bd 1e 3d 62 7a 28 3e a5 c3 63 be
       0.15677595 0.03875498 0.16452935 -0.22242601
000090 33 9d 85 3e ba 0e 14 be 76 ce 68 3e e7 fd 07 be
       0.26096496 -0.14458743 0.22735009 -0.1328045
0000a0 e1 f1 18 3e 19 5c 1b be 76 11 19 3e 3e 51 36 3d
       0.1493602 -0.15171851 0.14948067 0.044511072
0000b0 ac 81 80 be 95 6f 9c 3e d1 a5 1a bf 92 c6 c3 3c
       -0.25098932 0.3055388 -0.60409266 0.023898397
0000c0 79 5e 50 bd f9 c5 39 3e 76 8a a3 3c 41 05 f5 3d
       -0.050871346 0.18141927 0.019963484 0.11963893
0000d0 cb f6 d6 3e 40 20 f6 bc fe 7f 43 3e ad 5d 13 bf
       0.41985163 -0.030044675 0.19091794 -0.5756481
0000e0 46 27 88 be e2 55 55 bf 2b 2a 9c be 23 5d f9 3d
       -0.26592463 -0.8333417 -0.30500922 0.121759675
0000f0 b3 b1 b7 bd 2a ef df 3c f5 f8 2c be 45 12 21 bd
       -0.0896944 0.027335722 -0.16891845 -0.039324064
000100 12 d8 4a 3e db 02 9e 3d 8b f7 06 3f 86 c8 89 be
       0.19808987 0.077153884 0.5272147 -0.269108
000110 bc 21 89 bd f1 49 02 be 66 7b 77 bc 45 28 88 bb
       -0.066958874 -0.12723519 -0.015105104 -0.004155191
000120 ad b7 eb 3d 31 31 0d 3e b3 31 88 be 0f 26 ec be
       0.11509643 0.13788296 -0.26600417 -0.46122786
000130 27 fa 23 be 45 0a 48 3d d6 24 7a bd 33 c9 73 3d
       -0.16013394 0.04883792 -0.061070286 0.05951805
000140 5d da 06 be 07 a8 44 bc 86 d8 0a be 62 1b be be
       -0.13169236 -0.012002951 -0.1355916 -0.37130266
000150 ea 1f 7a bc f9 bf d0 bd b0 38 90 3e 23 54 50 3e
       -0.015266398 -0.10192866 0.2816825 0.20344596
000160 7c d2 56 3d c4 3e ed 3d b4 5c 86 3d d1 0a 11 3e
       0.052446827 0.11584237 0.065606505 0.14164282
000170 69 a5 44 be 6e 08 05 3e 61 60 05 bf 13 ba 75 bf
       -0.19203724 0.12991497 -0.5210019 -0.9598705
000180 fc 0f 9f 3e a8 35 bf 3d ad 65 ea be 37 9f 63 3d
       0.31066883 0.09336406 -0.45780697 0.05557176
000190 23 fe 09 3e b2 79 ca bd ff fc c1 3c 82 38 8e bb
       0.13475852 -0.09886493 0.023680208 -0.0043402323
0001a0 ab 1e 4e be 8e 69 d5 be 33 24 4d 3d 3b 3c 64 3e
       -0.20128886 -0.41682094 0.05008335 0.22288601
0001b0 88 2b 91 be bd f8 93 3d d4 af 24 3e a5 0a 54 bd
       -0.28353524 0.072251774 0.16082698 -0.051767964
0001c0 d2 4d 04 3f 00 fb 9a 3e cc af a7 3d 03 03 3a be
       0.51681244 0.30269623 0.081878275 -0.18165211
0001d0 50 ae 98 ba 0c ad 69 3f 31 8c a2 3e 67 ef 9f bc
       -0.0011648629 0.91279674 0.31747583 -0.019523336
0001e0 26 8a 6f be e2 4c cd bd a9 5d 7e 3e d9 b3 61 3c
       -0.23392543 -0.1002443 0.24840416 0.013775789
0001f0 65 f0 2c be 15 6d 5d be e5 c8 e3 3d 70 66 d1 3e
       -0.16888578 -0.21623643 0.11122302 0.40898466
000200 b1 0f 9a bd d5 7a 03 be 84 0c 2e bf eb 46 01 be
       -0.07522524 -0.12839825 -0.6798785 -0.1262471
000210 e1 76 a6 bd 60 9e d8 3e 25 53 0c be 5b b1 21 3e
       -0.08128143 0.4230833 -0.13703592 0.15790312
000220 93 db 0c 3e 35 a1 8c 3e c3 a5 07 3e 97 cc d8 3d
       0.13755636 0.2746674 0.13246827 0.105858974
000230 8e e9 c9 bd a7 16 a5 be 5e 86 f0 3d df 7c 5e 3e
       -0.09859 -0.32243845 0.117443785 0.21727322
000240 c2 f9 34 bc 6e 11 2c 3e fd e9 40 3d 69 5e c1 bd
       -0.011045875 0.16803524 0.04709815 -0.094418354
000250 e6 22 00 3f 13 65 c9 3d 17 f0 89 be 6a 4d 90 3e
       0.5005325 0.098337315 -0.26940987 0.28184062
000260 ae c0 95 3d 70 2f c0 3e 2a 42 c6 3e 46 24 de 3d
       0.07312141 0.37536192 0.38722354 0.10846762
000270 7a 8a 17 3d 41 33 41 be 98 ec 64 3e cb 66 85 bd
       0.036997296 -0.18867208 0.22355878 -0.06513747
000280 16 e1 ff 3d 99 14 64 3d 13 bf 9f 3e d3 f4 b9 be
       0.124941036 0.055683706 0.31200466 -0.363196
000290 84 26 5f 3e d3 21 80 3e c0 2f 03 3c f5 f6 28 be
       0.21792036 0.25025806 0.00800699 -0.16500457
0002a0 ab 9a ff bd 2a af c3 bd 5d 77 90 3e 39 f5 36 be
       -0.124806724 -0.09554894 0.28216067 -0.17866983
0002b0 71 2c 8c 3d 52 ec 8c be 3b c9 c8 3e 6a ae 12 3d
       0.06844414 -0.27524048 0.39216027 0.035810865
0002c0 46 4b ab be 56 8d ef bb fe 95 2e be 2b 6f ad 3d
       -0.33455867 -0.0073105497 -0.17049405 0.08468469
0002d0 c8 98 14 bf 94 f9 aa be 28 9e 51 3d 68 eb dd 3e
       -0.58045626 -0.33393538 0.05117622 0.43343663
0002e0 00 cf 00 be cf d6 56 3f 07 43 2c be 79 eb bf bd
       -0.12578964 0.8392152 -0.16822444 -0.09371085
0002f0 12 f0 5b 3e 68 e3 cf bc 57 48 c1 be e0 14 e4 be
       0.21478298 -0.02537699 -0.37750503 -0.44547176
000300 7d 74 44 3e b9 e8 9c be a4 f6 f6 be 7d bc 0f 3e
       0.19185062 -0.30646303 -0.48235047 0.14036746
000310 99 dd 06 3f 1e f1 f5 3d 36 e0 3f be c6 a4 5a 3d
       0.5268188 0.1200888 -0.18737873 0.053379796
000320 ce 9c c4 3d 60 98 e1 3d ca 6e 76 3e 2b 36 b2 3e
       0.096002206 0.11015391 0.240657 0.34806952
000330 c9 6c 5d be 7d d5 1c 3d 9a 3d de bd d6 83 95 be
       -0.2162353 0.038289536 -0.10851593 -0.29202145
000340 d0 1c a2 be de c6 85 be 3a 45 19 be af ae b5 3e
       -0.31662607 -0.26128286 -0.14967814 0.35484836
000350 23 a4 8e bd ed 2e 36 3e 17 46 89 be c2 c9 d2 3d
       -0.069649 0.17791338 -0.26811287 0.102923885
000360 85 e8 64 bd f9 8f 05 3e c5 ff 39 bd f3 04 08 3c
       -0.05588581 0.13043202 -0.045409936 0.008301961
000370 4a 91 02 3f d9 4c 5e 3e e8 04 00 3f 36 97 2e 3f
       0.51002944 0.21709003 0.50007486 0.6819948
000380 23 b7 3a be 75 af e9 3d 72 83 cf 3e 05 70 be 3d
       -0.18233924 0.11410419 0.40529972 0.0929871
000390 b7 56 ab 3d af 8d 28 3d 36 63 80 be 3d 36 9c 3e
       0.08366149 0.041150745 -0.25075692 0.3051013
0003a0 ba 62 06 be 67 04 08 3e 1a 60 f1 3d d1 7c a5 be
       -0.13123599 0.1328293 0.11785908 -0.3232179
0003b0 77 0d e5 3e 28 c9 fc 3b 34 27 ce be 6d a7 75 bd
       0.44736835 0.0077144094 -0.40264285 -0.059974123
0003c0 89 c0 97 be 33 fe f0 3d e0 99 d4 3d fb 44 74 bc
       -0.2963908 0.11767235 0.10380912 -0.014909024
0003d0 0b 92 06 3e a5 66 0c bf 44 4c 01 be 2b 56 2c be
       0.13141648 -0.54844123 -0.1262675 -0.16829745
0003e0 7b 28 b7 3c 4a 6b 99 bd 77 b0 95 3d a6 5d 9f bb
       0.02235817 -0.07491167 0.073090486 -0.0048634587
0003f0 ff 8c d2 3e b1 ed 55 be 7d 10 fb bd 12 e1 5d be
       0.41123196 -0.20891453 -0.12259004 -0.21667889

actor.bias f4 [5]
000000 1e fb 1e 3d 80 2d 9c 3d 93 1f 5c be a8 ae db bd
       0.038813703 0.07625866 -0.2149642 -0.107266724
000010 58 87 26 3e
       0.16262567

critic.weight f4 [1, 128]
000000 21 9b de bd cc 2c a1 bd 55 3a 31 3d c1 f7 37 bd
       -0.10869432 -0.078698725 0.04326852 -0.04491401
000010 2a ba 36 be 00 d2 d8 3d f8 36 2f 3e 32 57 65 3e
       -0.17844453 0.10586929 0.17110813 0.22396544
000020 d6 57 0d 3e f7 61 02 be cd 97 5a 3d 47 e6 0d 3d
       0.13803038 -0.12732683 0.053367425 0.034643438
000030 48 23 c3 bd df 63 ec 3c 00 af 23 3e 5b 75 17 be
       -0.09528214 0.028856216 0.15984726 -0.14790861
000040 75 4b 37 be ed 65 89 3d 05 67 4a 3e 85 68 3b be
       -0.17899878 0.06708894 0.19765861 -0.1830159
000050 8d 53 15 3d 5a 14 35 3d 08 1e 99 3c 13 29 bc bd
       0.036456633 0.044208862 0.018691078 -0.09187522
000060 ad 44 35 bd eb e8 a6 bc 0e 33 bb 3d 7f af 26 3e
       -0.044254947 -0.020374736 0.09140597 0.16277884
000070 02 3c 0a be 7b 3a 6b be a1 f9 bd 3d d3 61 75 bd
       -0.13499454 -0.22971527 0.092761286 -0.059907746
000080 4f 22 da bc c3 41 2f 3e 6b 40 21 be 29 d8 b2 bd
       -0.026627688 0.1711493 -0.1574723 -0.087326355
000090 2a bb 31 3e b9 66 da bd bd 80 f8 bb 0c 48 3c bd
       0.17356554 -0.10664124 -0.007583706 -0.045967147
0000a0 e2 cf e6 bd eb 66 eb bd fa 4c a1 3d 13 e1 aa 3e
       -0.11270119 -0.114942394 0.0787601 0.33374843
0000b0 68 50 f4 bd 7c 57 f4 bd af f5 93 bd f0 eb 03 bd
       -0.11929399 -0.11930749 -0.07224595 -0.03220743
0000c0 4e 95 5a 3e d4 e8 6c be 15 44 91 3d 6f 89 3e 3d
       0.21346018 -0.23135692 0.07093064 0.046517786
0000d0 01 39 ef 3c 1d 5a 5f bc 1f f8 75 bd 76 b0 8d 3d
       0.029201986 -0.0136323245 -0.06005108 0.06918423
0000e0 89 67 36 bd 57 d7 c9 bc b7 5f 1f be a0 bf 19 be
       -0.044532333 -0.024638815 -0.15563856 -0.15014505
0000f0 09 eb 35 be e6 98 bf 3d 91 fd aa 3c cc 13 65 bc
       -0.1776544 0.09355335 0.020872863 -0.013981771
000100 59 16 84 3e 1a 84 a2 3d d5 1d 49 3d 13 b8 11 3d
       0.257983 0.079353526 0.049100716 0.035575937
000110 68 61 be 3b 6b 1b c5 3d 14 c3 6f bd db 3a 40 3e
       0.0058099516 0.0962437 -0.05853565 0.18772452
000120 77 5d 42 3b 44 e8 67 3e 0e 03 a9 3b 29 38 42 bd
       0.002965776 0.22647196 0.005157835 -0.04741684
000130 32 73 b6 3d 54 19 5b 3e 7e 72 24 be f1 36 97 bc
       0.089086905 0.2139638 -0.160593 -0.018458815
000140 ac 05 be bd 85 3c 84 3d 83 fb 91 bd cf f2 67 bd
       -0.092784256 0.06456856 -0.0712805 -0.056628045
000150 74 9f 78 bd d1 38 e9 bd 11 ea 01 3e 6a 64 3c 3e
       -0.06069894 -0.1138779 0.12686945 0.1839768
000160 1b 94 cb bd b1 68 bb bd 1f 3b a7 3d 9e 9d 4f 3e
       -0.09940358 -0.09150828 0.08165573 0.2027497
000170 f9 a3 a8 bd 25 4e b6 3e ee 67 c0 3d e3 7f bf 3d
       -0.082344 0.35606495 0.09394823 0.09350564
000180 b8 0c 89 bd be b6 90 bd 47 f8 2c bd a3 79 1b 3d
       -0.06691879 -0.07066105 -0.042228963 0.0379578
000190 cf 1c 49 3e 45 54 40 bf 83 48 2c bd 5c 31 eb 3c
       0.19639896 -0.75128585 -0.04206134 0.02871006
0001a0 f8 25 de bd dc 3a c0 bd ec 51 66 be 3b 71 aa bc
       -0.10847086 -0.093862265 -0.22492188 -0.020805946
0001b0 1e 78 29 be 95 05 0c 3e 3f 1f be bc 47 6d 0e be
       -0.16549727 0.13674004 -0.023208259 -0.13908873
0001c0 34 06 ca bc 27 ba a7 bd 2b 25 9c be f1 0b 04 be
       -0.024661161 -0.081898026 -0.30497107 -0.1289518
0001d0 9b f5 d8 bd 4b d6 48 bd 0e 01 c3 3b 07 9f 8e 3e
       -0.105937205 -0.04903249 0.0059510535 0.27855703
0001e0 9a 0e 55 3d e0 38 50 bc 0c 25 d2 3d da 5a 73 3d
       0.05201588 -0.012708873 0.102609724 0.059412815
0001f0 69 6e c6 bd 91 ef ee bc f3 2f 86 be 77 9b 17 3e
       -0.09689028 -0.029166969 -0.26208457 0.14805399
