Liu/test_var/v_4/train_iter_9600.pt (torch, 573255 bytes, 9 tensors)

h0 f4 [128]
000000 b4 d0 b8 bf f7 25 10 bd 0a 6d 7a bf 52 bf e9 bd
       -1.4438691 -0.035192456 -0.9782263 -0.114134446
000010 3f ee 80 3f c7 e7 f8 be dd 03 bd be 18 64 31 be
       1.0072707 -0.48614332 -0.3691701 -0.17323339
000020 e5 48 88 bf 89 7a 8a be 54 53 b5 3f 83 06 d3 3f
       -1.0647246 -0.27046612 1.4166055 1.6486362
000030 52 2d 11 bf 8b 34 1e bf 38 b5 d8 be 95 12 c1 3f
       -0.5670978 -0.61798924 -0.4232576 1.5083796
000040 ef 2a 17 3f 72 45 8b 3f da 0f 8b 3e 36 01 d9 bf
       0.59049886 1.0880568 0.2716053 -1.6953495
000050 67 eb ba be 1c de fb 3f ee e8 60 3f df e0 b7 be
       -0.36507723 1.9677157 0.8785542 -0.3591375
000060 36 62 02 c0 8f 61 47 bd 07 76 87 3f 5d 9a 7a bf
       -2.0372443 -0.048677024 1.0582894 -0.9789179
000070 a1 f6 2e bf 83 2f 84 3e e3 79 92 bf b3 f9 8e be
       -0.68345076 0.258175 -1.1443447 -0.2792488
000080 a4 ea c1 bf ac 8b d6 3f 2e 61 bc bf 0a de a0 bf
       -1.5149732 1.6761374 -1.4717157 -1.2567761
000090 89 ac 66 bf 7d bf e4 3e 2a 4c ec bf 90 6e ff 3d
       -0.9010702 0.44677344 -1.8460743 0.1247226
0000a0 9a 6a 8e bf 96 47 38 bf be 42 1d 3f 52 b0 49 3e
       -1.1126282 -0.7198423 0.61429965 0.19696167
0000b0 e8 10 b4 3f 75 1e b9 3e 0f 19 f0 3e 97 b1 cf bf
       1.4067659 0.3615605 0.46894118 -1.6226071
0000c0 75 13 af bf e8 a3 b0 bf 2b d7 e7 bf 13 83 04 c0
       -1.3677813 -1.380002 -1.8112539 -2.0705001
0000d0 04 5b be be 5d ce 85 bd 64 1e 30 bf a5 69 a9 3f
       -0.37178814 -0.06533501 -0.6879637 1.3235365
0000e0 f3 75 26 bd ed fc 49 bf dd 5a c6 3f 9d 92 9c bd
       -0.04063983 -0.7890156 1.5496479 -0.07645152
0000f0 92 6a 6f 3e b5 05 0c bf 6b ad e5 be 87 6b b4 3c
       0.23380497 -0.5469621 -0.4485887 0.02202393
000100 a4 1c 55 bf d7 a1 18 c0 7f ab 26 3f 88 91 cb bd
       -0.8324683 -2.384878 0.6510543 -0.09939867
000110 ed 26 2c bf 67 2b 0b 40 63 3e 99 be 29 04 7c bf
       -0.67246896 2.174524 -0.2993041 -0.9844385
000120 4c b4 db bf 56 cf 91 3f 70 20 c0 be 40 56 9b 3f
       -1.7164397 1.1391399 -0.37524748 1.2135696
000130 2f 46 4f 3f da 23 8d bf 85 d5 84 3e 98 9a ab 3e
       0.80966467 -1.1026566 0.25944152 0.33516383
000140 d3 a4 85 3e a1 1a 0d 3f 32 17 bd be 0f c3 24 bd
       0.26102313 0.5511876 -0.3693176 -0.040225085
000150 ed f9 ee be 62 2c cb bf 04 d8 a7 be e5 e9 57 bf
       -0.46675053 -1.587292 -0.32781994 -0.8434127
000160 8e dd 41 3f a0 be 33 bf b1 78 17 be 0e cb 9c 3e
       0.7572869 -0.70212746 -0.14792134 0.30623668
000170 dc 65 85 3e af 2e ed bf 7f 5a 54 3f 65 57 6a 3f
       0.26054275 -1.8529872 0.82950586 0.91539603
000180 7a bb 5c bf ca ee f5 bd 2c a9 ef be 43 77 8f 3f
       -0.86223567 -0.12008436 -0.46808755 1.1208271
000190 39 92 2d be 5e 8c c9 3f 2d 25 22 bf ee 7d 8d 3e
       -0.16950311 1.5745962 -0.63337976 0.2763514
0001a0 b3 4a 99 3e 2d 4c 8d bf e6 73 c5 bf 80 6c f5 be
       0.29939803 -1.1038872 -1.5425994 -0.4793434
0001b0 d8 06 5c 3f 8a ba cd bd 78 ba e5 3e dc 53 73 bf
       0.8594794 -0.10045345 0.44868827 -0.95049834
0001c0 4c ed c0 3f 42 0b e1 3f 55 38 d4 be 89 f3 67 3f
       1.5072417 1.7581561 -0.41449228 0.9060598
0001d0 70 51 dc bf 24 1e de be ba af 69 3f fb d2 1f bf
       -1.7212353 -0.4338237 0.9128376 -0.62431306
0001e0 8a 75 1c bf 6c 68 85 3f 6d 7d b3 3e 9a 5d 92 bf
       -0.6111685 1.0422492 0.3505663 -1.1434815
0001f0 6b b5 b0 3c 6e 06 6d 3e fe ae 88 bf b9 38 23 bf
       0.021570882 0.23146984 -1.0678403 -0.63758427

c0 f4 [128]
000000 fc c8 01 3f 5a 67 b3 bf 43 3c 81 3f 40 21 c7 3f
       0.506973 -1.4015915 1.0096515 1.5557022
000010 1f 9c a6 bf ec 01 80 bf ad f8 97 bf 08 ca 67 bf
       -1.3016394 -1.0000587 -1.1872765 -0.9054265
000020 a6 7b 44 bf 6b b2 d6 be fe 9f 16 3f 32 5b 69 3f
       -0.7675117 -0.41932997 0.5883788 0.9115478
000030 a0 64 66 bf 87 40 4d 3f 94 69 ba bf af ef 45 bf
       -0.8999729 0.80176586 -1.456347 -0.77318853
000040 6d ff 6f bf 74 0f 48 3d ce 8a 28 3f 6e a8 9a 3e
       -0.93749124 0.048842862 0.658368 0.30206627
000050 66 e6 0a 3f d8 b7 bc 3e 44 2d 51 bf d9 2a 6d bf
       0.5425781 0.36859012 -0.81709695 -0.92643505
000060 26 df 71 bf 2f e5 20 bf ae 74 e7 bd 1b 4b 83 3f
       -0.9448112 -0.62849706 -0.11301552 1.0257295
000070 99 54 45 3f 8f 37 f8 bf 58 04 70 be 61 3e e8 3f
       0.7708221 -1.9391955 -0.23439157 1.8144037
000080 56 70 ab 3d 5e 44 0b bf 8b cc 16 40 5d 4a 14 bf
       0.08371036 -0.54401195 2.3562343 -0.5792597
000090 47 a4 1a 3f 9b 9b 28 3f 4d 9b b4 3f 00 9b aa bf
       0.6040692 0.65862435 1.4109894 -1.3328552
0000a0 c5 03 6c 3f 5a d3 b0 bf 6a 48 f9 be a6 5c c3 be
       0.9219325 -1.3814499 -0.4868806 -0.38156623
0000b0 1c 40 2b 3d 73 23 f3 3f 1f fb c1 be f5 72 82 be
       0.041809186 1.8995193 -0.37886903 -0.2547833
0000c0 17 ce 91 bf 8a 40 dc bf 5e a6 42 bf bc 51 e4 3e
       -1.1391019 -1.7207196 -0.76035106 0.44593608
0000d0 02 bf a0 bd c2 f8 20 be 90 e7 97 3f 3f 8b 2b 3f
       -0.07848932 -0.15719894 1.1867542 0.6700935
0000e0 d6 c3 93 3f 49 7c a6 bd e0 c8 d4 3f 29 c7 a4 bf
       1.1544139 -0.08129174 1.6623802 -1.2873279
0000f0 19 d4 b2 3e ce 31 32 3d c6 d7 31 be 9a 5a fe be
       0.34927443 0.04350453 -0.17367467 -0.49678499
000100 76 64 b2 3e f7 44 a5 3b 80 b4 88 bf b3 4a 60 be
       0.3484227 0.0050436216 -1.0680084 -0.21903495
000110 b5 35 ef 3c 9d 0e 4d 3e 16 4d cf be 50 f1 0c 3f
       0.029200414 0.20025106 -0.404885 0.55055714
000120 35 00 47 c0 47 ef 87 3e 13 81 47 3e ff 69 1f 3f
       -3.1093876 0.26549742 0.19482832 0.6227111
000130 9f 65 f1 3e 30 f9 b1 3f 12 88 b2 3e a3 8f 2d bf
       0.47147843 1.3904171 0.34869438 -0.677973
000140 09 e7 26 c0 2b dc 84 3f b0 a5 3e 3f f6 19 4e bf
       -2.6078513 1.037969 0.7447157 -0.80508363
000150 05 5f c3 3f 8c ad fe 3e 7c 01 8d be c0 87 fa bf
       1.5263373 0.4974178 -0.27540195 -1.9572678
000160 80 8d 88 bf 1e 9c 2a 3f 80 ff 56 3e a5 ab 15 3f
       -1.0668182 0.66644466 0.20995903 0.58465034
000170 85 3b fb 3e 26 f2 c3 3f 48 56 75 3f fe aa 18 be
       0.49068847 1.5308273 0.9583478 -0.14908978
000180 17 b7 12 3c 37 c3 b2 be 2a 9b 11 3e 66 41 cf be
       0.008954785 -0.34914562 0.14219347 -0.40479583
000190 76 2b c0 3f de 0f 79 3f 80 0f 55 be 54 06 4a bf
       1.5013263 0.97289836 -0.20806694 -0.78915906
0001a0 b6 5c a4 bf 4a b0 92 3f e5 92 5d 3f 9d a7 b1 bf
       -1.2840793 1.1460049 0.8655227 -1.3879277
0001b0 5d d8 ce bf ed 4a 75 3c 83 b9 7d bf 83 22 41 bf
       -1.6159779 0.014971477 -0.99111193 -0.75443286
0001c0 4c 3b cd 3e 49 95 96 3d 13 2f 77 be 15 53 db 3f
       0.40084302 0.07352693 -0.24139051 1.713473
0001d0 2e 78 12 3f bf 9b 83 bf 0e 67 82 be 6b 74 27 c0
       0.5721463 -1.0281905 -0.2546925 -2.6164806
0001e0 d2 eb b3 3d 53 4a 6f 3f 4e f6 1c 3f eb f5 b7 bf
       0.087852135 0.93472785 0.6131333 -1.4371923
0001f0 ce 25 10 be 16 b7 cd 3f a6 f1 29 bf 09 6a a0 3d
       -0.14076921 1.6071498 -0.6638435 0.078327246

RNN.weight_ih_l0 f4 [512, 15]
000000 b1 7d 91 3d 96 28 13 3f b1 ed 1c bd b6 95 4d 3d
       0.07104052 0.57483804 -0.038312618 0.050191604
000010 8e 9c 07 3d 62 12 c2 be 98 7e 5c bd a3 5f 1e bd
       0.033108287 -0.3790465 -0.053831667 -0.038665425
000020 ae 57 91 3e 44 95 fe be 73 19 ca 3e 87 5f 61 3d
       0.28387207 -0.49723256 0.3947254 0.055022743
000030 fd 82 12 3e af 87 35 bd ee 55 92 bc b9 80 b2 3d
       0.1430778 -0.04431885 -0.01786324 0.08715958
000040 dc 9c 68 3c 1e af 46 3d 09 a5 08 bd ec f0 9d bc
       0.014197554 0.04850685 -0.033360515 -0.01927992
000050 e9 a8 44 3c 91 eb dc 3d 68 7a 86 bc ab 82 ae 3d
       0.012003162 0.10787118 -0.01641579 0.08521017
000060 35 3a 79 bd cb b5 ec bc b6 b3 83 3d f1 95 6d bd
       -0.060846526 -0.02889528 0.064307615 -0.058004323
000070 ec aa 69 bd f0 fa 7a 3c 71 23 29 3d 77 81 ed 3d
       -0.05704777 0.015318617 0.041293565 0.11596959
000080 51 cb 40 bd d3 7c 42 bd a0 e6 de 3c 11 7e 73 bd
       -0.047068898 -0.047482323 0.02720958 -0.0594464
000090 28 00 ea 3b 48 1e 64 bc 37 3d 22 3e d1 fa e1 bd
       0.007141132 -0.013923235 0.15843664 -0.110341676
0000a0 0d 9c b3 3d 96 e7 b2 3d ea 5c b0 bd 22 fd 8b bd
       0.08769999 0.08735578 -0.08611472 -0.068353906
0000b0 f2 88 02 3d f6 f3 0a bc 53 9b d8 3e 94 85 b7 bd
       0.031868882 -0.008481016 0.42306003 -0.08961025
0000c0 fe b3 5c 3d 84 c9 92 bd e4 7a 10 bf 78 67 b7 3c
       0.05388259 -0.07167342 -0.56437516 0.022388205
0000d0 44 72 95 bd 6e 6f d0 3e cc 9d 01 bf e3 52 ac 3e
       -0.07297185 0.40710014 -0.50631404 0.33656988
0000e0 87 0f 02 3e 75 1f 5e 3d f6 cc 03 3d d9 7f 96 bd
       0.12701236 0.05422922 0.032177888 -0.07348604
0000f0 f3 25 9b 3d 54 62 10 3e 77 21 f0 3d fe 9d 4b 3d
       0.075755976 0.14100009 0.11725133 0.04971122
000100 ee eb 1d 3d f6 00 5f be 38 39 c9 3c 81 09 8e 3d
       0.03855508 -0.2177771 0.024563417 0.069354065
000110 68 eb be 3d cb af 4c be a0 fb 49 3e 54 c9 24 3e
       0.09322244 -0.19988935 0.19724894 0.16092426
000120 32 50 4f 3d 53 01 93 3d 82 59 02 bd ad e8 89 3d
       0.05061359 0.07177987 -0.031823643 0.067338325
000130 9f 6e de 3e b7 ca 01 be fa 90 36 3d 04 c6 cd 3c
       0.43443772 -0.12674986 0.044571854 0.025118835
000140 a1 3b a1 be ce 28 cf 3d 0e be 51 bd 4e a8 19 3e
       -0.31490806 0.10115205 -0.05120664 0.1500561
000150 bd 0e 8e be e8 57 e4 3d 37 0b d8 3d 53 d6 4d be
       -0.2774562 0.11149579 0.10549014 -0.2010129
000160 4c 4d 41 be cf e6 ab bd c9 d2 c6 bd ed 4c 4d 3e
       -0.18877143 -0.083936326 -0.09708173 0.20048876
000170 f8 82 40 3e 52 74 34 3d 00 89 37 3b fb b0 23 3f
       0.1879996 0.044056244 0.0028005242 0.63941926
000180 cb 7b d8 bc de ba 31 3d db 32 c0 3e 7d 49 00 3f
       -0.026426217 0.0433911 0.375388 0.50112134
000190 59 1e 5c 3e ba 00 5e 3e 4c 15 1d 3d 93 49 17 3c
       0.21495952 0.21679965 0.03835039 0.00923385
0001a0 d7 e9 0b bd 31 e8 05 3d 25 54 44 3e 91 8a 3d bd
       -0.034158554 0.032692138 0.19172724 -0.046274725
0001b0 c3 9a 84 3d d2 b2 64 3d 70 fc a0 3d da d6 06 3e
       0.06474831 0.0558346 0.07860649 0.13167897
0001c0 33 eb 2f bd 3e 87 03 3e ca 50 7f 3d 7c eb 17 3d
       -0.042948913 0.1284456 0.062332906 0.03708981
0001d0 4c a4 ec 3d 7f c5 a2 3c 4a b1 60 bd bc 9d e6 3d
       0.11554775 0.019869564 -0.054856576 0.11260554
0001e0 cd 30 69 3d fe db b6 3e d4 d3 64 bd c7 b7 12 bd
       0.056931306 0.35714716 -0.055866078 -0.035819795
0001f0 66 72 32 3d 69 50 dd bc 93 8d bd 3c b0 1a 7f bc
       0.04356613 -0.027015882 0.023138797 -0.015570328
000200 b9 6e 27 3e d2 c1 e8 3c 27 d6 79 3e f5 98 a2 3d
       0.16350831 0.028412733 0.24398099 0.079393305
000210 68 6e 70 3d dc 9b 9f 3d 7c 37 52 bc cd dd 1e 3e
       0.05869904 0.077934 -0.012830611 0.15514298
000220 89 f8 95 3d a8 ed 2e bd 50 61 a0 bc 1e d0 ea bc
       0.07322795 -0.042707115 -0.019577652 -0.028663691
000230 55 63 b7 3a 17 7c c1 3d be fc 22 3d af 07 a3 bc
       0.0013991395 0.094474964 0.039791815 -0.019901125
000240 81 2f 06 3d a6 98 3c bd 84 45 8e 3d df e9 86 3d
       0.032760147 -0.046044014 0.06946853 0.06587576
000250 d1 45 9e 3c 53 ff e4 3d 9d 24 0d bd 54 6d f5 3e
       0.0193204 0.11181512 -0.034458745 0.47934973
000260 b0 ab eb bd 6d 3b 4f bd ec e2 cc 3c 59 a1 13 3c
       -0.11507356 -0.050593782 0.025010549 0.009010636
000270 b4 08 45 3c c8 3f 36 bc ab d8 6a 3e 9a 41 d1 bd
       0.012026001 -0.011123605 0.22934215 -0.10217591
000280 87 df 69 3e 85 13 8d 3d 8d 27 44 3d 6a 3e c6 bd
       0.22839175 0.06888489 0.04788928 -0.09679873
000290 9f dd e0 3b 8c f8 24 3e ea d0 05 3e d4 e6 b1 bd
       0.006862357 0.16110438 0.13067976 -0.08686605
0002a0 20 eb 2b bc 10 a4 50 bd 1b 4d 30 3e 00 22 a6 3c
       -0.01049307 -0.050937712 0.17216913 0.020279884
0002b0 07 b4 af bd fa 8e 3c bc 59 7b 8b 3d 2b f2 b7 3d
       -0.08579259 -0.011508698 0.06810636 0.08981737
0002c0 0f 63 35 3d 5f 74 48 bd 20 f8 bc bc e1 d6 1d 3d
       0.044283923 -0.048939105 -0.023067534 0.038535003
0002d0 d5 d2 ad 3d 0e 4e c0 3e f2 b1 fd bd 45 3d 9a 3d
       0.08487479 0.3755955 -0.12387456 0.075312175
0002e0 8a 9f 32 3d 93 7d bf be a3 74 5e 3c d3 66 94 bd
       0.04360918 -0.37400493 0.013577613 -0.07246175
0002f0 bb dd 91 3d f7 a8 74 be 30 a7 13 3e 40 bb ab 3d
       0.0712237 -0.2389258 0.14419246 0.083853245
000300 31 1a 89 3d 65 08 f5 3c 63 67 ff 3c 00 d7 a6 bc
       0.06694449 0.02991123 0.031177228 -0.020366192
000310 50 0d 52 3d e7 f6 2f bd ac eb dd bc 6b 3d b3 bd
       0.051282227 -0.042960074 -0.027089916 -0.08751949
000320 af 74 2b bd 01 a6 e1 bc 38 e1 93 3c 3c e9 fd 3d
       -0.041859325 -0.027544977 0.018051729 0.123980016
000330 6c 59 3a 3d 65 3d 52 3c bd 58 a5 3d f4 ff ba 3c
       0.045495436 0.01283202 0.08073566 0.022827126
000340 ad 62 9f 3c cb 10 f0 bc 3a c9 02 3d ed bc 03 3d
       0.019456232 -0.029304883 0.031930186 0.032162596
000350 0e 32 05 3e 90 14 da 3b 00 de 7f 3c f2 63 62 3e
       0.13007376 0.0066552833 0.015616894 0.22108439
000360 02 68 fe 3d 14 35 b9 bc 80 73 02 3e ff 42 89 3d
       0.12422182 -0.022608317 0.12739372 0.067022316
000370 aa b7 c0 3d 04 3d 30 3d e9 79 3a bd 71 63 0e bd
       0.09410031 0.04302694 -0.04552642 -0.034762803
000380 f2 d1 bd 3d ee 55 f7 3c 63 32 05 3e 39 82 c6 3d
       0.092685595 0.030192342 0.13007502 0.09692807
000390 00 24 b3 3a d0 37 66 bd 53 f6 99 3d 74 cd 4e ba
       0.0013667345 -0.05620557 0.07517686 -0.0007888891
0003a0 a4 99 0f bd 20 f6 20 3e d2 5d e0 3c 1f 99 00 3e
       -0.035058632 0.15718889 0.027388487 0.12558411
0003b0 ec ed eb 3d 51 4a 45 bd 1c ef 7c 3d 1c 97 8b ba
       0.11519989 -0.048166577 0.06175147 -0.0010649893
0003c0 9f 9b 89 bb ff f4 d6 3e 3a dc 59 be 44 16 5a bd
       -0.0041994597 0.41983792 -0.21275416 -0.05324389
0003d0 d0 62 d4 3c 8e 8c c2 be 1a 17 4a bd cb 73 b4 bd
       0.025926024 -0.3799786 -0.049338438 -0.08811148
0003e0 9c c6 32 bd de 55 ec be 17 b7 fc 3d a4 82 fc bd
       -0.04364644 -0.4615926 0.12339609 -0.12329605
0003f0 e5 65 d9 3d b3 d4 d9 3d 65 4e c1 bd fd ff 5b 3c
       0.10615138 0.10636272 -0.09438781 0.013427732

RNN.weight_hh_l0 f4 [512, 128]
000000 86 8f c9 bc 6b 9f 49 be 99 47 5c bd e5 e6 c3 3d
       -0.02460457 -0.1968972 -0.05377922 0.09565524
000010 9f c2 83 3c 29 40 2a 3d bd 77 de bd 4c e5 39 3e
       0.016084014 0.041565094 -0.10862682 0.18153876
000020 f5 78 24 be 87 eb 97 be 78 ec ab 3e 9a c6 27 3c
       -0.16061766 -0.2967188 0.3357885 0.010240221
000030 0e 1e 00 be d3 ad 86 be 0c 5f 99 3c 84 83 03 3d
       -0.12511465 -0.26304492 0.01872208 0.032107845
000040 4f de 29 3e 3d 03 ce 3d 24 af aa bd 65 53 e7 bd
       0.1658871 0.100592114 -0.08334187 -0.11295203
000050 05 56 71 3e a8 aa 16 bc 64 97 38 3e a0 ca 0d 3e
       0.2356797 -0.009195961 0.18026501 0.13846827
000060 dd 81 7d 3d fc e9 8a 3c ec 12 55 bd 5e 3b 0a 3e
       0.061891425 0.016957276 -0.05202 0.1349921
000070 b6 8d 83 3d 53 41 a0 be 6c 58 74 3e 8d fe e9 3c
       0.064235136 -0.31299838 0.23861855 0.028563762
000080 bd 17 2f 3d 77 92 ee 3d 70 bb 03 be 9d 77 22 3e
       0.042747248 0.1164903 -0.1286447 0.15865941
000090 e9 66 c5 bc 2d f1 77 bd 39 ea 26 be c3 ee 8c bd
       -0.024096923 -0.060532738 -0.16300286 -0.06881478
0000a0 bc 79 8b be e6 28 88 be 18 b3 8a 3d 07 fd 15 3e
       -0.27241313 -0.26593703 0.06772441 0.14647304
0000b0 b4 33 7e 3c 47 e4 45 3b a8 20 0b 3d 9f fa 52 3c
       0.015515257 0.0030195878 0.03396669 0.012877136
0000c0 08 18 23 3e 9a 89 9c 3d 81 8b 1b 3e fa bf d3 3d
       0.15927136 0.07643433 0.15189935 0.10339351
0000d0 b0 85 fd 3d 06 78 d2 bd c8 df c2 3c 36 ca 75 3d
       0.123790145 -0.10276799 0.023788348 0.060007297
0000e0 75 4d 19 3e 64 37 a7 bd fa ad 34 bd 60 88 1e be
       0.14970954 -0.08164862 -0.04411123 -0.1548171
0000f0 be 04 50 3d c5 70 67 3d c4 f7 47 3e 22 62 3b be
       0.050785773 0.05650403 0.19528109 -0.18299153
000100 53 1e 3d bd 5c 3f eb bc bf 7e 2a 3e 7d 4c a9 3c
       -0.046171498 -0.028716736 0.16649912 0.020666355
000110 f1 0e a9 3d 90 80 41 3b 9f f2 87 3d d1 1f 57 3d
       0.08254803 0.0029526092 0.06638073 0.052520577
000120 9f f6 10 be a3 76 3d 3e 79 f4 10 3e 9b e5 bd be
       -0.14156578 0.18502288 0.14155759 -0.37089238
000130 f2 ff 7b 3e 40 3f 0e bb 6a 29 57 3e fc 8d 30 be
       0.24609354 -0.002170518 0.21011892 -0.17241663
000140 b0 97 f4 3d 81 1d 60 3d 2d 64 5a be ba ec d0 3c
       0.119429946 0.054715637 -0.21327277 0.025503505
000150 04 49 a3 3d b9 0e cf bd 98 86 13 3e f8 ce af 3e
       0.07972911 -0.1011023 0.14406812 0.34337592
000160 f2 31 0a be 6f 9c 6c 3d 42 44 7b bc e5 78 10 be
       -0.13495615 0.057766374 -0.015336098 -0.14108618
000170 c5 ab 86 bb 4e f8 13 be 0a e1 75 bd 0e 73 f6 bd
       -0.004109832 -0.1445019 -0.060029067 -0.12033664
000180 ee be 6e 3d a0 ce 08 be 5d 6f dc bd c5 f7 20 be
       0.058287553 -0.13360071 -0.10763428 -0.15719517
000190 75 68 2f be d5 f5 dd 3d 8b 49 a2 bc 51 5d 52 3e
       -0.17129691 0.10837904 -0.019810459 0.2054341
0001a0 96 69 16 3e 4d 05 22 be 43 42 d0 bd 30 9a 0a 3e
       0.14688715 -0.15822335 -0.101688884 0.1353538
0001b0 16 2d 0a 3e 69 ac a4 3e dd 23 bd bc 96 55 97 be
       0.13493761 0.3216279 -0.02308839 -0.29557484
0001c0 95 e4 87 3d d3 7a d4 3c 0d a2 ae bb ef 9d ce 3d
       0.066353954 0.025937473 -0.0053293766 0.10088717
0001d0 3c a2 29 bd 07 d3 ba bd e5 74 42 3d 64 34 e5 bd
       -0.041414484 -0.091222815 0.04747476 -0.11191633
0001e0 21 3b 29 3d 77 f5 6c 3e 21 ba ab 3e 1d d0 79 3d
       0.041316155 0.23140512 0.33540443 0.060989488
0001f0 03 5d dd bd 76 89 7e 3d 6a f5 5f bd 65 8f fc bd
       -0.10808756 0.06214281 -0.054677404 -0.12332038
000200 5b a5 63 bb 82 28 fd bd 1a 44 8c ba ba d5 9e 3d
       -0.003473601 -0.12361242 -0.0010701448 0.07755609
000210 b0 b8 de bc ac 81 03 be fd ca 3f be 69 85 d4 bc
       -0.027187675 -0.12842435 -0.18729778 -0.025942521
000220 1a 1a 1d bc 2b a0 c5 bd 24 fd d9 3c 58 b5 8c 3d
       -0.009588743 -0.0964969 0.026609965 0.06870526
000230 78 cb 0d 3d 18 65 8d bc 91 d6 0d be 6f 84 48 3d
       0.03461787 -0.01726012 -0.13851382 0.048954424
000240 7d c1 9a 3d 27 2b 80 3d 29 68 16 3d 6c 65 91 3c
       0.07556436 0.06258231 0.03672043 0.017748557
000250 7c 0e be 3d 34 8d ea bc 81 57 e0 3d 62 64 4c bd
       0.092801064 -0.028631784 0.1095419 -0.04990042
000260 78 72 c8 bd 1a 0c 06 bd 76 c7 92 3d 00 fe b0 bd
       -0.09787458 -0.032726385 0.071669504 -0.08642197
000270 25 ae f6 bd d9 7a 5d bd 38 c6 bc bd 29 11 1f bd
       -0.12044934 -0.054072235 -0.09217495 -0.038834725
000280 92 f8 1f be b9 d2 d8 3d 82 07 97 bb 97 d2 2f bd
       -0.15622166 0.10587067 -0.0046090493 -0.042925444
000290 5a e7 18 be ec 1d 96 3d 9e 7c ff bc 94 2e 2d 3d
       -0.14932004 0.07329926 -0.031187352 0.04228075
0002a0 0f 8a ea bd e5 6b a5 bd 72 97 b3 39 c8 96 38 bd
       -0.11452114 -0.0807722 0.00034254376 -0.04506567
0002b0 2a fa 72 3d d7 87 e1 3d 0a 86 9a 3d 52 9d 2a be
       0.059320606 0.110122375 0.07545097 -0.16661575
0002c0 18 c6 1e bc 04 65 79 3d c4 4c 36 3d 84 d7 a1 bd
       -0.009690784 0.06088735 0.044506803 -0.079024345
0002d0 37 ae 7b 3d 28 d1 3d bd f4 e8 b0 3d 17 6f 8f 3d
       0.06144544 -0.046342045 0.08638182 0.070036106
0002e0 62 9d 9e 3d ec 48 88 3d 35 86 05 3c 10 01 87 bc
       0.07744862 0.06654534 0.008149673 -0.016479999
0002f0 e2 9e 5b 3c db 4a 86 bd 67 a4 12 bd 96 af b2 bc
       0.01340458 -0.06557246 -0.035801318 -0.021812242
000300 d3 77 8c 3d aa 16 af bd ab d2 84 bd 3b d4 65 3c
       0.06858792 -0.08549245 -0.06485494 0.0140276505
000310 d7 82 1d be 80 fc 15 3d 1e d4 fd bd 34 0d 91 bd
       -0.15381943 0.036617756 -0.12393974 -0.070825964
000320 a9 7a 91 bd 1b 3d 9b 3d 6e 82 10 bc 72 37 bc 3d
       -0.07103474 0.07580014 -0.008820159 0.09190263
000330 fa 41 1a 3e af a0 91 bd 78 4c 85 bd 7c 79 ef 3b
       0.1506423 -0.07110726 -0.06508726 0.0073081832
000340 cb 31 83 bc 90 e3 63 3d cb 8d 17 bd 9a 5d c2 bd
       -0.016014954 0.055636942 -0.03700046 -0.09490509
000350 da 8f 83 3d da 91 80 bd 2d 60 47 3d 9d bc a7 bd
       0.06423922 -0.06277819 0.048675705 -0.08190272
000360 94 a9 79 3d d5 2b 02 be 77 f8 2a be c2 52 5d bc
       0.060952738 -0.12712033 -0.16696344 -0.0135085005
000370 37 3d 82 bb bd dc d0 bd 19 44 78 3d bd 7b 64 3d
       -0.0039745825 -0.101983525 0.060611818 0.05578207
000380 43 f4 e3 3d 58 c9 49 bc 24 1d 2a 3c 26 83 8c 3d
       0.111305736 -0.0123160705 0.010382924 0.06860952
000390 da a3 a8 bc 1f 70 f5 3d f1 50 38 3d 7b ff 47 3d
       -0.020585943 0.11984276 0.044999067 0.04882763
0003a0 42 c1 ac 3d 5f 4e b9 3d f0 26 a5 bd 94 a0 5c bd
       0.084352985 0.09048151 -0.08064067 -0.053864077
0003b0 d7 cc 11 bb 0b 73 b9 3d 57 84 24 3e 73 07 2b be
       -0.0022247338 0.09055146 0.16066109 -0.1670206
0003c0 ee d8 8b bd 2d c2 a0 3c 17 58 0e bd 17 ab 4c 3d
       -0.068284854 0.01962384 -0.034751978 0.04996785
0003d0 b0 2d 0e be 2b 17 d4 bc 4f a4 eb 3d 3b 7e c0 ba
       -0.13884616 -0.025889954 0.11505949 -0.0014686057
0003e0 5d 90 04 3c 4a 77 fc 3d c0 60 58 3c b7 c4 92 bd
       0.0080910595 0.1232744 0.013206661 -0.07166427
0003f0 e4 fa 38 bd 32 1e ef 3d fc f1 42 bd 32 c0 ea bb
       -0.045161143 0.11675681 -0.047594056 -0.0071640247

RNN.bias_ih_l0 f4 [512]
000000 a2 84 97 bc cd 9c cb 3d 3d 94 fe 3c 06 88 b2 bc
       -0.018495861 0.09942017 0.031076545 -0.021793377
000010 c2 ca 08 3e 60 39 20 3e 06 e5 80 bd 99 2a 57 3c
       0.13358596 0.15646887 -0.06293683 0.013132715
000020 43 39 79 3e bd dd 3c 3e 98 22 36 3b 2c 4b 8b 3d
       0.2433825 0.18443961 0.0027791616 0.06801447
000030 bb 56 f1 3d d1 00 9d 3b c6 7a 5a 3e a7 4c 18 3e
       0.11784121 0.004791357 0.21335897 0.1487299
000040 2b 26 83 3d 2c cc 9f bd 41 44 4d 3d 5e 39 15 bd
       0.06403764 -0.078026146 0.05011392 -0.036431663
000050 e2 4b 4d 3d f0 7b 0d 3e 81 83 cb 3d 59 f4 52 3d
       0.050121196 0.1381681 0.09937192 0.05150256
000060 5b 49 34 3a b0 b1 7f 3c 6f 02 db 3d 57 0d 0b bd
       0.0006877386 0.015606329 0.106938235 -0.03394827
000070 bb 03 c0 3d 53 63 a9 3d e8 15 cc 3d a1 52 54 bb
       0.093757115 0.08270898 0.09965116 -0.0032397883
000080 2f a9 ef 3a e9 0b 22 3e 20 ec f4 3c d1 8e 08 3e
       0.0018284674 0.15824856 0.02989775 0.1333573
000090 36 da d9 bd 8a 33 10 3e 42 85 2b 3e 5c 1e 48 3e
       -0.106373236 0.1408216 0.16750053 0.19542831
0000a0 a3 e5 56 bd 77 1b 8a 3c fe a9 18 bc ab 53 cf bd
       -0.052465092 0.0168588 -0.009317873 -0.1012338
0000b0 ba 64 9f 3d 55 84 a7 bb e6 e3 ec ba e4 61 0c 3e
       0.07782884 -0.0051122108 -0.001807329 0.13709217
0000c0 f5 94 79 bd 55 2a b1 3d ad 09 06 3d 23 cd 58 3e
       -0.060933072 0.08650652 0.03272407 0.21172003
0000d0 76 aa 2c 3e 46 3d 30 bd ea f9 d0 bc ad cb 01 3d
       0.168619 -0.043027185 -0.025509793 0.03168838
0000e0 06 d6 03 3e 8b c3 cc 3d f0 9b 05 3d 38 b9 83 3b
       0.12874612 0.09998234 0.032619417 0.0040198825
0000f0 88 9d 0c bd 86 5e ca 3d 39 6c 7c bd 9f 44 15 3e
       -0.03432992 0.0988131 -0.061626647 0.14576958
000100 03 45 b5 3c 9a a6 8a 3c 2f be da 3d 64 b9 08 be
       0.022127634 0.016925145 0.10680806 -0.13351971
000110 9c 7f 72 bd 5a 11 4f bc 34 65 dc 3d 25 8a 1b 3e
       -0.05920373 -0.012638414 0.107614905 0.15189417
000120 92 fc f2 3d ee 89 dc 3d 15 7a 3c 3e dc 10 6c bd
       0.1186458 0.107684955 0.18405946 -0.057633266
000130 1b 73 05 3e 44 fe 02 3e 17 df af bd ec 7c ad bc
       0.1303219 0.12792307 -0.08587473 -0.021177731
000140 6b 85 11 3e 76 bb 00 3e 48 8f 44 3e ca d8 3a 3c
       0.14211051 0.1257151 0.19195282 0.011404226
000150 1c 73 0a 3d 6c 5d aa 3d dc f7 cf 3d bf c6 1d 3e
       0.033801183 0.083186 0.10154697 0.15407847
000160 a3 34 7a 3d 9a 09 1a 3e ea 00 2a 3d 9b 6b 71 bc
       0.061085355 0.15042725 0.041504778 -0.014735128
000170 1d e7 c8 bb f3 f6 2a 3e a0 ed 75 3d fd 36 65 3c
       -0.0061310665 0.16695766 0.06004107 0.013990161
000180 19 10 48 3e 85 f2 cb 3d e0 2f 13 3e 77 93 a7 3d
       0.19537391 0.09958366 0.14373732 0.081824236
000190 ba cc 0d 3e 9f b5 19 3e 6f e1 97 3d e2 83 eb 3d
       0.13847628 0.15010689 0.07416045 0.11499764
0001a0 b4 94 30 3d 0d cb 9f 3d 69 05 92 bb 6f d9 16 bd
       0.043110564 0.07802401 -0.0044562113 -0.036828455
0001b0 03 5e b3 bc 18 b6 bf 3d 34 f4 f8 3d 24 06 19 3e
       -0.021895414 0.093609035 0.12155953 0.14943749
0001c0 71 01 26 3e 1f d0 a7 3c 15 8e 7c bd 3c e8 ec 3d
       0.16211487 0.020484982 -0.061658937 0.11567733
0001d0 bb 35 52 3d 19 ce 8f bd 67 95 bd 3d 3c cf a0 3d
       0.051320773 -0.07021732 0.09257012 0.07852027
0001e0 b0 04 82 3d 32 46 a0 bb 70 3d 10 3e 59 ab a4 3c
       0.0634855 -0.0048911804 0.14085937 0.020101236
0001f0 c1 b0 c9 3d c0 f7 3e 3d ff eb ed 3d 6a f4 06 3e
       0.09848166 0.04662299 0.11617278 0.13179174
000200 76 f9 34 bc 5f 26 d2 3d 74 b0 46 3e f7 ab 4a bc
       -0.011045804 0.10261225 0.19403249 -0.012370101
000210 27 17 a1 3d 3d 41 d9 bd 0e 86 87 3d cf c4 29 3d
       0.07865744 -0.10608146 0.06617366 0.041447457
000220 ce b3 ce bd 97 36 44 3e 6f dc b1 bc cf bc ab 3d
       -0.10092889 0.1916145 -0.021711556 0.08385622
000230 a3 12 82 3c 44 35 39 bc da 00 5e 3d 7a 7f de 3d
       0.015878027 -0.011304203 0.05420003 0.10864158
000240 a1 c0 9f bc f3 f6 c5 bd 95 ab 10 be dc 3a 1b 3d
       -0.019501032 -0.096662425 -0.14127953 0.03789793
000250 ad da 77 3d aa d2 49 3d 51 6b 2f 3d 97 dc b4 3d
       0.06051128 0.04927317 0.042826954 0.08831137
000260 c8 0f df 3c b4 e3 a2 3d af 8c 48 bd e8 41 33 3e
       0.027229205 0.07953587 -0.04896229 0.1750561
000270 8e 95 9b 3c 67 c5 3b 3d 56 b2 fd bb 81 2d d3 3c
       0.018992212 0.045842554 -0.0077422066 0.025778534
000280 4b 29 20 be 44 fd 1b be e3 44 97 3d 34 4b 19 be
       -0.15640752 -0.15233332 0.07386186 -0.14970094
000290 b0 5d 66 3d 56 94 fb 3d fe 6f 59 3d b5 0d 92 bd
       0.05624169 0.12284152 0.05308532 -0.07131521
0002a0 15 aa 6a bd b1 5c be 3d 4b 7f 31 bd c1 0c 57 bd
       -0.05729111 0.09295023 -0.043334287 -0.052502397
0002b0 b0 24 eb bd 30 55 0e 3e d6 ed b4 bd 56 97 68 3e
       -0.11481607 0.13899684 -0.08834426 0.2271398
0002c0 31 b8 7c 3d 20 d0 8b bd e1 51 d6 bd e4 69 30 bd
       0.061699096 -0.06826806 -0.10464836 -0.043069735
0002d0 a4 29 40 bd c9 5d ce bd 4c 06 42 3c b5 9b 05 bd
       -0.04691471 -0.10076482 0.011842322 -0.032619197
0002e0 3c 75 c8 bd 79 64 f2 3d 04 04 30 3e d6 0f 93 3d
       -0.09787986 0.1183557 0.17189032 0.07180755
0002f0 89 68 79 be b7 5a 41 3c 96 c3 1c bd ea 96 85 3d
       -0.24356283 0.011801413 -0.038272463 0.06522925
000300 1a a4 ac bd 01 2e 1f 3d 4c 48 9a bd f0 bf 85 bd
       -0.084297374 0.038862232 -0.07533321 -0.0653075
000310 a4 ec 56 bd cc 7c 53 3e f5 51 12 3e 66 28 64 bd
       -0.05247177 0.20653075 0.14289077 -0.05570259
000320 c0 6d c5 3d 68 45 40 be 71 d0 8a 3d 80 fd da 3c
       0.09640074 -0.18776476 0.06778038 0.026732206
000330 7f 44 47 3e 0b 57 c0 3c bf d1 54 3d f2 9c 2f bc
       0.19459723 0.023479005 0.051957842 -0.010718571
000340 72 97 22 3d 4c f0 b2 bd b1 ef 2b bd 48 28 d6 3d
       0.03969521 -0.08737239 -0.041976634 0.10456902
000350 2c 31 fc 3c c2 d6 4a be 75 f2 e0 3d 89 52 c3 bc
       0.030785166 -0.19808486 0.10983745 -0.023843067
000360 bc b5 25 3e c6 fb a1 3c de b6 4a bd f4 31 23 3e
       0.16182607 0.019773375 -0.049490802 0.15937024
000370 b6 b5 52 3d 56 8f 9c bb 45 04 04 3e 8a ba 00 3d
       0.051442824 -0.004777829 0.12892254 0.031427898
000380 6f 31 3b 3e ec 0b f7 bd 6d 55 02 3e 07 16 cf 3d
       0.18280576 -0.12062821 0.127279 0.10111623
000390 03 eb 04 3e 3b a0 35 3e 23 7e bb 3d 7a 08 c0 3d
       0.12980275 0.17736904 0.09154918 0.09376617
0003a0 db b6 08 bd 5c 4c b1 3d 74 98 03 3e 2a ae 0e 3d
       -0.03337751 0.086571425 0.12851125 0.034834065
0003b0 f1 7b 9c 3c 5e 82 d7 3d b2 0c e0 3d 51 9b ec 3d
       0.019102069 0.105229124 0.109399214 0.11553062
0003c0 45 a0 10 3e b7 64 23 3e c4 c6 88 3c c1 2e df bd
       0.14123638 0.15956388 0.016696341 -0.108975895
0003d0 40 4b 4f be e9 75 fd bb 13 e0 0c 3d 15 ce 86 bd
       -0.2024355 -0.0077350033 0.03439338 -0.06582276
0003e0 8d 3c 12 3e 78 aa a2 3d d4 d9 87 bd e6 33 91 bd
       0.14280911 0.079426706 -0.06633344 -0.07089977
0003f0 bb 38 76 bd 25 52 93 3d 8a 4f 21 3c c8 2c f9 3c
       -0.060112696 0.07193402 0.009845624 0.030416861

RNN.bias_hh_l0 f4 [512]
000000 29 e5 10 3d 28 a7 08 bb 31 59 05 3e 99 5e 4a bd
       0.035374794 -0.0020851586 0.13022305 -0.04940662
000010 3e c0 1b 3e 9c 1c 52 3c 3c 96 95 bd 13 e3 07 3e
       0.15210053 0.012824204 -0.073040456 0.13270216
000020 91 5a 14 3e dc b8 97 3d 9c b6 72 bd f9 65 15 3d
       0.14487673 0.07408306 -0.05925618 0.0364742
000030 8d c3 e0 3d 28 e3 d5 3a c2 50 33 3e 89 b6 a3 3c
       0.10974798 0.0016318308 0.17511275 0.0199845
000040 93 54 c0 bd 05 8f 1e 3d 18 8e d7 bc d5 1c a3 3d
       -0.09391131 0.038710613 -0.026312873 0.07964484
000050 16 7a 27 3d 9f a4 a0 3d 0c ac a4 3c 4f a7 f8 3d
       0.040887915 0.07843899 0.02010157 0.121412866
000060 c0 81 c9 ba 94 94 d7 bc 50 a4 b7 bc 4c ba e0 bd
       -0.0015373752 -0.026315965 -0.022417217 -0.10973033
000070 dc 79 b3 3d 63 77 84 3d bf 3f 63 3e c2 b8 1d 3e
       0.08763477 0.06468084 0.22192286 0.15402511
000080 3d f7 0a 3d 6d 1e 95 3d e9 8e d7 bd a8 08 1d 3e
       0.03392719 0.07281194 -0.10525305 0.15335333
000090 59 91 08 be 9f 22 bc 3b 8b 03 c7 3d 82 cd 5e 3e
       -0.13336696 0.005741432 0.09717473 0.21758083
0000a0 92 a1 71 3c 00 18 cf 3d 37 76 02 be 79 bd 07 bd
       0.014747994 0.101119995 -0.12740408 -0.03313968
0000b0 bc fc 47 3d 82 2e e6 ba ec 77 a4 bc 4a 5d 35 3e
       0.04882501 -0.0017561468 -0.020076714 0.17711368
0000c0 11 b5 e5 3c f4 df e6 3d dc 03 85 3d e2 39 09 3e
       0.02804044 0.112731844 0.06494877 0.13400987
0000d0 39 03 1d 3e 3c c3 f3 bd 5c 60 b3 bc 81 5a 70 3b
       0.1533326 -0.119024724 -0.021896534 0.0036675038
0000e0 f7 5b d2 3d 9b 44 04 3e 95 7a 7b 3d 2e 39 31 3d
       0.10271447 0.12916796 0.0613962 0.04326742
0000f0 3b 2c 99 bd 49 68 33 3d 5f 62 1d be 63 f5 fa 3d
       -0.074791394 0.043800626 -0.15369557 0.12253835
000100 5e 67 93 bd ca f0 b7 3d 6c f9 d3 3d 43 2b da bd
       -0.0719745 0.08981474 0.10350308 -0.10652783
000110 95 49 c8 bd e6 3e 46 bd 69 04 20 3e 18 10 dc 3d
       -0.0977966 -0.04839983 0.15626682 0.10745257
000120 90 77 b7 3d e0 95 4a 3e 43 dc 25 3e ac 53 2e 3d
       0.089583516 0.19783735 0.16197304 0.042560264
000130 be 53 02 3e 51 3a ba 3d 4d 37 3e 3d 98 43 0f 3d
       0.12727258 0.09093154 0.046439458 0.03497657
000140 cf 26 1b 3e 99 e5 46 3e 68 7b 21 3e 42 2c 9b 3c
       0.15151523 0.19423522 0.15769732 0.018942002
000150 3e 62 0a 3d a7 f0 c3 3d 40 a4 e2 3d 8c 28 07 3e
       0.033785097 0.09567385 0.110664845 0.13199061
000160 dc ea 6d 3d e8 39 ec 3d 1c 5d 8e 3c 19 8f 86 ba
       0.058085307 0.11534482 0.017378382 -0.0010266035
000170 d7 17 89 bc fa 8a 44 3e 60 55 96 3d 77 e7 af 3b
       -0.016735 0.1919364 0.07340503 0.005368169
000180 7e d7 42 3e bf 74 12 bb 14 5f cd 3d 8d ee c6 3d
       0.19027516 -0.0022347418 0.100279 0.09713469
000190 21 18 31 3d 76 44 2e 3e 88 92 41 b9 09 3b 14 3d
       0.0432359 0.17018303 -0.00018460501 0.036189113
0001a0 3c 43 72 3d f4 0b c7 3d c4 84 aa 3d ed bb 95 bc
       0.05914615 0.09719077 0.08326104 -0.018278087
0001b0 03 ad ca bd b4 33 df 3d d1 d5 4a 3d dc 74 15 3e
       -0.098962806 0.108985335 0.049520317 0.1459536
0001c0 1b d0 50 3e 58 c7 99 3d df ff 6e bd a6 9f 93 3c
       0.20391886 0.07508725 -0.058349486 0.018020462
0001d0 d3 e1 83 3d b5 68 dc 3c 5b 8a 12 3e f3 cb 93 bd
       0.06439557 0.026905397 0.14310591 -0.072166346
0001e0 e5 89 29 3e 73 46 d6 bc 01 e8 8b 3d 6d b2 e0 bd
       0.16556509 -0.02615664 0.068313606 -0.10971532
0001f0 09 65 a1 3d 97 cc ef bc b0 38 c4 3d 2f 51 14 3d
       0.07880599 -0.02927236 0.09581125 0.036210235
000200 8e 4a 95 3d 30 2b c5 3c 80 e5 e3 3d dd 96 c7 3d
       0.07289611 0.024068445 0.11127758 0.09745572
000210 a3 1f 2c 3e 1c 5c 91 bd e0 30 a9 bc c0 3c c3 3d
       0.16808943 -0.070976466 -0.020653188 0.095330715
000220 d7 da 0a be 62 4f 0c 3e de a3 1d be ea 52 cd 3d
       -0.13560043 0.13702157 -0.15394542 0.1002558
000230 82 52 25 bc 64 6e 1a 3e ce 2d f7 3d 5e 58 12 3e
       -0.010090472 0.15081173 0.120692834 0.14291522
000240 e3 86 4c bd 79 2f 00 be 5a 19 b3 bd 5b 65 f4 3d
       -0.049933325 -0.1251811 -0.0874507 0.119333945
000250 bc 42 bc 3d 49 53 3d 3c 34 a2 02 3e 52 72 dd 3b
       0.09192416 0.011555501 0.12757188 0.006758013
000260 ae 2e 92 3d 2c 8b 86 3d 76 8f b9 bd 76 a6 b0 3e
       0.0713781 0.06569514 -0.09060566 0.34502
000270 3f 87 d4 3d b9 91 ff 3d f2 1d 93 3b fd 88 1f 3e
       0.10377359 0.12478966 0.0044896537 0.155796
000280 55 ca 55 bc b3 b0 47 bd 82 bb 3e 3d f0 ea ec bd
       -0.013048728 -0.048752498 0.04656554 -0.11568248
000290 3d f8 ef bc a3 31 9b 3d f6 d9 50 bd cf 2a 09 be
       -0.029293174 0.07577827 -0.050989114 -0.13395236
0002a0 5a ae 1f 3d 27 0e 1b 3d 9a 98 9d 3c dc 39 97 3d
       0.038984634 0.037855294 0.019237805 0.07384083
0002b0 e8 fa 2c be 95 ea af 3d 08 66 9b bd fd 13 da 3d
       -0.16892588 0.08589665 -0.0758782 0.10648344
0002c0 58 19 ad bd 26 84 54 3d f8 4f 2c 3d 02 dd 1c be
       -0.084520996 0.05188384 0.04206845 -0.15318683
0002d0 98 1b 59 3d 18 a0 01 be 50 5f 72 bd a4 f7 19 3c
       0.05300483 -0.12658727 -0.05917293 0.009397421
0002e0 71 4b c9 bd a5 b9 80 3c 5a ac f8 3d e3 f4 2d bd
       -0.098288424 0.015713522 0.121422485 -0.04246987
0002f0 b5 23 69 be ee eb a3 3d 86 03 47 3c 5c 1a e0 3d
       -0.22767527 0.080039844 0.012146836 0.10942528
000300 64 97 d8 3c d9 b7 d5 3d d9 27 71 bd 87 d1 cc bd
       0.026439376 0.10435457 -0.058875892 -0.10000902
000310 36 ab 3c bd e9 0b 3d 3e 55 b9 39 3e ea 3c 3b be
       -0.046061717 0.18461575 0.18137105 -0.18284956
000320 e6 89 b3 3d dd 14 95 bd 35 a3 8b 3d 55 80 cf bc
       0.087665364 -0.0727937 0.06818239 -0.025329748
000330 7c 1c f6 3d bc 80 6c 3d 9d 69 9e bd 7a ff 8e bd
       0.12017152 0.05773996 -0.07734988 -0.06982322
000340 09 a6 9a 3d e9 d3 2c be a3 c2 30 3d e8 d8 0c 3d
       0.075512 -0.16877712 0.04315437 0.034386545
000350 0b 17 57 3d a9 77 81 be 37 32 8a 3d 38 49 82 bd
       0.05251221 -0.25286606 0.06747859 -0.063616216
000360 a2 8a bb 3d 6f 69 a6 3d 47 ab b2 3d a1 fe 68 3d
       0.091573015 0.081255786 0.08724075 0.056883458
000370 6d 24 40 3d b1 8b 12 bc 18 a0 cd 3d 34 74 60 bc
       0.04690974 -0.008944438 0.10040301 -0.01369958
000380 ff d5 bc 3c 6d dc 12 be 6c 9b 35 3d f2 e2 22 3e
       0.02305126 -0.14341898 0.044337675 0.15906885
000390 79 dd dd 3d 07 0b 16 3e 48 e0 04 bd 67 24 8a 3d
       0.10833258 0.14652644 -0.032440454 0.067452244
0003a0 b0 10 3d bd 53 9c 26 3e f4 35 a2 3d d1 aa de bd
       -0.046158493 0.1627057 0.07920447 -0.108724244
0003b0 44 65 2e bb ae 9a f3 3d 5b 6a 94 3d f5 0e 36 3e
       -0.0026610652 0.11894737 0.07246848 0.17779143
0003c0 79 a1 90 3d fd e9 1f 3d 23 ef 9a bc fd 20 88 bd
       0.070620485 0.039041508 -0.018912857 -0.06646917
0003d0 3b 39 49 be ac 60 c0 bc 8a d0 9c ba 18 70 c4 3c
       -0.19650738 -0.023483597 -0.0011964005 0.023979232
0003e0 96 5c 15 3e ca 17 24 3d 56 94 bd bd 9f b5 10 3d
       0.145861 0.04006175 -0.092568085 0.035329457
0003f0 a6 6e 09 bd 3e 2d 44 3d 89 fe da 3c 62 fe ad bc
       -0.03355279 0.04789471 0.0267327 -0.021239463

actor.weight f4 [5, 128]
000000 ce 43 1f bf 1f 1c 88 bc a6 8c 81 3d c9 d0 05 3f
       -0.62212837 -0.016614972 0.06325655 0.52271706
000010 ac 2f 10 3e 45 01 27 bd 5f c4 e9 3e 15 55 9d 3c
       0.14080685 -0.040772695 0.45657632 0.01920561
000020 2f cb 25 bd aa fb d3 bd 08 a1 a8 ba 49 72 85 bd
       -0.040476974 -0.103507355 -0.0012865374 -0.06515939
000030 96 08 55 bd 70 02 95 bd e6 7a 41 be 8f 06 7b 3c
       -0.05201014 -0.072758555 -0.18894538 0.015321388
000040 5c 62 6b 3d c6 4e b0 be 0b 4e b7 bc 44 41 c9 3d
       0.05746685 -0.344351 -0.022376081 0.098269016
000050 aa 6e ae 3d ae ab 17 bd 56 28 72 3e e3 e8 29 3e
       0.08517201 -0.03702896 0.236482 0.16592745
000060 34 3b 1e 3e 95 41 b9 3d 1f 2a 8d 3e 6e 58 0f 3e
       0.15452272 0.09045712 0.27571198 0.13998577
000070 cc 16 a4 3d 4e 60 8c bd 25 fb de 3e d4 4e 11 3b
       0.08012161 -0.06854306 0.43550983 0.002217223
000080 85 d8 09 bd 6f 8e f0 bc 2f 7e e3 be da a8 8d 3d
       -0.033653755 -0.029364793 -0.44432208 0.069169715
000090 7e ee 11 3d 9c a2 7a bd 9e f3 e6 bd 87 6d c1 bd
       0.035627834 -0.061190233 -0.11276935 -0.09444719
0000a0 5e 89 93 bd f7 51 26 be d3 04 0a be bc c0 b0 3b
       -0.07203935 -0.16242205 -0.13478403 0.0053940695
0000b0 8c d0 ad bc 33 67 89 bd 4a 32 44 be 65 5a 8b 3d
       -0.021217607 -0.06709137 -0.19159809 0.06804351
0000c0 72 f4 9e 3e c7 3f 37 3e 08 93 06 bd a7 bf c9 3d
       0.31045872 0.17895423 -0.032855064 0.09851008
0000d0 1d 86 69 3e 1e 51 e2 bd be 2a 92 bd ff 2c cb 3c
       0.22805066 -0.11050628 -0.07137059 0.02480173
0000e0 c3 4a da 3d c0 10 5c 3e eb 03 fd 3d 0f 91 aa 3c
       0.10658791 0.21490765 0.12354263 0.020821122
0000f0 70 a4 53 be 38 f1 de 3d 43 62 a4 3d 57 7d 96 be
       -0.20668197 0.108858526 0.080265544 -0.29392502
000100 e6 62 35 bc 84 d6 bf 3d a7 2d 32 bc 93 06 6b bb
       -0.0110709425 0.093670875 -0.010875142 -0.0035862073
000110 9d 5b f0 3d c0 81 b0 3d 88 f4 12 be 12 ca 14 3e
       0.11736224 0.08618498 -0.14351094 0.14530209
000120 ec 95 9d bd cc 79 0b 3e 9d d3 8c 3e e9 a2 29 bf
       -0.07694611 0.1362068 0.27505198 -0.66264206
000130 d2 5f 32 3e fa 10 93 bd 69 0a 81 3e fe a1 55 3d
       0.17419365 -0.071809724 0.25203255 0.05215644
000140 d6 b2 ca bc c8 47 bc bd 33 5b 4d be 05 81 ee 3d
       -0.024743479 -0.09193379 -0.20054321 0.11645702
000150 e1 35 f7 3d d5 87 14 be 5b 87 80 3e df 0b 07 3f
       0.120708235 -0.14504941 0.25103268 0.5275249
000160 77 e9 11 be 2e 2f 40 bd aa 41 4a 3d aa b1 51 bd
       -0.14249216 -0.046919994 0.04937903 -0.051194824
000170 bb 40 4e 3e ea 06 da 3e 50 69 6e be 5a 8b 08 be
       0.2014188 0.425834 -0.23282361 -0.13334408
000180 39 7e db 3d 15 3a b7 bd 9a d6 d5 3d 47 1d 53 bd
       0.107174344 -0.08946625 0.104413226 -0.051541593
000190 c9 9c 6c bd 02 8a ff 3d a6 ca d5 3d c2 20 a8 3e
       -0.05776671 0.12477495 0.10439043 0.32837492
0001a0 be f1 07 be 77 b6 8b bc f0 fe 21 be af e3 f6 3d
       -0.13275811 -0.01705478 -0.15819907 0.12055146
0001b0 66 c3 c3 3d e1 35 f9 3d 59 38 1b be a2 7b 9f bd
       0.09558754 0.1216848 -0.15158214 -0.07787253
0001c0 f1 a3 d5 bb c2 0d 0a be fb 9f 25 be 3a 41 7c 3e
       -0.0065197875 -0.1348181 -0.16174309 0.24634257
0001d0 3a 8f 1a 3e c3 eb 0a be 1b 0f 39 3e 87 51 ec be
       0.15093699 -0.13566498 0.18072169 -0.4615595
0001e0 c4 22 9d bc 8b 6e 32 3e 26 a8 9f bc 82 47 e2 bc
       -0.019181617 0.17424981 -0.01948936 -0.027621988
0001f0 31 d9 5b be 51 a9 d6 3d 9b 88 50 3e 5c ef ec 3d
       -0.2146957 0.10481513 0.20364611 0.11569092
000200 ca b4 f5 3e 31 8b d8 bb 38 49 cc 3d 6f eb 06 bf
       0.47989494 -0.00660839 0.09974903 -0.52702993
000210 24 ed 2b 3e c1 0a 0d 3e 23 8a e8 be 08 05 12 3d
       0.1678968 0.13773634 -0.4541789 0.03564933
000220 61 7e 13 be 1c 31 a7 bd b2 a7 24 be 22 4c eb bd
       -0.14403678 -0.08163664 -0.16079596 -0.114891306
000230 ab a9 b1 bb 37 43 1f be 2c 1f d1 3b ae 31 db 3c
       -0.0054218373 -0.15552984 0.00638189 0.026757088
000240 cf 3a d5 3d d0 4c 6c 3e f1 04 30 be 73 aa f7 3d
       0.104116075 0.23076177 -0.17189385 0.120930575
000250 2a db a8 bd 67 39 8a bd f1 e3 52 3d b7 a4 0f 3e
       -0.08244927 -0.0674923 0.051486913 0.14027677
000260 73 75 df bb 0e 6e ee 3d 91 25 0a bf 2e bb cd 3d
       -0.006819421 0.11642085 -0.5396357 0.10045467
000270 6a 93 2a be 7d e4 d5 bd 46 af fa bd c9 82 ff 3c
       -0.16657797 -0.10443971 -0.12240462 0.031190293
000280 ed d3 06 bd ad 93 7c 3e e2 da b3 3e b7 d2 e5 3d
       -0.032916952 0.24665709 0.35127932 0.11221831
000290 b0 19 d6 3d 4e 33 87 bd d4 de 96 bd 4f f4 5c be
       0.10454118 -0.066015825 -0.0736672 -0.21577571
0002a0 44 e4 6c be f3 d2 14 be ad e4 d6 bd ec 5c 10 3e
       -0.23133951 -0.14533596 -0.10492835 0.14097947
0002b0 a7 8d 7e be b6 17 b4 bd 31 b7 23 3d 35 2b 08 3e
       -0.24858724 -0.08793585 0.039969627 0.13297732
0002c0 83 3c fb be 80 60 9b 3d 9a d8 75 3e 2b 65 41 3e
       -0.49069604 0.07586765 0.24008408 0.18886249
0002d0 bd e3 05 3d 8a 8e 1a be fd 57 6d 3e 0c 5b 49 be
       0.03268789 -0.15093437 0.23178096 -0.19663638
0002e0 20 f6 cc 3d c9 d6 6e 3d 15 8f e2 3d 51 83 02 be
       0.10007882 0.058310304 0.11062447 -0.12745406
0002f0 be df 23 bd a9 62 04 be 8e 86 36 be 4c b4 35 bd
       -0.0400083 -0.12928261 -0.17824766 -0.044361398
000300 d7 2a e8 3d f9 ea e1 3d 2d 72 04 3e 34 19 cb 3a
       0.11336296 0.110311456 0.1293418 0.0015495182
000310 42 03 22 3e 28 3c b2 bd 68 7c 5d be 72 77 19 3e
       0.15821555 -0.0870288 -0.21629488 0.14986971
000320 04 16 e6 3d c1 2f 49 3e 66 0b 98 bc f8 0d 12 3f
       0.11234668 0.19647123 -0.018560123 0.57052565
000330 7a f0 e4 3d ef 1e 57 bd a5 40 c9 be 1c 31 cb 3c
       0.1117868 -0.052519735 -0.39307132 0.02480369
000340 f4 41 26 bd b6 9a 74 be db 25 13 be e2 da 04 3e
       -0.04059024 -0.23887143 -0.1436991 0.12974122
000350 b7 fd b0 3c 91 d1 d8 bd f7 a4 40 bd 66 00 e6 be
       0.021605356 -0.105868466 -0.047032323 -0.4492218
000360 3d ea 1f 3e 29 a9 27 3e 10 c2 ea 3d 65 de 56 be
       0.15616699 0.16373123 0.11462796 -0.20983274
000370 16 3c 11 be e4 92 ab be c9 4c 49 be d3 a2 62 be
       -0.14183077 -0.33510506 -0.19658197 -0.22132425
000380 f1 26 cf 3d 8b a8 76 3c ac 82 c2 3c c2 a5 18 be
       0.10114849 0.015054832 0.02374395 -0.14906982
000390 5b f5 91 bd 3c 26 a2 3d 12 27 aa bd 8b 08 d9 bd
       -0.07126876 0.07917449 -0.08308233 -0.105973326
0003a0 d6 e0 7f bd 73 e9 07 be 49 8a 1f 3e a5 67 36 3c
       -0.06247028 -0.13272648 0.15580095 0.011133109
0003b0 3d e5 49 3e 9c 2f 92 3c d8 43 0a be 24 18 0c be
       0.19716354 0.017844968 -0.13502443 -0.13681084
0003c0 1a 6c eb 3a 71 14 19 bd d4 f8 19 be 77 eb 57 bd
       0.0017961294 -0.03737301 -0.15036327 -0.05271479
0003d0 8b 27 63 3e da 21 7e 3e 1c f8 70 be f3 42 bc 3e
       0.22183053 0.24817601 -0.23532146 0.36769828
0003e0 1f 53 24 3d 2b b0 02 3e 02 17 0f 3e 1c dd 68 3e
       0.040118333 0.12762515 0.1397362 0.22740597
0003f0 4c 11 13 be 62 a3 ca 3d 1d 8b 64 bb 9c c3 4c be
       -0.14362067 0.09894444 -0.0034872957 -0.19996494

actor.bias f4 [5]
000000 4f b2 49 3d 25 9c 8e bb 3b a1 83 bd 4d 55 77 bd
       0.049242314 -0.00435211 -0.06427237 -0.060384084
000010 b6 b4 c4 3d
       0.096047804

critic.weight f4 [1, 128]
000000 12 6d 6f bd 5c db 91 3b e0 6f 34 3e a2 99 a6 3d
       -0.058453627 0.0044511985 0.17620802 0.08134772
000010 77 46 5d 3c 33 04 ec bd 94 d8 42 3d 11 6a 85 bd
       0.01350557 -0.115242384 0.047569826 -0.06514371
000020 f1 e2 54 be df 27 a2 bd 42 4c 3d bd 65 6a 22 bd
       -0.20789696 -0.07917761 -0.046215303 -0.039652247
000030 0c fd 61 bd 94 0d e7 3c 3f ca 3a bd 21 5d 74 bd
       -0.055172965 0.028204717 -0.045603033 -0.059659127
000040 d3 d0 1e 3e 08 61 06 be 2a 59 a7 3b 1b a2 84 3d
       0.15509348 -0.13122952 0.0051070647 0.06476232
000050 2c a2 c5 3d a5 11 fb bd dc 95 2e bd a0 59 1b 3e
       0.096500725 -0.12259225 -0.042623386 0.15170908
000060 52 68 ff 3c f2 c9 15 3d 83 0a 5f 3d e0 23 93 3e
       0.031177673 0.036569543 0.054453384 0.28738308
000070 04 04 c7 bd ad 19 ae bd 77 64 ca bd 8d 29 6b be
       -0.09717563 -0.08500991 -0.098824434 -0.22965069
000080 28 28 1f 3d 59 fa 27 bd 6f 7e 10 3b 94 5f 93 bd
       0.038856655 -0.041010235 0.0022048017 -0.071959645
000090 e7 0e 87 bd 7e 4e c2 3c bf 77 bc 3d 0c bb 75 3b
       -0.06594639 0.023719069 0.09202527 0.0037495522
0000a0 12 76 36 bd 36 ce b6 bd ed 28 dc 3c 27 0e ba 3d
       -0.044546194 -0.0892605 0.026874984 0.090847306
0000b0 7e 67 e6 bc 0a ba 94 3d a0 4b b1 3d aa 78 b4 bc
       -0.02812552 0.07262047 0.086570024 -0.022030193
0000c0 80 b1 e3 bd 13 cf 1a 3d 83 83 a2 3d 9e fc be bc
       -0.1111784 0.037795138 0.0793524 -0.023313817
0000d0 6d 18 4a bd bd 9b aa 3d 17 51 22 3e f1 e7 b6 bc
       -0.0493397 0.08330486 0.15851246 -0.022327395
0000e0 f2 de ea 3c 98 71 93 3e 7a cf 53 3e d0 c9 13 3d
       0.028670762 0.28797603 0.20684615 0.036081135
0000f0 6d b5 26 3e 00 4a 01 be 64 d5 f7 3d c2 ab 95 3d
       0.16280146 -0.12625885 0.12101248 0.07308151
000100 41 f4 e6 3d 5d f8 ba bd 36 3a 57 3d e6 26 a8 3c
       0.112770565 -0.09129403 0.05254575 0.02052636
000110 be fe 35 bd a9 3e d7 3d 63 d2 14 be 72 0f d1 bd
       -0.044432394 0.10509998 -0.14533381 -0.10208024
000120 85 2c 7c 3c 97 37 0d be 8d fe 02 be d6 24 a4 bd
       0.015391474 -0.13790737 -0.12792416 -0.080148384
000130 44 ab b4 3d 51 41 c1 bb 72 69 94 bc f5 31 ef 3c
       0.08821729 -0.005897679 -0.018116686 0.029198626
000140 45 9e 0a bd de 7e 3c 3d a8 9e 78 bd e0 14 72 3d
       -0.033842344 0.046019427 -0.06069818 0.05910194
000150 08 4a f4 3d d7 db a7 3d e4 be 7d bc 7c fa b5 3c
       0.11928183 0.08196228 -0.015487406 0.022214167
000160 c5 c2 6d bd ff b5 6b 3c b9 6a 8a bd 50 56 16 3e
       -0.058047075 0.014386653 -0.06758637 0.14681363
000170 d8 6f 23 3d 10 c9 33 bd 32 89 63 3d c7 c8 dd bc
       0.039901584 -0.04389292 0.05555076 -0.027073277
000180 dd 23 be 3d 3b 2e 03 bd 77 a5 d4 3d 66 82 e6 bb
       0.09284184 -0.03202651 0.103831224 -0.0070345877
000190 f6 80 2b 3d f3 83 1a 3d 25 9b 89 3d 15 24 b7 bd
       0.041871034 0.037723493 0.067190446 -0.08942429
0001a0 b4 1b 84 3e f1 e3 8d 3d 1a e2 82 3d 71 43 4b 3d
       0.25802386 0.06928242 0.06390782 0.049624864
0001b0 17 b2 15 bd c5 d8 36 3e 7c 47 90 3d a2 47 5f bd
       -0.036546793 0.17856129 0.070448846 -0.054511674
0001c0 cd 6f fb 3b 78 d9 34 bd 33 4e 89 bc a6 82 54 bc
       0.00767324 -0.044152707 -0.016760921 -0.012970602
0001d0 a2 a0 50 3d 5c 75 4d bd 32 c4 2a be 90 91 63 3c
       0.05093444 -0.05016075 -0.16676405 0.013889685
0001e0 ba 15 fd 3d 34 8d b2 3c b6 32 ae bc 7a b9 a5 bd
       0.1235766 0.021795847 -0.021264415 -0.080920175
0001f0 da 39 e6 bd 0a a8 27 bd fc 91 42 be 5a b1 10 3e
       -0.11241503 -0.04093174 -0.19001001 0.14130154
