Liu/test_mini/v_4/train_iter_13400.pt (torch, 740679 bytes, 9 tensors)

h0 f4 [128]
00000000: b615 89bf d65b b33e 2645 3ebf 1500 e13f
00000010: 3101 8fbe ec93 cabf 89df bf3e b00d 583e
00000020: ff1e 23bf 868a 8c3f df34 b3be 4e60 b23f
00000030: ea88 3d3e cecc 0bbf e231 7cbc 8647 9ebf
00000040: 8e51 4fbf 929c 2bbf b61a bb3d d5eb 47bf
00000050: 4663 2fbf 724f 783d 58b7 29bd fc24 383f
00000060: 765f ce3d 3b5f 9d3d 7a0b ce3f d966 95be
00000070: bad7 0ebe 6c2d 89bf 78ef 1fbf 860c 89bf
00000080: 8ac2 92be 1067 c83f d177 88bf 7066 e1bf
00000090: 5721 d93e 59ee 97bd ebe8 1040 b4e3 b3be
000000a0: 1b56 70bf 7e80 97be 9e0b cbbf 4261 b5be
000000b0: 193c e9bd 9543 4abf 0e25 933d c508 20bf
000000c0: f94b 95be a74a 853f fbf1 89be c349 68be
000000d0: 4625 9e3e 837e 97be 89b7 4e3f ce12 37bf
000000e0: e919 acbf e67d a43f bb60 77bf 417b 263f
000000f0: a80a 843f 5f33 d03e fde5 c8bf 1253 9fbf
00000100: 360f 02bf 4caf 1c3f 6dd4 15c0 18a9 6b3f
00000110: 1618 3c3f dfbb bcbf af89 f53e 0094 96be
00000120: c70c cf3e 0ec8 ea3e 26f4 923f 2114 623e
00000130: 8b41 cabe 56c8 0abe 7e41 92bf 77fe 453e
00000140: 61ff 463e cdba 77bf 9a84 e73e d899 95bf
00000150: 4094 fbbc 3aee bd3f a806 2dbf 9163 11be
00000160: ae52 2f3e 74ce 8ebe 780f a2bf f0d3 113e
00000170: b08f fdbd 4424 dcbe 5102 a03f 6f40 12bf
00000180: c9bc 073f 370f 0140 2456 d6be ec9f 6d3e
00000190: c940 c23f 70a0 aebf 34bf 8bbe c31d ad3e
000001a0: f29a 67bf f16a 343f e698 8abf fe5c 8a3f
000001b0: dadc a1bf bc65 743e b28d 0e3f 788d ac3f
000001c0: b20c 13bf bf0b 383f b508 82bf 8f8c 9dbe
000001d0: 715f b7bd bb7a 04bf fc8f 713f 7aa3 123f
000001e0: 555c 373e b5fa 81bf b4cd b5bf e72d 24be
000001f0: 2542 febc 1604 0ac0 db08 dbbd b4de c5be
-1.0709751 0.35031003 -0.7432426 1.757815 -0.27930596 -1.5826392 0.3747523 0.21098971
-0.6371917 1.0979774 -0.35001275 1.393564 0.1850926 -0.5460938 -0.015392752 -1.2365577
-0.8098382 -0.6703578 0.09135954 -0.78094226 -0.68510854 0.06062264 -0.041434616 0.71931434
0.100768015 0.076841794 1.6097252 -0.2918003 -0.1394948 -1.0716987 -0.62474775 -1.0706947
-0.28664047 1.5656452 -1.0661565 -1.7609386 0.4240825 -0.07418508 2.2642162 -0.3513466
-0.93881387 -0.2959022 -1.586292 -0.35425764 -0.11388416 -0.7900937 0.07184802 -0.6251338
-0.29159525 1.0413407 -0.2694243 -0.22684388 0.30887812 -0.29588708 0.807488 -0.7151307
-1.3445407 1.2850921 -0.96631974 0.6503182 1.0315752 0.40664193 -1.5695187 -1.2447226
-0.5080446 0.6120498 -2.3410904 0.9205489 0.7347425 -1.4744834 0.47956607 -0.2940979
0.40439436 0.45855755 1.1480758 0.22077991 -0.3950313 -0.13552985 -1.1426237 0.19335352
0.19433357 -0.9676941 0.45218354 -1.1687574 -0.03071034 1.4838326 -0.6758828 -0.14198138
0.17121384 -0.27891886 -1.2660971 0.14241004 -0.12380922 -0.42996418 1.2500707 -0.5712957
0.5302244 2.0165536 -0.41862595 0.23205537 1.5176021 -1.3642712 -0.27294314 0.3381177
-0.904708 0.7047568 -1.0827911 1.0809629 -1.2645524 0.23866934 0.5568496 1.3480673
-0.57441247 0.71892923 -1.0158907 -0.307713 -0.08953751 -0.5174977 0.9436033 0.57280695
0.17906316 -1.0154635 -1.4203401 -0.16033135 -0.0310374 -2.1564994 -0.106950484 -0.38646472

c0 f4 [128]
00000000: f5eb 733f 0834 5fbf 4bc7 4fbf 5638 cb3e
00000010: 6fd5 8a3f 25eb 52be 1aea 5b3f 70f0 02c0
00000020: 6fb2 3abf e31d d33e c860 b5bf a973 193e
00000030: 5f54 1240 5550 b9bf ecde 56be f6dd a43f
00000040: 6ac5 ecbe cf54 0abf 3c99 26bf 1070 bfbf
00000050: 2ed2 d8bb cf90 523f 154c c93c ad6a 893f
00000060: c17c 41be af80 3c3f 08cc bebe 40e3 91bf
00000070: fcc9 9cbe 408f 3240 55d0 48bf df6b 153f
00000080: c748 d7bf abbf 933f 978e 1dbf 61e1 a73f
00000090: f321 833e 3155 febf 16ef 0cc0 da73 29bf
000000a0: ae43 b6bc 390e 0f3f acc3 443f c5a0 213f
000000b0: a47d debe 34b8 02c0 085a d1bf 3ee4 2e40
000000c0: 4d66 80bf c836 ce3e 6e95 e13e dca2 bb3e
000000d0: d451 1840 440d 2c3f 324d e53e 535c f33f
000000e0: cf17 76bf 2d66 e9bd 1f80 2ebf fcb6 aebe
000000f0: c741 c5be 0638 7c3e 35a5 e23f 2463 9b3f
00000100: 9c28 71bf 429e d23f 29c3 63bf 5482 01bf
00000110: 5710 bd3e 0cb7 363e 723b 593f d915 f33e
00000120: f952 4dbd 1ebb a9bd 31e4 f5be 7ac8 61be
00000130: 9647 833e 14bc f7be 1689 0e3f 8bba 84bf
00000140: 7484 96bf e239 153f 12ef f6be 5252 9a3f
00000150: 1496 19bf a8d9 a33e 317b 293c 18df 5bbe
00000160: b320 e43f bf18 9f3f 7969 3dbf cc2b 7dbf
00000170: 9901 8ebf 43b2 393f a2d9 0040 6e7f 05be
00000180: dc0f 2e3f b7cb d7bf f670 73be 1c95 a03e
00000190: ccba 313f 7cd7 93bf f68c 3bbf 1dd0 d7be
000001a0: ae0d d2be ae62 10c0 4862 743e 646e 1ebf
000001b0: 7ef6 7cbf 2ac0 81bf d75a 863f 4e96 603e
000001c0: a8db 9ebf b686 4abf 818f d3bf db30 453e
000001d0: 4b2d cf3e 3da8 79bf 4478 f23e b019 1dbf
000001e0: c635 39bf f650 24c0 db4b dbbe a85e 71bf
000001f0: a16c 0ebf ba05 aebf e424 19bf f2e4 343f
0.95281917 -0.8718877 -0.8116347 0.39691418 1.0846385 -0.20597513 0.85904086 -2.0459251
-0.7292852 0.4123374 -1.417016 0.14985527 2.2863996 -1.447764 -0.20983475 1.2880237
-0.46244365 -0.5403566 -0.6507757 -1.4956074 -0.0066168522 0.8225221 0.024572412 1.073568
-0.18895246 0.73633856 -0.37265038 -1.1397476 -0.30622852 2.7899933 -0.7844289 0.58367723
-1.6819085 1.1542867 -0.615457 1.3115655 0.2561184 -1.9869748 -2.2020926 -0.661924
-0.022249069 0.5588108 0.7686107 0.6313594 -0.4345523 -2.0424929 -1.63556 2.7326808
-1.003122 0.4027617 0.44059318 0.3664769 2.3799944 0.6720774 0.44785458 1.901255
-0.9613008 -0.113964416 -0.6816425 -0.3412398 -0.38526747 0.24630746 1.7706667 1.213963
-0.9420259 1.6454546 -0.88969666 -0.5058949 0.3692653 0.17843264 0.8485633 0.47477606
-0.050127957 -0.08287643 -0.4802566 -0.22049132 0.25640553 -0.4838568 0.55677927 -1.0369428
-1.1759171 0.5829145 -0.4822927 1.2056372 -0.59994626 0.32001996 0.0103443125 -0.21471822
1.7822479 1.2429427 -0.73989064 -0.98894954 -1.1094238 0.7253763 2.0132833 -0.13036892
0.6799295 -1.6859044 -0.2377356 0.3136376 0.69425654 -1.1550136 -0.73261964 -0.42150965
-0.41026062 -2.256023 0.23865616 -0.6188719 -0.9881362 -1.0136769 1.0496472 0.21932337
-1.2410784 -0.791118 -1.6528169 0.19256918 0.40464243 -0.97522336 0.4735738 -0.6136732
-0.72347677 -2.5674415 -0.4283131 -0.9428506 -0.55634505 -1.3595498 -0.59821916 0.7066184

RNN.weight_ih_l0 f4 [512, 15]
00000000: 0116 9c3e 3494 b4bd d793 653e 54cf 9a3b
00000010: 5227 5c3e 6b18 123a 25ae 333e 65e5 cb3d
00000020: ae86 993d 8f26 de3d 3ef7 72bd 3277 5b3d
00000030: 00ca 84bc bb8c 7b3d 43a2 2e3e dd4a 153d
00000040: ad4a 41bc 6b9d 093e 77d3 5539 c33b 8e3d
00000050: e847 583e 8268 173e f703 fd3d 72e9 51bd
00000060: 5d98 97bd 2f39 79bd d5e5 633d a2fe 023d
00000070: 15f6 84bc 44dc 613e 4c01 223d 7d62 63bd
00000080: c1cb 0b3e eb60 5abd 851b a83d 73a6 393e
00000090: 4ce3 913d f5a2 6a3d 667a 8fbc efbf c33d
000000a0: 560f e7bc e0b5 2e3d 8639 3e3c b549 de3d
000000b0: 8a12 fe3b e66e 273e 070e 6dbd 941b 2f3a
000000c0: c93b 4cbd 52b5 21bd 2294 e63d 0dc5 423d
000000d0: 38cb 823d dc0e c4bc 8daa 3dbd 85ee 613d
000000e0: 4fcc 873c 1741 9f3d 4234 313d 37f6 693d
000000f0: 17c0 4a3d ca78 493d ada2 783e 7d75 42be
00000100: df87 0c3e 7e38 84be cd5a 38bc bcf7 b93c
00000110: b881 163e ae15 9ebd f2da fbbc 4bb6 cf3d
00000120: 7b10 00be 6c81 0e3e 06fd 833d 1052 f03c
00000130: c314 50bd c75d 363e ae84 073d 2fb2 243d
00000140: 5455 80bd a4e1 e0bc 54a5 883d a092 423e
00000150: df3d 5e3e 377c 27bd 8e37 f23b 4e9f 8bbd
00000160: 8216 d73c 190b 9c3c 1aac c03d ccd8 843e
00000170: 55a4 75be 24f2 9e3d 2738 5c3d cff6 a7be
00000180: b61b 9a3d 6ba9 b53d 3779 02be 984f d73d
00000190: 9db3 eb3d ae27 0a3e 4411 ab3c 1453 01be
000001a0: b6bc 123d 4d15 3b3e 6199 09be 78b9 9a3e
000001b0: 672c 05be 0f6e 023e 66cc c43e 110b 233e
000001c0: e901 0b3e d780 5e3e 1c8f 0c3f 691a bb3d
000001d0: 772f 673e a6f1 d7bd 1baa 7e3d f731 573e
000001e0: d2ae 8b3e 3b76 363e e36a a73c 6584 823e
000001f0: 0fe7 0c3e 9286 8b3c be98 143e d009 ee3c
00000200: d3d9 d93d 0145 bf3d 1502 e93d 84b8 6e3d
00000210: a85c 253e 4ed3 7c3e 8c91 8c3e bcbd 363e
00000220: 182c c03c 32a3 7b3e 37bd 9dbd 981e 0bbd
00000230: b71b 803e 796e 2a3e fa94 463b 5f05 793e
00000240: 45be a23e 114b 303d 5d4b f73d 28e6 b9bd
00000250: 528c 703e 3a83 853e 18bf be3d 45f9 113f
00000260: 732e 16be ef5e 94bd 24fd 2bbd 7b33 393e
00000270: 6db7 213e 8d90 24bd 15b9 4abd e253 47be
00000280: 7bd0 95be edc5 e53c cac1 a03a 76e7 873c
00000290: acbd 753e 9d57 5d3e 9475 27be f2c6 b4bd
000002a0: 0ba1 a03c a185 763c f611 1f3f cf8f 0e3e
000002b0: cbd1 783d 287e 9abc 28a3 1a3f ff57 d63b
000002c0: 4f42 5bbd 025c af3d 5e08 5f3d eeb6 0f3e
000002d0: 889a 273d 1c4d 0b3d d21a 573d fb9c 56bd
000002e0: aea7 a13d 18e3 673e 5a8a e03c 7299 d83d
000002f0: 1647 3e3c 5af9 0f3e 40c2 41bd aff4 283d
00000300: 8fa3 623d 2b6c ab3d 3ae3 243e 8b4b d23d
00000310: 547f c6bd 2569 f83c dd9c 4bbc 75f0 943d
00000320: d2f9 0c3e 3bd0 273e 84e1 6c3d 22e1 ac3d
00000330: 6d94 9cbd c1a6 33bd 2311 0b3e 531b de3d
00000340: b73c 913d d0c8 433d 8192 f53d f6ac 173f
00000350: 9fde e8bb a6a1 023e dce7 593e 10d7 503f
00000360: 3fe8 4f3d 8023 013e 8732 733e 4c23 533f
00000370: 94ba 4cbd 0b25 b03d 2397 003e e5ee 543e
00000380: 1e99 d4bc 17ce 573d a795 053f 7588 3cbd
00000390: 2d65 abbd 1350 03be b155 1bbe f29f c93d
000003a0: ade3 0dbe e537 3fbc c894 34be 1795 afbd
000003b0: da3b 3f3d 76b5 87bd bea8 1f3d 6187 933d
000003c0: 9db1 9dbc 9b61 a03d b254 0fbe ff3c c93d
000003d0: 2fa4 f73b 6249 06bf 1fa8 173c 56ad 803d
000003e0: 0b18 26bd 3523 f1be 2a9e 2abd 783e 0a3e
000003f0: 049f b8bd 9fc1 07be f16e d63d 282f 1ebe
0.30485538 -0.0881733 0.22419678 0.0047244225 0.21499375 0.00055730966 0.175469 0.09955863
0.07496391 0.10847198 -0.05931782 0.05358047 -0.016209602 0.061413508 0.17054085 0.03644835
-0.011797589 0.13438956 0.0002039204 0.069449924 0.2112118 0.1478596 0.12354272 -0.05124802
-0.07402108 -0.06084555 0.055639107 0.031981118 -0.016230622 0.22056681 0.039552018 -0.055513848
0.13651945 -0.053315084 0.08208374 0.18129902 0.071234316 0.057284314 -0.017514419 0.09558093
-0.028205555 0.04265392 0.011610394 0.10853902 0.007753675 0.16350898 -0.057874706 0.00066798297
-0.049861703 -0.03947956 0.11258723 0.047551204 0.06386417 -0.023932867 -0.046305228 0.05515911
0.016576914 0.07776087 0.043262728 0.057119574 0.049499597 0.04918746 0.24280806 -0.1899013
0.13723706 -0.2582435 -0.011252117 0.022701137 0.14697921 -0.07718979 -0.03074405 0.101421915
-0.12506287 0.13916558 0.06444745 0.029336005 -0.05080105 0.1780921 0.033085518 0.04020899
-0.06266275 -0.027451344 0.06672159 0.19001245 0.2170329 -0.040889945 0.0073918765 -0.06817494
0.02625585 0.01904826 0.09407826 0.25946653 -0.23988469 0.077610284 0.05376449 -0.32805488
0.07524817 0.088702045 -0.12741552 0.10513228 0.11508868 0.13491699 0.020882256 -0.12629348
0.0358245 0.18269844 -0.13437416 0.30219626 -0.1300522 0.12737297 0.38437194 0.1592219
0.13574947 0.21728836 0.5490587 0.09135897 0.225767 -0.10544138 0.062173944 0.21015154
0.27281815 0.17818539 0.02043671 0.25491634 0.13760017 0.017031942 0.14511392 0.029057413
0.1063725 0.09339333 0.1137735 0.058281437 0.16148627 0.24689981 0.27454793 0.17845815
0.023458526 0.24573973 -0.077021055 -0.033964723 0.25021145 0.16643704 0.00303012 0.24318455
0.3178579 0.04304034 0.12074921 -0.09077102 0.23491028 0.2607668 0.09313792 0.5702098
-0.14666156 -0.0724467 -0.04198946 0.18086044 0.15792628 -0.040176917 -0.049492914 -0.19465593
-0.2926062 0.02804848 0.0012264785 0.016589861 0.23998135 0.21615453 -0.16353446 -0.08827008
0.019608041 0.015046508 0.6213678 0.13922046 0.06074695 -0.018858984 0.60405207 0.0065412517
-0.053530034 0.08562471 0.05445134 0.14034626 0.040918857 0.034009084 0.052515812 -0.052395802
0.078933105 0.22645223 0.027409721 0.10576142 0.011613628 0.14059964 -0.04730439 0.041248973
0.055331763 0.08370241 0.16102305 0.10268315 -0.09692255 0.030323574 -0.012427536 0.07272426
0.13767174 0.16388027 0.057832256 0.08441378 -0.076454975 -0.0438602 0.13580756 0.108450554
0.070916586 0.04779893 0.11990834 0.5924829 -0.0071066166 0.12756976 0.21279854 0.8157816
0.050758597 0.12611198 0.23749743 0.82475734 -0.049982622 0.086008154 0.12557654 0.20794256
-0.025951918 0.052686777 0.52181476 -0.046028573 -0.08368907 -0.12823515 -0.15169407 0.0984496
-0.13856383 -0.011671041 -0.1763488 -0.085733585 0.04668794 -0.06626408 0.038979284 0.07203556
-0.019249732 0.07831117 -0.13997152 0.09826087 0.007557414 -0.52455723 0.009256392 0.06283061
-0.040550273 -0.47097173 -0.041654743 0.13500392 -0.09014705 -0.13257454 0.10470379 -0.15447676

RNN.weight_hh_l0 f4 [512, 128]
00000000: 0636 95be 18af 71be 6dc7 58be b7f8 0f3e
00000010: e317 ddbd d694 843e 6dce 69be 3e98 423b
00000020: 24d4 0bbe 592c cc3c d48a eebd cdc5 163d
00000030: 0928 ec3e 6a68 73be b1e5 a63d c6f7 5ebe
00000040: 1284 5abe a5a1 6a3e 2e87 983e 8c20 a4be
00000050: 8f13 0e3e 6ecc 07bd d682 e4bd 0877 8b3e
00000060: 22ba aa3c 7dd8 17be 7157 823e 20c6 22bd
00000070: 3a2b 833e ab95 98bd 850a dfbd 8953 01be
00000080: 2751 4d3e 3356 423e d2a6 abbe 9bee 1cbe
00000090: 5714 d63d 0374 02be 7e1a 083d 25b9 51be
000000a0: 957f d5bc fe5d 833e dc86 4bbe baf8 b2bd
000000b0: 5ed7 3e3e 8c76 ef3d 49a4 afbd 9bd0 4c3c
000000c0: c63d 693d 9329 663e 71dd 3ebe 4ecf d93e
000000d0: ea0e 79be 3417 59be 9830 8a3e 5ad6 38be
000000e0: 62c2 94be 3617 173d f30b 08bc 6622 1abe
000000f0: 156e 80bd 3eb4 bebd 2e18 f83c 561e 52bd
00000100: 5270 c73d 0c18 ddbd 5ed0 6dbe a105 a3bd
00000110: 6b32 b9bd a771 a4bd 16d5 883e a7bc f93d
00000120: a724 3dbe 92d8 303d 0136 3dbe a4b7 cebd
00000130: 52f0 4e3e 2e59 8abe bc7b 0bbe 807c 6dbd
00000140: b446 733e f711 e83c 642d 2cbe 8e3c c73d
00000150: 4a1b 833e ac49 e23d 6cd7 91be 59a8 77be
00000160: 4f88 29be 51bd 333e 20dd 0d3e bcb5 39be
00000170: b47c 7fbd 8e99 8fbe 7265 113e f8a5 723e
00000180: db36 9fbe da13 553d 3704 013e f11c e8bd
00000190: 754b 833e 8aff 883c 79b6 46be a44f 143e
000001a0: d613 8abd a6d6 373e 9795 67be 528a 1d3d
000001b0: c061 a8be e307 163e 9184 3c3e bf67 c83d
000001c0: 9026 41be e40d a43d 2f4c 09be 7455 743e
000001d0: ab30 a13d 09f6 e43d 6da2 f83e 627b b53d
000001e0: ba85 153e c743 dbbe 60f9 64bd 209f a9be
000001f0: d020 a4bd 4e08 5dbd 19ef cbbd f555 7dbe
00000200: 5298 6dbd 0c2f 8ebd 5f36 a0bc 9b19 443d
00000210: 6a0d 04be 594e 10be 7b09 d0bc 7aae 523b
00000220: b312 71bd e81c 443d 73ff acbc c2d6 f83d
00000230: 4eaf 3d3e 7952 95bd 7fe3 4cbd 4163 bdbd
00000240: 1824 4cbe 8c5f 743d 32db 513c 3e61 aabd
00000250: b5c1 d23b 8c26 2bbb 95ed e23c 68b3 973d
00000260: 2765 393d 4c9d 073d 65f2 503d 85d4 cdbb
00000270: 3102 1c3e e09e afbb 0944 e0bd 5e5d 173d
00000280: f637 a73d 13e3 3e3e 891c 64bd 87a6 b4bd
00000290: f963 243d 7504 4bbc 9c41 263e 128d a0bd
000002a0: 3f79 bd3d 6f41 cb3d 515a 23be c871 59bd
000002b0: 22c4 883d 32fd e0bd 0dc3 a53a f710 ccbc
000002c0: a0d3 e1bd 5045 1e3d 0fec cbbd bef8 0239
000002d0: 8cb9 f3bd afa8 90bd 0b66 493d 48bb eebd
000002e0: 5ce7 50be 50f9 d63d 83e6 083d efda f2bc
000002f0: 046a 153c b9d6 e2bd b438 923a 79e9 82bd
00000300: 8aa3 963d 0866 1dbd d0db f1bd 4aee d63c
00000310: f434 a0bc da44 a2bd 3d37 093e 0ece 033e
00000320: 4af8 d2bd 127d a63d 8467 7c3d 829c f2bb
00000330: 0f8b 8abd 84ea 9abd 28e7 cfbc 7fd6 d4bd
00000340: 0ad4 7bbb 0536 94bd 26db 39bd 9cc2 4c3c
00000350: 4d16 eabb 12f7 e63d c0cf cbbd d995 6cbd
00000360: ca54 903d 1cae e33d eea4 9d3d 247b d0bd
00000370: 1f70 10be a59a 29bd 931c 093e 2585 02bd
00000380: e24f 77bd f097 9b3d 6d1f 95bd d30b ccbb
00000390: d95a 243e 1f91 0bbe 06a9 28be e34c 5e3e
000003a0: 0460 833c 3b96 e73d bc5a 82bd 4b1e 133d
000003b0: f498 09be df94 193e c972 333e 64f3 a53c
000003c0: 77e5 08be 6f3c d33d e106 48be aa36 d4bc
000003d0: 4f81 d13d 8efd 8f3d 92a8 113e caa2 dd3d
000003e0: e178 163e 0590 51be b6cb 363c f56a dfbd
000003f0: 64be d4bd a01b c8bd ed68 603c 44b8 a3bd
-0.2914278 -0.23601949 -0.21169825 0.14059721 -0.10795572 0.25894803 -0.22832651 0.0029692794
-0.13655144 0.02492349 -0.11647573 0.03680973 0.46124294 -0.237703 0.08149279 -0.21774206
-0.21339443 0.22913225 0.29790634 -0.3205608 0.13874649 -0.033153944 -0.111577675 0.2723925
0.020840708 -0.14828677 0.25457337 -0.039739728 0.25618917 -0.07450422 -0.10890678 -0.12629522
0.20050488 0.18978195 -0.3352571 -0.15325396 0.10453098 -0.12739567 0.03322839 -0.20480783
-0.026061812 0.25657648 -0.19875664 -0.08738847 0.18636844 0.11692533 -0.08576257 0.012500907
0.056943677 0.22476797 -0.1863916 0.42540973 -0.24322096 -0.21200258 0.269902 -0.18050519
-0.29054552 0.03688737 -0.00830363 -0.15052184 -0.062709965 -0.09311722 0.030284967 -0.05129846
0.0973822 -0.10795602 -0.23224017 -0.07960058 -0.090428196 -0.0802949 0.26725072 0.12194186
-0.18471013 0.043175288 -0.18477632 -0.100936204 0.20208862 -0.27021164 -0.1362142 -0.05798006
0.2375744 0.028328879 -0.1681419 0.09728347 0.25606757 0.11049208 -0.28484666 -0.24185313
-0.16555904 0.17552687 0.13853884 -0.18135732 -0.062374786 -0.2804684 0.14198855 0.23696125
-0.3109654 0.052020885 0.12599264 -0.11333645 0.25643507 0.016723413 -0.19405545 0.14483505
-0.06742065 0.17952976 -0.22615658 0.03846199 -0.32887077 0.14651446 0.18409945 0.09785413
-0.18862367 0.08010462 -0.13407968 0.23860723 0.07870611 0.1117974 0.4856142 0.08861424
0.14601794 -0.42825148 -0.055901885 -0.33129215 -0.08014071 -0.053962998 -0.09957714 -0.24739821
-0.058006592 -0.06942567 -0.019557176 0.04787598 -0.12895742 -0.14092387 -0.025395146 0.0032147453
-0.058855724 0.04787913 -0.021117901 0.12150337 0.18523905 -0.07291121 -0.050021645 -0.09247447
-0.19935644 0.059661433 0.012808608 -0.08319329 0.006431783 -0.0026115505 0.027701179 0.07407266
0.045262482 0.033108994 0.051012415 -0.006281438 0.15235211 -0.0053595155 -0.10950477 0.036954276
0.081649706 0.1864131 -0.055691276 -0.08820825 0.040134404 -0.012391199 0.16235965 -0.07839407
0.092516415 0.0992459 -0.15952422 -0.053087026 0.06678034 -0.10985793 0.0012646631 -0.024910433
-0.110266924 0.03864032 -0.09957134 0.0001249043 -0.11900625 -0.07063424 0.04916958 -0.11656815
-0.20400757 0.10496771 0.033422958 -0.029645411 0.009119514 -0.11076111 0.0011155815 -0.063921876
0.07355411 -0.038427383 -0.11809504 0.026236672 -0.0195565 -0.07923289 0.13399978 0.12871572
-0.10301264 0.08129324 0.061622158 -0.007403911 -0.067648046 -0.075642616 -0.025378779 -0.103924744
-0.0038425946 -0.07236866 -0.04537501 0.01249757 -0.0071437717 0.11277594 -0.099517345 -0.057760093
0.07047422 0.11117193 0.076974735 -0.10179737 -0.14105271 -0.041407246 0.13389806 -0.031865258
-0.060378917 0.07597339 -0.072813846 -0.0062269955 0.1605028 -0.13629578 -0.16470727 0.21709017
0.016036995 0.11307951 -0.063649625 0.03591756 -0.13437253 0.14998196 0.17524256 0.02025766
-0.13368784 0.10314261 -0.19533874 -0.025904972 0.10229742 0.070307836 0.1422446 0.10822065
0.14694549 -0.20465095 0.011156967 -0.10909072 -0.10387877 -0.09770894 0.013696891 -0.0799413

RNN.bias_ih_l0 f4 [512]
00000000: 4ffe aa3e f524 303e 9621 f93d 65a2 ee3d
00000010: 305d 393d 4192 033d d245 913d 54e9 be3e
00000020: c309 b33e 08d6 a83e dc66 453e e10d e13c
00000030: ace1 0a3e 7cf6 ec3d 8086 ba3d 2fb4 1f3e
00000040: f6f3 973d 0b64 dcbd 6a60 773e 8593 543d
00000050: 394c 133e 3e41 ee3d 6609 133e f510 993c
00000060: a0f1 2e3e 8a70 c93d 94fb be3d 3fc2 643e
00000070: 98a2 c63d e04b dbbc 115c 1b3e 7819 603e
00000080: 82cf 543d b386 a73e 4e84 e8bc 3f57 62bb
00000090: cee4 2b3d 3635 cd3d 0796 9a3c 6960 1abd
000000a0: 6d11 513e dfe8 c63d 3d23 b23d a71b 6ebd
000000b0: 1a95 4a3e fad0 003f 2db3 223e de90 533d
000000c0: 2e77 da3e 6ef8 d53d e40c 90ba 4aad 763e
000000d0: 5a04 993d f0cb cf3d 759a 2b3d 5705 ad3c
000000e0: dcc3 553d 6854 8a3d 5006 3b3e 1862 2b3e
000000f0: a35d 2b3d 648e 2e3d dd2b 2c3e 3e50 b63e
00000100: d502 a6bd 94d8 cf3d c106 21bd 4d58 483e
00000110: d43e 563e 0e32 9a3d 7978 8a3e fb6c be3e
00000120: 23dd 1dbd 2186 d43d 8a71 8b3d a377 993e
00000130: 1267 ba3e 8004 a03c 5ffc 9a3e 9b5a a63d
00000140: 2306 dc3d f54b 8d3e 095b b33d 2705 4a3d
00000150: 97bb 913e 0e8a e83d 2015 c33e aec5 913d
00000160: 8cf1 fa3d 5d22 173e 654b 893d 0e70 773e
00000170: 6a60 703e 2033 033d 4d25 3abd b3ce 8c3e
00000180: 29e0 c93d 9da3 973d cc63 ff3d af2e a23d
00000190: 050c 5b3d 80ef 1e3d 908a ae3c c498 243e
000001a0: 52d5 2c3e 3064 b93e 3a8e 51bd 1a2d 833e
000001b0: 1e51 163e 339a 6dbd 0d52 083e 5106 33be
000001c0: b875 093d b064 14be 86dc 0c3d 1a8f 84bc
000001d0: 28ae 453e 9a17 ce3d c038 873d 7746 2e3e
000001e0: 64d6 573e 0795 8d3c fb87 8a3e d4ff 0c3d
000001f0: 1dde 743e 78bf ea3d 1562 073f 3c88 b53d
00000200: d878 cdbd 761c 533e 9f03 983d 3406 843d
00000210: 247a 97be 5d6b 1b3c 4be9 d63d f5ab e9bd
00000220: f4a3 19be 5f7a bcbe 686d 36be 2cfc 943d
00000230: b359 f23d e8d0 f63d 7623 a7bd 603b 8f3d
00000240: ac9c 7cbc 2311 a63c f0cb 6d3c 7a14 e43d
00000250: 367a f93d 2b61 283e 9d9d bc3d 8c79 0a3e
00000260: f098 d3bd cb71 42be 62e6 a53a 3e11 28be
00000270: 5ec9 63bd 6cb7 7d3c a5f6 d2bc 1d2b 053c
00000280: 0b1c 8e3d b66e c33c f717 6b3e fb9d 8fbd
00000290: 4ab1 c5bb d8ea 573d 41d9 06be 5f1a 18bd
000002a0: 20fe 3238 b1eb a3bc 868f a4bc 08e5 483e
000002b0: 3807 46be 850a 76bd f69b 07be 0681 19be
000002c0: e82c 40be cfcb 29bc 9ddb 0bbd 8d19 cc3d
000002d0: 4cb3 05be c741 103d f8c3 babc 812e 833d
000002e0: 8eac 083e 299e ad3c a9d7 a3be e22b 323d
000002f0: 937a f4bd b9c9 423e a788 01be f5d3 83bd
00000300: f8d7 b63c 157f 5dbe 6d7e ef3b f8c6 60be
00000310: 143c 0dbe a8cb 04be ee2c 39be 90e1 a7bd
00000320: 4d7d d63d 5a52 933b 38eb b3bd ffdf 62be
00000330: b3ea 3ebe 8e95 1ebd ca3d cbbc bd68 b1bd
00000340: 0e24 dabc 4815 22be 49e3 5a3e 1601 3fbd
00000350: 1c3a 903d 1415 22be 5202 c8bd 677e 203e
00000360: 0de3 3dbe 8043 ab38 75f3 193e 2b95 febd
00000370: e62b 87bd 1227 3b3e 636a 01bd d371 88be
00000380: c064 0c3e 869c fc3d 4c44 b1be 1382 fbbd
00000390: 52fc 213d ed35 07bd e197 acbd 5bb0 163d
000003a0: 683e f6bd cd36 57be 4d1b 0b3e 360a abbd
000003b0: baf1 a83d 573f b6bd bded ec3d 1ed0 8d3e
000003c0: 1d41 843d 1fa9 82bd fac8 ad3d 50a5 6ebd
000003d0: 5226 1cbe f48f 7c3d 7508 1d3e 7630 23be
000003e0: 8151 1cbe b942 f73d 4101 99be 0edc 893d
000003f0: cf33 9ebd b1aa 09be 8b10 3bbd b8f2 3cbd
0.33397147 0.17201598 0.12164609 0.11652068 0.045254886 0.0321219 0.07093395 0.3728739
0.34968385 0.32975793 0.19277519 0.027472438 0.1356265 0.11570451 0.09107685 0.15596078
0.07419579 -0.10761269 0.24157873 0.051898498 0.14384545 0.11633538 0.14359054 0.018684844
0.1708436 0.09835918 0.093253285 0.22339724 0.09698981 -0.026769578 0.1517184 0.21884716
0.051955707 0.32719955 -0.0283834 -0.0034536866 0.041966252 0.10019915 0.018870367 -0.0376896
0.20416804 0.097123854 0.086981274 -0.05813184 0.1978344 0.5031887 0.15888663 0.051651828
0.42669052 0.10447775 -0.001099017 0.24089542 0.07471533 0.1014632 0.04189535 0.02112071
0.05218874 0.067543805 0.18264127 0.16736639 0.041837346 0.042616263 0.16813608 0.35608095
-0.08106009 0.10148731 -0.03931308 0.19564934 0.20922405 0.075290784 0.27045038 0.3719252
-0.03854097 0.103771456 0.06808765 0.29974088 0.3640676 0.019533396 0.3027067 0.0812275
0.10743358 0.27597013 0.08757598 0.04932132 0.28463432 0.11354457 0.38102055 0.071177825
0.12253103 0.14759202 0.067038335 0.24163839 0.23474279 0.03203118 -0.04544573 0.2750145
0.09857208 0.07404254 0.124702066 0.079190604 0.05347826 0.038802624 0.021306306 0.160739
0.1687825 0.3620925 -0.05116103 0.25620347 0.14679381 -0.058008384 0.1331255 -0.17482878
0.03355953 -0.14491534 0.034389995 -0.016181517 0.19304717 0.100630954 0.06602621 0.17019068
0.21077877 0.017282976 0.2705687 0.034423664 0.23912854 0.11462301 0.52884036 0.08863875
-0.10032815 0.20616326 0.07422566 0.06446496 -0.29585373 0.009486047 0.10493716 -0.11409751
-0.1500395 -0.36812112 -0.17815173 0.072746605 0.11833515 0.120515645 -0.081610605 0.06993747
-0.015418213 0.020271843 0.0145139545 0.11136718 0.12181513 0.16443317 0.0920975 0.13522929
-0.10331905 -0.18988721 0.001265716 -0.16412827 -0.05561196 0.015485626 -0.025752375 0.008127955
0.069389425 0.023856502 0.2295836 -0.07012554 -0.0060330974 0.0527142 -0.13168813 -0.037134524
4.267518e-05 -0.020009847 -0.020087969 0.19618618 -0.19338691 -0.060068626 -0.13243088 -0.14990625
-0.1876713 -0.010363533 -0.034144986 0.09965811 -0.13056678 0.03521898 -0.022798523 0.06405354
0.13347074 0.02119358 -0.32000473 0.04349888 -0.11937442 0.19022264 -0.12649785 -0.06436912
0.022319779 -0.21630509 0.0073087723 -0.219509 -0.13792449 -0.12968314 -0.18083546 -0.081973195
0.10473118 0.004495901 -0.08785099 -0.2215576 -0.18644218 -0.038716845 -0.024809737 -0.08662555
-0.02662852 -0.1582843 0.21375765 -0.046631895 0.070423335 -0.15828353 -0.097660676 0.15673219
-0.18543644 8.166488e-05 0.15034278 -0.12430795 -0.0660017 0.18276623 -0.0315956 -0.2664934
0.13710308 0.12334542 -0.3462242 -0.12280669 0.039547272 -0.033010412 -0.08427406 0.03678928
-0.12023622 -0.21016999 0.13584633 -0.08351557 0.08249231 -0.088988 0.115687825 0.27697843
0.06457732 -0.063799135 0.08485599 -0.058263123 -0.15248993 0.061660722 0.15335257 -0.15936455
-0.15265466 0.12073273 -0.2988377 0.06731425 -0.077247255 -0.1344402 -0.045670073 -0.046129912

RNN.bias_hh_l0 f4 [512]
00000000: 96bf bc3e 2a73 4e3d 18a7 353d 1205 173e
00000010: eb89 1a3e bd1b 4d3d a198 ab3d d892 563e
00000020: 0a2c b03e 440d ce3e 6834 cc3c f1c4 62bc
00000030: 9295 493e 89b8 993d 1009 333e 6c91 b23d
00000040: de50 cb3d 4f1c 20be 2c5a 873e 1953 453d
00000050: 0ea4 b23d 3c82 633d 86d7 933d 97a1 6a3d
00000060: 36ed 413d d92b 313e a847 8c3d 7575 4d3e
00000070: d2e8 773d a582 ae3b ef48 7e3e 1a0c 533e
00000080: 4293 a73d 02b1 a83e 78a1 2d3d 27a3 aebc
00000090: d1e9 ab3c e9d9 8fbd 2fc7 813d 79de 283c
000000a0: c1b9 b53d 7504 193e c6f4 5b3e 7141 f4bd
000000b0: 4ebc 623e bb34 be3e 69fb 793e c98d 2a3d
000000c0: 00e0 073f aad1 1c3e 5a1f fcbc 5c6d 263e
000000d0: 3be9 8abd 9d55 e43d 7b59 e23d cb62 003e
000000e0: 4f6b 083e cae5 793d 3f48 8a3e 44cb 1a3e
000000f0: ba3c 313d 47dd 0b3e 4d79 793d 1d54 6c3e
00000100: d794 cbbd ddc7 433d 8b54 b8bd e4a6 433e
00000110: e51a 323e bbdb 4a3c d8fd 8b3e f0c5 973e
00000120: 454c d63c 06fe b73c fab8 b23c 66f7 d33e
00000130: a0c7 e23e 1473 babc 72ee a83e e34d 1a3e
00000140: 87a3 503e 0931 b83e 5d19 313e 2915 eebb
00000150: f545 c83e b2da 563e 3c13 b63e 310f 343e
00000160: 570c 543c f3ad 003e 6512 a63d a3a7 763e
00000170: dcac 143e f150 7a3d 48f6 76bd f843 983e
00000180: d47c 063d 888e 183d 28a4 473e c862 5d3e
00000190: 57fd ed3d 023a f13d 2b09 643c e6a0 0a3e
000001a0: 6a9f bb3d 1cf2 a13e 6b51 a83d 1a76 893e
000001b0: 9f45 223e 0cc9 d5bd a410 373e ba1a 67be
000001c0: fb8a 85bc e457 02be 66d2 9abc d851 393d
000001d0: 0591 fd3d 5cf1 723d 6a92 0e3e 5f38 663e
000001e0: 9602 553e 2540 203e 4707 413e 09ab 0e3e
000001f0: e0dc 523e 3512 f43d 1651 0f3f c30a 1e3d
00000200: cd07 0abe 856c 3d3d b98c ca3c 0d49 023e
00000210: 0267 5ebe eb20 423b 638c 9e3d 12aa 6cbe
00000220: cd3f eabd e58c bcbe 6bb5 5bbe fbf2 183d
00000230: a5b0 603d 27ab 933d 2b0c 09be ae96 933d
00000240: 5ed3 a6bd 5230 36bd 7c16 bbbd 77ce d739
00000250: b062 ae3d 0959 333e 4729 4a3d e6ff 2b3e
00000260: f41a 0e3d 70b9 1abe 9afb fb3c 6160 abbd
00000270: fb41 533d 3dda 1b3d dfdf 683c 9a83 debd
00000280: c6e6 8bbd 05a0 a2bd bda7 1e3e d5f3 fbba
00000290: b10c 6ebc 2f41 d83c a4d5 a9bd 011d 9ebd
000002a0: c3fa 2ebd 4d0a e1bc b4f2 1d3d 74bf 033e
000002b0: 7cfc 3ebe 3ddb 52bd 15a5 3bbe fd55 e3bd
000002c0: 55aa fcbc 627e 713c fcf0 15bd 5770 243e
000002d0: 40a2 e0bd a860 c93d b6ab f6bb 71bf 4bbd
000002e0: 4301 c13d 9b2b 34bd 4aed a4be f911 803d
000002f0: c55c bbbd f948 4a3e e77e 80be ac52 13bd
00000300: d14b b5bb a452 4ebe 64f3 9d3c 13c5 14be
00000310: 501a 7ebe 8a1b 15be 0e9e 79be 9a5c eebd
00000320: 84e7 d43d 416f 9b3b db98 e1bd 236e 6fbe
00000330: e4b0 44be b75c 86bd 30c9 aabd e049 08bd
00000340: c006 50bd f326 1ebe 8e9e 4b3e f333 54be
00000350: 1329 953d 334a 47be c15c e5bd c2e0 2e3e
00000360: bc32 08be b6d7 e43c 4be5 fe3d 3b9b 2cbc
00000370: bc16 27be 6a73 5e3d 98c2 ab3d a1c6 85be
00000380: b1a4 bb3d 2631 393e 63f9 3abe a142 40be
00000390: b32b f33d b863 e2bd 0621 46bd 627e f73b
000003a0: aa7b d5bd 8d30 ecbd 3308 2d3e 250d 973d
000003b0: e8c6 ed3d 9f2e 2dbe 5638 9ebc d052 393e
000003c0: 11bb d53d defc e43c fe79 023c db32 34bd
000003d0: d438 00be 10ed a5bc 13c8 6f3e 1426 2abe
000003e0: d099 afbd 7fd4 853d ac99 60be 26ad 1d3d
000003f0: 55ff 61be 18f0 55be fbcf 99bc c062 30bd
0.36864918 0.050402798 0.044348806 0.14748028 0.15091674 0.05007528 0.08378721 0.20954454
0.344086 0.40244496 0.024927333 -0.0138409 0.19685963 0.075059004 0.17483926 0.08719143
0.099275336 -0.15635799 0.26435983 0.04817495 0.08722697 0.055544123 0.07218842 0.05728301
0.047345363 0.17301883 0.06849605 0.20064338 0.06052477 0.0053256326 0.2483251 0.20610085
0.08182384 0.32947546 0.042390317 -0.021318031 0.020985516 -0.07023985 0.063368194 0.010306948
0.0887332 0.14943106 0.21480092 -0.119265445 0.22142145 0.37149605 0.24412312 0.041639123
0.5307617 0.15314355 -0.030776668 0.16252655 -0.067827664 0.11149142 0.11052223 0.12537687
0.13322185 0.06101016 0.27008244 0.15116602 0.043270804 0.1365863 0.060906697 0.23078962
-0.09940498 0.047798026 -0.090005 0.19106632 0.17393072 0.012381489 0.27342105 0.29643202
0.026159415 0.022459995 0.02181672 0.41399688 0.44292927 -0.022759952 0.3299442 0.15068774
0.2037488 0.3597491 0.17294832 -0.007265706 0.39115873 0.20981863 0.3556155 0.1758392
0.012942395 0.12566356 0.08108977 0.24087386 0.14519066 0.061112348 -0.060293466 0.29739356
0.03283389 0.037245303 0.19496214 0.21619713 0.11620586 0.11778642 0.013918201 0.1353794
0.09161265 0.31630027 0.08218654 0.26847917 0.15846871 -0.10438737 0.17877442 -0.22568789
-0.016301623 -0.1272884 -0.018899154 0.045244068 0.12381176 0.05931221 0.1392304 0.22482441
0.20801768 0.15649469 0.18850432 0.13932432 0.2059207 0.11917535 0.559831 0.038584482
-0.13479538 0.04624607 0.024725305 0.12723179 -0.21718982 0.0029621671 0.077416204 -0.23111752
-0.1143795 -0.36826244 -0.21455924 0.0373411 0.05485596 0.07210379 -0.13383548 0.07206474
-0.08145784 -0.044479676 -0.09135148 0.00041161824 0.08514917 0.17514433 0.04935577 0.16796836
0.034693673 -0.15109801 0.030759621 -0.08367992 0.051576596 0.038049925 0.014213531 -0.10864945
-0.06831126 -0.079406776 0.15493675 -0.0019222448 -0.014529393 0.02639827 -0.08292702 -0.07720376
-0.042719614 -0.027470732 0.038561538 0.12866002 -0.18651003 -0.051478613 -0.18324693 -0.11100385
-0.03084294 0.014739605 -0.036606774 0.16058479 -0.10968447 0.09832889 -0.0075277938 -0.04974312
0.09424069 -0.043986898 -0.32212287 0.06253428 -0.09148554 0.197544 -0.2509682 -0.035967514
-0.0055327197 -0.20148712 0.019281097 -0.14528303 -0.24814725 -0.14561287 -0.243767 -0.11638756
0.103957206 0.004743487 -0.11015483 -0.23381858 -0.19208103 -0.06560653 -0.08339155 -0.033273578
-0.050787687 -0.15444545 0.19884703 -0.20722942 0.07283225 -0.19461899 -0.11199332 0.17077926
-0.13300604 0.02793489 0.12446078 -0.010535057 -0.16317266 0.054309286 0.08386725 -0.26128104
0.09162272 0.18085155 -0.18259196 -0.18775417 0.11873569 -0.11054176 -0.048371337 0.007552908
-0.10423978 -0.11532698 0.16897659 0.07375554 0.11610204 -0.16912316 -0.019313972 0.18097997
0.10436071 0.027952608 0.0079636555 -0.043993812 -0.12521678 -0.020254642 0.23416166 -0.16616088
-0.08574259 0.06534671 -0.21933621 0.038495205 -0.22070058 -0.2089237 -0.01877593 -0.043062925

actor.weight f4 [5, 128]
00000000: eae6 883e fa90 e9bd b8c8 a33d 4e5d 1c3e
00000010: d4c3 90bd c595 86bd 3771 55be 6ce3 093e
00000020: be4a f43d f073 5fbd 8833 b23e bce9 14be
00000030: 4f5e 65be 2067 afbd c898 f4bd 33bd ad3d
00000040: 64f2 69be 4d88 c03d 9610 1abe 3f93 c73d
00000050: aa01 2a3e 997c d9bd b0e9 57be b894 98bd
00000060: 178a afbd eeb2 e0bc f70a abbd cb5b 6ebb
00000070: 7799 a53d 0b97 083e 8d0a e6bc 9356 9e3c
00000080: 8507 a13d 2489 653d 7a57 7aba 8453 e63d
00000090: c943 6a3e 75d9 7bbd 288a 97bd 8f39 46be
000000a0: 8536 a3bd e69f 27bd 7ac0 36be 9c85 13bd
000000b0: 6f60 11be 4b2a 4fbe 3e86 843e 2678 103e
000000c0: 470d e4bc 7350 483e 4f01 b63d 2fc4 49be
000000d0: 88da 033e 8c5e 1d3b 4eea 063f fa87 80be
000000e0: b6f5 40bd 0700 063e cc9a 193d 8836 cfbd
000000f0: 0758 d4be 55ee 79bd 35ab 4f3d 85ea bebd
00000100: fe62 223e 4e9c 0dbe c8b0 93be 224d f33d
00000110: d7d6 003d 0447 87bc 348e c43d d2b9 b5bc
00000120: 2b20 b9bd a6f6 6cbd 48ac 313d 1838 173d
00000130: d44d be3c 6c01 0fbe 0b96 9cbd c26b 333d
00000140: 6f69 e2bd 2a29 63ba e7ee 22be 9a43 9a3d
00000150: fc3e 093e 8aa6 d33c 9cd9 0bbe 8a5d 12be
00000160: e8af 70bd c416 223e df96 833e cefa 1b3e
00000170: 8839 a1bc 438d 4ebe f9d7 953d 1185 0d3d
00000180: b529 6ebe d15a 2a3e 7d17 a33c a287 51be
00000190: 17d1 8f3e 4cb0 e63c f44c 0abe 2d96 913e
000001a0: 68b0 a1bd 662e acbd d24e 6abe 945e 40be
000001b0: fcd2 763d 6cbd 833e b90b 423c c5a4 1b3e
000001c0: 8f4b b3be d1fa b0bd 77a9 38bd bbae 2ebd
000001d0: c83f 45bd 2a36 a33d fa46 91bd d6b7 973d
000001e0: fad3 823d ce65 d6bb 6318 0d3b 0bcf 39be
000001f0: 58e0 df3d 17c3 d6be fe06 143e 19c2 56be
00000200: 2475 a63e 7b9f 17be be19 c5bd 4066 f93c
00000210: fc08 3dbe bcf5 1f3e 7a88 e1be 4fe8 12be
00000220: 92a7 81be db9a cebe 8d6f bf3e 0462 0f3e
00000230: 2bac 533e 06cc 3cbe 3c41 0dbd 16e6 d6bd
00000240: 4f62 10be 28f0 14bd a647 42bc c13e e73b
00000250: cd45 7a3e 0ba7 e03d f479 0d3e 99b9 a83e
00000260: ed6b e63d f10c 56bd 05b1 203d 2e1d babe
00000270: 2fff 8a3e bda4 12bd 061d 36be ce86 19be
00000280: 3aa2 433e 12e7 5d3e 5027 06be 195c 70bc
00000290: 0398 423e d7db e0bd 3d2c 353d 39cd a1bc
000002a0: e53f 97bd 384c ef3d 0a95 dabd c3fa 78bd
000002b0: a99e 813d b38d debe 308e 9f3e f865 19be
000002c0: 7343 b4be 594c 843e d2ea 81bd e8f0 de3d
000002d0: 9b02 20bd 8b71 0cbe 3d30 7c3e 9a92 5bbd
000002e0: df1c 24bd 2a49 ddbd 20a7 b63e 529e 85be
000002f0: c97c 83be 09e1 64be 3c1e 8cbe 4468 74be
00000300: d321 b83e a3ab 7ebe 40f6 11be ab54 8c3e
00000310: 4e1f 3cbe d4fd 853e 87f8 66be a4ba 4e3e
00000320: bdbf 03be c181 493e 4652 63be 2152 ac3e
00000330: fc0f bdbe 8ad0 1ebe 037f d8be 5ab8 24be
00000340: 1793 8bbb 784a 90be 21ac 95be 6cf7 413e
00000350: 624f 9c3d 7eeb 67be 97ee 6ebe aa1d 29be
00000360: 083e 3fbe b6b7 413e 5314 8d3e 7e9f 543e
00000370: f745 68be 6a2e afbe 382a b53d ccf3 b9be
00000380: 6b63 10be d3ef 7fbe 6673 423e c4b9 8ebe
00000390: 4f79 053e d736 353e b9b0 e93d d499 6a3e
000003a0: 3e8b 3b3e 76f3 db3d ed11 06be 1cf3 67be
000003b0: ed34 3dbe 86e3 963c d9af 5a3d 0e1d 50be
000003c0: b531 fabd 715d 1fbd adc9 27be 5fb8 363e
000003d0: 2b97 183e a99c e23d e11a 3b3e 757e 5b3e
000003e0: 37fb 473e 75c9 08be 1380 22be 68eb e0be
000003f0: 3be5 6e3e ad6d a23e 0345 9a3e b506 1fbe
0.26738673 -0.11404605 0.079972684 0.15269968 -0.07068601 -0.06571535 -0.2084397 0.13465661
0.119283184 -0.054553926 0.3480494 -0.14542288 -0.22399257 -0.085645914 -0.11943203 0.084833525
-0.22846371 0.09400997 -0.1504539 0.09744882 0.16602197 -0.10619468 -0.21085238 -0.07450241
-0.085712604 -0.02742907 -0.08351701 -0.003637063 0.08085912 0.13338868 -0.028081203 0.019328391
0.07862762 0.05603899 -0.0009549778 0.11246398 0.2287742 -0.06148668 -0.07399398 -0.19357894
-0.07969383 -0.040923975 -0.17846861 -0.03601609 -0.14196943 -0.20230977 0.2588367 0.14108333
-0.027838362 0.19561939 0.08886968 -0.19703744 0.12876332 0.0024012653 0.5270127 -0.25103742
-0.04710933 0.13085948 0.03750114 -0.10117823 -0.4147341 -0.061018307 0.050700385 -0.09322075
0.15858075 -0.13829157 -0.2884581 0.11879946 0.031454887 -0.016513355 0.095974356 -0.022183333
-0.09039339 -0.05785241 0.04337719 0.03691873 0.02323047 -0.13965386 -0.07645806 0.043803938
-0.11055266 -0.0008665497 -0.15911447 0.07532425 0.13402933 0.025836248 -0.1365723 -0.14293495
-0.058761507 0.15828997 0.25701043 0.15232393 -0.019680753 -0.20171075 0.07316584 0.03455073
-0.23258097 0.16636206 0.019908661 -0.20461896 0.2808921 0.028160237 -0.13505918 0.28434888
-0.07894975 -0.08407287 -0.2288163 -0.18786079 0.060259804 0.25730455 0.011843615 0.15199573
-0.35018584 -0.086415894 -0.04508349 -0.042647105 -0.04815653 0.07969315 -0.07093616 0.07408111
0.063880876 -0.006542898 0.0021529428 -0.18145387 0.10931462 -0.41945717 0.14455792 -0.2097248
0.32511246 -0.1480693 -0.096240506 0.030444264 -0.18460459 0.15621084 -0.44049436 -0.14346431
-0.25323159 -0.4035252 0.37389794 0.14002234 0.20671146 -0.18437204 -0.03448604 -0.10493104
-0.14100002 -0.036361843 -0.011857903 0.0070570414 0.2444069 0.10969361 0.13816053 0.329541
0.11251054 -0.052258436 0.03923132 -0.36350387 0.27147815 -0.035801638 -0.17784509 -0.1499283
0.19104853 0.21670178 -0.13100934 -0.014670395 0.190033 -0.10979431 0.044231642 -0.019751178
-0.07385234 0.116844594 -0.10672958 -0.06078602 0.0632909 -0.43467483 0.31163168 -0.14980304
-0.3520771 0.258395 -0.063436165 0.10885793 -0.039064985 -0.13715188 0.24627776 -0.053606607
-0.040066596 -0.108049706 0.3567438 -0.2609735 -0.2568114 -0.22351469 -0.27366817 -0.23867899
0.35963306 -0.24870162 -0.14254093 0.27408347 -0.18371317 0.26170218 -0.22555743 0.20188385
-0.12866111 0.19678403 -0.22199354 0.3365641 -0.36926258 -0.15509239 -0.42284402 -0.1608595
-0.004259478 -0.28181815 -0.29232886 0.1894204 0.076323286 -0.22648427 -0.23333202 -0.16515222
-0.18676007 0.18917736 0.2755457 0.20763966 -0.2268294 -0.342151 0.08845943 -0.36318815
-0.14100425 -0.2499383 0.18989334 -0.27876103 0.13034557 0.17696701 0.1141066 0.22910243
0.18314835 0.10739796 -0.13092776 -0.22651333 -0.18477221 0.018419039 0.053390358 -0.20323583
-0.12216512 -0.038907472 -0.16385527 0.1784377 0.14901416 0.11065037 0.18271972 0.21434958
0.19529425 -0.133581 -0.15869169 -0.439296 0.23329632 0.317243 0.30130777 -0.15529902

actor.bias f4 [5]
00000000: ce36 68bd e083 003e 156a 343d 07bd 733d
00000010: efd9 903d
-0.05669289 0.12550306 0.04404648 0.059506442 0.070728175

critic.weight f4 [1, 128]
00000000: 67f8 b4bd 65a2 1bbe 325b f3bd 1456 fc3d
00000010: 1c1b f13d 6fb4 81bc 5a79 c13d 313c d3bd
00000020: 4dbe ec3d 108f a6bb 819b 92bc 8fb5 97bc
00000030: 5ae5 5a3e a3de c9bd 7ca8 f23b ea7d 35bc
00000040: 8ffc 0abd f4bd 2f3d 2a1f 8d3b dabf ddbc
00000050: 289d ff3d deaf 013e 0c90 8b3d 2289 ca3c
00000060: 322b 0b3c 3cc4 923d da2b a1bc f385 103d
00000070: 19bd 913d 9e3b e43b c22b d13d df2e a4bd
00000080: d99f 073e 3306 803d ed3e 8abc 21f7 06bc
00000090: 95ae 323c 2b3f 843c fc64 f7bd b7bc 823d
000000a0: 0876 cc3d 74be b23d e1d9 44be 5b83 82bb
000000b0: 2ae6 763d fcac df3d 6171 9e3c 0f96 abbb
000000c0: f979 173e 7dc6 323d bf58 b13c b484 ce3d
000000d0: 846a 6ebc 0668 07bd 2fef 3abd 11bd 493d
000000e0: d767 b9bc b33e 913c 5870 f63c 47dd 5cbd
000000f0: 50e8 453d 306f 00be 9213 7bbd b606 9d3d
00000100: d9c6 d1bc 4627 003e 9a23 e53d 5f68 e93d
00000110: 09ca 26bd 9aa1 c3bd 79a4 053d 3b31 973d
00000120: 0fb7 1e3d 8e63 78bb f4f0 d23d 1a5e a9bd
00000130: baf9 643e 929b f7bb 0e32 0fbd a2d3 6d3d
00000140: 8a6e 123e 1d4d 923d 5f15 5ebe d483 383c
00000150: 7c77 35bc 48fb 873c aede a9bd cd9d 0ebe
00000160: cb52 f03c 5527 14be 9072 42bd 2c01 98bc
00000170: c8b9 de3a 097d 26bd ce45 483b d9df 3a3d
00000180: a497 19be 0b38 e2bd 14c1 713d 2b63 ae3b
00000190: 9e2b 4bbd d8eb 31bc b208 2d3d cf6e a43d
000001a0: e359 4fbd 2be4 c83d adf1 9abc f40b 553d
000001b0: b047 30bd e244 c83c 8949 b8bd 1813 92be
000001c0: ca71 cebd ca64 ae3d 3c9d a63d 6922 2f3b
000001d0: c119 0cbd 8f8e 123e 5be2 2b3e eb60 79bc
000001e0: 54fa 203d d218 f8bd 24fc 6bbd f830 06be
000001f0: de3d 283d 39f1 b8bd 2a51 35be f22d 7b3d
-0.088364415 -0.15198667 -0.118826285 0.123211056 0.11772749 -0.015833108 0.09446974 -0.10314215
0.115597345 -0.0050829723 -0.017896416 -0.018519191 0.21376553 -0.09856918 0.007405339 -0.0110773835
-0.033932265 0.042905763 0.0043066936 -0.027069021 0.12481147 0.12664744 0.06814584 0.024723593
0.008494185 0.07166335 -0.01967423 0.035283994 0.07116146 0.0069651147 0.10213424 -0.080167525
0.13244571 0.062511824 -0.016875708 -0.008237631 0.010905881 0.016143402 -0.12079808 0.06383651
0.0998345 0.08727732 -0.19223739 -0.003982944 0.060278095 0.10921666 0.019341173 -0.0052363942
0.14792623 0.043646324 0.021648763 0.10083905 -0.0145517625 -0.03305819 -0.04563826 0.049252573
-0.022632523 0.017730093 0.030082867 -0.053921964 0.048317254 -0.12542415 -0.06129796 0.07667296
-0.025607513 0.12514982 0.11188431 0.1139686 -0.04072002 -0.095523074 0.032627556 0.07382437
0.038748797 -0.0037901136 0.102998644 -0.082699016 0.22360888 -0.007556387 -0.034959845 0.058063157
0.1429998 0.071436144 -0.2168784 0.011261899 -0.011075851 0.016599312 -0.08294426 -0.13927384
0.029336354 -0.14468129 -0.047472537 -0.018555246 0.0016992623 -0.040646587 0.0030559185 0.045623634
-0.14999253 -0.110458456 0.059022024 0.0053218803 -0.049602143 -0.010859452 0.04224462 0.080289476
-0.050622832 0.098091446 -0.018914068 0.052013353 -0.043037117 0.024446908 -0.08998401 -0.28530192
-0.10080297 0.08515318 0.08135459 0.002672339 -0.03420425 0.14312194 0.16785567 -0.015220861
0.03930123 -0.12114109 -0.057613507 -0.13104618 0.041074626 -0.090303846 -0.17706743 0.061323114
