OLD/Liu/cont/v_7/train_iter_65500.pt (torch, 990023 bytes, 9 tensors)

h0 f4 [128]
0.85823375 0.6496348 0.018940752 -0.782624 -0.41156858 0.1529681 -0.44778836 0.8675931
0.54944193 -0.11482997 -0.2657147 0.8258968 1.7700431 -0.68659204 -0.27556673 1.3134974
-0.89897704 1.5306858 -0.4775084 -0.9960243 -0.24577878 -0.6458845 0.8901225 -1.056985
0.002805582 0.0015538601 0.26065987 0.30349445 -0.44494638 -0.8001975 0.1907329 -1.0237155
1.3809685 0.32939237 2.0431664 0.64737445 0.96457773 -0.8370168 1.2154957 -0.012934648
0.7118018 -1.2236763 2.3221028 1.5052978 0.13505982 0.00024309638 -0.45819974 -1.0657244
-0.0031258697 -0.14766471 -0.32440898 -0.430624 0.78208226 2.1993494 -1.1995898 0.22001505
-0.42059326 0.064810686 -0.6247827 -1.4696012 0.8535188 2.45994 0.91159374 0.539148
1.005161 0.03163103 -1.1720952 0.038101025 0.04978479 -1.129858 0.3328576 0.34604794
1.2526305 -0.07767249 0.11260113 -1.6708281 0.74505377 -1.2301573 -0.68461156 -0.9568597
0.237698 -0.6730596 0.85476744 -0.5216356 -0.19557603 0.4658165 0.51179504 -0.02264203
-2.5733056 1.6241498 -0.10656133 -0.62953067 -1.7047974 -0.16544263 -0.92516714 -0.39591622
0.021979628 -0.30121168 1.0015564 -1.4920608 1.2446126 -0.11854148 0.56872255 1.7308724
-0.40810913 -0.33161646 1.496417 1.6722605 -0.40948305 -0.15709862 0.0034544182 -0.6061658
-0.8177164 -1.8852909 -1.4345833 0.5819333 -0.2358967 -1.1490401 0.008342812 -1.3558688
0.6982262 -0.816015 2.1357288 2.6448014 -0.37539926 0.10872591 -0.733576 0.09172066
00000000: 35b5 5b3f 774e 263f a329 9b3c 0c5a 48bf
00000010: 1eb9 d2be aba3 1c3e 8444 e5be 951a 5e3f
00000020: 3aa8 0c3f fa2b ebbd c20b 88be f96d 533f
00000030: c690 e23f 7fc4 2fbf 1517 8dbe af20 a83f
00000040: 5c23 66bf 83ed c33f fb7b f4be 73fb 7ebf
00000050: 6fad 7bbe b058 25bf 11df 633f 494b 87bf
00000060: dbdd 373b e5aa cb3a 3675 853e a063 9b3e
00000070: 03d0 e3be bed9 4cbf 7c4f 433e 1c09 83bf
00000080: 93c3 b03f 1ea6 a83e 3dc3 0240 55ba 253f
00000090: 91ee 763f bc46 56bf 5d95 9b3f d9eb 53bc
000000a0: a538 363f 6da1 9cbf 559d 1440 99ad c03f
000000b0: 1f4d 0a3e b0e7 7e39 2899 eabe a869 88bf
000000c0: 64db 4cbb 6b35 17be ef18 a6be c07a dcbe
000000d0: 8b36 483f 24c2 0c40 298c 99bf a04b 613e
000000e0: 0058 d7be 77bb 843d c2f1 1fbf e41b bcbf
000000f0: 3580 5a3f a86f 1d40 355e 693f 9a05 0a3f
00000100: 1ea9 803f 8a8f 013d 3707 96bf d20f 1c3d
00000110: 23eb 4b3d 309f 90bf 506c aa3e 322d b13e
00000120: 3256 a03f c112 9fbd 6c9b e63d b2dd d5bf
00000130: d8bb 3e3f cb75 9dbf b442 2fbf c2f4 74bf
00000140: 1b67 733e a24d 2cbf 0ad2 5a3f e989 05bf
00000150: 1545 48be 807f ee3e 0005 033f c77b b9bc
00000160: 0ab1 24c0 24e4 cf3f d43c dabd ec28 21bf
00000170: cd36 dabf cb69 29be c1d7 6cbf 88b5 cabe
00000180: 9f0e b43c 6b38 9abe 0033 803f d9fb bebf
00000190: 774f 9f3f e0c5 f2bd cd97 113f 3a8d dd3f
000001a0: aef3 d0be a2c9 a9be 988a bf3f a20c d63f
000001b0: c3a7 d1be 76de 20be 8563 623b af2d 1bbf
000001c0: dd55 51bf 3651 f1bf 6da0 b7bf 95f9 143f
000001d0: e88e 71be bf13 93bf 4ab0 083c 1c8d adbf
000001e0: f4be 323f 5ce6 50bf c8af 0840 6d44 2940
000001f0: 5534 c0be b1ab de3d a3cb 3bbf 0bd8 bb3d

c0 f4 [128]
0.8326694 0.30548468 -0.5768561 0.35929847 0.1565912 0.3951894 0.2526373 -0.57175505
-1.6468625 1.1709325 0.33400393 0.11778342 1.0444484 -1.2352865 0.549029 -0.027878527
-0.086944304 0.18689376 -1.1956563 0.048000306 -0.0532046 0.5789269 -0.84767586 0.5966999
0.12947911 -0.8230858 0.0023576824 1.0667769 -0.05445793 -2.0478647 -0.39537257 1.3450304
-1.2786028 0.24194576 -0.9078214 0.36818734 -2.2855744 -0.68110126 0.24504253 -0.60215133
-0.1291568 -1.5068103 1.9020578 -0.34773412 -1.5352097 0.9585889 1.0313284 -0.011718608
-0.024114368 0.34880802 0.89676064 -0.90302306 -0.25927615 0.90427625 0.041589826 -0.33798686
1.0046263 0.8986616 0.3507429 -0.34014142 -1.1363882 1.2747052 0.85935074 -0.98149335
-0.2555326 -1.0096037 -1.3309137 0.0780622 0.04253588 -0.719839 1.0191823 0.57203656
-0.36927867 -0.2430611 0.36218 0.98756236 1.35095 -0.4124391 0.039518055 -0.21682024
-0.4854098 -0.4440844 -0.012206473 2.25497 -0.4236641 1.609971 0.24138828 -0.20920534
-1.5557739 0.46942967 -0.9819819 1.9995277 1.6537993 0.2919906 0.16300265 1.6153224
-0.028479347 1.5634918 0.41391394 -0.89922756 -2.1685665 0.37315795 -1.0961171 0.45946342
0.5231646 0.8867757 -1.3293647 0.51590854 0.53341913 1.3234566 0.0042587915 0.13844256
1.4228469 0.9935774 -0.48967078 -1.0749813 0.9144728 1.3609431 1.8186553 -0.914826
0.7945152 1.092456 1.4599229 0.26264477 -1.3367989 1.0651153 -1.0163437 -0.86633897
00000000: d229 553f 7d68 9c3e d7ac 13bf f8f5 b73e
00000010: 7259 203e 4456 ca3e ad59 813e 8a5e 12bf
00000020: 64cc d2bf 1ee1 953f 9002 ab3e 6f38 f13d
00000030: 7cb0 853f de1d 9ebf 2a8d 0c3f 8261 e4bc
00000040: db0f b2bd 1461 3f3e 440b 99bf f89b 443d
00000050: 11ed 59bd 8e34 143f 4901 59bf 53c1 183f
00000060: 2c96 043e c0b5 52bf 5983 1a3b 258c 883f
00000070: 470f 5fbd 3710 03c0 466e cabe f529 ac3f
00000080: 42a9 a3bf a1c0 773e fc66 68bf 0d83 bc3e
00000090: da46 12c0 a75c 2ebf 6eec 7a3e 9726 1abf
000000a0: ae41 04be 29df c0bf a176 f33f 350a b2be
000000b0: c081 c4bf 1566 753f 9202 843f 68ff 3fbc
000000c0: 7f8b c5bc f796 b23e 1b92 653f 852c 67bf
000000d0: d8bf 84be a67e 673f 185a 2a3d 9d0c adbe
000000e0: 9897 803f b00e 663f 9394 b33e 0427 aebe
000000f0: 2b75 91bf 8a29 a33f 69fe 5b3f 2643 7bbf
00000100: 2bd5 82be b23a 81bf 615b aabf 13df 9f3d
00000110: 1a3a 2e3d 5e47 38bf 9174 823f fd70 123f
00000120: 1812 bdbe 02e5 78be a86f b93e e3d0 7c3f
00000130: eeeb ac3f 382b d3be afdd 213d 2006 5ebe
00000140: a287 f8be 085f e3be a9fd 47bc 6e51 1040
00000150: 80ea d8be 8813 ce3f 7d2e 773e ed39 56be
00000160: 9923 c7bf 1659 f03e 2a63 7bbf 86f0 ff3f
00000170: b2af d33f cb7f 953e 2bea 263e e2c2 ce3f
00000180: 854d e9bc 8020 c83f 87ec d33e c733 66bf
00000190: cbc9 0ac0 8f0e bf3e 914d 8cbf ca3e eb3e
000001a0: 1dee 053f bb03 633f 9f28 aabf 9512 043f
000001b0: 288e 083f 0767 a93f 558d 8b3b e3c3 0d3e
000001c0: d91f b63f 175b 7e3f 21b6 fabe fd98 89bf
000001d0: e41a 6a3f 6233 ae3f b2c9 e83f 0932 6abf
000001e0: 5965 4b3f 99d5 8b3f c1de ba3f 6079 863e
000001f0: 3a1c abbf b355 883f 8d17 82bf 64c8 5dbf

RNN.weight_ih_l0 f4 [512, 15]
0.21807955 -0.057253625 0.2430242 0.010861389 -0.017946139 -0.028002024 0.13808347 0.03343288
0.17813015 -0.07444227 0.08908918 0.09878927 0.10172162 0.08650745 0.30250934 -0.031465355
0.08582783 -0.03391645 0.03654708 0.037376143 -0.047617033 -0.09259074 -0.029595431 -0.044135988
0.030895365 0.0070626717 -0.021511849 -0.021384917 0.0068756132 -0.088050276 0.08553274 0.26708096
0.009691658 0.021379977 0.06621539 -0.13986209 0.23478876 0.04350158 0.17671362 0.03898217
0.002184511 0.18389665 0.08651314 -0.020974874 0.16687107 -0.024039576 0.13903491 0.069809504
0.06292034 -0.056109212 -0.114724904 0.06410575 -0.05578733 0.18069975 -0.23492926 0.044055358
0.14707702 -0.0027752065 -0.0023450055 -0.05094295 0.047764424 0.3808056 -0.012981922 -0.083729275
0.011052825 0.20335828 0.19101204 0.05654273 0.24670362 0.08352306 0.07911045 0.20282316
0.06638155 -0.03517169 0.2079849 -0.03421712 0.11432927 -0.019761773 -0.04129566 0.00013762712
0.1186341 -0.081859246 0.04671208 -0.13043243 0.044253834 -0.0065714223 0.034083176 0.05213591
0.050210737 0.10238722 -0.06872996 -0.038472265 0.17259234 -0.052449897 0.025659285 0.05406605
-0.09623116 -0.07202071 -0.06310677 0.17008221 -0.006612676 -0.006168573 -0.08991367 0.0074501387
-0.1288452 0.12733573 0.22159871 0.3242319 0.050346904 0.07704919 0.63551766 0.27596292
-0.087958016 0.2468282 0.4694881 -0.057200525 0.23971693 0.02014769 -0.013923071 0.24363616
0.05743886 0.1609769 0.08762547 0.007890418 -0.014871135 0.42790332 0.0175043 -0.01391422
-0.016804406 0.41981596 0.043017294 0.06957107 -0.03560779 0.07755384 -0.087779425 -0.19744676
1.6470358 -0.34399095 -0.052224003 0.006536007 0.23504269 -0.13150917 -0.036544055 0.09542882
0.7270763 -0.060952768 0.06529116 -0.07892505 0.005141222 0.22912249 -0.017752836 0.08260653
-0.069691606 0.050283946 -0.02584181 0.16633691 -0.015936488 -0.08737801 0.0033886244 -0.033287477
0.17839871 0.03149427 -0.006207386 -0.0032980982 -0.01127707 0.31809562 -0.77609897 0.3613309
-0.066732936 -0.047833014 0.120155506 0.23631315 0.05343368 0.15343349 0.1636312 -0.1284593
0.094102845 0.29402474 0.35684496 0.34502482 0.43751818 0.08221952 0.34422743 0.046777047
-0.07092293 -0.011928086 0.26860607 0.0055831373 0.22832796 -0.07374704 0.09655078 0.29102626
-0.031270273 -0.17798685 0.36175603 -0.040348187 -0.35633504 -0.33028454 -0.044955533 -0.06876513
0.4200967 0.10671817 0.054179497 -0.35802045 0.2974267 -0.08917485 -0.23576449 0.05835183
0.19601233 0.09010428 -0.10265707 0.26283985 0.102172986 -0.06983575 -0.018098205 -0.9345179
-0.08693797 -0.055716246 0.20356965 -0.61293674 -0.061576568 0.21369413 -0.033140652 -0.05033344
0.013424182 0.29266053 0.045342933 0.23098777 0.059068136 0.062293835 0.29165703 0.13238683
-0.023792572 0.08809209 0.21378696 -0.07840606 0.21823007 0.025078546 -0.06160088 0.27515265
0.010425751 -0.2119696 0.026861122 0.07884378 -0.047870368 -0.5062642 0.13208802 0.010782346
-0.14113261 -0.63529354 -0.00931119 -0.26189882 0.04313893 0.051852223 -0.17390014 0.105640836
00000000: 3f50 5f3e c782 6abd 56db 783e f8f3 313c
00000010: c803 93bc 8064 e5bc c165 0d3e eaf0 083d
00000020: c067 363e 3075 98bd 6374 b63d 0752 ca3d
00000030: 6d53 d03d d12a b13d 81e2 9a3e d1e1 00bd
00000040: 80c6 af3d faeb 0abd 64b2 153d ba17 193d
00000050: 140a 43bd 37a0 bdbd 1e72 f2bc f0c7 34bd
00000060: 4718 fd3c fc6d e73b 9e39 b0bc 6c2f afbc
00000070: d34c e13b b453 b4bd ca2b af3d d6be 883e
00000080: c3c9 1e3c 1025 af3c ef9b 873d 0238 0fbe
00000090: 776c 703e b62e 323d 6af4 343e c5ab 1f3d
000000a0: 032a 0f3b 674f 3c3e cd2d b13d 80d3 abbc
000000b0: 40e0 2a3e a5ee c4bc 2b5f 0e3e 49f8 8e3d
000000c0: 61dc 803d c6d2 65bd e4f4 eabd e049 833d
000000d0: 4181 64bd 5b09 393e 4c91 70be 6473 343d
000000e0: 5c9b 163e 3de0 35bb aaae 19bb 8ea9 50bd
000000f0: a1a4 433d f4f8 c23e 21b2 54bc 417a abbd
00000100: e816 353c 273d 503e a998 433e 5a99 673d
00000110: e09f 7c3e 230e ab3d a904 a23d e0b0 4f3e
00000120: 0df3 873d 3110 10bd fef9 543e 4027 0cbd
00000130: 7725 ea3d 71e3 a1bc a325 29bd 0050 1039
00000140: 6ff6 f23d d2a5 a7bd 2a55 3f3d 1490 05be
00000150: 8243 353d 1655 d7bb cd9a 0b3d 778c 553d
00000160: c6a9 4d3d 64b0 d13d 4bc2 8cbd 1895 1dbd
00000170: 0cbc 303e b4d5 56bd 6c33 d23c 5d74 5d3d
00000180: d814 c5bd 987f 93bd 1f3e 81bd 082a 2e3e
00000190: 26af d8bb be21 cabb a924 b8bd 4b20 f43b
000001a0: ffef 03be 4c64 023e c6ea 623e b901 a63e
000001b0: 8e38 4e3d f7cb 9d3d 49b1 223f 034b 8d3e
000001c0: 5523 b4bd 88c0 7c3e bf60 f03e 194b 6abd
000001d0: 5b78 753e c50c a53c 981d 64bc c27b 793e
000001e0: 0345 6b3d 21d7 243e fb74 b33d d046 013c
000001f0: 10a6 73bc 2516 db3e 2e65 8f3c 78f8 63bc
00000200: 65a9 89bc 1ef2 d63e e732 303d 477b 8e3d
00000210: 79d9 11bd 8cd4 9e3d b3c5 b3bd 7c2f 4abe
00000220: 12d2 d23f 951f b0be d6e8 55bd 002c d63b
00000230: 08af 703e 57aa 06be 38af 15bd 2f70 c33d
00000240: ac21 3a3f 9ca9 79bd 5fb7 853d 75a3 a1bd
00000250: b277 a83b 169f 6a3e 656e 91bc 9d2d a93d
00000260: 79ba 8ebd 8af6 4d3d 34b2 d3bc 3954 2a3e
00000270: 3d8d 82bc 3ef3 b2bd af13 5e3b 7358 08bd
00000280: 27ae 363e 2300 013d 5467 cbbb e824 58bb
00000290: 76c3 38bc 6edd a23e 6cae 46bf 5d00 b93e
000002a0: 47ab 88bd 8dec 43bd 1714 f63d 13fc 713e
000002b0: 46dd 5a3d ab1d 1d3e f08e 273e d68a 03be
000002c0: feb8 c03d 698a 963e 62b4 b63e 18a7 b03e
000002d0: 6202 e03e b562 a83d 943e b03e 4a99 3f3d
000002e0: 0b40 91bd 056e 43bc bc86 893e c0f2 b63b
000002f0: cece 693e b008 97bd 6abc c53d 6501 953e
00000300: 4215 00bd 2f42 36be 1638 b93e 2444 25bd
00000310: 8c71 b6be 0e1b a9be 4b23 38bd bcd4 8cbd
00000320: ea16 d73e 0e8f da3d 52eb 5d3d 754e b7be
00000330: 5048 983e 4ea1 b6bd 3f6c 71be 5402 6f3d
00000340: 75b7 483e 9888 b83d df3d d2bd f292 863e
00000350: 1240 d13d 0c06 8fbd b042 94bc 913c 6fbf
00000360: 890c b2bd b836 64bd 9074 503e 6ce9 1cbf
00000370: b637 7cbd a2d2 5a3e 7ebe 07bd 702a 4ebd
00000380: 1af1 5b3c 9ad7 953e 83b9 393d 0f88 6c3e
00000390: 6ef1 713d d227 7f3d 1254 953e 6a90 073e
000003a0: a4e8 c2bc a069 b43d f8ea 5a3e 5b93 a0bd
000003b0: b477 5f3e 8671 cd3c 3451 7cbd cfe0 8c3e
000003c0: c5d0 2a3c 8f0e 59be db0b dc3c d978 a13d
000003d0: b813 44bd 889a 01bf 1542 073e 70a8 303c
000003e0: 1185 10be 99a2 22bf f68d 18bc 9a17 86be
000003f0: 72b2 303d ff62 543d e112 32be 395a d83d

RNN.weight_hh_l0 f4 [512, 128]
0.27637962 0.18086572 -0.13079792 -0.085796826 -0.20857221 0.10635025 -0.14688326 0.0020500913
0.069375224 -0.13795403 0.15430893 0.021281604 0.2303405 -0.29096243 0.06826842 -0.08377287
-0.013935082 0.07350611 -0.028585382 -0.069785796 -0.009077289 0.11929804 -0.06645535 -0.1376731
0.013324601 -0.14777982 -0.1371231 -0.17850785 -0.24230877 -0.22664312 0.06330686 0.023864953
0.0204533 0.1764198 0.1081699 -0.16015851 0.11419843 0.021189941 0.11257499 -0.0040304447
0.15580359 -0.06896926 0.05008517 0.0320377 -0.038401097 -0.13880388 0.07276657 -0.12708245
-0.03777884 -0.0997132 0.016465163 -0.098233216 0.31289962 0.05334641 -0.05634548 -0.029360535
0.099172786 -0.059162684 0.04089431 -0.24240626 -0.041031774 0.31119677 0.22419648 0.068385266
0.09292427 0.07679397 0.022302851 -0.00089283177 -0.13494572 -0.098382846 0.08156239 -0.035385303
0.14139901 0.22928753 0.15836598 -0.09056147 0.15161207 -0.15903094 0.022915795 -0.09820732
-0.027462343 -0.27687353 -0.096152894 -0.15748663 0.1006934 0.27937979 -0.018715605 -0.10668314
-0.3266011 0.2470583 -0.0943846 0.116313085 -0.06632618 -0.13366516 -0.05702986 0.03834741
-0.10005716 -0.08759022 0.08359827 -0.16217433 0.103809714 0.053444248 0.16114466 0.050683625
-0.16472985 0.010986196 -0.08569065 0.3019732 -0.19289051 0.07958536 -0.00016695818 0.021397052
0.017517297 0.030219212 -0.29924616 0.039462283 -0.027935911 0.060455333 0.19169806 -0.062530905
-0.16412239 -0.020331334 0.23145008 -0.03391828 -0.026017072 0.22028522 -0.09322177 -0.06401534
-0.11930506 -0.0934551 0.22712377 0.09757358 0.046944104 -0.2830226 -0.14273348 -0.06858763
-0.12594607 0.041306034 -0.4276615 -0.05977328 -0.085987575 -0.12782604 0.14883916 -0.067915775
0.028399067 0.020021696 0.0464518 -0.012379445 -0.048505712 0.094068766 -0.009445801 0.06751841
-0.16574608 -0.03226771 0.016598972 -0.06345531 0.012288015 0.34491944 -0.15658925 -0.050699737
-0.046549827 -0.08251166 -0.108855754 -0.042218484 -0.12888624 -0.032444905 -0.031589463 0.018840026
-0.030206721 -0.009341968 -0.10553469 -0.005451067 0.0053189 0.04024953 0.07040561 0.03400121
-0.1456703 0.1819383 0.080927916 0.033636793 0.022937555 -0.09866764 0.05005588 0.07450521
0.113724254 -0.10694605 -0.007854349 -0.024913331 0.095850974 0.006074514 0.020587584 0.026137447
0.14982277 -0.075160965 -0.08051576 -0.08313053 0.094546124 -0.097487904 -0.18152387 0.0069481414
0.026577894 -0.093573436 -0.003860973 0.12171626 0.06784003 -0.044490103 0.09129691 0.13763887
0.13754143 0.39478886 0.032505676 0.06475369 0.034600385 -0.056685235 -0.054213896 0.24466155
0.4144283 -0.20230037 -0.037196714 -0.04276924 0.06083439 -0.028377486 0.025158057 -0.3874719
-0.057114452 0.006743832 0.17509048 0.10061825 0.051410414 -0.10326468 -0.18422893 -0.00832651
-0.019607367 0.057552252 0.038961798 -0.061270148 0.10509514 0.15698396 -0.18481366 0.0014990825
-0.051639326 0.089271784 -0.018776728 -0.1375728 0.049700286 -0.0007057184 0.025387745 0.16452175
0.08201234 -0.12700324 -0.039040435 -0.033102468 0.12300071 -0.24096507 0.056208253 0.031038865
00000000: a181 8d3e dd34 393e e4ef 05be 3fb6 afbd
00000010: f493 55be 29ce d93d 9168 16be d35a 063b
00000020: 9914 8e3d d243 0dbe 2903 1e3e c256 ae3c
00000030: 61de 6b3e 07f9 94be 50d0 8b3d 1c91 abbd
00000040: f84f 64bc 5f8a 963d e42b eabc dbeb 8ebd
00000050: e9b8 14bc 8852 f43d be19 88bd 2dfa 0cbe
00000060: 6d4f 5a3c 9853 17be ff69 0cbe c3ca 36be
00000070: ca1f 78be 2215 68be 07a7 813d 6f80 c33c
00000080: ae8d a73c 64a7 343e 2e88 dd3d 9800 24be
00000090: dee0 e93d 8796 ad3c b78d e63d d211 84bb
000000a0: fa8a 1f3e c13f 8dbd 1b26 4d3d f739 033d
000000b0: 784a 1dbd 9b22 0ebe a406 953d e721 02be
000000c0: fcbd 1abd 6f36 ccbd f3e1 863c 7f2e c9bd
000000d0: 6134 a03e c481 5a3d 85ca 66bd 8185 f0bc
000000e0: 1a1b cb3d 9254 72bd cb80 273d 5939 78be
000000f0: ef10 28bd 2f55 9f3e c393 653e 930d 8c3d
00000100: 144f be3d 2846 9d3d 78b4 b63c ed0c 6aba
00000110: 362f 0abe f27c c9bd 2f0a a73d 2ef0 10bd
00000120: e7ca 103e 5aca 6a3e b12a 223e 4b78 b9bd
00000130: 3240 1b3e 02d9 22be e8b9 bb3c eb20 c9bd
00000140: b5f8 e0bc 5ec2 8dbe cfeb c4bd 2d44 21be
00000150: 5738 ce3d de0a 8f3e 7851 99bc b17c dabd
00000160: 4238 a7be dafc 7c3e b74c c1bd 8e35 ee3d
00000170: 05d6 87bd 85df 08be 2498 69bd 2c12 1d3d
00000180: c5ea ccbd 8062 b3bd 9235 ab3d 0711 26be
00000190: 309a d43d 5be8 5a3d 1b03 253e a299 4f3d
000001a0: f1ae 28be 72ff 333c 947e afbd 3b9c 9a3e
000001b0: 1785 45be a6fd a23d 7f11 2fb9 df48 af3c
000001c0: 6f80 8f3c 488e f73c cb36 99be 34a3 213d
000001d0: dad9 e4bc 03a0 773d 7f4c 443e 3410 80bd
000001e0: b30f 28be e68d a6bc 4001 6d3e e5ed 0abd
000001f0: c121 d5bc 7392 613e 0eeb bebd 791a 83bd
00000200: 3656 f4bd 6365 bfbd 2293 683e a8d4 c73d
00000210: 7648 403d 57e8 90be ba28 12be ac77 8cbd
00000220: 02f8 00be 8430 293d 73f6 dabe d4d4 74bd
00000230: 411a b0bd d4e4 02be 4b69 183e 6d17 8bbd
00000240: 29a5 e83c 8a04 a43c 3e44 3e3d 28d3 4abc
00000250: edad 46bd 20a7 c03d 90c2 1abc 1847 8a3d
00000260: 57b9 29be 252b 04bd 91fa 873c dcf4 81bd
00000270: ac53 493c 4899 b03e ef58 20be 87aa 4fbd
00000280: 08ab 3ebd e0fb a8bd c4ef debd 4aed 2cbd
00000290: c1fa 03be f3e4 04bd f463 01bd 6656 9a3c
000002a0: 1674 f7bc 0e0f 19bc 9222 d8bd dd9e b2bb
000002b0: 2b4a ae3b b1dc 243d d130 903d da44 0b3d
000002c0: 982a 15be 094e 3a3e 89bd a53d bcc6 093d
000002d0: 8ae7 bb3c 4212 cabd 6507 4d3d 3096 983d
000002e0: 43e8 e83d 8806 dbbd 87af 00bc 0b17 ccbc
000002f0: 844d c43d b70c c73b 4ba7 a83c 331e d63c
00000300: 246b 193e feed 99bd 72e5 a4bd 5740 aabd
00000310: 66a1 c13d bda7 c7bd 65e1 39be 3cad e33b
00000320: e2b9 d93c 6ea3 bfbd 6108 7dbb 6046 f93d
00000330: b7ef 8a3d 413b 36bd e0f9 ba3d 34f1 0c3e
00000340: a9d7 0c3e c421 ca3e ac24 053d 959d 843d
00000350: 22b9 0d3d c72e 68bd 640f 5ebd 8f88 7a3e
00000360: f22f d43e d427 4fbe 955b 18bd cc2e 2fbd
00000370: 7b2d 793d e777 e8bc 4518 ce3c b862 c6be
00000380: d8f0 69bd 5dfb dc3b eb4a 333e f110 ce3d
00000390: ba93 523d 6f7c d3bd 82a6 3cbe ea6b 08bc
000003a0: a19f a0bc e9bb 6b3d 6896 1f3d 68f6 7abd
000003b0: 1f3c d73d 67c0 203e cb3f 3dbe dd7c c43a
000003c0: c283 53bd 20d4 b63d a7d1 99bc e2df 0cbe
000003d0: 8792 4b3d f6ff 38ba f6f9 cf3c 6478 283e
000003e0: 16f6 a73d 230d 02be dde8 1fbd 7496 07bd
000003f0: cce7 fb3d 8cbf 76be a03a 663d 3845 fe3c

RNN.bias_ih_l0 f4 [512]
0.29697967 -0.19148122 0.19307992 0.1606704 0.1990491 -0.0882488 -0.18449505 0.29524922
-0.05147661 0.12976126 -0.12335662 0.17766075 0.9486515 -0.060546387 0.034124225 0.30272052
-0.0889332 0.043036096 0.85505235 -0.16085312 0.14330852 0.041334387 -0.1677334 0.12082213
-0.2632976 0.27306262 0.06740003 0.2465917 0.098594755 -0.24985904 -0.08612044 0.06740787
0.15481927 -0.045072876 0.03345784 -0.1733674 -0.105391994 -0.050733708 0.116744645 -0.0436734
0.20531803 -0.14434047 0.033584673 0.06938153 -0.27310804 -0.27377823 -0.08658778 0.07326283
-0.21272111 0.09931283 0.020895468 0.10506866 0.199329 0.43056142 -0.21072076 -0.21329063
-0.011158209 0.05966263 0.41639104 -0.22720553 -0.021995647 0.23877981 0.009884603 -0.07870433
-0.23166193 -0.108160846 0.3302445 -0.035077594 -0.25053364 -0.23360677 -0.23167007 -0.18000205
0.37921596 0.30615288 0.24725577 0.09884252 0.58889294 -0.001423914 0.24979891 -0.24083889
-0.15624966 -0.12058556 0.37566048 -0.21006387 0.17716329 0.13415249 0.0696935 0.07089108
-0.11699052 0.12322343 0.11512966 -0.10476095 -0.36925492 -0.057407476 0.27168617 0.16809846
0.37604576 0.15777503 -0.17479098 0.070636995 0.31619668 0.27410004 -0.08143076 0.26052588
0.24393134 0.27006775 0.20957589 0.24697086 0.11395051 -0.09309689 -0.08425647 0.54107827
0.11162738 0.017490294 0.23293501 0.055420246 0.012070162 -0.17092796 0.13733491 -0.16693503
-0.064656585 -0.031252276 -0.018733671 -0.042081207 -0.033415735 0.10981768 -0.045767445 -0.14105771
0.35245386 -0.078625396 0.12798628 -0.34507728 0.19348505 0.11262122 -0.025446571 0.20924442
-0.07439913 -0.13179469 0.10433375 -0.19768701 -0.7877558 -0.071481556 0.27361345 0.21439931
-0.21048105 0.10737081 -0.75385404 -0.1941445 -0.36818436 -0.3145596 0.25849327 0.1700934
-0.02319567 0.27766556 0.10600947 0.12837107 0.0021468045 0.22265418 -0.077839896 -0.47094056
-0.13287805 0.029097382 0.049870234 -0.265952 0.16645782 0.01659386 -0.099621266 -0.35139877
-0.5174549 -0.11802394 -0.35371634 0.08372457 0.17326777 -0.031036593 -0.20475715 0.104217
-0.051781744 -0.22259764 -0.010133369 0.21007483 0.08630055 -0.17784992 -0.39931038 -0.1187423
-0.29342055 -0.27469423 -0.23383293 0.2063535 -0.2488058 0.21295516 -0.026343135 0.044776622
0.14678195 0.047411278 0.1020976 -0.16110022 0.109045185 0.019408744 0.13142036 0.008704659
-0.34376293 0.15960816 -0.23637539 -0.2609677 -0.12344097 0.19528514 0.2605763 -0.27457425
0.1283439 0.07759559 0.19180392 0.11031408 0.18823534 0.29372573 -0.13903685 0.04684242
0.07318569 -0.039618738 0.26878622 -0.14242548 -0.06250199 -0.027902799 -0.417774 0.18036409
-0.09414023 -0.20340492 -0.04956936 0.0041044015 -0.56086177 0.03278619 -0.18655263 -0.56296915
0.20185795 -0.61003083 0.21649095 0.18777768 0.058537986 0.12814169 -0.09577299 -0.2817624
0.12954557 0.24003603 0.08015172 0.037261333 0.030043278 -0.026248632 0.020040574 0.22155933
0.045678414 -0.023985498 0.17796241 -0.108786985 -0.00047305907 0.046613827 -0.116850086 0.13356784
00000000: b80d 983e a713 44be beb6 453e c886 243e
00000010: 87d3 4b3e c9bb b4bd 45ec 3cbe e82a 973e
00000020: 23d9 52bd 23e0 043e 65a2 fcbd b3ec 353e
00000030: d3da 723f 7dff 77bd d8c5 0b3d 2ffe 9a3e
00000040: 9c22 b6bd 9e46 303d b6e4 5a3f aeb6 24be
00000050: 78bf 123e 3f4e 293d 4ec2 2bbe 9871 f73d
00000060: f1ce 86be ddce 8b3e 0709 8a3d 8982 7c3e
00000070: 0cec c93d 0cdb 7fbe ea5f b0bd 230d 8a3d
00000080: f188 1e3e 569e 38bd 170b 093d 3987 31be
00000090: c2d7 d7bd 26ce 4fbd d117 ef3d e1e2 32bd
000000a0: e43e 523e fdcd 13be 1590 093d e717 8e3d
000000b0: d1d4 8bbe a92c 8cbe ef54 b1bd d30a 963d
000000c0: 90d3 59be 8664 cb3d f92c ab3c 3d2e d73d
000000d0: e71c 4c3e 8c72 dc3e 2fc7 57be dc68 5abe
000000e0: ecd0 36bc cd60 743d 3531 d53e 91a8 68be
000000f0: 3730 b4bc b282 743e 08f3 213c bc2f a1bd
00000100: c938 6dbe 6f83 ddbd cf15 a93e 86ad 0fbd
00000110: f245 80be 9d36 6fbe eb3a 6dbe 7552 38be
00000120: 9828 c23e 12c0 9c3e 9e30 7d3e f26d ca3d
00000130: b0c1 163f a0a2 baba 49cb 7f3e 789e 76be
00000140: e9ff 1fbe 90f5 f6bd 9256 c03e fc1a 57be
00000150: 4b6a 353e 455f 093e 77bb 8e3d 582f 913d
00000160: ba98 efbd 915c fc3d 19c9 eb3d e98c d6bd
00000170: fb0e bdbe 1a24 6bbd 731a 8b3e 0122 2c3e
00000180: 1289 c03e c78f 213e 68fc 32be 21aa 903d
00000190: 88e4 a13e d756 8c3e 2cc5 a6bd a663 853e
000001a0: 23c9 793e 5246 8a3e 109b 563e eee5 7c3e
000001b0: e35e e93d 95a9 bebd a88e acbd 1b84 0a3f
000001c0: e59c e43d ce47 8f3c 8486 6e3e 5700 633d
000001d0: eec1 453c bd07 2fbe 86a1 0c3e 04f1 2abe
000001e0: ac6a 84bd 6302 00bd 5b77 99bc 585d 2cbd
000001f0: f0de 08bd 18e8 e03d a576 3bbd 6f71 10be
00000200: d574 b43e 5a06 a1bd d60e 033e f8ad b0be
00000210: f220 463e f4a5 e63d 5475 d0bc 2b44 563e
00000220: 925e 98bd 30f5 06be efac d53d 776e 4abe
00000230: 5daa 49bf ec64 92bd 1017 8c3e 7e8b 5b3e
00000240: 5888 57be 3ae5 db3d 94fc 40bf d1cd 46be
00000250: a982 bcbe f50d a1be 3b59 843e f72c 2e3e
00000260: d904 bebc 2e2a 8e3e 7e1b d93d b573 033e
00000270: 67b1 0c3b 75ff 633e 866a 9fbd 1f1f f1be
00000280: 2f11 08be a25d ee3c bb44 4c3d dc2a 88be
00000290: eb73 2a3e d9ef 873c 3c06 ccbd 8aea b3be
000002a0: ed77 04bf 89b6 f1bd 4f1a b5be ca77 ab3d
000002b0: 1b6d 313e 7440 febc dcab 51be b96f d53d
000002c0: 1819 54bd a3f0 63be 6e06 26bc db1d 573e
000002d0: 58be b03d 4a1e 36be 6972 ccbe 2a2f f3bd
000002e0: 383b 96be b9a4 8cbe e671 6fbe 554e 533e
000002f0: f3c6 7ebe eb10 5a3e 8fcd d7bc b167 373d
00000300: 024e 163e 5432 423d 8c18 d13d 75f7 24be
00000310: 1553 df3d 16ff 9e3c 0f93 063e fc9d 0e3c
00000320: b201 b0be 5270 233e 640c 72be 8f9d 85be
00000330: 9fce fcbd d4f8 473e 426a 853e ff94 8cbe
00000340: 956c 033e 70ea 9e3d 3f68 443e 59ec e13d
00000350: c4c0 403e 3863 963e ad5f 0ebe d6dd 3f3d
00000360: 61e2 953d 4247 22bd 599e 893e fcd7 11be
00000370: 0b01 80bd 6994 e4bc 79e6 d5be 5db1 383e
00000380: 98cc c0bd 6149 50be 3e09 4bbd 377e 863b
00000390: a394 0fbf d04a 063d a707 3fbe bf1e 10bf
000003a0: dab3 4e3e fb2a 1cbf ceaf 5d3e cb48 403e
000003b0: 87c5 6f3d 9337 033e a124 c4bd 2943 90be
000003c0: 98a7 043e 01cc 753e 9626 a43d 579f 183d
000003d0: 521d f63c 5f07 d7bc 212c a43c 73e0 623e
000003e0: 4a19 3b3d 3c7d c4bc c73b 363e b6cb debd
000003f0: ea04 f8b9 24ee 3e3d 194f efbd 02c6 083e

RNN.bias_hh_l0 f4 [512]
0.13440852 -0.10031775 0.13338351 0.17753774 0.279649 -0.05233114 -0.059758343 0.19460219
0.00619099 0.2625208 -0.021972036 0.17203283 1.048032 0.065055065 0.1301013 0.18142018
0.04326449 0.0951294 0.7593523 -0.16854002 0.10658488 -0.03594002 -0.14645489 0.04537639
-0.118602976 0.24774198 0.1120446 0.20328158 0.029830521 -0.20122886 -0.021362204 0.057872854
0.14720932 0.08449847 0.009658357 -0.08402431 -0.13344525 -0.12705919 0.18004386 -0.04826047
0.2368809 -0.29407966 -0.07855088 -0.050473638 -0.21188904 -0.3604218 -0.06661394 0.18380693
-0.27073258 0.14672416 -0.069634125 0.09625355 0.35797957 0.4143271 -0.22934906 -0.21837193
0.09976088 -0.041316085 0.2717375 -0.21097024 0.018569624 0.15545171 0.124086 0.0018776373
-0.23851053 -0.06910109 0.35166782 -0.12290535 -0.31081465 -0.19670753 -0.16824456 -0.14131564
0.23978788 0.2447719 0.19154844 0.073894754 0.57473445 -0.15148376 0.34461993 -0.30763552
-0.11590561 -0.06591969 0.29002362 -0.0762137 0.10578005 0.21758923 0.22235444 0.08875304
-0.04856791 0.0024814273 0.13447697 0.03714597 -0.3614619 -0.045301292 0.31833977 0.0689907
0.3080408 0.120966956 -0.096546255 -0.05416886 0.44877553 0.31603295 -0.03367559 0.3043127
0.27080905 0.19757739 0.13094118 0.32594734 0.10182693 -0.13268524 -0.07371196 0.5229909
0.2222163 -0.060258158 0.08626965 0.020150961 0.05997689 -0.23231085 0.047963034 -0.099504374
-0.08859799 -0.11497811 -0.12629138 -0.000498409 -0.13271704 0.09379323 -0.098525286 -0.13412349
0.3008136 -0.067202844 0.020181341 -0.26597705 0.1938084 0.13404134 -0.14443201 0.2114246
-0.07857711 -0.17932488 0.099843174 -0.2035288 -0.8301864 -0.17873849 0.35510588 0.18706419
-0.28556848 0.09957105 -0.75154954 -0.09945539 -0.40855247 -0.38833803 0.19932379 0.13898964
-0.06946236 0.2162676 0.026795875 0.20167275 -0.0023514484 0.17691897 0.014179861 -0.47577727
-0.17871484 0.124365985 0.14276244 -0.22925779 0.23534863 0.07761748 0.008234844 -0.37979463
-0.46540585 -0.119573705 -0.39480224 0.12044425 0.108837664 -0.049315922 -0.07768921 0.07188522
-0.17492485 -0.22986686 -0.029169124 0.20281377 0.12549895 -0.21085384 -0.34893265 -0.1094434
-0.2449295 -0.20781392 -0.13453704 0.19635673 -0.1723725 0.25325996 -0.033557467 -0.053302612
0.16463655 0.00797061 0.23975 -0.12062034 0.124755286 0.07972876 0.12844834 -0.0011138798
-0.45625114 0.18835801 -0.3456209 -0.25246707 -0.13682607 0.11595812 0.17290409 -0.26822022
0.14147927 0.13925396 0.28036395 0.06445637 0.23067704 0.30663717 -0.13249694 0.06373619
0.10372956 -0.114848055 0.2546649 -0.13597733 -0.07940504 -0.090491384 -0.35812524 0.1939588
0.04134861 -0.1842484 0.015215528 -0.13630643 -0.6175616 -0.13943976 -0.08832971 -0.61147606
0.21272759 -0.54645497 0.28361377 0.2069329 0.016579608 0.16983385 -0.15616968 -0.28655675
0.17705019 0.16539754 0.110358775 0.049683616 0.11797741 -0.16623732 0.106726564 0.17283757
0.057288386 -0.06079627 0.086209744 -0.14795293 -0.010493588 0.12503786 -0.045421634 0.10396543
00000000: 63a2 093e 6473 cdbd b095 083e 74cc 353e
00000010: 272e 8f3e 2d59 56bd 2ac5 74bd cc45 473e
00000020: cadd ca3b 2069 863e b3fe b3bc 6029 303e
00000030: ea25 863f 973b 853d 4639 053e 36c6 393e
00000040: 1b36 313d 34d3 c23d ea64 423f c195 2cbe
00000050: 2c49 da3d d835 13bd 45f8 15be 98dc 393d
00000060: 1ee6 f2bd 13b0 7d3e a477 e53d 0c29 503e
00000070: 235f f43c f00e 4ebe caff aebc 160c 6d3d
00000080: 0abe 163e 890d ad3d 163e 1e3c f014 acbd
00000090: dfa5 08be ce1b 02be 6b5d 383e c5ac 45bd
000000a0: e890 723e 9c91 96be 49df a0bd 72bd 4ebd
000000b0: 71f9 58be 3589 b8be e46c 88bd e237 3c3e
000000c0: 769d 8abe dc3e 163e 569c 8ebd 9520 c53d
000000d0: 1949 b73e af22 d43e 7bda 6abe e49c 5fbe
000000e0: 6f4f cc3d 0e3b 29bd 2d21 8b3e 9508 58be
000000f0: 531f 983c bc2e 1f3e cd20 fe3d 0e1b f63a
00000100: 1b3c 74be df84 8dbd ce0d b43e cdb5 fbbd
00000110: 1923 9fbe b36d 49be 4d48 2cbe 0cb5 10be
00000120: f48a 753e 7ca5 7a3e 4625 443e 2256 973d
00000130: cc21 133f 8f1e 1bbe 0672 b03e 6782 9dbe
00000140: ec5f edbd e700 87bd fa7d 943e ee15 9cbd
00000150: 36a3 d83d b6cf 5e3e e2b0 633e 27c4 b53d
00000160: 25ef 46bd 719f 223b 55b4 093e 5f26 183d
00000170: 8911 b9be d98d 39bd 6efd a23e ff4a 8d3d
00000180: 86b7 9d3e 86bd f73d 0bba c5bd 2be0 5dbd
00000190: e8c5 e53e 12cf a13e 6aef 09bd e0ce 9b3e
000001a0: 7ca7 8a3e ba51 4a3e 7215 063e 92e2 a63e
000001b0: a38a d03d a4de 07be 4cf6 96bd bbe2 053f
000001c0: ab8c 633e 42d1 76bd 24ae b03d a113 a53c
000001d0: 54aa 753d e5e2 6dbe e374 443d f3c8 cbbd
000001e0: dd72 b5bd a579 ebbd 8752 01be a9a7 02ba
000001f0: fae6 07be aa16 c03d a0c7 c9bd ab57 09be
00000200: 3d04 9a3e a5a1 89bd 5753 a53c 252e 88be
00000210: b675 463e 2242 093e fce5 13be b17f 583e
00000220: 09ed a0bd f1a0 37be 947a cc3d db69 50be
00000230: 1987 54bf 3907 37be 70d0 b53e c18d 3f3e
00000240: 0836 92be e8eb cb3d 8d65 40bf 44af cbbd
00000250: ca2d d1be 3ed4 c6be 891b 4c3e 4d53 0e3e
00000260: 4842 8ebd 4175 5d3e 0683 db3c 4d83 4e3e
00000270: c21a 1abb 3f2a 353e a652 683c 1499 f3be
00000280: 0601 37be 98b3 fe3d 5130 123e 8ec2 6abe
00000290: 3bff 703e eaf5 9e3d 70eb 063c 7174 c2be
000002a0: ad49 eebe 0fe3 f4bd 8523 cabe 7aab f63d
000002b0: 48e6 de3d 7eff 49bd 851b 9fbd 8f38 933d
000002c0: 801f 33be 3862 6bbe 16f4 eebc 6aae 4f3e
000002d0: cc82 003e 12ea 57be 4da7 b2be dc23 e0bd
000002e0: cdce 7abe 2ccd 54be 14c4 09be bd11 493e
000002f0: 6b82 30be 4aab 813e 8e73 09bd d753 5abd
00000300: 7c96 283e 2997 023c 0681 753e cc07 f7bd
00000310: b37f ff3d d548 a33d f687 033e 9bff 91ba
00000320: c099 e9be ece0 403e 39f5 b0be 5d43 81be
00000330: 221c 0cbe 737b ed3d c50d 313e 2954 89be
00000340: f1df 103e 9798 0e3e dd8b 8f3e b401 843d
00000350: 9a36 6c3e 8cff 9c3e 47ad 07be 1f88 823d
00000360: 2a70 d43d 7535 ebbd 7063 823e a43d 0bbe
00000370: 1c9f a2bd 8c53 b9bd 315c b7be 239d 463e
00000380: 295d 293d 9dab 3cbe 8d4a 793c ea93 0bbe
00000390: 8418 1ebf 4cc9 0ebe 35e6 b4bd b289 1cbf
000003a0: 43d5 593e 79e4 0bbf d335 913e 38e6 533e
000003b0: f5d1 873c ede8 2d3e f2ea 1fbe 91b7 92be
000003c0: a54c 353e f95d 293e c803 e23d 0c81 4b3d
000003d0: 249e f13d 1e3a 2abe 7593 da3d 55fc 303e
000003e0: 3aa7 6a3d 8205 79bd bc8e b03d f980 17be
000003f0: 4ced 2bbc ed09 003e 090c 3abd d4eb d43d

actor.weight f4 [5, 128]
-0.28863832 0.17442326 0.27633968 0.2036377 -0.49378356 -0.0013883136 -0.46119308 0.25328115
-0.07353579 0.6660676 -0.55243087 -0.3452274 0.6149375 0.37715045 -0.30241218 0.2614527
-0.03979502 0.44865012 0.33968952 0.12708896 0.4584786 -0.6907472 0.5729337 -0.4691131
-0.28223076 -0.46753317 -0.016984796 -0.48746467 0.26478493 0.61466414 -0.35342303 -0.6509671
-0.5593713 0.48449567 0.06129769 0.35779512 0.22534469 -0.44943714 -0.5874737 0.5093221
-0.78462744 0.095859565 -0.8403063 0.15788074 0.60572237 0.17233162 -0.014926242 -0.24101605
0.14487551 0.6443115 0.084526636 -0.73362106 -0.19235371 0.6774943 0.4661494 0.23270665
0.44064388 0.007241302 -0.63060504 0.024559988 0.1676584 0.47860485 0.6167328 0.12336145
0.32719487 -0.06869594 0.46599877 0.023412226 0.13593352 -0.5271581 -0.10000869 0.045855448
0.30902722 0.5635973 -0.052744668 -0.5717028 0.46305397 -0.32965142 -0.20032972 0.067805864
0.6304912 0.34736332 0.18585543 0.59872395 0.5162828 0.41104892 -0.5170326 0.15517917
-0.09840844 0.19835941 -0.50790644 0.63365567 -0.2548897 -0.09177295 -0.59433836 -0.6412064
0.33467788 0.568886 0.31522876 0.51192516 0.6493666 -0.057360943 -0.5320779 -0.5292747
0.24899714 0.51328176 -0.6113015 -0.23671609 0.15722224 -0.023939112 -0.1875145 -0.6417077
0.48536682 0.4186738 0.16231936 0.009448596 0.05023937 -0.47522256 0.0026967889 0.4449117
0.21786746 -0.16675547 -0.44500265 0.6945386 0.7405446 -0.35470927 0.22906534 0.0024627678
0.38040555 -0.07224426 -0.42837828 -0.23432459 -0.44956592 0.33307886 -0.25117666 -0.4658991
0.47255218 -0.56692266 0.24721757 0.48160088 -0.21986578 -0.13738734 0.30727017 -0.24113147
0.26040053 0.2343104 -0.49519372 -0.092638485 -0.40758702 0.35605907 -0.30888063 -0.29920578
0.20582885 -0.5089578 -0.25003955 -0.47878453 -0.33381107 0.043861028 0.088715 0.41392264
0.2051114 0.5214119 -0.3779313 -0.40121454 0.4262953 0.19847502 -0.34412482 -0.25372377
0.23585767 -0.36136565 0.30930325 -0.21628432 0.103878304 -0.078897126 0.3538961 -0.5094867
0.05527327 -0.4068947 -0.07628388 -0.49012718 0.24593113 -0.25632966 -0.13073686 0.0521294
0.4139127 -0.0654672 0.34719613 -0.13867614 -0.05876683 0.4646937 0.79089564 0.1162489
0.16908833 0.04613535 0.4366197 0.14663132 -0.06561524 -0.036620487 0.097320706 -0.29614213
-0.40681887 0.42519748 0.43527785 0.5149119 -0.3656366 0.03672996 0.40411228 0.10244514
-0.09252111 -0.28843358 -0.34084252 -0.4301558 0.42691338 0.25996497 0.35240838 -0.26255888
-0.2942959 0.39276502 -0.392657 0.33150977 -0.07696228 -0.48961014 0.5096663 0.5135928
-0.28628176 -0.37737346 -0.105375886 -0.18695886 -0.41320673 -0.122049615 0.31066844 0.0031562785
-0.34229454 -0.11870431 -0.6109082 0.53513336 -0.3410921 0.15731275 -0.3501488 0.3703362
0.6957955 0.7033669 -0.2532088 -0.24933164 0.7472883 0.4214549 0.3426119 0.07243162
-0.5005201 0.37401292 0.31738138 -0.23700711 0.24614619 0.41487795 -0.39972737 -0.050280992
00000000: 67c8 93be 039c 323e 657c 8d3e 6786 503e
00000010: 33d1 fcbe 13f8 b5ba 8021 ecbe 11ae 813e
00000020: ef99 96bd 6883 2a3f 1c6c 0dbf a5c1 b0be
00000030: 8b6c 1d3f dd19 c13e c5d5 9abe 21dd 853e
00000040: 1a00 23bd 78b5 e53e c9eb ad3e 9c23 023e
00000050: b5bd ea3e cfd4 30bf c8ab 123f 982f f0be
00000060: 8d80 90be 8260 efbe b323 8bbc f894 f9be
00000070: e491 873e a15a 1d3f ddf3 b4be c8a5 26bf
00000080: f532 0fbf d10f f83e 4913 7b3d ec30 b73e
00000090: c2c0 663e a01c e6be ad64 16bf ef62 023f
000000a0: 58dd 48bf 0552 c43d 501e 57bf 7dab 213e
000000b0: 9f10 1b3f b377 303e 328d 74bc e9cc 76be
000000c0: 3f5a 143e 99f1 243f 4d1c ad3d 97ce 3bbf
000000d0: 5ff8 44be 4470 2d3f 22ab ee3e a74a 6e3e
000000e0: 139c e13e 7248 ed3b 556f 21bf 0732 c93c
000000f0: a5ae 2b3e b20b f53e 33e2 1d3f eea4 fc3d
00000100: 1686 a73e 75b0 8cbd 6497 ee3e ffca bf3c
00000110: 2832 0b3e d5f3 06bf 5bd1 ccbd ecd2 3b3d
00000120: d138 9e3e ea47 103f cb0a 58bd 1d5b 12bf
00000130: 6915 ed3e 12c8 a8be 3c23 4dbe cddd 8a3d
00000140: df67 213f 9bd9 b13e e350 3e3e f945 193f
00000150: 1c2b 043f 0175 d23e 405c 04bf 4ae7 1e3e
00000160: 5d8a c9bd bb1e 4b3e 2806 02bf 4237 223f
00000170: e780 82be 75f3 bbbd 8f26 18bf 1a26 24bf
00000180: e65a ab3e 83a2 113f aa65 a13e 870d 033f
00000190: e43c 263f 4ff3 6abd 4236 08bf 8c7e 07bf
000001a0: 1bf9 7e3e 6f66 033f 417e 1cbf b465 72be
000001b0: defe 203e f51b c4bc cd03 40be f546 24bf
000001c0: 0082 f83e 6a5c d63e 0c37 263e 49ce 1a3c
000001d0: ccc7 4d3d 5f50 f3be 9cbc 303b 77cb e33e
000001e0: a618 5f3e f2c1 2abe 63d7 e3be 48cd 313f
000001f0: 5594 3d3f 749c b5be 1b90 6a3e 6366 213b
00000200: 84c4 c23e ccf4 93bd 6654 dbbe c9f2 6fbe
00000210: 812d e6be 5089 aa3e 3a9a 80be 548a eebe
00000220: 5cf2 f13e d821 11bf 9a26 7d3e 6494 f63e
00000230: 7f24 61be 44af 0cbe 8452 9d3e 2beb 76be
00000240: 3853 853e 11ef 6f3e 088a fdbe 3fb9 bdbd
00000250: 3faf d0be 604d b63e 9a25 9ebe 8031 99be
00000260: ccc4 523e 0f4b 02bf 2f05 80be 3f23 f5be
00000270: 49e9 aabe 9fa7 333d 36b0 b53d abed d33e
00000280: b908 523e 407b 053f 3680 c1be fe6b cdbe
00000290: 6143 da3e 093d 4b3e 2131 b0be 15e8 81be
000002a0: ac84 713e eb04 b9be ff5c 9e3e a379 5dbe
000002b0: 26be d43d d194 a1bd df31 b53e b86d 02bf
000002c0: 3966 623d 8154 d0be b93a 9cbd f3f1 fabe
000002d0: 5fd5 7b3e a43d 83be e2df 05be a385 553d
000002e0: 5eec d33e ab13 86bd b1c3 b13e 1e01 0ebe
000002f0: 7db5 70bd 55ec ed3e 2378 4a3f e713 ee3d
00000300: 7e25 2d3e 6cf8 3c3d 9e8c df3e 8526 163e
00000310: 4861 86bd 5dff 15bd 1450 c73d f19f 97be
00000320: 904a d0be 7cb3 d93e bddc de3e 44d1 033f
00000330: b834 bbbe 2872 163d cee7 ce3e c2ce d13d
00000340: b57b bdbd 91ad 93be e982 aebe 623d dcbe
00000350: 6494 da3e 211a 853e df6e b43e 1e6e 86be
00000360: f4ad 96be 7f18 c93e 570a c9be a6bb a93e
00000370: 669e 9dbd 2eae fabe 7e79 023f d17a 033f
00000380: 8693 92be 1837 c1be 50cf d7bd 2572 3fbe
00000390: d58f d3be 26f5 f9bd ef0f 9f3e 91d9 4e3b
000003a0: 3b41 afbe 3f1b f3bd 7b64 1cbf 80fe 083f
000003b0: a0a3 aebe 9816 213e b446 b3be b59c bd3e
000003c0: a71f 323f da0f 343f 95a4 81be cb50 7fbe
000003d0: 494e 3f3f f0c8 d73e d46a af3e 0757 943d
000003e0: 1622 00bf 9f7e bf3e d07f a23e feb1 72be
000003f0: bf0d 7c3e e26a d43e 11a9 ccbe 71f3 4dbd

actor.bias f4 [5]
0.5322302 0.38513124 0.29852235 0.3006823 0.52433604
00000000: 3d40 083f ec2f c53e ecd7 983e 08f3 993e
00000010: e33a 063f

critic.weight f4 [1, 128]
0.07127196 -0.065435 0.012158461 -0.045948762 -0.1939921 0.1717865 -0.08702936 -0.18597358
0.4553518 0.13861477 0.13484256 0.11709576 0.13554272 -0.07810149 0.027294882 -0.13252981
-0.12776569 0.016318457 0.1881516 -0.27986524 -0.017579922 -0.022000462 -0.035382215 -0.19971216
0.13900639 -0.08969041 -0.018986199 -0.14435397 -0.15579768 -0.057482265 -0.23215558 -0.035313778
-0.17717639 0.11937492 0.0793421 0.078669116 -0.047436237 -0.06861907 -0.031245437 0.15385893
0.10405212 -0.15556395 0.14404456 -0.06462956 -0.073724225 -0.0030246412 -0.117909774 -0.0028422824
-0.08815476 -0.06434152 -0.016786568 0.010000989 0.12325324 -0.012174524 -0.06438851 0.15228803
0.045544352 0.06060907 0.037945736 0.6540846 -0.035513494 0.053987157 0.15445524 0.21795014
0.21837613 0.06674533 0.21762615 -0.06801805 0.2926064 0.24298237 0.05072914 -0.0939737
0.00523957 0.18874201 0.110663556 -0.0840285 0.06820578 -0.39202428 0.07141052 -0.024715867
0.44909146 -0.14139563 -0.17356963 -0.16259253 0.07250695 -0.0042082476 -0.3399402 -0.11551315
-0.18585515 -0.049174782 -0.07657513 0.080127776 -0.11867429 -0.16359505 0.046423912 0.20887609
-0.12301763 0.013498764 -0.0008381229 -0.04511564 -0.026113514 -0.38206306 0.2508854 -0.18824771
0.00450558 -0.032455068 -0.15673883 0.08476626 -0.19895901 0.20407867 -0.08255041 0.03160926
0.22339498 0.015302379 -0.033469558 0.057221774 -0.07991745 -0.022923805 -0.02294802 0.28210327
-0.10096568 -0.039401904 0.14269277 -0.083889134 -0.41080463 0.075110465 -0.098752074 -0.07447073
00000000: 09f7 913d c902 86bd 4834 473c c534 3cbd
00000010: dda5 46be cde8 2f3e 733c b2bd dc6f 3ebe
00000020: df23 e93e 08f1 0d3e 2b14 0a3e e7cf ef3d
00000030: b6cb 0a3e adf3 9fbd 8499 df3c e5b5 07be
00000040: 02d5 02be 49ae 853c d0aa 403e 7f4a 8fbe
00000050: c503 90bc 503a b4bc f1ec 10bd 5881 4cbe
00000060: b157 0e3e 9baf b7bd f288 9bbc 87d1 13be
00000070: 6d89 1fbe 8672 6bbd 31ba 6dbe 2ea5 10bd
00000080: ba6d 35be d77a f43d 1c7e a23d 461d a13d
00000090: 804c 42bd 2888 8cbd 6ef6 ffbc 328d 1d3e
000000a0: 4719 d53d 284c 1fbe 6b80 133e 815c 84bd
000000b0: bafc 96bd 0f39 46bb ae7a f1bd 9645 3abb
000000c0: 7c8a b4bd 7dc5 83bd fc83 89bc 30db 233c
000000d0: 326c fc3d a877 47bc 20de 83bd 65f1 1b3e
000000e0: b78c 3a3d 3741 783d fd6c 1b3d 1772 273f
000000f0: 9976 11bd a321 5d3d 8429 1e3e 522e 5f3e
00000100: fe9d 5f3e c7b1 883d 64d9 5e3e 0c4d 8bbd
00000110: 82d0 953e 5fd0 783e 5cc9 4f3d 4975 c0bd
00000120: b3b0 ab3b 9645 413e 93a3 e23d 2217 acbd
00000130: 79af 8b3d 68b7 c8be ae3f 923d ee78 cabc
00000140: 51ef e53e 04ca 10be 3dbc 31be a87e 26be
00000150: 867e 943d 57e5 89bb a40c aebe 2992 ecbd
00000160: d050 3ebe 7f6b 49bd 6cd3 9cbd 081a a43d
00000170: 820b f3bd 7685 27be 0027 3e3d 9de3 553e
00000180: abf0 fbbd eb29 5d3c 7ab5 5bba 2dcb 38bd
00000190: 02ec d5bc c59d c3be 0d74 803e 02c4 40be
000001a0: 8ba3 933b 9bef 04bd 2580 20be ef99 ad3d
000001b0: e9bb 4bbe 00fa 503e 3010 a9bd b678 013d
000001c0: a7c1 643e d4b6 7a3c 6017 09bd 6161 6a3d
000001d0: c3ab a3bd b4ca bbbc 7cfd bbbc d76f 903e
000001e0: 18c7 cebd e463 21bd 0e1e 123e 11ce abbd
000001f0: fc54 d2be 84d3 993d 873e cabd 1c84 98bd
